TD3/models/actor_eps100_veh100_10e-2_8e-2_0.7_-2.pth (torch, 275287 bytes, 5 tensors)

fc1.weight f4 [256, 8]
0.21481957 -0.010812649 0.37326065 -0.19636531 -0.01702721 -0.0139496345 0.70802397 0.3552073
-0.223705 -0.10026561 0.106211826 0.16821456 0.16344571 -0.0069501316 0.79481655 0.031979233
0.42827693 0.06505776 -0.051509533 0.34644333 -0.026746945 -0.014722117 0.21799216 -0.35570577
0.3006806 0.012441096 -0.46473235 0.111192636 -0.011730164 -0.030710476 -0.21556176 0.502803
0.03438622 -0.25213292 0.22241613 -0.4380451 0.107704684 -0.0078245625 1.5715297 0.07514017
-0.13305365 0.47794104 -0.6510389 0.1511672 0.06021136 -0.19327949 -0.5185235 0.5383153
0.76352084 -0.097296566 0.15384655 0.23168263 0.08485877 -0.14729658 1.9075223 -0.44779494
0.39749432 -0.019163743 0.29828495 -0.22989616 -0.07048427 0.20149603 -0.44390747 0.13925807
-0.106701106 0.42449698 -0.15041478 -0.1948541 0.096108496 0.105119586 -2.3224895 -0.108409435
-0.09913153 0.23346391 -0.2861869 -0.05814565 0.0022181254 -0.018448412 -0.07185344 -0.07238328
-0.34371537 -0.06392817 0.79407364 -0.22763088 0.035953164 0.026533198 0.69698447 -0.08806538
-0.5480394 -0.23656695 0.32715693 0.42806637 -0.07351223 -0.06468093 -0.38472858 -0.14780523
-0.012891381 0.14166404 0.34496468 0.121968746 -0.008832352 -0.027559549 1.2156345 0.55604756
-0.6437861 -0.017733522 -0.30770877 -0.22693573 -0.1866987 -0.0021123337 0.1419968 0.24400736
-0.13059677 -0.21190114 0.864281 -0.044023737 0.035304926 0.04312349 2.2526484 -0.17460996
-0.44948807 0.030509247 0.1381736 0.095396474 0.17547582 0.1355281 0.27281848 -0.5965536
0.10703818 -0.106591575 -0.72517204 0.23792486 0.2539522 -0.25018218 -0.30854368 0.025638219
0.61781085 0.10984527 0.112915464 -0.28735065 -0.08100727 -0.03719106 -0.7764536 0.22535446
-0.5373774 -0.15235917 -0.41307136 -0.0621502 0.040136088 0.048298135 -1.2138917 -0.25156957
0.065764256 -0.09553356 0.17382275 -0.3174221 0.14828147 0.007389824 0.1441337 0.0140444925
0.0909655 0.029920785 -0.32337558 -0.14560966 0.010473282 0.19527437 -1.7937958 0.21667098
0.014426007 0.17765723 0.16942437 0.30766916 -0.019402532 -0.056236517 -0.2196341 0.23627006
0.35262302 0.09867616 -0.3438909 -0.44231215 0.016811995 0.23265316 -0.104042724 0.11017938
0.26604927 -0.11329422 1.1101049 0.19915299 -0.012273987 -0.008358559 1.8916131 -0.016693931
0.13148977 -0.29832685 0.44862875 -0.083582185 -0.10618481 0.13257211 -0.8676891 -0.34132966
0.2546027 -0.08980735 0.13938266 -0.32751516 0.04482414 0.22254159 1.7365185 -0.24852686
0.2249769 0.37940073 -0.1296621 -0.08743673 0.079036206 0.013031533 1.0244304 0.28350708
-0.25842735 0.084344536 -0.26934707 -0.20159206 -0.023004306 0.12866075 0.29046535 -0.059202302
-0.18847524 -0.22675537 -0.30578315 -0.037629887 -0.0207722 0.20659289 -1.6544704 -0.030299408
0.2513464 0.053919338 -0.3679945 0.24947816 0.06991132 -0.13789321 -0.73745644 0.1899903
0.014048245 0.026170421 0.077295616 -0.11173924 0.17213956 -0.014412645 -1.4688747 0.12225328
-0.016004173 -0.19205491 -0.116206065 -0.020873941 0.0218673 0.037243012 -1.9403368 0.23185165
00000000: a9f9 5b3e 8927 31bc 051c bf3e fd13 49be
00000010: a67c 8bbc 028d 64bc 0f41 353f bbdd b53e
00000020: ec12 65be 0e58 cdbd 9685 d93d 7040 2c3e
00000030: 505e 273e eebd e3bb 1979 4b3f a8fc 023d
00000040: 1d47 db3e 013d 853d a9fb 52bd 0561 b13e
00000050: 691c dbbc 0935 71bc 5639 5f3e 111f b6be
00000060: cff2 993e bdd5 4b3c 66f1 edbe f7b8 e33d
00000070: e02f 40bc 8994 fbbc 39bc 5cbe b3b7 003f
00000080: 91d8 0c3d 9117 81be 0ec1 633e 7347 e0be
00000090: 4694 dc3d 9832 00bc e327 c93f 17e3 993d
000000a0: 373f 08be b0b4 f43e 7caa 26bf 93cb 1a3e
000000b0: 30a0 763d 0feb 45be f5bd 04bf 08cf 093f
000000c0: 1a76 433f 6c43 c7bd f389 1d3e 363e 6d3e
000000d0: 6fca ad3d ead4 16be b129 f43f 6145 e5be
000000e0: 6084 cb3e 48fd 9cbc ceb8 983e e669 6bbe
000000f0: 0f5a 90bd fa54 4e3e d747 e3be ab99 0e3e
00000100: 1c86 dabd ab57 d93e 5506 1abe d587 47be
00000110: 88d4 c43d f048 d73d aba3 14c0 c405 debd
00000120: 7905 cbbd 2a11 6f3e 1787 92be 222a 6ebd
00000130: f85d 113b 2021 97bc e527 93bd af3d 94bd
00000140: 76fb afbe c6ec 82bd 6948 4b3f 1218 69be
00000150: a043 133d 265c d93c 936d 323f 9f5b b4bd
00000160: 4f4c 0cbf 9b3e 72be 1d81 a73e 842b db3e
00000170: 948d 96bd 6f77 84bd 25fb c4be 415a 17be
00000180: 5f36 53bc 6110 113e 369f b03e c0ca f93d
00000190: 92b5 10bc 90c4 e1bc e999 9b3f 2259 0e3f
000001a0: 2acf 24bf e445 91bc 018c 9dbe d761 68be
000001b0: f22d 3fbe 146f 0abb 9c67 113e 11dd 793e
000001c0: 29bb 05be 9dfc 58be 8541 5d3f 3c52 34bd
000001d0: e69b 103d 42a2 303d 642b 1040 f4cc 32be
000001e0: 4d23 e6be 87ee f93c 617d 0d3e 3a5f c33d
000001f0: efaf 333e e1c7 0a3e ddae 8b3e bdb7 18bf
00000200: d536 db3d af4c dabd e0a4 39bf 93a2 733e
00000210: 0606 823e e117 80be 70f9 9dbe 3e07 d23c
00000220: da28 1e3f 8ff6 e03d 3940 e73d a01f 93be
00000230: 24e7 a5bd a755 18bd aac5 46bf 52c3 663e
00000240: 9191 09bf 0b04 1cbe 177e d3be 3591 7ebd
00000250: bd65 243d 44d4 453d ce60 9bbf bacd 80be
00000260: 69af 863d 19a7 c3bd 97fe 313e 2685 a2be
00000270: 19d7 173e 5626 f23b c997 133e df1a 663c
00000280: 1f4c ba3d 6f1c f53c 7c91 a5be b31a 15be
00000290: 2198 2b3c 01f6 473e 1a9b e5bf ffde 5d3e
000002a0: 0f5b 6c3c c7eb 353e 957d 2d3e d086 9d3e
000002b0: 0ff2 9ebc 4358 66bd c3e7 60be c7f0 713e
000002c0: 018b b43e ba16 ca3d 7812 b0be bd76 e2be
000002d0: 4fb9 893c a13c 6e3e 5a14 d5bd baa5 e13d
000002e0: 9c37 883e cd06 e8bd eb17 8e3f c3ee 4b3e
000002f0: d518 49bc 56f2 08bc 6120 f23f b6c1 88bc
00000300: 41a5 063e 4cbe 98be abb2 e53e 232d abbd
00000310: 6c77 d9bd fcc0 073e df20 5ebf c3c2 aebe
00000320: 495b 823e eaec b7bd 54ba 0e3e 11b0 a7be
00000330: 8499 373d f1e1 633e 3d46 de3f d37d 7ebe
00000340: 5860 663e d040 c23e 24c6 04be 0712 b3bd
00000350: bcdd a13d 3682 553c 8920 833f d727 913e
00000360: 9750 84be d4bc ac3d dce7 89be 266e 4ebe
00000370: 8773 bcbc a5bf 033e e0b7 943e 1d7e 72bd
00000380: a7ff 40be 8f32 68be 9c8f 9cbe cc21 1abd
00000390: 762a aabc 168d 533e b0c5 d3bf 7736 f8bc
000003a0: 7ab0 803e 86da 5c3d c669 bcbe 3477 7f3e
000003b0: ab2d 8f3d e133 0dbe f2c9 3cbf d18c 423e
000003c0: 9c2a 663c 5a63 d63c 2a4d 9e3d 8bd7 e4bd
000003d0: 5a45 303e 0423 6cbc 1604 bcbf ed5f fa3d
000003e0: 2f1b 83bc 0baa 44be 72fd edbd d4ff aabc
000003f0: 0d23 b33c 218c 183d f55c f8bf 856a 6d3e

fc1.bias f4 [256]
0.0067937225 0.013375582 -0.00973274 0.14826526 0.19604373 -0.11854045 0.10250407 0.35657936
-0.0760146 0.091862984 0.3985993 -0.08714187 0.28946528 -0.08753928 0.38688728 -0.33983508
0.15463832 0.57507795 -0.47345138 -0.12916136 -0.10223857 0.11904447 -0.5109793 0.701386
0.054663498 -0.13023518 0.20941685 -0.18212321 -0.33691412 0.08667595 -0.12758912 -0.0011703175
-0.27355567 -0.2791223 0.14129026 0.05274015 -0.3962768 -0.21464296 1.1448976 -0.0689465
-0.04419697 0.35783884 0.79675716 -0.028466508 0.07212549 -0.082145944 0.13854572 0.12563096
-0.18889758 0.4660045 0.37927565 -0.09069546 0.19278455 -0.24335726 -0.37727737 -0.08294544
0.311051 0.2574663 0.11622181 1.312966 0.02105812 0.23319457 0.049142133 -0.1127428
-0.0879715 0.24528305 -0.15304308 0.3527042 -0.4260476 0.2313109 -0.2753964 0.18421967
0.124763384 0.6646545 0.7314707 -0.22273107 -0.26694295 0.61678076 0.25512415 -0.011960591
-0.22661659 0.4171063 0.32775253 0.30484548 -0.49261302 0.045350872 -0.15818383 0.28920475
-0.028673986 -0.24764276 0.46506816 0.14121215 -0.33623415 -0.029094141 -0.13922149 0.26465228
0.38463154 -0.07160668 -0.5865064 0.8214054 -0.06502853 -0.3344748 0.12863348 0.107460044
-0.42326298 -0.032494597 0.1282912 -0.70419437 0.12964942 -0.17633916 0.29490024 -0.2789165
-0.023172611 -0.25322118 0.2760944 -0.23799388 0.5487461 -0.064674795 0.14036474 0.44258332
-0.46719694 0.022348505 -0.38915282 -0.5176383 -0.1322165 0.23502511 0.686963 0.5366836
-0.057996836 0.25799695 -0.4008523 -0.14568447 -0.39769974 0.5375225 -0.065949306 0.3912032
0.7034952 0.49866292 0.34007427 0.060231432 -0.08459816 -0.042213384 -0.08201601 -0.03609624
0.39690062 -0.25231087 0.112729244 0.30341887 0.790916 -0.07781611 -0.5253912 0.37623855
0.46190485 0.61132896 0.30357638 -0.23630661 -0.5191012 -0.33274898 0.7257206 0.52565104
0.08127908 -0.3192105 0.49336424 0.25058165 0.13588248 0.04311702 -0.21096858 -0.078434594
-0.007872946 0.04522813 -0.09123123 -0.80517715 -0.15950233 0.287967 0.34335038 0.18706472
-0.03302917 -0.039925184 0.47292784 0.12924416 0.21741293 -0.16861853 -0.046763543 -0.099143624
0.37792695 0.5431221 0.13932435 -0.28904334 -0.18945995 -0.35922456 -0.35614723 -0.33339268
-0.012722869 0.23029119 -0.013683328 -0.14046359 0.42613918 0.0026255143 0.6185085 0.6460977
0.35274503 0.30425212 0.2608177 -0.18571149 -0.058035247 -0.36460906 -0.1598785 -0.17709674
0.18738924 -0.3331841 -0.1872205 -0.06430242 0.32574627 -1.1014737 -0.1994398 -0.16309111
-0.36506942 -0.3387629 -0.07634514 0.30574867 0.26780117 -0.23280773 -0.5477362 -0.26588264
0.39961192 -0.04688102 0.1225416 -0.14405467 0.0059959856 -0.3010988 -0.20491003 -0.25412047
0.08792856 -0.03745011 -0.169985 -0.21326599 -0.22516881 0.29864046 0.08698562 0.2645107
0.42177537 -0.29462135 -0.55413276 -0.18385647 -0.3273528 -0.45763487 -0.6784717 0.28757897
0.18510135 -0.34399864 0.2422571 -0.33574075 0.016073108 -0.3251052 -0.1717577 -0.30003402
00000000: e09d de3b 4225 5b3c 1276 1fbc d9d2 173e
00000010: b0bf 483e 56c5 f2bd a7ed d13d 9291 b63e
00000020: 8bad 9bbd a922 bc3d 3515 cc3e 7077 b2bd
00000030: cb34 943e cb47 b3bd 1716 c63e ddfe adbe
00000040: 8259 1e3e 4f38 133f 3868 f2be e042 04be
00000050: 7562 d1bd 96cd f33d 8acf 02bf 088e 333f
00000060: d5e6 5f3d 5f5c 05be 5f71 563e 827e 3abe
00000070: 0280 acbe 2983 b13d b9a6 02be 5765 99ba
00000080: 7d0f 8cbe 1ee9 8ebe 65ae 103e 0e06 583d
00000090: cbe4 cabe 5dcb 5bbe 018c 923f d333 8dbd
000000a0: e207 35bd a736 b73e 47f8 4b3f 9832 e9bc
000000b0: 87b6 933d 223c a8bd eede 0d3e 67a5 003e
000000c0: 5e6e 41be 2498 ee3e 6b30 c23e 8bbe b9bd
000000d0: 5069 453e a532 79be 802a c1be 4ddf a9bd
000000e0: 1442 9f3e 9fd2 833e b305 ee3d 450f a83f
000000f0: 1482 ac3c 8fca 6e3e 4349 493d b2e5 e6bd
00000100: 672a b4bd 7b2b 7b3e 53b7 1cbe a595 b43e
00000110: e922 dabe c4dc 6c3e c200 8dbe 15a4 3c3e
00000120: f283 ff3d cc26 2a3f aa41 3b3f 9d13 64be
00000130: bfac 88be 58e5 1d3f a29f 823e 5bf6 43bc
00000140: 2e0e 68be f58e d53e 2ecf a73e b514 9c3e
00000150: c637 fcbe d6c1 393d f1fa 21be a512 943e
00000160: b5e5 eabc 1096 7dbe 6a1d ee3e eb99 103e
00000170: e226 acbe d656 eebc 1490 0ebe 8180 873e
00000180: 6dee c43e 86a6 92bd 4925 16bf a047 523f
00000190: ae2d 85bd 4840 abbe 7fb8 033e 0314 dc3d
000001a0: edb5 d8be 0e19 05bd c55e 033e 1546 34bf
000001b0: d1c2 043e 4192 34be 2afd 963e 25ce 8ebe
000001c0: 7dd4 bdbc 35a6 81be 3f5c 8d3e abb4 73be
000001d0: a07a 0c3f 3874 84bd c6bb 0f3e 489a e23e
000001e0: 7034 efbe 3614 b73c 0a3f c7be f283 04bf
000001f0: c363 07be 6caa 703e cfdc 2f3f 1964 093f
00000200: 178e 6dbd 2d18 843e 833c cdbe 4f2e 15be
00000210: 4d9f cbbe 139b 093f 6e10 87bd c94b c83e
00000220: 4318 343f bf50 ff3e 371e ae3e 3cb5 763d
00000230: cd41 adbd f1e7 2cbd 03f8 a7bd a7d9 13bd
00000240: 8f36 cb3e e42e 81be 97de e63d b859 9b3e
00000250: 7979 4a3f 0d5e 9fbd 0a80 06bf 57a2 c03e
00000260: cb7e ec3e 0e80 1c3f 5d6e 9b3e 5cfa 71be
00000270: d1e3 04bf 135e aabe d3c8 393f 1191 063f
00000280: a575 a63d 8f6f a3be 3d9a fc3e 3d4c 803e
00000290: c724 0b3e 799b 303d 2608 58be 51a2 a0bd
000002a0: 87fd 00bc 2241 393d 70d7 babd 1720 4ebf
000002b0: 9454 23be 6970 933e 9fcb af3e e58d 3f3e
000002c0: 9849 07bd 9788 23bd 9923 f23e 9558 043e
000002d0: 7fa1 5e3e 56aa 2cbe 218b 3fbd d00b cbbd
000002e0: a47f c13e 0d0a 0b3f 0bab 0e3e 7dfd 93be
000002f0: ca01 42be 48ec b7be ee58 b6be 72b2 aabe
00000300: 9573 50bc 74d1 6b3e 0a30 60bc b0d5 0fbe
00000310: ea2e da3e d210 2c3b 9356 1e3f a966 253f
00000320: ff9a b43e efc6 9b3e e689 853e 272b 3ebe
00000330: 5eb6 6dbd 0aae babe 31b7 23be d958 35be
00000340: f7e2 3f3e 1b97 aabe bbb6 3fbe fdb0 83bd
00000350: 37c8 a63e 17fd 8cbf f239 4cbe 5b01 27be
00000360: 61ea babe 5572 adbe d75a 9cbd 178b 9c3e
00000370: 3c1d 893e 2665 6ebe 7138 0cbf c521 88be
00000380: ef99 cc3e 5006 40bd 17f7 fa3d 1183 13be
00000390: f979 c43b 9f29 9abe efd3 51be 141c 82be
000003a0: e413 b43d 4965 19bd 8c10 2ebe 6662 5abe
000003b0: a792 66be 67e7 983e 8425 b23d f26d 873e
000003c0: f1f2 d73e 9cd8 96be a5db 0dbf df44 3cbe
000003d0: c99a a7be 1e4f eabe 52b0 2dbf 8d3d 933e
000003e0: 358b 3d3e 9720 b0be 3f12 783e 36e6 abbe
000003f0: c0ab 833c 3074 a6be 40e1 2fbe 0f9e 99be

fc2.weight f4 [256, 256]
-0.028508723 0.03350462 -0.045117993 -0.083302446 0.017773332 -0.0664207 0.022948308 -0.05491706
0.02756635 -0.034019616 -0.012656562 -0.05870621 0.052788936 -0.07076272 0.027013496 -0.05555165
-0.0020927745 -0.017827842 0.05343929 0.037062492 0.01973591 0.013188323 0.037662547 -0.070901096
-0.05910977 -0.050861377 -0.06875255 -0.050953817 -0.030178105 -0.015858412 -0.0046571353 0.061764184
-0.011635039 -0.031986263 -0.01894564 -0.0059374147 0.03612503 -0.037380464 -0.061473057 0.011715105
-0.021283027 0.05160473 0.023076696 0.035092395 0.013259244 0.0035253514 -0.016718173 -0.031346824
0.0071979263 0.00771438 -0.061928578 -0.04456793 -0.039202936 0.057157617 0.011792699 0.007708102
-0.046548307 -0.089018516 -0.078251325 -0.012906947 -0.022700978 -0.0528882 -0.038930327 0.0316085
-0.10765198 0.0076637254 -0.07673017 -0.0073838653 -0.059381627 -0.04993548 0.021042265 -0.034054246
-0.012397127 -0.0522534 0.0071674716 0.054797884 0.0040982626 -0.057549052 -0.043383807 -0.011553551
-0.007765924 -0.044812478 0.00944146 -0.084329754 -0.067814395 -0.042488508 -0.025288325 -0.026773853
-0.027281856 0.043775376 -0.15661791 0.01605666 -0.035490274 0.034467846 0.015097414 0.033527035
-0.053073402 -0.0071473448 -0.025630932 -0.050423887 -0.06932788 0.009740901 0.014134147 -0.02278861
0.042840898 0.047384802 -0.05001427 -0.050126962 -0.015349875 0.034058817 0.045496866 0.015057959
0.010756202 0.0469039 -0.03193077 -0.057576142 -0.03363978 -0.015200503 0.008898927 0.009197978
-0.025383031 -0.07095558 0.00846142 -0.0417407 -0.018079711 -0.04995017 -0.024475005 0.024075847
0.0037948159 0.060204744 0.030573985 0.12206014 -0.024765436 0.0122938305 0.048363708 -0.0033630042
0.036484905 0.029113902 -0.045100294 -0.0017156166 0.008030236 -0.01245467 -0.10674017 0.04896356
-0.01179611 -0.027698047 0.0065730573 -0.018760204 0.0264678 0.03955931 -0.091364615 -0.027239954
-0.05912734 0.049076937 0.029297762 0.03921819 -0.05495566 0.05045131 -0.037093695 -0.028412303
0.031103637 -0.0009276569 0.05207912 -0.033086244 0.021319669 -0.054207884 -0.032533046 0.017768886
-0.053777713 0.027213303 -0.016279196 0.04412452 -0.08307495 0.034486797 -0.04392977 0.031563487
-0.025550663 -0.026507223 -0.061403602 0.0359846 -0.027054004 0.017637983 -0.075975604 -0.061163988
0.022552855 -0.07261659 0.021062514 -0.02801597 0.03447278 -0.07583086 0.045196977 -0.10765693
-0.042056292 -0.04722126 -0.064134315 -0.071623415 0.043918002 -0.040714517 -0.050850473 0.019886931
0.0056789145 0.0012185961 -0.04804572 -0.001775616 -0.07420549 -0.022996545 -0.04780662 0.003017523
-0.0003629805 0.038135402 0.03742033 0.027646918 0.012870812 0.0016215701 -0.021000376 -0.13407488
-0.029592862 0.022620913 -0.019926812 0.036040492 -0.052564856 0.023820298 0.0009332971 -0.04904631
0.029761912 0.02208077 0.031753674 0.02170472 0.028049573 -0.03947886 -0.030627107 0.009680161
-0.025599204 -0.005419632 0.04405717 -0.021711666 0.028319156 0.0493231 -0.048075832 -0.058252484
-0.021474054 0.0038732495 0.02871101 -0.072529055 0.011428418 -0.0655413 0.02447715 -0.0028819405
0.022060327 -0.0036315727 0.0067443578 -0.023547968 -0.054668028 0.007263719 -0.030374246 0.024254033
00000000: 208b e9bc 243c 093d a5cd 38bd 799a aabd
00000010: 6199 913c 9307 88bd 17fe bb3c b6f0 60bd
00000020: d3d2 e13c 2758 0bbd 785d 4fbc ec75 70bd
00000030: 3639 583d 0cec 90bd 684b dd3c 208a 63bd
00000040: ee26 09bb b20b 92bc 28e3 5a3d d7ce 173d
00000050: 34ad a13c d613 583c 0b44 1a3d 9834 91bd
00000060: 161d 72bd 0554 50bd 23ce 8cbd f3b4 50bd
00000070: 1338 f7bc 80e9 81bc e29a 98bb 71fc 7c3d
00000080: e4a0 3ebc 0704 03bd e333 9bbc a58e c2bb
00000090: d7f7 133d 421c 19bd 2ccb 7bbd b6f0 3f3c
000000a0: be59 aebc 7b5f 533d 570b bd3c 0bbd 0f3d
000000b0: 4d3d 593c 9509 673b 8df4 88bc 8765 00bd
000000c0: 95dc eb3b e9c8 fc3b d2a8 7dbd dd8c 36bd
000000d0: 4293 20bd 1b1e 6a3d 2a36 413c 3f94 fc3b
000000e0: 70a9 3ebd 574f b6bd 3b42 a0bd a977 53bc
000000f0: 67f7 b9bc 4ca1 58bd 6875 1fbd ea77 013d
00000100: a478 dcbd fd1f fb3b b524 9dbd 5af4 f1bb
00000110: 263a 73bd 2589 4cbd d460 ac3c 777c 0bbd
00000120: 521d 4bbc a907 56bd 1cdd ea3b bf73 603d
00000130: b84a 863b 8eb8 6bbd 38b3 31bd 1b4b 3dbc
00000140: 4b79 febb 4a8d 37bd 5ab0 1a3c 14b5 acbd
00000150: 46e2 8abd 6e08 2ebd 7629 cfbc d754 dbbc
00000160: 337e dfbc cf4d 333d 7260 20be 4289 833c
00000170: 405e 11bd 282e 0d3d 255b 773c a553 093d
00000180: 7f63 59bd 4634 eabb f6f7 d1bc 4789 4ebd
00000190: c7fb 8dbd 4d98 1f3c e992 673c 2eaf babc
000001a0: f079 2f3d 9116 423d c3db 4cbd ee51 4dbd
000001b0: 0b7e 7bbc 4281 0b3d ec5a 3a3d a8b5 763c
000001c0: c83a 303c 4e1e 403d d7c9 02bd f6d4 6bbd
000001d0: dec9 09bd 880b 79bc cecc 113c 1eb3 163c
000001e0: 13f0 cfbc 2951 91bd c5a1 0a3c 4cf8 2abd
000001f0: e71b 94bc 8d98 4cbd ce7f c8bc b63a c53c
00000200: 72b2 783b 4099 763d 4b76 fa3c abfa f93d
00000210: e2e0 cabc 106c 493c 0619 463d d965 5cbb
00000220: 3271 153d 4780 ee3c 16bb 38bd 8ade e0ba
00000230: 4091 033c ac0e 4cbc 979a dabd 048e 483d
00000240: 7944 41bc 04e7 e2bc cd62 d73b 00af 99bc
00000250: 00d3 d83c f108 223d 5f1d bbbd 5326 dfbc
00000260: 822f 72bd e604 493d dc01 f03c 41a3 203d
00000270: 3019 61bd 08a6 4e3d 8fef 17bd ebc0 e8bc
00000280: 0ecd fe3c 002e 73ba ea50 553d 7185 07bd
00000290: 96a6 ae3c 1609 5ebd 5f41 05bd 0e90 913c
000002a0: 0546 5cbd 6fee de3c f35b 85bc eabb 343d
000002b0: 3323 aabd 0742 0d3d b4ef 33bd b748 013d
000002c0: a04f d1bc ad25 d9bc 5882 7bbd 9764 133d
000002d0: 5ca0 ddbc 887d 903c 1999 9bbd 1787 7abd
000002e0: c4c0 b83c 02b8 94bd 4b8b ac3c bf81 e5bc
000002f0: 5433 0d3d 364d 9bbd 7720 393d 3d7b dcbd
00000300: 3843 2cbd 146b 41bd da58 83bd 4caf 92bd
00000310: 5de3 333d 44c4 26bd 9648 50bd ebe9 a23c
00000320: 3016 ba3b 4db9 9f3a 97cb 44bd c9bb e8ba
00000330: 0cf9 97bd 4063 bcbc e0d0 43bd a3c1 453b
00000340: 6b4e beb9 de33 1c3d 0f46 193d ca7b e23c
00000350: 19e0 523c dd8a d43a fb08 acbc ed4a 09be
00000360: bb6c f2bc 7e4f b93c 8e3d a3bc 329f 133d
00000370: 3f4e 57bd c922 c33c 82a8 743a c9e4 48bd
00000380: 41cf f33c bbe2 b43c 2410 023d 19ce b13c
00000390: 38c8 e53c 96b4 21bd b3e5 fabc 8a99 1e3c
000003a0: 6cb5 d1bc 2b97 b1bb 4b75 343d aadc b1bc
000003b0: 93fd e73c 0507 4a3d 2aeb 44bd 289a 6ebd
000003c0: 5bea afbc 58d6 7d3b 5a33 eb3c 1d8a 94bd
000003d0: 423e 3b3c 843a 86bd 4e84 c83c f0de 3cbb
000003e0: dcb7 b43c aeff 6dbb c6ff dc3b abe7 c0bc
000003f0: 95eb 5fbd 7e04 ee3b 69d3 f8bc 65b0 c63c

fc2.bias f4 [256]
-0.0035280765 -0.06391991 -0.0074377414 -0.009542354 0.0007900598 0.034444533 -0.12790856 -0.039838508
-0.18378958 0.36094055 -0.009304486 0.1464811 0.017965754 0.22689678 0.21478654 -0.057932984
-0.016934162 0.508118 0.09119879 0.10922077 -0.021660924 0.29192498 0.024176631 -0.046574008
-0.058716595 0.21967158 0.009739072 0.08898469 -0.38011366 -0.013442 -0.17872018 -0.11406928
-0.005473617 -0.08570674 0.05817275 -0.10385994 0.21783039 0.19364725 0.017906958 0.1201981
-0.021624546 -0.090251364 -0.13331468 -0.12021608 -0.008301708 0.06541945 0.03277598 -0.034125835
0.115047544 -0.0025539172 -0.0065123956 0.015492806 0.118846685 0.034669098 -0.2569511 -0.02472764
-0.037099756 0.009745835 0.02915096 0.17345573 -0.030339377 -0.10810654 0.12448845 0.12379208
-0.0360984 0.23114564 0.018217053 -0.021046448 0.00021497354 0.016268209 -0.14241806 0.33966568
-0.1280594 0.015551859 0.016403545 0.051400248 -0.043545846 -0.19769035 -0.27807117 -0.062181044
0.30278555 -0.069393374 -0.038014445 -0.018138621 -0.06272289 -0.1501075 -0.0526674 -0.07425001
0.27576402 0.022410102 0.03055871 0.2754331 -0.38261753 -0.040457956 0.0014188959 0.07570683
-0.039880928 0.0074727684 -0.0089522535 -0.07361945 -0.07785136 0.1878966 -0.1841032 -0.14548144
0.036090117 -0.08529404 0.04105863 -0.007268384 -0.06966929 0.020231081 -0.28154907 -0.1349934
0.043941814 -0.022015348 0.06328167 0.033440284 -0.042770557 -0.01708736 0.025282258 0.14853299
0.033679605 -0.11287636 -0.07981613 -0.14791733 0.26812226 0.11953702 -0.0656983 0.15022439
-0.08368853 0.009438187 -0.14616594 0.08058037 0.014980948 -0.14827268 0.15355131 -0.10530206
-0.33902997 -0.104315 -0.02986061 0.17466177 0.18997388 -0.13824576 -0.023742449 -0.037478533
0.3233501 -0.14818111 -0.17504594 0.016544873 0.097818404 -0.09702048 0.2771094 0.14804263
0.047051556 -0.3343202 0.2795732 0.035953116 -0.049543012 0.1803033 0.06492791 0.016618129
-0.22541903 -0.086816505 -0.13376252 -0.024235643 0.14491409 -0.16423045 -0.07366227 0.04241208
0.042582702 0.36619726 -0.185598 0.19812119 0.16497932 0.18153876 0.15861714 -0.049951617
0.09457691 0.19029373 0.21631846 0.056883667 -0.093381524 0.1937527 -0.1518154 0.09243858
0.067285046 -0.16238919 0.015841246 0.0098172035 0.13887274 -0.02487042 -0.08171491 0.3421577
0.18138501 0.046693712 -0.027411843 0.0051089646 0.036077723 -0.09704814 0.19654422 -0.11150807
0.16253586 0.15472504 -0.08232864 0.09354891 0.22908595 0.055086244 0.025392046 -0.42159563
0.22175352 -0.03547927 -0.119364865 0.008845169 -0.13664864 -0.0079036355 0.00052518566 -0.27095768
0.0049006827 0.049406186 -0.14389807 -0.1494125 -0.18127051 0.027011938 -0.0963189 -0.025963068
0.051075477 0.16566671 -0.024225071 0.08728024 -0.02795046 0.06529102 0.030156912 0.0045050383
-0.24098103 0.0013685141 0.26090673 0.0077593816 0.03320876 0.10890869 0.011331623 -0.061592292
0.35904664 -0.006857727 -0.11454845 -0.14988038 -0.11582804 -0.027529338 0.23755899 0.12634213
0.10326639 0.04404178 -0.15212099 0.05637527 -0.04665344 -0.018650599 -0.08065591 -0.008173936
00000000: 4d37 67bb 71e8 82bd 4cb8 f3bb 8957 1cbc
00000010: 041c 4f3a b615 0d3d 76fa 02be b42d 23bd
00000020: 5633 3cbe 33cd b83e d871 18bc 24ff 153e
00000030: eb2c 933c a157 683e 01f1 5b3e 234b 6dbd
00000040: 83b9 8abc 0514 023f 6ec6 ba3d 24af df3d
00000050: 4072 b1bc 3177 953e 120e c63c 63c4 3ebd
00000060: d080 70bd 96f1 603e a190 1f3c 9b3d b63d
00000070: 429e c2be d63b 5cbc 6c02 37be 289d e9bd
00000080: 075c b3bb 0487 afbd 8d46 6e3d 85b4 d4bd
00000090: ee0e 5f3e 774b 463e 9db1 923c 6c2a f63d
000000a0: f625 b1bc b5d5 b8bd a583 08be d933 f6bd
000000b0: e303 08bc a2fa 853d 1b40 063d 88c7 0bbd
000000c0: 0c9e eb3d 9f5f 27bb ef65 d5bb 8ad5 7d3c
000000d0: e465 f33d 2f01 0e3d 188f 83be 9f91 cabc
000000e0: eaf5 17bd ffac 1f3c fecd ee3c 619e 313e
000000f0: 498a f8bc f666 ddbd cdf3 fe3d b486 fd3d
00000100: eadb 13bd 71b1 6c3e ee3b 953c 9a69 acbc
00000110: 856a 6139 e844 853c 0ad6 11be a9e8 ad3e
00000120: 0122 03be 39cd 7e3c ba60 863c 1189 523d
00000130: 215d 32bd 576f 4abe 585f 8ebe 8db1 7ebd
00000140: b506 9b3e 1d1e 8ebd 09b5 1bbd 7297 94bc
00000150: dc74 80bd c8b5 19be c6b9 57bd 6410 98bd
00000160: f130 8d3e 6495 b73c 4356 fa3c 9105 8d3e
00000170: 72e6 c3be 3eb7 25bd 3ffa b93a 2f0c 9b3d
00000180: 2f5a 23bd 20de f43b 79ac 12bc cbc5 96bd
00000190: 8970 9fbd f767 403e 8d85 3cbe 16f9 14be
000001a0: 3bd3 133d a4ae aebd 182d 283d a02b eebb
000001b0: c6ae 8ebd a7bb a53c 3327 90be b63b 0abe
000001c0: 55fc 333d 8859 b4bc d299 813d aef8 083d
000001d0: 2e30 2fbd cbfa 8bbc bd1c cf3c 0819 183e
000001e0: a0f3 093d b92b e7bd a476 a3bd a477 17be
000001f0: 5247 893e d3cf f43d d58c 86bd 6cd4 193e
00000200: e464 abbd a0a2 1a3c 86ac 15be 5207 a53d
00000210: a672 753c cbd4 17be 8e3c 1d3e 9ba8 d7bd
00000220: 5695 adbe 1aa3 d5bd 3d9e f4bc 89da 323e
00000230: 8388 423e 4c90 0dbe 867f c2bc 1783 19bd
00000240: 258e a53e cabc 17be 3e3f 33be 1d89 873c
00000250: 0455 c83d acb2 c6bd 49e1 8d3e 7d98 173e
00000260: 22b9 403d 042c abbe 3824 8f3e 9343 133d
00000270: 9ded 4abd 6ea1 383e edf8 843d be22 883c
00000280: 3fd4 66be dacc b1bd 0bf9 08be d489 c6bc
00000290: 5c64 143e 072c 28be 3fdc 96bd 4ab8 2d3d
000002a0: 336b 2e3d 357e bb3e 670d 3ebe 48e0 4a3e
000002b0: 57f0 283e 4ce5 393e 886c 223e 119a 4cbd
000002c0: 8ab1 c13d 5cdc 423e 9682 5d3e d9fe 683d
000002d0: d03e bfbd 1c67 463e 7f75 1bbe 7050 bd3d
000002e0: becc 893d 5a49 26be 80c5 813c 56d8 203c
000002f0: a834 0e3e 0dbd cbbc 265a a7bd 4b2f af3e
00000300: febc 393e e841 3f3d cd8e e0bc 1a69 a73b
00000310: 3cc6 133d 2dc1 c6bd e342 493e 585e e4bd
00000320: cd6f 263e 3e70 1e3e eb9b a8bd 9296 bf3d
00000330: 8295 6a3e 1da2 613d fb02 d03c 62db d7be
00000340: 5b13 633e b652 11bd 9175 f4bd 54eb 103c
00000350: 9fed 0bbe 407e 01bc 9dac 093a f7ba 8abe
00000360: e895 a03b 245e 4a3d 045a 13be 97ff 18be
00000370: fa9e 39be 2448 dd3c d842 c5bd 80b0 d4bc
00000380: 8534 513d 89a4 293e a873 c6bc fcbf b23d
00000390: 5df8 e4bc 4cb7 853d a10b f73c 009f 933b
000003a0: bbc3 76be b75f b33a 9195 853e 6942 fe3b
000003b0: e905 083d 850b df3d 46a8 393c 3348 7cbd
000003c0: f6d4 b73e c9b6 e0bb 6198 eabd 3e7a 19be
000003d0: 4037 edbd 3585 e1bc aa42 733e d55f 013e
000003e0: 547d d33d 2765 343d 9bc5 1bbe c1e9 663d
000003f0: ad17 3fbd 24c9 98bc ed2e a5bd f9eb 05bc

fc3.weight f4 [1, 256]
-0.006459293 -0.04660715 -0.05004184 0.0391583 0.04936001 0.0034095803 -0.020819582 0.16801637
0.07007224 1.4831674 0.013013597 -0.02088099 -0.023931146 -0.15393156 -0.031855978 0.0030632454
-0.0682739 0.139043 -0.06936337 0.12328466 -0.15320618 -1.3152307 0.032067142 0.025128914
-0.11544612 0.01835368 -0.0059021446 -1.5312388 -0.91998005 -0.042901635 0.21910504 -0.016231177
0.051813226 -0.06551925 0.037626434 -0.0191679 0.029162744 0.21554698 -0.01134415 0.040677797
0.5070835 -0.016172867 -0.020569725 -0.09946054 -0.03888197 0.11286767 0.027442262 0.045604784
-0.08537651 0.050188236 0.020196278 -0.0857717 -0.113915235 -0.03190425 -0.18935423 -0.05580277
0.03279253 -0.105895355 -0.01943466 -0.07547987 0.03273493 -0.05208471 -0.15833013 -0.0974317
-0.02507964 0.02162916 0.021640493 0.017524663 -0.03995801 0.12859392 -0.10916588 -0.05807437
-0.023541508 0.04946902 -0.5150685 -0.050573867 0.0029795924 0.09495836 -0.30532807 -0.02011159
0.07253267 -0.2245949 0.11267818 -0.049606 -0.99956685 0.0006236831 0.041450128 0.027050588
1.61583 -0.37819442 0.025899071 0.5405995 0.0698434 -0.0061566057 0.11757011 0.14743981
-0.042072833 0.041491337 -0.002418816 0.08730912 -0.04523705 0.13786961 -0.03700256 0.06023408
-0.029093873 -0.084586374 0.049135346 -0.23757696 -0.052740097 0.0741426 -0.0067578387 0.15908647
-0.04354364 -0.16720231 -0.07506188 -0.076548815 0.0078042075 0.1938567 0.057598423 0.037303712
-0.014249416 0.064284 -0.028152661 0.16031905 0.068666264 0.56857073 -0.092545636 0.06357223
-0.054903064 0.046329714 -0.050069693 -0.16202362 -0.0011197192 0.2896484 0.113403074 -0.034534305
-0.29179585 0.044359136 -0.025936069 0.18796471 -0.21260835 -0.25905168 -0.038244337 0.12157056
0.110830985 -0.126379 0.07350296 0.0055722105 0.094603725 0.05907526 -0.07292266 -0.08261894
-0.032405175 -0.15954868 0.14625813 0.092716776 0.05549137 -0.069430724 0.23743966 0.029610422
0.16895878 -0.08229795 0.04542918 -0.0016676346 0.01727348 0.13916951 -0.01336878 0.028420852
0.100153126 0.2337059 -0.57263595 -0.053530682 -0.058950774 0.011514118 0.06975956 0.00194805
-0.0675844 -0.054254197 -0.12477948 -0.04310057 -1.2453767 0.011826209 -0.0094651915 0.38414904
0.020565262 -0.1687898 0.043916408 0.06746645 0.037379023 -0.06768057 -0.04772522 0.4318229
-0.1458045 0.027510962 0.070379935 0.018379387 -0.055058908 -0.08581625 -0.03617211 -0.0848904
-0.0932788 0.31305972 0.15152721 0.027614912 -0.7729436 0.058038697 -0.0022546244 0.18144383
0.10467857 -0.068165086 -0.1022796 -0.01684795 0.08704479 0.0912502 -0.02056482 -0.055520233
0.11697291 0.0478546 -0.10777943 0.06330936 -0.205392 -2.1825936e-05 -0.06065751 -0.1556606
0.06194958 -0.072163165 -0.11485929 -0.03763209 -0.034521993 0.780807 -0.027043426 0.056095425
0.050554086 -0.20110933 -0.5817245 -0.07334754 -0.033893373 -0.20591742 0.12578768 0.018403241
0.057607677 0.012475098 -0.11359704 -0.07723213 0.12876889 0.004139606 0.0661648 -0.06720903
0.033211146 -0.09677794 -0.03408732 -0.045102634 0.048359208 -0.05089537 0.049571555 0.040831435
00000000: 7aa8 d3bb 24e7 3ebd acf8 4cbd 7464 203d
00000010: b92d 4a3d 4473 5f3b d48d aabc 7c0c 2c3e
00000020: 0982 8f3d 6ed8 bd3f fb36 553c 9c0e abbc
00000030: 400b c4bc 3ca0 1dbe 6a7b 02bd bbc0 483b
00000040: 30d3 8bbd 4a61 0e3e 620e 8ebd ab7c fc3d
00000050: 15e2 1cbe 7b59 a8bf d658 033d 27db cd3c
00000060: 046f ecbd 755a 963c c766 c1bb a2ff c3bf
00000070: d083 6bbf a0b9 2fbd 125d 603e 3ff7 84bc
00000080: 1b3a 543d f52e 86bd 2d1e 1a3d 0006 9dbc
00000090: b5e6 ee3c 59b8 5c3e d0dc 39bc c39d 263d
000000a0: 39d0 013f f67c 84bc d781 a8bc f8b1 cbbd
000000b0: b342 1fbd 2a27 e73d 98ce e03c 15cc 3a3d
000000c0: e1d9 aebd 2e92 4d3d aa72 a53c 13a9 afbd
000000d0: 644c e9bd 08ae 02bd 13e6 41be 7291 64bd
000000e0: 7651 063d aadf d8bd 7035 9fbc 3195 9abd
000000f0: 1015 063d c756 55bd 4b21 22be 458a c7bd
00000100: d173 cdbc a32f b13c 6747 b13c e28f 8f3c
00000110: 03ab 23bd 20ae 033e 5c92 dfbd 64df 6dbd
00000120: 1fda c0bc 07a0 4a3d 87db 03bf 8b26 4fbd
00000130: 4445 433b 8779 c23d f653 9cbe 10c1 a4bc
00000140: 028c 943d 35fc 65be d1c3 e63d a92f 4bbd
00000150: 9de3 7fbf aa7e 233a 9cc7 293d 3299 dd3c
00000160: 84d3 ce3f b3a2 c1be 4a2a d43c bb64 0a3f
00000170: 0e0a 8f3d 5abd c9bb 99c8 f03d 76fa 163e
00000180: 9054 2cbd d2f2 293d 0085 1ebb 20cf b23d
00000190: 7c4a 39bd b12d 0d3e ff8f 17bd 03b8 763d
000001a0: 4656 eebc 9f3b adbd 2542 493d 6047 73be
000001b0: 0006 58bd 13d8 973d dc70 ddbb 90e7 223e
000001c0: d15a 32bd 1537 2bbe 0bba 99bd a0c5 9cbd
000001d0: 70ba ff3b 5f82 463e 53ec 6b3d c7cb 183d
000001e0: 6276 69bc 54a7 833d 69a0 e6bc ad2a 243e
000001f0: e6a0 8c3d da8d 113f 9188 bdbd 2832 823d
00000200: 09e2 60bd 3ac4 3d3d e115 4dbd 85e9 25be
00000210: 8bc3 92ba cc4c 943e df3f e83d d873 0dbd
00000220: 4466 95be edb1 353d e177 d4bc d279 403e
00000230: 01b6 59be 6ca2 84be 18a6 1cbd fcf9 f83d
00000240: 5bfb e23d 7f69 01be b888 963d 1797 b63b
00000250: 99bf c13d e6f8 713d 7a58 95bd 1e34 a9bd
00000260: 4abb 04bd bb60 23be b1c4 153e 4be2 bd3d
00000270: eb4a 633d b231 8ebd 6223 733e 8e91 f23c
00000280: 8803 2d3e d48b a8bd f313 3a3d 8894 daba
00000290: 1d81 8d3c 7482 0e3e ba08 5bbc d9d2 e83c
000002a0: 151d cd3d 9950 6f3e 4598 12bf fd42 5bbd
000002b0: 5e76 71bd b6a5 3c3c 1ade 8e3d b655 ff3a
000002c0: b169 8abd a639 5ebd 628c ffbd 398a 30bd
000002d0: 8168 9fbf b7c2 413c e413 1bbc 2faf c43e
000002e0: 7b78 a83c 3cd7 2cbe b1e1 333d da2b 8a3d
000002f0: bf1a 193d 1c9c 8abd 857b 43bd e417 dd3e
00000300: c64d 15be ab5e e13c 5b23 903d 5e90 963c
00000310: 7385 61bd 6ec0 afbd 3529 14bd 05db adbd
00000320: f508 bfbd 5d49 a03e f329 1b3e ab38 e23c
00000330: a2df 45bf fcb9 6d3d 52c2 13bb 69cc 393e
00000340: b861 d63d 239a 8bbd f877 d1bd b604 8abc
00000350: 8a44 b23d 63e1 ba3d 8e77 a8bc 2f69 63bd
00000360: 7e8f ef3d 2f03 443d 76bb dcbd 56a8 813d
00000370: 4852 52be d716 b7b7 0274 78bd 7e65 1fbe
00000380: d8be 7d3d 48ca 93bd 593b ebbd 1b24 1abd
00000390: ef66 0dbd f8e2 473f 2d8a ddbc 51c4 653d
000003a0: cd11 4f3d 9bef 4dbe e6eb 14bf 3c37 96bd
000003b0: c7d3 0abd 04dc 52be 7cce 003e 65c2 963c
000003c0: 07f6 6b3d 5a64 4c3c 91a5 e8bd e12b 9ebd
000003d0: fedb 033e 88a5 873b 6981 873d e3a4 89bd
000003e0: 6908 083d 8333 c6bd 259f 0bbd 8abd 38bd
000003f0: 4e14 463d aa77 50bd 8b0b 4b3d dd3e 273d
