TD3/models/actor_eps100_veh100_16e-2_8e-2_0.8_-2.pth (torch, 275287 bytes, 5 tensors)

fc1.weight f4 [256, 8]
0.4572943 -0.038689982 -0.27131873 -0.5196567 0.06946116 -0.0315106 0.047573037 0.048581213
-0.3765464 0.039130215 0.10170552 0.28984827 0.13421558 -0.012416261 1.1716634 0.0161263
0.09060436 -0.12047915 -0.44884574 0.28001466 -0.16398402 0.024264617 0.9989164 -0.046956178
-0.16783753 -0.02329087 -0.5104884 0.2479698 -0.015035996 0.028008921 1.1555057 0.3042878
0.31653512 -0.017969836 0.79236805 -0.58775413 0.05626305 -0.045421362 -0.66282547 -0.019093266
-0.44635546 0.19064355 -0.57742983 0.23088835 0.1278821 -0.19625668 0.590017 0.4288176
0.59364486 -0.095031545 0.37472978 0.13586375 0.03897574 -0.27244177 0.54798895 -0.5941214
0.3230166 -0.075266555 0.177546 -0.40409082 -0.11885482 0.0866464 -0.48992237 0.051579267
-0.20638734 0.27326414 -0.9119817 -0.10091413 0.0514241 0.031776253 0.14984775 0.06574162
-0.23598394 0.19464876 -0.2869318 -0.06171835 0.0030618166 -0.100117475 -0.24430329 -0.14639756
-0.13000433 0.04009106 1.4160551 -0.03359535 0.031224465 0.00834503 -2.340813 0.07542107
-0.27928582 -0.44991833 0.89609265 0.34869108 -0.1323098 0.043067187 -0.7714481 -0.10030537
0.105481066 -0.06547741 0.620031 0.10783601 -0.06430755 -0.06653985 0.43614694 0.3383475
-0.5191529 -0.17143354 -0.36711183 -0.35682344 -0.6369806 -0.25524282 0.25503033 0.08170967
-0.12663053 -0.15190913 0.08203507 -0.07806205 0.0016113325 -0.06887358 0.26676533 -0.48493007
-0.70595944 -0.06135614 0.08647577 0.1737754 0.06515055 0.0908842 0.04192242 -0.38358992
-0.10314934 -0.064715765 -0.1560426 0.092091754 0.1905655 -0.21857062 1.4289157 0.16354685
0.19791774 0.019686887 0.026633518 -0.18394342 -0.16523024 0.036647934 -0.789762 0.25459343
-0.99617463 -0.19547771 -0.72957575 0.030924425 0.05119358 0.1333797 -3.5192986 0.048514046
0.19058624 -0.18020287 -0.053965945 -0.323509 0.07042207 -0.057431124 1.229788 0.043353852
0.2054791 0.048183825 -0.38672706 -0.009289308 -0.0117248 0.092553824 -0.8572157 0.12924568
-0.15416145 0.1599071 0.072356194 0.173202 -0.2521369 -0.24418078 -0.56210864 -0.015650533
0.26495266 0.1467956 -0.49850157 -0.47620738 0.04834193 0.18607406 1.3897924 0.13733317
-0.6224002 0.39907786 0.15561907 0.25033286 0.040666234 -0.3679493 -0.63809854 -0.1754914
0.34818822 -0.107986495 0.543896 -0.006864582 -0.13419464 0.09947817 -1.0748075 -0.6264924
0.029953677 -0.416683 0.17896917 -0.3784831 -0.011201182 0.109270506 1.491922 -0.3833242
0.015213575 0.40628216 0.25459483 -0.03477872 0.019064164 -0.027560128 1.0099237 0.013726994
-0.074433394 0.26544482 0.09521726 0.17417896 0.021818124 0.04372291 -1.96299 -0.05240571
-0.036497794 -0.090761155 -0.8193834 0.10054878 -0.06354208 0.08031902 -0.7304152 -0.05877297
0.10015551 0.20334789 0.20618263 -0.01960776 0.04245468 -0.43304315 -0.031205991 -0.07720938
0.0784484 -0.04141234 0.35863358 -0.15101632 0.1248388 -0.056282204 -1.193546 0.15592198
0.27554384 -0.24444634 -0.34544075 0.02784137 0.05707914 0.086223684 -1.9500462 0.3328643
00000000: 7a22 ea3e 6379 1ebd 4aea 8abe 3908 05bf
00000010: a741 8e3d 4211 01bd f2db 423d 18fd 463d
00000020: b1ca c0be 0147 203d fc4a d03d fe66 943e
00000030: cf6f 093e 936d 4bbc 11f9 953f 4d1b 843c
00000040: c78e b93d c6bd f6bd 1ccf e5be 155e 8f3e
00000050: 6deb 27be 97c6 c63c fcb8 7f3f 1f55 40bd
00000060: 9add 2bbe 7fcc bebc 5eaf 02bf cceb 7d3e
00000070: 8a59 76bc f772 e53c 9ce7 933f 9ccb 9b3e
00000080: e410 a23e 7a35 93bc a2d8 4a3f 0e77 16bf
00000090: 1574 663d c00b 3abd eeae 29bf 7b69 9cbc
000000a0: b488 e4be 1038 433e 71d2 13bf ff6d 6c3e
000000b0: 86f3 023e 83f7 48be 5b0b 173f fb8d db3e
000000c0: 1cf9 173f e69f c2bd 95dc bf3e de1f 0b3e
000000d0: 07a5 1f3d 7d7d 8bbe 0149 0c3f 5718 18bf
000000e0: 6f62 a53e 5a25 9abd 9ece 353e fee4 cebe
000000f0: 286a f3bd ab73 b13d 1bd7 fabe c844 533d
00000100: 3457 53be 47e9 8b3e a277 69bf 11ac cebd
00000110: 14a2 523d d127 023d b071 193e 8ba3 863d
00000120: c6a5 71be 0152 473e bae8 92be 61cc 7cbd
00000130: c2a8 483b 640a cdbd a42a 7abe 3ee9 15be
00000140: db1f 05be 8636 243d 4b41 b53f 479b 09bd
00000150: 73ca ff3c 98b9 083c e1cf 15c0 5d76 9a3d
00000160: 8dfe 8ebe b25b e6be 5466 653f a387 b23e
00000170: 387c 07be 3867 303d 9f7d 45bf e76c cdbd
00000180: 7506 d83d 0519 86bd 5aba 1e3f 20d9 dc3d
00000190: adb3 83bd 0b46 88bd a74e df3e e23b ad3e
000001a0: 34e7 04bf 468c 2fbe 15f6 bbbe 90b1 b6be
000001b0: 2911 23bf 30af 82be 5693 823e 6657 a73d
000001c0: 6fab 01be 118e 1bbe 0102 a83d ffde 9fbd
000001d0: 5933 d33a 970d 8dbd 7795 883e c148 f8be
000001e0: c2b9 34bf 9350 7bbd 351a b13d 2ef2 313e
000001f0: a76d 853d 7f21 ba3d d8b6 2b3d e665 c4be
00000200: f63f d3bd b389 84bd a2c9 1fbe 9a9a bc3d
00000210: 9a23 433e fad0 5fbe b6e6 b63f d378 273e
00000220: f3aa 4a3e 6546 a13c 892e da3c aa5b 3cbe
00000230: 1e32 29be 251c 163d d82d 4abf 125a 823e
00000240: 4d05 7fbf 4f2b 48be 7ac5 3abf 3855 fd3c
00000250: 5cb0 513d b094 083e 303c 61c0 aab6 463d
00000260: 0a29 433e 1a87 38be 650b 5dbd f9a2 a5be
00000270: 7239 903d e63c 6bbd b169 9d3f cf93 313d
00000280: 1d69 523e 675c 453d 1701 c6be 2f32 18bc
00000290: 6019 40bc dc8c bd3d 7d72 5bbf fb58 043e
000002a0: 80dc 1dbe b0be 233e 7c2f 943d dd5b 313e
000002b0: 1618 81be 870a 7abe 5ae6 0fbf 8c35 80bc
000002c0: e0a7 873e 9651 163e 993b ffbe 74d1 f3be
000002d0: 3002 463d 338a 3e3e b8e4 b13f 11a1 0c3e
000002e0: 9f55 1fbf ef53 cc3e 9b5a 1f3e a12b 803e
000002f0: a391 263d da63 bcbe 6d5a 23bf 04b4 33be
00000300: ba45 b23e 0628 ddbd c53c 0b3f 4af0 e0bb
00000310: 526a 09be 36bb cb3d 4b93 89bf ce61 20bf
00000320: 6a61 f53c 7957 d5be b243 373e 89c8 c1be
00000330: 2a85 37bc 37c9 df3d 4df7 be3f 1243 c4be
00000340: 5c42 793c 3704 d03e 415a 823e 2274 0ebd
00000350: 732c 9c3c c7c5 e1bc 2e45 813f 30e7 603c
00000360: 8970 98bd 62e8 873e 4401 c33d f85b 323e
00000370: ecbb b23c cb16 333d 4243 fbbf 5fa7 56bd
00000380: b67e 15bd fce0 b9bd 1cc3 51bf 85ec cd3d
00000390: 5a22 82bd 4c7e a43d 7efc 3abf edbb 70bd
000003a0: 551e cd3d 6e3a 503e 8a21 533e 74a0 a0bc
000003b0: f5e4 2d3d d5b7 ddbe b5a3 ffbc f41f 9ebd
000003c0: 8ea9 a03d fc9f 29bd d29e b73e 06a4 1abe
000003d0: 7cab ff3d 2b88 66bd 1ec6 98bf 03aa 1f3e
000003e0: 1514 8d3e 2450 7abe 9cdd b0be 9613 e43c
000003f0: d1cb 693d 0b96 b03d 1d9b f9bf 316d aa3e

fc1.bias f4 [256]
-0.42431393 -0.006074528 -0.36657196 0.055194836 0.8126377 0.046157856 0.12372152 0.2977301
-0.6105466 0.08560198 1.0054693 0.1629851 0.48704764 -0.15974773 -0.13770002 -0.35901022
0.1660214 0.5128701 -0.6547327 -0.29996318 -0.2341637 -0.006504753 -0.64404446 0.16995628
0.15398952 -0.15155455 0.4557875 0.1556564 -0.87872005 -0.013856486 0.08650601 -0.3223031
-0.051349375 -0.20279408 -0.06207724 -0.27940375 -0.32904628 -0.18607143 0.47848845 0.020883474
-0.011284851 0.8209889 0.22746596 -0.1545606 -0.08175642 -0.10757286 0.049934 0.058571126
-0.28682274 0.6153062 0.15674253 -0.37639567 0.83865863 -0.2745377 -0.65386677 -0.21490754
0.27206275 0.16755071 0.3290877 1.2737288 -0.0075555644 0.026307376 0.03623937 0.64612305
-0.008901057 0.17306583 0.4039911 -0.082092084 -0.85466224 0.03299242 -0.42031765 0.22245136
0.10107568 0.30451396 0.8297375 -0.39838448 -0.36009023 0.1670077 0.2582825 0.47938398
-0.92634964 0.7979263 0.06765908 0.084881894 -0.83929735 0.5825745 -0.41739976 0.14084539
0.2909292 -0.5457666 0.26900548 0.4299337 -0.26496443 0.13948372 -0.08441697 0.68633986
0.49869025 0.178836 -0.34371358 0.7379182 0.026387172 -0.48930478 0.08004181 0.60578865
-0.10930547 -0.17301084 0.03251258 -1.0271767 0.34541488 -0.19118625 0.14231604 -0.07212808
-0.5048539 -0.25322118 -0.0017882596 -0.3354198 0.51852447 0.44549003 0.11913061 0.009836703
-0.5644495 -0.074702606 -0.8803412 -0.7655159 0.32016557 0.04078624 1.0093595 0.3766282
-0.04427672 -0.19181749 -0.36687702 0.00943712 -1.0547831 0.22798057 -0.118455194 0.38087624
0.21543609 0.27516752 0.07930966 -0.041703414 -0.08459816 0.069424026 -0.093083836 -0.41600573
0.36540082 -0.034295164 -0.4808272 0.4352407 0.5674301 -0.28579023 -0.04291731 0.76179004
0.31078136 0.37959588 0.15691712 -0.3197575 -0.9566625 -0.582556 0.4670473 0.8943435
0.108710006 -0.3192105 -0.06628268 0.045589577 -0.19494124 -0.33573896 -0.44752184 0.24830486
-0.07437987 -0.48171094 -0.2589717 -0.8897411 -0.3550288 0.41980362 0.34335038 0.21836153
-0.8291989 -0.29231358 0.89749354 -0.1520968 -0.24153112 -0.23752017 -0.10386613 -0.2619843
0.08470405 1.0911876 0.04704293 -0.74013793 -0.1988713 -0.53573334 -0.369028 -0.051902622
-0.012722869 0.1994469 -0.49819285 -0.24089122 1.2562511 -0.24187563 -0.12160955 0.55725974
0.25946248 0.22513923 0.14193986 -0.18077426 -0.13681296 -0.38441136 -0.1598785 -0.6280626
0.36942652 -0.8064583 -0.23271461 0.08840109 -0.13127252 -0.4444007 -0.53760076 -0.11922618
-0.82615155 -0.595751 -0.17352478 0.23817562 0.18694426 -0.37459147 -0.31745988 -0.32889363
0.2993655 -0.90776443 -0.17558418 0.4611795 -0.32000434 -0.3010988 -0.24703607 -0.1885207
0.08792856 0.40479332 0.48050573 0.02492727 -0.23467225 0.40042916 0.10722734 -0.31718898
0.42438588 -0.21186098 -0.47418538 -0.100543216 0.015063528 -0.33823806 0.09769883 0.51719505
0.64866626 0.026314177 0.061114244 -0.4354373 -0.04059284 -0.71329796 -0.42097357 -0.3831547
00000000: ad3f d9be d60c c7bb 52af bbbe fb13 623d
00000010: 0609 503f 0510 3d3d b561 fd3d 1470 983e
00000020: c84c 1cbf 1750 af3d 38b3 803f 91e5 263e
00000030: 4f5e f93e e994 23be 3c01 0dbe 30d0 b7be
00000040: 8401 2a3e 744b 033f 909c 27bf c694 99be
00000050: 9cc8 6fbe d325 d5bb 19e0 24bf 0509 2e3e
00000060: 6eaf 1d3e 1e31 1bbe fb5c e93e 6464 1f3e
00000070: ccf3 60bf 5106 63bc 102a b13d e904 a5be
00000080: b953 52bd 40a9 4fbe b444 7ebd 020e 8fbe
00000090: c178 a8be 8289 3ebe 70fc f43e d213 ab3c
000000a0: 18e4 38bc 542c 523f d6ec 683e 2245 1ebe
000000b0: e96f a7bd 294f dcbd 9887 4c3d 47e8 6f3d
000000c0: 6eda 92be b584 1d3f 1d81 203e efb6 c0be
000000d0: 55b2 563f 3590 8cbe d063 27bf b910 5cbe
000000e0: cf4b 8b3e 6a92 2b3e 2f7e a83e 8c09 a33f
000000f0: ab94 f7bb 9182 d73c bc6f 143d 5268 253f
00000100: bdd5 11bc 2b38 313e ecd7 ce3e e51f a8bd
00000110: 25cb 5abf 0f23 073d e033 d7be 4aca 633e
00000120: c400 cf3d 41e9 9b3e ad69 543f 0df9 cbbe
00000130: bf5d b8be 1104 2b3e 9b3d 843e d171 f53e
00000140: 4025 6dbf e644 4c3f d890 8a3d 8fd6 ad3d
00000150: 31dc 56bf 9a23 153f 6cb5 d5be c639 103e
00000160: acf4 943e 5cb7 0bbf 16bb 893e 4520 dc3e
00000170: 6ba9 87be d2d4 0e3e cee2 acbd f8b3 2f3f
00000180: 5454 ff3e c920 373e 3afb afbe 35e8 3c3f
00000190: e929 d83c 2886 fabe f6ec a33d f714 1b3f
000001a0: 8cdb dfbd c129 31be e92b 053d 877a 83bf
000001b0: 38da b03e 54c6 43be 4cbb 113e e3b7 93bd
000001c0: 1b3e 01bf 35a6 81be 0964 eaba 25bc abbe
000001d0: 05be 043f 4517 e43e c0fa f33d 1f2a 213c
000001e0: c37f 10bf aefd 98bd 0a5e 61bf daf8 43bf
000001f0: beec a33e 790f 273d b132 813f 69d5 c03e
00000200: 825b 35bd ce6b 44be 4ed7 bbbe 269e 1a3c
00000210: 2203 87bf bd73 693e a398 f2bd 3602 c33e
00000220: 479b 5c3e c2e2 8c3e 1a6d a23d 33d1 2abd
00000230: cd41 adbd 2f2e 8e3d bda2 bebd b4fe d4be
00000240: d115 bb3e 1679 0cbd fc2e f6be ded7 de3e
00000250: 1943 113f 1953 92be 10ca 2fbd ac04 433f
00000260: bc1e 9f3e 645a c23e e2ae 203e 41b7 a3be
00000270: d5e7 74bf 6422 15bf d320 ef3e b2f3 643f
00000280: 5aa3 de3d 8f6f a3be 37bf 87bd 23bc 3a3d
00000290: ad9e 47be fae5 abbe 9521 e5be a143 7e3e
000002a0: 7954 98bd d1a2 f6be f097 84be 13c6 63bf
000002b0: 56c6 b5be 80f0 d63e 9fcb af3e 2a9a 5f3e
000002c0: 6146 54bf 20aa 95be 23c2 653f 43bf 1bbe
000002d0: ef53 77be 7d38 73be c4b7 d4bd ce22 86be
000002e0: 5179 ad3d 09ac 8b3f 16b0 403d ae79 3dbf
000002f0: eba4 4bbe d225 09bf 3df1 bcbe d897 54bd
00000300: 9573 50bc cf3b 4c3e 2213 ffbe 30ac 76be
00000310: d6cc a03f 3fae 77be 6e0e f9bd 93a8 0e3f
00000320: 44d8 843e e68a 663e af58 113e e31c 39be
00000330: b218 0cbe 91d1 c4be 31b7 23be b6c8 20bf
00000340: 7925 bd3e 0d74 4ebf bd4c 6ebe a10b b53d
00000350: 4e6c 06be 7d88 e3be 34a0 09bf db2c f4bd
00000360: ab7e 53bf 2383 18bf 7bb0 31be 4fe4 733e
00000370: 516e 3f3e 74ca bfbe 1a8a a2be bf64 a8be
00000380: 6f46 993e 4063 68bf 57cc 33be b81f ec3e
00000390: 9cd7 a3be 9f29 9abe 06f7 7cbe 920b 41be
000003a0: e413 b43d 1241 cf3e d904 f63e 4634 cc3c
000003b0: ec4d 70be 0d05 cd3e 029a db3d 9866 a2be
000003c0: 1b49 d93e 16f2 58be 6dc8 f2be 9ae9 cdbd
000003d0: 04cd 763c 8a2d adbe 5316 c83d e566 043f
000003e0: fe0e 263f d490 d73c ee52 7a3d a3f1 debe
000003f0: ae44 26bd b29a 36bf d989 d7be da2c c4be

fc2.weight f4 [256, 256]
-0.03697445 0.032506954 -0.04482557 -0.07145857 0.017254291 -0.0745473 0.030356862 -0.020937812
0.028777478 -0.03611495 -0.014575997 -0.05791029 0.019034615 -0.060382474 0.03593223 -0.05559374
-0.004184275 -0.01945064 0.046417233 0.03706102 0.016975267 0.013189793 0.044617247 -0.050967135
-0.055847123 -0.03643535 -0.06732706 -0.029237332 -0.033861067 -0.018223664 -0.0094829295 0.027109168
-0.015941957 -0.031588536 -0.02741907 0.007168827 0.035121683 -0.031341095 -0.059914555 -0.00030051597
-0.020883642 0.05860135 0.023641044 0.03264683 0.006597774 0.003908335 0.018948546 -0.018105306
0.012359528 0.009403325 -0.061928578 -0.03706382 -0.037521012 0.056080934 0.020230109 0.005219633
-0.034186177 -0.06456249 -0.07427072 -0.017366704 -0.025952715 -0.04677813 -0.05000353 0.032561623
-0.046866838 0.0030040767 -0.06578683 -0.0041005984 -0.06129576 -0.049944304 0.01762433 -0.013638331
0.0009449326 -0.051672205 0.033664223 0.052532747 -0.0031709047 -0.058545087 -0.043383807 0.016829247
0.0019771382 -0.046022207 -0.0055939583 -0.061077 -0.075479165 -0.04085383 -0.009689407 -0.026158715
-0.03780728 0.0443141 -0.05391642 0.022940848 -0.035490274 0.036864247 0.0024295223 0.03248402
-0.05105019 -0.008821189 -0.026389254 -0.04815545 -0.06729499 0.006470598 0.0061584003 -0.020302378
0.046027977 0.04003872 -0.05012031 -0.029597402 -0.01324609 0.027585696 0.038794365 0.015098545
0.023758175 0.0469039 0.017436031 -0.057576142 -0.033816762 -0.012740032 0.00423067 0.0039842757
-0.0282844 -0.06844621 0.008161401 -0.038943127 -0.018185522 -0.023648508 -0.006133807 0.022732534
0.0066839885 0.05457788 0.031959496 0.059959248 -0.027191019 0.02317185 0.050078545 -0.0059747756
0.060679864 0.02694646 -0.047823407 -0.0031941067 0.008030236 -0.023067899 -0.03706745 0.053045485
-0.00672772 -0.015869645 -0.00639998 -0.018187335 0.052230664 0.044124093 -0.06796351 -0.012362998
-0.0491967 0.048445564 0.029221699 0.026232349 -0.055715125 0.051058717 -0.036103927 -0.02392063
0.02768541 -0.0009276569 0.053367373 -0.034657583 0.014737156 -0.04977509 -0.038248576 0.05760749
-0.054715335 0.030748058 -0.018489204 0.018879447 -0.058284864 0.039929967 -0.04392977 0.023970868
-0.019768849 -0.02154169 -0.05430333 0.03674992 -0.015718255 0.024214074 -0.07632129 -0.06971015
0.022552855 -0.063338146 0.018764002 -0.026286127 0.053007726 -0.04907042 0.045360886 -0.06338291
-0.042056292 -0.047215044 -0.062458124 -0.078937404 0.04507069 -0.026772626 -0.04838303 0.017103646
-0.017983366 0.012658366 -0.045470923 -0.0011915176 -0.029443601 -0.019193664 -0.04780662 0.003544099
0.014744933 0.035630576 0.03331419 0.036970325 0.0054914467 0.01749406 -0.035136715 -0.0045866575
-0.03013069 0.02627303 -0.01988884 0.02633021 -0.03608171 0.020978969 0.0041931197 -0.022193793
0.028812654 0.021471947 0.026639264 0.056826267 0.014991815 -0.03947886 -0.029491358 0.015917081
-0.025599204 -0.00012596326 0.01868089 0.0022472232 0.02833324 0.041484773 -0.048075832 -0.055854898
-0.019689115 -0.0059347497 0.03298405 -0.06948545 0.022299286 -0.045026615 0.029897096 -0.010366611
0.024621094 0.0024087236 0.0030584144 -0.022081463 -0.055039253 0.0025462366 -0.03305761 0.024130853
00000000: 8572 17bd 0326 053d 049b 37bd df58 92bd
00000010: df58 8d3c 41ac 98bd f4ae f83c c685 abbc
00000020: bfbe eb3c 45ed 13bd 2ad0 6ebc 5733 6dbd
00000030: 7bee 9b3c 9d53 77bd ad2d 133d 43b6 63bd
00000040: 3e1c 89bb f356 9fbc ff1f 3e3d 4ccd 173d
00000050: b70f 8b3c 001a 583c 93c0 363d eac2 50bd
00000060: f4bf 64bd 3c3d 15bd c5e2 89bd 2183 efbc
00000070: e7b1 0abd cb49 95bc 4a5e 1bbc 0c14 de3c
00000080: b598 82bc fb62 01bd f59d e0bc 7be8 ea3b
00000090: c1db 0f3d 855f 00bd f768 75bd 928e 9db9
000000a0: 2c14 abbc f807 703d ddaa c13c afb8 053d
000000b0: 2432 d83b 7e11 803b fb39 9b3c 9451 94bc
000000c0: 9e7f 4a3c 6710 1a3c d2a8 7dbd 3bd0 17bd
000000d0: a2af 19bd 1fb5 653d 9db9 a53c 7509 ab3b
000000e0: ce06 0cbd 5739 84bd 3f1b 98bd 9e44 8ebc
000000f0: ca9a d4bc 6d9a 3fbd 80d0 4cbd 565f 053d
00000100: 71f7 3fbd 0be0 443b 3fbb 86bd 505e 86bb
00000110: 4311 7bbd 6692 4cbd e660 903c 4e73 5fbc
00000120: 5ab5 773a 3ca6 53bd 7fe3 093d 942c 573d
00000130: f4ce 4fbb f9cc 6fbd 38b3 31bd 7ddd 893c
00000140: e092 013b c881 3cbd 864d b7bb e02b 7abd
00000150: d294 9abd 5856 27bd 52c0 1ebc cd4a d6bc
00000160: cedb 1abd b482 353d 77d7 5cbd 72ee bb3c
00000170: 405e 11bd f7fe 163d 9f38 1f3b f70d 053d
00000180: 011a 51bd c086 10bc 472e d8bc a63e 45bd
00000190: f5d1 89bd 4f07 d43b 68cc c93b 2c51 a6bc
000001a0: d587 3c3d a4ff 233d f44a 4dbd 4076 f2bc
000001b0: 2106 59bc 66fb e13c d7e6 1e3d e35f 773c
000001c0: 81a0 c23c 4e1e 403d 02d6 8e3c f6d4 6bbd
000001d0: 7283 0abd 91bb 50bc 6fa1 8a3b 878e 823b
000001e0: b0b4 e7bc 872d 8cbd 66b7 053c d482 1fbd
000001f0: cef9 94bc 84ba c1bc 1afe c8bb 9439 ba3c
00000200: 5c05 db3b 0e8d 5f3d f6e7 023d d497 753d
00000210: b3bf debc e4d2 bd3c 291f 4d3d 0dc8 c3bb
00000220: 738b 783d d3be dc3c 7ae2 43bd 3854 51bb
00000230: 4091 033c e4f8 bcbc 0ad4 17bd 3946 593d
00000240: 3574 dcbb 0f01 82bc ecb6 d1bb 9bfd 94bc
00000250: d2ef 553d 77bb 343d 7430 8bbd 2c8e 4abc
00000260: 7b82 49bd db6e 463d 5862 ef3c 39e5 d63c
00000270: 8b35 64bd f222 513d b6e1 13bd 32f5 c3bc
00000280: 83cc e23c 002e 73ba bf97 5a3d 1cf5 0dbd
00000290: 1d74 713c f7e0 4bbd 8aaa 1cbd d5f5 6b3d
000002a0: 301d 60bd 5ae3 fb3c ac76 97bc 12a9 9a3c
000002b0: 1cbc 6ebd 9b8d 233d b4ef 33bd 8e5e c43c
000002c0: 48f2 a1bc 3378 b0bc 2b6d 5ebd 1687 163d
000002d0: 92c3 80bc 985c c63c 564e 9cbd 32c4 8ebd
000002e0: c4c0 b83c 6eb7 81bd f7b6 993c 0156 d7bc
000002f0: a11e 593d 11fe 48bd 56cc 393d e6ce 81bd
00000300: 3843 2cbd 9064 41bd 17d4 7fbd efa9 a1bd
00000310: 0b9c 383d 4452 dbbc 492d 46bd f21c 8c3c
00000320: da51 93bc 0965 4f3c b83f 3abd b22c 9cba
00000330: b533 f1bc 083c 9dbc e0d0 43bd 1d44 683b
00000340: bb94 713c 5ef1 113d 7674 083d 326e 173d
00000350: 98f1 b33b b44f 8f3c 84eb 0fbd ac4b 96bb
00000360: a3d4 f6bc 8a3a d73c eced a2bc 74b2 d73c
00000370: 6aca 13bd 16dc ab3c 7066 893b c2cf b5bc
00000380: 8408 ec3c f0e5 af3c 963a da3c a9c2 683d
00000390: 3ba0 753c 96b4 21bd dc97 f1bc 8a64 823c
000003a0: 6cb5 d1bc 0115 04b9 aa08 993c 2646 133b
000003b0: 1c1b e83c f0eb 293d 2aeb 44bd 1bc8 64bd
000003c0: 114b a1bc 4a78 c2bb 491a 073d 634e 8ebd
000003d0: feac b63c d46d 38bd c1ea f43c b8d8 29bc
000003e0: 2db2 c93c addb 1d3b ae6f 483b 2fe4 b4bc
000003f0: d770 61bd c3de 263b 6b67 07bd 11ae c53c

fc2.bias f4 [256]
-0.0066305343 -0.022401467 -0.005471046 -0.031905882 -0.0035187283 0.076483205 -0.015661824 0.03623664
-0.17412734 0.06395858 -0.12773024 -0.07432809 -0.002711052 0.107314184 0.004240671 0.25421256
-0.043133095 -0.18706495 0.0023156088 0.04180395 0.111455075 0.08397641 -0.009757006 -0.045926068
-0.19001508 0.008027519 0.009171059 0.0011602577 -0.023725083 -0.023853507 0.47909284 -0.07318633
-0.02058424 0.17621087 -0.37537658 -0.108726844 0.106803395 -0.009887312 0.017195906 -0.021071224
0.030427413 -0.07390665 -0.056143913 -0.14606224 -0.121991925 0.35576499 0.35690373 -0.040959105
0.10167622 0.0041701524 0.014378339 -0.23736906 0.1763308 0.029415637 -0.099480115 -0.028255118
-0.040622093 -0.22720958 0.026794115 0.041978974 -0.04865756 -0.022625485 0.31266034 -0.06250653
-0.03196784 -0.1528482 -0.019555947 -0.010834694 -0.24443711 0.26427 0.18815467 0.12890312
-0.067885265 0.01326174 0.055295195 0.07635561 -0.04050631 -0.032515086 0.012753999 -0.06300074
0.013309533 -0.060549833 0.02952835 -0.0050520482 -0.2742909 0.017448248 -0.05901671 0.23933297
-0.18460377 -0.18200351 0.23429425 0.016766412 -0.2131609 -0.04666229 0.11824319 0.46690255
-0.025846466 -0.011483237 -0.16117714 0.043581072 0.02380162 0.075259 -0.050033752 0.03692641
0.18451707 0.041412015 0.038231187 -0.052479725 -0.10025034 0.0058796937 0.15441506 0.0028629412
0.028359938 0.075144485 0.0904457 -0.15405552 -0.05533222 0.06459963 0.022138743 -0.15578623
0.020014701 -0.025459353 -0.011764246 -0.05570738 0.056193747 0.01186022 -0.05740594 -0.1480619
-0.14177702 0.05356637 -0.0156190535 0.021607308 0.011216909 0.09467992 0.014025948 -0.0153365005
-0.10893032 0.018389385 -0.09611189 -0.0679175 0.017285308 -0.027707962 -0.033437714 0.086612634
0.046640042 0.03295109 -0.11483526 0.06611447 -0.01465996 -0.26412183 -0.16527264 0.1477013
0.043887526 0.048324745 0.631891 0.043117903 -0.05654616 -0.027768679 -0.13384098 0.012746321
-0.021258276 -0.1529161 0.2772218 -0.03508213 0.22725989 -0.05396542 -0.022080295 0.037041206
-0.079430155 -0.06031803 -0.13463038 -0.027503753 -0.08109429 0.03472167 0.078530096 -0.07905016
-0.019038882 0.46159315 -0.13712189 -0.052911334 -0.101563215 0.10799853 -0.07361366 -0.041491237
-0.11898623 -0.19169903 -0.00014578066 -0.02613097 -0.007411984 -0.045453463 0.091576435 -0.25978258
0.06744048 0.21277165 -0.19538863 0.043314207 -0.27622154 0.057897363 0.018937515 -0.08536618
-0.01020249 -0.024021937 -0.11090312 -0.025184857 -0.13581151 0.042832356 0.15971124 0.16671349
0.29735515 -0.11239995 0.053140923 -0.117171556 0.004924726 0.11193676 -0.042673387 -0.15258783
0.072638996 0.04368847 -0.14415857 0.17455749 -0.15112709 -0.22429428 -0.2363054 0.16888809
-0.06503302 -0.07796754 -0.042213414 -0.0849609 -0.07651673 -0.057213012 0.030161532 0.01353862
0.11175541 -0.11161699 -0.0808467 -0.07117109 -0.069211274 -0.06225407 0.16947515 -0.060601857
-0.012952989 0.11302472 -0.123655565 -0.15475018 -0.05333962 -0.030886196 0.07653557 -0.009564289
0.09116916 0.12567544 -0.15796793 0.0133071765 -0.07922483 0.22477381 -0.07088957 0.09384446
00000000: f444 d9bb 4883 b7bc 7646 b3bb beaf 02bd
00000010: 779a 66bb 3aa3 9c3d 3a4d 80bc df6c 143d
00000020: 704e 32be b7fc 823d b7cb 02be 5339 98bd
00000030: e8ab 31bb 8ac7 db3d 54f5 8a3b 2628 823e
00000040: 54ac 30bd f48d 3fbe 78c1 173b 9e3a 2b3d
00000050: 8f42 e43d d3fb ab3d d9db 1fbc f91c 3cbd
00000060: 5093 42be db85 033c 3642 163c ca13 983a
00000070: 1b5b c2bc 6e68 c3bc a84b f53e b7e2 95bd
00000080: 48a0 a8bc 9f70 343e 5c31 c0be 2eac debd
00000090: bdbb da3d 64fe 21bc 6ede 8c3c 8f9d acbc
000000a0: e942 f93c 5f5c 97bd 29f7 65bd 5791 15be
000000b0: e7d6 f9bd d426 b63e 16bc b63e bcc4 27bd
000000c0: 9f3b d03d c6a5 883b 2093 6b3c e010 73be
000000d0: 1090 343e 10f9 f03c 3bbc cbbd 4777 e7bc
000000e0: 5a63 26bd a1a9 68be 557f db3c 25f2 2b3d
000000f0: 264d 47bd 1559 b9bc 0415 a03e 6c03 80bd
00000100: b6f0 02bd 3d84 1cbe cb33 a0bc 0084 31bc
00000110: b94d 7abe 664e 873e 9eab 403e 2eff 033e
00000120: 6e07 8bbd c547 593c 377d 623d 5460 9c3d
00000130: f2e9 25bd 8a2e 05bd 26f6 503c 8806 81bd
00000140: 3a10 5a3c 1a03 78bd 70e5 f13c a78b a5bb
00000150: db6f 8cbe a1ef 8e3c 81bb 71bd b413 753e
00000160: c508 3dbe 215f 3abe d5ea 6f3e b759 893c
00000170: da46 5abe f520 3fbd 7c29 f23d da0d ef3e
00000180: f8bb d3bc 3024 3cbc 9f0b 25be 1182 323d
00000190: 9dfb c23c 6421 9a3d 31f0 4cbd 2640 173d
000001a0: 0bf2 3c3e a59f 293d 4e98 1c3d fbf4 56bd
000001b0: 0d50 cdbd 72aa c03b fb1e 1e3e 2fa0 3b3b
000001c0: 1a53 e83c 5ae5 993d 983b b93d bbc0 1dbe
000001d0: 0aa4 62bd d04c 843d 4f5c b53c 6d86 1fbe
000001e0: dff5 a33c 2290 d0bc d3be 40bc 6c2d 64bd
000001f0: 6a2b 663d 5e51 423c 7e22 6bbd 8a9d 17be
00000200: ff2d 11be 6968 5b3d 0fe7 7fbc cf01 b13c
00000210: 20c7 373c 8ce7 c13d 17cd 653c f245 7bbc
00000220: dc16 dfbd 56a5 963c 50d6 c4bd 5518 8bbd
00000230: eb99 8d3c cffb e2bc fcf5 08bd f761 b13d
00000240: a109 3f3d b9f7 063d c02e ebbd 0667 873d
00000250: 5430 70bc fa3a 87be 3b3d 29be 023f 173e
00000260: 68c3 333d 2bf0 453d 9cc3 213f 669c 303d
00000270: f29c 67bd 247b e3bc 9c0d 09be f2d5 503c
00000280: d625 aebc 0a96 1cbe 04f0 8d3e 48b2 0fbd
00000290: d1b6 683e d80a 5dbd bce1 b4bc 85b8 173d
000002a0: 47ac a2bd 0a10 77bd 8cdc 09be 8d4f e1bc
000002b0: c314 a6bd 4f38 0e3d 63d4 a03d 0de5 a1bd
000002c0: 6ef7 9bbc f055 ec3e ae69 0cbe 8eb9 58bd
000002d0: 6000 d0bd 552e dd3d c2c2 96bd b7f2 29bd
000002e0: 0daf f3bd c04c 44be b3dc 18b9 9e10 d6bc
000002f0: 3ae0 f2bb 692d 3abd 6d8c bb3d 3902 85be
00000300: 3c1e 8a3d d0e0 593e f513 48be 3d6a 313d
00000310: e96c 8dbe c925 6d3d d922 9b3c 77d4 aebd
00000320: 5828 27bc a7c9 c4bc 2d21 e3bd 7950 cebc
00000330: 2c12 0bbe fb70 2f3d 588b 233e f1b6 2a3e
00000340: ef3e 983e f231 e6bd 4caa 593d a4f7 efbd
00000350: 995f a13b 1a3f e53d 4aca 2ebd fc3f 1cbe
00000360: c1c3 943d aef2 323d 4e9e 13be 33bf 323e
00000370: 0fc1 1abe 66ad 65be 0bfa 71be 00f1 2c3e
00000380: 0830 85bd 72ad 9fbd f9e7 2cbd fbff adbd
00000390: ceb4 9cbd 3158 6abd 5115 f73c 17d1 5d3c
000003a0: 05e0 e43d 7397 e4bd f492 a5bd 26c2 91bd
000003b0: a4be 8dbd 20fe 7ebd e58a 2d3e a739 78bd
000003c0: c638 54bc 8179 e73d 213f fdbd d576 1ebe
000003d0: a57a 5abd 0c05 fdbc aebe 9c3d 89b3 1cbc
000003e0: e6b6 ba3d 10b1 003e 58c2 21be 5806 5a3c
000003f0: a140 a2bd 1b2b 663e 8d2e 91bd 8631 c03d

fc3.weight f4 [1, 256]
-0.00029412415 -0.18212852 0.02438488 0.001738912 0.04537384 0.05185485 -0.02140158 0.012720278
0.013035596 0.04740931 0.0027919558 -0.060994867 -0.018694492 -0.19499332 0.037973817 0.18858764
-0.32554162 0.21580598 0.1867342 0.0022423228 -0.47788003 -0.18755129 0.047172677 0.022113336
0.018627277 0.08681016 -0.0067810453 0.05387897 -0.24052207 -0.23482724 -0.37055805 0.0014010776
0.16030093 -0.44961143 0.26684475 -0.07578546 0.37332928 0.13155778 -0.012546184 0.2254777
0.090544485 0.010011537 0.12136887 -0.053317238 -0.21510662 0.42420024 0.067761436 0.044245016
-0.12829493 -0.19340761 0.027601976 -0.14280392 -0.14599662 -0.00019236901 0.19948708 -0.0522747
0.02770582 -0.13788092 -0.01979818 -0.11521156 0.0022232318 -0.036310572 0.09216325 -0.26433444
0.011473101 0.05543452 0.0372402 0.019481847 -0.18978494 0.43799746 -0.20938416 0.08381216
0.047129046 0.053249348 -0.11823376 0.028110271 0.0060925484 0.31201777 -0.036831956 -0.022491997
0.33580115 -0.24895999 0.34716788 -0.053411096 -0.2958253 0.03035332 0.035130084 0.57580644
-0.7462824 -0.13355333 0.48476264 0.061555877 -0.028136251 -0.0015257583 0.15766054 0.6777603
-0.022879118 0.17911409 0.21972917 -0.044654127 0.0009182131 0.3015373 0.052963212 -0.0041098734
-0.17805664 0.06372134 0.045643933 -0.0018624701 -0.049438115 0.08894404 -0.31666037 -0.12725595
-0.12417743 -0.18296397 -0.203036 -0.21782343 0.05705809 0.11800804 0.056128062 0.07670879
-0.005314225 0.028938431 -0.00025576496 0.123269185 0.15892236 0.047713917 -0.011277147 0.28114715
-0.010808297 0.09793728 -0.1437182 -0.017780915 -0.002167676 0.15770173 0.0015549498 -0.03054076
-0.10763579 0.009919464 -0.07131081 -0.20995088 -0.2172271 -0.14807309 -0.054562308 0.073841564
-0.04001784 -0.43651143 0.31665084 0.018609632 0.020287013 -0.115067884 0.15702972 -0.080750525
-0.029239114 -0.064290866 0.2771032 0.07654269 0.05063295 -0.008359076 0.10899319 0.024917068
0.006430098 0.054325268 0.36390442 -0.084031545 0.28097588 -0.0028298981 -0.04147584 0.025055397
0.05605185 -0.0049987296 -0.20193282 0.14956778 -0.01441479 0.014802738 0.16050747 0.03533388
0.16483118 -0.6956908 0.061728235 -0.04767941 -0.15370232 -0.3207354 -0.002990137 0.035565205
0.04528405 -0.09177247 0.18562166 0.17297089 -0.1827881 -0.093733534 -0.12047606 0.006487958
-0.08982317 0.54016227 0.035665955 -0.082081065 -0.1549102 -0.03895321 -0.054471593 0.21396106
-0.02109511 0.33210528 0.18175924 0.03167819 0.062775806 0.07745158 0.032807536 0.13284507
-0.22584416 -7.377241e-05 0.046098366 0.10857229 -0.068924144 -0.14532436 -0.15378164 0.09723437
0.08808647 0.026200702 -0.028174255 -0.27202806 -0.119293295 -0.043135196 -0.07666269 -0.20111693
0.22536826 0.009474409 -0.0007521993 -0.00012707098 -0.05695292 0.19824366 -0.027199984 0.046840247
-0.1948973 -0.2287944 -0.14855641 -0.063065164 -0.12619282 -0.038480647 -0.1688758 0.015802227
-0.025195973 0.06326793 -0.076998815 -0.039803673 0.40576327 0.0014440473 0.17317657 -0.046578728
0.109324105 0.034687772 -0.16386214 -0.2992305 -0.12215077 -0.09880638 0.10154986 0.19656348
00000000: ad34 9ab9 e67f 3abe cdc2 c73c 34ec e33a
00000010: ebd9 393d c065 543d 5e52 afbc b768 503c
00000020: 4193 553c 4430 423d 3ff9 363b c1d5 79bd
00000030: 3125 99bc 54ac 47be 6f8a 1b3d 1e1d 413e
00000040: 64ad a6be 3efc 5c3e 4037 3f3e eff3 123b
00000050: b1ac f4be 720d 40be 2338 413d 0727 b53c
00000060: 3b98 983c 86c9 b13d 8833 debb 32b0 5c3d
00000070: 6b4b 76be 8d76 70be c9b9 bdbe 5da4 b73a
00000080: ed25 243e 7833 e6be e09f 883e 6835 9bbd
00000090: 0425 bf3e 15b7 063e 828e 4dbc a0e3 663e
000000a0: 636f b93d 6e07 243c 3e90 f83d 2d63 5abd
000000b0: e944 5cbe c630 d93e 82c6 8a3d 433a 353d
000000c0: bf5f 03be a50c 46be 8a1d e23c 313b 12be
000000d0: 2380 15be aab6 49b9 5746 4c3e ff1d 56bd
000000e0: 51f7 e23c a830 0dbe cb2f a2bc 0af4 ebbd
000000f0: a4b3 113b 65ba 14bd 16c0 bc3d d856 87be
00000100: acf9 3b3c 4f0f 633d 2e89 183d 6598 9f3c
00000110: fc56 42be 3441 e03e cd68 56be b6a5 ab3d
00000120: 630a 413d fd1b 5a3d 8b24 f2bd 8347 e63c
00000130: 00a4 c73b cbc0 9f3e 1bdd 16bd 2341 b8bc
00000140: 21ee ab3e 5eef 7ebe fdbf b13e 98c5 5abd
00000150: 6a76 97be 87a7 f83c 90e4 0f3d 0d68 133f
00000160: 5d0c 3fbf 34c2 08be cf32 f83e 0422 7c3d
00000170: ff7d e6bc f4fb c7ba c471 213e b381 2d3f
00000180: fd6c bbbc af69 373e af00 613e 3fe7 36bd
00000190: 3db4 703a 1963 9a3e f4ef 583d 1eac 86bb
000001a0: 7b54 36be 5580 823d 22f5 3a3d 201e f4ba
000001b0: 9f7f 4abd 4b28 b63d 4f21 a2be 624f 02be
000001c0: bd50 febd e85a 3bbe abe8 4fbe 1b0d 5fbe
000001d0: beb5 693d 33ae f13d 8ae6 653d 8019 9d3d
000001e0: f322 aebb 4a10 ed3c 3118 86b9 8e74 fc3d
000001f0: 8bbc 223e ab6f 433d c8c3 38bc 85f2 8f3e
00000200: 4915 31bc 5793 c83d dd2a 13be 48a9 91bc
00000210: 920f 0ebb 907c 213e 75cf cb3a 9e30 fabc
00000220: 2770 dcbd 3f85 223c 670b 92bd 5dfd 56be
00000230: c870 5ebe 79a0 17be ba7c 5fbd 3f3a 973d
00000240: bfe9 23bd 6d7e dfbe 0f20 a23e 3a73 983c
00000250: f330 a63c b6a8 ebbd 66cc 203e 8860 a5bd
00000260: de86 efbc eeaa 83bd 78e0 8d3e 6ac2 9c3d
00000270: 7f64 4f3d 82f4 08bc d237 df3d e11e cc3c
00000280: 92b3 d23b 2c84 5e3d ae51 ba3e bb18 acbd
00000290: 12dc 8f3e d075 39bb 92e2 29bd fa40 cd3c
000002a0: a096 653d 62cc a3bb 7ac7 4ebe 4c28 193e
000002b0: 032c 6cbc 2f87 723c 125c 243e 42ba 103d
000002c0: 81c9 283e cb18 32bf bfd6 7c3d 7c4b 43bd
000002d0: 2464 1dbe 6e37 a4be 2df6 43bb d2ac 113d
000002e0: c57b 393d 34f3 bbbd 9b13 3e3e 481f 313e
000002f0: ce2c 3bbe 5ef7 bfbd 27bc f6bd f098 d43b
00000300: 36f5 b7bd 1348 0a3f 7716 123d 1e1a a8bd
00000310: c8a0 1ebe 678d 1fbd 9b1d 5fbd 9c18 5b3e
00000320: a7cf acbc b409 aa3e 181f 3a3e fdc0 013d
00000330: 9a90 803d ef9e 9e3d 3261 063d 8a08 083e
00000340: b143 67be 43b6 9ab8 a4d1 3c3d 265b de3d
00000350: 1a28 8dbd e9cf 14be ef78 1dbe d022 c73d
00000360: ae66 b43d dba2 d63c b2cd e6bc 4347 8bbe
00000370: 0b50 f4bd 88ae 30bd 5401 9dbd 99f1 4dbe
00000380: f0c6 663e 8d3a 1b3c 3e2f 45ba 5b3e 05b9
00000390: 7747 69bd 6300 4b3e 80d2 debc 8fdb 3f3d
000003a0: 2893 47be 1449 6abe 2c1f 18be 4f28 81bd
000003b0: b138 01be e29d 1dbd c7ed 2cbe ac73 813c
000003c0: c967 cebc 9e92 813d 8eb1 9dbd 2d09 23bd
000003d0: 34c0 cf3e 3046 bd3a 3355 313e 56c9 3ebd
000003e0: 51e5 df3d c414 0e3d 7acb 27be bd34 99be
000003f0: 2f2a fabd 005b cabd 5ff9 cf3d f047 493e
