TD3/models/actor_eps100_veh100_15e-2_8e-2_1_-2.pth (torch, 275287 bytes, 5 tensors)

fc1.weight f4 [256, 8]
000000 3a 69 5b be 1d d9 bc be ab 53 d2 ba 23 d0 27 be
       -0.2142686 -0.36884394 -0.0016046664 -0.16387992
000010 47 d3 c3 3d be 29 ec bd ba 47 86 bf 6b c1 97 3e
       0.09561782 -0.11531399 -1.0490639 0.29639754
000020 ab 67 49 be 96 74 a3 3c f4 f1 03 3c 59 96 ba 3d
       -0.19668452 0.019953053 0.008053292 0.09110708
000030 7e 25 20 3e 64 f9 80 3a d2 8d a1 3f 3a ce 58 3d
       0.15639302 0.0009839949 1.2621405 0.052931048
000040 b9 ef 8c 3e 31 3e 40 be fe 19 04 bf 53 1d 8e 3e
       0.27526644 -0.18773724 -0.5160216 0.27756748
000050 d3 b9 10 be 50 06 06 3d 2f 10 81 3d 7e c4 62 3d
       -0.14133386 0.032720864 0.06301915 0.05536317
000060 81 d8 ec 3b a9 01 85 3e 74 d0 25 bf 0d 5e 68 3d
       0.0072279577 0.2597783 -0.647712 0.05673032
000070 10 07 0a bd b8 c8 ca bc 51 8b 1f 3f 3b 6d dd 3e
       -0.03369814 -0.024753913 0.62321955 0.432474
000080 8f e3 52 bc f0 e4 52 bd c4 10 0b 3f 75 40 03 bf
       -0.012871637 -0.051487863 0.5432246 -0.5127023
000090 4b 3c b8 3d 73 dc f3 ba d4 9b ec 3f 44 f2 0b 3d
       0.08995875 -0.0018605128 1.8485055 0.03416659
0000a0 14 8f ad be e2 67 6b 3e 18 30 19 bf fc bb 4d 3e
       -0.33898222 0.22988847 -0.5983901 0.20091242
0000b0 95 9f 4a 3e c9 c6 7b be b3 7a 8d 3f 2f 84 a0 3e
       0.19787438 -0.2458755 1.105307 0.31350848
0000c0 1e d6 03 3f 59 31 f5 bd b7 ec fb 3e 96 ad a7 3e
       0.5149859 -0.11972303 0.49204037 0.32749623
0000d0 ce 9d f5 3d 18 23 33 be 39 33 ce 3f 54 87 ba be
       0.119929895 -0.17493856 1.6109382 -0.36431372
0000e0 e5 1b 60 3e a9 fe 05 bd cd 7c 24 3f 61 4d 8c be
       0.21885641 -0.032713566 0.6425293 -0.27402785
0000f0 dc 62 c0 bd 44 a2 35 3e e4 6e 68 bf 00 20 8c bd
       -0.09393856 0.1773768 -0.90794206 -0.06842041
000100 ca 7d 28 3d dc 8e ad 3e 96 56 e5 be 55 d1 26 be
       0.041135587 0.33898056 -0.44792622 -0.16290791
000110 d2 20 df 3d dc dc 0d 3e 5a fe bd bf 67 f8 84 3c
       0.10894932 0.13853782 -1.4843247 0.016231729
000120 68 b9 83 be 1c 86 b2 bd fb 8f 47 3e 11 ae 09 3e
       -0.2572739 -0.087169856 0.19488518 0.13445307
000130 7a 61 00 3d ce 76 22 3d dd 65 3f c0 20 6d 7e be
       0.03134296 0.039664082 -2.9905922 -0.24846315
000140 21 83 cf be 5f 24 0a bd 21 64 f4 3e 29 dc 47 be
       -0.4052973 -0.033726092 0.47732642 -0.19517578
000150 82 97 c9 3c 0b 23 16 3d 1a ec 86 3f ac 61 06 be
       0.024608377 0.036654513 1.0540802 -0.13123196
000160 81 16 f9 be 47 3b 34 be c3 56 23 3f 40 c7 f4 3e
       -0.48649982 -0.17600738 0.6380426 0.47808266
000170 f9 e5 4b bd 4f f7 b6 3d eb ad e1 be 5b 12 03 be
       -0.049779866 0.08933889 -0.44078 -0.12799971
000180 1d 10 20 be c5 0d d5 3b 00 76 f3 3e f3 dc 11 bc
       -0.15631147 0.0065018856 0.47550964 -0.008902776
000190 41 23 0c bd 8b 12 1d bc c4 dd 4e 3f f7 17 d0 3e
       -0.03421331 -0.0095869405 0.8080714 0.40643284
0001a0 ba 43 d0 be 15 f9 0d 3d ec 82 b0 be f1 e8 58 bf
       -0.4067667 0.03466137 -0.34474885 -0.8473044
0001b0 5d f7 08 bf 91 99 8e bd d2 1b 16 3f 35 ef 26 3e
       -0.53502446 -0.06962884 0.586362 0.16302188
0001c0 eb 1d 7d be 8b 44 83 be 62 c2 69 3e 83 30 8e bc
       -0.24718444 -0.25638232 0.22828057 -0.017357117
0001d0 42 a9 08 3d 3b 14 6e 3d 6a a6 74 3f d0 f6 73 be
       0.03336454 0.058124762 0.9556643 -0.2382462
0001e0 23 d3 93 be 40 6a a8 bc d6 53 fe be 4e 42 1c 3e
       -0.28872022 -0.020558476 -0.49673337 0.15259668
0001f0 89 1f 50 3e de 02 4f 3e cd 62 32 bf 0e 97 d1 be
       0.2032453 0.20215937 -0.6968201 -0.40935558
000200 8d ee 0d 3e 22 69 c2 3c ee ad 41 be 36 5d 3d 3e
       0.13860531 0.023731772 -0.18914005 0.18492588
000210 40 16 5c 3e cb 54 9e be 25 d8 3b 3f 01 1a fa 3d
       0.21492863 -0.30924067 0.73376685 0.12211991
000220 22 1d 2a bd c8 82 82 3e 38 4d 58 be 09 c8 b5 be
       -0.04153169 0.25490403 -0.21123207 -0.35504177
000230 c5 6f 97 be d0 cf 50 bd db c0 cc bf 81 b8 1e 3e
       -0.2957746 -0.050979435 -1.5996355 0.1550007
000240 99 54 84 be 6e ed 51 bc c2 d7 23 bf 1f 46 83 bd
       -0.25845793 -0.012812955 -0.64001095 -0.06409859
000250 9c 7b 5b 3d 9f af a7 3d e6 cc f2 bf e6 b9 01 be
       0.05358468 0.08187794 -1.896878 -0.12668571
000260 84 a7 43 3e e8 be 0e bd c9 b2 d0 3e b1 9f 8c be
       0.19106871 -0.03485003 0.40761402 -0.27465585
000270 85 96 4e 3e e2 4e bd 3d 20 e1 7f 3e 60 b6 2b 3e
       0.20174606 0.09243561 0.24988222 0.1676879
000280 7b ae 3b 3c 35 43 f5 bd 6e 2f a1 3d 7d 5c a9 be
       0.011455174 -0.11975709 0.078703746 -0.33078375
000290 dc 86 8c bd ad 3a ef 3d 8a c4 43 bf 2e 55 f2 3d
       -0.0686166 0.116811134 -0.7647177 0.11832653
0002a0 69 c2 0a be 61 0a 33 3e bd 77 2a be 16 35 29 3e
       -0.13550724 0.17484428 -0.16647239 0.16524157
0002b0 c2 12 b5 3b 9f fc d7 bd 07 e3 41 bf 2a ca da 3d
       0.0055259177 -0.105462305 -0.7573704 0.10683091
0002c0 59 91 9f 3e ad 2e 59 3d fe ce 94 be d6 d3 ad be
       0.3116558 0.05302303 -0.29064173 -0.3395068
0002d0 32 4b 26 3d 40 40 7b 3e e8 49 a3 bf 58 0f 1c 3e
       0.040599056 0.24536228 -1.2756929 0.15240228
0002e0 0c e8 79 be e9 97 12 3d 3e c2 b7 3e 72 a4 b9 3e
       -0.24404925 0.035789404 0.35890383 0.36258274
0002f0 16 33 b4 3c 98 c1 b3 bc d4 3a 02 3f c2 21 34 bd
       0.021997016 -0.021942899 0.50871015 -0.043977506
000300 4c 41 a6 3a 7b 87 6e be 6c 53 18 3f 2d 05 07 bd
       0.0012684255 -0.23293869 0.5950229 -0.03296392
000310 38 05 6b be 26 80 0d 3e 18 21 be bf 69 ad c3 be
       -0.2295121 0.13818416 -1.485385 -0.3821824
000320 c8 2d a9 3d 6a 2e 94 be 7f 5d dc 3d e9 c9 e2 be
       0.08260685 -0.2894166 0.107600205 -0.4429467
000330 dc 71 2a 3d be f9 46 3e 4a 9c 02 40 bd 0b 6b be
       0.04161249 0.19431207 2.0407891 -0.22953697
000340 27 c9 1e 3e 78 ef 71 3e 01 ba b8 bc 14 8f 2f bd
       0.15506421 0.23626506 -0.022549631 -0.04286106
000350 12 e9 d4 3d a1 e7 0a 3d da 09 98 3f cd b5 78 3e
       0.10396017 0.033912305 1.1878006 0.24288101
000360 72 3c 5d 3b 6f 03 2b be 87 b1 82 3f 4b 25 3f be
       0.0033757952 -0.16700529 1.0210427 -0.1866657
000370 11 6f 84 bd 80 0d f1 3d 9a 75 13 be 55 e0 49 be
       -0.06466497 0.11770153 -0.1440033 -0.19714482
000380 ba f4 3e be 5e 9e 50 be a1 8b d6 be 68 3a 8a bc
       -0.18648043 -0.20372912 -0.41903403 -0.016873553
000390 9a f7 05 3c ae 48 63 3e f6 79 c2 bf 25 20 d0 3b
       0.008176709 0.22195694 -1.519347 0.006351488
0003a0 be 5d 94 3d 94 71 6a bc 76 73 8c be a5 0a 86 3e
       0.072444424 -0.014309306 -0.2743184 0.26179996
0003b0 17 85 4b 3e fd 23 4b be 77 04 24 bd 07 61 1b 3e
       0.19874988 -0.19837947 -0.04004332 0.15173732
0003c0 13 20 ab bb b7 2b f7 bd 98 8c b6 3e ad 0b 94 bd
       -0.0052223294 -0.12068885 0.3565414 -0.072287895
0003d0 a6 2c 30 3e a0 4e a2 bc 76 b1 87 bf 1c 8d ea 3d
       0.17204532 -0.019812882 -1.0601032 0.11452696
0003e0 95 da 48 be 23 f3 12 be 58 4c f0 3e 49 5c a0 3d
       -0.19614632 -0.14350562 0.46933246 0.07830102
0003f0 12 29 7d 3c 60 ca 52 3d 58 39 33 c0 36 6e cb 3d
       0.015451686 0.05146253 -2.800375 0.099331304

fc1.bias f4 [256]
000000 4b 0a ac bd f9 33 03 be 27 40 cf be a1 1d c5 bd
       -0.08400401 -0.12812795 -0.40478632 -0.09624792
000010 72 43 ca 3e 7a 54 bd bd ae 32 d4 3e 0a a7 0e 3f
       0.39504582 -0.09244628 0.41444916 0.5572363
000020 50 04 8e be 10 46 f1 3e 95 d5 45 3e ae a1 03 3e
       -0.27737665 0.47123766 0.19319756 0.12854645
000030 df aa 85 3e 29 e1 0e be 27 9d 27 bd e9 bc 3c bf
       0.26106927 -0.1395308 -0.040921357 -0.73725754
000040 b2 b3 3d 3e 9f f7 80 3e f2 d2 29 bf 1b ea fe 3d
       0.1852558 0.2518892 -0.663375 0.12446996
000050 18 43 24 3e 9f 92 8c bd 7e 9e de be e1 fc ac 3e
       0.16041219 -0.06863903 -0.43480295 0.3378668
000060 bd 92 56 3e 66 b1 66 be a5 86 8c 3e 9c 9c 54 3f
       0.20954414 -0.2252861 0.27446476 0.83051467
000070 cd 9e ce be f6 ab 40 3e 07 87 80 3d a8 ea d7 3e
       -0.4035553 0.18815598 0.062757544 0.42171216
000080 4d 00 09 bf fe 26 17 be dc 25 91 3d ba e7 5a 3b
       -0.53516084 -0.14760968 0.07087299 0.003340228
000090 e6 b1 9e be a7 f0 00 bf 67 0c 2c 3f b9 1a 45 bd
       -0.309951 -0.50367206 0.67206424 -0.048121188
0000a0 7f 4e 4e 3e 14 aa 9f 3e 1a 21 87 3f 53 9f 15 3e
       0.20147131 0.31184447 1.0556977 0.14611559
0000b0 d3 51 74 3e 8d f7 72 3d fa b5 97 3e 9e b5 83 3e
       0.23859338 0.059318114 0.29631025 0.257245
0000c0 31 e0 27 be 02 3a 07 3f 99 18 66 3e ac a8 d5 be
       -0.16394116 0.5282289 0.22470321 -0.4173025
0000d0 75 9c f6 3e f5 f7 7e be 5d 34 8a bf 85 32 c6 be
       0.48166242 -0.24899276 -1.079723 -0.38710418
0000e0 0c e3 69 3e 4f 05 f6 bd b3 86 04 3f 17 37 08 3f
       0.22840518 -0.12012731 0.51768035 0.5320906
0000f0 c8 8a a4 3e 99 d0 0e 3f 92 85 f4 3d e0 52 f5 3e
       0.32137132 0.55787045 0.11939539 0.4791479
000100 75 fc fe 3c c0 f6 81 3e a6 c2 05 3e a4 b2 57 3d
       0.03112624 0.25383568 0.13062534 0.0526606
000110 ac 24 4c bf 73 54 b5 3d d7 44 aa be 0a 6a f1 3e
       -0.79743457 0.08853998 -0.33255646 0.47151214
000120 ec 28 df bb db 23 fa 3d 6c 3a ef 3e d0 19 1f bd
       -0.006810298 0.1221387 0.4672426 -0.038842976
000130 d4 67 8a be 6d 85 f0 3e 9b 3d 84 3e 65 d1 ab bd
       -0.2703234 0.46976796 0.2582825 -0.08389548
000140 1b 1b 23 bf e3 a7 63 3f 4c ad 18 be 9b b9 05 3f
       -0.63713235 0.8892805 -0.14909858 0.52236336
000150 0d 1b 04 be 81 a8 0b 3f 86 10 cd bd 36 70 6b 3e
       -0.12900944 0.5455399 -0.10012917 0.22992024
000160 54 98 24 3e 44 8a d4 be 2c 0c 26 3e 6d 8a 1f 3f
       0.16073734 -0.41511738 0.1621558 0.62320596
000170 85 e4 a9 be b1 96 4c be b3 c6 98 be e3 8a e5 3d
       -0.3318216 -0.19979359 -0.29839095 0.11208131
000180 83 19 dd 3e bf 2d 53 3e ea 74 ff be a0 04 f8 3e
       0.43183526 0.2062292 -0.49893886 0.4844103
000190 d6 cc 5b 3c 9b 4d a4 be d2 20 10 3e 7e cb 33 3f
       0.013415536 -0.32090458 0.1407502 0.7023238
0001a0 37 e7 89 bd 97 90 3b 3e 07 17 82 3e 16 b8 16 bf
       -0.06733554 0.18316875 0.25408193 -0.5887464
0001b0 4c 0e 95 3e 95 9e 11 be 65 a5 b0 3e f9 93 f9 3e
       0.2911247 -0.1422065 0.34501186 0.48745707
0001c0 93 c3 80 bf 35 a6 81 be 1f 76 42 3e 30 92 af be
       -1.0059685 -0.25322118 0.18990372 -0.3429122
0001d0 9a 49 2d 3f 68 1d 56 3f df 2b 1c 3e ce 36 ad 3e
       0.6769043 0.8363862 0.1525111 0.33830875
0001e0 5c b8 8b be 69 04 51 bd 69 a3 d5 be 5b 53 ac be
       -0.27289093 -0.051029596 -0.41726235 -0.33657345
0001f0 1e ea 2c bd ae 5c 86 3d bd 55 51 3f d0 bb c6 3e
       -0.04221546 0.06560646 0.8177145 0.38815165
000200 f6 df cc bd 67 c4 aa 3d 42 32 8d bb a6 ec 50 3e
       -0.10003655 0.08338242 -0.0043089697 0.20402774
000210 7a 87 0d bf 65 86 cd 3d 83 7b 54 3e b4 1f c8 3e
       -0.55284846 0.10035399 0.20750241 0.39086688
000220 ab e7 b0 3e 3e 04 a8 3e 79 6e 16 3f 45 bc 21 3e
       0.3455175 0.32815737 0.5876232 0.15794475
000230 cd 41 ad bd 8f e1 20 3c 02 aa c1 be 06 2f cb be
       -0.08459816 0.009819402 -0.37825018 -0.39684314
000240 71 82 f7 3e 0c 7c 85 be 26 f7 dc be 55 21 98 3d
       0.48341706 -0.26071203 -0.4315731 0.074282326
000250 7e 97 42 3e 7f aa d9 be 8a 3c 08 bf 1d 75 b8 3e
       0.19003102 -0.4251289 -0.53217375 0.3602685
000260 08 49 c0 bb d6 91 26 3f 1f 61 7d 3e ad e4 63 be
       -0.005868081 0.6506628 0.2474408 -0.22255202
000270 29 e5 0d bf 23 54 f0 bc 9a 9c 72 3f 26 c0 07 3f
       -0.55427796 -0.029336995 0.94770205 0.5302757
000280 5e 37 d6 3d 8f 6f a3 be b5 8d 71 3d 31 62 0c 3e
       0.10459779 -0.3192105 0.058973033 0.13709332
000290 26 ff 82 bd 73 89 f5 be 09 16 23 be 6e b6 e6 3d
       -0.06396322 -0.47956428 -0.15926374 0.112652645
0002a0 38 3f 66 3d 5d c5 3f 3e 14 a6 15 be 9c 6c 14 bf
       0.056212634 0.18727632 -0.14614135 -0.57978225
0002b0 ac 4a 88 be eb d1 1b 3f 9f cb af 3e eb 7a bf 3e
       -0.2661947 0.60867184 0.34335038 0.37398466
0002c0 d3 e7 90 3d 48 60 de bd 97 d9 00 3f d6 6b f5 3c
       0.07075467 -0.10858208 0.50332016 0.029958647
0002d0 44 20 03 3e 05 cf 72 be ec b2 01 be b8 cb d3 be
       0.12805277 -0.23711784 -0.1266591 -0.41366363
0002e0 b5 13 63 3f aa 61 e2 3e d7 a2 40 3d 5d 61 91 be
       0.88701946 0.44215137 0.047030296 -0.28394595
0002f0 2d f6 00 3e f6 ee c1 be 89 ff 6f bd 58 18 af be
       0.12593909 -0.37877625 -0.058593307 -0.3419826
000300 95 73 50 bc b8 70 82 3e f3 99 7c be 2e 82 56 be
       -0.012722869 0.25476623 -0.24668102 -0.20948097
000310 e1 b3 f4 3e 5f 93 ee bd e0 72 7b 3f ec 42 ee 3e
       0.47793487 -0.116492026 0.9822216 0.46535432
000320 e8 b0 38 3e 6d 09 d4 3e c8 4c 74 bd 29 bc 32 3d
       0.18036234 0.4141344 -0.059643537 0.043636475
000330 2b 1d 04 be 83 da 91 bf 31 b7 23 be c1 ab 64 bf
       -0.12901752 -1.139481 -0.1598785 -0.89324576
000340 7f 1f 92 3e e0 60 7b be 4f 83 d7 be fd 61 c2 3d
       0.28539655 -0.24548674 -0.42092368 0.09491346
000350 c0 7a 8e be e1 34 f7 be 8d a4 d2 be af c3 d9 be
       -0.27828026 -0.4828253 -0.41141167 -0.42532107
000360 57 63 4f be 49 e1 ea be e9 b0 f9 3d 4d 67 a4 3e
       -0.20252739 -0.45875004 0.12191946 0.32110062
000370 ed 19 4d 3d b8 d3 05 bf 6d 1b 9d be 0b bc 8e be
       0.050073553 -0.5227618 -0.30684987 -0.2787784
000380 89 7e 53 3f 39 82 61 bf 12 f3 80 bc ae 3b 5d 3e
       0.8261495 -0.8808933 -0.015740905 0.21604797
000390 3d f7 c5 bd 9f 29 9a be 44 15 9e 3b 49 6e d6 3c
       -0.096662976 -0.3010988 0.0048243124 0.026175635
0003a0 e4 13 b4 3d 86 f3 43 3e ca 97 ac 3c 61 62 1f bd
       0.08792856 0.19135866 0.021068472 -0.03891218
0003b0 c2 58 54 be 57 b0 29 3e 2a cd c1 3d d7 1e ad 3e
       -0.20736983 0.16571175 0.0946296 0.3381259
0003c0 ff 18 57 3e 6e ed 4a be d3 9b 2a bf 7d d0 05 3c
       0.21005629 -0.19817135 -0.6664402 0.008167383
0003d0 dd b6 d1 bc 5f c0 cd be 1e 5f f8 be b6 42 c8 3e
       -0.025599891 -0.4018583 -0.4851007 0.39113396
0003e0 31 d5 3c 3e c2 5d 80 be dc e4 48 3e 09 e7 e4 be
       0.18440701 -0.25071532 0.19618553 -0.44707516
0003f0 2d cf 19 bf 08 a7 93 be 45 db ad be 81 33 54 be
       -0.6008175 -0.28838372 -0.33956352 -0.20722772

fc2.weight f4 [256, 256]
000000 c9 21 69 bd e2 dc 0d 3d 81 25 38 bd fd cb 98 bd
       -0.056916986 0.03463448 -0.04495764 -0.07460783
000010 fd cf 82 3c 5d 71 9a bd a5 73 14 3d 4a eb 09 bd
       0.015968317 -0.075411536 0.0362431 -0.033671655
000020 74 b3 cf 3c fa 18 09 bb 52 5d 4b bb 8b 9a 6d bd
       0.025354125 -0.0020919428 -0.0031030965 -0.05800871
000030 74 ff a0 ba 66 99 7e bd 6f 77 43 3d f1 45 50 bd
       -0.0012283162 -0.06215801 0.047721323 -0.05084795
000040 8c 5a 64 ba 83 da a9 bc 83 40 70 3d 2a 67 07 3d
       -0.00087110023 -0.020734077 0.058655273 0.03305737
000050 05 17 04 3c 00 1a 58 3c fb d6 f8 3c 08 e6 f4 3b
       0.008062129 0.013189793 0.030375948 0.007473711
000060 86 15 48 bd ae 6f 2f bd 1d f6 9a bd ae 04 13 bd
       -0.04884865 -0.042831115 -0.07566474 -0.035893135
000070 e7 3c fa bc 14 bc b3 bc dd 03 1f bc 2d cf f7 3c
       -0.030546619 -0.021940269 -0.009705511 0.030250156
000080 61 5f 85 bc 46 4e c6 3c 15 7b cd bc a3 12 14 bc
       -0.016280832 0.024207246 -0.025083104 -0.009037646
000090 31 8e 12 3d b0 3d 7e bd 07 29 67 bd c9 e7 81 bc
       0.035780136 -0.06207055 -0.05643561 -0.015857594
0000a0 97 33 c7 bc 72 3b 54 3d 11 d5 c1 3c b6 8e 6e 3d
       -0.024316592 0.051814504 0.023661168 0.05824157
0000b0 5f e9 5a 3c 67 57 77 3b 2e 4a 9e 3c 1a 96 ad bc
       0.013361304 0.0037741305 0.019322481 -0.021189738
0000c0 50 f7 9d 3c 1b e5 4e bc d2 a8 7d bd 92 74 78 bd
       0.019282967 -0.012627865 -0.061928578 -0.060658045
0000d0 d0 2d 3d bd 85 ab be 3d 30 f6 c4 3c 54 13 07 3c
       -0.04618627 0.093100585 0.024043173 0.008244354
0000e0 84 0e 45 bd 60 55 85 bd f1 19 80 bd a6 97 b3 bc
       -0.048109546 -0.065104246 -0.06254948 -0.021922898
0000f0 b3 c6 cd bc 75 c5 3f bd 43 ad 2c bd bb 7a dd 3c
       -0.025119161 -0.04681917 -0.042157423 0.027036062
000100 9c e0 a4 bd 2d 7b 02 bc 8b 2e ae bd 4e 6d 4e 3b
       -0.08050653 -0.007963938 -0.08504971 0.0031498256
000110 3b a9 80 bd 66 92 4c bd 94 db da 3c 69 db 5d bc
       -0.06282278 -0.049944304 0.026716031 -0.013541081
000120 e0 99 3d 39 3c a6 53 bd d6 37 29 3d 20 c1 7f 3d
       0.00018081767 -0.051672205 0.041313015 0.062440038
000130 dd 19 e6 39 32 5d 5d bd 38 b3 31 bd cb 4d 9b 3c
       0.00043888288 -0.054043956 -0.043383807 0.018957993
000140 0b f7 8e bc f4 5c 37 bd de be c4 3b 4a 22 81 bd
       -0.017451784 -0.04476638 0.0060041985 -0.06305368
000150 fe 83 a2 bd 1c 07 87 bd b8 9f d6 bb 3b d7 c2 bc
       -0.07935332 -0.06593153 -0.0065498017 -0.02378427
000160 0c af 1e bd 2c 93 8c 3c 9b 12 a3 bd e3 6c e0 3c
       -0.038741156 0.01716002 -0.07962533 0.027395671
000170 0a 2c 0a bd 53 fd 2b 3d 3b 39 c0 3b 79 b2 a8 3c
       -0.033733405 0.041989636 0.0058661974 0.020592915
000180 db bf 85 bd 1a 51 33 bc 51 30 36 bd 28 b5 82 bd
       -0.06530734 -0.010944629 -0.044479672 -0.06382209
000190 8b 0e 8a bd 8c 65 75 3c 04 8e 65 3c d2 b7 d2 bc
       -0.06741055 0.014977824 0.01401091 -0.025722418
0001a0 ad ba 15 3d a4 ff 23 3d 5c 0f 59 bd 23 66 1b bd
       0.03655498 0.04003872 -0.052993163 -0.037939202
0001b0 de 6b 86 bc d5 a6 22 3d 8d af 3c 3d b2 64 bb 3c
       -0.016408857 0.039709885 0.046065856 0.022875164
0001c0 a2 30 a4 3b 4e 1e 40 3d 83 39 2e 3c f6 d4 6b bd
       0.0050106803 0.0469039 0.010633829 -0.057576142
0001d0 53 83 00 bd e8 b1 49 bc e0 f8 03 3d 92 29 a0 3a
       -0.03137524 -0.012310483 0.032219768 0.001221942
0001e0 94 92 e7 bc d2 ce 66 bd 15 c6 02 3c 50 d1 3e bd
       -0.028268136 -0.056349583 0.007981797 -0.046586335
0001f0 a3 0f 95 bc 24 22 09 bd a7 95 1a bc 1c b3 d8 3c
       -0.018195933 -0.033479825 -0.009435094 0.026452594
000200 7f 68 07 3c c7 ab 9b 3d e2 eb 02 3d 90 70 75 3d
       0.00826466 0.07601123 0.031963237 0.0599218
000210 69 29 ee bc c6 02 bd 3c a8 5f 3d 3d f3 9d 0d bc
       -0.02907248 0.023072612 0.046233803 -0.008643615
000220 76 84 77 3d 8a 96 f9 3c bc 35 2e bd 6f b2 76 bb
       0.06042906 0.03046729 -0.042531714 -0.0037642976
000230 40 91 03 3c d7 c4 b4 bc a2 84 6c bc cb 75 4f 3d
       0.008030236 -0.022066517 -0.014435919 0.050649446
000240 b7 75 1f bc be 31 57 3c 12 20 fb 3c a2 b5 6b bc
       -0.009732655 0.013134418 0.03065494 -0.014386566
000250 52 6e 50 3d 1d 6c 37 3d 9e 8b 8c bd b3 ba 02 bc
       0.05088646 0.04478084 -0.06862567 -0.007979083
000260 41 f5 20 bd 4e 1e ab 3d 1c 4c cb 3c 75 8a e9 3c
       -0.039296392 0.083553895 0.024816565 0.028508404
000270 e9 3b 81 bd fa 3a 3e 3d dc bd 1a bd 62 2a d6 bc
       -0.06310255 0.046442963 -0.03777872 -0.026143257
000280 9f 06 fb 3c 00 2e 73 ba be 6f 5a 3d ce 60 42 bc
       0.030642806 -0.0009276569 0.053329222 -0.0118639
000290 f5 f2 e6 3c f8 ca 8c bd 11 c9 bd bc 1d 09 2b 3d
       0.028192023 -0.06874651 -0.023167165 0.041756738
0002a0 ad 1b 5c bd b8 62 ee 3c c4 7f 03 bc af 61 f3 3b
       -0.05373733 0.029099807 -0.008026067 0.0074274163
0002b0 06 aa 8d bd 52 6d 1c 3d b4 ef 33 bd d3 bf b7 3c
       -0.06917195 0.038190193 -0.04392977 0.022430336
0002c0 12 09 f5 bc e2 12 49 bd 48 88 79 bd bd 42 37 3d
       -0.029911552 -0.049090274 -0.060920984 0.04474138
0002d0 ca ef 8f bc 18 81 8e 3c 12 87 ae bd ab 92 93 bd
       -0.017570395 0.017395541 -0.08521856 -0.07205709
0002e0 5d 34 01 3d b8 6f 81 bd 1f 20 cd 3c 2c b6 e9 bc
       0.03154408 -0.06320137 0.02503973 -0.02852925
0002f0 89 e7 1b 3d ec 83 3d bd 31 4c 47 3d 63 d2 84 bd
       0.038062606 -0.04626839 0.048656646 -0.064854406
000300 38 43 2c bd 90 64 41 bd 25 cc 83 bd a3 8d 89 bd
       -0.042056292 -0.047215044 -0.06435422 -0.06716468
000310 36 3d 40 3d 95 51 c6 bc 68 90 2c bd ae 04 ab 3c
       0.046933375 -0.024208823 -0.042129904 0.020876255
000320 2f b0 27 bd 2b c7 a6 3a 07 68 33 bd b6 c3 c6 3b
       -0.040939506 0.0012724152 -0.04380038 0.006065811
000330 61 08 43 bd 8e 5c 0b bd e0 d0 43 bd 6e c4 cd 3b
       -0.047615413 -0.034023814 -0.04780662 0.0062795198
000340 c2 f0 85 3c c2 55 14 3d d9 b4 13 3d c5 a6 0c 3d
       0.016350154 0.036214598 0.03606114 0.03433873
000350 04 84 4a 3b 48 0d 82 3c d2 35 d6 bc d7 7e 2d 3c
       0.0030901441 0.015875474 -0.02614871 0.010589323
000360 ff f7 02 bd 66 aa f1 3b 58 2b b2 bc c4 5f e6 3c
       -0.03197479 0.0073750494 -0.021749184 0.028121836
000370 e3 50 1e bd e7 e1 c3 3c 6a 96 06 bc 4a aa 25 bd
       -0.03865136 0.02391143 -0.008214572 -0.040445603
000380 ad 9c d5 3c 06 9b b6 3c 0a ba 91 3c cc 2a 68 3d
       0.026075685 0.022290718 0.017788906 0.05668144
000390 26 5b 58 3c 96 b4 21 bd 9c 0c f2 bc b6 f9 6d 3c
       0.013205325 -0.03947886 -0.029547028 0.014524868
0003a0 6c b5 d1 bc 31 18 cc bc 95 1e 05 3d d5 fe 36 bb
       -0.025599204 -0.02491388 0.03249987 -0.0027922888
0003b0 1c 1b e8 3c cb 11 1d 3d 2a eb 44 bd 72 47 68 bd
       0.02833324 0.038347047 -0.048075832 -0.05670876
0003c0 77 8f 78 bc 88 95 06 bc 90 d3 e8 3b 29 1a 91 bd
       -0.015170923 -0.008214362 0.0071052983 -0.07085068
0003d0 b6 28 af 3c 1a d9 88 bd 14 46 a9 3c 46 60 43 bc
       0.021381717 -0.06682034 0.020663299 -0.011924809
0003e0 7c cf 0d 3c 71 f5 26 3b 40 50 93 3a 87 38 be bc
       0.008655425 0.0025475884 0.0011239126 -0.023220314
0003f0 1a 8c 7d bd 46 23 87 3b 74 81 05 bd 5c 42 da 3c
       -0.06190119 0.004124078 -0.03259416 0.02664297

fc2.bias f4 [256]
000000 a1 34 06 3c 99 b3 2d bd ff 83 9f bb 24 c3 89 bd
       0.008191259 -0.042407606 -0.00486803 -0.06726673
000010 12 1d 84 3e 05 3c 0e 3d 3e 32 30 3d 52 d3 37 bc
       0.2580343 0.034725208 0.043016665 -0.011219816
000020 34 63 fb bd 6a 86 37 be 9c a1 f8 bb 30 03 b9 3c
       -0.12274781 -0.17922369 -0.0075876247 0.022584528
000030 24 83 b8 3b 18 6a 27 3e e9 e4 5d 3d da 67 70 bd
       0.0056308676 0.16349065 0.054173384 -0.05869279
000040 73 f4 7d 3d 67 15 06 bd 16 ee f6 3c e2 47 60 bc
       0.062000703 -0.032735255 0.030142825 -0.013689013
000050 11 fc 80 3c e8 7f 8d 3d 46 6c 3f 3c 5e bb d4 bd
       0.015745195 0.06909162 0.011683529 -0.103873
000060 3c 10 81 ba bd d5 ab 3c 45 69 16 3c 60 99 1d 37
       -0.0009846757 0.020975942 0.009180372 9.39364e-06
000070 f9 6a 05 be 1b b0 5a bc e9 34 9a 3d 10 06 fa bc
       -0.13029088 -0.013347651 0.07529623 -0.030520469
000080 bf c1 42 bb f7 71 6a 3d ca 79 14 bd c4 65 d6 bc
       -0.0029717532 0.05723759 -0.03624896 -0.026171573
000090 28 cd 2d 3b f0 49 cc 3c 30 af a7 3c 12 f6 b5 3d
       0.0026519988 0.0249376 0.020469278 0.08884825
0000a0 8d 1c 2a 3d 60 83 aa 3d d7 72 54 3d 41 20 2d 3e
       0.041531134 0.08325839 0.051867332 0.16906835
0000b0 b3 7d 2e 3e 5f 6a 8e 3e 4a 4f 65 3e 78 32 8a bd
       0.17040138 0.2781553 0.22393528 -0.067479074
0000c0 db d8 31 3e 33 d5 1e bd 49 60 a9 bb 37 2c b9 3c
       0.1736788 -0.03877754 -0.005168949 0.022604091
0000d0 cb d0 db bc 53 35 86 3c 4c 76 1c 3e 3b 23 a5 bc
       -0.026832959 0.016382849 0.15279502 -0.0201584
0000e0 9e b1 0c bd 2b fc 12 3e 58 c0 18 3d 40 a3 38 3d
       -0.034349076 0.14354007 0.03729281 0.045077562
0000f0 64 e5 7d bd 83 88 ff bb 27 10 12 3c 7b 01 4f be
       -0.061986342 -0.007798256 0.008914984 -0.20215409
000100 56 e2 06 bd 6e 07 50 bd 55 d0 97 be 1e e5 65 3d
       -0.032930695 -0.050788336 -0.29651132 0.056126706
000110 71 88 67 3c ee 55 0d 3e e7 08 64 3e 9e ad 36 3d
       0.014131651 0.13802311 0.22269021 0.044599168
000120 37 44 38 3e df 6d 75 3c ce 64 6a bd 83 83 61 3d
       0.17994772 0.014979809 -0.05722504 0.05505706
000130 f2 e9 25 bd 91 0e 9f bd fa 6c 90 3c be 87 8a bd
       -0.04050631 -0.0776645 0.01763009 -0.06764172
000140 93 df 6c bd a9 94 b6 3d 2e f4 75 bc b2 52 3b bc
       -0.057830404 0.089150734 -0.01501183 -0.01143329
000150 bf 84 1b be 7f 39 57 bd c6 b9 57 bd 2e 80 24 bc
       -0.15187357 -0.052545067 -0.0526674 -0.010040326
000160 f1 15 8b be d4 df 94 3d a2 2e 0a 3d 0a d3 8a 3e
       -0.27165177 0.07269254 0.03373588 0.27114135
000170 22 56 15 be ec b1 f6 3d c5 f7 65 bd a1 ef 67 3a
       -0.14583638 0.12045655 -0.056144495 0.0008847658
000180 14 75 bf 3e e0 77 3a 3e a8 a0 c0 bb b1 83 21 be
       0.3739401 0.18209791 -0.0058785267 -0.15772893
000190 82 c5 ce 3e fa fe 9b bd 1d 8c 9e 3d 28 10 e7 bc
       0.40385062 -0.07616992 0.07741568 -0.028205946
0001a0 44 70 46 3d d3 48 90 3e ab 9e 37 3d e8 d2 59 bd
       0.04844691 0.2818056 0.044829052 -0.05317965
0001b0 83 82 61 bd 4c c9 39 bc 3b 92 1f 3e 57 de 27 bb
       -0.055056106 -0.011339497 0.15583126 -0.0025614703
0001c0 c2 c3 21 3b c9 ad 0a 3d 60 79 b8 bc 62 5d 1e 3d
       0.002468333 0.03385714 -0.022518814 0.038663276
0001d0 89 9d 33 bd e0 24 6b 3d 50 76 c7 3c 0e 46 48 be
       -0.04385141 0.057408214 0.024348408 -0.19557974
0001e0 6d 16 f1 3c 87 b3 fd 3c ef b9 4f 3c 93 42 2a bd
       0.029429639 0.030969394 0.012678607 -0.041567396
0001f0 5c 7c 9d 3d 3b 95 7d 3e 17 0c 83 bd 7d 38 67 3d
       0.07689735 0.24763958 -0.0639879 0.056450356
000200 ab f5 7e bd a0 a2 1a 3c f2 08 c0 3c 8c c1 7f bd
       -0.062246006 0.009438187 0.023441765 -0.06244044
000210 c9 b3 71 3d f1 1a 61 bd e1 58 97 3d 3f 05 2d bd
       0.059009347 -0.054957334 0.07389999 -0.04224133
000220 90 85 1a bd 36 98 04 be 4a f2 2a 3a ad 58 00 bd
       -0.03772503 -0.12948689 0.0006521089 -0.031334568
000230 a9 a0 d5 3d 3d b0 d8 3b 03 f9 c9 bc a4 df dd bc
       0.10431034 0.006612806 -0.02465487 -0.02708418
000240 dd 8d bb 3e 0d 8f 90 3e dd e5 8f be b4 3b 0c 3d
       0.3663167 0.2823414 -0.2810506 0.034236625
000250 5f 5f 5c 3e 27 38 57 bd 6a 5f ed 3d 87 03 ec 3c
       0.21520756 -0.052543785 0.115904644 0.028810276
000260 87 15 35 3d f8 e4 f2 3c 51 c7 91 3d 91 aa 7a 3e
       0.044209983 0.029650196 0.07118095 0.24479128
000270 5a 18 52 bd aa af 47 3e e9 74 04 be 44 7d 8b 3c
       -0.051292755 0.19500604 -0.12935223 0.017027505
000280 5a ab fd 3e 4f 08 c0 bd c2 bd 4a 3d 9a f7 ac bc
       0.49544793 -0.09376585 0.049497373 -0.02111416
000290 ad 13 65 bd 01 07 ac be 59 de 01 bd 35 50 52 3e
       -0.055926967 -0.33599094 -0.031706188 0.20538409
0002a0 27 db 5e be 37 1f 45 3e c6 82 3f 3e fe 42 03 bc
       -0.21763287 0.19250189 0.1870223 -0.008011578
0002b0 2b 7b 55 bd cc 67 1d 3d c1 e3 7d bb cf 40 9a bd
       -0.052119415 0.038429067 -0.0038740488 -0.075318925
0002c0 16 74 75 3e 31 2d 64 3e 67 d8 b7 3d af 1c 8b bc
       0.23970065 0.22282864 0.08976822 -0.01698145
0002d0 63 1a a3 bb 58 36 9c bd 4b bb ca 3d 5a f8 dd bc
       -0.004977511 -0.07627553 0.098990045 -0.027095962
0002e0 f7 4e 2e bd 46 de 05 3e 5c 7a 82 3e 63 cc b1 3d
       -0.042555775 0.13073072 0.25483978 0.08681562
0002f0 1c fc 89 bc 26 43 13 3d 56 d4 81 3e a9 05 2e 3e
       -0.016843848 0.03595271 0.25357312 0.16994347
000300 b7 b4 d5 3d b6 5e 84 3e 7f d1 32 bd bb b6 72 bc
       0.10434859 0.2585351 -0.043656822 -0.014814074
000310 0c 8b 42 3e 15 64 c4 3c 93 e7 db 3d d9 2d 39 3e
       0.18998355 0.023973504 0.10737529 0.18083896
000320 0d ed 69 b9 14 0a 01 bd d4 4e fb 3c 6e 11 f7 bc
       -0.0002230892 -0.031503752 0.030677237 -0.030159678
000330 23 7c 4b be 56 71 24 bd 78 c4 1f 3e 2d c1 ae bc
       -0.19871573 -0.040147148 0.1560229 -0.021332348
000340 1d 59 56 3e 08 53 fd bd 72 80 1b 3d f9 6f 19 be
       0.20932432 -0.123693526 0.037964292 -0.1498412
000350 67 86 80 be 67 03 a4 3c b8 0e 00 3e c3 5c d8 bc
       -0.2510254 0.020021154 0.12505615 -0.02641142
000360 8f ac a3 3c 1a 27 53 3d 54 2b 83 3c 3b 85 81 bd
       0.019979743 0.051550962 0.016011871 -0.0632424
000370 d3 95 07 bd 87 c0 fe bd 7e 83 83 3c 4b c7 8f 3c
       -0.033101868 -0.124390654 0.016053911 0.017551085
000380 00 bb 5f 3d 09 e2 98 be e2 d9 65 3d 64 32 2e 3e
       0.054621696 -0.2985995 0.056115992 0.1701141
000390 1f d5 0f 3e 15 22 56 bd e4 6d 08 3d af 98 97 3c
       0.14046143 -0.052278597 0.033307925 0.018505422
0003a0 a1 d8 8c 3e 78 a9 b0 3d 1b 9a 37 bd e4 03 88 bc
       0.27509025 0.086260736 -0.0448247 -0.016603418
0003b0 31 22 09 3e b8 a8 9b 3d ee 1f 4f bd 04 81 7e bd
       0.13391949 0.0760054 -0.05056756 -0.062134758
0003c0 85 bc ed 3d 34 17 96 3e 4e bf a6 3d 43 c5 56 bd
       0.11608223 0.29314578 0.08141957 -0.052434217
0003d0 6e 1e a5 3d c1 ec 9d be 7e 8e c6 bd fb e6 7e be
       0.080624446 -0.3084469 -0.09695147 -0.248928
0003e0 71 05 08 3d 1a 36 42 3d 79 97 9a bd eb 16 b9 3c
       0.033208314 0.047414877 -0.07548422 0.022593936
0003f0 0a b8 8d 3d ac 26 a9 bc 01 37 a5 3e 40 4f 0a bd
       0.06919868 -0.020648323 0.32268527 -0.033766985

fc3.weight f4 [1, 256]
000000 2a a7 84 bb 8e d7 38 bd 4c 47 c3 3c 3c ac c3 3b
       -0.004048248 -0.045127444 0.023837708 0.0059714597
000010 d1 19 f5 3d 55 d3 89 3a 62 74 86 3b f0 b3 51 3e
       0.11967815 0.0010515252 0.0041032294 0.20478797
000020 a7 1d a5 3d 3a 06 5d 3e 99 35 90 3c 8c 18 95 3d
       0.08062296 0.21584406 0.017603682 0.072800726
000030 89 0f aa 3e f5 6c ab bd 30 a3 9b bc 0b e7 e3 3a
       0.33214977 -0.08370391 -0.018998712 0.0017387582
000040 f9 70 50 be a4 a8 4b 3d 3f 0f 9c 3c 83 b0 3a 3e
       -0.20355596 0.049721375 0.019050239 0.18231396
000050 d2 84 fc bc 8c 5a 8a 3b a9 bb 1b 3d af b2 ae 3d
       -0.030825052 0.00422222 0.038020764 0.08530175
000060 7b a4 98 bd b2 9a e6 3a f0 41 de bb 7c 8e e0 3d
       -0.07453247 0.001759371 -0.0067827627 0.10964677
000070 58 c4 32 be 4e b8 44 bd ef f9 b7 bd 7d 66 81 bd
       -0.17457712 -0.04802733 -0.08983218 -0.06318376
000080 21 4c 5c 3d d6 d7 f9 bd 62 b8 89 3d 2b 79 05 3d
       0.05378354 -0.121993706 0.06724621 0.032586258
000090 1e ca 19 3a 98 ce 50 3c 55 5c 71 bc 5c 1a f1 3d
       0.00058666046 0.012744568 -0.014731486 0.11772606
0000a0 b7 32 af 3d 1e b7 d4 bd 3b 74 6d bd 80 0b fc 3d
       0.08554595 -0.10386489 -0.057972174 0.12306881
0000b0 d6 7a 83 bd a4 bc 37 3f 85 4d c6 3d 71 54 cb 3d
       -0.064199135 0.7177222 0.096827544 0.09928215
0000c0 b1 bd 9a 3e bc 2e 46 3d 11 b5 c0 3c d7 66 00 3e
       0.30222848 0.048384413 0.02352384 0.1253923
0000d0 ff 4f 97 3c 9a a9 ee bb 6a ce 13 be 45 39 35 bd
       0.018470762 -0.0072834017 -0.1443421 -0.04424407
0000e0 5a 01 0b 3d 21 a1 25 be 54 eb 8a be 46 d0 55 bd
       0.033936836 -0.16174747 -0.27132666 -0.05220058
0000f0 b7 6a e5 3c 0b 63 5f bd 50 88 67 3a 65 20 93 3d
       0.028004987 -0.054537814 0.0008832263 0.07183913
000100 a8 68 e7 bc 8c a3 ca 3d b4 17 f2 3d 3d 84 0d 3e
       -0.028248146 0.09894475 0.11820927 0.13819976
000110 bd 40 6e 3d f2 87 b2 bd d8 a8 b9 bd c5 29 99 3d
       0.058167208 -0.08717336 -0.090654075 0.0747867
000120 a4 a7 70 3e ae 5a 4d 3d c7 ee 66 bc 5c 08 50 bd
       0.2350145 0.050135307 -0.014095015 -0.050789222
000130 00 a4 c7 3b b7 7f 15 3d ef 7c 19 bd 8d 58 f5 bc
       0.0060925484 0.03649875 -0.03747266 -0.02994945
000140 5c 73 95 3c b5 c4 12 bd 5e 8e 0b 3e 01 f6 32 bd
       0.018243484 -0.035832126 0.13628528 -0.04369164
000150 c9 76 5a be 0e 97 a0 be 9c c7 29 3d e2 8d 5d 3d
       -0.21334375 -0.31365246 0.041450128 0.054090388
000160 87 7b 72 3e 28 7f 80 be 68 e2 62 3e 56 00 d1 3d
       0.23679934 -0.25097013 0.2215668 0.10205142
000170 af 60 d7 be ef 2c c9 bd f7 a8 ec 3d 4a af 16 3d
       -0.4206595 -0.098230235 0.11555665 0.036788262
000180 2d 5f 36 bf 54 b2 a1 3f cb 8b c4 3b 77 1d c7 3d
       -0.71238977 1.2632546 0.00599811 0.09722417
000190 0d 88 ad 3e 3f 25 a8 3c 50 ff 14 3e 33 e2 df 3d
       0.3389286 0.020525573 0.14550519 0.10931816
0001a0 9d 7d 25 bd 44 fa 14 bf ab 8c 5c 3d ed 12 77 bb
       -0.040402997 -0.58194375 0.05384509 -0.003770049
0001b0 d3 2e 09 bd 94 ac ff 3d 39 f5 f3 be 62 98 78 3c
       -0.03349192 0.124840885 -0.47648028 0.01517305
0001c0 a6 0d 9a bd 6e 1b 04 bd de a7 ba bd 90 b1 b7 bc
       -0.075221345 -0.03225272 -0.091140494 -0.022423536
0001d0 62 2c b2 3b da 43 e7 3d 8b c1 62 3d 45 dd 22 3e
       0.0054374197 0.112922385 0.05536036 0.1590472
0001e0 1d 4a c3 bc f7 2a 0c 3d ef 97 44 bd 29 1c bb 3c
       -0.02383905 0.034220662 -0.047996458 0.022840576
0001f0 5f 56 86 bd c5 15 16 3e e9 40 eb bd 95 28 b4 3d
       -0.06559443 0.14656742 -0.1148699 0.08796803
000200 28 ce 8b bc 3a c4 3d 3d b9 93 2d bd f8 a0 62 bd
       -0.017066076 0.046329714 -0.042377207 -0.055329293
000210 c1 1e 0f 3e 00 fd 74 3d 96 92 01 3e 1d da 8d bd
       0.13976575 0.059811592 0.12653574 -0.069263674
000220 f0 a6 dd bc 9e 05 15 3e 92 e5 18 3d 23 d0 e9 3c
       -0.027057141 0.14552924 0.03732831 0.02854163
000230 f8 aa 9a bd a6 56 81 3d 14 3d 19 bd 75 56 2a 3d
       -0.07552141 0.06315355 -0.037411764 0.041586358
000240 46 fb 4e 3e 9f a8 a3 3d 80 4c a4 3d 7f 57 2e 3c
       0.2021304 0.07991146 0.08022404 0.010640978
000250 33 5a 2a 3e 6c 34 50 3c 48 61 00 bd 84 71 1a bd
       0.16635971 0.012707811 -0.031342775 -0.037705913
000260 ec a7 fc bc 2b 8b ef bd c3 ab a5 3c 8a 71 04 3e
       -0.03084179 -0.11696466 0.020223504 0.12933937
000270 1c 52 63 3d 0b 17 17 bd 75 47 81 3e bc 2e f4 3c
       0.055498227 -0.03688721 0.2524983 0.029807441
000280 09 7b 11 3f be aa f4 bc 71 55 eb 3d d1 d9 6c bb
       0.5682836 -0.029866572 0.11490906 -0.003614057
000290 5d 58 99 3d 7b 4c a3 bf 28 4c c9 bd fa f0 be 3c
       0.07487557 -1.2757715 -0.09828979 0.023308266
0002a0 95 ce 7a 3e 95 f0 ac bd 77 6d 05 bf df 1c a7 3c
       0.24492867 -0.08444325 -0.52120155 0.020399509
0002b0 bc 37 58 bc cd 22 5e 3c 4f df 4a 3c 3a 0e 31 3d
       -0.013196882 0.013558102 0.0123823425 0.043226458
0002c0 6c f2 4f be 6e 8b 2e bd 3e 9c 40 bd 9a 88 52 bc
       -0.2030732 -0.04261344 -0.047024004 -0.012849951
0002d0 85 8b d3 bd d0 2a fc 3d b0 c3 11 be d2 cb 3d 3e
       -0.103293456 0.12312853 -0.14234805 0.18534783
0002e0 5a 0b 23 be 27 2f 4b bd f3 ac 11 3e 4d fc c3 bd
       -0.15922299 -0.049605515 0.14226131 -0.09569607
0002f0 5d b2 af 3d 9f 9f fa bd af 75 b0 bd 52 41 9f 3d
       0.08578942 -0.122374766 -0.08616196 0.07776131
000300 e0 4d bc be 03 f3 20 3e 94 3e 7a 3d 74 6b 83 3e
       -0.36778164 0.15717702 0.061094835 0.25667918
000310 dd 20 ca bc bb dd 54 bd 52 26 f9 bc 40 13 9d bd
       -0.024673874 -0.05196927 -0.03041378 -0.07669687
000320 b9 04 fa bc 1c 46 ee 3c 97 d4 47 3d fa 59 f0 3c
       -0.03051983 0.029086165 0.048786726 0.02933978
000330 9a 68 05 bf 5c 83 e2 3d 55 3f c8 3e 73 3b 38 3e
       -0.52112734 0.11060211 0.39110819 0.17991428
000340 66 63 11 bd de 34 6f bd 46 5c 8f bb 99 30 88 3d
       -0.035495184 -0.058400027 -0.0043750135 0.06649894
000350 73 eb 90 3e 55 41 61 3d bc 28 50 3e c8 f6 ad bb
       0.28304633 0.054993946 0.20328039 -0.0053089596
000360 46 6d 40 3d 64 6c 4e 3d d2 cf 17 bd aa e7 ae 3d
       0.04697921 0.050396338 -0.037063427 0.0854028
000370 8e d4 0f 3e a7 83 a6 3c 31 69 8f bd 61 ce 4f bd
       0.14045927 0.020326449 -0.070024855 -0.050733928
000380 6a 5b 26 be 26 37 36 3e 0c 81 ed ba 59 09 69 bd
       -0.16245809 0.17794475 -0.0018120124 -0.05689368
000390 e3 a0 af be 9a b4 ae 3b 9c cf f6 bc 21 9e 5e 3d
       -0.34302434 0.005331588 -0.030128293 0.054350022
0003a0 c2 23 66 bf f9 fa 8a bc 57 6f 38 bd e9 96 bc bc
       -0.8989831 -0.016965376 -0.045028057 -0.023021178
0003b0 b9 54 16 bd f1 c6 49 bd a7 25 be 3a 5d ef b2 3c
       -0.03670189 -0.04926199 0.0014507071 0.021842653
0003c0 78 d5 24 3c 4f 68 9a bb 00 c0 86 be 91 fa 1f bd
       0.010060661 -0.0047121416 -0.2631836 -0.039057318
0003d0 3b 21 1e 3f 84 e3 1e 3e 0c 41 99 3d be 47 3a bf
       0.61769456 0.15516478 0.0748311 -0.7276572
0003e0 49 be fd 3d 6b a4 a2 be fc b8 42 be 69 4e 5c bd
       0.1238981 -0.31766066 -0.19015878 -0.053785715
0003f0 0b 62 bc 3e 0e 40 4a bd 0d f9 08 bf 6c 07 e1 3c
       0.3679355 -0.049377494 -0.5350502 0.02746936
