TD3/models/actor_eps100_veh100_10e-2_8e-2_0.8_-2.pth (torch, 275287 bytes, 5 tensors)

fc1.weight f4 [256, 8]
0	0x3eef23eb	0.4670709
1	0xbbdb57b0	-0.006693803
2	0xbe8571ce	-0.2606339
3	0xbe9d9d5d	-0.3078412
4	0x3d3d14d1	0.04616243
5	0xbd4d4c4f	-0.0501216
6	0x3ee23053	0.44177493
7	0x3e54ecfc	0.20793527
8	0xbe86fc57	-0.26364395
9	0x3e15df3c	0.14635938
10	0x3e4220cd	0.18957825
11	0x3cfcf77a	0.030879725
12	0x3d67bcce	0.056576543
13	0xbdea2ea9	-0.11434681
14	0x3f23be22	0.63961995
15	0xbaa7ea78	-0.0012810966
16	0x3eae8de4	0.3409263
17	0xbd83be2d	-0.064327575
18	0xbea075dc	-0.3133992
19	0x3ee83602	0.45353705
20	0xbd45e913	-0.04831798
21	0x3debf21e	0.115207896
22	0x3f2f6fe1	0.6853009
23	0xbe829ae4	-0.25508797
24	0x3d7944df	0.060856696
25	0x3e978dc9	0.2960036
26	0xbf2d7515	-0.6775678
27	0x3e24542f	0.16047738
28	0xbd2575fc	-0.04039572
29	0x3d490c3c	0.049083933
30	0xbf989a98	-1.1922178
31	0x3ec78adb	0.38973126
32	0xbde95e1c	-0.11394903
33	0xbdec8b0b	-0.11549958
34	0x3eecb8ad	0.46234646
35	0xbf00592f	-0.50136083
36	0x3dd36a60	0.10323024
37	0xbd8c048d	-0.068368055
38	0x3f626288	0.88431597
39	0xbdeffb9e	-0.11717914
40	0xbe356e4c	-0.17717856
41	0x3efbbf8c	0.49169576
42	0xbf1dfd71	-0.61714846
43	0x3e1cf46c	0.15327615
44	0x3d5a183d	0.05324577
45	0xbe5fbdba	-0.21849719
46	0xbea997d1	-0.3312364
47	0x3ec0a9f3	0.3762966
48	0x3f19b8eb	0.6004779
49	0x3e2439b1	0.16037633
50	0x3eb9b395	0.36269823
51	0x3eae590d	0.34052315
52	0x3e2ad82c	0.16684026
53	0xbddadb4f	-0.10686361
54	0x3f47c77f	0.7803878
55	0xbea3f12a	-0.3201993
56	0x3b6c74c5	0.0036080342
57	0xbd6038b9	-0.054741595
58	0x3eb6eed9	0.357291
59	0xbeb6c4f6	-0.35697144
60	0xbb303a8e	-0.002689037
61	0x3e344c68	0.17607272
62	0x3fb399cc	1.403131
63	0x3d4d23a4	0.050082818
64	0xbdd8ccc2	-0.105859295
65	0x3d94ccc8	0.072656214
66	0xbf1d4e9c	-0.61448073
67	0xbe1ca9aa	-0.15299097
68	0x3d8401bd	0.06445644
69	0x3d7ff0d0	0.062485516
70	0xc018d89d	-2.388221
71	0xbdbc29fb	-0.09187695
72	0xbe321fc6	-0.17394933
73	0x3dde0334	0.10840455
74	0xbf109527	-0.5647759
75	0x3d866183	0.06561568
76	0x3d145589	0.036214385
77	0x3b9d73b4	0.0048050527
78	0xbfd9a0d8	-1.7002211
79	0xbd5dfe25	-0.05419745
80	0xbeb877eb	-0.3602899
81	0x3e2b35c0	0.16719723
82	0x3f4fdfcc	0.8120086
83	0xbe440db5	-0.19145854
84	0x3d32f71f	0.043692704
85	0x3cb7d3ea	0.022439916
86	0x3f269302	0.65068066
87	0xbd6f9f26	-0.058501385
88	0xbe97b539	-0.2963045
89	0xbdcd7439	-0.10031933
90	0x3f156280	0.58353424
91	0x3ec60be8	0.3868096
92	0xbde46604	-0.111522704
93	0x3d7232fc	0.059130654
94	0xbf0c4069	-0.5478578
95	0xbe7172e5	-0.23578985
96	0xbf18ee67	-0.59738773
97	0x3e8fb395	0.28066698
98	0x3e91cd1d	0.28476802
99	0x3d829273	0.06375589
100	0xb9b3457c	-0.0003419331
101	0xbed34b46	-0.41268367
102	0x3f851bc4	1.0399098
103	0x3e2fe106	0.17175683
104	0xbe52c3f8	-0.20582569
105	0xbe54c8d2	-0.20779732
106	0x3ef8abb9	0.48568514
107	0x3ba7bd8c	0.0051190313
108	0xbd196ba6	-0.037456177
109	0xbd4fbd06	-0.050717376
110	0x3f3fce91	0.7492457
111	0x3eb3da4d	0.35127488
112	0xbe4b115c	-0.19830841
113	0xbe59c1d0	-0.2126534
114	0x3ed4a9f3	0.4153591
115	0x3cad3b8c	0.021146558
116	0x3d442550	0.047887146
117	0x3d425afa	0.047450043
118	0x3fec3ac9	1.845544
119	0xbe8dbb02	-0.27681738
120	0xbeeaa9f6	-0.45832795
121	0x3e1a1008	0.15045178
122	0x3e8e4e5d	0.2779416
123	0x3e65370f	0.22384284
124	0x3e27b7ce	0.1637871
125	0x3dadd43f	0.08487748
126	0xbfc2d13c	-1.5220103
127	0xbf4be343	-0.7964365
128	0x3c6fef92	0.01464452
129	0xbd73cbb7	-0.05952045
130	0x3e32d165	0.1746269
131	0x3e0934cc	0.13399047
132	0x3e6afeb5	0.22948726
133	0xbe92566d	-0.28581563
134	0x3fdb579b	1.713611
135	0x3dc0747f	0.0939722
136	0x3efd8234	0.495134
137	0x3d170b78	0.03687617
138	0xbf1c3cdd	-0.6103037
139	0xbe66ab44	-0.2252627
140	0xbdbf1836	-0.0933079
141	0x3d74c782	0.059760578
142	0xbfa94d19	-1.3226653
143	0x3e81f52a	0.25382358
144	0xbf3dfd94	-0.74215055
145	0xbe713900	-0.235569
146	0xbeaab52c	-0.33341348
147	0xbd40bf08	-0.04705718
148	0x3d76aa13	0.06022079
149	0x3d8b300b	0.06796273
150	0xbf271a3a	-0.65274394
151	0xbe4b0379	-0.19825543
152	0x3e484a1c	0.1955952
153	0xbdd64c7c	-0.10463807
154	0x3e321391	0.17390276
155	0xbe8dec61	-0.27719405
156	0x3e19c24c	0.15015525
157	0x3be259ef	0.0069076936
158	0x3e3ffd35	0.18748935
159	0x3e4e0cf8	0.20122135
160	0xbd1aa18c	-0.03775172
161	0xbc91aa9f	-0.017781554
162	0xbeec9d5e	-0.46213812
163	0xbe7f5058	-0.24932992
164	0x3acfc86e	0.0015852579
165	0x3e38b920	0.1803937
166	0xbfdeaee6	-1.7397125
167	0x3e83d7b0	0.25750494
168	0xbe0e86f9	-0.13918675
169	0x3e49bb62	0.19700387
170	0x3d416463	0.047214877
171	0x3e5ea48e	0.2174246
172	0xbd4ca303	-0.049960148
173	0xbe040f57	-0.12896477
174	0xbf344381	-0.704155
175	0xbd9d1e36	-0.07671778
176	0x3dd5ca84	0.104390174
177	0xbde1058e	-0.109873876
178	0xbf8dd344	-1.1080098
179	0xbf0ff376	-0.56230867
180	0x3d50f3ed	0.051013876
181	0x3dd83b15	0.10558144
182	0x3f18953a	0.596027
183	0x3d4801af	0.04882973
184	0x3e876e13	0.26451167
185	0x3eb3f1a6	0.351453
186	0x3f221281	0.63309485
187	0x3e950e8d	0.29112664
188	0x3b87e1a8	0.0041467734
189	0xbae37a46	-0.0017355166
190	0x3f8e86b1	1.1134855
191	0xbd8cf5f7	-0.068828516
192	0x3dd56e87	0.10421472
193	0xbe6049f6	-0.21903214
194	0x3d927ce9	0.07152731
195	0xbcb01b67	-0.021497441
196	0xbe11b5e7	-0.14229546
197	0x3e08e6a0	0.13369226
198	0xbf5b5163	-0.8567106
199	0xbf046fa2	-0.5173284
200	0x3e535f03	0.20641713
201	0xbec06dfa	-0.37583905
202	0x3d503424	0.050830975
203	0xbed3a057	-0.41333267
204	0x3c546ef7	0.012965909
205	0x3e4e4675	0.20144065
206	0x4004d68a	2.0755944
207	0xbea027c2	-0.31280333
208	0x3c95ab74	0.018270232
209	0x3eafeea3	0.34361753
210	0xbe98fc78	-0.29880118
211	0xbe140d52	-0.14458206
212	0x3cb1e2a5	0.021714518
213	0xbd237434	-0.03990574
214	0x3f90a44a	1.1300137
215	0x3e889ba5	0.26681247
216	0xbe1004ae	-0.14064285
217	0xbd590fcb	-0.052993577
218	0xbebab3dd	-0.3646535
219	0xbbc1b449	-0.0059113842
220	0xbd7e5373	-0.062091302
221	0x3d9c0ba3	0.07619407
222	0xbf963cdb	-1.1737322
223	0xbd17461c	-0.036932096
224	0xbe00044c	-0.12501639
225	0xbe330571	-0.17482544
226	0xbeae4b21	-0.34041694
227	0x3d878feb	0.06619247
228	0xbc804339	-0.015657054
229	0x3e2c8fae	0.16851684
230	0xc019bbe3	-2.4020927
231	0x3ba64a53	0.005074778
232	0x3ec2ae52	0.3802362
233	0xbde1be76	-0.11022656
234	0xbf01ec6a	-0.50751364
235	0x3e9583e4	0.29202187
236	0x3de876ec	0.113508075
237	0xbe350e60	-0.17681265
238	0xbf1ef603	-0.62094134
239	0x3e265351	0.1624272
240	0xbd23b19b	-0.0399643
241	0xbe658247	-0.22412978
242	0x3e2e28f9	0.17007817
243	0xbe235584	-0.1595059
244	0x3ddfed62	0.10933949
245	0xbd3fe74e	-0.04685145
246	0xbfcedee7	-1.6161774
247	0x3e4b02c5	0.19825275
248	0x3d738560	0.05945337
249	0xbe5aa7da	-0.21353093
250	0xbe07ce7a	-0.13262358
251	0xbe3e1a0b	-0.18564622
252	0x3caf54cd	0.02140274
253	0x3d56e993	0.052468847
254	0xc0088b40	-2.1334991
255	0x3eae3800	0.340271

fc1.bias f4 [256]
0	0xbed153de	-0.40884298
1	0x3800c80c	3.0703886e-05
2	0xbe260fc3	-0.1621695
3	0xbe10ab00	-0.14127731
4	0x3ea7e9b6	0.32795495
5	0xbea27a0f	-0.31733748
6	0x3e8baf66	0.27282256
7	0x3ec272df	0.37978265
8	0xbec88bdb	-0.391692
9	0x3e1117f5	0.14169295
10	0x3ee09a75	0.4386784
11	0x3e5bf709	0.21480955
12	0x3dc3f1ba	0.0956759
13	0x3f25b1f3	0.64724654
14	0x3c29cf14	0.010364313
15	0xbe499e56	-0.19689307
16	0x3e40b9f1	0.18820931
17	0xbda721ca	-0.081607416
18	0xbef48e4d	-0.47764817
19	0xba760c8c	-0.0009386025
20	0xbe971ce6	-0.29514235
21	0x3d059553	0.03261311
22	0xbf9f2557	-1.243327
23	0x3f0d1a1e	0.55117977
24	0xbea3ccd3	-0.31992206
25	0xbe8ea54b	-0.27860484
26	0x3c852c3c	0.016256444
27	0xbe78d59d	-0.24300237
28	0xbeb2c25f	-0.34913918
29	0xbd4cf6d2	-0.050040074
30	0xbe068e66	-0.13140258
31	0xbcd8a8e7	-0.026447726
32	0xbe347407	-0.17622386
33	0xbe45749b	-0.19282763
34	0x3d5a74ca	0.053334035
35	0xbd03eb7b	-0.032206994
36	0xbed4879f	-0.4150972
37	0xbf3f5225	-0.7473472
38	0x3bfd9bf0	0.0077395365
39	0xbecca94d	-0.39972916
40	0x3ee46b68	0.44613194
41	0x3f38c3f3	0.72173995
42	0x3f9c426d	1.2207772
43	0x3dad01a1	0.08447576
44	0x3e34cc06	0.17655954
45	0xbe1ec666	-0.1550537
46	0x3e3ee5d6	0.18642363
47	0xbe93b033	-0.28845367
48	0xbe947f42	-0.2900334
49	0x3f780554	0.9688313
50	0x3e65caed	0.22440691
51	0xbeae7512	-0.34073693
52	0x3ef07acf	0.46968696
53	0xbe578f85	-0.21050842
54	0xbea55775	-0.32293287
55	0xbe9c2df9	-0.30503824
56	0x3d83b06c	0.06430134
57	0xbebab248	-0.36464143
58	0x3f120777	0.5704264
59	0x3fa25425	1.2681929
60	0xbe9ca097	-0.3059127
61	0x3edad2a1	0.42738822
62	0x3b16a754	0.002298792
63	0x3e0b2e8b	0.13591973
64	0x3e5a5c65	0.21324308
65	0xbc171abb	-0.009222682
66	0xbe338989	-0.17532934
67	0x3c637fa1	0.01388541
68	0xbf1f420c	-0.62210155
69	0x3daefd9e	0.085444674
70	0xbe26508d	-0.16241665
71	0x3e949d85	0.29026428
72	0x3e23e82b	0.16006534
73	0x3e16749f	0.14692925
74	0x3fb95f41	1.4482194
75	0xbe6ad7b9	-0.22933854
76	0xbe8617c5	-0.2619001
77	0xbe50242b	-0.20326297
78	0x3e843d9b	0.2582825
79	0x3ed1102d	0.40832654
80	0xbe7f6c26	-0.24943599
81	0x3f53b212	0.8269359
82	0xbddf5c66	-0.109062955
83	0x3ee09313	0.4386221
84	0xbefe0db2	-0.49619824
85	0x3f048556	0.51765954
86	0xbe11a5ca	-0.142234
87	0x3e7708c2	0.24124435
88	0x3ea505ed	0.32231084
89	0xbf90b3f4	-1.1304917
90	0x3e24ce8a	0.16094413
91	0x3ea050c5	0.31311622
92	0xbe257480	-0.16157722
93	0xbe49e385	-0.19715698
94	0xbeaa42d0	-0.332541
95	0x3e17da6f	0.1482942
96	0x3ec82da6	0.39097327
97	0x3d366ce9	0.04453746
98	0xbf01ea02	-0.5074769
99	0x3f926af4	1.143889
100	0xbbc78a14	-0.0060894582
101	0xbedfe039	-0.43725756
102	0x3e51ca01	0.20487215
103	0x3fa4d3a8	1.2877092
104	0xbe1fb344	-0.15595728
105	0xbdf0eff9	-0.11764521
106	0x3e051821	0.12997486
107	0xbf0c44ac	-0.54792285
108	0x3e5948c6	0.21219167
109	0xbe232651	-0.15932585
110	0x3e9df201	0.30848697
111	0xbe5c47cb	-0.21511762
112	0xbdbed43f	-0.093178265
113	0xbe81a635	-0.25322118
114	0x3cb8b5e8	0.022547677
115	0xbed408fe	-0.4141311
116	0x3f136485	0.57575256
117	0x3dc5330b	0.09628876
118	0x3d80d6f4	0.06290999
119	0xbe45812b	-0.19287555
120	0xbf60d775	-0.8782876
121	0x3e3b5983	0.18295865
122	0xbf4f7ca1	-0.81049544
123	0xbeeb8e3f	-0.46006963
124	0x3cdc76cd	0.026912117
125	0x3d3ebc7c	0.04656647
126	0x3f582f5b	0.8444726
127	0x3ee1f402	0.44131476
128	0xbe8f4449	-0.27981785
129	0x3e6feaa6	0.23429355
130	0xbed736a2	-0.4203387
131	0x3e658eda	0.22417775
132	0xbe6c43c9	-0.23072733
133	0x3db604d6	0.08887641
134	0x3e1175d2	0.14205101
135	0x3e9fbda4	0.31199372
136	0x3e893d36	0.26804513
137	0x3f07e978	0.5309062
138	0x3f33331e	0.69999874
139	0x3dc8542f	0.09781682
140	0xbdad41cd	-0.08459816
141	0x3e02a176	0.12756905
142	0xbe82c598	-0.25541377
143	0xbefc9a9c	-0.49336708
144	0x3e548ca3	0.20756774
145	0xbd8afbb1	-0.067862876
146	0x3eb38516	0.35062474
147	0x3ef842e0	0.48488522
148	0x3f09ee12	0.5387889
149	0xbeb188f3	-0.34674796
150	0xbee323da	-0.4436329
151	0x3e98e694	0.29863417
152	0x3e85f5ea	0.2616418
153	0x3edadeb7	0.42748043
154	0x3e18da02	0.14926913
155	0xbe8c0c76	-0.27353257
156	0xbf71393b	-0.9422795
157	0xbe5dbb32	-0.2165344
158	0x3ea9596d	0.3307604
159	0x3ee87a69	0.45405892
160	0x3e20c2d8	0.15699327
161	0xbea36f8f	-0.3192105
162	0x3edad1a9	0.42738083
163	0x3e534ba9	0.20634331
164	0xbd57436f	-0.052554544
165	0x3bf65943	0.007517965
166	0xbe3fe108	-0.18738186
167	0xbe47f84f	-0.19528316
168	0x3e13d746	0.14437589
169	0xbd9ef046	-0.07760672
170	0x3c32d201	0.010914327
171	0xbfa7a8e0	-1.3098412
172	0xbefeb2b6	-0.4974572
173	0x3f0842e0	0.53227043
174	0x3eafcb9f	0.34335038
175	0x3da4cb46	0.08046584
176	0xbf0f6137	-0.56007713
177	0xbeb13c63	-0.34616384
178	0x3f0f747e	0.5603713
179	0x3e3eb35f	0.18623112
180	0x3d71b697	0.059012022
181	0x3eda486b	0.42633376
182	0xbec2f37d	-0.38076392
183	0xbf1137ef	-0.5672597
184	0x3f5e5555	0.86848956
185	0x3f4cac68	0.7995057
186	0x3d853f77	0.065062456
187	0xbf9a518c	-1.2056136
188	0xbe9fb4ac	-0.3119253
189	0xbebfd264	-0.37465203
190	0xbe9f6369	-0.3113053
191	0xbe3cdd28	-0.1844374
192	0xbc507395	-0.012722869
193	0x3db91cfe	0.09038733
194	0xbe5ca950	-0.21548963
195	0xbeb0957d	-0.3448905
196	0x3f3cecf4	0.7379906
197	0xbda3a68e	-0.07990752
198	0x3f051537	0.51985496
199	0x3e8b538d	0.27212182
200	0x3eb45356	0.3521983
201	0x3ecdc62c	0.40190256
202	0x3f1f7003	0.6228029
203	0xbe4d9fd5	-0.20080502
204	0x3cb06f28	0.021537378
205	0xbe841263	-0.25795278
206	0xbe23b731	-0.1598785
207	0xbec04cee	-0.37558693
208	0x3eeb87a3	0.4600192
209	0xbf2924f0	-0.6607199
210	0x3e0ca2d1	0.13733985
211	0xbdc5a630	-0.096508384
212	0xbf004761	-0.50108916
213	0xbf649d49	-0.893025
214	0xbf07b575	-0.53011256
215	0xbe8ed005	-0.2789308
216	0xbf2b6790	-0.669549
217	0xbef3ae10	-0.47593737
218	0xbe742ffb	-0.23846428
219	0x3e1b4b6d	0.15165491
220	0x3ee91f12	0.45531517
221	0xbe3d5b95	-0.18491967
222	0xbf208a4f	-0.6271104
223	0xbebdf851	-0.37103513
224	0x3ea79410	0.3273015
225	0xbeabb77f	-0.33538434
226	0xbce19ba8	-0.027540043
227	0x3e05b022	0.1305547
228	0xbd70bb10	-0.058772147
229	0xbe9a299f	-0.3010988
230	0xbe827cb9	-0.2548578
231	0xbce77705	-0.028254995
232	0x3db413e4	0.08792856
233	0x3e42c0ba	0.19018832
234	0xbde63f71	-0.11242569
235	0xbe9840ef	-0.2973704
236	0xbe70416a	-0.23462453
237	0x3e2833f7	0.16426073
238	0x3d19b4af	0.03752583
239	0x3dd94167	0.10608178
240	0x3ea1bcfa	0.3158949
241	0xbe416e13	-0.18889646
242	0xbf0e61d6	-0.55618036
243	0xbeb833ea	-0.35977107
244	0xbe657feb	-0.22412078
245	0xbe1f701d	-0.15570112
246	0x3da8402d	0.082153656
247	0x3eb3c6eb	0.351127
248	0x3ee42fe0	0.44567776
249	0xbdbc79b1	-0.09202898
250	0xbe9c298f	-0.30500457
251	0xbee0cc26	-0.43905753
252	0xbe085305	-0.1331292
253	0xbf1c959f	-0.61165804
254	0xbe8721ad	-0.2639288
255	0xbe814761	-0.2524977

fc2.weight f4 [256, 256]
0	0xbd866c27	-0.06563597
1	0x3d79a27b	0.06094597
2	0x3c6a5cbf	0.014304339
3	0x3b193893	0.0023379668
4	0x3c0098c8	0.007848926
5	0xbce0e9be	-0.027455207
6	0x3d2fb9ec	0.04290192
7	0x3cf0b32f	0.029382316
8	0xbdaf0604	-0.08546069
9	0xbdd47c6d	-0.10375295
10	0xbd847e75	-0.06469432
11	0xbd947b69	-0.07250101
12	0x3cdd9149	0.027046816
13	0xbd518e0f	-0.05116087
14	0x3cc98298	0.024598405
15	0xbd972920	-0.07380891
16	0x3ce6d593	0.028178012
17	0xbc04bbfa	-0.008101458
18	0xba5e3a2a	-0.0008477295
19	0x3d1bd4f2	0.038044877
20	0xbd10d564	-0.035359755
21	0xbd0bd51e	-0.03413879
22	0xbd18a035	-0.03726216
23	0x3caea6f9	0.021319853
24	0xbe3a4b4e	-0.18192789
25	0xbd8f236b	-0.06989177
26	0xbd3c903d	-0.046035994
27	0xbdcf36d2	-0.10117878
28	0xbd7ff623	-0.062490594
29	0x3c89b2bc	0.01680886
30	0xbc15748b	-0.009122024
31	0xbd1a055c	-0.037602767
32	0xbaf61675	-0.0018775003
33	0x3cd247c7	0.025668992
34	0xbd27e109	-0.040986095
35	0x3d198ccd	0.037487794
36	0x3cfe4408	0.0310383
37	0x3c2295bf	0.009923398
38	0xbd6062b4	-0.05478163
39	0xbc34e0c2	-0.011039915
40	0xbbe38354	-0.0069431458
41	0x3dcdb038	0.10043377
42	0x3d3dbbee	0.0463218
43	0x3d988802	0.074478164
44	0x3d27b4dc	0.040943965
45	0x3d74c45c	0.059757575
46	0x3e038388	0.12843144
47	0xbc801c1e	-0.015638407
48	0xbc6269dd	-0.013819185
49	0x3dc167d3	0.09443631
50	0x3c84f0fd	0.016228193
51	0xbd58b750	-0.052909195
52	0xbc84d7fe	-0.016216274
53	0x3dd67c8e	0.10472976
54	0x3c7cadeb	0.015422325
55	0x3ba7dd86	0.005122843
56	0x3d8e753b	0.06955954
57	0xbdf0fb98	-0.11766738
58	0xbd82a167	-0.06378441
59	0x3add0564	0.0016862568
60	0xbde33f3b	-0.11096045
61	0x3d29bff0	0.04144281
62	0xbd924fe0	-0.07144141
63	0x3ba13e8f	0.0049207876
64	0xbd18277d	-0.037147034
65	0xba1c311b	-0.0005958245
66	0xbd8d5a82	-0.069020286
67	0x3dcb77f3	0.09934988
68	0xbd9d5aa4	-0.07683304
69	0xbc9d3b8a	-0.01919343
70	0x3d8459f4	0.0646247
71	0x3d29ef38	0.041487902
72	0x3cfd0633	0.030886745
73	0x3dbe383b	0.09288069
74	0x3d1f9dec	0.038968965
75	0x3d1f61ea	0.038911738
76	0xbb3d9967	-0.0028930546
77	0xbd4300b5	-0.047608096
78	0xbd31b338	-0.043383807
79	0xbb9e23e4	-0.004826056
80	0x3c9e3c5c	0.019315891
81	0xbe67a5ac	-0.22621793
82	0x3dfdf7b7	0.124007635
83	0xbd5c6573	-0.053807687
84	0xbdb204af	-0.086922996
85	0x3ad0a0d3	0.001591707
86	0xbcde9924	-0.027172633
87	0xbc0bf5aa	-0.008542458
88	0xbc8932c6	-0.016747843
89	0xbc06c315	-0.008225222
90	0x3dbbcee4	0.09170321
91	0x3d55504e	0.052078538
92	0x3cec7e56	0.028868835
93	0x3bbd9bd0	0.0057863966
94	0x3d3d432d	0.046206642
95	0xbdb7e4ba	-0.08979173
96	0xbce3ef6f	-0.027824132
97	0xbda29b7c	-0.079398125
98	0xbe6010c2	-0.21881393
99	0xbe1cabcf	-0.15299915
100	0xbdcd90d4	-0.100373894
101	0xbcd911f2	-0.026497815
102	0xbe10ba4c	-0.14133567
103	0xbc84c6e2	-0.016208116
104	0x3e197d64	0.14989239
105	0x3ecd7c63	0.40133962
106	0xbd807db8	-0.06273979
107	0xbd0b91e1	-0.034074668
108	0xbc392a94	-0.011301655
109	0x3d04813e	0.032349817
110	0x3d1924c9	0.037388597
111	0xbd0cd30d	-0.03438096
112	0x3dca378e	0.098738775
113	0x3d401e4e	0.0469039
114	0xbcd6d7d7	-0.026225967
115	0xbd8ce5c8	-0.06879765
116	0xbe2e71a9	-0.17035545
117	0xbd5c4acf	-0.05378228
118	0xbbcb723e	-0.006208687
119	0xbe02ca87	-0.1277257
120	0xbc059082	-0.008152129
121	0xbd2ed800	-0.042686462
122	0x3bf184e6	0.007370579
123	0xbce88f75	-0.028388718
124	0x3daa378a	0.083113745
125	0x3d803246	0.06259589
126	0xbdbff71a	-0.09373303
127	0x3cbad17f	0.022804974
128	0x3d8f7c01	0.07006074
129	0x3d940b59	0.07228727
130	0x3e2a1cda	0.16612568
131	0x3dfa4c95	0.12221638
132	0xbca7ecff	-0.02049875
133	0xbd041ad4	-0.032252148
134	0x3d3ca761	0.046058062
135	0x3c6fa73b	0.014627273
136	0xbcb63be4	-0.022245355
137	0x3d5c2a74	0.053751424
138	0x3e14b254	0.14521152
139	0x3c8d0e6b	0.01721879
140	0x3c039140	0.008030236
141	0x3da25dc4	0.079280406
142	0xbd163700	-0.036673546
143	0x3d07e913	0.03318126
144	0xbd44279e	-0.047889344
145	0x3d5999fc	0.053125367
146	0x3f3c1786	0.73473394
147	0xbd03fc98	-0.032223314
148	0x3d4bd201	0.049760822
149	0x3cdec2f2	0.027192567
150	0x3b0db538	0.0021622907
151	0xbd0b2380	-0.033969402
152	0xbdbfe018	-0.09368914
153	0x3de135e7	0.10996609
154	0x3d5b5d2d	0.053555656
155	0x3cc31655	0.02381436
156	0xbdf2f1f4	-0.11862555
157	0xbd6805e9	-0.05664626
158	0x3cd694d0	0.026194006
159	0x3ca7fef5	0.020507315
160	0x3d8fca67	0.07021027
161	0xba732e00	-0.0009276569
162	0x3e5e90f7	0.21734987
163	0xbb8d83f9	-0.004318711
164	0x3c0330e3	0.008007261
165	0x3cc43c35	0.02395449
166	0xbd3e0a49	-0.046396527
167	0x3d8b0de3	0.06789758
168	0xbc81564f	-0.015788225
169	0xbbba43ac	-0.0056843366
170	0x3c67d216	0.0141492095
171	0xbca03ad2	-0.019559298
172	0xbdb3ad07	-0.08773237
173	0x3e3e5955	0.18588765
174	0xbd33efb4	-0.04392977
175	0x3c4305b6	0.011903217
176	0xbd744b02	-0.059641846
177	0xbc26f018	-0.010189079
178	0xbdd36d0a	-0.10323532
179	0x3d239482	0.03993655
180	0xbddc8c43	-0.1076894
181	0x3dce5b7f	0.10076045
182	0xbd24a815	-0.040199358
183	0xbd5a3146	-0.053269647
184	0x3e7dacc6	0.24772939
185	0x3c729c3b	0.014807756
186	0xbcffac7e	-0.03121018
187	0xbce7f28c	-0.028313898
188	0x3bbad28d	0.005701369
189	0x3c1d34c5	0.009595101
190	0xbd1f339a	-0.03886757
191	0xbe0b3237	-0.13593374
192	0xbd2c4338	-0.042056292
193	0x3ca6766c	0.02032014
194	0x39e7f956	0.00044245523
195	0x3cba82e6	0.022767495
196	0x3bf274a6	0.0073991595
197	0x3db62868	0.08894426
198	0x3e4df587	0.20113192
199	0x3ccf6c2e	0.025320139
200	0xbe1d9ddf	-0.15392254
201	0x3c7de122	0.01549557
202	0xbdb55fdb	-0.088561736
203	0x3dab50ec	0.08365044
204	0xbd12303c	-0.03569053
205	0x3dbfcbb7	0.093650274
206	0xbd43d0e0	-0.04780662
207	0x3bac3210	0.0052549914
208	0x3b2cded5	0.0026377935
209	0xbcf92bcb	-0.03041639
210	0xbe1aaa8a	-0.15104118
211	0x3a8b1120	0.0010609962
212	0x3c870ccd	0.016485596
213	0x3e0e3056	0.13885626
214	0xbc1b4604	-0.009477142
215	0xbb57e766	-0.003294432
216	0xbca42a39	-0.020039665
217	0x3d094285	0.033510704
218	0x3d5a5e60	0.05331266
219	0x3d1aae61	0.037763957
220	0xbd2f8262	-0.042848952
221	0x3d275df3	0.04086108
222	0x3d4df206	0.05027964
223	0xbe0ba54d	-0.13637276
224	0xbdf09354	-0.117468506
225	0x3c7256ec	0.014791232
226	0x3e3bbe2f	0.18334268
227	0xbca0bad1	-0.019620331
228	0x3c279f0e	0.010230793
229	0xbd21b496	-0.03947886
230	0x3c626862	0.013818832
231	0x3da93b8a	0.08263309
232	0xbcd1b56c	-0.025599204
233	0xbd819d94	-0.06328884
234	0xbbdab048	-0.0066738464
235	0xbc1f0164	-0.009704921
236	0x3c815457	0.015787287
237	0x3c34aa21	0.01102689
238	0xbc610931	-0.013735102
239	0xbde08aa1	-0.10963941
240	0xbe2f6940	-0.17129993
241	0xbe479144	-0.19489008
242	0xbc86422b	-0.016388973
243	0xbd0f62cd	-0.035006333
244	0x3d44318d	0.047898818
245	0x3c07369d	0.008252767
246	0x3e0da871	0.13833787
247	0x3b222dc9	0.0024746528
248	0x3d58e73a	0.05295489
249	0x3c99250b	0.018694421
250	0x3ccee35b	0.025254896
251	0xbb3a585b	-0.0028434012
252	0xbe45b8ba	-0.19308749
253	0xbc78be51	-0.015182094
254	0xbcf1d71e	-0.029521521
255	0x3c8ee78e	0.017444398

fc2.bias f4 [256]
0	0xbd93fab6	-0.07225554
1	0xbd819f72	-0.0632924
2	0xbbce4224	-0.0062945057
3	0xbd90cfe2	-0.070709005
4	0xbe3bdcb8	-0.18345916
5	0x3e5dcd04	0.21660239
6	0xbd1f5fd1	-0.038909737
7	0x3b9d8da9	0.004808147
8	0xbd6045d7	-0.054754104
9	0x3e500480	0.20314217
10	0xba79616f	-0.0009513115
11	0xbcc0087a	-0.023441542
12	0x3b61e57b	0.0034469056
13	0xbd1b528f	-0.03792053
14	0x3e26071d	0.16213651
15	0xbd816570	-0.06318176
16	0xbdd05969	-0.10173304
17	0x3da73506	0.0816441
18	0x3e050406	0.12989816
19	0x3d244920	0.0401088
20	0xbdb4d4cb	-0.088296495
21	0xbcd7b4f2	-0.026331399
22	0x3cbed62a	0.02329548
23	0xbca5c7cf	-0.020236878
24	0xbe387c73	-0.18016224
25	0x3de10eb9	0.10989136
26	0x3d634fc2	0.055495985
27	0x3daf33b5	0.08554784
28	0xbd0f118c	-0.034928843
29	0x3d762e21	0.060102586
30	0x3cc2e9d4	0.023793139
31	0xbdf745eb	-0.12073883
32	0xbb3f0792	-0.00291488
33	0xbd1d24f4	-0.03836532
34	0xbe387509	-0.18013395
35	0xbe635eda	-0.22204152
36	0x3cfd70f5	0.030937651
37	0x3e0abb61	0.13548042
38	0x3bf6c36c	0.0075306203
39	0x3d99be85	0.07507042
40	0x3ce892c8	0.028390303
41	0xbeb50a0f	-0.35359237
42	0xbdff5377	-0.124670915
43	0x3dacd255	0.08438555
44	0xbe49e6cf	-0.19716953
45	0x3d6c824c	0.05774145
46	0x3e133743	0.1437655
47	0xbe41e1e8	-0.18933833
48	0x3ea81010	0.32824755
49	0x3c809b8f	0.015699176
50	0xbb445cdf	-0.0029962582
51	0x3df2904f	0.11843931
52	0x3df0f4c2	0.11765434
53	0x3e2aef6c	0.16692895
54	0x3a810cb3	0.0009845704
55	0xbcca4c55	-0.024694601
56	0x3c7f38f0	0.01557754
57	0xbe906d10	-0.28208208
58	0x3ceeb975	0.029141167
59	0xbdf5530a	-0.11978729
60	0xbd0f0df8	-0.03492543
61	0x3d2b442e	0.041813068
62	0xbdb11757	-0.0864703
63	0x3eb254e7	0.348304
64	0xbcf58325	-0.029969761
65	0x3e2344bf	0.15944193
66	0xbd70eba2	-0.058818467
67	0xbc108188	-0.008819945
68	0xbe7fd110	-0.24982095
69	0x3e417fb7	0.18896376
70	0xbee84e2a	-0.45372134
71	0x3e93ed0e	0.28891796
72	0xbda85461	-0.08219219
73	0x3cc16e4e	0.023612168
74	0xbe746847	-0.23867904
75	0x3d5f3bca	0.05450038
76	0xbd25e9f2	-0.04050631
77	0x3e04f4f3	0.12984066
78	0x3ce7b238	0.028283224
79	0xbd856ba7	-0.06514674
80	0xbd4ed23d	-0.050493468
81	0xbd7cc6eb	-0.06171314
82	0x3e8445ff	0.25834653
83	0x3d2b75c0	0.041860342
84	0xbe3760f7	-0.17908083
85	0xbdd6799a	-0.104724124
86	0xbd57b9c6	-0.0526674
87	0x3eec0191	0.46094945
88	0x3e1d7399	0.15376128
89	0xbdb3d07b	-0.08779999
90	0x3d314fa3	0.043288838
91	0x3ea13f42	0.31493574
92	0x3cadd63e	0.021220323
93	0x3b848796	0.0040444834
94	0xbd17045a	-0.036869384
95	0x3df84488	0.12122446
96	0xbcd58361	-0.026063623
97	0x3ce2a33d	0.027665729
98	0xbe5c8bfc	-0.21537775
99	0xbd097950	-0.03356296
100	0x3c05d70a	0.008168945
101	0xbb7976a4	-0.00380651
102	0xbdb45665	-0.08805541
103	0xbdd97e00	-0.10619736
104	0x3d04d578	0.032430142
105	0xbe0fdbc2	-0.14048675
106	0x3ce5aac1	0.028035523
107	0xbd72c719	-0.059271906
108	0xbe603d26	-0.21898326
109	0x3d2550b3	0.040360164
110	0xbe9b29b7	-0.30305263
111	0x3e7019c5	0.2344733
112	0x3d5a85ae	0.053350143
113	0x3d1014bd	0.035176028
114	0xbdbb973b	-0.09159704
115	0xbdbfd862	-0.093674436
116	0xbd42d62f	-0.047567543
117	0xbabfbcae	-0.0014628374
118	0x3cad1882	0.02112985
119	0xbc90ad1b	-0.017660668
120	0x3ce2dd46	0.027693402
121	0xbcd18b76	-0.025579195
122	0xbe4b145d	-0.19831987
123	0x3d9fd1fa	0.07803722
124	0x3dfaecb4	0.12252179
125	0x3cb277e9	0.021785693
126	0xbb09dcbc	-0.002103611
127	0xbedb68d4	-0.42853415
128	0xbd2a9bbf	-0.041652437
129	0x3ba119f5	0.0049164244
130	0xbdf370bf	-0.11886739
131	0xbce2a7d5	-0.02766792
132	0x3dd229b4	0.102618605
133	0x3e3a11b5	0.18170817
134	0x3e0559a5	0.13022478
135	0x3c689659	0.014196002
136	0xbcb05442	-0.021524552
137	0xbda1bc75	-0.078972735
138	0x3cc56c32	0.024099443
139	0x3d9b8b00	0.075948715
140	0xbc87dabc	-0.016583793
141	0xbd7e420c	-0.062074706
142	0xbcca7f77	-0.024718983
143	0x3e4aecb7	0.19816862
144	0x3cf7a072	0.030227873
145	0x3dee820d	0.11645899
146	0xbe5f4cd9	-0.21806659
147	0x3e00c6e8	0.12575877
148	0x3d69bb32	0.05706329
149	0xbe4dc2c5	-0.2009383
150	0x3df93aab	0.12169393
151	0x3cb8e228	0.022568777
152	0x3db03b10	0.08605015
153	0xbd6d34f2	-0.05791182
154	0x3e958f4f	0.29210898
155	0x3d6b3bcc	0.057430074
156	0xbd5c4819	-0.053779695
157	0xbda2c9c4	-0.0794864
158	0xbf0420b5	-0.51612407
159	0xbdb2b53e	-0.087259755
160	0x39f3c50c	0.00046495383
161	0xbdf5de17	-0.12005251
162	0x3ca5c192	0.020233903
163	0xbccf7e1a	-0.025328685
164	0x3f12c53a	0.57332194
165	0xbd84368e	-0.06455718
166	0x3e28f027	0.16497861
167	0x3db12805	0.08650211
168	0xbde4d594	-0.11173549
169	0xbdb0e46d	-0.08637319
170	0xbe060e32	-0.13091353
171	0x3e29500b	0.1653444
172	0xbdd350b4	-0.10318127
173	0x3e5337b9	0.20626725
174	0x3d245849	0.040123258
175	0xbe25ed83	-0.16203885
176	0xbd75bd2f	-0.059994873
177	0x3cea0d8f	0.028570918
178	0x3d85959e	0.06522678
179	0xbe1da497	-0.15394817
180	0xbe947b25	-0.29000202
181	0x3d9afe9b	0.075680934
182	0xbe86f2a2	-0.2635699
183	0xbd1aaa9c	-0.037760362
184	0x3c7480e0	0.014923304
185	0xbc94d106	-0.018166076
186	0xbd2a0d82	-0.04151679
187	0xbe404bce	-0.18778917
188	0x3e82dac8	0.25557542
189	0xbe60c802	-0.21951297
190	0xbd478d20	-0.04871857
191	0xbe261328	-0.16218245
192	0x3ebbfadd	0.3671483
193	0x3d473b93	0.0486408
194	0x3d69651d	0.056981195
195	0x3e29c21c	0.16577953
196	0xbe6c23f2	-0.23060587
197	0xbdb9deba	-0.09075685
198	0xbc9e63ef	-0.019334761
199	0xbd4d8995	-0.050180037
200	0xbe71e15c	-0.23621124
201	0x3cf65881	0.030071499
202	0x3ce47417	0.027887387
203	0x3d9d3f03	0.07678034
204	0xbdc1bf65	-0.09460334
205	0x3e41f530	0.18941188
206	0x3d8eac74	0.069664866
207	0xbe399445	-0.18122967
208	0x3de4c298	0.11169928
209	0xbdd722f4	-0.10504714
210	0xbdd7c829	-0.105362244
211	0xbd5561d5	-0.052095253
212	0x3dfcbed6	0.123410866
213	0xbc9c92c4	-0.019112952
214	0x3b3d19eb	0.002885456
215	0xbd883b0a	-0.06651886
216	0x3c778aa7	0.015108741
217	0x3d46100c	0.048355147
218	0x3d4b53a1	0.0496403
219	0xbc1c713e	-0.009548483
220	0xbe0cd10d	-0.13751622
221	0x3f30c601	0.6905213
222	0xbe21a132	-0.15784147
223	0x3daba843	0.08381703
224	0x3e1fff6f	0.15624784
225	0x3e31c04d	0.17358513
226	0xbd54771b	-0.0518714
227	0xbe638d5a	-0.2222189
228	0xbd8ecd96	-0.06972806
229	0xbd8841c1	-0.066531666
230	0x3e1feba4	0.15617234
231	0x3cbd5adf	0.02311462
232	0xbcd8f653	-0.026484644
233	0x3e1140ca	0.14184871
234	0xbe8b0fd0	-0.271605
235	0x3d2a4322	0.04156793
236	0x3d23a9ea	0.039956965
237	0xbd443523	-0.047902238
238	0x3d671d3e	0.056424372
239	0xbd9511b3	-0.072787665
240	0x3de13832	0.109970465
241	0x3e6800da	0.22656575
242	0xbc88acd7	-0.016683979
243	0xbe4a8308	-0.19776547
244	0x3ea43ef8	0.3207929
245	0xbd1089c3	-0.03528763
246	0x3c276059	0.010215842
247	0xbe92a1e5	-0.2863914
248	0x3ccac9d6	0.024754446
249	0xbdd3d31d	-0.10343001
250	0xbed1f575	-0.4100758
251	0xbaba9e43	-0.001423784
252	0xbd54af33	-0.051924895
253	0x3e8e6353	0.27810153
254	0x3dd130ed	0.1021441
255	0x3dab3f57	0.083616905

fc3.weight f4 [1, 256]
0	0x3d94e39d	0.07269976
1	0xbd2f85b4	-0.04285212
2	0x3cc17edb	0.02362006
3	0x3aa6b15f	0.0012717656
4	0x3e1b3b4e	0.15159342
5	0xbeac9cfb	-0.33713517
6	0xbca5688d	-0.020191455
7	0x3db2252f	0.086984985
8	0xbd602f8e	-0.05473285
9	0x3e73b845	0.23800762
10	0x3c2926e6	0.0103242155
11	0x3d916a30	0.07100332
12	0xbcae7cf3	-0.021299815
13	0xbe38bf8d	-0.18041821
14	0xbd305f01	-0.043059353
15	0x3b0e8f05	0.0021752727
16	0xbc96d262	-0.018410865
17	0x3db39f21	0.08770586
18	0xbe96d5a7	-0.2945988
19	0x3c928fd7	0.017890854
20	0xbe66f873	-0.22555713
21	0x3a98e13e	0.0011663807
22	0x3ddaffb2	0.10693301
23	0x3e557fec	0.2084958
24	0xbe02de96	-0.12780222
25	0x3e2c6295	0.16834481
26	0xbd106da5	-0.035260815
27	0x3d47ce67	0.048780825
28	0xbdabb501	-0.08384133
29	0xbe07e11a	-0.13269463
30	0xbbc738f0	-0.0060797855
31	0x3afb6700	0.0019180477
32	0x3d5168eb	0.05112545
33	0xbc014a22	-0.00789121
34	0x3e4a48c1	0.19754316
35	0xbde87fb4	-0.113524824
36	0x3dc399c4	0.09550813
37	0xbe301b55	-0.17197926
38	0xbc5ecb95	-0.013598342
39	0x3e32ba6d	0.17453928
40	0x3d90ddee	0.0707358
41	0xbe44f6ed	-0.1923482
42	0xbc113660	-0.008863062
43	0xbe6fa84e	-0.23404047
44	0xbda0fbd9	-0.07860536
45	0x3dacf18f	0.08444511
46	0x3dd5a695	0.104321636
47	0x3e15f643	0.14644723
48	0xbe310e33	-0.17290573
49	0x3c8276d4	0.015925802
50	0x3ccc52f7	0.024941904
51	0xbd13aee4	-0.03605546
52	0xbd84a841	-0.064774044
53	0x3e72a2c4	0.23694903
54	0xbd59ba7d	-0.053156365
55	0xbd6b37d4	-0.05742629
56	0x3d901d1a	0.07036801
57	0xbe2beec8	-0.16790307
58	0xbca88a3a	-0.020573724
59	0xbe36a169	-0.1783501
60	0x3e182500	0.14857864
61	0xbe06ef68	-0.13177264
62	0xbd473fb3	-0.048644733
63	0xbdf1becc	-0.1180397
64	0xbcf8a163	-0.030350393
65	0xbe05f544	-0.13081843
66	0x3e116179	0.14197339
67	0x3ca0772a	0.019588072
68	0xbe652409	-0.22377028
69	0x3e07caf4	0.13261014
70	0xbf1bcc97	-0.60859054
71	0xbd9c9def	-0.07647311
72	0x3b04deb9	0.0020274355
73	0x3deea66d	0.11652837
74	0xbdbce039	-0.092224546
75	0xbd46f298	-0.0485712
76	0x3bc7a400	0.0060925484
77	0xbdf8a1cc	-0.12140235
78	0xbdd5cb5b	-0.104391776
79	0xbc94012b	-0.018066963
80	0x3c6fa514	0.01462676
81	0xbd395653	-0.04524834
82	0x3e8b45d2	0.27201706
83	0xbd287fe9	-0.04113761
84	0xbddb7e83	-0.107174896
85	0xbc722656	-0.014779648
86	0x3d29c79c	0.041450128
87	0x3e0dc734	0.13845521
88	0x3e161154	0.14655048
89	0xbe071ccb	-0.13194577
90	0x3ca0300f	0.019554166
91	0x3ec064b0	0.37576818
92	0xbdd20eec	-0.10256752
93	0x3d26222a	0.040559925
94	0x3e136b14	0.14396316
95	0x3ed663f9	0.41873148
96	0x3cd5d398	0.026101872
97	0x3c89f6c5	0.016841302
98	0x3d50d000	0.050979614
99	0x3da503ba	0.080573514
100	0xbd95dd95	-0.07317654
101	0x3da8e928	0.08247596
102	0xbcab411b	-0.020905068
103	0x3dcb8622	0.09937693
104	0xbda498b8	-0.08036941
105	0xbba85050	-0.005136527
106	0x3e252de5	0.16130789
107	0xb96c7ce6	-0.00022553242
108	0xbe12cf42	-0.14336875
109	0x3dd9ddef	0.106380336
110	0xbe58aa29	-0.21158661
111	0xbcfd5c40	-0.030927777
112	0xbe3b09f5	-0.18265517
113	0xbd61794e	-0.055047326
114	0xbd9d93c6	-0.07694201
115	0xbde93435	-0.11386911
116	0x39f0fd31	0.0004596501
117	0x3d1e3628	0.038625866
118	0x3d5ff5d9	0.054677818
119	0x3dc90c20	0.09816766
120	0xbc5dc6ad	-0.0135361375
121	0x3cee90e2	0.02912182
122	0xbe085cc4	-0.13316637
123	0xbd73dc71	-0.0595364
124	0xbe2d30c1	-0.1691313
125	0x3e4c93f3	0.19978313
126	0xbe19ec12	-0.1503146
127	0x3e368f9b	0.17828219
128	0xbcfaedc1	-0.030630948
129	0x3d2b737b	0.041858178
130	0xbdbafdf7	-0.09130471
131	0xbc8fc6fc	-0.017550938
132	0x3ceb8f56	0.028754871
133	0x3e15986e	0.14608929
134	0x3ecf1ab9	0.40450075
135	0xbd448811	-0.047981326
136	0x3d8a9162	0.06766011
137	0x3d8c978f	0.06864845
138	0xbb5dea67	-0.0033861639
139	0x3d92ede5	0.07174281
140	0x3c2281ba	0.009918625
141	0xbd5d830b	-0.05408005
142	0xbd1fb209	-0.038988147
143	0x3ee5ca95	0.4488112
144	0x3dc26307	0.09491544
145	0x3d3b9853	0.045799565
146	0x3e57bd7c	0.21068376
147	0x3da8ae25	0.082363404
148	0x3d9c5752	0.076338425
149	0x3dce985b	0.10087653
150	0x3e038dec	0.12847108
151	0xbd4f78ce	-0.050652318
152	0xbe2f1763	-0.17098765
153	0xbe6ea31e	-0.23304412
154	0xbe2be9af	-0.16788362
155	0x3dc9b467	0.09848862
156	0x3d5a7b82	0.053340442
157	0xbdb46f3f	-0.08810281
158	0x3e68d757	0.22738396
159	0x3de60b29	0.112325974
160	0x3e389cca	0.1802856
161	0xbd372197	-0.04470977
162	0x3e6d31ef	0.2316358
163	0xbb4264c4	-0.0029662112
164	0x3e257db2	0.1616123
165	0x3b26be40	0.0025442988
166	0x3e5886bc	0.21145147
167	0x3d808d25	0.06276921
168	0x3d9dc244	0.07703069
169	0x3dbe19cc	0.09282264
170	0xbda0a4d6	-0.0784394
171	0x3e0b0a3c	0.13578123
172	0xbe0a34d4	-0.13496715
173	0x3df81fa9	0.12115414
174	0x3dc2786a	0.094956234
175	0x3e0f002b	0.13964908
176	0xbc7e3e66	-0.015517807
177	0xbd2cc71a	-0.042182066
178	0x3e131524	0.14363533
179	0xbded2760	-0.11579776
180	0xbec3262a	-0.38115054
181	0xbe6e4120	-0.2326703
182	0xbe243b8e	-0.16038343
183	0x3d1f5d48	0.03890732
184	0xbc9eadb6	-0.019369941
185	0xbc5d15a7	-0.013493932
186	0x3d545e42	0.051847704
187	0x3daa97af	0.083297126
188	0x3e12a7ce	0.14321825
189	0xbe4051cb	-0.18781202
190	0xbde9ab18	-0.11409587
191	0xbcc49509	-0.023996847
192	0xbe199a5f	-0.15000294
193	0x3dcd6eda	0.10030909
194	0xbd961687	-0.073285155
195	0x3d863538	0.065531194
196	0xbe4d85aa	-0.2007052
197	0xbe07867d	-0.13234897
198	0x3b2a17ba	0.0025954084
199	0xbcd3fbba	-0.025876869
200	0xbe166948	-0.14688599
201	0x3d48b3a8	0.04899946
202	0x3edc5407	0.43032858
203	0x3e0ccfec	0.13751191
204	0xbe8cabd9	-0.2747486
205	0x3e00c051	0.12573363
206	0xbd3134ff	-0.04326343
207	0x3dfa79fa	0.122302964
208	0xbd777404	-0.060413375
209	0x3ae8b669	0.0017754558
210	0xbc451c35	-0.012030651
211	0x3b13b0f2	0.0022535888
212	0x3df62737	0.120191984
213	0x3dc6382e	0.09678684
214	0xbcbaa3d5	-0.0227832
215	0xbd1ac9c7	-0.037790086
216	0x3d384831	0.044990722
217	0x3d482bdb	0.04886995
218	0xbdeba190	-0.11505425
219	0xbe74f94c	-0.23923224
220	0xbc94048d	-0.018068576
221	0x3e255966	0.16147384
222	0xbdab7db9	-0.08373589
223	0xbe01fcf0	-0.12694144
224	0x3d50f462	0.05101431
225	0xbeac0cff	-0.33603665
226	0xbd4e9a17	-0.05043992
227	0xbde42131	-0.11139143
228	0xbcb84e68	-0.022498325
229	0x3c235500	0.009968996
230	0xbeac405a	-0.33642846
231	0x3d8c2aeb	0.068441235
232	0xbdaf5378	-0.08560842
233	0xbef722c5	-0.48268715
234	0xbe1da4c1	-0.1539488
235	0xbe8d7412	-0.27627617
236	0xbcb77de2	-0.022398893
237	0xbd49b46d	-0.049244333
238	0x3e89c267	0.2690613
239	0x3d588ed2	0.05287058
240	0xbdac856c	-0.08423886
241	0x3eb4c203	0.3530427
242	0xbe61539c	-0.2200455
243	0xbe90dc2a	-0.28292972
244	0x3eed02d5	0.46291223
245	0xba79a21d	-0.0009522753
246	0x3e4b96bf	0.19881724
247	0xbe1bfad9	-0.1523241
248	0x3df4d1a3	0.119540475
249	0xbcf99ba5	-0.030469725
250	0xbf0f92e9	-0.5608354
251	0xbccc2e1e	-0.024924334
252	0xba6c4ff8	-0.0009014602
253	0xbd4a23be	-0.049350493
254	0xbeaec7a9	-0.34136704
255	0x3e6d3914	0.23166305
