TD3/models/actor_eps100_veh100_20e-2_8e-2_0.5_-2.pth (torch, 275287 bytes, 5 tensors)

fc1.weight f4 [256, 8]
0	0xbe44d7ff	-0.19223021
1	0xbd0470ad	-0.03233402
2	0x3f54bbbc	0.8309896
3	0xbf03eb8d	-0.51531297
4	0x3b8b0517	0.00424255
5	0xbd69309f	-0.056931134
6	0xbf1f0041	-0.6210976
7	0x3e28f8bd	0.16501136
8	0xbe9996dc	-0.2999791
9	0x3d697f61	0.057006244
10	0x3ddaf0ef	0.10690486
11	0x3e1bcbf6	0.15214524
12	0x3e143b77	0.14475809
13	0xbce3008f	-0.027710227
14	0x3f84e67d	1.038284
15	0x3c36542f	0.011128469
16	0x3e9a23e5	0.3010551
17	0xbe57a737	-0.21059881
18	0xbcde4adc	-0.027135305
19	0x3e4edd09	0.20201506
20	0xbe5a2f89	-0.21307196
21	0x3d8730ca	0.06601103
22	0x3f002243	0.5005228
23	0xbcb73c1f	-0.022367535
24	0x3ea0ac85	0.31381622
25	0x3e264786	0.16238222
26	0xbf0c4a5e	-0.54800975
27	0x3e1eea13	0.1551898
28	0xbd79c293	-0.060976576
29	0x3ba14805	0.0049219155
30	0xbfee809b	-1.8632997
31	0x3eb6af97	0.3568084
32	0xbd0922d1	-0.03348047
33	0xbe91d247	-0.2848074
34	0x3dd3fc5d	0.10350869
35	0xbebfc22b	-0.37452826
36	0x3df888a1	0.12135435
37	0xbd37cc8d	-0.04487281
38	0x400687de	2.1020427
39	0xbe0eba69	-0.13938297
40	0xbed11248	-0.4083426
41	0x3f87d333	1.0611328
42	0xbf4a4539	-0.79011875
43	0x3e7b7398	0.24555814
44	0xbb8acd4f	-0.0042359005
45	0xbe8f9d65	-0.2804977
46	0xbe9df30a	-0.30849487
47	0x3ed5b5a4	0.41740143
48	0x3f080cfb	0.53144807
49	0x3e2ee8d3	0.17081003
50	0x3db65795	0.08903424
51	0x3ed99ff6	0.42504853
52	0x3e008e97	0.12554394
53	0xbdc6be34	-0.09704247
54	0x3e96ea5c	0.29475677
55	0xbe795733	-0.2434967
56	0x3eb3cb08	0.35115838
57	0x3e18dc00	0.14927673
58	0x3ecdcb5a	0.40194207
59	0xbea9ee1a	-0.3318947
60	0xbdb625ef	-0.08893954
61	0x3e204406	0.15650949
62	0x3fcb94d6	1.5904796
63	0xbe04d630	-0.12972331
64	0x3bcea2ce	0.006306029
65	0x3e05758f	0.13033126
66	0xbe93e474	-0.28885233
67	0xbea66966	-0.32502288
68	0x3d7d6813	0.06186683
69	0x3d5ce826	0.05393233
70	0xc00a83c6	-2.1642928
71	0xbd7e2144	-0.062043443
72	0xbe930f69	-0.28722695
73	0x3e62cc63	0.2214828
74	0xbe92c7be	-0.28668016
75	0xbd6b8765	-0.05750217
76	0x3b8e462b	0.004341861
77	0xbe1173a8	-0.14204276
78	0xbe90cd78	-0.2828176
79	0xbd446a76	-0.04795309
80	0xbf80ae55	-1.0053202
81	0x3ea03dd2	0.31297165
82	0x3f8ad195	1.0845209
83	0xbe035bb3	-0.12827949
84	0x3c885fb6	0.016647201
85	0x3d101d6b	0.035184305
86	0xbd8411c2	-0.064486995
87	0xbcc59340	-0.024118066
88	0xbe85aab4	-0.261068
89	0xbdcd815c	-0.10034439
90	0x3f74a9aa	0.95571387
91	0x3f0e62a2	0.5561925
92	0xbc37ed43	-0.011226001
93	0x3c9e09a3	0.019291705
94	0xbf43e230	-0.7651701
95	0x3da4a0c7	0.08038478
96	0xbf28d57c	-0.6595075
97	0xbeea0472	-0.45706517
98	0x3e2fd0ae	0.17169449
99	0x3dba45aa	0.090953186
100	0xbda74784	-0.081679374
101	0xbeaa0316	-0.3320548
102	0x3fa138b8	1.2595434
103	0x3e0a69e9	0.13516964
104	0xbe8f819f	-0.2802858
105	0xbe8c58da	-0.27411538
106	0xbe8e1c7d	-0.2775611
107	0xbf03fa7f	-0.515541
108	0xbf44c3cd	-0.7686127
109	0xbdf23288	-0.11826044
110	0xbf3af213	-0.73025626
111	0x3d64c63f	0.055853125
112	0xbf1ca7b4	-0.61193395
113	0xbe90be61	-0.28270248
114	0x3e97b704	0.29631817
115	0xbcbd6932	-0.02312145
116	0x3d36765e	0.044546477
117	0x3d2d4bbd	0.042308558
118	0x3f6d9822	0.9281026
119	0xbe7410f4	-0.23834592
120	0xbf36cc75	-0.71405727
121	0xbe4cee95	-0.20012887
122	0x393260af	0.0001701142
123	0x3dc18ce3	0.094507
124	0x3e3baaa7	0.18326817
125	0x3e0defb9	0.13860978
126	0xbef049b9	-0.46931246
127	0xbebbff0e	-0.3671803
128	0x3e7ace1a	0.24492684
129	0xbda7cdf1	-0.08193577
130	0xbfb6d077	-1.4282368
131	0x3e8da069	0.27661446
132	0x3e747864	0.2387405
133	0xbe6af624	-0.22945458
134	0x3ecd0d5b	0.40049252
135	0x3d2f15cd	0.0427454
136	0xbd2830d9	-0.04106221
137	0x3ccf057c	0.02527117
138	0xbf20b684	-0.62778497
139	0xbeadfad2	-0.33980423
140	0xbf22058e	-0.63289726
141	0xbd3f3a4f	-0.046686467
142	0xbf18765f	-0.5955562
143	0x3dc8b373	0.09799852
144	0xbf3af11f	-0.7302417
145	0xbe7f73b8	-0.24946487
146	0xbecf7f04	-0.40526593
147	0xbdb89fe3	-0.09014871
148	0x3c72dbfb	0.014822955
149	0x3d47918c	0.04872279
150	0xbfdd04e3	-1.7267116
151	0xbc95a4f9	-0.018267142
152	0xbc3ddda1	-0.011588485
153	0xbd7df5db	-0.062002044
154	0x3e05cf70	0.13067412
155	0xbea21d6c	-0.31663072
156	0x3e35ea3f	0.17765139
157	0x3d1456b0	0.036215484
158	0x3fa0f1f9	1.2573844
159	0x3dcb7969	0.099352665
160	0x3e0d7692	0.13814762
161	0xbed3a6a9	-0.4133809
162	0xbf0fd8dc	-0.56190276
163	0xbe78e12b	-0.24304645
164	0xbc30a581	-0.010781647
165	0x3e225a79	0.15854825
166	0xc01d81e1	-2.4610522
167	0x3e6506e5	0.22365911
168	0xbe634474	-0.22194082
169	0x3e14d568	0.14534533
170	0xbd14b8ad	-0.036308933
171	0x3d84bb07	0.06480985
172	0xbe35250d	-0.17689915
173	0xbed59fde	-0.4172353
174	0xbf33c6b4	-0.7022507
175	0x3d77516d	0.060380388
176	0x3ea5fb53	0.32418308
177	0x3eaa002a	0.3320325
178	0xbf3e350c	-0.74299693
179	0xbebafe91	-0.36522344
180	0x3d151678	0.03639838
181	0x3e7d1ec5	0.24718769
182	0xbf3325ff	-0.6997985
183	0x3de5aa53	0.112141274
184	0x3eb70112	0.35743004
185	0x3d6a9fcb	0.057281297
186	0xbd62cd4f	-0.05537158
187	0x3e97dddd	0.29661456
188	0xbc35918b	-0.011082063
189	0xbde4e669	-0.1117676
190	0x3f5b18cf	0.8558473
191	0xbc04299f	-0.008066564
192	0x3e6e6931	0.23282315
193	0xbe359ac7	-0.17734824
194	0x3ec49e0a	0.38401824
195	0xbdfa27a6	-0.122145936
196	0xbdfe5caa	-0.12420018
197	0x3e17606f	0.1478288
198	0xbf6ecf54	-0.9328511
199	0xbe7c7dd0	-0.24657369
200	0x3dad6e49	0.08468301
201	0xbe85db69	-0.2614396
202	0x3e0c75f8	0.13716877
203	0xbeb09946	-0.34491938
204	0x3d415f7b	0.047210198
205	0x3e60c607	0.21950541
206	0x3fd39a24	1.6531415
207	0xbe806e0b	-0.25083956
208	0x3e13a177	0.14417063
209	0x3eba0e95	0.3633925
210	0xbd53bb66	-0.05169239
211	0xbcd90447	-0.026491297
212	0x3dde0d34	0.10842362
213	0x3cfbe214	0.03074745
214	0x3f9367e2	1.1516078
215	0x3e782774	0.242338
216	0xbe9740fd	-0.2954177
217	0x3dfa1278	0.12210554
218	0x3cc1680e	0.023609187
219	0xbe4fdc00	-0.20298767
220	0xbd6d07e8	-0.057868868
221	0x3ddf512f	0.109041564
222	0xbfd2946d	-1.6451546
223	0xbd908f63	-0.07058599
224	0xbdcf31f8	-0.10116953
225	0xbe8ede0b	-0.2790378
226	0xbec89a1b	-0.39180073
227	0xbd35cb21	-0.044383172
228	0x3c34d945	0.011038129
229	0x3e1e827a	0.1547946
230	0xc0424a15	-3.0357716
231	0xbcc08b1c	-0.023503833
232	0x3f0f4718	0.55967855
233	0xbe93a822	-0.28839213
234	0xbe710c7c	-0.23539919
235	0x3da5a115	0.080873646
236	0x3d6122ef	0.054964956
237	0xbe99a264	-0.30006707
238	0x3ec89f70	0.3918414
239	0x3d882570	0.06647766
240	0xbdbbb935	-0.09166185
241	0xbe385df8	-0.18004596
242	0x3d92cab1	0.071675666
243	0xbe2c07be	-0.16799828
244	0x3e2a52de	0.16633174
245	0xbd6d7bc0	-0.057979345
246	0xbff9ee60	-1.9525871
247	0x3d90b4ac	0.070657104
248	0xbdfa5366	-0.12222938
249	0x3da14a9a	0.07875557
250	0xbe9ff880	-0.31244278
251	0xbec13a5f	-0.37739846
252	0xbc0bc1e3	-0.008530113
253	0xbcb04106	-0.02151538
254	0xbffa3cb6	-1.9549778
255	0x3e907e1c	0.28221214

fc1.bias f4 [256]
0	0x3edda00d	0.43286172
1	0x3d7b0004	0.06127931
2	0xbc799715	-0.015233775
3	0x3dd18064	0.10229567
4	0x3e5c235f	0.21497868
5	0xbc35d92b	-0.01109914
6	0x3ee01e73	0.4377323
7	0x3eb16a55	0.34651437
8	0xbe4a7a72	-0.19773272
9	0x3db83a5b	0.089955054
10	0x3f25cd0f	0.6476602
11	0x3ed94f0b	0.42443117
12	0x3da7423b	0.08166929
13	0xbd5272ed	-0.051379133
14	0x3d916e78	0.07101148
15	0xbefd5911	-0.49482015
16	0x3e04fb27	0.12986432
17	0xbdb4b045	-0.08822683
18	0xbef93aa1	-0.48677543
19	0xbe412772	-0.18862703
20	0xbeae8b43	-0.34090623
21	0xbdff31c6	-0.124606654
22	0xbf4f0ecb	-0.8088195
23	0x3e4bde4b	0.19909017
24	0xbde83ffa	-0.113403276
25	0xbdf7bb33	-0.12096252
26	0x3e9d1ea2	0.30687433
27	0xbda44828	-0.08021575
28	0xbed98327	-0.42482874
29	0x3e23266d	0.15932627
30	0xbd9d2f72	-0.07675065
31	0xbed9aa14	-0.42512572
32	0xbe9f314e	-0.31092304
33	0xbe274a88	-0.16337025
34	0xbc18f460	-0.009335607
35	0x3df86181	0.121279724
36	0xbf0d9523	-0.5530569
37	0x3db793bf	0.08963727
38	0xbca7fe73	-0.020507073
39	0xbd1bb660	-0.038015723
40	0x3ed44f46	0.4146673
41	0x3ebb64f4	0.3660046
42	0x3ed98314	0.42482817
43	0xbe031de7	-0.12804376
44	0x3e0b3efd	0.13598247
45	0xbe715abf	-0.23569773
46	0x3e1b6a93	0.15177374
47	0x3d3a56c4	0.045492902
48	0xbe92eaba	-0.28694707
49	0x3f073dd8	0.5282874
50	0x3dcb5bf4	0.09929648
51	0xbf806c17	-1.0032986
52	0x3ec363cd	0.3816208
53	0xbe8fd15c	-0.28089416
54	0xbec460a2	-0.38354975
55	0x3dd1e36e	0.10248457
56	0xbe7a5ec9	-0.2445022
57	0x3e8838e5	0.26605907
58	0x3efb1e9a	0.49046785
59	0x3f12cfe7	0.57348484
60	0xbe293b4f	-0.1652653
61	0x3dbbae13	0.091640614
62	0xbd0b10a2	-0.03395141
63	0x3de81d9a	0.11333771
64	0x3d91ebc5	0.071250476
65	0x3ea3a03b	0.31958184
66	0xbf081df6	-0.53170717
67	0xbee8ca24	-0.4546672
68	0xbf091dde	-0.535612
69	0x3dc4c03d	0.09606979
70	0xbe951aa2	-0.29121882
71	0x3e93b3e6	0.2884819
72	0x3e2f9c60	0.17149496
73	0x3d6a58b9	0.05721352
74	0x3f534369	0.82524735
75	0xbe6993dc	-0.2281031
76	0xbe727b67	-0.23679887
77	0x3e5bcb7d	0.21464343
78	0x3e843d9b	0.2582825
79	0x3e4a8643	0.1977778
80	0xbf50a2aa	-0.81498206
81	0x3f19863a	0.5997044
82	0x3c2408de	0.01001188
83	0x3e23b167	0.15985642
84	0xbeed8f5f	-0.46398446
85	0x3e97e8a6	0.29669684
86	0xbd90a240	-0.07062197
87	0x3eb119f4	0.34590113
88	0x3e0a67a9	0.13516106
89	0xbeaaeb50	-0.33382654
90	0x3e701e7e	0.23449132
91	0x3ec7aeb1	0.39000466
92	0xbe8d5df5	-0.27610746
93	0xbe4ab422	-0.19795278
94	0xbe9292db	-0.28627667
95	0x3f2935ea	0.6609789
96	0x3e03663e	0.12831971
97	0x3cbf2ae1	0.023335876
98	0xbe3ccbb9	-0.18437089
99	0x3f011a2b	0.50430554
100	0x3c993369	0.018701272
101	0xbee992cf	-0.4561982
102	0x3dedd828	0.11613494
103	0x3ecd5471	0.40103486
104	0xbed0dc13	-0.40792903
105	0xbe5316eb	-0.20614211
106	0x3e0ae5a1	0.13564159
107	0xbf80d802	-1.006592
108	0x3ed57b35	0.41695562
109	0xbdba9efc	-0.09112355
110	0x3e8a8fb4	0.27062762
111	0xbee919a5	-0.45527378
112	0xbd474dfd	-0.04865836
113	0xbe81a635	-0.25322118
114	0x3f5b59a1	0.8568364
115	0xbeab5fb2	-0.33471447
116	0x3f0f5ea5	0.5600379
117	0x3d2693f4	0.040668443
118	0x3dda7c77	0.10668271
119	0xbe5f870d	-0.21828862
120	0xbec0b15f	-0.37635323
121	0x3df0b079	0.117524095
122	0xbe63e704	-0.22256094
123	0xbf1b5ef0	-0.6069174
124	0xbcdd3aa3	-0.0270055
125	0x3d6f1b26	0.0583755
126	0x3f0df620	0.5545368
127	0x3eeb3d1b	0.45945057
128	0x3d5213af	0.051288303
129	0x3bcc0588	0.0062262453
130	0xbebb637b	-0.36599335
131	0xbccf4e40	-0.025305867
132	0xbedbfe14	-0.42967284
133	0x3eeeef78	0.46667075
134	0x3e05f737	0.13082586
135	0x3f04df8a	0.51903594
136	0x3ee134af	0.43985507
137	0x3e86c320	0.26320744
138	0x3eb30d06	0.34970874
139	0x3cdd1442	0.026987199
140	0xbdad41cd	-0.08459816
141	0x3dfc0674	0.12305918
142	0xbe84cfe8	-0.2593987
143	0xbd9996af	-0.07499444
144	0x3e694356	0.22779593
145	0xbe0bc82c	-0.13650578
146	0x3e292301	0.16517259
147	0x3ea8a57d	0.32938758
148	0x3cceb0e5	0.025230834
149	0xbeb88b7d	-0.3604392
150	0xbef5a8b4	-0.47980273
151	0x3e2e442f	0.17018197
152	0xbd9e9aa5	-0.0774434
153	0x3eb5cabb	0.35506234
154	0x3e6a4870	0.22879195
155	0xbe9b6d16	-0.30356663
156	0xbf309e22	-0.6899129
157	0xbe6dda0e	-0.23227713
158	0x3efd1c93	0.49435863
159	0x3f11a709	0.568955
160	0x3e72b831	0.23703076
161	0xbea36f8f	-0.3192105
162	0x3e1f0623	0.15529685
163	0x3e0f55df	0.13997601
164	0x3e5110ef	0.20416616
165	0x3e9454d7	0.28970978
166	0xbe8041e6	-0.25050277
167	0xbd4443b3	-0.047916126
168	0xbd9ad92c	-0.075609535
169	0xbdb4f73c	-0.08836219
170	0x3e343cc5	0.17601307
171	0xbed5c0d2	-0.41748673
172	0xbed33bf1	-0.4125667
173	0x3e933243	0.28749284
174	0x3eafcb9f	0.34335038
175	0x3e46742c	0.19380254
176	0xbdd6ad3c	-0.104822606
177	0xbf40f7e2	-0.7537824
178	0x3ea6180c	0.3244022
179	0x3e60180d	0.21884175
180	0x3ed10354	0.40822852
181	0x3dabc88b	0.0838786
182	0xbe55a737	-0.20864569
183	0xbee55460	-0.44790936
184	0x3f43382d	0.7625759
185	0x3eab64ff	0.3347549
186	0x3b0ec445	0.0021784466
187	0xbeaa3a12	-0.3324743
188	0xbe2da65f	-0.16957997
189	0xbe9f29f4	-0.31086695
190	0xbeb2fe14	-0.3495947
191	0xbea5d4c2	-0.32388884
192	0xbc507395	-0.012722869
193	0x3f355c8d	0.70844346
194	0x3d56862f	0.05237406
195	0xbda9a74b	-0.08283862
196	0x3ed9300a	0.42419463
197	0x3e9fe24a	0.31227332
198	0x3f034c14	0.5128796
199	0x3ebe560b	0.3717502
200	0x3f882bab	1.0638326
201	0x3f282ca8	0.6569314
202	0x3dc0357b	0.093852006
203	0xbe529be3	-0.20567279
204	0xbdbe5c72	-0.09294976
205	0xbe9bdc6e	-0.30441612
206	0xbe23b731	-0.1598785
207	0xbe884858	-0.26617694
208	0x3e94886b	0.2901033
209	0xbe86041f	-0.2617502
210	0xbdef5c6b	-0.11687549
211	0xbe45d52c	-0.193196
212	0xbf031d99	-0.5121704
213	0xbf6f11d0	-0.93386555
214	0xbee39d5a	-0.44455987
215	0x3dbebc5c	0.093132704
216	0xbedf806e	-0.43652672
217	0xbeba0699	-0.3633316
218	0xbe5d4a35	-0.21610339
219	0xbd529433	-0.051410865
220	0x3e6013c0	0.21882534
221	0xbed740c0	-0.42041588
222	0xbe9a7a5f	-0.30171487
223	0xbeebb399	-0.4603546
224	0x3ef2d7c3	0.47430238
225	0xbf5bfbe7	-0.8593125
226	0xbdeb2521	-0.11481691
227	0x3e837373	0.25674018
228	0xbdc025d2	-0.09382214
229	0xbe9a299f	-0.3010988
230	0xbe86ead8	-0.26351047
231	0xbdb370ee	-0.08761774
232	0x3db413e4	0.08792856
233	0xbe5c82d4	-0.21534282
234	0xbe9632bc	-0.29335582
235	0x3d2ceb3e	0.042216532
236	0xbe827838	-0.25482345
237	0x3d95d75c	0.07316467
238	0x3d829c71	0.06377495
239	0x3e606508	0.2191354
240	0x3e45ae34	0.19304734
241	0xbe78d725	-0.24300821
242	0xbf501a44	-0.8129008
243	0xbe0090ff	-0.12555312
244	0xbe9624fc	-0.29325092
245	0xbe44c383	-0.19215207
246	0xbedd679c	-0.4324311
247	0x3eaf4875	0.34234968
248	0x3eed9e93	0.46410045
249	0xbe5897fc	-0.21151727
250	0xbcbc7b37	-0.023007972
251	0xbea82af9	-0.32845286
252	0x3d641663	0.055685412
253	0xbe6c2f5a	-0.23064938
254	0xbe04361d	-0.12911268
255	0xbe9f9cd7	-0.31174347

fc2.weight f4 [256, 256]
0	0xbdb866f3	-0.09004011
1	0x3d298f72	0.041396566
2	0xbd3776db	-0.044791084
3	0xbd3bd717	-0.045859423
4	0x3c892d2e	0.016745176
5	0xbd6c46eb	-0.05768482
6	0x3cb937a0	0.022609532
7	0xbcd7cc21	-0.026342453
8	0x3d04a712	0.032385893
9	0xbd454807	-0.048164394
10	0x389e9502	7.561782e-05
11	0xbd6bb0e6	-0.05754175
12	0x3d0d2d02	0.03446675
13	0xbd7371f1	-0.059434835
14	0x3d55d114	0.052201346
15	0xbd3ddb10	-0.046351492
16	0xbbacff44	-0.0052794535
17	0xbc8ea2ae	-0.017411556
18	0x3d80e966	0.06294517
19	0x3d1d0d59	0.038342807
20	0x3caf759b	0.021418383
21	0x3c581a00	0.013189793
22	0x3d405f36	0.0469658
23	0xbd15f28a	-0.036608256
24	0xbd94ffd8	-0.07275361
25	0xbcfd4744	-0.030917771
26	0xbd8b5196	-0.06802671
27	0xbcf52566	-0.02992506
28	0xbcb98254	-0.022645153
29	0xbc67eb41	-0.01415521
30	0xbc16a750	-0.009195164
31	0x3c84785e	0.016170677
32	0xbc3de33b	-0.0115898205
33	0xbcf83561	-0.03029889
34	0xbd3a1443	-0.04542948
35	0x3cf0d422	0.029398028
36	0x3d275835	0.040855605
37	0xbcaed7bc	-0.021343105
38	0xbd8ad519	-0.067789264
39	0x3b57a66f	0.0032905599
40	0xbd30cd82	-0.043164738
41	0x3d2e00fe	0.042481415
42	0x3cc3176c	0.02381488
43	0x3d2e580a	0.04256443
44	0x3c4801ef	0.012207492
45	0x3b91da70	0.0044510886
46	0x3c9ec1ff	0.019379614
47	0xbc40df0b	-0.011771928
48	0xbca66a34	-0.020314313
49	0x3bbfbee7	0.0058516148
50	0xbd7da8d2	-0.061928578
51	0xbcb20222	-0.021729533
52	0xbd3e9dc6	-0.046537183
53	0x3d76b01b	0.06022654
54	0x3d0d13bd	0.034442652
55	0x3c246391	0.010033504
56	0xbde8117a	-0.113314584
57	0xbd82814f	-0.0637232
58	0xbd7f6b80	-0.06235838
59	0xbc22044f	-0.009888723
60	0xbd0169ad	-0.03159492
61	0xbd3d62b1	-0.046236698
62	0xbd4cbdf0	-0.049985826
63	0x3d087367	0.03331318
64	0xbdc10d3c	-0.094263524
65	0xbc49432e	-0.012284083
66	0xbd735b7e	-0.059413426
67	0xbcd20ce1	-0.025640907
68	0xbd6a57e4	-0.057212725
69	0xbd4c9266	-0.049944304
70	0x3cdb883e	0.026798364
71	0xbc45ece5	-0.012080406
72	0xbd3751f1	-0.04475588
73	0xbd53a63c	-0.051672205
74	0x3d302e07	0.043012645
75	0x3d6ae074	0.05734296
76	0x3a623966	0.0008629769
77	0xbd94b8c5	-0.072618045
78	0xbd31b338	-0.043383807
79	0x3cc43abe	0.023953792
80	0xb9b125ce	-0.00033788237
81	0xbd830d20	-0.06398988
82	0xbbc729be	-0.006077974
83	0xbd810181	-0.06299115
84	0xbda5be26	-0.080929086
85	0xbd2b6995	-0.041848738
86	0xbd2b76f5	-0.041861493
87	0xbcee19ac	-0.029064976
88	0xbcb659cd	-0.022259617
89	0x3d3b1868	0.045677572
90	0xbcbd4a2a	-0.023106653
91	0x3c618b5b	0.013766135
92	0xbd115e40	-0.035490274
93	0x3d390e19	0.04517946
94	0x3ca19ce4	0.019728132
95	0x3d5fb837	0.05461904
96	0xbdb2ba93	-0.087269925
97	0xbba1740a	-0.004927163
98	0xbc2ba561	-0.010476441
99	0xbd0722c7	-0.03299215
100	0xbd85150d	-0.06498156
101	0x3c3fadea	0.011699179
102	0xbab12584	-0.0013515209
103	0xbce2e2cd	-0.027696038
104	0x3d77d2fe	0.060503952
105	0x3d23ffa4	0.04003872
106	0xbd65c31b	-0.05609427
107	0xbd46504a	-0.048416413
108	0xbc1a29f0	-0.009409413
109	0x3cf5e4ad	0.030016268
110	0x3d49fd42	0.04931379
111	0x3cbc884a	0.023014206
112	0x3d3a987b	0.045555573
113	0x3d401e4e	0.0469039
114	0xbb9695e3	-0.0045955046
115	0xbd6bd4f6	-0.057576142
116	0xbd141c91	-0.036160056
117	0xbc1bb7b2	-0.009504246
118	0x3cb35258	0.02188985
119	0x3c0b8fa4	0.008518133
120	0xbcd15f58	-0.025558159
121	0xbd8c5c3e	-0.06853531
122	0x3c6b7f55	0.01437362
123	0xbd07a08c	-0.033112094
124	0xbc934cf8	-0.017981037
125	0xbcd4c6a9	-0.025973635
126	0xbc4f1f2d	-0.01264171
127	0x3cf583a4	0.029969998
128	0x3abfc3ed	0.0014630534
129	0x3d822b92	0.06355967
130	0x3d051e6f	0.032499727
131	0x3d7777d1	0.060417
132	0xbcc38fdf	-0.023872314
133	0x3cc16533	0.023607826
134	0x3d527eef	0.051390585
135	0xba4a06f1	-0.0007706723
136	0x3d5f6186	0.054536365
137	0x3cd19086	0.02558161
138	0xbd376009	-0.04476932
139	0x3b5560fc	0.0032559028
140	0x3c039140	0.008030236
141	0xbc81a809	-0.015827196
142	0xbd466014	-0.04843147
143	0x3d6651f1	0.05623049
144	0xbc03882b	-0.00802807
145	0xbbf3a09c	-0.0074349176
146	0x3cab97c2	0.020946387
147	0xbc21e1b6	-0.009880474
148	0x3d58f506	0.052968048
149	0x3d514e9c	0.05110036
150	0xbd960634	-0.07325402
151	0xbcd9aef8	-0.02657269
152	0xbd1710ca	-0.036881246
153	0x3dc115db	0.09427997
154	0x3ca2b2d3	0.01986066
155	0x3d0f88b8	0.035042495
156	0xbd4cd867	-0.050011065
157	0x3d5f255b	0.054478984
158	0xbdcec9e0	-0.10097098
159	0xbca0926b	-0.019601068
160	0x3d12b98d	0.035821486
161	0xba732e00	-0.0009276569
162	0x3d5d52c6	0.054034017
163	0xbce38dae	-0.02777752
164	0x3c02b691	0.007978098
165	0xbd27c3e3	-0.040958297
166	0xbd376fbe	-0.0447843
167	0x3d660ea6	0.056166314
168	0xbd4b7948	-0.04967621
169	0x3d0cd102	0.034379013
170	0xbbd6ffea	-0.006561269
171	0x3cc9894b	0.0246016
172	0xbd7a455e	-0.06110131
173	0x3d1260c7	0.035736825
174	0xbd33efb4	-0.04392977
175	0x3cb2967d	0.021800274
176	0xbc837fd7	-0.01605217
177	0xbc739fed	-0.014869672
178	0xbd61c056	-0.055115066
179	0x3d4942a1	0.049135808
180	0xbc96ff61	-0.018432321
181	0x3cd55af0	0.026044339
182	0xbda98795	-0.08277813
183	0xbd9f2edc	-0.077726096
184	0x3cb8c0c4	0.022552855
185	0xbda7937b	-0.081824265
186	0x3cfbb192	0.03072432
187	0xbcac3511	-0.021021398
188	0x3d0ee937	0.03489038
189	0xbd26b7d7	-0.040702667
190	0x3d54f5fd	0.051992405
191	0xbd6a1dfc	-0.0571575
192	0xbd2c4338	-0.042056292
193	0xbd416490	-0.047215044
194	0xbd5e75d5	-0.054311592
195	0xbd360fde	-0.044448726
196	0x3d436ffc	0.04771422
197	0xbc9352e7	-0.017983867
198	0xbd9e61d9	-0.07733507
199	0x3cad3d7d	0.021147484
200	0xbcec8c3d	-0.028875465
201	0xbd19a7ec	-0.03751366
202	0xbd19e5eb	-0.037572782
203	0x3b342578	0.0027488153
204	0xbd0d2537	-0.03445932
205	0x3cb4a4d6	0.022051256
206	0xbd43d0e0	-0.04780662
207	0x3c495750	0.012288883
208	0x3ca34419	0.019929932
209	0x3d220a98	0.039560884
210	0x3d3799c6	0.044824384
211	0x3d0856ab	0.033285778
212	0xbb717779	-0.0036844893
213	0xbcd602d2	-0.026124392
214	0xbcf62659	-0.030047582
215	0x3c8751f2	0.016518567
216	0xbcd9ba37	-0.026578052
217	0x3cd11ce4	0.025526471
218	0xbca2edec	-0.01988884
219	0x3d02c851	0.031929318
220	0xbcd0615a	-0.025437046
221	0x3d034edd	0.03205763
222	0x3b328bc2	0.0027243947
223	0xbd1db358	-0.038501114
224	0x3d9b60b3	0.07586803
225	0x3cf438b1	0.029812189
226	0x3cde2175	0.027115563
227	0x3b30c920	0.0026975349
228	0x3cc20814	0.023685493
229	0xbd21b496	-0.03947886
230	0xbcec9116	-0.028877776
231	0x3c868566	0.016421031
232	0xbcd1b56c	-0.025599204
233	0x3a45e6b2	0.000754933
234	0x3d2feb71	0.042949144
235	0xbbe175c6	-0.0068804948
236	0x3ce81b1c	0.02833324
237	0x3d306c53	0.043072056
238	0xbd44eb2a	-0.048075832
239	0xbd545d2b	-0.051846664
240	0xbdad7f9a	-0.08471604
241	0xbcbf99f6	-0.023388844
242	0x3d53a4d9	0.051670883
243	0xbd931019	-0.07180805
244	0x3ce0f400	0.027460098
245	0xbd342b14	-0.043986395
246	0x3d27a59d	0.040929426
247	0xbc6a8ba1	-0.014315517
248	0x3d663133	0.056199264
249	0x3b5d6aaa	0.00337855
250	0xbbeb972a	-0.007189651
251	0xbc5e21de	-0.013557879
252	0xbcd0e4ee	-0.025499787
253	0x3c350c90	0.011050358
254	0xbcd07c52	-0.025449906
255	0x3c8a1b91	0.016858848

fc2.bias f4 [256]
0	0xbd943018	-0.07235736
1	0xbe6538c4	-0.22384936
2	0xbbb683c5	-0.0055699074
3	0xbdfa91a9	-0.12234814
4	0x3a8136f2	0.0009858294
5	0x3d05ea16	0.032693945
6	0x3dac10b4	0.08401623
7	0x3e41d7e9	0.1893002
8	0xbe88831f	-0.26662537
9	0x3e65e75b	0.22451536
10	0xbd31d96f	-0.04342025
11	0xbd5724ae	-0.052525215
12	0xbdc63159	-0.09677381
13	0xbca0c871	-0.019626828
14	0x3d4a68ec	0.049416468
15	0xbd8037f8	-0.06260675
16	0xbd626ce6	-0.055279635
17	0x3e8fa04d	0.28051987
18	0x3dad623e	0.08466004
19	0x3e0681a7	0.13135396
20	0x3d44c813	0.04804237
21	0xbdaf9282	-0.08572866
22	0x3bb672a2	0.0055678645
23	0xbd1c18f9	-0.038109753
24	0x3e628300	0.22120285
25	0xbd1d8cab	-0.03846423
26	0x3e0da47a	0.13832274
27	0xbe438c03	-0.19096379
28	0xbf041fd4	-0.51611066
29	0xbc9610ab	-0.018318495
30	0x3cf10165	0.02941961
31	0xbe036357	-0.12830864
32	0x3d215b25	0.039393563
33	0x3d580b1e	0.052744977
34	0x3d98e77f	0.074660294
35	0xbdfa4c1e	-0.122215495
36	0x3e06a559	0.13149013
37	0x3e4f89ff	0.20267485
38	0x3be5c5ba	0.0070120962
39	0x3d89cb11	0.06728185
40	0x3ea8a1ed	0.3293604
41	0xbddb09d7	-0.10695236
42	0xbcc74f9f	-0.024329958
43	0xbd30145e	-0.042988174
44	0xbd72a45f	-0.059238788
45	0x3d52dec5	0.05148198
46	0x3dfdca29	0.123920746
47	0x3e314e43	0.1731501
48	0x3ec72913	0.38898525
49	0xbd5a2627	-0.05325904
50	0xbb59c61b	-0.0033229652
51	0x3e0846b1	0.13308217
52	0x3d11d82d	0.035606552
53	0xbe606772	-0.21914461
54	0xbe342c09	-0.17594923
55	0xbcc0a360	-0.023515403
56	0xbd160380	-0.03662443
57	0xbe626e3f	-0.22112368
58	0x3cee11b2	0.029061172
59	0x3e872975	0.26398817
60	0xbd290f22	-0.041274197
61	0xbd69026d	-0.05688708
62	0xbdea3e61	-0.11437679
63	0xbd2458d4	-0.040123776
64	0x3cf43ed9	0.029815124
65	0x3e274c62	0.16337731
66	0xbd95c2db	-0.07312556
67	0x3e524c73	0.20536976
68	0xbe2f04d7	-0.1709169
69	0x3d4a8b5c	0.04944931
70	0x3d07807d	0.03308152
71	0x3e67fbe1	0.22654678
72	0xbe05c3b3	-0.13062935
73	0x3df9d6a7	0.12199145
74	0x3dffd673	0.12492075
75	0x3d89b17c	0.067233056
76	0xbd25e9f2	-0.04050631
77	0x3de212d7	0.1103875
78	0x3e230856	0.15921149
79	0xbd848dd3	-0.06472363
80	0xbbc0aa21	-0.005879656
81	0x3d483966	0.048882864
82	0x3e75c8e8	0.24002421
83	0xbc8b242b	-0.01698502
84	0xbeaf5497	-0.34244224
85	0xbe0b866c	-0.13625497
86	0xbd57b9c6	-0.0526674
87	0xbdccf19e	-0.10007022
88	0x3e05004b	0.12988393
89	0xbd7d5e72	-0.06185765
90	0xbe1a74e5	-0.15083654
91	0x3cd76c23	0.02629668
92	0xbe92f78c	-0.28704488
93	0xbe4d3f1e	-0.20043609
94	0x3a36a75e	0.00069676887
95	0x3ded75e6	0.11594753
96	0xbdd3e36f	-0.10346114
97	0xbd072099	-0.032990072
98	0x3e154e65	0.14580686
99	0x3c242c2d	0.010020298
100	0x3d14b60d	0.03630643
101	0x3e037236	0.12836537
102	0xbe073393	-0.13203268
103	0x3e03c1a3	0.12866835
104	0xbcf391b9	-0.029732572
105	0xbeaf6c4c	-0.3426231
106	0x3e0ea80e	0.13931295
107	0xbd5b5868	-0.053551108
108	0xbd3031c9	-0.04301623
109	0x3dd4a419	0.10382862
110	0xbd103bdf	-0.035213348
111	0x3db0640a	0.08612831
112	0xbea4c88a	-0.3218425
113	0xbcb639d8	-0.022244379
114	0xbd852072	-0.06500329
115	0xbd63c26e	-0.055605344
116	0xbd45a16b	-0.048249643
117	0x3df8afe0	0.121429205
118	0x3dd110f8	0.10208315
119	0x3e0568e8	0.130283
120	0x3e73079e	0.23733374
121	0xbcc17631	-0.023615928
122	0xbe965327	-0.29360315
123	0x3d2f09cc	0.042733952
124	0x3e120672	0.14260271
125	0x3e6a6ece	0.22893831
126	0xbcad1175	-0.021126488
127	0xbd725a5d	-0.05916821
128	0xbd0d9404	-0.034564987
129	0x3bcdbe28	0.006278772
130	0xbe6f6fc4	-0.23382479
131	0x3d5d4b9c	0.054027185
132	0xbd88e8f7	-0.066850595
133	0xbd61d345	-0.055133123
134	0x3cc0bacb	0.02352657
135	0xbe15ac2d	-0.14616461
136	0xbe3a989d	-0.1822228
137	0x3e25795c	0.16159576
138	0xbdbe7593	-0.09299769
139	0x3e34d8dc	0.1766085
140	0xbe392de0	-0.18083906
141	0x3d6449d9	0.05573449
142	0xbcb556a4	-0.02213604
143	0x3e2a87cf	0.1665337
144	0x3ea9ccfe	0.3316421
145	0x3da11daf	0.0786699
146	0x3d156755	0.0364755
147	0x3ea12d4b	0.31479868
148	0x3e2c9a1d	0.16855665
149	0xbc94360b	-0.018092176
150	0x3e68aa29	0.22721161
151	0x3caaaafc	0.020833485
152	0x3d40b922	0.047051556
153	0xbd6af291	-0.057360236
154	0x3e74a5fc	0.23891443
155	0x3e22078e	0.15823194
156	0xbd677232	-0.05650539
157	0xbcf4036e	-0.029786792
158	0xbd00463b	-0.031316977
159	0x3c5f28be	0.013620554
160	0x3e1bce51	0.15215422
161	0xbde04a42	-0.109516636
162	0xbe19f3ea	-0.15034452
163	0xbd458349	-0.048220906
164	0x3e3f1f36	0.1866425
165	0xbd63fdbc	-0.0556619
166	0xbc87a502	-0.016558174
167	0x3d18b635	0.03728314
168	0xbdd62d9f	-0.1045792
169	0x3cca9463	0.02472896
170	0xbe635b84	-0.22202879
171	0x3dd68e8e	0.10476409
172	0xbdc433a9	-0.09580166
173	0x3aa92c90	0.0012906957
174	0x3eb67f60	0.35644054
175	0x3c22b806	0.00993157
176	0xbe8c26ce	-0.27373356
177	0x3eb2b635	0.34904638
178	0xbd217d65	-0.039426226
179	0xbc684d84	-0.014178637
180	0xbe5b2e05	-0.21404274
181	0x3e13d2c9	0.14435877
182	0xbd8cd9ce	-0.068774804
183	0xbd272e67	-0.040815737
184	0xbce86f7c	-0.028373472
185	0xbebd95a7	-0.37028238
186	0x3e26f231	0.16303326
187	0x3e52f7de	0.20602366
188	0x3ecbf31d	0.39833918
189	0xbd48fdae	-0.049070053
190	0xbd9e52ae	-0.07730614
191	0xbe73b902	-0.23801044
192	0xbdc67d2e	-0.09691845
193	0x3d103685	0.035208244
194	0x3e0a6872	0.13516405
195	0x3bf9d420	0.007624164
196	0x3d1230aa	0.03569094
197	0x3cca2376	0.024675112
198	0x3ba39c1e	0.004992976
199	0xbdd8b66f	-0.105816714
200	0xbb036927	-0.002005169
201	0x3ba4a97f	0.0050250883
202	0x3d10ee6b	0.035383623
203	0xbcd51afe	-0.026013847
204	0xbd73b620	-0.05949986
205	0x3d52ee76	0.051496945
206	0x3e9ad744	0.3024236
207	0xbd4dade2	-0.050214656
208	0x3db66d33	0.08907547
209	0xbe0075a6	-0.1254488
210	0xbe3720ca	-0.17883602
211	0xbd59dbcc	-0.05318813
212	0x3d335ee9	0.043791685
213	0x3cc526b2	0.024066303
214	0x3aa5e99b	0.0012658121
215	0xbe0be833	-0.13662796
216	0x3dd4f580	0.10398388
217	0x3d53271a	0.051550962
218	0xbc5cd91c	-0.013479497
219	0x3e1a755b	0.1508383
220	0xbe3188df	-0.17337368
221	0x3e2b1eee	0.16711017
222	0xbe388b4f	-0.18021892
223	0x3db3a3fb	0.08771511
224	0x3c87da5c	0.016583614
225	0x3e95b8b3	0.29242477
226	0xbdfc4029	-0.12316925
227	0xbddaf5c0	-0.10691404
228	0xbd0e2960	-0.034707427
229	0xbd6e0d6b	-0.058118265
230	0x3d086de4	0.033307925
231	0x3cc2aff8	0.023765549
232	0x3ba6c222	0.0050890604
233	0xbc6164fd	-0.013756988
234	0xbcf1a697	-0.029498382
235	0xbc284a42	-0.010271611
236	0x3b9fb3b5	0.0048737177
237	0x3e967378	0.2938497
238	0x3daf66f9	0.08564562
239	0x3e68861e	0.22707412
240	0x3dab3c04	0.083610564
241	0x3f119b24	0.5687735
242	0x3bdd0504	0.0067449827
243	0xbe0d96d3	-0.13827066
244	0xbcb8a220	-0.022538245
245	0xbcf41042	-0.029792909
246	0xbdfc3b8c	-0.12316045
247	0xbd7d9605	-0.061910648
248	0x3d37efa5	0.044906277
249	0x3d82f119	0.06393642
250	0xbe179184	-0.14801604
251	0x3e68e9b5	0.22745402
252	0x3e024dd5	0.12725003
253	0xbca97a9f	-0.020688353
254	0xbe06ef86	-0.13177308
255	0x3e03ef87	0.12884341

fc3.weight f4 [1, 256]
0	0xbbdb8e43	-0.0067003085
1	0xbe0ee37e	-0.13953969
2	0x3cc226a9	0.023700075
3	0x3e2ba923	0.1676374
4	0x3d335503	0.043782245
5	0x3b0252ee	0.0019885856
6	0xbe9106f6	-0.28325623
7	0x3d1c18c6	0.038109563
8	0xbc0eb4ee	-0.008710129
9	0x3e8ef158	0.27918506
10	0x3d690f4e	0.05689936
11	0x3d1cd6d7	0.038290825
12	0xbd621437	-0.05519506
13	0xbd1c9d9b	-0.03823624
14	0xbd33304c	-0.04374723
15	0xbb075e21	-0.002065547
16	0xbe243a58	-0.16037881
17	0x3d7bd2f4	0.061480477
18	0x3c9f8f4a	0.019477505
19	0x3c9c230f	0.019059686
20	0xbdc4f146	-0.09616332
21	0xbaa88a09	-0.001285852
22	0x3cc77856	0.024349373
23	0x3d56faab	0.05248515
24	0xbe5ce842	-0.21572974
25	0x3d006773	0.031348657
26	0xbebe979f	-0.37225053
27	0xbd46df70	-0.04855293
28	0xbf47146b	-0.7776553
29	0xbd24a7a3	-0.040198933
30	0xbd5b9daf	-0.053617176
31	0xbdc53346	-0.0962892
32	0x3d7f075e	0.062262885
33	0xbdfdae65	-0.12386779
34	0x3c379997	0.011206052
35	0xbcdf2cf6	-0.027243119
36	0x3e180a86	0.14847764
37	0x3dd48c28	0.10378295
38	0xbc2aa1e0	-0.010414571
39	0x3d482264	0.048860922
40	0x3ede11c9	0.43372944
41	0xbd823ae9	-0.063588925
42	0xbe155a41	-0.1458521
43	0xbd9ff901	-0.078111656
44	0xbcd0f484	-0.02550722
45	0x3e27538d	0.16340466
46	0x3eca2170	0.39478636
47	0x3d060273	0.03271718
48	0x3ec46e7e	0.3836555
49	0x3d0276aa	0.031851448
50	0x3cc4606c	0.023971759
51	0xbe3abc7d	-0.18235965
52	0x3e14eba6	0.14543018
53	0xbd8e6cd4	-0.06954351
54	0xbe25f82f	-0.16207956
55	0xbd7430f8	-0.059617013
56	0x3d01b6b8	0.031668395
57	0x3cc4c9de	0.024022039
58	0xbca20991	-0.019779952
59	0xbf1ffb35	-0.62492687
60	0x3d8165d1	0.06318248
61	0xbc7b835c	-0.015351143
62	0x3d9d836b	0.076910816
63	0x3d7e144c	0.062031075
64	0xbda13dd1	-0.07873119
65	0x3d745158	0.059647888
66	0x3c539bd9	0.012915575
67	0x3e9f9137	0.31165478
68	0xbf2e195e	-0.6800746
69	0x3e46b888	0.1940633
70	0xbcaad2c9	-0.020852463
71	0xbe1f8ac3	-0.15580277
72	0xbcc7a2b8	-0.024369583
73	0x3e35db97	0.17759548
74	0xbd86215a	-0.0654933
75	0xbda2c992	-0.07948603
76	0x3bc7a400	0.0060925484
77	0x3db51f05	0.08843807
78	0xbe27150c	-0.16316622
79	0xbcc2a827	-0.023761822
80	0x3d8ba0cd	0.0681778
81	0xbd7d84b2	-0.061894126
82	0x3e199b4b	0.15000646
83	0xbd4e4f88	-0.050368816
84	0xbf2e1906	-0.6800693
85	0xbc836b09	-0.01604225
86	0x3d29c79c	0.041450128
87	0x3de35777	0.11100667
88	0xbde93637	-0.11387294
89	0xbd6801f2	-0.05664248
90	0x3db8f00d	0.09030161
91	0x3d237ee8	0.03991595
92	0xbd988773	-0.0744771
93	0xbb95b61a	-0.0045688273
94	0x3ddadb91	0.1068641
95	0x3d9fbb35	0.07799379
96	0xbcd498e4	-0.02595181
97	0x3d1909a7	0.03736272
98	0xbe01efbf	-0.12689112
99	0xbc9a2a51	-0.018819006
100	0x3b8b70f6	0.0042554094
101	0x3d808e4c	0.06277141
102	0xbab70841	-0.0013964252
103	0x3d3b9320	0.045794606
104	0xbe525e2e	-0.20543739
105	0xbdd6b1a7	-0.10483103
106	0x3d425a0a	0.04744915
107	0xbb2f00e6	-0.0026703416
108	0xbd05959d	-0.032613385
109	0x3d0b1212	0.03395278
110	0xbd9e9787	-0.07743745
111	0x3d99d088	0.07510477
112	0xbed58150	-0.4170022
113	0xbcd06660	-0.025439441
114	0xbd328b96	-0.04359015
115	0xbd1660f1	-0.036713544
116	0x3afe3166	0.0019393384
117	0x3d8e0b6f	0.069357745
118	0x3ddba84b	0.10725459
119	0xb82fa9b6	-4.1881307e-05
120	0xbd8c2dd6	-0.0684468
121	0x3cfb4ff2	0.03067777
122	0xbd6dfde9	-0.058103476
123	0x3d71340a	0.05888752
124	0x3d586cb2	0.052838035
125	0x3d206215	0.03915604
126	0xbdc00abc	-0.093770474
127	0x3d072c65	0.033001322
128	0x3c82854f	0.015932707
129	0x3d30ebe6	0.04319372
130	0xbe35edf5	-0.17766555
131	0xbe423bc8	-0.18968117
132	0x3e15bd48	0.14622986
133	0x3eb6861b	0.3564919
134	0x3cbea6f3	0.023272967
135	0xbd188e72	-0.03724522
136	0xbcbc2a8c	-0.022969507
137	0x3d63f425	0.055652756
138	0xbe0df3f5	-0.13862593
139	0x3e17e593	0.1483367
140	0xbda22dcc	-0.07918891
141	0xbd8f206a	-0.06988604
142	0xbd1f4867	-0.038887408
143	0x3cb7cd18	0.022436664
144	0x3e042208	0.12903607
145	0x3e33add0	0.17546773
146	0x3d503207	0.05082896
147	0x3de13c15	0.10997788
148	0x3d42f706	0.04759886
149	0x3dace8be	0.084428295
150	0x3d0a4787	0.03375962
151	0xbd4e4e93	-0.050367903
152	0xbd04bb4a	-0.032405175
153	0xbcf92f37	-0.030418022
154	0x3d1ffbf3	0.039058637
155	0x3f26f499	0.65216976
156	0x3d63f00c	0.05564885
157	0xbd627fd2	-0.05529768
158	0x3c4cc8ed	0.012499076
159	0x3cf3f004	0.029777534
160	0x3dba58df	0.09098982
161	0xbda3e9db	-0.08003589
162	0x3e0e62d3	0.13904886
163	0xbbe3e6c2	-0.0069549987
164	0xbdd02ecf	-0.10165178
165	0x39dd22b8	0.00042178272
166	0xbd43a279	-0.047762368
167	0x3ceead18	0.029135272
168	0x3e4214c3	0.18953232
169	0x3d829799	0.06376571
170	0xbe5cad46	-0.21550474
171	0x3b313a96	0.0027042977
172	0xbc4c901f	-0.012485533
173	0x3dd1711a	0.102266505
174	0x3e503d0d	0.20335789
175	0x3cfe801f	0.031066952
176	0x3e102d15	0.14079697
177	0xbe4a3c19	-0.19749488
178	0x3d329d56	0.04360708
179	0xbc2f5e26	-0.010703599
180	0xbe2702ba	-0.16309634
181	0x3de0929c	0.109654635
182	0xbdb868c4	-0.090043575
183	0x3d104329	0.0352203
184	0x3acc4edb	0.0015587466
185	0xbdeb6943	-0.114946865
186	0x3d215a7f	0.039392944
187	0x3da1db02	0.079031006
188	0x3e229927	0.15878735
189	0xbe7d54e8	-0.2473942
190	0xbd499fde	-0.049224727
191	0x3f3832d7	0.71952575
192	0xbd441600	-0.047872543
193	0x3cfaa1fd	0.03059482
194	0x3d648d07	0.055798557
195	0x3c2ff0ed	0.0107385935
196	0xbed2b4df	-0.4115362
197	0xbd4a9325	-0.049456734
198	0xbd18114e	-0.037125878
199	0xbc79bf86	-0.015243417
200	0xbd00469b	-0.031317335
201	0x3e84d8cf	0.25946662
202	0x3c2fd312	0.010731475
203	0x3cf9574a	0.03043713
204	0xbe95662f	-0.29179522
205	0x3d5c9c78	0.053860158
206	0xbe2dd077	-0.16974054
207	0x3e1ed6eb	0.15511672
208	0xbe107d1e	-0.14110228
209	0xbca45fa7	-0.020065142
210	0xbd82709a	-0.06369133
211	0x3d131d80	0.035916805
212	0x3d9149a0	0.07094121
213	0x3d80e370	0.0629338
214	0xbcb7693c	-0.022389047
215	0x3a3473c9	0.00068837084
216	0x3e8443ff	0.25833127
217	0x3d4e6c64	0.050396338
218	0xbd1d1b2b	-0.038355988
219	0x3d52b153	0.05143864
220	0xbe1540d6	-0.14575514
221	0x3d56f7bc	0.05248235
222	0xbd21aa54	-0.03946908
223	0xbd212f66	-0.039351843
224	0x3b525652	0.0032094908
225	0xbe23ef86	-0.1600934
226	0xbd855c10	-0.065117
227	0xbd438306	-0.047732376
228	0xbd1f8259	-0.03894267
229	0x3d4f13da	0.05055604
230	0xbcf6cf9c	-0.030128293
231	0x3d524aca	0.051340856
232	0x3d9c5efb	0.076353036
233	0x37ee805d	2.8431585e-05
234	0xbd2c82e4	-0.042117015
235	0xbcc0983b	-0.02351009
236	0xbd290f9f	-0.041274663
237	0xbda07907	-0.07835584
238	0x3d7b48e3	0.061348807
239	0x3de51692	0.111859456
240	0x3e068141	0.13135244
241	0x3e5c9bd4	0.21543819
242	0x3a1d8460	0.00060088
243	0xbec6efdc	-0.38854873
244	0x3d9eb8a9	0.07750065
245	0x3b83620e	0.0040094918
246	0x3d9bc74e	0.07606374
247	0xbe0339dc	-0.1281504
248	0x3da28e6a	0.079373196
249	0x3d2297df	0.039695617
250	0xbe261986	-0.16220674
251	0xbe494e77	-0.19658838
252	0x3e0483d4	0.12940913
253	0xbd4621d6	-0.048372112
254	0x3e1ee219	0.15515937
255	0x3d9ef274	0.07761088
