TD3/models/actor_eps100_veh100_12e-2_8e-2_0.3_-2.pth (torch, 275287 bytes, 5 tensors)

fc1.weight f4 [256, 8]
-0.10310236 -0.10322299 0.20681834 -0.17528406 0.04103688 -0.042315237 -1.4891391 0.2739968
-0.22453395 0.13142724 -0.15232174 0.13478959 0.13516234 -0.0025141756 1.4742987 0.03379067
0.23986785 -0.29225206 -0.2712305 0.18702245 -0.2812486 -0.08557523 0.18415388 -0.3413657
0.071401484 -0.071770914 -0.4529506 -0.23188914 -0.09102664 -0.0490738 -0.06634251 0.3113065
0.029438155 -0.30398118 0.22514316 -0.2883655 0.13729483 -0.0019789592 1.524675 -0.02332092
-0.1812816 0.35919878 -0.30980623 0.1952119 0.13523392 -0.15111281 0.90404934 0.3388206
0.48933384 -0.11248203 -0.35110503 0.36734447 0.13484707 -0.1703945 2.1233141 -0.5303609
0.27152824 -0.2709018 0.37130672 -0.25394276 -0.06117621 0.2191127 -0.38659233 0.1115381
0.02387952 0.4607691 -0.51492345 -0.1273771 0.08881054 0.105967656 -1.8423408 -0.09025893
0.1521628 0.3128194 -0.017680846 0.01948499 0.010691743 0.0020848485 0.57270986 -0.048159022
-0.51719785 0.0091154175 0.5302219 -0.18798685 0.0131980665 0.026824912 1.0881803 -0.061244745
-0.72381884 -0.2440953 0.33824253 0.21712501 -0.1625952 -0.27912274 -0.6192702 -0.1453034
0.032482807 0.22432546 0.30370775 0.1958253 -0.015454831 -0.112261 0.7526625 0.30892712
-0.36434534 0.0071864575 0.1066144 -0.66406125 -0.040784534 0.016670195 -0.50830376 0.30242062
-0.14260037 -0.2250456 0.17947374 -0.051975936 0.0377002 0.03759507 1.5468462 -0.28415927
-0.37648258 0.098280095 -0.19408937 0.110799715 0.21938354 0.19513242 -0.03842468 -0.4191021
0.10733815 0.13416503 -1.8106067 0.24619229 0.2671237 -0.2587539 -1.0061052 -0.011782761
0.32735434 -0.015231118 -0.65456223 -0.1613563 -0.4923338 -0.16288956 -0.5406667 0.06482337
-0.21300317 0.039447986 -0.32543698 -0.065213054 0.06686248 0.06349607 -1.6646897 -0.17530298
0.15837368 -0.20287648 0.26272944 -0.29391533 0.21820678 0.080821246 1.2994564 0.10010362
0.09388299 0.1794366 -0.10573174 -0.16282506 0.03266334 0.21433128 -1.2172414 0.2548063
-0.32276645 -0.017364914 0.07750945 0.12812382 -0.21680702 -0.12148834 -0.96420884 0.02508275
0.5030222 0.09114129 -0.82027364 -0.5743574 0.009120467 0.19752626 1.8233454 0.008667617
-0.1275473 -0.13780971 0.35045263 0.30058953 0.0020519125 -0.052104775 1.5738328 -0.0008142945
0.13681357 -0.045147125 0.75767165 -0.20261672 -0.14030099 0.086802 -2.1013463 -0.38047358
0.07606381 -0.37843245 0.47305578 -0.29813027 0.026878916 0.18229173 1.1617126 -0.347902
0.14691663 0.28227052 -0.15919837 -0.032590434 0.11400973 0.034267638 0.9495217 0.22910073
-0.2258583 -0.12733105 1.0091124 -0.08750048 -0.0210502 0.10439119 -1.9437476 -0.041035745
-0.30264455 -0.4342676 0.24587779 -0.30698654 -0.14277771 0.05244718 -1.211777 -0.016314905
0.16775274 0.13374461 -0.28408056 0.17231458 0.14239766 -0.2235784 -0.25273588 0.08601493
0.021656197 0.051689766 0.19831684 -0.1251191 0.16241568 -0.03936577 -1.1547351 0.1335477
-0.07237044 -0.24044402 -0.20841834 -0.049635537 -0.029709343 0.049942512 -2.0790536 0.2753112
00000000: 5527 d3bd 9366 d3bd 30c8 533e aa7d 33be
00000010: 4a16 283d be52 2dbd 1c9c bebf 4f49 8c3e
00000020: 3aec 65be dd94 063e 3bfa 1bbe 4806 0a3e
00000030: ff67 0a3e dec4 24bb d2b5 bc3f 1668 0a3d
00000040: eb9f 753e 10a2 95be b9de 8abe d082 3f3e
00000050: d1ff 8fbe 1142 afbd d692 3c3e 7cc7 aebe
00000060: f13a 923d a1fc 92bd 24e9 e7be 5974 6dbe
00000070: 2d6c babd 9c01 49bd 95de 87bd 9163 9f3e
00000080: 4928 f13c 6ca3 9bbe ee8b 663e a5a4 93be
00000090: 0497 0c3e 6db1 01bb 8d28 c33f 840b bfbc
000000a0: e2a1 39be e7e8 b73e ec9e 9ebe a1e5 473e
000000b0: c37a 0a3e 51bd 1abe c76f 673f e579 ad3e
000000c0: f789 fa3e fb5c e6bd 0ac4 b3be 9314 bc3e
000000d0: 5a15 0a3e e57b 2ebe 61e4 0740 bbc5 07bf
000000e0: c005 8b3e a4b3 8abe ea1b be3e c904 82be
000000f0: e893 7abd 145f 603e 6eef c5be 166e e43d
00000100: fc9e c33c ede9 eb3e 06d2 03bf 246f 02be
00000110: 4de2 b53d 9205 d93d d3d1 ebbf add9 b8bd
00000120: 91d0 1b3e dd29 a03e 6cd7 90bc fc9e 9f3c
00000130: 6c2c 2f3c f4a1 083b 1d9d 123f 6542 45bd
00000140: 1467 04bf d558 153c 9fbc 073f a07f 40be
00000150: b43c 583c ebbf db3c 7e49 8b3f c5db 7abd
00000160: 314c 39bf 1ef4 79be 202e ad3e 0556 5e3e
00000170: 5b7f 26be 2de9 8ebe 7e88 1ebf 6aca 14be
00000180: b10c 053d 93b5 653e 957f 9b3e 6d86 483e
00000190: 4236 7dbc 18e9 e5bd 7dae 403f b22b 9e3e
000001a0: 798b babe 607c eb3b a758 da3d ebff 29bf
000001b0: af0d 27bd ef8f 883c 3220 02bf e0d6 9a3e
000001c0: d505 12be 5b72 66be f7c7 373e b8e4 54bd
000001d0: 866b 1a3d 4afd 193d 0eff c53f 537d 91be
000001e0: 53c2 c0be 1347 c93d 5dbf 46be f6ea e23d
000001f0: 14a6 603e cbd0 473e 3263 1dbd 8d94 d6be
00000200: 1bd4 db3d 8f62 093e f6c1 e7bf d519 7c3e
00000210: 70c4 883e 647b 84be 0ec8 80bf 7b0c 41bc
00000220: fd9a a73e f08b 79bc 6491 27bf 963a 25be
00000230: 2d13 fcbe 85cc 26be 2269 0abf 1dc2 843d
00000240: 811d 5abe 3694 213d ad9f a6be 6c8e 85bd
00000250: 32ef 883d 3a0a 823d 8d14 d5bf a082 33be
00000260: b62c 223e dabe 4fbe 7984 863e 127c 96be
00000270: 9971 5f3e 9c85 a53d 9654 a63f 2003 cd3d
00000280: ba45 c03d 3abe 373e e289 d8bd 9dbb 26be
00000290: ffc9 053d a979 5b3e 91ce 9bbf f975 823e
000002a0: a541 a5be dd40 8ebc 46bd 9e3d e432 033e
000002b0: a902 5ebe e1ce f8bd 64d6 76bf 577a cd3c
000002c0: 10c6 003f 49a8 ba3d 74fd 51bf 1609 13bf
000002d0: 036e 153c 5344 4a3e 6263 e93f 9f02 0e3c
000002e0: c29b 02be fd1d 0dbe 876e b33e dfe6 993e
000002f0: 6179 063b d16b 55bd 5a73 c93f 6176 55ba
00000300: db18 0c3e 31ec 38bd c5f6 413f c27a 4fbe
00000310: 10ab 0fbe 3fc5 b13d 757c 06c0 6fcd c2be
00000320: 58c7 9b3d e6c1 c1be 5e34 f23e 88a4 98be
00000330: 2c31 dc3c afaa 3a3e 00b3 943f 3620 b2be
00000340: 5071 163e c385 903e e604 23be 8c7d 05bd
00000350: ef7d e93d 395c 0c3d db13 733f 6299 6a3e
00000360: 6647 67be 1263 02be 982a 813f 7433 b3bd
00000370: 7871 acbc 0ccb d53d b9cc f8bf 1915 28bd
00000380: 3af4 9abe 5358 debe 63c7 7b3e 572d 9dbe
00000390: 5234 12be dbd2 563d 821b 9bbf d6a6 85bc
000003a0: 60c7 2b3e 59f4 083e 0273 91be 3c73 303e
000003b0: b1d0 113e bcf1 64be 9966 81be 9828 b03d
000003c0: 5668 b13c a6b8 533d 9213 4b3e 391f 00be
000003d0: 4c50 263e 003e 21bd 5cce 93bf bac0 083e
000003e0: f436 94bd f536 76be 9e6b 55be a24e 4bbd
000003f0: 0261 f3bc 8590 4c3d 370f 05c0 97f5 8c3e

fc1.bias f4 [256]
0.15312703 -0.22322655 -0.2964986 0.024945594 0.17903236 -0.1256723 0.20763259 0.3624277
-0.2409994 0.25794592 0.19387262 -0.2967808 0.26549134 0.3383653 -0.054333363 -0.5127855
0.04668076 -0.16898681 -0.34260342 -0.009583176 0.049009327 -0.051959794 -0.90478957 0.2917171
0.36833704 0.03791606 0.12332977 0.893958 0.048946436 0.13970071 -0.043466568 -0.1607593
-0.4690045 -0.36072174 0.011549243 -0.23996238 -0.43407142 -0.32935077 0.13910589 -0.333183
0.30215362 0.3738071 0.20280781 -0.041060828 -0.0044781943 -0.4427836 0.04167442 0.3316226
-0.21778847 0.74934644 0.2513332 -0.7707242 0.26886767 -0.3949726 -0.53590107 -0.5962815
-0.11978255 0.2103056 0.1998089 0.5569345 0.8475348 0.087393664 0.20852387 -0.063856505
0.042017177 0.34739062 -0.0652002 0.11236912 -0.46432546 0.2831813 -0.26418835 -0.12568352
0.07079426 -0.08854493 0.35141248 -0.22074217 -0.41115963 0.6816387 0.2582825 0.6476995
-1.0557412 1.0162314 -0.5698237 -0.46730182 -0.3554604 0.33931375 0.052205462 0.23650405
0.19433042 -0.24881032 0.3013732 0.41775286 -0.28722727 0.16513985 -0.30578187 0.44455162
0.27431184 0.14499702 0.07806139 0.48600304 0.25620526 -0.12638746 0.14072399 0.7945656
-0.37234297 -0.011795771 0.20607528 -0.9291579 0.28550377 -0.054034866 0.078159034 -0.21416083
-0.70853585 -0.25322118 0.68078405 -0.40717152 0.5676911 0.8236114 0.19110285 0.3365398
-0.17857908 0.06908887 -0.30003765 -0.98137075 0.26245183 -0.021295696 0.7491012 0.88222325
-0.100826085 0.009487611 -0.91432655 -0.21496217 -0.47989738 0.6830789 0.058200873 0.137474
0.30907714 0.4173615 0.628487 -0.06421496 -0.08459816 -0.2975014 -0.3098127 -0.21290421
0.37102363 -0.18795525 -0.18351653 0.35189307 0.40900803 -0.296854 -0.06584229 0.22827831
-0.12591495 0.344053 0.28282416 -0.32656485 -0.60459703 -0.36120692 1.2647847 0.46282253
0.0049505415 -0.3192105 0.44340104 0.14160694 0.091488115 -0.22349454 0.054017786 0.38275167
-0.17134495 0.07182825 0.085230485 -1.1297435 -0.55728304 0.53300506 0.34335038 0.2102458
-0.58148605 -0.041127138 0.44330773 0.06914772 0.25983527 -0.9230511 -0.27421448 -0.211242
0.69333386 0.94948804 -0.051455345 -0.30936602 -0.021125514 -0.10656696 -0.29511234 -0.2454135
-0.012722869 0.5763287 -0.014192415 -0.18008879 0.36581874 0.079524554 1.1956664 0.83694017
0.37487283 0.72933143 0.085332945 -0.10362918 -0.14978549 -0.3360785 -0.1598785 -0.557376
0.61224806 -0.24504837 -0.07556903 -0.0048313285 -0.53366625 -0.7682859 -0.73458916 0.44078302
-0.37049344 -0.89395 -0.06563261 0.35976386 0.29245284 -0.83615047 -0.39798236 -0.106260404
0.3669713 -0.63349724 0.063301995 0.144051 0.033350594 -0.3010988 -0.2782564 -0.5923775
0.08792856 0.07148313 0.36248946 -0.29384607 -0.2477994 0.2261981 0.06599 0.30760518
0.42939362 -0.26401493 -0.6276464 0.020629844 0.057320934 -0.16964154 -0.5370439 0.0062332195
0.055025745 -0.316012 -0.0029106585 -0.48533377 0.11795519 -0.71792835 -0.6663002 -0.30258405
00000000: 55cd 1c3e 8095 64be aace 97be b45a cc3c
00000010: 4254 373e 3db0 00be a39d 543e 2090 b93e
00000020: 8cc8 76be 7d11 843e 8b86 463e a7f3 97be
00000030: 7bee 873e 373e ad3e a98c 5ebd e945 03bf
00000040: 5334 3f3d e10a 2dbe b769 afbe c102 1dbc
00000050: 01be 483d cbd3 54bd 4aa0 67bf f25b 953e
00000060: ac96 bc3e df4d 1b3d 5294 fc3d 6eda 643f
00000070: 0f7c 483d b40d 0f3e 000a 32bd 169e 24be
00000080: 5c21 f0be 85b0 b8be 0939 3d3c b3b8 75be
00000090: 9c3e debe aaa0 a8be c671 0e3e f696 aabe
000000a0: e1b3 9a3e a563 bf3e daac 4f3e 662f 28bd
000000b0: d1bd 92bb 88b4 e2be ccb2 2a3d 70ca a93e
000000c0: f103 5fbe 2bd5 3f3f bfae 803e 2e4e 45bf
000000d0: 06a9 893e d939 cabe d030 09bf e8a5 18bf
000000e0: 8e50 f5bd 5a5a 573e b49a 4c3e 4293 0e3f
000000f0: 0af8 583f 73fb b23d 4887 553e 33c7 82bd
00000100: 341a 2c3d 2fdd b13e af87 85bd c821 e63d
00000110: 11bc edbe 24fd 903e b243 87be 2eb3 00be
00000120: 95fc 903d 0b57 b5bd 56ec b33e 3c0a 62be
00000130: 8483 d2be e07f 2e3f 9b3d 843e a2cf 253f
00000140: 8722 87bf df13 823f f7df 11bf 2f42 efbe
00000150: e8fe b5be 88ba ad3e 65d5 553d 1e2e 723e
00000160: 8efe 463e 22c8 7ebe 974d 9a3e b4e3 d53e
00000170: 740f 93be 6c1a 293e 718f 9cbe 459c e33e
00000180: 9a72 8c3e 197a 143e a6de 9f3d 64d5 f83e
00000190: 562d 833e b76b 01be f319 103e a768 4b3f
000001a0: bda3 bebe 0d43 41bc 6605 533e 4bdd 6dbf
000001b0: 8d2d 923e aa53 5dbd d811 a03d fa4c 5bbe
000001c0: 9b62 35bf 35a6 81be dd47 2e3f c978 d0be
000001d0: 3454 113f 32d8 523f 77b0 433e f24e ac3e
000001e0: 6fdd 36be 777e 8d3d 899e 99be 1d3b 7bbf
000001f0: 1660 863e 5074 aebc 19c5 3f3f 62d9 613f
00000200: e87d cebd ed71 1b3c 4e11 6abf 0b1f 5cbe
00000210: 1cb5 f5be 42de 2e3f 0a64 6e3d fcc5 0c3e
00000220: 5c3f 9e3e 68b0 d53e 86e4 203f 2283 83bd
00000230: cd41 adbd 1a52 98be c59f 9ebe 9003 5abe
00000240: cff6 bd3e 5777 40be c2eb 3bbe 542b b43e
00000250: 8069 d13e 3ffd 97be 53d8 86bd cac1 693e
00000260: d9ef 00be b727 b03e 54ce 903e 8233 a7be
00000270: dfc6 1abf 1df0 b8be 77e4 a13f 13f7 ec3e
00000280: 2738 a23b 8f6f a3be 7605 e33e 6901 113e
00000290: 1f5e bb3d c1db 64be c141 5d3d 07f8 c33e
000002a0: 0d75 2fbe b11a 933d 528d ae3d 6f9b 90bf
000002b0: 1aaa 0ebf 0573 083f 9fcb af3e ad4a 573e
000002c0: 45dc 14bf ee74 28bd 3bf9 e23e 529d 8d3d
000002d0: 2109 853e 144d 6cbf d765 8cbe d34f 58be
000002e0: 547e 313f a611 733f d7c2 52bd 3965 9ebe
000002f0: 6a0f adbc c73f dabd f718 97be ad4d 7bbe
00000300: 9573 50bc 478a 133f 4e87 68bc 3269 38be
00000310: 984c bb3e c5dd a23d 990b 993f b641 563f
00000320: 55ef bf3e 77b5 3a3f 0ac3 ae3d 893b d4bd
00000330: 5e61 19be 7b12 acbe 31b7 23be 32b0 0ebf
00000340: 4abc 1c3f f6ed 7abe f0c3 9abd 1f50 9ebb
00000350: 5a9e 08bf 62ae 44bf 090e 3cbf 50ae e13e
00000360: 51b1 bdbe e8d9 64bf 646a 86bd f832 b83e
00000370: 61bc 953e f50d 56bf 58c4 cbbe 0e9f d9bd
00000380: aae3 bb3e e02c 22bf 7aa4 813d 1b82 133e
00000390: a29a 083d 9f29 9abe 9f77 8ebe 0da6 17bf
000003a0: e413 b43d bf65 923d 3898 b93e fe72 96be
000003b0: 20bf 7dbe 7aa0 673e c425 873d 6d7e 9d3e
000003c0: 7bd9 db3e f72c 87be 6fad 20bf ebff a83c
000003d0: 5bc9 6a3d 83b6 2dbe b67b 09bf 0940 cc3b
000003e0: ad62 613d 53cc a1be bfc0 3ebb ab7d f8be
000003f0: 7e92 f13d 27ca 37bf a692 2abf 4cec 9abe

fc2.weight f4 [256, 256]
-0.14404103 0.044543162 -0.034133647 -0.2320966 0.027963111 -0.06697479 0.027342232 -0.02947063
0.02486125 -0.03026108 0.0013832985 -0.07743077 -0.053906877 -0.16550739 0.052841183 -0.056113772
-0.0042125117 0.02535749 0.03740335 0.035587903 0.007014242 0.009896237 0.042049482 -0.028501384
-0.059524916 -0.033501826 -0.064833246 -0.04696015 -0.036548167 -0.014689903 -0.013585164 -0.05344909
-0.009334122 0.0007356371 -0.029117253 0.024681645 0.02815354 -0.0123397615 0.34314585 0.037375957
-0.05267079 0.089415245 0.023653287 0.026874783 0.020857574 0.13184196 0.058955014 -0.023999447
-0.04065447 0.001618062 -0.061928578 -0.024391126 -0.08581434 0.041044675 0.034220256 0.0061161416
0.014434857 0.0023821876 -0.08356235 0.024850946 -0.026841145 -0.07088174 -0.045348603 0.026871102
-0.03697393 -0.021313766 -0.07123386 0.02723037 -0.06446043 -0.11011928 0.020335604 -0.06635777
0.046184156 -0.051672205 0.036970988 0.0481139 0.0057770135 -0.10820022 -0.043383807 0.01933984
-0.008056869 -0.08465845 0.01698427 -0.1279693 -0.08061802 -0.035682198 -0.047963083 -0.02839123
-0.026340714 0.032305203 0.008694846 0.019295106 0.083379015 0.035139028 -0.012866836 0.026795909
-0.03402324 -0.011262131 -0.030267943 -0.034528393 -0.07013525 0.0005593464 -0.07427326 -0.17173505
0.046937324 0.038972333 -0.051100876 -0.07195636 -0.0129130855 0.020327443 0.05238199 0.010769753
0.0575051 0.0469039 0.16128498 -0.057576142 -0.06643584 -0.016688272 0.018787552 0.06304658
-0.031191422 -0.076134406 0.0054317103 -0.039542723 -0.31123388 -0.0172821 -0.32751957 0.025817148
0.026648363 0.062004734 0.03192735 0.1955804 -0.03210502 -0.10927922 0.050562296 -0.00567475
0.05265046 0.034341566 -0.041999828 0.001493286 0.008030236 -0.01814744 0.025940139 0.058773942
-0.015336099 -0.179881 -0.0035721394 -0.010123092 -0.08493796 0.046290446 -0.10072916 0.01791898
-0.05197672 0.10504188 0.03054879 0.036225677 -0.060155034 0.050930984 0.18976255 -0.022352686
0.045929175 -0.0009276569 0.054012805 -0.029215751 -0.057418954 -0.04232626 -0.036425326 0.040890846
-0.048288226 0.033291522 -0.012343327 0.017489564 -0.06899249 0.054633763 -0.04392977 0.01175641
-0.023119813 -0.031581197 -0.03841103 0.051185604 -0.026929103 0.042181086 -0.05814041 -0.062995866
-0.09533044 -0.0010396605 0.03137443 -0.030977277 0.012806145 -0.048990436 0.041048855 -0.055361494
-0.042056292 -0.0475166 -0.07160029 -0.04363057 0.050434027 -0.019226687 -0.046497528 0.01804601
0.080380954 0.011540464 -0.03953007 -0.03738377 -0.027355209 -0.0017851033 -0.04780662 0.0071371277
-0.14861852 0.031200038 0.03352825 0.06022521 0.008224958 -0.19113922 -0.023905348 0.034486692
-0.033596035 0.026800228 -0.40905628 0.03037053 -0.029521221 0.02288624 0.015671965 -0.036833573
-0.06525745 0.021830073 -0.11900132 -0.20954487 0.017217482 -0.03947886 -0.029545281 0.015599955
-0.025599204 -0.010111673 0.29109782 -0.09965006 0.02833324 0.049912788 -0.03408986 -0.056431737
0.07164021 -0.16159523 0.043263424 -0.056921586 0.016901452 -0.12150976 0.037416827 0.002282669
0.03773221 0.0024758338 0.0073025427 -0.018527834 -0.025331527 -0.0013811815 -0.03204769 0.027296068
00000000: 7e7f 13be e472 363d b9cf 0bbd bbaa 6dbe
00000010: e512 e53c 142a 89bd d1fc df3c 646c f1bc
00000020: d2a9 cb3c 16e6 f7bc cc4f b53a 0694 9ebd
00000030: 75cd 5cbd c57a 29be ff6f 583d 8ed7 65bd
00000040: 1c09 8abb 83ba cf3c 4134 193d 9fc4 113d
00000050: bad7 e53b d423 223c 143c 2c3d bc7b e9bc
00000060: 66d0 73bd 3639 09bd 4bc7 84bd 4959 40bd
00000070: 88b3 15bd ebad 70bc 4f94 5ebc 6fed 5abd
00000080: 25ee 18bc c5d7 403a 4e87 eebc 2931 ca3c
00000090: 41a2 e63c b62c 4abc d0b0 af3e 8817 193d
000000a0: 54bd 57bd 571f b73d 8ac4 c13c 8128 dc3c
000000b0: 81dd aa3c 9401 073e d07a 713d 7d9a c4bc
000000c0: 4d85 26bd 2715 d43a d2a8 7dbd e6cf c7bc
000000d0: 6ebf afbd 761e 283d 8a2a 0c3d ea69 c83b
000000e0: 2e80 6c3c 7a1e 1c3b bd22 abbd 3694 cb3c
000000f0: f6e1 dbbc 722a 91bd 75bf 39bd c920 dc3c
00000100: fa71 17bd 359a aebc 0fe3 91bd 3a12 df3c
00000110: d403 84bd 3886 e1bd da96 a63c 95e6 87bd
00000120: 992b 3d3d 3ca6 53bd e46e 173d 1513 453d
00000130: 1a4d bd3b 1498 ddbd 38b3 31bd 966e 9e3c
00000140: f500 04bc 6961 adbd 9922 8b3c 620a 03be
00000150: 0f1b a5bd 7f27 12bd f074 44bd ba94 e8bc
00000160: 7bc8 d7bc 7652 043d d474 0e3c c510 9e3c
00000170: 9ec2 aa3d f1ed 0f3d 6ccf 52bc 1883 db3c
00000180: f45b 0bbd cd84 38bc 7af4 f7bc a56d 0dbd
00000190: 12a3 8fbd 1aa1 123a 941c 98bd 50db 2fbe
000001a0: 5a41 403d 74a1 1f3d 274f 51bd db5d 93bd
000001b0: 6891 53bc bd85 a63c 7f8e 563d 9e73 303c
000001c0: 788a 6b3d 4e1e 403d e427 253e f6d4 6bbd
000001d0: 840f 88bd d8b5 88bc 5ae8 993c 911e 813d
000001e0: 2785 ffbc 5bec 9bbd 7dfc b13b 8df7 21bd
000001f0: 0c5a 9fbe 3193 8dbc a5b0 a7be 7c7e d33c
00000200: ab4d da3c adf8 7d3d 41c6 023d 3a46 483e
00000210: 8e80 03bd c9cd dfbd 691a 4f3d 41f3 b9bb
00000220: 02a8 573d bea9 0c3d 0308 2cbd 5dba c33a
00000230: 4091 033c f1a9 94bc 6a80 d43c f2bc 703d
00000240: 4344 7bbc ba32 38be 8e1a 6abb 53db 25bc
00000250: f4f3 adbd 0d9b 3d3d 174b cebd d3ca 923c
00000260: 8be5 54bd 3220 d73d 7541 fa3c 6061 143d
00000270: 2065 76bd 029d 503d 1d51 423e fb1c b7bc
00000280: 3b20 3c3d 002e 73ba 883c 5d3d df55 efbc
00000290: 2330 6bbd 4d5e 2dbd b932 15bd 297d 273d
000002a0: e0c9 45bd b15c 083d aa3b 4abc 4646 8f3c
000002b0: ef4b 8dbd a7c7 5f3d b4ef 33bd f59d 403c
000002c0: c365 bdbc 495b 01bd e254 1dbd ffa7 513d
000002d0: 6c9a dcbc 13c6 2c3d a324 6ebd fa03 81bd
000002e0: 9b3c c3bd 3845 88ba 7982 003d 0fc4 fdbc
000002f0: ddd0 513c 32aa 48bd d822 283d bcc2 62bd
00000300: 3843 2cbd c4a0 42bd 2ca3 92bd f8b5 32bd
00000310: e993 4e3d 4981 9dbc 3174 3ebd 3ad5 933c
00000320: c59e a43d 3714 3d3c 48ea 21bd b91f 19bd
00000330: 0818 e0bc 21fa e9ba e0d0 43bd 91de e93b
00000340: 742f 18be 3997 ff3c eb54 093d b6ae 763d
00000350: f9c1 063c 00ba 43be 26d5 c3bc eb41 0d3d
00000360: ff9b 09bd 278c db3c d36f d1be 9ecb f83c
00000370: 7dd6 f1bc ed7b bb3c 7e62 803c cdde 16bd
00000380: b3a5 85bd fbd4 b23c f7b6 f3bd ee92 56be
00000390: ad0b 8d3c 96b4 21bd f208 f2bc f496 7f3c
000003a0: 6cb5 d1bc 6eab 25bc c60a 953e 5515 ccbd
000003b0: 1c1b e83c 5a71 4c3d cfa1 0bbd f724 67bd
000003c0: 1ab8 923d 3879 25be fd34 313d 9c26 69bd
000003d0: ea74 8a3c 1cda f8bd 6342 193d d598 153b
000003e0: 178d 1a3d 9941 223b 2b4a ef3b afc7 97bc
000003f0: 1084 cfbc c308 b5ba 7044 03bd 019c df3c

fc2.bias f4 [256]
-0.06627643 -0.06356713 -0.0059102955 -0.0866809 -0.038576715 0.03115598 0.0548504 -0.20728458
-0.106658764 -0.1676306 0.0549455 0.098825105 0.1736418 0.21370816 0.11270474 -0.103883654
0.105282426 0.41071102 -0.26496875 -0.0071804794 0.08709276 0.10245621 0.025909368 0.01133056
0.14254111 0.25494128 0.08525374 0.030358875 0.09634382 -0.013869662 0.2395866 -0.00792023
0.06233115 0.38063776 -0.17741077 0.14736657 -0.0029708282 0.02796394 0.024925351 -0.053060092
0.26262656 0.2997242 0.19709188 0.24756269 -0.10355425 0.07240754 -0.061207917 -0.034185387
-0.18044254 -0.00039603145 -0.003325794 0.33138326 -0.1353857 0.11080304 -0.024618624 0.36437052
-0.036255218 -0.010456159 -0.13612743 0.047337092 -0.11400843 0.123079084 -0.080852084 0.14011042
-0.035776675 -0.29324168 -0.11979763 -0.009970886 0.007679934 -0.010402294 0.03916914 0.096049525
0.058515854 -0.014758986 0.36754942 0.05763038 -0.04050631 -0.035204507 0.015055278 -0.06154328
0.26725554 0.08888182 0.11714939 -0.043814044 -0.010422491 0.0055040675 -0.053890176 -0.08039174
-0.13882366 -0.13603465 -0.059083812 -0.061210006 0.17431717 0.043146838 -0.41748768 -0.02702273
-0.08814268 -0.046610013 -0.016792873 0.011566558 -0.013955774 0.005761276 -0.064154744 -0.073836066
0.04926411 0.22271363 0.1271071 -0.05434536 -0.041373476 0.011714952 -0.07625898 0.066029124
-0.19482723 -0.14244127 -0.057569735 0.12626088 -0.046170518 -0.0048218276 0.024039123 -0.07587514
0.12198458 -0.024162302 0.106675066 -0.20573035 0.0296126 0.14963788 0.04415297 -0.24620599
0.038573857 0.006283806 0.08721665 0.22595377 0.028845984 0.016977288 -0.022575993 0.45576814
0.1737891 -0.07515489 -0.17502022 -0.17506479 -0.039963577 -0.002940552 -0.021959584 -0.18176635
0.09047864 0.15413545 -0.08408426 0.028458508 0.03651237 -0.056732062 0.076809235 0.0004979548
0.04408002 0.017043065 0.023845186 0.01717849 -0.062349018 0.17014927 0.027860345 0.013900755
-0.020648569 -0.090501815 -0.1623311 -0.17062305 0.017649181 -0.053833045 -0.034926068 0.046448316
-0.13303953 0.16283865 0.04381694 -0.1156537 -0.016186915 0.0268535 -0.14554797 -0.13387273
0.020834219 0.075017884 0.16597277 0.18446034 0.13455455 -0.08203764 0.17290397 -0.040650308
0.21450272 0.04679153 0.024298033 0.15628716 0.093739845 0.022810293 0.12137301 0.5304421
0.42325795 0.14092286 -0.13679062 0.3056456 0.17929716 0.048320625 0.13272263 0.030827684
-0.003474241 -0.20078929 0.0124216 -0.027655184 -0.27996218 0.06790526 -0.08458889 0.024057653
0.06809113 0.07258844 -0.088676706 -0.112114325 -0.016772315 0.43921554 0.07152543 -0.0006165466
0.020489682 0.051550962 0.095580705 0.07905863 -0.21263938 -0.1749966 0.07698313 0.04501168
0.017125066 -0.08637021 0.112439446 0.18461019 -0.012597594 -0.19635743 0.03015844 0.02081498
0.13331404 0.114750996 -0.198007 0.08074194 0.121491425 0.13695917 -0.09383948 -0.06250481
-0.19780807 0.4518456 0.00032082363 0.08147479 -0.06641907 -0.0066297078 -0.15018103 -0.038366944
-0.14217253 -0.055209223 -0.09089953 0.5838875 -0.051110275 -0.02309043 -0.017747933 0.18557969
00000000: f0bb 87bd 7c2f 82bd 27ab c1bb c185 b1bd
00000010: 9e02 1ebd d33a ff3c d0aa 603d 6942 54be
00000020: e96f dabd 5ba7 2bbe 880e 613d d164 ca3d
00000030: 28cf 313e 50d6 5a3e bed1 e63d f4c0 d4bd
00000040: 509e d73d b748 d23e fca9 87be 3a4a ebbb
00000050: b05d b23d 90d4 d13d e23f d43c d0a3 393c
00000060: 4cf6 113e aa87 823e 8399 ae3d 2db3 f83c
00000070: e94f c53d 943d 63bc 3156 753e dac3 01bc
00000080: f34e 7f3d f4e2 c23e 2bab 35be 43e7 163e
00000090: 3ab2 42bb a214 e53c 4030 cc3c 8a55 59bd
000000a0: fd76 863e 7375 993e 74d2 493e 1381 7d3e
000000b0: 4014 d4bd 684a 943d 27b5 7abd fa05 0cbd
000000c0: eec5 38be 71a2 cfb9 90f5 59bb 11ab a93e
000000d0: 8da2 0abe b4ec e23d ffac c9bc c68e ba3e
000000e0: 5a80 14bd 4f50 2bbc fd64 0bbe 8ae4 413d
000000f0: 407d e9bd e310 fc3d c795 a5bd 1b79 0f3e
00000100: 908a 12bd c623 96be 7658 f5bd ed5c 23bc
00000110: f5a7 fb3b 626e 2abc d26f 203d 9db5 c43d
00000120: 52ae 6f3d adcf 71bc 702f bc3e d50d 6c3d
00000130: f2e9 25bd 9a32 10bd 6aaa 763c ce14 7cbd
00000140: b8d5 883e ac07 b63d 05ec ef3d 5b76 33bd
00000150: 18c3 2abc 775b b43b f2bb 5cbd 6da4 a4bd
00000160: ca27 0ebe ab4c 0bbe de01 72bd 58b7 7abd
00000170: 3380 323e bdba 303d f2c0 d5be c65e ddbc
00000180: 2684 b4bd 24ea 3ebd 3591 89bc a981 3d3c
00000190: c2a6 64bc 16c9 bc3b 9063 83bd 5d37 97bd
000001a0: 2ac9 493d 0b0f 643e 5d28 023e 3d99 5ebd
000001b0: 3c77 29bd 12f0 3f3c ab2d 9cbd 473a 873d
000001c0: ca80 47be 20dc 11be 3ece 6bbd 884a 013e
000001d0: 4c1d 3dbd 6c00 9ebb b2ed c43c 6d64 9bbd
000001e0: 0dd3 f93d 05f0 c5bc 7578 da3d faaa 52be
000001f0: 2096 f23c ac3a 193e bfd9 343d 6c1d 7cbe
00000200: 9fff 1d3d 63e8 cd3b a59e b23d 6d60 673e
00000210: 6a4e ec3c f413 8b3c 4af1 b8bc 715a e93e
00000220: c5f5 313e cfea 99bd 8038 33be 2f44 33be
00000230: d9b0 23bd 47b6 40bb 96e4 b3bc f520 3abe
00000240: dd4c b93d afd5 1d3e 5e34 acbd d121 e93c
00000250: ff8d 153d e15f 68bd 294e 9d3d 2e89 023a
00000260: 408d 343d e69d 8b3c fb56 c33c e8b9 8c3c
00000270: af61 7fbd 9c3b 2e3e 613b e43c febf 633c
00000280: 3027 a9bc 0459 b9bd 203a 26be cfb7 2ebe
00000290: 0495 903c 0a80 5cbd a30e 0fbd 9740 3e3d
000002a0: 843b 08be 2dbf 263e 6479 333d d9db ecbd
000002b0: 6c9a 84bc dffb db3c 870a 15be ef15 09be
000002c0: 86ac aa3c faa2 993d c4f4 293e 2ce3 3c3e
000002d0: abc8 093e 5a03 a8bd bd0d 313e f080 26bd
000002e0: 9aa6 5b3e 7aa8 3f3d ab0c c73c be09 203e
000002f0: adfa bf3d a7dc ba3c 6a92 f83d 0ecb 073f
00000300: 44b5 d83e 154e 103e d712 0cbe 957d 9c3e
00000310: ad99 373e d9eb 453d 71e8 073e 578a fc3c
00000320: 17b0 63bb b59b 4dbe f783 4b3c 208d e2bc
00000330: 3457 8fbe ea11 8b3d f13c adbd 8e14 c53c
00000340: 5d73 8b3d 3fa9 943d 229c b5bd 329c e5bd
00000350: 1866 89bc dce0 e03e ed7b 923d be9f 21ba
00000360: fad9 a73c 1a27 533d d1bf c33d 7ee9 a13d
00000370: 23be 59be 4f32 33be 55a9 9d3d 2b5e 383d
00000380: de49 8c3c dde2 b0bd a746 e63d 740a 3d3e
00000390: 2466 4ebc ec11 49be d50e f73c 2d84 aa3c
000003a0: 7a83 083e 9202 eb3d 59c2 4abe 085c a53d
000003b0: 7fd0 f83d 063f 0c3e ea2e c0bd 8602 80bd
000003c0: 338e 4abe 4e58 e73e 3834 a839 41dc a63d
000003d0: b906 88bd 053e d9bb 0ec9 19be a826 1dbd
000003e0: ad95 11be 1123 62bd 8829 babd a779 153f
000003f0: 0259 51bd 2428 bdbc 1d64 91bc 9a08 3e3e

fc3.weight f4 [1, 256]
0.002070808 -0.053466097 0.024197755 0.01468097 0.01911 0.0020661578 -0.037275013 0.1360662
-0.010026092 0.2242552 0.285396 -0.036013592 -0.023274112 -0.10419447 -0.030913783 -0.09596016
-0.1891636 0.13136204 0.13616379 0.060739838 -0.026370317 0.32593673 0.035956495 0.012933445
-0.0316884 0.35235047 -0.08633796 -0.35971022 -0.23745498 -0.04705202 -0.03623885 -0.1510512
0.21438588 0.13866611 0.1909384 -0.03730596 0.0006482737 -0.099500045 -0.013054719 0.037930585
0.11014962 -0.12621169 0.07141765 -0.4637172 -0.0813207 0.056813467 0.21456718 0.052955147
-0.8041653 0.30510125 0.023418797 -0.43900904 0.029545078 0.23177235 -0.060829576 -0.27696934
0.03180808 0.057674743 -0.1612798 -0.05094712 0.019413311 -0.20014054 -0.13407828 -0.028107665
-0.025726942 0.32930136 0.13441864 0.01949642 -0.04020148 0.07573431 -0.017508795 0.24192086
-0.04994985 0.07470468 -0.07003553 -0.053628895 0.0060925484 0.07257326 -0.036153644 -0.021820838
0.28705874 -0.10242705 0.03625549 -0.09815551 -0.2270659 -0.015431358 0.03592608 0.071281865
-0.3241645 0.1452381 0.10678379 0.285062 -0.11081878 -0.049948595 0.15950695 0.03445896
-0.12006849 0.042022273 0.005859999 0.004027498 -0.026254363 0.049674347 0.086609446 0.07286461
-0.059757784 -0.14986552 0.09433881 -0.001960312 -0.026249057 0.05345068 -0.019826649 0.037353445
-0.11481427 -0.16135775 -0.0683746 -0.017476756 0.004848406 0.03885214 0.056967065 -0.06655443
-0.011079579 0.029842839 -0.011199148 0.1123167 -0.14220946 0.24573357 -0.012151711 0.06813426
0.10969072 0.0432299 -0.12333727 -0.2658484 0.006840575 0.11496024 0.05569239 -0.7406912
-0.035204757 0.015080455 -0.27493322 0.17283046 0.035650354 0.0005760079 -0.037951104 0.26130536
0.1545211 -0.030054245 0.026339695 0.0142879225 -0.061620127 0.14781804 0.015972413 -0.09655952
-0.028604398 -0.4225791 0.2758335 0.09493168 0.047058597 -0.1395568 0.027391901 0.026715066
0.009536594 -0.030734187 0.24606179 -0.11342249 0.002033622 -0.0041075204 -0.081165895 0.03331226
0.053450692 -0.05036439 -0.04418111 0.10536009 -0.004861668 0.012795393 0.215367 -0.10600174
-0.6526169 -0.17472331 -0.66024107 0.17762241 -0.046607524 0.014181927 0.2483627 0.034032818
-0.15292063 -0.06097802 0.06824806 0.2458659 0.09467605 -0.1646416 -0.065541305 0.09940616
0.16291715 0.08803994 0.05202953 -0.1404784 -0.13082407 -0.035285898 -0.040411074 -0.02385917
-0.025775163 0.100533694 0.26006147 0.029721154 0.07168605 0.07801924 0.33577254 0.061250445
0.0013815266 -0.08673651 -0.29623735 0.046113394 0.018880794 0.13255787 -0.13183366 -0.0068269907
0.04969802 0.050396338 -0.0068121213 0.025842445 -0.48920953 0.014471118 -0.08083206 -0.08421086
-0.0011443172 0.05715946 -0.034618862 0.06235311 -0.03819304 -0.1316112 -0.027223837 0.048799418
0.19010293 0.008825643 -0.060922127 -0.04965243 -0.37470984 -0.11914843 0.018749699 0.021261904
0.07892153 0.65800047 0.020874215 -0.13394575 0.16304749 0.15182461 0.0454092 -0.054004688
0.05455486 -0.02431199 0.2060246 -0.3957597 0.0022219736 -0.043886118 0.038067743 1.2393657
00000000: 65b6 073b 44ff 5abd 5f3a c63c 7488 703c
00000010: 938c 9c3c 6068 073b afad 18bd f054 0b3e
00000020: 7a44 24bc 28a3 653e 6d1f 923e fd82 13bd
00000030: 5aa9 bebc e963 d5bd e73e fdbc c386 c4bd
00000040: 1ab4 41be c583 063e 856e 0b3e 56ca 783d
00000050: 9006 d8bc 2ee1 a63e 1e47 133d cde6 533c
00000060: b2cb 01bd 4867 b43e f5d1 b0bd f02b b8be
00000070: 6627 73be 9eb9 40bd 306f 14bd 2aad 1abe
00000080: f987 5b3e 7dfe 0d3e 5b85 433e 22ce 18bd
00000090: e9f0 293a aec6 cbbd 76e3 55bc 1a5d 1b3d
000000a0: 2096 e13d a33d 01be 6b43 923d 576c edbe
000000b0: 788b a6bd 3db5 683d 80b7 5b3e 7fe7 583d
000000c0: c7dd 4dbf 3b36 9c3e c7d8 bf3c cbc5 e0be
000000d0: 8508 f23c bb55 6d3e 6f28 79bd edce 8dbe
000000e0: 3049 023d 5a3c 6c3d 8826 25be edad 50bd
000000f0: aa08 9f3c a4f1 4cbe d14b 09be 0c42 e6bc
00000100: 4fc1 d2bc 309a a83e 0aa5 093e f5b6 9f3c
00000110: 4faa 24bd 971a 9b3d 9b6e 8fbc 1aba 773e
00000120: 3798 4cbd c4fe 983d ca6e 8fbd f9a9 5bbd
00000130: 00a4 c73b 4aa1 943d d815 14bd 9dc1 b2bc
00000140: 5df9 923e 46c5 d1bd a380 143d c205 c9bd
00000150: f783 68be ced3 7cbc 3a27 133d 3afc 913d
00000160: e4f8 a5be 4cb9 143e 76b1 da3d a5f3 913e
00000170: f5f4 e2bd e696 4cbd ca55 233e d724 0d3d
00000180: 78e6 f5bd 8c1f 2c3d 3c05 c03b 1af9 833b
00000190: 6413 d7bc 5477 4b3d 4b60 b13d 0a3a 953d
000001a0: 94c4 74bd 5976 19be b534 c13d 9478 00bb
000001b0: 4308 d7bc 1aef 5a3d 7f6b a2bc edff 183d
000001c0: be23 ebbd f73a 25be fb07 8cbd 6a2b 8fbc
000001d0: 61df 9e3b 6c23 1f3d 4c56 693d b04d 88bd
000001e0: 1f87 35bc f878 f43c a27c 37bc 4c06 e63d
000001f0: 5b9f 11be 95a1 7b3e f817 47bc fa89 8b3d
00000200: 87a5 e03d d611 313d 4098 fcbd 481d 88be
00000210: e726 e03b 4670 eb3d b41d 643d f09d 3dbf
00000220: dd32 10bd 0314 773c 0cc4 8cbe 78fa 303e
00000230: 1b06 123d 3cff 163a 9e72 1bbd d1c9 853e
00000240: c73a 1e3e 5234 f6bc 58c6 d73c e417 6a3c
00000250: 6365 7cbd 9d5d 173e 94d8 823c ffc0 c5bd
00000260: c553 eabc 4a5c d8be 0c3a 8d3e 8a6b c23d
00000270: 84c0 403d fae7 0ebe fb64 e03c 8ed9 da3c
00000280: 603f 1c3c 43c6 fbbc 9ff7 7b3e 0d4a e8bd
00000290: 8446 053b 6198 86bb 4e3a a6bd 7072 083d
000002a0: 1def 5a3d e44a 4ebd 40f7 34bd 08c7 d73d
000002b0: a14e 9fbb c5a3 513c 2b89 5c3e 7117 d9bd
000002c0: e711 27bf abea 32be 8f05 29bf a6e2 353e
000002d0: 88e7 3ebd 505b 683c cb52 7e3e ff65 0b3d
000002e0: 3a97 1cbe 17c4 79bd a4c5 8b3d 45c4 7b3e
000002f0: 84e5 c13d cf97 28be 853a 86bd 7595 cb3d
00000300: c1d3 263e 494e b43d eb1c 553d 92d9 0fbe
00000310: bff6 05be f287 10bd 1586 25bd 4e74 c3bc
00000320: 6f26 d3bc 9ce4 cd3d c726 853e c779 f33c
00000330: 23d0 923d 8dc8 9f3d 61ea ab3e bfe1 7a3d
00000340: 5714 b53a e9a2 b1bd 6cac 97be 66e1 3c3d
00000350: e5ab 9a3c 40bd 073e 67ff 06be f3b4 dfbb
00000360: 2790 4b3d 646c 4e3d 3738 dfbb 89b3 d33c
00000370: ac79 fabe 4518 6d3c 478b a5bd be76 acbd
00000380: eafc 95ba 0a20 6a3d 82cc 0dbd fa65 7f3d
00000390: 4e70 1cbd 16c5 06be 8604 dfbc e6e1 473d
000003a0: 58aa 423e 6e99 103c 7b89 79bd 5960 4bbd
000003b0: f8d9 bfbe 1804 f4bd f898 993c 722d ae3c
000003c0: 9ca1 a13d b872 283f 6700 ab3c 1329 09be
000003d0: ecf5 263e e977 1b3e fffe 393d 0534 5dbd
000003e0: eb74 5f3d f029 c7bc 1df8 523e 04a1 cabe
000003f0: 889e 113b eec1 33bd ecec 1b3d 89a3 9e3f
