TD3/models/actor_eps100_veh100_11e-2_8e-2_0.1_-2_11e-2.pth (torch, 275287 bytes, 5 tensors)

fc1.weight f4 [256, 8]
00000000: 6388 62bc c93f a0be 3f41 5a3d 0d49 41bf
00000010: f259 923d c664 42bc 6bf9 a33f c532 853e
00000020: 1b6c a5be 6b92 003f 5fc4 9e3e bd99 ed3d
00000030: a790 c63d d77f 35bd 289d 7fbc 6fb0 c1bc
00000040: ea2c 673e 4f28 443d 7f76 c03e 2091 aa3e
00000050: 9a38 c4bd 0312 273d 9c50 8f3f 78ad 8bbe
00000060: ff3d 8b3d 761d 883e 5c3d 83bf 206e d33e
00000070: b6e2 85bc 8d58 78bd 65c0 8cbf 44e4 e83e
00000080: 3aff 9d3d 75c3 1fbf db15 d33e 6985 a7be
00000090: 3004 ad3d f8f8 b0bb f24e 683f 33cc cdbc
000000a0: e4d8 c5be 66ae 153f 5c95 c6be 5f77 7c3e
000000b0: d4f4 0d3e b0c6 50be 8c2d 973f 3283 f53e
000000c0: b101 aa3e 56b6 9f3c 01fd 40be a19a b23e
000000d0: 87bf 1d3e 36d8 29be e958 0540 9e7b a7be
000000e0: e0f2 703e 700c 7d3e c9e3 a03e 83e9 b0be
000000f0: dca6 fbbd 3868 323e bf72 d03e ff98 753d
00000100: 309a 3c3d 29c6 fa3d d417 8dbe 1912 d2be
00000110: c0d1 f93c d698 803d 59b6 b9bf e89d 8abd
00000120: 2184 10be 3c4c 423e 8fed 94be 5e5f 68bd
00000130: 69ff 883b 6c50 01bd 978d 94bd 2a15 bebd
00000140: ecab 03bf b708 0abf 094c 713f 3a75 c5be
00000150: 65a0 e33b 85f2 433c 7282 8b3f c148 383d
00000160: dbd3 e7be 1ba4 24bc f9bb cebf 9360 023f
00000170: a499 593c 9459 bdbb 65cb 64bf b439 99bc
00000180: c624 1bbe 9dd1 24be bba0 0f3f 8058 6f3e
00000190: 944e a83c 78ec 2dbd a15f d63f fffd b63e
000001a0: 29ec dabe 95a5 88be b8d6 1b3f 5f30 48bf
000001b0: f273 2a3d 72be a43c a939 bebf 8d7b 063e
000001c0: 643b 713c 0017 aabd fd88 183f 2146 983d
000001d0: 0746 0fbd ea36 4e3d e076 60be ed73 12bf
000001e0: bf0e b8be 14bf 8c3e dabe 0cbe b580 49bd
000001f0: 3f1c 1f3e c9e4 063e a18c 50bf 71fb e8be
00000200: e79b 0a3e eae6 94bd 2ed4 51be 07ac 073e
00000210: f9bb 873e fbf6 8dbe 6883 c73f c6bd 363d
00000220: 3f26 1c3e 4afb b5bd 05f0 03bf 897b 74be
00000230: bcdc d7bd ec88 b5bc a057 afbf 9fbf b03e
00000240: e462 01bf 2889 983d b523 17bf e9f3 b3be
00000250: 7b35 363d 3e1e 203d 5905 c9bf 5d86 03be
00000260: bed5 df3d 0421 ac3e 8f5c 56be 1017 16be
00000270: 48b6 013e 19a0 9dbc a200 473f a092 043e
00000280: 9b6a 07be 520b 9a3e 4442 91bd 2eeb 4ebe
00000290: 1192 e4bc 5f0b dd3d 3833 e73c bd62 513e
000002a0: 9787 ecbe e162 7e3e e88d 833d 055f db3d
000002b0: 92e5 3b3d 4096 6ebe 963c 4c3e 4d16 273c
000002c0: 29cf b73e 9242 a3bd a6f5 efbe 12a8 ddbe
000002d0: a4d7 a83c 1f72 293e 3c34 9abe 7ffd fb3d
000002e0: b68b ce3d b772 2fbe b11f e53e 29d8 ee3e
000002f0: f2aa f23b 82ca 99bc f86f 6f3f d1a4 bdbd
00000300: c614 383e 3a2c d2be 3eaf 193f b825 9abe
00000310: 81b0 dbbd 5e0b aa3d 2790 06c0 ef7a 0fbf
00000320: 912b 223e e292 cfbe 861e 563e 2c58 96be
00000330: 1519 763c 783f 4b3e 8050 5f3f 4635 c1be
00000340: cb5a f9bd 5b29 a13e 1e7e b03d 7511 173e
00000350: 5967 313d 3730 06bd 6f3a d53f 0198 523e
00000360: 5309 ddbd 08bd b33c 66be c73e fe34 acbe
00000370: 6e33 b4bd 0dae e03d 3f27 f3be f81c 9fbd
00000380: 80f7 67be 2399 96be 596b 033d 9166 4bbd
00000390: 9ee1 0ebc 52b6 2e3e 6277 a5bf 8274 acbc
000003a0: 5f3c 9d3e afc3 ca3e 063b 04bf a2be 973e
000003b0: d854 353e 32a4 60be da84 55be b7b7 b9bb
000003c0: 0f97 3f3e bc1a 8f3e 870d f63d b477 89be
000003d0: 9444 c23d 8bce 86bc 5037 9ebf a69a cd3d
000003e0: 1474 4bbd 38b3 3dbe 0d00 193c fea7 98be
000003f0: 4e0c d3bc 3d7f b23c ae2d dabf d5cd a23e
-0.013826462 -0.31298664 0.05328488 -0.7550209 0.07146062 -0.011864847 1.2810491 0.26015297
-0.3230904 0.50223416 0.31009194 0.11601589 0.09695559 -0.04431137 -0.015601434 -0.0236437
0.22575727 0.047890004 0.37590405 0.33313847 -0.095811084 0.04078866 1.1196475 -0.27280784
0.06798934 0.26584977 -1.02531 0.41294956 -0.016343456 -0.060631324 -1.0996214 0.45486653
0.07714696 -0.6240762 0.41227612 -0.3271897 0.08448064 -0.005400773 0.9074546 -0.025121784
-0.38642037 0.58469236 -0.38785827 0.24654911 0.13862926 -0.20388293 1.1810775 0.47951657
0.33204415 0.019496124 -0.18846513 0.34883597 0.15405093 -0.16586384 2.0835516 -0.327115
0.2353015 0.24711776 0.31423786 -0.34553155 -0.12287685 0.17422569 0.40712544 0.05996036
0.046045482 0.12244827 -0.27557242 -0.41029432 0.030495524 0.06279151 -1.4508773 -0.067683995
-0.14112903 0.18974394 -0.29087493 -0.056731574 0.004180838 -0.031570837 -0.072535686 -0.092813805
-0.51434207 -0.5391955 0.94256645 -0.38566 0.0069466108 0.011959677 1.0899184 0.04499126
-0.4527882 -0.010048891 -1.6151115 0.5092861 0.01328126 -0.005778501 -0.89372855 -0.018704273
-0.15150747 -0.16095586 0.5610463 0.23373604 0.020545281 -0.042461842 1.6747934 0.3574066
-0.427583 -0.2668883 0.6087451 -0.7819881 0.04161448 0.020110343 -1.4861346 0.13133068
0.0147236325 -0.08305168 0.5958403 0.07435251 -0.034978893 0.05034534 -0.21920347 -0.5720814
-0.3594875 0.2748953 -0.13744679 -0.04919501 0.15538119 0.13173212 -0.8146458 -0.45504335
0.13536035 -0.07270606 -0.20491096 0.13249217 0.265106 -0.27727494 1.5586977 0.044614576
0.15248965 -0.0888582 -0.51538116 -0.2387525 -0.105401486 -0.022160016 -1.3698616 0.34521195
-0.5054152 0.074480355 -0.5903886 -0.35147026 0.044484597 0.03909134 -1.5704757 -0.12844224
0.1092944 0.3361894 -0.20933746 -0.14657235 0.12667191 -0.01924138 0.7773534 0.12946558
-0.1322426 0.30086762 -0.07092717 -0.20206901 -0.027901681 0.107931845 0.028222665 0.20447822
-0.46197197 0.24842407 0.06423551 0.10711483 0.045873232 -0.23299503 0.19944987 0.010198188
0.35900238 -0.07971682 -0.46867102 -0.4329229 0.020610638 0.1654744 -0.30117977 0.1230421
0.100852415 -0.17133604 0.4475074 0.46649292 0.007405632 -0.018773321 0.93530226 -0.09259952
0.17976674 -0.41049367 0.60033023 -0.30106902 -0.10727025 0.08302949 -2.1025484 -0.56046957
0.15836932 -0.4054175 0.20910081 -0.29364145 0.015020628 0.1984843 0.8723221 -0.37735957
-0.121755205 0.31476864 0.08617805 0.14752753 0.04331145 -0.032760825 1.6658458 0.20565797
-0.10792794 0.021940723 0.3901245 -0.3363418 -0.08798872 0.109706976 -0.4749088 -0.07769197
-0.22653008 -0.2941371 0.032084797 -0.04965836 -0.0087207835 0.17061737 -1.2927058 -0.021051649
0.30710122 0.3960242 -0.5165256 0.2963763 0.17708147 -0.21937636 -0.2085146 -0.0056676525
0.18709968 0.27950084 0.12014299 -0.2684914 0.094857365 -0.01645591 -1.236063 0.100392625
-0.049671248 -0.18525398 0.009338391 -0.29815668 -0.025762703 0.021789188 -1.704519 0.31797662

fc1.bias f4 [256]
00000000: a193 41be 5289 78bc 102a ce3e 93b2 02bf
00000010: d4aa 023f dea8 8c3b d09e 053d 0128 d73e
00000020: a774 42be b780 ba3d 2724 343f c2ee 19be
00000030: cff5 d43e c4c9 4e3f 6441 c33e 2eb5 26bf
00000040: 640c 213e a4bc 9e3c 2d5a 2abf c9ac debe
00000050: 9574 273c 2a90 95bd 67d5 18bf af93 dd3e
00000060: cd9b 583e 9a59 37bb 4d44 d53e 42e1 bf3e
00000070: 0179 2dbd 38be f53d 1442 2dbe d6bc f1bd
00000080: 1f63 edbe 5ab4 9f3a 16a8 debd d617 053e
00000090: 8cdb 73bf 2b67 bc3d 8e03 5c3d 9fee e4bc
000000a0: 0c17 1e3f 9ca8 e23e 65c8 093f a9d0 093c
000000b0: 0ef1 d83c 9893 e7bd 3223 423e 6fa2 5fbe
000000c0: f3fc 1cbf e462 113f 304b 853e 2ee1 51be
000000d0: 7544 293f ef6f 8fbe 0919 81bf 2bad 20be
000000e0: 7e74 e83d 124b 453e 43ea 613e 0442 293f
000000f0: de09 8f3e 2f2e cc3e 86c1 12be 23d2 ba3e
00000100: 0153 99be d64e c33e c9ef adbe 6add 38bf
00000110: 7c02 1bbf 1ffc 2c3e a341 b5be 1d82 ec3d
00000120: 92cb 813e dce6 a83d 40ee f83e 1fe2 4cbe
00000130: 673d bdbe e751 be3e 9b3d 843e 75dc 1dbd
00000140: 0ebf 78bf b715 3d3f 28c3 233e ecd5 adbe
00000150: 97a1 98be 7b33 7ebe eef2 78bd 7bf6 423e
00000160: 0c38 d83c 0fe3 dfbe d51d 233f a095 e1bd
00000170: 3dfd 1fbf 3524 143f 7872 8dbe 56ba 1f3f
00000180: c2b4 853e a89d 143e 4ac3 0e3e 327f 923f
00000190: 32a0 163f 74e3 e5be 3be2 d33e ca7e 5d3f
000001a0: 649a 5cbe 1247 733e 7e92 0d3e 6b02 99bf
000001b0: 87b1 663e 4a61 06be 9c1b ddba 32e4 4dbe
000001c0: 57d5 28be 35a6 81be 8052 ab3d 63ea 81be
000001d0: 4efc b23f 7780 663e 9220 c93e 8799 073e
000001e0: 137f 5ebf 6b8d 613e f463 e8be 9310 50bf
000001f0: a987 c9bd 9b52 3b3d 166d 5b3f ae68 df3e
00000200: 32c8 c2bd 94e3 9ebe 2385 e5be 15e8 09be
00000210: 1485 d0be b664 183f 1c35 e53c a50b 823e
00000220: 18b2 0f3e 391b a43e 5f93 153f 66d7 45be
00000230: cd41 adbd 7383 71be 2b37 5cbd 267f 0fbf
00000240: b8f3 d13e 30cb 7bbe c51e 2e3e a35d f83e
00000250: f5eb 643e c664 1abf 7b38 d9be 30a6 8c3e
00000260: 1ba8 073e 82fc 763e 200e f93c 2197 27bf
00000270: d808 74bf 10f4 ecbb ddb3 a43f 763e 5c3f
00000280: a31e d7bd 8f6f a3be 2fe5 e43d 475c f63d
00000290: 6203 8abd b185 393d 8f69 653d d423 443e
000002a0: 3e3d 20bc 640d 24be 2720 ddbd 80c2 e8be
000002b0: 21b3 14be fe69 083e 9fcb af3e f74a f83e
000002c0: fc50 66be f996 b9be 1ff6 013f fa9f 653e
000002d0: c267 0fbe d9a0 8abe 88f0 53bf f0c9 8bbe
000002e0: e26a b93d 6e09 a93e ab2b b33e 69df 99bf
000002f0: 6c4d bbbe 5cdd 4bbf 50d9 7abe 56e5 61be
00000300: 9573 50bc b49f fb3d 0c7c d9bd 622f f3be
00000310: 14a9 1f3f e557 1fbe 03db 23be c984 533f
00000320: d657 543e 2edd 4e3d fb37 9c3e 2446 37be
00000330: d318 12be 0a3f f0be 31b7 23be feed 8dbf
00000340: 2494 063f 284b 52bf 3aea 1d3c 78ad 073e
00000350: 16d6 a5be 0857 86bf c980 11bf 91bc 023d
00000360: 362a fabe cd50 71be 4d2c 47be fba4 ae3e
00000370: bbb3 273f eea7 cfbe 3156 50bf 624c a1be
00000380: a7ad 7d3e 77b9 13bf f84d 83bd 14da 383e
00000390: 5eb7 89bd 9f29 9abe bf9d 51be 01e9 a8be
000003a0: e413 b43d 01d4 8c3e 22bd 393f 9295 f9be
000003b0: 6018 a3be 46f6 94bc fd8a 10bd dc51 d5be
000003c0: c357 e13e ee89 8dbe 2e0e b7be 21f7 fdbd
000003d0: e615 0b3e 531f 5abe 81e8 27be 0fad ef3e
000003e0: 102a 10be 9fc0 0bbe b82e 2cbe 64e2 e3be
000003f0: 10d1 9abd 625c 13bf d30c acbe aa98 c1be
-0.18903972 -0.015169458 0.40266466 -0.5105373 0.51041913 0.0042925915 0.03262216 0.42022708
-0.18989812 0.09106582 0.70367664 -0.15032485 0.41593787 0.8077662 0.38135827 -0.6512021
0.15727383 0.01937706 -0.6654385 -0.434912 0.010220666 -0.07302888 -0.59700626 0.43276736
0.21153183 -0.002797699 0.41653672 0.37476546 -0.042351726 0.11999172 -0.16919738 -0.11803596
-0.46364686 0.0012184486 -0.108719036 0.12997374 -0.95256877 0.09199365 0.053714328 -0.027945815
0.61753917 0.44269264 0.538214 0.008411565 0.026482131 -0.11307448 0.18958738 -0.21839307
-0.6132347 0.5679152 0.26033926 -0.20496055 0.6612008 -0.28015086 -1.0085765 -0.15691058
0.11350344 0.19266918 0.2206202 0.66116357 0.27937216 0.39878985 -0.14331636 0.36488447
-0.2994614 0.38146085 -0.33972004 -0.7221285 -0.60550666 0.16893052 -0.3540164 0.11548255
0.25350624 0.08247158 0.4861927 -0.20008133 -0.3696091 0.37171862 0.2582825 -0.038540322
-0.97166526 0.7386126 0.15992415 -0.33952272 -0.29810783 -0.24824326 -0.06077855 0.19039337
0.026393913 -0.4372792 0.63717395 -0.11014867 -0.62495786 0.5786775 -0.27626395 0.623937
0.2611447 0.14513266 0.13941684 1.1445067 0.5883819 -0.44900095 0.41383538 0.8652159
-0.2154327 0.2375758 0.13825414 -1.1953863 0.22528659 -0.1312305 -0.001686919 -0.20106581
-0.16487633 -0.25322118 0.08365345 -0.25374135 1.3983247 0.22509943 0.39282662 0.1324216
-0.8691265 0.22026603 -0.45388758 -0.8127529 -0.09840328 0.045733076 0.85713327 0.43634552
-0.095108405 -0.31033003 -0.44828138 -0.13467439 -0.4072653 0.5952867 0.027979426 0.2539951
0.14032781 0.3205202 0.58427995 -0.19320449 -0.08459816 -0.235853 -0.05376355 -0.5605339
0.41006255 -0.24589229 0.17003925 0.4850894 0.22355635 -0.6031002 -0.42425904 0.2747054
0.13247721 0.24119762 0.030402243 -0.6546498 -0.95325994 -0.007231243 1.286739 0.8603281
-0.1050389 -0.3192105 0.11176526 0.12029319 -0.067389265 0.045293514 0.05600887 0.19154292
-0.009780226 -0.16020733 -0.10797148 -0.45460892 -0.14521457 0.13321683 0.34335038 0.48494694
-0.2249183 -0.36247995 0.50766176 0.22424307 -0.14004424 -0.27075842 -0.82788897 -0.27302504
0.090535894 0.33015007 0.34994254 -1.2021304 -0.36582506 -0.7963464 -0.2449696 -0.22060141
-0.012722869 0.1228632 -0.10619363 -0.47497088 0.6236737 -0.15560873 -0.16001515 0.8262449
0.20736632 0.050503902 0.3051146 -0.1789785 -0.14267282 -0.46923095 -0.1598785 -1.1088254
0.52569795 -0.8214593 0.0096383635 0.13249767 -0.32389897 -1.049531 -0.56837136 0.031918112
-0.4886033 -0.2356598 -0.19450493 0.34110245 0.6550862 -0.40557808 -0.8138152 -0.31503588
0.24773274 -0.5770487 -0.06411356 0.1805194 -0.06724428 -0.3010988 -0.20470332 -0.32990268
0.08792856 0.27505496 0.7255422 -0.48746926 -0.31854534 -0.018183839 -0.0352888 -0.41664016
0.4401227 -0.27644295 -0.35753006 -0.12400652 0.13582572 -0.21301012 -0.16397287 0.4681172
-0.14078546 -0.13647698 -0.16814697 -0.4450866 -0.07559407 -0.5756284 -0.33603534 -0.37811786

fc2.weight f4 [256, 256]
00000000: 9e9e 533e 926c 653d 4271 88bd eb87 cf3c
00000010: 6c3d b0bd cc0b f7bb 3020 bc3d 7a35 2fbd
00000020: da4a 04bc cd07 25bd e788 fbbc aad4 c23b
00000030: a99d c83c 5a4f 6b3d c832 12bd ea06 27be
00000040: 9764 5e3d c914 1bbe c7f9 f7bd b2e2 f03c
00000050: d201 82ba 6ebf 413b 4396 daba a5e9 8ebc
00000060: 4cde 95be 9343 39be dc01 b8bd 0358 c9bd
00000070: 8516 c4bd 5555 723c f4e4 c6bc 5666 bdbd
00000080: c61e 1cbd 3374 2abe 70aa 70bd 1170 873b
00000090: 4b06 893d 6e1d bcbd 82ca 77bd b7af 28bc
000000a0: 8401 babd 66b0 403d 7cb4 0fbe 7612 87bd
000000b0: 5543 4ebc ac12 583c 1b7b babd b4ed bcbd
000000c0: 2899 b63d 6ea7 25bd 987b b6bd cc21 cdbb
000000d0: abc8 8ebe 526b bd3d a3aa a73d ab89 07bd
000000e0: 84b4 c5bb 4967 8abd f17c 87be 5363 c8bc
000000f0: 7d63 0ebe 047b ff3c 1970 83bd 2c76 48bc
00000100: 62da 04be 6365 61bb c6ae 363c bdc8 1bbb
00000110: 315e 9cbd 1ad9 67be 9503 993d 003f bebd
00000120: 9932 0e3c af21 e7bc e2a2 b8be a64c 4ebc
00000130: 361c 193c f05a 9fbd 38b3 31bd bfa7 afbd
00000140: 1f27 2d3d f6dc e4be b061 ce3c 7488 3abe
00000150: de88 9cbd dcf6 77bc 4c16 bfbd 6eb7 a53c
00000160: 9bad 203c 9f64 d6bc f2ce 16bc 7ae6 563c
00000170: 99da 003d 98c1 e6bd 7b6e 063d a7ee 083e
00000180: 9e4c c9bd 7ad5 75bd 46bb b43d e22a 56be
00000190: f7b2 0bbe 638a 73bc 52da aebd 30e6 9fbe
000001a0: 8f61 903b b621 063d 65e0 c6bd 1cad 023c
000001b0: 0306 83bd c709 ef3c fe35 8fbd 0fd9 23be
000001c0: 2ffb c43c 4e1e 403d 8b0d 2abe 702f c4bc
000001d0: c3bb 8ebe 2532 6dbd d440 70bd a33f 713e
000001e0: 77c4 92bc fe88 7bbd 5999 9a3a 2f5e 4fbd
000001f0: 1b52 543d ff53 90bd cefa 633d 00bf 283b
00000200: 4c85 9c3d 90cb a1bc d866 963c 5b16 a73d
00000210: 5206 05bd 0a4e c1bc 8834 e83c 0854 b3bc
00000220: 27e6 173d 36a8 2f3d 83d5 d4bd cbe9 33bd
00000230: 4091 033c b9ca 683c 1c01 8a3c 126a 34bc
00000240: fc47 a4bd 52ac d0bd 3f7b 7b3e 322c 1fbe
00000250: a5e3 f7bb c089 b5bd af8a dc3b 0a2d 9f3c
00000260: 0241 4fbe de33 89bd b60a 823d 7256 6c3b
00000270: ef3a 59bd 7874 b53b 8dcf 82be 4476 f2bd
00000280: 4cec 1e3d 002e 73ba 1146 e4bc 6a37 1c3d
00000290: 1f13 c83d b0c8 c6bd 4764 dabd 2f94 923c
000002a0: 98a4 aebc 053f 973c 16ec 9b3b 5b25 a93d
000002b0: 300b 9ebd 2248 0d3c b4ef 33bd e86e 81bd
000002c0: 198a 2abd faba 493b 3c76 3dbe e681 96bd
000002d0: ff99 b43b e308 01bc 10cc 94bd 06e9 82bd
000002e0: c4c0 b83c d98f 95be a3b4 cabd 2ab2 6abd
000002f0: 4419 053d a985 28be 3a61 b4bc 2312 b1bd
00000300: 3843 2cbd 5044 24be 4b95 bdbd 4dde 823c
00000310: 5db3 aabd 3368 67bd d9de 84bd d6a9 ccbd
00000320: 5733 823a 97e5 d9bd 79fc 21be 89a9 853d
00000330: d612 eebd 49d6 46be e0d0 43bd c76f 153d
00000340: c6d0 e43d d17d 94bd f859 503d 1bdc 973c
00000350: a703 46bc febe c73d c4aa cebd 6167 cdbe
00000360: ff47 f4bc 7ac9 ce3c 2183 383b bcec 313c
00000370: 98b8 a1be 177a 863c ef8b 8d3c bbb7 52be
00000380: f76c 7d3d cf0d b9bc 24e1 5e3d d4fe 6d3d
00000390: 40ac 7d3d 96b4 21bd 80f2 37be 0504 7bbd
000003a0: 6cb5 d1bc 9e52 f0bd 9aa9 0cbe 4cfe 2fbe
000003b0: ebd1 5b3d 1cd3 593d 37f8 183d c021 eebd
000003c0: fd52 29bf 8053 bdbc 3a9b 893c 4ca8 25be
000003d0: fc2a dcbb 6751 94bc b5bf a1bd 4721 9cbb
000003e0: 8bce 353e 3bfa bdba e1cd db3c dd00 82bc
000003f0: a717 91be 2cef 903d 6c91 30bd 6934 9fbc
0.20665976 0.056011744 -0.06662227 0.025333365 -0.08605465 -0.007539248 0.09185827 -0.04277561
-0.008074487 -0.040290643 -0.030704929 0.0059457617 0.02448924 0.057448722 -0.03569296 -0.16311231
0.05429515 -0.15144648 -0.12108188 0.029404972 -0.0009918755 0.0029563564 -0.0016676862 -0.017445395
-0.29271162 -0.18092184 -0.0898473 -0.0983124 -0.09574608 0.014790853 -0.024279095 -0.09248035
-0.038115285 -0.16645889 -0.058756292 0.0041332324 0.066906534 -0.09185301 -0.06049586 -0.0102958
-0.0908232 0.047043227 -0.14033693 -0.06595318 -0.012589295 0.0131880455 -0.09105512 -0.09225026
0.08915931 -0.040442877 -0.089102924 -0.0062601324 -0.27887473 0.09248985 0.08186843 -0.033090275
-0.006033482 -0.06757981 -0.2646251 -0.024461424 -0.1390514 0.031186588 -0.06417865 -0.012235206
-0.12973931 -0.0034392707 0.011150068 -0.0023770772 -0.07635153 -0.22641411 0.07471386 -0.0928936
0.008679056 -0.028214304 -0.3606177 -0.012591517 0.009345105 -0.07781017 -0.043383807 -0.08576917
0.042273637 -0.4469983 0.025193065 -0.18216115 -0.07643293 -0.015134539 -0.09330425 0.020229068
0.009807016 -0.026171027 -0.009204613 0.013116473 0.03145847 -0.11267394 0.032820206 0.13372289
-0.09829067 -0.06001804 0.08824782 -0.20914796 -0.13642488 -0.014864537 -0.08537735 -0.31230307
0.004406161 0.032746993 -0.097107686 0.007975843 -0.06397631 0.029179467 -0.0699272 -0.1600077
0.024045555 0.0469039 -0.16606729 -0.023948401 -0.27877626 -0.05790915 -0.058655575 0.23559432
-0.017915947 -0.061409943 0.0011794969 -0.05062693 0.051836114 -0.07047271 0.055659108 0.002574861
0.07642612 -0.019750386 0.018359587 0.08158561 -0.03247673 -0.023596782 0.028345361 -0.021890655
0.037084725 0.042885028 -0.10392287 -0.043924134 0.008030236 0.014208489 0.016846232 -0.011011617
-0.080215424 -0.101891175 0.24558733 -0.15544203 -0.007564979 -0.08864164 0.0067303996 0.019430656
-0.20239642 -0.06699346 0.06349699 0.0036062268 -0.05303472 0.005537566 -0.25548974 -0.11838964
0.03879957 -0.0009276569 -0.027865442 0.038138784 0.09769272 -0.09706247 -0.10663658 0.017892925
-0.021318719 0.018462667 0.0047583682 0.08259078 -0.077169776 0.008623155 -0.04392977 -0.06319982
-0.041635606 0.0030781613 -0.18502134 -0.07348995 0.005511522 -0.007875654 -0.07265484 -0.06392102
0.022552855 -0.2921131 -0.09897735 -0.057298817 0.0324948 -0.16457237 -0.022019017 -0.086460374
-0.042056292 -0.16041684 -0.09256991 0.015975142 -0.08334992 -0.056495856 -0.06487817 -0.09993331
0.0009933513 -0.10639494 -0.15818967 0.06526477 -0.116246864 -0.19417681 -0.04780662 0.036483552
0.11172633 -0.0725056 0.05086705 0.018537572 -0.012085832 0.09753226 -0.10091165 -0.40117934
-0.029819487 0.025242556 0.002815433 0.0108596645 -0.31586146 0.016415639 0.01727864 -0.205779
0.061871495 -0.022589592 0.05441393 0.05810435 0.06193185 -0.03947886 -0.179636 -0.06128313
-0.025599204 -0.11734508 -0.13736573 -0.1718685 0.05366699 0.053179845 0.03734609 -0.11627531
-0.66142255 -0.023111105 0.01679765 -0.16177481 -0.0067189913 -0.018105222 -0.07897893 -0.004764709
0.17754571 -0.001449413 0.02683157 -0.015869552 -0.28338358 0.070768684 -0.043107435 -0.01943417

fc2.bias f4 [256]
00000000: ba28 a3bd 6b85 dbbd 6cdc 36bc 75e8 4abd
00000010: 17f8 383d ce0c 533e dd7f a53c bb46 45be
00000020: b5b2 f2bd fa9e 063e ae87 00bd 0bbf dcbd
00000030: a5a2 463d bc6b de3b 014e 483d 32b6 9bbd
00000040: 8ce6 2abc da38 4bbb 8fb5 1cbc bca4 1c3d
00000050: 2745 f5bc a422 893d 81ef 593d 2521 a7bd
00000060: 24a5 a5bc ab80 3cbc 8324 363c 0d48 823e
00000070: 2a80 03bd ba80 77bc 1cb2 913d f583 f4bd
00000080: f0ec e0bb 1945 303e 56d5 8abe 8fe2 edbe
00000090: a6e8 c0bc 25bd a53d 8b9f 8a3c d485 4d3c
000000a0: f9c3 a23c b98c 3ebd fcd9 d83d d6d2 81bd
000000b0: 53d6 36bc 34f9 1ebc d121 093f 42ef 07bd
000000c0: ea75 a43d 6aa7 703c 18f5 2b3f 74c8 86bd
000000d0: b57b 4cbc 7618 213e 5d05 8fbd 05a1 c0bc
000000e0: 10ec 0ebd 1910 943c 97d1 c73c ae53 433d
000000f0: e270 38be b90b 08bd 5069 7ebe 9322 9cbd
00000100: d532 bf3d 6ee4 6e3d 4bdf aabd 7e43 5fbc
00000110: 975a 57be 0714 cd3d f496 14be b0e1 ed3d
00000120: ed81 633b e8aa 7e3c e9cb b7bd a5f0 4b3d
00000130: f2e9 25bd 52cc fb3d f87c bc3e 5c97 88bd
00000140: 46d0 95bd 9494 df3d d454 9e3e ecc8 ffbb
00000150: d417 bdbd 70b2 ecbd c6b9 57bd 639a 42be
00000160: 1158 02bd 3852 5cbd 7893 823d a4df df3c
00000170: 5840 f5bd bbaf 17bd 497f c6bd f73a 08be
00000180: c62c 9ebe 5a45 d63d aa99 fd3d 4d24 373c
00000190: ae1d 9fbe 53e2 1bbd 65b9 323d 0e6e 24bd
000001a0: 2f42 553d 4e55 2bbc 53c7 2f3d 1155 2ebd
000001b0: 6891 d3bd 54a2 713c fb5d 9eba 5527 723d
000001c0: 9ce3 99bc e873 fa3c 9d71 43bd 2011 0d3e
000001d0: 9f3f 3bbd d36f 13bd 07a0 86bc 33f5 d2bd
000001e0: 33dc fc3c f133 c6bc 166c 40ba 213b a1bd
000001f0: 3eeb 773d bf29 4339 e4b5 70bd 3f9f 28be
00000200: 2d22 1dbd 87e2 ac3b f513 29bd e4ab 8e3d
00000210: 06c2 19be 9cf8 a23c 2125 13bc 2991 8d3c
00000220: ee9a e7bd 02d4 f7bd 0620 5e3c 39d9 89bb
00000230: 563c f43d 2538 a4bd 0410 04bc a3ca 3dbd
00000240: 23f2 bcbd a3d9 ba3d fb9f 70be cc04 74be
00000250: 79a7 d43e 552b 993c 48e9 103e 78cd 083d
00000260: 22b9 403d 428e d0bb e8fb f23c c78e 753e
00000270: fc63 52bd 1e59 f23d 0709 dabc 7b61 643c
00000280: 6af7 b1bc b613 77bd 9291 d1be cb43 b6bc
00000290: 3242 023f 0810 81bd e962 08be 634f 8d3c
000002a0: d299 0dbd 168b 03bd 1c25 83bd 0b6a e23d
000002b0: bf79 80bd 2179 2b3e e602 06bc 2eaf 91bd
000002c0: 5bf0 8cbd 86c7 a03e 594b 48bc bc8f a2bc
000002d0: 0fcd 193a d51c 8f3e 0f9a c7bd 0ddd 19bd
000002e0: 8452 943d 8ec8 86bc 0491 293d 3e29 763e
000002f0: 1c4b 913d 3ac6 abbd 2cfc 17bd f6f6 f03c
00000300: 6824 6bbe 04fc 9ebd 5da4 a23c 9f6b 843b
00000310: 86ec 72be 9ba5 483d 73a7 25bd 9dbc b3bd
00000320: 4aaa 38bb bd44 f7ba 0dfe 0fbd 53bb e5bc
00000330: 8b04 1fbe ac94 0abe dbcd 97bd b5e3 7fbe
00000340: becc a23e 060a b9bd 1b9d 333d 6ec2 20bd
00000350: 297d 6cbc e79f db3c f0f4 aabd ef6a 31bc
00000360: 04d9 13bc 1a27 533d 92ec a2bc 77df ebbc
00000370: 495e 4dbc 78be ac3d 2d1d c8bd 950c 3d3d
00000380: 896f aa3d 14ae 8bbd 140e 30be 76f3 a6bc
00000390: 1b26 683c 3455 d43e 4ad3 e13c 01ef 843d
000003a0: d30d 073e 2fd3 c53d d7ac 02be 9c27 49bb
000003b0: 706b 883d f055 783d 715f 00be d702 663d
000003c0: cb59 253c 2f1f cbba 8c29 0a3c 0c48 32bd
000003d0: 4e1b 07be 7392 8ebd ab2c b73b aa8f 15bd
000003e0: 7f46 29bd 0af7 16bd 32e7 97bd aff7 193e
000003f0: 210d bdbe cd06 363b 5261 b83a 2b10 debc
-0.07966752 -0.10718807 -0.011160951 -0.049538095 0.045158472 0.20610353 0.020202572 -0.19265263
-0.11850492 0.13146582 -0.031379394 -0.10778626 0.048494954 0.0067877453 0.048902515 -0.076031104
-0.010430943 -0.0031009228 -0.009564771 0.03824304 -0.029940201 0.0669606 0.053206924 -0.08160619
-0.020220347 -0.011505286 0.0111171035 0.25445595 -0.03210465 -0.015106374 0.0711405 -0.11939231
-0.0068641827 0.17213859 -0.27115887 -0.46461913 -0.023548435 0.08092717 0.01692178 0.012544114
0.019868838 -0.046520922 0.10588452 -0.06339042 -0.011159497 -0.009702969 0.53567225 -0.03318716
0.08030303 0.014688352 0.6717086 -0.06581202 -0.012480666 0.15731987 -0.06983445 -0.02351428
-0.034893095 0.018074082 0.024391932 0.047687225 -0.18011811 -0.033214305 -0.24844861 -0.07623782
0.09335867 0.058323316 -0.08343371 -0.013626931 -0.21030651 0.100135855 -0.14510709 0.11615312
0.0034714893 0.015543677 -0.0897444 0.049790043 -0.04050631 0.122948304 0.36814094 -0.066694945
-0.07315116 0.10917011 0.30924094 -0.007805934 -0.092330605 -0.11557472 -0.0526674 -0.19004206
-0.031822268 -0.053789347 0.06375784 0.02732832 -0.11975163 -0.037032824 -0.096922465 -0.13303743
-0.30893534 0.104624465 0.12382825 0.011178088 -0.3107733 -0.038057636 0.043633837 -0.04014402
0.05206507 -0.01045735 0.0429147 -0.042561594 -0.103304684 0.014748175 -0.0012082452 0.05911954
-0.01878529 0.030572847 -0.047715772 0.13776064 -0.04571497 -0.035995316 -0.016433729 -0.10300674
0.030866718 -0.02419469 -0.0007340325 -0.07872606 0.06052708 0.00018612201 -0.058767214 -0.16466998
-0.03836267 0.0052760276 -0.041278798 0.06966379 -0.1501542 0.019893937 -0.00898102 0.017281132
-0.11308847 -0.12100984 0.01355744 -0.004206803 0.11925571 -0.08018521 -0.008060459 -0.046335828
-0.092258714 0.09123542 -0.23498528 -0.23829955 0.41534021 0.01869742 0.1415149 0.033399075
0.047051556 -0.0063646147 0.029661134 0.23980246 -0.051364884 0.11833404 -0.026615633 0.013939257
-0.021724422 -0.060321532 -0.40931374 -0.022249123 0.50882256 -0.06301886 -0.13318981 0.017249769
-0.034570523 -0.032115065 -0.064035624 0.11055382 -0.06273221 0.16745426 -0.008179402 -0.07113491
-0.06881782 0.31402224 -0.0122249955 -0.019843929 0.0005867043 0.27951685 -0.09746181 -0.037564326
0.07242301 -0.016453054 0.041398063 0.2403917 0.07094404 -0.08387418 -0.037105724 0.029414635
-0.22963107 -0.07762912 0.019853765 0.0040411497 -0.23723039 0.04898606 -0.040442895 -0.087762095
-0.0028177672 -0.001886509 -0.03515439 -0.028043425 -0.15529077 -0.13533276 -0.07412311 -0.24989207
0.3179683 -0.09035115 0.043851 -0.039247923 -0.014434137 0.026809646 -0.08347499 -0.010828718
-0.0090239085 0.051550962 -0.019888196 -0.02879308 -0.012534686 0.084347665 -0.0977119 0.046154577
0.08322055 -0.06820312 -0.1719287 -0.020379763 0.014169241 0.41471255 0.02756657 0.06490899
0.13188867 0.09659421 -0.12761246 -0.0030693775 0.06661117 0.06062883 -0.12536408 0.056155052
0.010092209 -0.0015496964 0.008432757 -0.04352574 -0.1319401 -0.06961527 0.0055900416 -0.03651396
-0.041326996 -0.03685669 -0.07417144 0.1503589 -0.3692408 0.002777505 0.001406709 -0.027107319

fc3.weight f4 [1, 256]
00000000: 3e80 ee3d 8809 29bd 938e a93b 6978 ba3d
00000010: 3d7c b0ba 1ac6 a4bd 37fb 48bd ca2b b73d
00000020: 0b0c a9bd 1c76 a0bd 3eed 623d 6ecb a1bc
00000030: 577e c7bc f42f ff3d 3ffa 34bd dab7 d6bc
00000040: 020c c7bd 1a94 9b3c 7b99 643d dec6 5c3d
00000050: c2b2 1cbe 1325 e9bd 046d 653d d2c4 063d
00000060: 8001 5bbd 2e7c d33c 9406 0bbc 4339 68be
00000070: ed41 5abd dc54 32bd e2f2 c23d d950 25bd
00000080: c9ae 4a3d c1ef 133e 7aa7 5e3f e667 c6bd
00000090: c64e 9dba 5d20 933d 3c81 55bc 3e31 c9bd
000000a0: 608c e03c c6b5 02be e55c 5fbe 7f92 d7bc
000000b0: ad0e 48bd 3fbd 373d 3e6f 023e 324e 373d
000000c0: 8c93 f13b f0e0 463d fc72 b83d 54d6 a5bd
000000d0: 2a34 8ebe 089b 10be bc99 79bd 52da 69bd
000000e0: 50a7 0a3d d015 943d 3c72 93bc 8b9e 57bd
000000f0: 36ca 203d f13f e3bd 0bb7 803d c3f1 8bbd
00000100: 34eb 55be 65d7 c63d e25f e03d 9f66 b03c
00000110: c03c d1bc 571b e93d 3579 c2bd 5afe 993e
00000120: dc46 42bd 8a8f 593d 7134 72bc f5ad 36bd
00000130: 00a4 c73b 6770 96bd 5da7 12be 32ea a7bc
00000140: 4cb9 9f3c fa3f 48bd e66d 7a3e 5fd5 69bd
00000150: a300 78bd a26e c33e 9cc7 293d f24f 6d3d
00000160: becf 043c 243d 4bbe b0c0 ef3e fca9 a43d
00000170: d673 0f3a 1839 0bbb 4f5d ce3d 6c6a 0a3d
00000180: 6c10 b6be 6bec be3c e8f6 87bd aad1 1d3c
00000190: f354 c23f a51f 8e3e 4e28 2fbe 925f 2d3d
000001a0: 6097 cbbd b0c9 12be cf1e 5a3d 35a9 5bbd
000001b0: 6310 9cbd 5507 4f3d bbb6 35bc dd58 6abc
000001c0: 17d3 6d3d b4bf d8bc 2ec1 38bd 8765 7fbe
000001d0: 62c1 9f3b bc84 bd3c 5471 1e3e 2405 f63c
000001e0: dffb 83bc bd64 0c3d 1432 2fbd 63f8 883c
000001f0: 9594 e9bd 4bf8 5c3d 12a5 93bd fe9c 993b
00000200: 9d37 00bd b7d3 2b3d 3a77 e63d fcb6 d33d
00000210: 7cf2 bfbc ccd6 af3d 9cb3 8ebc b006 0bbd
00000220: 115f 6d3e 3052 0c3e a0a1 c739 3e71 c03d
00000230: 28ec 9bbd 8de9 ecbd 8665 92bc 1b74 223d
00000240: 1771 d53d f1cd 41bd 2fdd a23e 5b8d bb3e
00000250: b0fe 5f3e 4d5f b3bd 88c1 f23e 270b 0cbd
00000260: 4abb 04bd edab 64bc 4728 fa3c 84af d13e
00000270: cd2c 623d 2589 803d 31ab 583c 90da da3c
00000280: 0a58 1a3c 9119 c7ba bf41 8d3e c9ed 90bc
00000290: cf3b 133e eff0 1e3a c956 5dbd 9cb1 e33c
000002a0: f670 1c3d 1b8e 0e3e cdac acbd c89f c33e
000002b0: f18a 3ebc 3982 c63d 957f 253c e6c3 173b
000002c0: 71a1 abbd d7d5 18be 1077 873e 46fe ffbb
000002d0: 089a 61bc 82eb 453d ac4f b3bc f677 1c3d
000002e0: 1bff a3bd f37a fdbd a4a6 af3e 0fe6 9d3e
000002f0: f064 933c a25e 14bf ca90 81be f132 2f3c
00000300: 3e57 2abe b50e 9c3f bd10 b8bd 8c85 383b
00000310: e693 20be b33c 3dbd d494 82bd 0b1f 28be
00000320: c089 ecbc 531d 6b3c 4aa4 e33c 1122 ed3c
00000330: 3d61 6f3e da5f cf3d 0dab c5be 60aa fb3c
00000340: 3159 863d bb01 09be 9dd4 103e 840f 013d
00000350: d1c0 923c 0576 bd3c ff81 96be 4a0f 523d
00000360: 22e0 263e 646c 4e3d cb46 17be 1f56 77bc
00000370: 7e6f d4be 1d2d a23e dd1e 19bd ee43 cbbd
00000380: 8d17 0c3e 0497 aeba 4ed1 94bc ef7d c3bd
00000390: 5f64 82bd 03d7 773e d53a ccbc 2ecf f73d
000003a0: fbd9 bb3c ccc7 fe3d cb2b 40bd ecd9 2bbc
000003b0: d32f 1fbc bd43 8abe 0c13 d23d eebe 183e
000003c0: 6d76 b73c 1d73 88bd 623d e6ba b217 3abd
000003d0: cd3a 373e 958e 883c 46e2 313d 36d4 32bd
000003e0: 7862 b9bd 8e90 d2bc b07e 28bd 35b9 0bbf
000003f0: 3a03 c73d bb00 d3bd cd16 853e 46ba e93c
0.11645554 -0.041268855 0.005174467 0.09104998 -0.001346476 -0.080455974 -0.049067702 0.08943899
-0.0825425 -0.078350276 0.055402033 -0.019750323 -0.024352236 0.12460318 -0.044183966 -0.026210714
-0.09719087 0.018991519 0.055810433 0.053900592 -0.15302566 -0.113840245 0.05601217 0.032902546
-0.053468227 0.02581605 -0.008485455 -0.22678094 -0.053285528 -0.04353796 0.095189825 -0.040360305
0.049483094 0.14446928 0.869743 -0.09687786 -0.0012001626 0.07183907 -0.0130313 -0.09823845
0.027410686 -0.12764654 -0.2181278 -0.026314972 -0.04884212 0.044858214 0.12737748 0.044752307
0.0073723253 0.04855436 0.090063065 -0.080975205 -0.27774173 -0.1412164 -0.06093763 -0.057092972
0.033850968 0.07230723 -0.017998807 -0.052641433 0.039255343 -0.1109618 0.06284913 -0.06833222
-0.20890504 0.09709052 0.10955788 0.021533309 -0.025541663 0.11382168 -0.09495775 0.30076867
-0.047430858 0.053115405 -0.014783011 -0.044599492 0.0060925484 -0.07345658 -0.14321657 -0.020497415
0.019497536 -0.048889138 0.24455985 -0.057088252 -0.060547482 0.38170344 0.041450128 0.05793757
0.00810617 -0.19847542 0.46826696 0.080402344 0.0005472278 -0.0021243747 0.10076391 0.033792898
-0.35559404 0.023306092 -0.066388905 0.009632507 1.5182174 0.27758518 -0.17105219 0.04232747
-0.09940982 -0.1433475 0.053252038 -0.053628165 -0.07620313 0.0505441 -0.01109093 -0.014303413
0.05806264 -0.026458599 -0.045106106 -0.24941073 0.004875348 0.023134582 0.15472919 0.030031748
-0.016111312 0.03427576 -0.042772368 0.016720003 -0.11405293 0.053947728 -0.07209219 0.0046879044
-0.031303037 0.041949954 0.112532094 0.10337636 -0.023431055 0.08585891 -0.017419629 -0.033941925
0.23180796 0.13703227 0.00038076658 0.09396599 -0.076134026 -0.11567984 -0.017870676 0.039661508
0.10421961 -0.04731554 0.31809375 0.36631283 0.218745 -0.087584116 0.47413278 -0.034190323
-0.032405175 -0.013957006 0.030536784 0.4095422 0.055218507 0.06276158 0.013224409 0.026715547
0.009420404 -0.0015190115 0.27589223 -0.01769151 0.14378284 0.00060631236 -0.054037843 0.027794652
0.038193665 0.13921396 -0.08431397 0.3820784 -0.011629806 0.09692807 0.010101219 0.0023157536
-0.08380402 -0.14925323 0.26458025 -0.007812294 -0.013769634 0.0483203 -0.021888576 0.03820034
-0.08007642 -0.12376966 0.34306824 0.30839583 0.017992467 -0.579569 -0.25305778 0.010693298
-0.16634843 1.2191988 -0.089875676 0.0028155772 -0.15681419 -0.046200465 -0.06376043 -0.16418092
-0.028874278 0.014350253 0.0277883 0.028946908 0.23376937 0.10125704 -0.38607064 0.03072089
0.06559981 -0.13379566 0.14143606 0.031508937 0.017914208 0.023127565 -0.29396054 0.051284112
0.16296437 0.050396338 -0.14773099 -0.015096216 -0.41491312 0.31675044 -0.03738295 -0.09925066
0.13680859 -0.0013320153 -0.01816621 -0.09545504 -0.063668005 0.24203114 -0.024930397 0.12100063
0.02293109 0.12440452 -0.046916764 -0.010488968 -0.009715992 -0.27004805 0.10257539 0.14916584
0.022395337 -0.06662581 -0.0017565901 -0.045432754 0.17893524 0.01666955 0.04342868 -0.04365941
-0.090519845 -0.025703695 -0.041136444 -0.5457948 0.09717412 -0.10302874 0.25993958 0.028531205
