TD3/models/actor_eps100_veh100_11e-2_8e-2_0.1_-2_5.pth (torch, 275287 bytes, 5 tensors)

fc1.weight f4 [256, 8]
00000000: 4dee 233e 2bcd b0bd 47b7 afbc 04dc c6bd
00000010: d377 053c 3518 d4bb e53e f53f 4398 ad3e
00000020: d4ad 90be c7d2 b1bd fae7 8d3e d114 4a3e
00000030: 6b57 e83d c9da 53bc 7ea6 9a3f f7aa 7f3d
00000040: f942 7f3d 5e8c 31be e2d1 95be dd7b dc3b
00000050: 933a 89be a0db e43c c523 c73f f0d3 a6bc
00000060: 8449 80bd e484 f83d 8d15 32bf 2f8b eabd
00000070: ecd6 22bc e1b7 d9bc ed28 0fbf c6ed c73e
00000080: 2950 653d 1549 ad3d abf7 513f a831 9dbe
00000090: 318f ac3d 983d 25bc 2302 573f 1f6d 0bbd
000000a0: b123 07bf c778 133f 9da6 25bf 2d8b 353e
000000b0: feb2 ce3d 74b9 97be d872 0d3e e14e a03e
000000c0: de7d 0c3f 8546 f73d 2d57 013f d3c7 bf3e
000000d0: 8836 f03d 2374 12be 7377 1240 63be b8be
000000e0: a11e a93e 94ef c9bd 535e 213e d147 1cbe
000000f0: 91bf 37bc 85df 7e3e d292 16bf 3c3c 103e
00000100: f680 93be d8b4 a03c 29f9 9cbf 15e3 9fbe
00000110: 3683 393d 335f 4ebb 5e0a 31be 4ac6 1dbd
00000120: 039c ccbd 1d93 6c3e a7c5 91be 869c 6ebd
00000130: ce4c 433b 6841 afbc 6164 8cbd 0e44 94bd
00000140: 88d0 aabe 3030 c5bc 77e6 1d3f 2c16 5abe
00000150: 74df a63c cee3 323d 3b78 ba3f 0648 24be
00000160: a951 ccbe a948 133e 0b8a f73e 9d4e b53e
00000170: 1738 5fbd ca23 443d 06b5 bcbe 9cfe 81be
00000180: eff3 91be da2d df3d 5ee6 113f 8b14 d93d
00000190: 51f9 b1bc 7375 d7bc dab1 b83f 9d70 ba3e
000001a0: 8caf f3bc 1b7f 30bd d3e1 4dbf 2ad3 77be
000001b0: ac59 8dbd c132 533d 36c1 aabf b19d b43e
000001c0: e7ae 863c 3921 33bd 4148 22be 0c0b 04bd
000001d0: b41b 503d 4dbc 853d 0bcb 35c0 5b91 afbe
000001e0: bf05 c8be 7e79 09bf ebb1 95be 298e 173d
000001f0: c36c 2b3e 6a4b 1f3e 0ede 943f f24f f3be
00000200: e4b6 6d3e e007 d3bd 2ecb 39bd 9235 bb3d
00000210: 58bd 553e 32f4 94be aeae fc3e c049 74bc
00000220: 5f40 503f 292a ca3c d2da 56bf c85d bebd
00000230: f3df a03c 9064 e1bc 9b48 9b3e 49cc 523e
00000240: bd7e 49be 68e7 52be 953e 26bf 0204 14be
00000250: c548 743d 70fd 6c3d 8c3d 0cc0 44f5 15be
00000260: ed4a 043f 949e 533d 8d29 f4bd fea6 26be
00000270: 05b8 6e3e 89f4 8b3d 4018 67bf 40b1 4e3e
00000280: 08d7 093e cd27 fd3d 8ea2 c8be fa38 49be
00000290: 9364 063d 2696 5c3e 4142 03c0 a3ae 833e
000002a0: 48b8 4dbd 131b a93d 0d5d 1f3e 6905 843e
000002b0: 0fc5 a5bd 0f8c 26be 7909 16bf fd47 6f3d
000002c0: 190d 1e3e e79f 073e 3449 a8be 8e1d f6be
000002d0: 647e 223c 6789 293e 6484 c33e d073 b4bb
000002e0: fdd3 833b 029d 8bbb fac0 8d3d e0ac b23e
000002f0: b3a2 093c 6048 4ebc cdec 823f 42cc 08be
00000300: cd20 4f3d 66a4 79be b403 6d3f 18bb a53e
00000310: fac0 8fbd 1cf2 e83d b6e4 03c0 9d02 f7be
00000320: 2ae3 f53d b0ef 98be 9fae 083f 2307 63be
00000330: 63df 153d 98aa 6a3e 66ea bb3f 69fb 91be
00000340: 6b3a cb3d 6e36 be3d 907d dbbd b84d 8c3c
00000350: 26ac aa3d fedb b23c 6eb8 bc3f e209 683e
00000360: 3573 0fbe bc88 0a3e 4a6c 3dbd a64a 93be
00000370: e649 c9bd a89e ed3d 8f92 9dbf b2f7 92bd
00000380: ce26 b7be 3112 36be e2b9 2cbf 1953 54be
00000390: 955b 9cbc 9a35 583e facb 643f 53d1 afbb
000003a0: 9e58 863e 74f6 e53d e0d7 71be d97d 093e
000003b0: 03ee 1b3c c2da e5be e0da 78be 9ded dc3c
000003c0: 5601 89bd 7673 323e 144e debe cc91 76be
000003d0: 100a 023e 4370 75bd 6a8e c4bf 459a 9a3d
000003e0: d362 6cbe 1111 793d 023c 353d d639 50be
000003f0: aa82 19ba 57c2 5bbc 4f8d 79be a06e b93e
0.16008873 -0.08632883 -0.021449698 -0.097099334 0.008146244 -0.0064726123 1.9159819 0.3390523
-0.2825762 -0.08682781 0.27716047 0.19734503 0.11344799 -0.01293058 1.2082059 0.062418904
0.06231973 -0.17338702 -0.2926169 0.006728633 -0.268025 0.027936757 1.5557791 -0.020364732
-0.06264022 0.12134722 -0.69564134 -0.114523284 -0.009938937 -0.026576938 -0.5592182 0.39048594
0.05598465 0.08461205 0.82018536 -0.30701947 0.08425749 -0.010085486 0.83987635 -0.034039613
-0.52788836 0.57606167 -0.64707357 0.17728873 0.10092734 -0.29633677 0.1381334 0.3131018
0.5487956 0.120739974 0.50523645 0.3745714 0.11729151 -0.14302115 2.2885406 -0.36082754
0.3303118 -0.09860149 0.15758638 -0.15261771 -0.011215107 0.24889953 -0.5881778 0.14085478
-0.28809327 0.019617483 -1.2263538 -0.31227937 0.045291148 -0.0031489849 -0.17289111 -0.03851918
-0.099906944 0.23102994 -0.2847111 -0.05825474 0.0029800418 -0.021393493 -0.06855083 -0.07239543
-0.33362222 -0.02407083 0.61679786 -0.2129752 0.020370223 0.043674283 1.4567941 -0.160431
-0.39906052 0.14383186 0.48347506 0.3541154 -0.05449685 0.047885694 -0.3685686 -0.25389564
-0.2850642 0.10897417 0.5699214 0.105996214 -0.021725329 -0.026301121 1.4429276 0.36414042
-0.029746793 -0.043089967 -0.80422705 -0.24201646 -0.06901869 0.051562075 -1.3340213 0.3527656
0.016440822 -0.043732855 -0.15847875 -0.032237098 0.05080767 0.06530056 -2.8405178 -0.34290585
-0.39066884 -0.5370101 -0.29237303 0.03700081 0.16740708 0.15556112 1.1630266 -0.4752193
0.23214298 -0.103042364 -0.045359783 0.09141077 0.2087301 -0.29092556 0.4935202 -0.0149101615
0.8134822 0.024678307 -0.83927643 -0.09295231 0.019638037 -0.027513772 0.3032883 0.20585741
-0.19677253 -0.20596087 -0.6493924 -0.14454654 0.05963971 0.057858884 -2.1912565 -0.14644343
0.5167683 0.051664904 -0.11921988 -0.1627464 0.23312385 0.06833751 -0.9027138 0.20184803
0.13460934 0.12361107 -0.3918652 -0.19650641 0.03281076 0.21541652 -2.0509188 0.25719175
-0.050224572 0.08257117 0.1556284 0.25785378 -0.080942266 -0.16264366 -0.58608204 0.058418263
0.15434684 0.13244592 -0.3286835 -0.48069423 0.009917829 0.16556321 0.38186944 -0.00550697
0.0040230737 -0.00426066 0.06921573 0.34897518 0.008400607 -0.012590498 1.0228516 -0.13359168
0.05056839 -0.2437912 0.92583776 0.32369304 -0.07019229 0.11374304 -2.0608344 -0.4824418
0.12006219 -0.29870367 0.5339145 -0.22170691 0.03658999 0.22916639 1.4680908 -0.28512123
0.09923252 0.092877254 -0.107173085 0.017126903 0.08333616 0.021833416 1.4743783 0.2266002
-0.14008792 0.13528723 -0.04624585 -0.2876789 -0.09828548 0.11602527 -1.2310351 -0.071761504
-0.35771793 -0.17780377 -0.67471135 -0.20734824 -0.019086638 0.21114197 0.89373744 -0.0053655296
0.26239485 0.11228648 -0.23617506 0.13426913 0.009517196 -0.4489346 -0.24302244 0.026968772
-0.06689708 0.17426857 -0.43418944 -0.24079055 0.12699151 -0.059921514 -1.5355961 0.07548956
-0.23084573 0.06080729 0.04424668 -0.20334563 -0.0005855957 -0.013413033 -0.24370311 0.36217213

fc1.bias f4 [256]
00000000: 5a34 18be 8242 f33d 5679 85be 4ffc 47be
00000010: 7eb0 3d3f 47f7 a7bd ec87 b33e ae90 903e
00000020: 9a4b 51bf 9877 bc3d 4fe2 6e3e 86e9 07be
00000030: 9032 cd3e 8305 f9be a27d 59be 130c 2dbf
00000040: 5d1a 483e 3560 d6bc d0b9 0ebf 45a1 7bbe
00000050: ea7b f1bd 49b9 823c 48e8 fabe b5c6 833e
00000060: 9561 143f 20f9 0d3e 5153 4e3e d9e9 acbd
00000070: 4e46 49bf 5477 803d bac0 d4be 7a8c a53c
00000080: 0471 9dbe 9476 123d 7554 bd3e 2837 c8be
00000090: 892f 19bf 8c4d c73d 5c04 7e3f 8bde 3cbe
000000a0: 2425 fcbc 4e20 f33e c6a0 503f 1fb4 b0bd
000000b0: 391c d83b ee39 b93e c65d cc3e 1beb aabe
000000c0: ecfa a7be 288e 26bd 2901 683e 7ea4 03be
000000d0: 611f 41bf 52c9 89be 2fbd 70be f773 9fbd
000000e0: 8bda 9f3e f35c 7b3e 3f0a 803e 2b97 7f3f
000000f0: b2a9 a23e 2c6a 6e3e 88bc a43d 27f9 743d
00000100: 8bca b53e 9677 0c3e 1d20 083f 3ed7 273f
00000110: e2eb d2be a014 3e3d 56f6 85be 21de f03e
00000120: c83d 24bd a317 1a3f f9ab 8a3e d151 9cbe
00000130: e8ad 60be d333 9e3d 9b3d 843e 33e2 e13d
00000140: 4ee6 41bf e96c 773f 2007 fbbd 9da9 353e
00000150: 461b 10bf 79b8 163f 2fcf 863c 4f87 9a3e
00000160: cd2d 4c3d 525a 8fbe da2d 073f 0757 e63e
00000170: 70bd bdbe 9ddf 1c3e 20b3 fdbe 9cc2 703f
00000180: c80e 043f 4ca0 213e b1ca c8be b758 663f
00000190: cbec 033e 365e c1be 3518 15bd e826 243e
000001a0: e9eb 0cbf 0632 fa3b 6f1e 653e 0639 01bf
000001b0: 68e8 b13e 9b4e c8bd c1a1 ed3d 80a7 91be
000001c0: 4a2c 7c3d 35a6 81be 1c7b 753e 2cb6 a8be
000001d0: 1ac9 b83e 7cda 1f3e f9e2 853e 0f02 223f
000001e0: f9ab 45bf ff46 763e 4a81 e0be 1074 43bf
000001f0: 43fc ed3b 3322 b8bc 953f 243f 84f7 503e
00000200: 4329 65bd 3982 4f3d 35a1 27bd b3ee 8f3c
00000210: 2f50 27bf 64b3 a33e d28e 6e3e 30d1 483e
00000220: 15af 183f a46f ac3e f01c 3d3e 53b4 cd3e
00000230: cd41 adbd 1074 083e 030d a9be 14df b8bd
00000240: 9bf8 cf3e 6c56 3fbe 3776 66be 9b60 b93e
00000250: 1228 203f 9fdf 18bf e642 5ebc 04bc 1c3f
00000260: f6d6 f13d 1c47 c23e bfbf 763e a12b efbe
00000270: 604e 00bf ecd3 9b3d e14c 663f 4add 133f
00000280: a0de ecbd 8f6f a3be 8f62 053e 32bb ab3c
00000290: f446 d6bd 1ab8 c7be 6705 31be 1dd2 6a3e
000002a0: 3d09 543d 6036 523d 943d 463c bd90 78bf
000002b0: fc74 a4be 63b5 743e 9fcb af3e 266b e63d
000002c0: 51a2 2ebe e3d1 5cbe 2fd2 153f 3b1b ebbe
000002d0: 9368 133f b1e0 20bf dbbb adbe d129 afbe
000002e0: 4b3b 243f 5f66 6a3f fb54 203d 9092 a7be
000002f0: 764a 8cbe cb20 6cbe c8e3 a4be 1c4c 7abd
00000300: 9573 50bc 1122 4a3e 1ed2 1fbf 01d4 d7be
00000310: 9e1f 313d 31ac 593d bcd6 133f ca5d 893e
00000320: 40b3 1c3f 8d6e 863e f878 6b3e 4574 73bd
00000330: e014 80bd b8f5 e1be 31b7 23be 0841 a3be
00000340: eb12 683f e7b5 bcbe b584 dd3e c2da dbbc
00000350: fc13 1fbe de2a e2be eaf0 12bf 492a 9d3d
00000360: 3926 3ebe 58c3 83bf fbce a8bd ae1e aebe
00000370: ab63 d03e 2009 92be b582 a6be bdaa 1f3f
00000380: 3e79 5b3e a05c 24bf f74e 1abc b578 8f3d
00000390: a2e0 b6be 9f29 9abe ad05 39be adb4 85bd
000003a0: e413 b43d f265 60be 5cd5 62be c29a 86bd
000003b0: 8226 87be 9889 e03d d901 11bd 5e00 f33d
000003c0: 06dc 013e 1ec5 b9be 313c a4bf 14ef 9ebd
000003d0: 448a a4bd 9d33 9fbe c871 14bf 457e 833e
000003e0: 305d 413f 66b3 753e 13b0 b93c 6537 b5be
000003f0: 8e9e 093e 2ba2 a7be 8c4d 23be e01e 82be
-0.1486372 0.1187792 -0.26069134 -0.19529842 0.7409743 -0.08201461 0.35064638 0.28235382
-0.81755984 0.09202498 0.23328517 -0.13272676 0.4007764 -0.48637018 -0.21239331 -0.6759655
0.19541307 -0.026168922 -0.5575228 -0.24573238 -0.11791213 0.015957491 -0.49005342 0.2573754
0.579614 0.13864565 0.2014897 -0.084430404 -0.786229 0.0627276 -0.4155329 0.020208586
-0.30750287 0.035757616 0.36978498 -0.3910458 -0.5983816 0.09731588 0.992254 -0.18444268
-0.030779429 0.47485584 0.8149532 -0.08628105 0.0065951613 0.3617701 0.39915293 -0.33382496
-0.32808626 -0.040662915 0.22656693 -0.12855718 -0.75438505 -0.26911408 -0.23509668 -0.077857904
0.31221423 0.24547176 0.25007817 0.9984004 0.31770092 0.23282689 0.08043772 0.059807923
0.3550609 0.13717493 0.53174 0.6556281 -0.4119559 0.04640639 -0.26164502 0.4704447
-0.04009798 0.60192317 0.2708433 -0.3053117 -0.2194134 0.077247284 0.2582825 0.11029472
-0.7574204 0.9665056 -0.12257218 0.17740484 -0.56291616 0.5887523 0.016456215 0.30181357
0.049848367 -0.27998596 0.5280434 0.44988272 -0.37058592 0.15319677 -0.49550724 0.9404695
0.51585054 0.15783805 -0.3921714 0.8997912 0.12883298 -0.3776719 -0.03640004 0.16030467
-0.5504747 0.007635358 0.2237489 -0.50477636 0.34747624 -0.09780618 0.11603118 -0.28448105
0.061565675 -0.25322118 0.23972744 -0.32951486 0.36090928 0.15610689 0.2614973 0.6328439
-0.77215534 0.2405052 -0.4384864 -0.7634897 0.007262738 -0.022477245 0.6415952 0.2040692
-0.055947553 0.0506613 -0.040925223 0.017569875 -0.65356725 0.31972802 0.23296669 0.19611049
0.59642154 0.33678925 0.1846807 0.4017664 -0.08459816 0.13325524 -0.3301774 -0.09026924
0.40619358 -0.18685311 -0.22506033 0.36206517 0.6256114 -0.5971622 -0.0135657545 0.6122439
0.11808579 0.37944877 0.24096583 -0.46712974 -0.5011959 0.0760878 0.8996106 0.57759535
-0.115659 -0.3192105 0.13025878 0.020963285 -0.10462752 -0.39007646 -0.17287217 0.22931714
0.051766623 0.051321387 0.012099642 -0.97095853 -0.32120502 0.23897319 0.34335038 0.11250906
-0.17054106 -0.2156444 0.5852384 -0.45919213 0.5758144 -0.6284285 -0.33932385 -0.3421159
0.64152974 0.91562456 0.039143544 -0.32729006 -0.2740056 -0.23059385 -0.32205033 -0.06110774
-0.012722869 0.19739558 -0.6242999 -0.42153934 0.043243043 0.05314273 0.57749534 0.26829368
0.61211014 0.2625622 0.22995365 -0.059437055 -0.062539816 -0.4413278 -0.1598785 -0.31885552
0.90653867 -0.3685753 0.4326531 -0.02683771 -0.15534967 -0.4417333 -0.57398856 0.07674081
-0.18569268 -1.0293989 -0.082426034 -0.34007782 0.4070104 -0.28522587 -0.32521597 0.623699
0.21432969 -0.64203835 -0.009418241 0.07005445 -0.35718256 -0.3010988 -0.18068571 -0.06528602
0.08792856 -0.21913889 -0.22151703 -0.065724865 -0.26396567 0.10963744 -0.035402153 0.118653044
0.12681589 -0.362832 -1.2830869 -0.07760444 -0.080341846 -0.31094065 -0.57986116 0.25682274
0.7553282 0.23994216 0.022666967 -0.35393825 0.1343939 -0.32740912 -0.1594755 -0.2541418

fc2.weight f4 [256, 256]
00000000: 3675 83bd 8e86 153d 561b 35bd 5741 81bd
00000010: 801c 873c 2fae 8bbd 3402 183d 8817 bdbc
00000020: 585d f43c 3409 15bd 3a90 59bc a83b 67bd
00000030: 27bb 333d 8f71 71bd 829f 113d edde 60bd
00000040: 2334 34bb c45c 91bc 7e32 2a3d 3883 1c3d
00000050: 4b6e 923c 001a 583c 92c7 3d3d 501a 07bd
00000060: 7cc1 68bd 9c58 0cbd 2b39 81bd fc36 d9bc
00000070: d500 f7bc 6546 50bc e018 17bc 8e76 fe3c
00000080: 6765 83bc 2f4a 6d3c f77f c2bc 7406 843a
00000090: a128 0f3d 270c 0abd efb7 75bd c62b ee3a
000000a0: 95b1 bcbc 77cb 613d 00a8 d13c 9709 103d
000000b0: cb77 fb3b e07b 963b 62e1 a13c 0528 60bc
000000c0: fc72 6bbb a277 f13b d2a8 7dbd 1b1b 10bd
000000d0: b8d7 1cbd 2a99 8a3d fcb0 e33c 5697 1d3c
000000e0: 97f2 1abd 949e 81bd 6873 92bd da2c 5fbc
000000f0: 826a 54bd 31db 3dbd 5569 4dbd a259 013d
00000100: 794e aebc d171 473b 8b4b 8fbd 739c b0bb
00000110: b178 7cbd 6692 4cbd 0d45 993c b569 50bc
00000120: d92d cf3b 3ca6 53bd e11d 3f3d 15ae 513d
00000130: 28ce deba bb7a 6bbd 38b3 31bd 2b38 a63c
00000140: bd20 12bb a220 4abd 6496 2e3c 93de 68bd
00000150: c8ca 9ebd f019 35bd 2134 4fbc 5160 cbbc
00000160: 7bbd 14bd 54f0 3a3d 6440 62bd eb13 d73c
00000170: 405e 11bd eb40 193d 315f 663c 53f9 1c3d
00000180: 1237 41bd f444 00bc 86de d8bc d0db 29bd
00000190: 4764 89bd d0ea ce3b 5ee0 0fbd 45cf b6bc
000001a0: 6e5a 673d 2a9b 123d 5ba8 53bd cef3 ecbc
000001b0: d2bd 36bc 36f3 ea3c 04db 233d c1fe 723c
000001c0: 7899 da3c 4e1e 403d 4d30 1c3c f6d4 6bbd
000001d0: f6fd 13bd 7733 30bc 2ed3 bf3b 9548 20bc
000001e0: 2669 d1bc a731 81bd 92f2 183c b03e 0fbd
000001f0: f84c 93bc 99d2 dfbc 4ce0 75bb fce7 c63c
00000200: 0a75 463c f363 643d 8d27 053d 4802 773d
00000210: 8e40 d5bc e08c c73c fc90 553d 0a23 63bb
00000220: 2020 7e3d 034c 043d 2476 58bd 0222 26ba
00000230: 4091 033c d02a b6bc aa13 02bd 0556 673d
00000240: dc88 c0bb 7005 d1bc 664d a43a 4e38 94bc
00000250: d1fd 633d 8208 403d 9299 81bd 2599 ba3b
00000260: efab 2abd 53dc 163d 99cf 063d 0722 bc3c
00000270: 93b6 5ebd dee7 4e3d 5c3b 12bd c155 9dbc
00000280: 3d2f f63c 002e 73ba 0265 603d 8074 14bd
00000290: d5b6 7a3c 2401 32bd 09e1 15bd 725a 803d
000002a0: c443 4bbd bfe9 063d 3a4f 7fbc 4352 dd3c
000002b0: 070e 80bd a2e8 1a3d b4ef 33bd f60f a43c
000002c0: 712c 8fbc a319 d0bc 84b6 55bd 8547 113d
000002d0: 16bb a8bc 556c c03c b84b 92bd 602d 8ebd
000002e0: b024 ea3c b7e5 79bd 73af 9a3c 31d5 cebc
000002f0: d066 6c3d fe49 3dbd b21e 353d 2dfb 69bd
00000300: 3843 2cbd 9064 41bd a5a5 68bd 037b 95bd
00000310: 06ce 373d 2acd bbbc fb8d 53bd 8ea6 a13c
00000320: 392e 8fbc 9700 7c3c 32d0 35bd ff3f dd3a
00000330: 7b74 0bbd 7a7a 62bc e0d0 43bd e9c6 bf3b
00000340: f65f 9e3c 11db 0c3d 5360 0b3d 6f50 cf3c
00000350: e719 213c 535c 703c 2af2 13bd 8bb7 283c
00000360: 5e87 ebbc ea85 ee3c eced a2bc 717b da3c
00000370: 30e3 e8bc ccd5 bb3c 650c 403c c424 77bc
00000380: da92 ed3c 89e3 b63c e9c8 f43c 0d64 693d
00000390: 47ae 6d3c 96b4 21bd dc15 e6bc 2f42 883c
000003a0: 6cb5 d1bc fc86 5d3b be8f 033d 9543 f1b9
000003b0: 1c1b e83c db01 073d 2aeb 44bd b7ec 5ebd
000003c0: 94e2 90bc 175b a3bb b159 023d edfc 78bd
000003d0: 22cd c43c d7ab 39bd 0ec7 163d 7a28 e8bb
000003e0: 9a28 1f3d b6b6 6d3b c376 0b3c 574e 9dbc
000003f0: f974 6ebd bf19 bd3a 4f57 03bd 3bd3 be3c
-0.064188406 0.036505274 -0.044215523 -0.06311291 0.016493082 -0.06820332 0.037111476 -0.02308251
0.029829666 -0.03638573 -0.013279015 -0.056453377 0.043879654 -0.05894619 0.03555251 -0.0549001
-0.0027496896 -0.01774443 0.04155206 0.038211077 0.017874857 0.013189793 0.046332903 -0.032984078
-0.056825146 -0.034264192 -0.06309732 -0.026515476 -0.030151764 -0.012712096 -0.009222239 0.03106239
-0.016039563 0.014483019 -0.023742659 0.0010072724 0.034950856 -0.033702996 -0.059989866 0.0018171004
-0.023033896 0.05512568 0.025592804 0.035165396 0.0076741925 0.004592404 0.019760791 -0.013681416
-0.003592669 0.0073689977 -0.061928578 -0.0351821 -0.038291663 0.06767495 0.027794354 0.009618601
-0.037829008 -0.063290745 -0.07150918 -0.013621533 -0.051859386 -0.046351615 -0.05014928 0.03157962
-0.021277653 0.003043283 -0.069968306 -0.005389744 -0.061638538 -0.049944304 0.018709684 -0.012720515
0.006322604 -0.051672205 0.046659354 0.05119141 -0.0016998695 -0.05749009 -0.043383807 0.020290455
-0.0022297346 -0.049347527 0.010655973 -0.05685289 -0.07753521 -0.04421419 -0.012646706 -0.0248262
-0.036313515 0.04563935 -0.05523719 0.026254615 -0.035490274 0.037415426 0.014060781 0.03832371
-0.04717166 -0.00782894 -0.026473295 -0.041469395 -0.067085795 0.006314613 -0.035126083 -0.02231563
0.056482725 0.035792507 -0.05167423 -0.028924849 -0.011153655 0.028680425 0.04000379 0.014831246
0.026684508 0.0469039 0.009533 -0.057576142 -0.036130868 -0.010754458 0.005854032 -0.00978293
-0.025562834 -0.063082986 0.009335177 -0.034971893 -0.017981037 -0.0273221 -0.0037517725 0.02428054
0.012112865 0.05575938 0.03250842 0.06030491 -0.026031759 0.024359167 0.05214022 -0.0034658336
0.062042356 0.032299053 -0.052847043 -0.0006337465 0.008030236 -0.022237211 -0.031757034 0.05647852
-0.00587569 -0.025515288 0.0012535274 -0.018093254 0.05566198 0.046883114 -0.06328119 0.005694526
-0.041667875 0.03683121 0.032912824 0.022965444 -0.054373335 0.050514095 -0.03570114 -0.01920593
0.030051822 -0.0009276569 0.05478383 -0.036243916 0.01530238 -0.04345812 -0.036591563 0.06267251
-0.049625173 0.03293776 -0.015582854 0.027016765 -0.062526755 0.037819512 -0.04392977 0.020027142
-0.017477246 -0.02540285 -0.052176014 0.035468597 -0.020597022 0.023489157 -0.071433485 -0.06942248
0.028581947 -0.06101009 0.018882489 -0.025248142 0.057715237 -0.046213143 0.044218726 -0.057124306
-0.042056292 -0.047215044 -0.056798596 -0.07298853 0.044874214 -0.022924978 -0.051649075 0.01973274
-0.017478095 0.015381 -0.044388004 0.0016880034 -0.03404663 -0.013823146 -0.04780662 0.0058525694
0.019332867 0.034388606 0.03402741 0.025306908 0.009832836 0.014670449 -0.036119618 0.010297666
-0.028751072 0.02911659 -0.01988884 0.02667019 -0.028428644 0.022929095 0.011721705 -0.015084449
0.029000688 0.022325294 0.029880958 0.05698018 0.014506883 -0.03947886 -0.028086595 0.016633121
-0.025599204 0.003380238 0.032119505 -0.00046017455 0.02833324 0.032960754 -0.048075832 -0.054424968
-0.017686166 -0.004985224 0.031823818 -0.060788084 0.024023596 -0.045329895 0.036810927 -0.0070849033
0.03885708 0.0036272234 0.008512202 -0.019202394 -0.058217023 0.0014427229 -0.032065686 0.023294082

fc2.bias f4 [256]
00000000: 8c51 493c effb 21be 1b17 83bb d1cc 06be
00000010: b6cb 993e 9092 063d 3f68 babd a7cd 90bd
00000020: ede8 5dbe bc1b 3d3d ca19 13be 2344 5cbe
00000030: ea82 753c 9e01 68be c098 7a3e 3c74 70bd
00000040: 1633 11bd b945 b93e 28f1 e0bd 94a0 d93d
00000050: c376 c7be 29fb 143d 72a1 6b3d b6d3 c9bd
00000060: 58c2 e6bd cdd6 e43d 4cd6 463c c961 843c
00000070: b976 fe3c b529 50bd 71da babd 591d 11be
00000080: 5234 303d 4a9b 1e3e 911b 2e3d b330 46be
00000090: 58cc abbb ba82 313e c7c8 603c cb2b 1a3e
000000a0: b383 a83c 542b 4d3c 4f68 0dbe da82 75bd
000000b0: 7d62 35bd 179c e33d 83a7 b43e c40f 0abd
000000c0: c554 d83d 615d b23d 9729 1abb 27b4 3ebd
000000d0: 301a 6a3d bafb cf3b c6c4 26be 05e6 963d
000000e0: 000d 20bd 1c3e 2dbe bb6d e63d 7276 3e3d
000000f0: dad6 eebd 375f 20be 338a 953e 01da 04bd
00000100: 04f1 07bd acb6 ea3d 6b9f ba3d 9553 8b3e
00000110: 88a1 a7ba 80b5 803e 0c3d 183d e1fc e93d
00000120: 5acc 013d d48f 853c 2eff 95bd d382 083e
00000130: f2e9 25bd 2b42 023e 73bb 6f3d d618 86bd
00000140: f919 893e a98e ce3d a42a b1bc 1199 0ebd
00000150: 2d8f 26be 8a9d 13be c6b9 57bd d3b9 88bd
00000160: 7f4c 9cbd 9cea 3dbe 6282 7b3e fb15 533d
00000170: 5de1 5c3d 2bb8 21bd 0765 1b3e 170c 64bd
00000180: a795 4e3a 5e6b d2bc 61d3 4e3e b492 243d
00000190: a4fc b13d 4744 5b3c cbdf c7bd 3bd0 5d3c
000001a0: 0101 2f3e e16e 793e 4a6e 13be 6b63 d93d
000001b0: 3686 55bd 0a4c 013b bf14 2b3e d994 99be
000001c0: d05c 883d 4754 9d3c 9501 6d3d 47db 1abe
000001d0: f068 37bd 0ad1 a33d 56a8 07be 0b4d 11be
000001e0: 3afc be3c 5497 b8bc 1b39 4abd 41b4 003d
000001f0: 1fec bf3d 3a08 ac3c 669d 8bbb 118e 6ebd
00000200: 2e43 013b e297 d43d 7fa7 0d3e 11eb 543c
00000210: 3f71 a63c 08d7 0c3e d53f eabb 51df 3fbd
00000220: 15bd c43c 4079 67bd 6960 cb3c b0b3 743d
00000230: 2586 753e d4f1 05be 7ea1 bebc c62b d7bc
00000240: 74fd 773d e27b eebc 5b4f 94bd 0541 cabc
00000250: bacc 74bc add2 86bd eb3d be3c 2649 213d
00000260: 22b9 403d d89b 3abe 1404 373e a191 d53c
00000270: b014 51bd 1e5c bdbd 3dab fdbc 0c5e 653c
00000280: 1940 b7bc c7b1 d3bd 6f19 13bd 3a6a 31be
00000290: 5052 73bd 6ea2 f5bd e04e 9c3e 315e 2d3d
000002a0: ce65 0bbd ae58 db3d 5677 c8bd 2340 633c
000002b0: f89d 8dbd b6dc 083d edf4 663e 8159 683c
000002c0: a43c 7e3e 87df 553d a068 dc3d 1742 8fbc
000002d0: d7a7 32bc 4790 803e e104 fdbd cf91 0abc
000002e0: b47b fcbd 18af 02be 764f a03c 0e88 d1bc
000002f0: 38e6 293e 09c5 1dbe e653 9abd d14b 89be
00000300: 42ae 7b3d 2096 8e3d d4d8 973d ec1d 953e
00000310: 3a9e 0abe 9e98 573e 37ac d7bb 67bb 8cbd
00000320: ee99 dd3e 6c89 a83e c56d 0bbe 1978 f1bc
00000330: 578d 4fbe 4fca 6a3d f40c 5a3e fe88 803c
00000340: 3963 b43e a5a2 c7bd 05a1 163c 3f4d c1bd
00000350: 826d 153d 28e3 b03c 101b 863b 9e0d 85bd
00000360: a7e8 9dbd 2c1d 473d dac0 433d b0af 04bd
00000370: bbb3 80bd 7b0f 2b3d 59b3 84bb 03a2 ee3d
00000380: 7322 913b b755 97bd 7eea 0fbe a72e 8ebe
00000390: 3d08 1dbd 8407 4ebe 8bab e83c 5974 bd3c
000003a0: 0e6f 2a3e bddb b33e 168e e8bd b18d bdbb
000003b0: b255 393e c020 87bd bad7 2c3d 876a 693d
000003c0: d742 2c3e 2efb 2fbd 756a c83d a74b 85bd
000003d0: e139 9e3d 5c1e e7bc 5947 243c a13f d2bd
000003e0: 5071 cebd b3f1 67bd 1ef5 91bd 4191 be3c
000003f0: 4f3a 22be 4449 88bc eadf 36bd 3161 b13e
0.012287509 -0.15818761 -0.004000557 -0.13164069 0.30038232 0.032854617 -0.091019146 -0.07070475
-0.21670885 0.046169028 -0.14365306 -0.21510367 0.014984826 -0.22656867 0.24472332 -0.0587046
-0.03544911 0.36186007 -0.10983497 0.10626331 -0.38957796 0.036372337 0.057527013 -0.09854834
-0.11267537 0.111737825 0.012136053 0.016159909 0.03106247 -0.050821025 -0.09123696 -0.14171351
0.043018647 0.15488926 0.042506758 -0.19354515 -0.0052428655 0.17335024 0.013719744 0.15055768
0.020570612 0.012522537 -0.13809322 -0.059939243 -0.04428338 0.11113756 0.3528405 -0.03370644
0.105630435 0.08709217 -0.0023523325 -0.046558525 0.05715388 0.006347147 -0.16286 0.073680915
-0.039074898 -0.16918224 0.11251398 0.046499677 -0.116620734 -0.15661322 0.29207 -0.032434467
-0.033188835 0.11460623 0.09112438 0.27212206 -0.0012789229 0.25138474 0.037167594 0.11425186
0.031689025 0.016303934 -0.07324062 0.13331155 -0.04050631 0.12720554 0.058528375 -0.06547706
0.26777628 0.10085804 -0.021626778 -0.034813944 -0.16265555 -0.14415565 -0.0526674 -0.06676068
-0.07631778 -0.18546528 0.24561456 0.051534634 0.05392586 -0.039482277 0.15175258 -0.055675592
0.00078805763 -0.025685962 0.20197822 0.04017897 0.086907655 0.013382978 -0.09759482 0.013538416
0.17090227 0.24358703 -0.1439754 0.106146656 -0.052129947 0.001972916 0.16707133 -0.29996374
0.066583276 0.019205226 0.057862837 -0.1512271 -0.04477781 0.079988554 -0.13247809 -0.14189546
0.02331363 -0.022533096 -0.049370866 0.031421904 0.093712084 0.021000016 -0.0042607067 -0.058240954
0.001972388 0.10380532 0.13833426 0.012995497 0.020317672 0.13753903 -0.0071487227 -0.04684383
0.024015943 -0.056512117 0.024826245 0.059741676 0.23976953 -0.13080531 -0.023270365 -0.02626599
0.060544446 -0.029111806 -0.07241698 -0.024689207 -0.014941389 -0.06583152 0.023222884 0.0393764
0.047051556 -0.18223512 0.1787265 0.026070418 -0.05104512 -0.092460856 -0.030965442 0.013999473
-0.022369431 -0.10336643 -0.035912927 -0.17325678 -0.05940467 -0.11993872 0.30528927 0.042326156
-0.034032635 0.10710274 -0.097883865 0.013870272 -0.06914896 0.03341361 0.2255437 0.014181496
0.2482782 0.052215125 0.10762143 -0.017487569 -0.010904274 0.25110075 -0.12354446 -0.008457615
-0.12328282 -0.12762105 0.01956914 -0.025577571 0.16591728 -0.15407194 -0.075355336 -0.26815656
0.061445482 0.06962228 0.074144036 0.2912439 -0.13536921 0.21054313 -0.006581809 -0.06871682
0.43281502 0.32917345 -0.13616093 -0.029476212 -0.2026876 0.057321843 0.21294004 0.015690323
0.3523195 -0.09747819 0.0091936635 -0.09438562 0.036481388 0.021592692 0.0040925816 -0.06496738
-0.077103905 0.048611805 0.04779134 -0.03239411 -0.06284281 0.04176281 -0.0040497 0.11651995
0.0044291555 -0.07389396 -0.14054295 -0.27769968 -0.038337935 -0.20120054 0.02840211 0.023126768
0.16643927 0.35128585 -0.11355226 -0.005784713 0.18099096 -0.065980434 0.04219792 0.056986358
0.16822372 -0.042964153 0.0978593 -0.0650857 0.07725883 -0.028212719 0.010026776 -0.102660425
-0.100802064 -0.056626987 -0.071268305 0.023262622 -0.15842555 -0.016636498 -0.044647135 0.34644464

fc3.weight f4 [1, 256]
00000000: 8d31 11bb e7da e3bd 8d19 dc3c 3f0f a73d
00000010: d597 113e b702 af38 4fff 87bd 8fe3 453e
00000020: aba1 aabc c3eb 223d 6f51 ed3e c75f 25bf
00000030: 7dc1 bbbc 349e 09be 3949 01bd 5bf3 1a3b
00000040: bbf7 63bd 4350 2fbe e714 603d c890 9cbd
00000050: 1318 6cbf 3e85 56be 9488 9c3e 098b 2f3d
00000060: 1efb 96bd 2c99 933d bfa6 b8bb 4743 48bc
00000070: 5518 e4bd fe9b 323e e645 6fbd c67e be3d
00000080: 8a2e 7e3d e8a0 24be 0ee5 4cbe 6766 65bd
00000090: 5976 b33a 0825 b53d 7aff 46bc 49d8 3fbd
000000a0: 3cee de3c bf35 05be de1e 1cbd fde0 06bf
000000b0: 98fd 8dbd aae6 5ebe b9b5 cd3d 1da9 3b3d
000000c0: dc3b 22be 6fc4 04bc b179 b73c 13f6 f2bc
000000d0: 6979 32bd 2b26 38b9 4a5d db3d b4fd 48be
000000e0: 9888 f73c 833a 863b 8337 d1bc 6c57 5ebd
000000f0: 8160 7e3d 1c3a 07be e1ba 0c3e e5aa ca3c
00000100: d2c9 e6bc 57e7 54be 0f01 533d 1ad6 6a3e
00000110: 4c05 1abe 38f8 2a3d 8a2c ffbc af30 093e
00000120: 9bf7 2cbe f9f5 5a3d 35d6 19bd 2f48 4abc
00000130: 00a4 c73b 9e07 943d 98ce 4dbe 95a9 c3bc
00000140: 53a1 2d3e 8b77 07be 0346 383e 7ef0 8cbd
00000150: ba55 43be d986 a8bc 9cc7 293d e69c 4e3c
00000160: d543 503d c7d1 0dbf f0c6 933e f613 103d
00000170: c7b8 82bc 4cc5 1abc 8355 083e 7c43 973d
00000180: f3db 37bb c391 103d e3d6 3bbd 3dd2 c73e
00000190: b82c 5c3d 589d 503d 5664 84be 5470 8a3d
000001a0: 4027 57be 565b 213e 3133 803e c6fb f5bd
000001b0: 6dd9 fcbc bccc 3f3d d039 0cbe 31c4 453d
000001c0: 3c78 0dbd ef91 e2bc c1ef 90bd e118 95bd
000001d0: edcd e43b a856 3b3d 2462 113e d732 b73d
000001e0: a56f 5abc 0661 023d 156f cbbd c8e1 f4bc
000001f0: 809e 13bd 7ed0 3a3d 8f46 52bd 36b7 1d3d
00000200: af69 88bd 88df c23e aa34 8abe 9227 cbbd
00000210: 75c6 433a 7b88 7e3d 67e1 9d3d eb76 2bbd
00000220: d45c a0bd 887c 063d bddf 52bb 1ec2 2c3d
00000230: 41bb 4ebd d06e b63a 3307 2ebd 8350 1f3d
00000240: bfda 9d3d cfdd 92bd 2b5a dd3c 69d6 713d
00000250: 4bed d53c 3317 643c 920d d23d c091 41bd
00000260: 4abb 04bd 18b4 94bd a5c2 9e3d 29fd 5c3d
00000270: 7006 623d 5349 e0bd c725 193c 7f94 da3c
00000280: 78d8 d93b 218d 73bc 152b 473d da78 94bd
00000290: 1d4a 883d 373e 0cbd 27b3 65be d45f d63c
000002a0: 6a88 203d 0304 223e 2463 37bd f1cc db3d
000002b0: 3fef 38bc 9f0d 353c c1cc e83e 4525 71bd
000002c0: b2d7 c63d f89f b7be 3a75 8a3d 1b1f 3dbc
000002d0: 463b c6bd 1fa7 c63d d608 7abc b57c 223e
000002e0: 0317 cbbc 848e 04be 6493 bc3c 7b4b df3c
000002f0: 5847 993c 9de8 05be c32d 93bc d7f1 e8bd
00000300: 3d39 453d 0fd5 ba3e 6561 4b3c aa7c 9d3e
00000310: d117 8fbd 287a 1ebd 3428 8bbc 63b9 3dbb
00000320: 1f63 40be 540c 133e a674 0c3e 7c07 083d
00000330: 8a9c 02bf 26b2 713d 6014 1cbe 38e2 a43d
00000340: 71cb cb3d 9e82 4fbd 3dc5 843d f91c 483d
00000350: faf2 843d f085 023d af84 c5bc bb20 7fbd
00000360: 78b2 893e 61ee 4a3d fe05 78bd ca50 cfbb
00000370: 105f aebd f67a a13c 08a7 0a3e 1517 fabd
00000380: d8a9 16be f750 7b3c 7da7 8abe 025c 45bd
00000390: a944 43bd ea34 e13d 5ec4 c7bc 415e 543d
000003a0: f307 64be 2b07 32be af90 c7bc f6d5 93bc
000003b0: 8235 10bd 8d5a 65bd ad39 b43e ab0c 4f3d
000003c0: d6c8 5e3d 9d51 b73b 8a55 1fbe 5bcf 2ebd
000003d0: 1b74 003f fd50 3f3b 2390 393d d1b1 8cbd
000003e0: a6ad 793e 428f a8bc ee7a 9fbd 816f 30bd
000003f0: 01c3 7a3d 53dc a1be d3fd a9bd 2b5b 4d3e
-0.0022154779 -0.11125737 0.026867652 0.08157205 0.14218076 8.345156e-05 -0.06640493 0.19325088
-0.020829042 0.03977562 0.4635119 -0.6459927 -0.02291941 -0.13439256 -0.03156397 0.0023643586
-0.055656176 -0.17120461 0.054707434 -0.07644802 -0.92224234 -0.20949265 0.3057295 0.042857204
-0.073721156 0.072069496 -0.005635112 -0.012223071 -0.111374535 0.17442319 -0.05841627 0.09301524
0.0620561 -0.16077006 -0.20009252 -0.05600586 0.0013691887 0.08844954 -0.012145871 -0.046837125
0.027213208 -0.13008784 -0.038115375 -0.52687055 -0.06933135 -0.21767679 0.100444265 0.045815576
-0.15843147 -0.008103474 0.022396894 -0.029658353 -0.043572817 -0.00017561826 0.10711153 -0.1962803
0.0302165 0.0040963306 -0.025539165 -0.05428259 0.062103752 -0.1320576 0.13743164 0.024739692
-0.028172407 -0.20791374 0.05151468 0.22933236 -0.15041083 0.041740626 -0.031149168 0.13397478
-0.16891329 0.053457234 -0.0375578 -0.0123463115 0.0060925484 0.07228015 -0.2009834 -0.023884574
0.16956072 -0.13229196 0.17995457 -0.06881808 -0.19075671 -0.020572113 0.041450128 0.01261065
0.05084594 -0.5539822 0.28862715 0.035175286 -0.01595725 -0.009446453 0.1331387 0.073859185
-0.0028054684 0.03529526 -0.04585923 0.39027587 0.053753585 0.050931305 -0.258578 0.06759706
-0.21011066 0.15757498 0.25039056 -0.120109126 -0.030865395 0.04682611 -0.13693929 0.048282806
-0.034538493 -0.027657477 -0.070769794 -0.07280136 0.006982556 0.04573694 0.14197594 0.08945244
-0.013332282 0.03183081 -0.099332966 -0.029892817 -0.03603983 0.04560899 -0.05133682 0.0385048
-0.066607825 0.38061166 -0.26993304 -0.09919657 0.0007468232 0.062141877 0.07709008 -0.041861456
-0.078302056 0.032833606 -0.0032176815 0.042177312 -0.050471548 0.0013918523 -0.042487334 0.03889514
0.07707738 -0.07171213 0.027020535 0.059042368 0.026114127 0.013921547 0.102564946 -0.04725814
-0.032405175 -0.07260913 0.07751969 0.05395237 0.05518192 -0.109514855 0.009347386 0.026682137
0.0066481195 -0.014865191 0.04862507 -0.07249613 0.06654761 -0.03423902 -0.22431622 0.026168741
0.039192595 0.15821843 -0.044772282 0.10732449 -0.011287509 0.011050611 0.45468715 -0.058873434
0.09709109 -0.35864234 0.067606404 -0.011543061 -0.09679274 0.096998446 -0.015260896 0.15867884
-0.024791246 -0.1294499 0.0230195 0.027257672 0.018710777 -0.13077016 -0.017966157 -0.11374252
0.04815029 0.36490676 0.012413357 0.30759174 -0.069869645 -0.038690716 -0.016986944 -0.002894961
-0.18787812 0.14360172 0.13716373 0.033210263 -0.5102011 0.059007786 -0.15242147 0.0805096
0.09950913 -0.050661676 0.06482933 0.048855755 0.064916566 0.031866014 -0.02411112 -0.062287074
0.26893973 0.049543742 -0.06055259 -0.0063267695 -0.085142255 0.019711953 0.1354028 -0.12211434
-0.14713228 0.015339128 -0.27080908 -0.04818345 -0.0476729 0.10996421 -0.024385627 0.0518477
-0.22268657 -0.17385547 -0.024360983 -0.01804636 -0.03520728 -0.05599456 0.35200253 0.05054919
0.05439075 0.005594446 -0.15559974 -0.04267822 0.5017716 0.002919256 0.045303475 -0.06869853
0.24382648 -0.020576123 -0.07787119 -0.04307509 0.061221126 -0.31613407 -0.08300366 0.20054309
