TD3/models/actor_eps100_veh100_11e-2_8e-2_0.1_-2_12e-2.pth (torch, 275287 bytes, 5 tensors)

fc1.weight f4 [256, 8]
0	0x3e0b0908	0.13577664
1	0xbf0be5e5	-0.54647666
2	0x3dfdd248	0.123936236
3	0xbf2f702c	-0.68530536
4	0x3d4d1e11	0.0500775
5	0xbdcbd7e7	-0.099532895
6	0x3d38d37b	0.04512356
7	0x3e787fc7	0.24267493
8	0xbe8ff331	-0.28115228
9	0x3ea9efb2	0.33190686
10	0x3e2a23e1	0.16615249
11	0x3e4061e7	0.18787347
12	0x3dbcb649	0.09214456
13	0xbbdcaca3	-0.006734447
14	0x3f022691	0.508401
15	0x3bd7450b	0.00656951
16	0x3e18224f	0.14856838
17	0xbe6a1f42	-0.22863486
18	0xbd2059ed	-0.03914826
19	0x3eccefe8	0.40026784
20	0xbd678f22	-0.056532986
21	0x3cf938d9	0.030422615
22	0x3f6c01d3	0.92190284
23	0xbd2ab5a3	-0.04167713
24	0x3e1b2fbc	0.15154928
25	0x3e9eb313	0.30995998
26	0xbf825cf7	-1.0184621
27	0x3e4bcf34	0.1990326
28	0xbdd12439	-0.10211987
29	0xbc1d3221	-0.009594471
30	0xbf662f25	-0.89915687
31	0x3e893d13	0.26804408
32	0x3cc11702	0.023570541
33	0xbec68558	-0.38773608
34	0x3e82bc9f	0.2553453
35	0xbeb1aee4	-0.34703743
36	0x3e15fc1b	0.14646952
37	0xbc9d248a	-0.019182462
38	0x3fa12d42	1.2591937
39	0xbd42967f	-0.047506806
40	0xbefb1df5	-0.49046293
41	0x3eb2c5e6	0.3491661
42	0xbf5b71ad	-0.8572033
43	0x3e434437	0.1906899
44	0x3e16f1ac	0.14740628
45	0xbe321468	-0.17390597
46	0x3f6778f3	0.9041893
47	0x3e78d6b4	0.24300653
48	0x3ef8f105	0.48621383
49	0x3edbb4b1	0.42911294
50	0xbf6b4cfe	-0.91914356
51	0x3ee56f94	0.4481169
52	0x3e21c1eb	0.1579663
53	0xbe3abf88	-0.18237126
54	0x403a1089	2.9072592
55	0xbecb3d9f	-0.3969545
56	0x3ee1c318	0.44094157
57	0x3eaab0cc	0.3333801
58	0x3e03a30f	0.1285517
59	0xbecf33de	-0.4046926
60	0xbdb8d0be	-0.090241894
61	0x3e3ac291	0.18238284
62	0x3e9ef57b	0.31046662
63	0xbd39850e	-0.045292906
64	0xbcc42b8a	-0.023946542
65	0x3e5e7797	0.21725307
66	0xbf4908d3	-0.7852909
67	0xbe40fa89	-0.18845572
68	0x3d6d2a54	0.057901695
69	0x3d71748a	0.05894903
70	0xc03ed37e	-2.9816585
71	0xbce03317	-0.027368112
72	0xbd8fe4e5	-0.0702608
73	0xbd9c50d1	-0.07632602
74	0xbf361148	-0.7112012
75	0x3dcd4d1c	0.10024473
76	0x3ae6687c	0.0017578746
77	0x3c0573fb	0.008145328
78	0xc0206262	-2.5060048
79	0xbd648ee3	-0.05580033
80	0xbf0c96af	-0.54917425
81	0x3d9d9dc7	0.07696109
82	0x3f6e1751	0.9300433
83	0xbe89dfd0	-0.26928568
84	0xbc90b320	-0.017663538
85	0x3d0e4615	0.034734804
86	0x3fad1daa	1.3524678
87	0xbd85d727	-0.06535178
88	0xbf7f54bd	-0.99738675
89	0xbe3e930d	-0.18610783
90	0xbe4d959d	-0.20076604
91	0x3ebdae9f	0.37047288
92	0xbcd436db	-0.025905063
93	0xbd0cedc4	-0.03440644
94	0xbf63011a	-0.88673556
95	0x3e64933b	0.22321789
96	0xbe686dba	-0.22698107
97	0xbe3a61b1	-0.18201329
98	0x3ec0ac01	0.3763123
99	0x3e5bb6c9	0.21456446
100	0x3b93f8b8	0.0045157336
101	0xbce469c7	-0.02788247
102	0x3ef4c535	0.47806707
103	0x3ebc6d76	0.36802262
104	0x3dca8d6f	0.098902576
105	0xbe04514b	-0.12921636
106	0x3f190416	0.5977186
107	0xbf52f737	-0.8240847
108	0x3d94acd9	0.072595306
109	0xbd4e3bbe	-0.050349943
110	0xbff662b9	-1.9248878
111	0x3da3ebf6	0.0800399
112	0xbdd3fb57	-0.10350674
113	0xbcb5440a	-0.02212717
114	0x3f59df58	0.8510642
115	0xbd6cca18	-0.05780992
116	0x3cdcf1c8	0.026970759
117	0x3d1eef95	0.038802702
118	0x3ff1efd1	1.8901311
119	0xbec22f99	-0.3792694
120	0xbee57ef0	-0.44823408
121	0x3e71b19d	0.2360291
122	0xbd20291f	-0.039101716
123	0x3dd4c80c	0.103897184
124	0x3e18c7c0	0.14919949
125	0x3e1435e1	0.14473678
126	0xbf437846	-0.763554
127	0xbeecd840	-0.46258736
128	0xba82e3a5	-0.0009986056
129	0xbc88d15e	-0.016701397
130	0xbf04cc5f	-0.51874346
131	0x3dd568fa	0.10420413
132	0x3e66f769	0.22555317
133	0xbe6a2495	-0.22865517
134	0x3ff0ae0f	1.8803118
135	0x3c00bfaf	0.007858201
136	0x3ee104bc	0.43948925
137	0x3eaa77d6	0.33294553
138	0xbea6668a	-0.32500106
139	0xbe555105	-0.20831688
140	0xbdc4c624	-0.09608105
141	0x3d13fcb0	0.036129653
142	0xbffe0f09	-1.9848338
143	0x3e777108	0.24164212
144	0xbefb1d8d	-0.49045983
145	0xbd5e1d95	-0.05422743
146	0xbf0de88e	-0.55432975
147	0xbe1eac23	-0.15495352
148	0x3d4f5540	0.05061841
149	0x3d1ca7ce	0.03824597
150	0xbfda2226	-1.7041671
151	0xbefab774	-0.4896809
152	0x3e58ce6b	0.21172492
153	0x3e0833f4	0.13301069
154	0x3e724e5f	0.23662709
155	0xbe3dc7a0	-0.18533182
156	0x3e8469b0	0.25861883
157	0x3dd7301f	0.10507225
158	0x3f386852	0.7203418
159	0x3e229fef	0.15881322
160	0xbc382b44	-0.011240784
161	0x3ca84b25	0.020543644
162	0xbf15acb6	-0.5846666
163	0xbe2d41d4	-0.16919643
164	0x3c43a677	0.011941544
165	0x3e34c56b	0.17653434
166	0xc025ccc5	-2.5906231
167	0x3e58db98	0.21177518
168	0xbeeffdf3	-0.46873435
169	0x3e24b6a6	0.160853
170	0x3d838de8	0.06423551
171	0x3dc3db79	0.095633455
172	0xbddcfe6b	-0.10790714
173	0xbeb3baf5	-0.35103574
174	0xbe14317b	-0.14472
175	0x3c9bbed2	0.019011889
176	0x3ebe36c4	0.37151158
177	0x3dc3bea5	0.09557847
178	0xbf87bd9f	-1.0604743
179	0xbf03ed2e	-0.5153378
180	0x3b06f2ae	0.0020591426
181	0x3e10aa68	0.14127505
182	0xbf20cacf	-0.6280946
183	0x3d8cbfe7	0.0687254
184	0x3e2407aa	0.16018549
185	0x3ead2a71	0.33821443
186	0x3eaa49ad	0.33259335
187	0x3ec325e8	0.38114858
188	0x3ba29250	0.0049612895
189	0x3a910d11	0.0011066516
190	0x3fa69594	1.3014398
191	0xbd9b1848	-0.07572991
192	0x3ec4725f	0.38368508
193	0xbe9ca4cd	-0.30594483
194	0x3f2c2414	0.6724255
195	0x3e90e452	0.28299195
196	0x3bd978f2	0.0066367323
197	0x3cfe630a	0.031053085
198	0x3f82532f	1.0181636
199	0xbf18ad1d	-0.5963915
200	0x3e894964	0.26813805
201	0xbd88bbed	-0.06676469
202	0xbd0f786f	-0.035026964
203	0xbebd48b8	-0.36969543
204	0x3d3b7419	0.045765016
205	0x3e560914	0.209019
206	0x400b8038	2.1797009
207	0xbe9fb2e8	-0.31191182
208	0x3e487da7	0.19579183
209	0x3e89221f	0.26783845
210	0xbe8eebe3	-0.27914342
211	0xbc8c1d16	-0.017103713
212	0x3dbcbbd2	0.092155114
213	0x3c1cc893	0.009569305
214	0x3fb8f190	1.4448719
215	0x3e6aeded	0.22942324
216	0xbf0baf7f	-0.5456466
217	0x3de7aa6c	0.11311802
218	0x3f3a1819	0.7269302
219	0xbd552042	-0.052032717
220	0xbd1be7a6	-0.038062714
221	0x3dc79a05	0.09746174
222	0xc049d536	-3.1536384
223	0xbd869385	-0.06571106
224	0xbe24854c	-0.16066474
225	0xbe1defa5	-0.15423448
226	0xbe9f2c84	-0.3108865
227	0xbebaf857	-0.36517593
228	0xbd6b170a	-0.05739502
229	0x3dfdbbef	0.12389361
230	0x3e44f1d7	0.1923288
231	0xbe2188cf	-0.15774845
232	0x3ec24047	0.37939665
233	0xbe41186a	-0.1885697
234	0xbed5bbea	-0.4174493
235	0x3e885506	0.26627368
236	0x3e0d5864	0.1380325
237	0xbe606134	-0.2191208
238	0x3ed67612	0.41886955
239	0x3db1c3aa	0.08679898
240	0x3d73acdc	0.059491023
241	0x3e09b8d6	0.13449416
242	0x3e6a049d	0.22853322
243	0xbe01d897	-0.12680279
244	0x3e186e3b	0.148858
245	0xbc81f9d6	-0.015866201
246	0xbf81afe5	-1.0131804
247	0x3e1d7c37	0.15379415
248	0xbeb965fb	-0.36210617
249	0xbe48aa4a	-0.1959621
250	0x3d2f7bcd	0.042842675
251	0xbe42e41b	-0.19032328
252	0xbc3a5b03	-0.011374238
253	0x3ba4a902	0.00502503
254	0xbfccfa55	-1.6013895
255	0x3ecb3517	0.39688942

fc1.bias f4 [256]
0	0xbdad6406	-0.084663436
1	0xbd18a4d9	-0.037266586
2	0x3b6eb534	0.0036423923
3	0xbf01067e	-0.5040053
4	0x3eb49f79	0.35277918
5	0xbeb36ab9	-0.3504236
6	0x3e3cae7f	0.1842594
7	0x3e7bd8d4	0.24594432
8	0xbf075c46	-0.52875173
9	0x3d96dbaa	0.07366116
10	0x3f04c818	0.5186782
11	0x3b050218	0.0020295437
12	0x3eb3b5b6	0.35099572
13	0x3f54200f	0.8286142
14	0x3ee36c59	0.444186
15	0xbedb0cd0	-0.42783213
16	0x3e0787b2	0.13235357
17	0x3e50db6a	0.203962
18	0xbee4a62c	-0.4465803
19	0xbcc63955	-0.02419726
20	0xbef6bfe8	-0.48193288
21	0xbdb01ad9	-0.08598871
22	0xbf80133b	-1.0005869
23	0x3e8a1b9d	0.26974192
24	0x3ea847ed	0.32867375
25	0xbe8a7b8c	-0.27047384
26	0x3dec8019	0.1154787
27	0x3f1a7541	0.60335165
28	0xbea63e51	-0.3246942
29	0x3e510c87	0.20414935
30	0xbd0d4031	-0.034485046
31	0xbc90f5a9	-0.017695265
32	0xbea372c3	-0.31923494
33	0xbd1f1d51	-0.038846318
34	0xbd619bf0	-0.055080354
35	0xbe997e06	-0.2997896
36	0xbe8ac436	-0.27102822
37	0xbf11d0ad	-0.5695904
38	0xbdb92a59	-0.0904128
39	0xbe4c5a60	-0.1995635
40	0x3f706d35	0.93916637
41	0x3f26cf74	0.651603
42	0x3f53acff	0.82685846
43	0x3e01184f	0.12606929
44	0x3e205da7	0.15660726
45	0x3e0b954a	0.13631168
46	0x3e06a7b5	0.13149913
47	0x3d958dfb	0.07302471
48	0xbed9834c	-0.42482984
49	0x3f2bea3e	0.671543
50	0x3e65437e	0.22389027
51	0x3d46afc5	0.04850747
52	0x3f08ccb5	0.5343736
53	0xbe9192b1	-0.2843223
54	0xbf1b2599	-0.60604244
55	0xbe61636b	-0.22010581
56	0xbda4a53b	-0.08039328
57	0x3e57db33	0.21079712
58	0x3f857954	1.0427651
59	0x3fb9b75c	1.4509082
60	0x3f3f2f96	0.74681985
61	0xbd71eb55	-0.05906232
62	0x3e6602b0	0.22461963
63	0xbd930fde	-0.07180761
64	0xbd2a7ca2	-0.041622765
65	0x3e077300	0.13227463
66	0x3f79c4c5	0.9756587
67	0x3ebed598	0.37272334
68	0xbf6188c5	-0.8809932
69	0xbddc43f3	-0.10755148
70	0xbeb24058	-0.34814715
71	0x3e0411c3	0.128974
72	0xbea01010	-0.31262255
73	0x3ebdb260	0.37050152
74	0x3f1d4947	0.6143994
75	0xbe60cc0a	-0.21952835
76	0xbead0ee5	-0.33800426
77	0xbca9e64f	-0.020739703
78	0x3e843d9b	0.2582825
79	0xbe5a38e9	-0.21310772
80	0xbf78509a	-0.9699799
81	0x3f754cf0	0.9582052
82	0x3c8ba528	0.017046526
83	0x3f2b076d	0.66808206
84	0xbebe7b09	-0.37203243
85	0xbca15975	-0.019695977
86	0x3e37fbcd	0.17967148
87	0x3ea1fb16	0.31636876
88	0x3eecb4dd	0.46231738
89	0xbeace888	-0.33771157
90	0x3ee3f7f6	0.44525117
91	0x3c8e3724	0.017360277
92	0xbec28755	-0.37993875
93	0xbdf99c03	-0.1218796
94	0xbed6d6db	-0.41960797
95	0x3e62463a	0.22097102
96	0x3de5b25b	0.11215659
97	0x3f048e11	0.51779276
98	0xbeeb7d8f	-0.4599423
99	0x3f12a80a	0.5728766
100	0xbcb56b86	-0.022145998
101	0xbe0868b3	-0.1332119
102	0x3f4c38d6	0.79774225
103	0x3faedae1	1.3660547
104	0xbe119ce1	-0.14220001
105	0xbd8c18a3	-0.068406366
106	0x3dd6eddc	0.10494587
107	0xbee03123	-0.43787488
108	0x3d9192a8	0.071080506
109	0xbdb26848	-0.08711296
110	0x3e537302	0.20649341
111	0xbe241235	-0.1602257
112	0xbe96e6db	-0.29473004
113	0xbe81a635	-0.25322118
114	0x3f266ca7	0.6500954
115	0xbe8b11f5	-0.27162138
116	0x3f6235d4	0.88363385
117	0x3e7eaf35	0.24871524
118	0x3d2fceb7	0.042921748
119	0xbd6a743c	-0.057239756
120	0xbeed855f	-0.46390817
121	0xbe21fe2d	-0.15819617
122	0xbee3c63f	-0.44487187
123	0xbf8f72bf	-1.1206893
124	0xbc1e1f32	-0.009650992
125	0xbe2670ac	-0.16253918
126	0x3f977318	1.1831999
127	0x3effa891	0.49933293
128	0xbeb78b6a	-0.35848552
129	0x3e433cee	0.19066212
130	0xbea402b4	-0.32033312
131	0x3c25226e	0.010079009
132	0xbf33307f	-0.69995874
133	0x3f18cda7	0.596888
134	0xbe80170c	-0.25017583
135	0x3e96ae33	0.29429778
136	0x3eb4c77d	0.35308447
137	0x3ed10521	0.40824226
138	0x3f075ca5	0.5287574
139	0xbec87847	-0.39154264
140	0xbdad41cd	-0.08459816
141	0xbe94b2ad	-0.2904257
142	0xbe98a126	-0.29810447
143	0xbe7838b0	-0.24240375
144	0x3eba8b26	0.36434287
145	0xbea0c123	-0.31397352
146	0x3dd09619	0.10184879
147	0x3e9f0dce	0.3106522
148	0x3e34ef22	0.17669347
149	0xbe386eed	-0.18011065
150	0xbf31708f	-0.69312376
151	0x3e0f0221	0.13965656
152	0x3f4d1926	0.801165
153	0x3f07502e	0.5285672
154	0x3db789dc	0.089618415
155	0xbe9e18a3	-0.3087817
156	0xbf55cf65	-0.83519584
157	0xbd9a2fde	-0.07528661
158	0x3ff196e4	1.8874173
159	0x3f16236e	0.5864781
160	0x3eac2bac	0.3362707
161	0xbea36f8f	-0.3192105
162	0x3d6d2586	0.057897113
163	0x3de3bc61	0.11119915
164	0xbe21f2cf	-0.1581528
165	0xbe9e3bfc	-0.3090514
166	0x3e0a11d1	0.13483359
167	0x3e70f646	0.23531446
168	0x3cf0b9b0	0.029385418
169	0xbe8fbc44	-0.28073323
170	0x3c5aed0b	0.0133621795
171	0xbef64408	-0.4809878
172	0xbe8430c8	-0.25818467
173	0x3eb8a7fe	0.36065668
174	0x3eafcb9f	0.34335038
175	0x3df9bf37	0.121946745
176	0xbe8bf56a	-0.27335674
177	0xbf02e80b	-0.5113532
178	0x3efd8864	0.4951812
179	0x3cb45af5	0.022016028
180	0xbe0497e1	-0.12948562
181	0x3e0bd961	0.13657142
182	0xbea7cab4	-0.32771838
183	0xbeb23b30	-0.3481078
184	0x3db96ae2	0.090535894
185	0x3f84106f	1.0317515
186	0x3eff2f90	0.49840975
187	0xbea339ac	-0.31879938
188	0xbf13692e	-0.57582366
189	0xbf009c3c	-0.50238395
190	0xbe9709fc	-0.29499805
191	0xbda8213c	-0.08209464
192	0xbc507395	-0.012722869
193	0x3ed3dc99	0.4137924
194	0xbe59a23b	-0.21253292
195	0xbe662eea	-0.22478834
196	0x3edb764f	0.428637
197	0x3e106874	0.14102346
198	0x3ebc3f2f	0.36766955
199	0x3ef09843	0.46991166
200	0x3f03667f	0.5132827
201	0x3e3afd21	0.18260624
202	0x3f238c8a	0.6388632
203	0xbe50cb6d	-0.20390101
204	0xbe5bbf24	-0.21459633
205	0xbecff0c0	-0.40613365
206	0xbe23b731	-0.1598785
207	0xbf105a4e	-0.56387794
208	0x3e008319	0.1255001
209	0xbdf9766a	-0.12180789
210	0xbe0555ae	-0.13020965
211	0x3d61cf19	0.055129144
212	0xbec0c6b0	-0.37651587
213	0xbf6967d2	-0.9117404
214	0xbf18a434	-0.59625554
215	0x3e906fde	0.28210348
216	0xbe008aef	-0.12552999
217	0xbfbdcd45	-1.4828268
218	0xbcd6a1bd	-0.02620017
219	0x3eeb68e4	0.45978463
220	0x3e77e6ab	0.24209087
221	0xbf21cfa3	-0.63207453
222	0xbf802381	-1.0010835
223	0xbf01fbf1	-0.5077506
224	0x3ea3e7e3	0.32012853
225	0xbe724bd5	-0.2366174
226	0xbd5e9d30	-0.054349124
227	0x3e0bcecd	0.13653107
228	0xbea05b07	-0.31319448
229	0xbe9a299f	-0.3010988
230	0xbe84c10d	-0.25928536
231	0xbd9c85ec	-0.07642731
232	0x3db413e4	0.08792856
233	0xbe82e698	-0.25566554
234	0x3e40bec9	0.18822779
235	0xbefb392f	-0.49067065
236	0xbe836611	-0.25663808
237	0x3d9f061d	0.07764838
238	0xbd4d8f61	-0.050185565
239	0x3dcab43a	0.09897657
240	0x3eb814fa	0.35953504
241	0xbd987be8	-0.07445508
242	0xbf331fff	-0.699707
243	0xbe0764a5	-0.13221987
244	0xbdd34b50	-0.10317099
245	0xbee8a06b	-0.4543489
246	0x3f23f6db	0.64048547
247	0x3e72447a	0.23658934
248	0x3e408b50	0.18803144
249	0xbe08a031	-0.13342358
250	0xbe8e85cd	-0.27836457
251	0xbef9a750	-0.48760462
252	0xbecf3a1b	-0.40474018
253	0xbee53d2b	-0.4477323
254	0xbeb700a8	-0.35742688
255	0xbe8854be	-0.26627153

fc2.weight f4 [256, 256]
0	0x3d018e9e	0.03163015
1	0x3d89ebaf	0.06734406
2	0x3d9343d3	0.07190671
3	0xbd6a6826	-0.05722823
4	0x3cab8451	0.020937117
5	0x39f9a37b	0.00047614783
6	0x3c9f6680	0.019458055
7	0xbda2da5d	-0.07951806
8	0x3cd05d25	0.02543504
9	0xbd216394	-0.039401606
10	0xbc071ce3	-0.008246633
11	0xbe03d273	-0.12873249
12	0x3e9d6183	0.30738458
13	0x3e62b9b3	0.22141151
14	0x3d8b970f	0.068159215
15	0xbcf41c5d	-0.02979868
16	0x3d2ecaaf	0.042673763
17	0xbde80ffe	-0.11331175
18	0x3e04407f	0.12915228
19	0x3d21b8c3	0.039482843
20	0x3cd2e8e4	0.025745817
21	0xbb8c2ed7	-0.0042780447
22	0x3c9d222b	0.019181332
23	0x3ce63ede	0.02810615
24	0xbd922f76	-0.07137959
25	0xbcdcc3ca	-0.026948828
26	0xbd92b083	-0.07162573
27	0xbd95e847	-0.07319694
28	0xbd3098bd	-0.043114413
29	0x3d1db431	0.038501922
30	0xbb865395	-0.004099319
31	0xbeb0666f	-0.3445315
32	0xbaedb71e	-0.0018136238
33	0x3e11d2e0	0.14240599
34	0xbdc9fabf	-0.09862279
35	0xbd68b34d	-0.05681162
36	0x3d3e02b5	0.0463893
37	0xbdbe2020	-0.09283471
38	0xbc801e5c	-0.015639476
39	0x3e0fb587	0.14034091
40	0xbe31e938	-0.17374122
41	0x3d27554d	0.040852834
42	0xbebf6bd5	-0.37386957
43	0x3dd881f9	0.10571665
44	0x3d7bdb53	0.06148846
45	0xbd87a0d8	-0.066224754
46	0xbed268e2	-0.41095644
47	0xbae0dfe8	-0.0017156573
48	0xbe3b8fa2	-0.1831651
49	0xbda70d02	-0.08156778
50	0xbd8d47f6	-0.06898491
51	0x3d11879b	0.035529714
52	0xbe132610	-0.14369988
53	0x3e1c2b0b	0.15250795
54	0x3c0bf941	0.0085433135
55	0x3c74a8dd	0.014932838
56	0xbd2471a4	-0.04014744
57	0xbe82dbfc	-0.2555846
58	0xbc91d920	-0.017803729
59	0xbd1fc0ef	-0.039002355
60	0xbdfd1671	-0.12357796
61	0x3c32eef4	0.010921229
62	0xbd5ffafe	-0.054682724
63	0x3b937f91	0.004501291
64	0xbe44972f	-0.19198297
65	0xbe20981b	-0.15683024
66	0xbdb44a2c	-0.0880321
67	0xbd465899	-0.048424337
68	0xbd61e848	-0.05515316
69	0xbda2638e	-0.07929145
70	0x3d9f76a4	0.07786301
71	0xbb9a1c32	-0.004703068
72	0xbe94f637	-0.29094097
73	0x3d18d651	0.037313763
74	0x3d877cc2	0.066155925
75	0xbd627e97	-0.055296507
76	0xbd69a2a8	-0.057039887
77	0xbe8a8930	-0.2705779
78	0xbd31b338	-0.043383807
79	0x3d7afcd3	0.06127627
80	0xbdc7531c	-0.09732649
81	0xbe7ddbaa	-0.24790826
82	0x3bd349e1	0.006448016
83	0xbf3ac559	-0.7295738
84	0xbde79c53	-0.11309113
85	0xbd6c0e32	-0.057630725
86	0x3ddf0d8b	0.10891255
87	0xbc94d868	-0.018169597
88	0x3d9b7cbe	0.07592152
89	0xbd67ff9c	-0.056640252
90	0xbe7d7e22	-0.24755147
91	0xba1acede	-0.00059054594
92	0x3d721a14	0.0591069
93	0x3d6e9329	0.05824581
94	0x3d1219f6	0.03566929
95	0xbb81e969	-0.0039645922
96	0xbde7149f	-0.1128323
97	0xbb2c820a	-0.0026322627
98	0x3cda59fa	0.026654232
99	0xbc72b3e0	-0.014813393
100	0xbda2316d	-0.079195835
101	0x3cf9c2be	0.030488368
102	0x3dbfc99a	0.09364624
103	0xbe5dbb55	-0.21653493
104	0x3e4fa541	0.20277883
105	0x3e211010	0.15728784
106	0xbdd8e4c9	-0.10590512
107	0xbe2e2400	-0.1700592
108	0xbb936ca4	-0.004499035
109	0x3cf8fcea	0.030394036
110	0x3d67a15c	0.05655037
111	0x3d570230	0.05249232
112	0xbe10be0b	-0.14134996
113	0x3d401e4e	0.0469039
114	0xbd768f82	-0.060195453
115	0xbd193d0c	-0.037411734
116	0xbdea8958	-0.114519775
117	0x39d27469	0.00040141054
118	0x3b8528ab	0.004063686
119	0x3d7acdc8	0.061231405
120	0xbc2ab982	-0.010420205
121	0xbdca45b9	-0.0987658
122	0x3ccaf69d	0.024775798
123	0xbd801b86	-0.0625525
124	0xbd3f6c0f	-0.046733912
125	0xbf2e8cd0	-0.6818361
126	0x3d23f4fd	0.04002856
127	0x3d705cee	0.058682375
128	0xbdb86b90	-0.09004891
129	0x3d49a1bd	0.04922651
130	0x3d1fb19c	0.03898774
131	0xbd6f8a13	-0.058481287
132	0xbc835aa7	-0.016034437
133	0xbe97bb55	-0.2963511
134	0x3d52f08b	0.05149893
135	0x3bf153bc	0.0073647182
136	0xbe8fe859	-0.28106955
137	0x3db55988	0.08854967
138	0xbddab575	-0.106791414
139	0x3cebb6d1	0.028773697
140	0x3c039140	0.008030236
141	0xbd65150f	-0.055928286
142	0xbd34d2fc	-0.044146523
143	0x3d6e11bb	0.058122378
144	0xbc8aa3ac	-0.016923748
145	0xbef9912a	-0.48743564
146	0x3ec5be51	0.38621762
147	0x3bef3f7e	0.00730127
148	0x3e0263d2	0.12733391
149	0x3d852882	0.06501867
150	0xbe8400b2	-0.2578178
151	0xbe812b76	-0.2522847
152	0xbda111f1	-0.0786475
153	0x3e6e73d5	0.23286374
154	0x3cfe6a85	0.031056652
155	0x3d055544	0.03255202
156	0xbd51a89e	-0.051186197
157	0x3d201e42	0.039091356
158	0xbda8556a	-0.082194164
159	0xbc384f9b	-0.011249448
160	0x3dc2f50e	0.09519397
161	0xba732e00	-0.0009276569
162	0x3d509e7c	0.050932392
163	0x3b5c0cc7	0.0033576952
164	0xbdfc3608	-0.12314993
165	0xbe1bac02	-0.15202335
166	0xbe94dc46	-0.29074305
167	0x3d46ace4	0.048504725
168	0xbcc43f21	-0.023955883
169	0x3d282971	0.041055147
170	0x3d7c0b2c	0.06153409
171	0x3d584201	0.05279732
172	0xbd77fbf1	-0.060543004
173	0xba364719	-0.00069533434
174	0xbd33efb4	-0.04392977
175	0xbc51be58	-0.012801729
176	0xbaf81087	-0.0018925824
177	0xbe169e21	-0.14708759
178	0xbdab84bb	-0.08374926
179	0x3dbe1a71	0.09282387
180	0xbe08a5aa	-0.13344446
181	0xbda84ae8	-0.08217412
182	0xbe052ea7	-0.13006078
183	0xbd7a35f4	-0.06108661
184	0x3cb8c0c4	0.022552855
185	0xbe34ef10	-0.1766932
186	0x3d8eb307	0.069677405
187	0xbc886b43	-0.016652709
188	0xbceadc4b	-0.028669497
189	0xbcb01a94	-0.021497048
190	0x3d530e95	0.05152758
191	0xbcfc7b6f	-0.030820576
192	0xbd2c4338	-0.042056292
193	0x3dfce1ac	0.12347731
194	0xbd55dda7	-0.052213337
195	0x3e003eda	0.12523976
196	0x3d6b3cd3	0.057431053
197	0xbcba2703	-0.02272368
198	0xbe15595f	-0.14584874
199	0x3d129309	0.035784755
200	0xbe7188a7	-0.23587285
201	0xbd937f2c	-0.072019905
202	0xbc275340	-0.010212719
203	0xbe110e7e	-0.14165685
204	0xbd564af7	-0.052317586
205	0x3c84310f	0.016136674
206	0xbd43d0e0	-0.04780662
207	0x3d1de6b8	0.03855011
208	0xbe1abec8	-0.1511184
209	0x3d1c9c22	0.038234837
210	0x3d35cdb1	0.044385616
211	0x3df3abad	0.11897979
212	0x3dc24b5e	0.094870314
213	0xbe55d02d	-0.20880194
214	0x3e468d28	0.19389784
215	0xbd5846a7	-0.052801754
216	0xbcb161ff	-0.021653173
217	0xbcc11ecf	-0.023574261
218	0x3dbb6619	0.09150333
219	0x3d98b0e5	0.07455615
220	0xbd1f0cbf	-0.038830515
221	0x3d5404d6	0.051762424
222	0xbdd90d2f	-0.10598218
223	0xbdec339a	-0.1153328
224	0xbefa9d23	-0.4894801
225	0x3d34cb2d	0.044139076
226	0x3df8b1ff	0.12143325
227	0x3c87073c	0.016482942
228	0x3e36fe0c	0.17870349
229	0xbd21b496	-0.03947886
230	0xbee52532	-0.4475494
231	0xbe9154ef	-0.28385112
232	0xbcd1b56c	-0.025599204
233	0xbdfe5e07	-0.12420278
234	0x3e8d5280	0.27602005
235	0xbec2575d	-0.37957278
236	0xbd5afd87	-0.05346444
237	0x3d7136a9	0.05889002
238	0xba535fce	-0.0008063287
239	0xbd33315d	-0.04374825
240	0x3d02e07d	0.03195237
241	0x3d3923df	0.045200225
242	0x3c8c04fb	0.017092219
243	0xbd30e7d3	-0.043189835
244	0x3c95c1cc	0.018280886
245	0xbda303f6	-0.0795974
246	0xbc81a6d0	-0.015826613
247	0x3c4bad6b	0.012431483
248	0xbd083c6a	-0.03326074
249	0xbe699080	-0.22809029
250	0xbe2d5279	-0.16925992
251	0xb99734f5	-0.0002884042
252	0xbe376f2f	-0.17913507
253	0x3d01514c	0.03157167
254	0xbc4c03c9	-0.012452074
255	0xbdedf189	-0.11618335

fc2.bias f4 [256]
0	0x3ba3eed9	0.005002838
1	0x3cda1292	0.026620183
2	0xbbaf7bca	-0.005355333
3	0xbdc5b21a	-0.09653111
4	0xbd7b4953	-0.061349224
5	0x3cffc5c2	0.031222228
6	0x3dc3e6e8	0.09565526
7	0x3e5a27fd	0.21304317
8	0xbe9ef03b	-0.31042656
9	0x3c9bcc85	0.019018421
10	0xbc7ba070	-0.0153580755
11	0xbe121717	-0.1426662
12	0x3c9af76a	0.018916804
13	0xbdba0398	-0.09082717
14	0x3d1b0237	0.03784391
15	0xbd7a19f3	-0.061059903
16	0xbd0cc5e2	-0.034368403
17	0xbd62880a	-0.05530552
18	0x3c951e37	0.018202884
19	0x3d5cac38	0.053875178
20	0xbce9c3dc	-0.028535776
21	0x3cf8ed3f	0.030386565
22	0x3c980923	0.018559044
23	0xbe1f2534	-0.15541536
24	0xbd737bcc	-0.059444234
25	0xbc1b5671	-0.009481058
26	0x3e24f42c	0.16108769
27	0xbc639767	-0.013891078
28	0x3d8c7f8e	0.068602666
29	0xbc7f470c	-0.015580904
30	0x3e10a995	0.1412719
31	0x3bcd7f8a	0.0062713074
32	0xbbc4aa8d	-0.0060017765
33	0x3d95abe0	0.07308173
34	0xbc957f52	-0.018249188
35	0xbe20cc43	-0.1570292
36	0xbbb5a9c5	-0.0055439197
37	0x3d063951	0.032769505
38	0x3c7756bc	0.015096363
39	0xbd595cff	-0.053067204
40	0x3cafe185	0.02146984
41	0x3dcc2487	0.099679045
42	0xbc97e2a2	-0.018540684
43	0xbd040d59	-0.03223929
44	0xbbbd0d8a	-0.0057694362
45	0x3e6b8084	0.22998244
46	0xbda4745a	-0.08030005
47	0xbcf80b8a	-0.03027894
48	0xbc55e504	-0.01305509
49	0xbce80fd0	-0.028327852
50	0xbb58b136	-0.003306461
51	0xbd388137	-0.045045104
52	0xbd1b349c	-0.03789197
53	0x3ca6639f	0.020311175
54	0x3c6c8481	0.014435888
55	0x3db3a4ba	0.087716535
56	0xbd1d55d7	-0.03841194
57	0xbdfa56d8	-0.122235954
58	0x3deb2e99	0.11483497
59	0x3d3f3860	0.046684623
60	0x3c8ef366	0.017450046
61	0xbd5dc882	-0.054146297
62	0xbe24522d	-0.16046973
63	0xbec64297	-0.3872268
64	0xbd10303a	-0.035202242
65	0xbd1f07dc	-0.038825855
66	0xbe4f3116	-0.20233569
67	0xbd3c2681	-0.045935158
68	0x3dea72d2	0.114476815
69	0x3d2bd92e	0.041955166
70	0x3df1aca0	0.11800504
71	0xbd87252d	-0.065988876
72	0x3eab4ee2	0.3345862
73	0x3c8b4477	0.01700042
74	0x3dd5bba9	0.10436184
75	0x3d5edd7c	0.054410443
76	0xbd25e9f2	-0.04050631
77	0x3e383e7f	0.1799259
78	0x3c897cc5	0.016783128
79	0xbd7b407f	-0.061340805
80	0xbd7ded45	-0.061993856
81	0xbd9310c1	-0.0718093
82	0x3d247920	0.040154576
83	0xbc45754d	-0.0120518925
84	0xbdf0bfa1	-0.117553
85	0xbd08c270	-0.033388555
86	0xbd57b9c6	-0.0526674
87	0xbe3e361a	-0.18575326
88	0xbd84deae	-0.06487785
89	0xbe05cfcb	-0.13067548
90	0x3d0e45c3	0.0347345
91	0x3d9ce529	0.07660896
92	0x3c180f11	0.009280936
93	0xbd4fd8e5	-0.050743956
94	0xbd3b8cc8	-0.045788556
95	0xbd667b5b	-0.056269985
96	0xbee24455	-0.44192758
97	0x3d389f17	0.045073595
98	0x3ceac2a2	0.028657261
99	0xbe79ee04	-0.24407202
100	0x3cbf3808	0.023342147
101	0xbdacbc5c	-0.08434364
102	0xbd973648	-0.073834
103	0xbd016013	-0.031585764
104	0x3d5312be	0.051531546
105	0x3e215606	0.15755472
106	0xbd2ccde1	-0.04218853
107	0xbcb730e3	-0.022362178
108	0xbd5b7f9e	-0.053588502
109	0x3c4eb0ac	0.012615364
110	0x3d823591	0.06357873
111	0x3e0ccff5	0.13751204
112	0x3e14e54e	0.14540598
113	0x3e900ecc	0.2813629
114	0xbd803ffa	-0.062622026
115	0x3e7481b0	0.23877597
116	0xbd3a9692	-0.04555375
117	0x3e8a2d2d	0.2698759
118	0x3cd2d1ff	0.0257349
119	0xbc356c1c	-0.011073139
120	0xbd93a24c	-0.0720869
121	0xbd0abd03	-0.033871662
122	0x3d1d6c50	0.038433373
123	0xbe9413e6	-0.2892143
124	0x3bfbc5c8	0.0076834895
125	0x3d23f06a	0.0400242
126	0xbc0288fa	-0.007967228
127	0xbd9e1e8e	-0.077206716
128	0xbcc780d5	-0.024353424
129	0x3b4b6806	0.0031037345
130	0xbb09c385	-0.002102108
131	0x3dc2fb7b	0.09520622
132	0x3ce76ae8	0.028249219
133	0x3df736ba	0.12070985
134	0x3dc531cb	0.09628638
135	0x3d6d8a7a	0.05799339
136	0x3ca95b56	0.020673435
137	0xbcf90a68	-0.03040047
138	0x3cd40ee3	0.025886005
139	0x3d8391bd	0.06424282
140	0xbbf79ad2	-0.007556298
141	0x3e17db29	0.14829697
142	0x3c887a75	0.016659955
143	0x3d58e199	0.05294952
144	0x3d72708c	0.059189364
145	0xbe19219b	-0.14954226
146	0xbd8d3697	-0.06895178
147	0x3d068589	0.032842193
148	0x3c306d87	0.010768301
149	0xbce4bca5	-0.027921984
150	0x3e484794	0.19558555
151	0x3cb9ee0c	0.022696517
152	0x3d2dcc22	0.042431004
153	0x3cf6f4ee	0.030146088
154	0x3d90883a	0.07057233
155	0x3d13fd35	0.03613015
156	0xbd520256	-0.05127176
157	0x3e10a19b	0.14124148
158	0xbde40aa9	-0.11134846
159	0xbe38ab77	-0.18034159
160	0xbcba9578	-0.02277635
161	0xbde7f3ac	-0.113257736
162	0xbec11349	-0.37710026
163	0xbcc27c31	-0.02374086
164	0xbd0ff025	-0.03514113
165	0xbd8c9804	-0.06864932
166	0xbc95ebc3	-0.018300897
167	0x3e1381fa	0.14405051
168	0xbd0d21c5	-0.034456033
169	0x3dda00f0	0.1064471
170	0xbe3d43d7	-0.1848291
171	0x3d118e25	0.03553595
172	0x3d58ec68	0.05295983
173	0x3d0e9189	0.034806762
174	0x3e2bba85	0.1677037
175	0x3e550171	0.20801331
176	0xbde78911	-0.1130544
177	0x3b29b74b	0.0025896605
178	0xbd2e6548	-0.042577058
179	0x3cdd6886	0.02702738
180	0xbd3808bf	-0.044930216
181	0x3d88ad8e	0.06673728
182	0x3d57bd95	0.052671034
183	0xbe31c49e	-0.1736016
184	0xbe860cb9	-0.26181582
185	0x3e7ef068	0.24896395
186	0xbd8e06f0	-0.06934917
187	0xbbc27cd1	-0.0059352894
188	0xbc6cc5a3	-0.014451417
189	0xbe0a64c7	-0.13515006
190	0xbd6b9670	-0.057516515
191	0xbe83b07b	-0.2572058
192	0x3df7f6b7	0.12107604
193	0x3e4b1c44	0.19835001
194	0xbd298096	-0.041382395
195	0x3eb32d9d	0.34995738
196	0x3e17cfdb	0.14825384
197	0x3d449e06	0.048002265
198	0x3ead103e	0.33801454
199	0xbe0acea5	-0.13555391
200	0xbb470421	-0.0030367451
201	0xbe338192	-0.17529896
202	0xbe1f72f7	-0.155712
203	0xbcef0035	-0.029174903
204	0xbdb2f41e	-0.08737968
205	0xbd893280	-0.06699085
206	0x3ba8468d	0.0051353634
207	0x3c293219	0.010326886
208	0x3c852cc5	0.0162567
209	0x3c7714d3	0.0150806485
210	0xbe4c4da3	-0.19951491
211	0xbd0d477f	-0.034492012
212	0xbbe24c3f	-0.006906062
213	0x3dc423b7	0.095771246
214	0x3b69ee18	0.0035694893
215	0x3ceb1b91	0.028699668
216	0x3c288b6f	0.01028715
217	0xbe548217	-0.2075275
218	0x3d8f99e7	0.070117764
219	0xbc0a37a0	-0.008436114
220	0xbf2e47a5	-0.6807807
221	0xbdaa0570	-0.08301818
222	0xbdc62818	-0.09675616
223	0xbd858f1f	-0.06521439
224	0xbe4bce14	-0.19902831
225	0xbdd6db9e	-0.104911074
226	0xbe7f0df9	-0.24907674
227	0xbc1119f6	-0.008856287
228	0xbdd1342a	-0.10215028
229	0xbd87c360	-0.06629062
230	0x3cd176ee	0.025569405
231	0x3c9ae334	0.018907167
232	0xbdcd4e87	-0.100247435
233	0x3dfaf973	0.1225461
234	0xbc9beea9	-0.0190347
235	0xbd2eba68	-0.04265824
236	0x3d918307	0.071050696
237	0xbd4f3e01	-0.05059624
238	0xbbd6ed85	-0.0065590763
239	0xbd8488c1	-0.06471396
240	0x3d905be9	0.070487805
241	0x3eed31e6	0.46327132
242	0x3c909793	0.017650401
243	0xbd53d3f8	-0.05171582
244	0xbe6441fb	-0.22290795
245	0xbcf7a4f0	-0.030230016
246	0x3bed5233	0.007242465
247	0xbd1760d3	-0.036957573
248	0xbd84867b	-0.064709626
249	0xbb91a346	-0.0044445125
250	0xbe307850	-0.17233396
251	0x3dc02634	0.09382287
252	0xbdc839f1	-0.097766764
253	0x3dca4da1	0.09878088
254	0x3f130047	0.574223
255	0x3c6fa822	0.014627488

fc3.weight f4 [1, 256]
0	0x3cbd6b23	0.023122376
1	0xbf2c6023	-0.67334193
2	0x3cd638c0	0.026150107
3	0xbdac9737	-0.084272794
4	0x3df394fe	0.118936524
5	0x3abad130	0.0014253017
6	0xbeb98378	-0.36233115
7	0x3e4fcbf8	0.20292652
8	0x3dd80362	0.1054752
9	0x3d6f2d7e	0.058392994
10	0x3c2335cb	0.009961556
11	0xbda35e37	-0.079769544
12	0xbca6f713	-0.020381486
13	0x3e149e7b	0.1451358
14	0xbd2bf10d	-0.04197793
15	0xb93d8812	-0.00018075135
16	0xbd261627	-0.04054847
17	0x3fba6c8a	1.4564373
18	0x3bee42b6	0.007271136
19	0x3b6d8ed3	0.003624846
20	0xbd8b6aa2	-0.06807448
21	0x3d936a98	0.071980655
22	0x3d0197ff	0.031639095
23	0x3d022781	0.031775955
24	0xbd54aed5	-0.051924545
25	0x3cec3732	0.028834913
26	0xbd08e0d0	-0.033417523
27	0xbd88d55e	-0.066813216
28	0xbe5df01d	-0.21673627
29	0xbd2e21c9	-0.04251269
30	0xbd6c1329	-0.05763546
31	0xbd9c86ed	-0.076429226
32	0x3d557304	0.05211164
33	0xbd8e289f	-0.069413416
34	0x3dd0ffec	0.10205063
35	0xbd146e4e	-0.036238007
36	0x3b74a659	0.0037330596
37	0x3aaa779f	0.001300562
38	0xbc8160a2	-0.015793148
39	0x3e63a325	0.22230203
40	0x3c760e27	0.015018023
41	0xbf93e06f	-1.1552867
42	0xbd2139ff	-0.03936195
43	0xbe17179d	-0.14755102
44	0xbd27445f	-0.040836688
45	0x3e002d5e	0.12517306
46	0x3eef1c35	0.46701208
47	0x3d2d2449	0.042270932
48	0x3ae5d48a	0.0017534655
49	0x3bbac60e	0.0056998795
50	0x3cc0863e	0.023501512
51	0xbe80dd91	-0.25169042
52	0x3cebc4fb	0.028780451
53	0x3ae99de5	0.0017823545
54	0xbcd10a7a	-0.02551769
55	0xbd9db948	-0.07701355
56	0x3cf57d50	0.02996698
57	0xbde60dd2	-0.11233105
58	0xbd75cf5d	-0.06001221
59	0xbd653781	-0.055961136
60	0xbdb5b798	-0.08872908
61	0xbd3d6354	-0.046237305
62	0xbd79a0e5	-0.060944457
63	0x3d7b99e3	0.061426055
64	0xbcd83dae	-0.026396599
65	0x3d2366d6	0.039892994
66	0x3d18147e	0.037128918
67	0x3f5cefab	0.86303204
68	0xbd3dc905	-0.046334285
69	0xbdd879e8	-0.10570127
70	0xba303d3e	-0.0006722993
71	0x3e0211bb	0.12702076
72	0xbce4ef7f	-0.027946232
73	0x3d635b9e	0.055507295
74	0xbd17774c	-0.036979005
75	0xbd51f7d2	-0.05126173
76	0x3bc7a400	0.0060925484
77	0x3e51e426	0.20497188
78	0xbd191ee4	-0.037382975
79	0xbcaf1e98	-0.021376893
80	0x3ca4a247	0.020096911
81	0xbde068de	-0.10957502
82	0x3d3c02dc	0.045901164
83	0xbdd2e175	-0.10296909
84	0x3d4cc08a	0.049988307
85	0xbd6cc080	-0.05780077
86	0x3d29c79c	0.041450128
87	0x3bd44af8	0.0064786635
88	0x3b8ed77b	0.0043591834
89	0xbd74f71b	-0.05980597
90	0x3ccfc3b6	0.025361877
91	0x3cceaf8b	0.02523019
92	0xbea776fa	-0.3270796
93	0x3dc30fbd	0.09524486
94	0xbdfdeccc	-0.12398681
95	0x3caf2450	0.02137962
96	0x3d878e24	0.06618908
97	0x3da06f72	0.078337565
98	0xbd1e0433	-0.038578223
99	0x3d9804c8	0.07422787
100	0x3a4f72f1	0.0007913551
101	0x3dd963f3	0.10614767
102	0xbda5206d	-0.08062825
103	0x3d0c5d94	0.03426893
104	0xbd10d720	-0.03536141
105	0xbd5e7447	-0.05431011
106	0x3d27e3cd	0.040988732
107	0xbe621f82	-0.22082332
108	0xbd096166	-0.033540152
109	0x3d43626a	0.047701277
110	0xbcbcfb0a	-0.023068924
111	0xbd0ec66e	-0.034857206
112	0xbdf18900	-0.11793709
113	0xbe0dd969	-0.13852467
114	0xbd1cb74b	-0.03826074
115	0xbe26bf1c	-0.1628384
116	0x3bb486e6	0.005509245
117	0x3d9240e7	0.071412854
118	0x3d573e04	0.052549377
119	0xbdc00e3b	-0.09377714
120	0xbf78b71d	-0.9715441
121	0x3d0907bf	0.033454653
122	0xbea19046	-0.31555384
123	0x3d90ea22	0.07075907
124	0x3cfc9119	0.030830907
125	0x3d879648	0.06620461
126	0xbd3e4dc4	-0.04646088
127	0x3da7013a	0.08154531
128	0x3bd6e429	0.0065579605
129	0x3d24b661	0.040212993
130	0xbeb42982	-0.35187918
131	0x3db06806	0.08613591
132	0x3b29b275	0.0025893722
133	0xbd3e7fb8	-0.04650852
134	0xbe3ca471	-0.18422104
135	0xbf9f636a	-1.2452214
136	0xbc8dc115	-0.017303983
137	0x3d9cb2db	0.076513015
138	0xbe1c05f4	-0.15236646
139	0x3e63535e	0.22199771
140	0x3b860612	0.004090079
141	0xbd9b579a	-0.07585068
142	0xbdc24bdc	-0.09487125
143	0x3c8e614e	0.017380383
144	0x3cca8c9a	0.024725247
145	0x3c3d46d2	0.011552529
146	0x3e0059b6	0.12534222
147	0x3c192649	0.009347507
148	0x3d41131b	0.04713736
149	0x3b89f5c3	0.0042102053
150	0x3dc9590c	0.098314375
151	0xbd105acd	-0.035242844
152	0xbcecc771	-0.028903695
153	0xbd2a4680	-0.04157114
154	0x3cfc52e3	0.030801242
155	0x3dbf5ab6	0.093434736
156	0x3d628f15	0.055312235
157	0xbce8cd08	-0.028418079
158	0x3d48aeb5	0.04899474
159	0x3dfaab0b	0.12239655
160	0x3bbbf18f	0.005735583
161	0x3d883eaf	0.06652581
162	0x3e7ec5f2	0.24880198
163	0xbb1bd133	-0.0023775815
164	0x3e0bb2b8	0.13642395
165	0x3887a847	6.468646e-05
166	0xbd32dd9f	-0.043668386
167	0x3dd0360c	0.101665586
168	0x3d197eda	0.03747449
169	0x3d661699	0.056173895
170	0xbd2ab731	-0.04167861
171	0x3c43b092	0.011943953
172	0xbd3d9f99	-0.046294782
173	0x3c39298c	0.011301409
174	0x3e439437	0.19099508
175	0xbd0a756e	-0.033803396
176	0x3d92486b	0.07142719
177	0xbced1ac9	-0.028943436
178	0x3c3b718f	0.011440649
179	0xbc9123ce	-0.017717268
180	0xbd0525ef	-0.03250688
181	0x3d4ecbc6	0.050487302
182	0xbdaff3f3	-0.085914515
183	0x3d507977	0.050897088
184	0xbde451d6	-0.111484215
185	0xbda2d5c4	-0.07950929
186	0x3e8a9d86	0.27073306
187	0x3d8bdd15	0.068292774
188	0x3d75a9a0	0.05997622
189	0xbd73aaba	-0.05948899
190	0x3d45c8c0	0.048287153
191	0xbe17b464	-0.14814907
192	0xbc0f0646	-0.008729523
193	0x3e68c6ba	0.22732058
194	0x3cc6e48c	0.024278902
195	0x3e3bd128	0.18341506
196	0xbd1c3af2	-0.038142152
197	0xbd4449e5	-0.047922034
198	0xbc793911	-0.01521136
199	0x3c1edad8	0.009695731
200	0xbcea25b2	-0.028582428
201	0x3d7d10c5	0.06178357
202	0x3d9f8580	0.07789135
203	0x3d010e27	0.031507637
204	0xbc87558e	-0.016520288
205	0x3dedcc18	0.116111934
206	0x3b3ff413	0.0029289767
207	0x3e5a60fd	0.2132606
208	0xbcbe2dbd	-0.02321517
209	0xbd6fc561	-0.058537845
210	0xc0267138	-2.6006603
211	0x3cf1abec	0.029500924
212	0x3c89af75	0.016807297
213	0x3cab54e7	0.020914508
214	0xbcc185a0	-0.023623288
215	0xbefa2d59	-0.48862723
216	0x3d2eda09	0.042688403
217	0x3dfd51c1	0.12369109
218	0xbda0817d	-0.07837198
219	0x3d501b76	0.05080744
220	0xbf08875e	-0.53331554
221	0xbd8fa0ab	-0.07013067
222	0xbf695a4e	-0.9115342
223	0xbefa4d05	-0.48886886
224	0x3ec09061	0.37610152
225	0xbe1ded50	-0.15422559
226	0xbcbdfdc2	-0.02319229
227	0xbbbe0b13	-0.00579966
228	0xbe84f860	-0.25970745
229	0x3ba17ff2	0.0049285823
230	0xbcbae12b	-0.022812447
231	0x3d50159d	0.050801862
232	0x3d028679	0.031866524
233	0xbe622d7e	-0.22087666
234	0xbd1b4f2c	-0.0379173
235	0xbc7a00f5	-0.015259017
236	0x3cbadeeb	0.022811374
237	0xbd636f98	-0.055526346
238	0x3dc96d7e	0.09835337
239	0x3cdf40a4	0.027252503
240	0xbe184575	-0.14870246
241	0x3dd345d7	0.10316055
242	0xbd28b7bc	-0.041190848
243	0xbd1ca4c6	-0.038243078
244	0x3d8c6b95	0.06856457
245	0xbae2d121	-0.0017304757
246	0x3d31e876	0.043434583
247	0xbd303c46	-0.04302623
248	0xbdc9db6d	-0.09856305
249	0xbdb95191	-0.09048761
250	0xbf0ba8f1	-0.5455466
251	0xbcd411ee	-0.025887456
252	0x3d85985b	0.065232
253	0xbf06dc7d	-0.5268019
254	0xbdfa4cf3	-0.12221708
255	0x3e5f899d	0.21829839
