TD3/models/reward_s5e-2(-5, 1)_a32e-2_t(-2_0.1)_safe(3, -0.7)_2033.pth (torch, 275287 bytes, 5 tensors)

fc1.weight f4 [256, 8]
000000 10 4a 72 3e 96 5f 78 be 79 17 96 3e ca 67 fd be
       0.23661065 -0.24255213 0.29314783 -0.49493247
000010 ce e9 a2 be b6 1a 7f 3e 41 42 5b 3f 7b f1 68 be
       -0.31819004 0.24912533 0.8564797 -0.22748367
000020 a8 ad 02 3d 94 12 44 3e 97 34 09 be 88 01 ec be
       0.031903893 0.19147712 -0.13398968 -0.46094918
000030 36 fc 89 bd c6 16 4d bc f4 46 18 be 87 09 ea 3e
       -0.067375585 -0.012517637 -0.14870816 0.45710394
000040 41 76 1a bf 17 88 eb bd a2 4f 5e 3e e8 93 73 bf
       -0.6033669 -0.115005665 0.21710065 -0.9514756
000050 bd e5 d7 be e7 1c 9a bc be 0a aa 3e d4 78 18 3e
       -0.42167464 -0.01881261 0.3321132 0.14889842
000060 0b 46 da 3e 45 e0 b3 3b 92 79 45 be 5e 6a e9 bd
       0.42631564 0.0054893815 -0.19284657 -0.11397241
000070 bf 24 b6 bd 0f d0 b4 3d ea 5c be bf 31 22 51 3e
       -0.088937275 0.088287465 -1.4872105 0.20423199
000080 8a 82 ad be ed 97 dc 3c b6 6e a0 be fa 2d bb 3b
       -0.33888656 0.026927913 -0.31334466 0.005712268
000090 98 04 32 3e a3 f4 ba 3d 3d 4e 60 3f 99 41 88 be
       0.17384565 0.09128692 0.8761938 -0.26612547
0000a0 b9 6d c9 3e ea e6 e8 bd 6b e2 21 bd a7 7a 2c be
       0.39341524 -0.11372168 -0.03952257 -0.16843663
0000b0 1f e5 78 bd 6b f1 5d 3e bf e7 c7 be 44 f2 87 be
       -0.060765382 0.21674125 -0.39043996 -0.26552022
0000c0 7a 4d d9 3e 0f 4c 86 be c3 7d 64 be 54 97 85 be
       0.42441922 -0.26229903 -0.223136 -0.26092017
0000d0 e9 d2 9b bc 67 54 5c 3e bc 68 95 bf 74 ba 24 3d
       -0.019021468 0.21516572 -1.1672587 0.040216878
0000e0 50 c4 0c 3f 49 26 ba 3e 45 34 d9 3e 66 8b 7d 3e
       0.5498705 0.36357334 0.4242269 0.24760208
0000f0 4a 08 17 3c 18 29 84 bd 49 43 b3 be 27 05 79 3e
       0.009218285 -0.064531505 -0.35012272 0.24318372
000100 b2 a1 f9 3d 86 62 36 bb 0a 4a 4e 3f 0c fe ab 3e
       0.12189044 -0.002782972 0.80581725 0.3359226
000110 c7 1f eb 3d 90 13 86 bc 98 35 f5 bf 38 bd 4d bf
       0.114806704 -0.01636675 -1.915698 -0.8036685
000120 ac c9 26 bf 30 71 09 be da 80 3a 3e 8b 71 6c be
       -0.65151477 -0.13422084 0.18213215 -0.23090188
000130 af 1f 91 be c4 52 2b be 4d 50 89 3e fe c5 a6 3e
       -0.28344485 -0.16730791 0.26819077 0.3257293
000140 5f 6c f3 bd 90 fc 71 3c 1f 18 80 bd 6d 79 85 be
       -0.118859045 0.014769688 -0.06254601 -0.26069203
000150 6c 96 fb bd 9a 19 61 be b0 7d a1 3e 35 95 e2 bc
       -0.1228455 -0.21982422 0.31541204 -0.027659038
000160 9e f5 e6 bd 4f 09 f4 bd 93 3d 96 3d ff 93 04 3d
       -0.112773165 -0.11915838 0.07335963 0.032367703
000170 bd d4 d1 be 24 45 c8 be 0a 39 d9 3d f1 d5 f7 3d
       -0.4098262 -0.3911525 0.106065825 0.12101353
000180 a1 6d a4 be 45 e7 85 be 7d 12 b3 be 36 28 a3 be
       -0.3211489 -0.26153007 -0.34975043 -0.31866616
000190 8b 4b b6 3c 83 cd 31 be 87 2c a8 3d e6 48 f4 bd
       0.022252819 -0.17363553 0.08211618 -0.11927967
0001a0 27 35 17 bf 3c 22 9f bd 84 53 7b bd 75 3a 01 3f
       -0.5906548 -0.077702016 -0.061358944 0.50479823
0001b0 66 29 5d 3e 0e 48 a0 bd fd 98 19 3e 66 12 34 bf
       0.21597824 -0.07826243 0.14999767 -0.70340574
0001c0 c0 2c e3 be a9 cf 8b be cb f0 e8 be cf 40 1d 3f
       -0.4437008 -0.2730687 -0.4549621 0.61427015
0001d0 17 4a 45 be bd 9e 2c 3e 75 d1 a8 bf 4f 08 91 3e
       -0.19266544 0.16857429 -1.3188921 0.2832665
0001e0 04 5f 5a 3e 67 c4 5b 3d 21 3a 21 3f 61 7e 8b be
       0.21325308 0.0536541 0.6297932 -0.27244857
0001f0 ca cf 84 3c 94 52 b9 bd 85 26 c0 3d f5 1d e7 3e
       0.016212363 -0.09048954 0.09382347 0.45140043
000200 08 5f 09 3e 17 4c a1 3d ce 59 df bd ec 9d d2 3e
       0.13415158 0.07875841 -0.10905801 0.4113611
000210 ae 2b 68 bc 41 00 c9 bd 28 33 36 3f 55 9b 78 3e
       -0.01417057 -0.098145016 0.7117181 0.24278004
000220 ea 14 76 3d c4 8a 37 be 7c 3f 06 be 97 09 93 bc
       0.06007854 -0.17924029 -0.13110155 -0.017948909
000230 df 8a b0 be 76 74 1f ba ba a8 c1 3e b3 b7 1c 3e
       -0.3448095 -0.00060827227 0.3782404 0.1530445
000240 3e 9c 85 bd eb a3 a8 3e fc e4 aa be e2 e6 b1 3e
       -0.065239415 0.3293756 -0.33377826 0.34746462
000250 ca 25 ad 3c 30 3f 5e bd 75 97 a7 3d 7e 8b 5f be
       0.021136183 -0.05425948 0.08183185 -0.21830556
000260 39 16 8b 3e 42 05 77 3e a2 e9 26 3f ae 8c 9b 3d
       0.27165392 0.241231 0.65200245 0.07595192
000270 2d e7 23 3e b1 a6 d0 bd 01 be 98 bf b8 2b dc 3d
       0.16006155 -0.10188044 -1.1932985 0.10750526
000280 80 f3 e6 bd 8e 19 8a 3e 68 ed 23 3e a6 8d 20 3c
       -0.11276913 0.26972622 0.16008532 0.009799397
000290 92 5e 14 3e 0a 73 3c 3e 08 86 89 3f 53 ba db be
       0.144892 0.18403259 1.0744028 -0.42915592
0002a0 a9 2c 1b 3f 53 d6 08 bd c0 fc 86 bc 36 e5 28 3e
       0.6061502 -0.03340752 -0.016477942 0.16493687
0002b0 7b d1 a0 3d 48 56 c9 be c0 d1 b6 b6 26 19 3d 3e
       0.07852455 -0.3932364 -5.448441e-06 0.18466625
0002c0 c6 b6 31 3f 6c ab 8f bd f5 3d 46 bf 3d 36 6d be
       0.69419515 -0.07015118 -0.7743829 -0.23165222
0002d0 38 c1 db 3d fc 2a 8d bd e1 de 86 3f 08 d4 50 3e
       0.10730213 -0.06892964 1.0536767 0.20393384
0002e0 93 5b b4 be d2 eb 17 bf 19 80 37 3f b5 0a bb 3b
       -0.35226116 -0.5934421 0.71679837 0.0057080635
0002f0 b4 59 46 be be f3 c8 bd e3 df 5a 3f 99 9a 9c be
       -0.19370157 -0.09812115 0.85497874 -0.305867
000300 11 d8 b8 3e 11 54 40 be 34 0b 68 bd 3b cc b2 be
       0.36102346 -0.18782069 -0.05665131 -0.3492144
000310 d0 7a 0e be d6 74 2c 3e 55 af b9 3f f8 a2 03 be
       -0.13914037 0.16841444 1.4506632 -0.12855136
000320 cf 46 f3 bd 55 c3 0e 3e 4c a3 f6 be 22 e4 6b be
       -0.1187874 0.13941701 -0.4817146 -0.23036245
000330 0c ef 38 bd 06 e8 5c 3e db 78 b3 bf 80 e2 8b 3d
       -0.045149848 0.21572885 -1.4021257 0.06830311
000340 2f fe 2b 3d da 93 32 3e ce 12 1c 3d 4a c8 f2 bc
       0.041990455 0.17439213 0.03810387 -0.02963652
000350 11 84 56 be 58 b0 42 be 2e 4f 4a bd 91 4c 16 3e
       -0.20948817 -0.19012582 -0.049391918 0.14677645
000360 47 b2 57 be 9b 40 ce 3e 07 6d b9 be 9a 75 2b 3e
       -0.21064101 0.40283665 -0.36215994 0.1674408
000370 3f 95 2b 3c 5b 4f 87 3e 8f a7 41 bf 14 05 11 3e
       0.010472595 0.2642773 -0.756463 0.14162093
000380 cb 13 41 be f9 1d 13 bf e0 74 0f 3f 45 d8 f6 bd
       -0.18855207 -0.5746761 0.5603771 -0.12052969
000390 4e 1d 26 3e 5f 46 4b 3c c3 f1 10 c0 6a f3 37 bd
       0.16222116 0.0124069145 -2.264756 -0.044909872
0003a0 bf 09 8b be 13 de 84 be 5d 62 04 3f 91 a6 0c 3f
       -0.27155873 -0.2595068 0.5171259 0.5494166
0003b0 db ac f2 bc d4 8e 3c 3d b7 38 e0 be e6 19 4c bd
       -0.02962344 0.04603465 -0.4379327 -0.049829386
0003c0 72 6e ca be 0b f5 83 be ad 5c 12 3f 99 d6 db 3e
       -0.39537388 -0.2577289 0.5717266 0.42937163
0003d0 75 97 ae 3d 3a b7 a2 bd 82 2f 7a 3e de 93 b3 3e
       0.08524982 -0.07945104 0.24432185 0.3507375
0003e0 af 00 68 3d b1 f6 b4 be dc 86 b7 3e 66 9e c2 3d
       0.056641277 -0.3534446 0.35845077 0.09502868
0003f0 90 a8 71 3e bd 02 96 be a6 4c 27 3f 93 38 88 be
       0.23599458 -0.29298964 0.6535133 -0.26605663

fc1.bias f4 [256]
000000 62 fc 5c be 04 69 62 be 30 3a 88 bd 1d 4b f5 be
       -0.21580651 -0.22110373 -0.066517234 -0.4790887
000010 07 2d 17 bb cc d8 ec 3d 95 e6 83 be 4a 2d c4 3e
       -0.002306761 0.11564788 -0.25761858 0.38315803
000020 63 3d b3 3e 66 88 08 3f e1 73 7a 3e d3 50 e7 bc
       0.35007772 0.5333313 0.24458267 -0.028236782
000030 47 ad aa bd 93 31 58 bd 8c 88 da be da c7 8e 3e
       -0.08333831 -0.052781653 -0.42682302 0.2788685
000040 96 9d 5b 3e 86 c3 04 bf 14 46 03 be 96 2c 22 3f
       0.21446833 -0.51860845 -0.12819701 0.6334928
000050 d4 35 b5 be c5 00 4e be b9 57 c4 be 4c 27 3a 3f
       -0.3539263 -0.20117481 -0.38348177 0.7271621
000060 b3 d4 8a 3e 4b 07 0c bf 10 03 63 3e 72 4a b0 3d
       0.27115402 -0.5469863 0.22169137 0.08607949
000070 8b 88 5a 3e b5 00 81 3e dd b1 ed 3e da dd 27 3e
       0.2134115 0.25195852 0.4642476 0.16393223
000080 49 de f1 be 80 48 70 3d e3 66 9c 3e 62 b8 8c 39
       -0.47239903 0.05866289 0.30547246 0.00026840257
000090 87 3a 9b be f2 22 86 be 05 59 70 be a0 c9 19 be
       -0.3031809 -0.26198536 -0.23471458 -0.1501832
0000a0 ac 4c 75 3e cf a1 15 3f 0a 60 d1 be de 78 a0 3e
       0.23955029 0.58450025 -0.40893584 0.31342214
0000b0 42 8c c1 bc 2f e1 4d 3f 1b e7 4c 3e 82 14 84 3e
       -0.02362645 0.8042173 0.20010035 0.25796896
0000c0 f0 47 4b 3f fe f2 f3 3e 9a 71 74 3e 11 ca bb 3e
       0.7940664 0.47646326 0.2387146 0.36677602
0000d0 60 70 ce bd 2b 27 8c bd d8 05 4f be 3d 20 5f 3f
       -0.100800276 -0.06843408 -0.20217073 0.87158567
0000e0 ee 4b 68 3e 3c 6a 3d be 51 1a b0 be 58 48 5e bc
       0.22685215 -0.18497556 -0.34395078 -0.013567053
0000f0 1f 87 41 bf 2e 7c b4 3e aa 5b e6 3e 69 d5 88 3e
       -0.75596803 0.35250992 0.4499181 0.2672532
000100 cd 77 75 bf a3 36 37 3f 44 74 52 3e 62 ed 75 3f
       -0.95885926 0.71567744 0.20552164 0.9606534
000110 43 16 3b 3f 16 1d 3a be 14 19 47 3c cc af 6f bd
       0.73080844 -0.18175158 0.012151975 -0.058517262
000120 f4 03 70 3e a8 bd c2 be 42 28 fe 3a 67 82 34 be
       0.23439008 -0.3803532 0.001939066 -0.1762787
000130 98 fd 3c 3d 3e 72 19 3f 0d eb c6 bd b7 9a 99 3e
       0.046140283 0.59939945 -0.09712801 0.3000085
000140 a3 fa 20 be bb b4 9e be 43 4f 57 be 1b 18 7d bf
       -0.1572061 -0.3099726 -0.2102633 -0.9886491
000150 fa 91 54 3f d3 92 f8 3e ca 39 3d 3f 1e ab 86 be
       0.8303524 0.48549518 0.73916304 -0.26302427
000160 86 3b ee bc 8c ea 03 be ad 89 4f 3f f1 ee 4b 3f
       -0.029081117 -0.12882441 0.8106945 0.7966147
000170 35 00 cb be 08 fa a4 3d 68 df ac 3e 24 b1 29 3f
       -0.39648595 0.08055502 0.33764195 0.6628592
000180 d6 5a 27 be 33 35 0e 3e f2 e0 ff be ec 32 11 be
       -0.16343245 0.13887481 -0.49976307 -0.14179581
000190 5b c3 f0 3e e1 b9 11 bf d5 20 d9 bd 3a 05 78 bf
       0.47024044 -0.56924254 -0.10601965 -0.96882975
0001a0 d8 e2 97 be 5a 4c 9b bd be 12 bd 3f 6a c4 87 3e
       -0.29665256 -0.07582922 1.4771345 0.2651704
0001b0 06 39 2a bf 1a 54 fb be 95 15 19 bf db 9a 6a 3d
       -0.6649326 -0.49087602 -0.59798557 0.057276588
0001c0 59 40 4e bf 99 b7 84 3d 92 fe 57 be 29 37 29 3e
       -0.80566937 0.06480331 -0.21093205 0.16524948
0001d0 3f 2a 1e bf 2b 55 0e 3f 86 77 8b bf 8f 43 61 bf
       -0.6178321 0.55598706 -1.0895851 -0.8799371
0001e0 6c b5 86 bc 15 46 11 bb 42 6c a5 bf 41 6d 95 bd
       -0.01644393 -0.0022167016 -1.2923663 -0.07296229
0001f0 f5 1c 80 3d 4f 2d 15 bf 49 81 d8 be 9e 0e 35 3f
       0.06255523 -0.5827226 -0.42286137 0.7072543
000200 1b 0e 88 3b 81 ff cb bd 93 b8 ad be 42 c3 91 be
       0.004152072 -0.09960843 -0.3392988 -0.28469282
000210 01 4a bb be 4c 68 10 bf c3 58 c3 bd 4e 27 ee 3e
       -0.36579898 -0.56409144 -0.09538414 0.46514362
000220 9d 29 9e be 50 91 1b bc fa bc e3 be 4e 33 54 be
       -0.30891123 -0.009495094 -0.44480115 -0.20722696
000230 4e e7 0c bf a5 78 9c 3e 5b 40 96 be 56 0b dd bc
       -0.5504044 0.30560794 -0.29345974 -0.026982944
000240 02 ee 05 3d c2 ec c0 be 9e b4 19 3e ed 3e 4a be
       0.032697685 -0.37680632 0.15010306 -0.19750567
000250 7a e3 52 be c1 b6 0d be ed 81 93 3e 3c 5a 28 be
       -0.20594588 -0.13839246 0.28810063 -0.16440672
000260 12 df 06 3f 13 5d 83 bf d2 c3 c0 be 2e 99 87 bf
       0.5268413 -1.0262779 -0.376494 -1.0593622
000270 64 5f 81 be 56 69 0f b9 9c 1a 3c bf 73 14 af 3d
       -0.2526809 -0.00013676783 -0.734781 0.08548822
000280 a4 ba d6 bd 46 01 7b 3e 86 62 69 bf b0 aa 76 bf
       -0.104848176 0.24512205 -0.9116596 -0.963542
000290 b3 74 db 3d 37 75 a7 3e 90 66 4e be c7 b0 97 3e
       0.10715618 0.32706615 -0.20156312 0.29627058
0002a0 78 22 f1 3c 5a ad 37 3e 69 0e d9 be ba a0 42 3e
       0.029435381 0.17937222 -0.42393807 0.19006625
0002b0 d2 81 8b 3d 26 70 c3 3e b3 2a 84 3d 93 b1 61 be
       0.06811871 0.381715 0.06453457 -0.22040395
0002c0 e7 5a af be e3 6f 4b be 29 d6 b2 3e 6c 03 ec 3d
       -0.3424904 -0.198669 0.34929016 0.1152409
0002d0 f1 db 32 3f 8c 89 1f be b0 b1 c7 3e 09 0a 72 3f
       0.69866854 -0.15579814 0.39002752 0.9454656
0002e0 50 7c 23 3e 99 b4 29 3e a8 60 6e 3d 35 2a f3 3e
       0.1596539 0.16572799 0.058197647 0.4749314
0002f0 a7 2a af 3e 30 ee b1 3e 47 5b d9 3d 8d d9 13 bf
       0.3421223 0.34752035 0.10613113 -0.5775383
000300 05 f4 1b 3f 30 a9 8f be cd 55 f1 3e 15 95 ae 3d
       0.6091922 -0.28058767 0.47135773 0.08524529
000310 e1 75 f1 3e 1a 46 43 3e cf 5c a6 3f 76 0f c3 3d
       0.47160247 0.1906971 1.2997073 0.09524433
000320 4f c0 43 3e 12 bc 85 bf 90 8b 89 3e 88 45 aa bd
       0.19116329 -1.044802 0.2686429 -0.08314043
000330 97 b4 fe be ea c5 5a bd ea 6b ff be 57 cf ea 3c
       -0.49747154 -0.0534114 -0.4988702 0.02866332
000340 8c 0f 09 be bd 11 45 3e e0 65 06 bf 02 bd e2 be
       -0.13384837 0.19245048 -0.524992 -0.44284827
000350 ad 08 80 3f 58 bc 9a be c2 a6 87 3e 50 58 12 3f
       1.0002648 -0.3022182 0.26494414 0.57166004
000360 a9 42 ac 3d d8 1f 4c 3e b7 ac d7 3e 7d 8d 46 bf
       0.08411152 0.19934022 0.42123958 -0.77559644
000370 77 ad c5 be da 65 86 bf 4b 10 0e be e4 c1 1e 3f
       -0.38608906 -1.0499833 -0.13873403 0.62014604
000380 60 a5 ad 3e dd 00 31 be 1d 1e 28 bf 92 56 07 3e
       0.33915234 -0.17285486 -0.6567095 0.13216618
000390 92 ac fd 3e 28 1c a8 be 5e e3 f0 3e 36 7e ca be
       0.49545723 -0.32833982 0.47048467 -0.39549416
0003a0 54 ea d0 be 00 c1 15 bf 75 a0 c3 3e 9a 10 8f 3e
       -0.40803778 -0.5849762 0.38208356 0.27942353
0003b0 71 90 51 3f bc 94 61 3e bc d6 49 3e 6a 2b 37 be
       0.81861025 0.22029394 0.19710821 -0.17887655
0003c0 ed da 35 bd d5 df 23 3f c3 57 a2 bd 5b 6d bc 3e
       -0.044398237 0.64013416 -0.079268955 0.36802182
0003d0 cc c9 f3 3e b5 c5 79 be 51 a3 1e be 2b b6 40 3e
       0.47614896 -0.24391825 -0.15491988 0.18819492
0003e0 53 49 ab be db 0d a9 be 5e ac c1 bd fe 61 26 be
       -0.3345438 -0.33018383 -0.094567046 -0.16248319
0003f0 76 9f 1c bf 0a 8e 24 bd ba 7f 61 bd ba 85 99 be
       -0.6118082 -0.04017452 -0.05505345 -0.29984838

fc2.weight f4 [256, 256]
000000 06 f8 4a bd 01 8b 63 bd 13 40 82 3d 0a fa ae 3d
       -0.04955294 -0.055552486 0.063598774 0.08543785
000010 d0 c8 22 3d 7c a5 39 bd 5d fe 33 bd b1 87 1d 3d
       0.03974229 -0.045323834 -0.04394375 0.038459484
000020 df 91 7f bd 48 9b 07 bc 00 02 50 3d 4e 70 31 3c
       -0.062394973 -0.008276768 0.050783157 0.010829998
000030 d0 d7 96 bb cc 7d 40 bd 72 fa 9e 3d 15 2a c7 3c
       -0.0046033636 -0.04699497 0.077626124 0.024312058
000040 0d 75 98 bd 88 d2 33 be cb af 19 be 53 3f 99 3c
       -0.07444201 -0.1756078 -0.15008466 0.018706953
000050 b7 18 0e bd 04 bf c3 3c cc 46 35 3d a2 36 0c bd
       -0.03469154 0.023894794 0.04425697 -0.03423179
000060 e4 43 6a 3d cb ed 2f bc c4 bb 3e 3c 0f f7 16 bd
       0.05719365 -0.010737847 0.0116414465 -0.036856707
000070 e2 87 1d 3b 1d fe 73 3b 52 7e 5f bb d9 af 30 3d
       0.0024037291 0.003723032 -0.0034102392 0.04313645
000080 ea a1 5f bd 20 d9 09 3b bb 0f 19 bd fb c4 b1 bc
       -0.054597773 0.0021033958 -0.037368517 -0.021700373
000090 f5 3f d0 bd 38 47 2a 3d 59 4d f1 3c a5 9b b7 bc
       -0.10168449 0.041571826 0.029455828 -0.022413084
0000a0 2a 05 ed bb 71 6a 97 3d 0b d1 ac bc 30 24 2f 3c
       -0.0072332816 0.07393349 -0.021095773 0.01068978
0000b0 f6 4b 26 3d 46 46 42 be d9 a5 00 3e dd f0 0a 3d
       0.040599786 -0.1897212 0.12563266 0.03392111
0000c0 9f 85 33 bf 98 1f ef bc 48 26 d0 bc e0 80 db 3c
       -0.70125765 -0.02918987 -0.025408879 0.02679485
0000d0 3e c0 5f bb 30 7f 8c 3c 9b b9 81 3d 08 d6 01 3e
       -0.0034141685 0.017150491 0.063342296 0.12679303
0000e0 0f 25 eb 3d 92 0e d7 bc db 1d 38 be 24 2c 06 3c
       0.11481678 -0.026252065 -0.17980139 0.008189235
0000f0 2b b3 98 bd 10 44 cc 3d e0 28 ac bd 46 26 92 bf
       -0.074560486 0.099739194 -0.08406234 -1.141793
000100 cd 9b ab bd 8a c8 bb 3d 70 57 ae 3b 24 a2 4a be
       -0.08379326 0.09169109 0.005320482 -0.19788414
000110 38 9f 8f 3c df 68 08 3d d3 11 42 bd 78 11 9c 3d
       0.017531976 0.033303138 -0.04738028 0.076205194
000120 f9 63 8d bd a5 25 b6 3c ff 34 3f bc cb 1b 5b bd
       -0.06903834 0.022234747 -0.01167035 -0.053493302
000130 74 b4 a6 3c 60 ec 42 bd dc 16 9e 3d bf 2b 74 3c
       0.020349719 -0.047588706 0.07719204 0.014903008
000140 cb 05 a4 bd b1 45 d9 3d 82 ad c9 3c 08 c2 69 3d
       -0.080089174 0.10608996 0.024618868 0.05706981
000150 2e ee ca bd 94 e2 d1 bc 2e b2 58 3c 88 85 52 3c
       -0.099087104 -0.025620736 0.013226075 0.012849219
000160 66 ad 4e 3d 9e 04 6b 3d a0 9b aa bc ba c8 a1 bd
       0.050458334 0.05737745 -0.02082616 -0.07899614
000170 a2 1d 1f bd 19 34 14 3e a3 00 18 bd f4 25 99 3d
       -0.03884662 0.14472999 -0.037109982 0.07477942
000180 f0 f5 2d 3d 47 71 0d 3c 3a 1e e1 bc 20 dc 6c 3d
       0.042470872 0.008632964 -0.027480233 0.057827115
000190 10 18 54 3d 5a 1c 14 bd f3 d5 08 bc ba 86 98 bd
       0.05178076 -0.03615985 -0.008351791 -0.07447572
0001a0 21 71 04 bb 7c 79 df 3d da 71 0a bf dc 61 4d bd
       -0.0020209032 0.10911843 -0.54079974 -0.050142154
0001b0 64 d4 12 3d e4 48 3f 3d f7 f5 5d 3d 38 c4 22 3b
       0.035847083 0.046700373 0.05418965 0.0024836194
0001c0 77 0b 0d 3d 9e be 0e 3d 5c 22 55 bd 41 ec ec 3b
       0.03443476 0.034849755 -0.05203472 0.007230312
0001d0 a0 7a 94 3d e3 8d 89 3d ce 97 94 3b 05 35 09 bd
       0.07249951 0.06716516 0.004534698 -0.03349783
0001e0 5c 10 7a bd d8 e6 44 3d 0d 26 9a 3d f6 23 e3 bd
       -0.061050758 0.048071712 0.07526789 -0.110908434
0001f0 99 80 c5 bc d5 39 59 3c f4 54 fc 3c ec f6 12 bc
       -0.024109172 0.013258417 0.030802228 -0.008970004
000200 80 e5 0f 3c 9f 3f 35 3d 1e 34 15 bd b8 1b ac 3b
       0.008782744 0.044250127 -0.036426656 0.005252328
000210 44 e5 95 bd b4 2a f9 3c af 1d 83 bd 76 5d ac 3d
       -0.073191196 0.03041587 -0.06402146 0.08416264
000220 8b 78 1d 3d a0 42 2c bb 2d 5d 31 3d 92 bc 2b bc
       0.038445037 -0.0026284829 0.04330175 -0.01048197
000230 ca 15 06 3e 5b 2d d1 3c 4f c7 15 bd 3a 12 24 3c
       0.1309425 0.025534322 -0.03656703 0.010014111
000240 29 a4 1c 3d 05 c2 96 3d 5a 8c d8 3c ba 2d 4f be
       0.038242493 0.07361225 0.026434112 -0.20232287
000250 47 1b 0c 3d 28 08 d2 3c a4 15 15 bd 5c 4a 88 bc
       0.0342057 0.025638655 -0.03639759 -0.01663702
000260 e9 d2 aa be 20 97 61 3d 15 58 df 3d 3c c3 47 3c
       -0.33364037 0.055075765 0.10905472 0.012192544
000270 a3 7f 1d 3d ff cb e2 3d 59 78 47 bc 92 89 5e bd
       0.038451802 0.110740654 -0.012174689 -0.054330416
000280 c3 79 1b 3c 31 a9 34 bd 53 12 77 bc ae e8 1d 3d
       0.0094894795 -0.044106666 -0.015080052 0.03855198
000290 7b b1 23 3d b9 dd a5 bc ca c6 23 3d d7 9b 98 bd
       0.03996418 -0.020247327 0.039984502 -0.07451599
0002a0 a8 2c 2e 3c 68 10 0e bd 8e 87 ba bd aa 1c 35 bd
       0.010630764 -0.034683615 -0.09107886 -0.04421679
0002b0 e4 4d 9f 3c 92 3e 83 3b 2f c6 c2 3c 94 96 78 bd
       0.01944632 0.0040052617 0.023776142 -0.060690477
0002c0 b4 19 27 3d 6a 6e 8b 3d 6d ea 66 bd 48 fe 08 3e
       0.040795997 0.06808169 -0.05637591 0.1337825
0002d0 65 75 1d bc 7b ca ce bd a5 0a 02 3d 2c ab ba bc
       -0.009610509 -0.10097214 0.031748433 -0.0227867
0002e0 d8 9f 72 3d 42 9d 28 3e b1 e9 1d bd 2e 33 13 bd
       0.05923447 0.16466239 -0.038552944 -0.03593748
0002f0 68 08 e6 bc 26 e3 ef bc 8d 88 5b 3d 92 f1 cb bd
       -0.02808018 -0.029283118 0.05359702 -0.09958185
000300 c4 dc 00 bd 43 83 d5 3c aa 8f 40 3d 13 d9 d8 3b
       -0.03146054 0.026063567 0.04701201 0.006617674
000310 cb d7 c1 3a 4d 43 86 3c 74 f2 96 bd 92 56 8f 3d
       0.0014789043 0.016389513 -0.07370463 0.06998934
000320 56 90 96 3e fa d8 13 3e 32 f8 3b 3d aa df 6c bc
       0.29406995 0.14438239 0.045890994 -0.014457623
000330 b2 77 cf 3d 38 31 35 ba cc 9d fa 3c e7 4f 54 bd
       0.10130252 -0.0006911936 0.030592822 -0.051834013
000340 ce d1 1b 3c dd 50 db 3d 65 d5 89 3c bb 8f 5e 3c
       0.009510471 0.10708783 0.016825387 0.013584073
000350 0d 14 98 3d b6 20 06 3e ab d2 1b bc 44 2b 35 bb
       0.074256994 0.13098416 -0.009510676 -0.0027644197
000360 b5 a0 8e bd 1b ad 41 3c 2f 9e 00 be 4a 07 1f 3c
       -0.06964246 0.011821057 -0.12560342 0.009706328
000370 43 ce 20 3d 3b 11 91 3d 57 8e c6 bd 97 b4 6b 3d
       0.039259207 0.070833646 -0.09695118 0.05754527
000380 d3 3a 6c 3d 7f 88 ed 3c 8d 42 8f bd 23 84 8c 3d
       0.057673287 0.02899575 -0.069951154 0.068611406
000390 d2 58 e2 bb ce 60 d7 3d d9 f8 ad 3d 2f e2 b3 bd
       -0.006907561 0.10516511 0.084947295 -0.087833755
0003a0 a4 01 8b bd a7 4f c0 bf ec f4 2a 3d e2 9b 39 3b
       -0.06787422 -1.5024308 0.041737482 0.0028321673
0003b0 b4 1c b4 bd fe d7 84 bd ff 7f ad bd 91 5a 05 bd
       -0.08794537 -0.0648651 -0.08471679 -0.032557074
0003c0 59 a9 77 3d 33 b2 ae bd cf 90 9f 3c 30 4b 96 3d
       0.060464237 -0.085300826 0.01947823 0.0733856
0003d0 e1 00 3a 3c 4f 43 00 3e 99 b1 c3 bc 03 ff 5d 3d
       0.011352749 0.12525676 -0.023888396 0.054198276
0003e0 d6 3d 08 3d 22 fb 91 3c 23 f5 97 3c 20 80 98 3d
       0.033262096 0.017819945 0.018549507 0.07446313
0003f0 23 32 68 bc 8f 8c ec 3d 21 ec 19 3d b1 14 3d 3d
       -0.01417211 0.11550247 0.037578706 0.04616231

fc2.bias f4 [256]
000000 3c 42 83 3c 7c 06 19 bc 7f e6 a9 3e 81 4f 01 3e
       0.016022794 -0.009339925 0.33183667 0.12627985
000010 31 5b 68 bb 8b 07 ef bc 53 7e 61 be 77 79 de 3d
       -0.0035454745 -0.029178401 -0.22020845 0.10863011
000020 23 a4 d4 bc be 6c f9 bd 0b 44 8f 3c d9 19 e4 bb
       -0.025957173 -0.12178944 0.0174885 -0.006961089
000030 77 51 02 3c f4 02 95 3e 53 6f 8a bd 18 d6 44 bd
       0.007953993 0.29103816 -0.06759515 -0.04805574
000040 bc b2 31 be 33 f3 32 be 46 cf 86 bc 18 24 0c 3d
       -0.17353338 -0.17475586 -0.016456258 0.03421411
000050 b6 3c d8 3d 2f a4 18 be d5 86 44 be 03 6a 57 3e
       0.10558455 -0.14906381 -0.1919206 0.21036534
000060 ec 8e d1 bc c9 ee d6 bc 29 16 85 bd b9 ff 39 be
       -0.025580846 -0.026236909 -0.06498367 -0.18163957
000070 4e 7d 6a be c4 6d 3a 3e f7 f7 cd 3c 13 62 60 be
       -0.22899362 0.18205935 0.025142653 -0.21912412
000080 35 d2 a4 bc cc 79 63 3d 71 3e bb 3e 83 84 7e bd
       -0.020119766 0.055536076 0.36571077 -0.06213809
000090 bb dc ba bd 6a 08 53 3e e4 20 bd 3c 98 b2 82 bb
       -0.09124132 0.20608678 0.023086973 -0.003988575
0000a0 55 dd 2d bd c4 f0 1a bd b4 76 73 3c f5 58 77 be
       -0.042447407 -0.03782727 0.014859844 -0.24155028
0000b0 22 ff 5d be f4 40 61 3d ea f7 58 3c 46 c0 70 3d
       -0.21679357 0.054993585 0.013242701 0.058777116
0000c0 98 0d 97 bc e6 59 75 bd 35 8f 20 bd e2 f3 bb bd
       -0.0184391 -0.059900187 -0.039199073 -0.09177376
0000d0 2f c1 0f 3d 03 cf a1 be 49 ab 70 bd 4a d2 2c 3b
       0.035096344 -0.3160325 -0.0587571 0.002637046
0000e0 4a 00 20 3d 11 37 6f 3d 5d 41 a4 bc 59 a3 02 3d
       0.039062776 0.058402125 -0.020050699 0.03189406
0000f0 58 25 07 be ed a3 e0 3c 1e 7c 1d 3e db c5 06 bd
       -0.1319784 0.027421916 0.15379378 -0.032903533
000100 59 7a 26 bd 50 a0 88 be fb 59 d0 bd 6e 11 a9 3d
       -0.040644024 -0.2668481 -0.101734124 0.082552776
000110 09 e0 58 bd 75 36 a3 bc 22 fe f2 bd db b5 01 3d
       -0.05294803 -0.019923428 -0.11864878 0.03166757
000120 59 f2 18 3d 41 5a c3 3c 17 bd bc 3c 16 bb 7d 3c
       0.037340496 0.023846747 0.023039384 0.015486499
000130 c6 43 d3 bc cf 76 46 bd a7 8a 80 bd 13 c1 0c 3e
       -0.025789153 -0.04845315 -0.06276446 0.13745527
000140 85 e9 a5 be 41 ce b1 3d e0 64 26 3d af 4e 8f 3c
       -0.32404724 0.08681918 0.040623546 0.017493574
000150 04 92 1c bc 8f cc 84 3d d9 10 93 bd 93 50 1f 3b
       -0.009556297 0.06484329 -0.07180948 0.00243095
000160 06 b1 1f bd 98 c6 60 bc 69 2f ef 3b c6 6c 6c bd
       -0.038987182 -0.013719223 0.007299353 -0.057720922
000170 8a 89 6f bc ff d7 f8 bc ee b6 7b 3e 72 73 be bc
       -0.014620194 -0.030376432 0.24581501 -0.023248408
000180 2b 24 07 3d 6c c5 83 bd 00 d5 eb 3a 79 ca 82 bd
       0.032993477 -0.064341396 0.0017992556 -0.06386275
000190 6e dd 63 be 5b a4 3d be 10 75 09 3f 59 23 2c bd
       -0.22252437 -0.18519728 0.5369425 -0.042025898
0001a0 b7 2f f2 bc 9a 33 02 bd 08 16 0a bd 6e f6 84 3d
       -0.029563768 -0.031787492 -0.033712417 0.06492315
0001b0 bc ea 17 be e6 66 1c 3d e3 41 00 3d 17 98 ad 3a
       -0.14835638 0.03818407 0.031312834 0.0013244179
0001c0 0b 28 06 3d b8 7e 1c 3d 50 2a 54 3b 3e 5f fe bd
       0.03275303 0.038206786 0.0032373853 -0.1242051
0001d0 9f 94 aa be 19 e9 92 bd 70 61 ca 3b 18 27 b4 3d
       -0.33316514 -0.07173366 0.0061761662 0.08796519
0001e0 c9 f4 37 3c f9 24 e8 bd 79 75 0c ba 9d 90 ea bc
       0.011227795 -0.11335177 -0.0005358081 -0.02863341
0001f0 0b 48 e6 bc 05 2c 60 be 65 11 2d bd 32 f8 bc be
       -0.028110525 -0.21891792 -0.042252917 -0.36908108
000200 1d 03 c4 bc 15 0c 52 bd 2e 9b 06 3e bf 08 c0 3e
       -0.023927266 -0.051281054 0.13145134 0.37506673
000210 bf fe c5 3d a8 18 aa 3d 03 52 42 bc c7 29 fd 3c
       0.096677296 0.08305484 -0.011860373 0.03090371
000220 fd 7f 42 3d e7 1d c4 3e fe 5d b8 bc 5f c2 cd 3e
       0.04748534 0.38304064 -0.022505756 0.40187356
000230 60 97 85 bd c0 d6 33 bd ee 9b 79 bd 2f c0 6a be
       -0.06523013 -0.043905973 -0.06093972 -0.22924875
000240 c9 76 ce be f7 59 18 3c 59 f0 44 be 7f 21 13 bd
       -0.40325 0.009298793 -0.1923231 -0.035920616
000250 50 f1 fd bd 33 e1 0c bc 5f 0d 68 3d 49 5a 41 bd
       -0.12399542 -0.008598614 0.056653377 -0.047205243
000260 8d 55 cf 3c e7 a5 41 3e 60 37 9b bc 9c 25 d1 3c
       0.025309348 0.18910943 -0.018947303 0.025530629
000270 47 8c c8 bb 7c 89 97 bc 70 83 9a bb eb 51 4f 3c
       -0.006120238 -0.018498175 -0.0047153756 0.012653808
000280 74 11 4b bc b7 17 93 3c 59 eb 0b 3d cc de e9 3b
       -0.012394298 0.017955644 0.034159992 0.007137155
000290 b2 47 37 bd b0 1f 1c bd 91 fa a7 bc 46 aa 14 3e
       -0.04474611 -0.038116157 -0.020505222 0.14518079
0002a0 9e ad 18 3d af cb 21 3c eb 88 1c bc c3 f6 84 bc
       0.03727495 0.009875222 -0.009554128 -0.016230946
0002b0 ab 2c b9 3d 60 e1 e4 bd 0c 5e 96 3e c1 1f 8c bd
       0.09041723 -0.11175799 0.29368627 -0.06841994
0002c0 1a f6 5c bd b4 60 90 3c 23 4f 13 be 4e 5e 3b be
       -0.05394564 0.017624237 -0.14385657 -0.18297693
0002d0 71 ec 71 3b cf 5f 1f bd 5b ef 70 be d0 e9 7b 3d
       0.0036914612 -0.03890973 -0.23528807 0.061502278
0002e0 70 d8 01 3e 1f 84 2e be 34 39 73 bd 7c 9a 91 be
       0.1268022 -0.17042588 -0.059380725 -0.28438175
0002f0 f4 0c 9c bc 9b 4c f1 3d 5f ef 16 bd 43 8f 1b 3d
       -0.019049145 0.117821895 -0.036849376 0.037978422
000300 03 b3 b3 3d c8 a9 f9 bb 5d 6e c4 bd 5d 7a 10 3e
       0.08774378 -0.0076191165 -0.095913626 0.14109178
000310 53 2f dc bd e0 77 76 bd 8b 47 2a 3d 22 82 9c bd
       -0.10751214 -0.060172915 0.041572135 -0.07642008
000320 c3 7b 7d 3b 09 aa 4a bd 9e 73 4b bd 37 1f c8 bc
       0.0038678504 -0.049478564 -0.049670808 -0.024428947
000330 b0 ba 6b bc f0 9d 83 3e a2 da 23 bc b1 62 61 bd
       -0.0143877715 0.25706434 -0.010000857 -0.05502576
000340 77 82 bc bc 37 2a 08 bd 30 69 b5 3b f0 e9 a5 bc
       -0.02301143 -0.033243384 0.005536221 -0.020253152
000350 b0 94 27 bd ca 08 2e be 14 38 07 3d ff d2 2f 3e
       -0.040913284 -0.1699554 0.033012465 0.17170332
000360 f6 58 af bd 58 71 b4 bd 26 28 86 bd ba 2e 85 3e
       -0.0856189 -0.08810681 -0.065506265 0.26012212
000370 50 1f 91 3c 1e 52 15 3d 7c 86 0e 3d 06 d0 8d bd
       0.017715126 0.036455266 0.034796223 -0.06924443
000380 76 45 5e be ef 20 84 bd a4 51 57 bc f0 ce 1f 3d
       -0.21706185 -0.06451594 -0.013142023 0.03901571
000390 d5 c2 3e 3e ee ef 98 3e 50 7b 38 3d c0 dd 84 bc
       0.1862901 0.29870552 0.045039475 -0.01621902
0003a0 1f d2 60 3d c8 dc af bc 95 1a d4 3d 41 09 f0 3c
       0.054887887 -0.021467581 0.103566326 0.029301288
0003b0 2d a0 df be ce 3e 75 bd da a7 1f 3e 96 7e 2b 3a
       -0.43676892 -0.05987435 0.15591374 0.0006541995
0003c0 d1 42 a1 3d 1c d5 8c 3d ca d8 19 bc ec 4e 84 bd
       0.07874072 0.06876585 -0.009390065 -0.06460366
0003d0 2e 8a 08 bd 81 b7 b6 3e 6f eb a2 bd df e3 92 3e
       -0.033334903 0.35686877 -0.07955062 0.28689477
0003e0 95 b4 8a ba c4 ed 5d 3d 64 d8 8f 3d 90 36 12 bd
       -0.0010582382 0.05418183 0.07023695 -0.035696566
0003f0 45 74 e2 3d 28 2b 8e be b4 09 cb 3c ac de 8a 3b
       0.11057333 -0.277673 0.0247849 0.0042379703

fc3.weight f4 [1, 256]
000000 32 54 48 3d 26 17 70 ba 11 00 a0 3f 95 23 b5 3c
       0.04890842 -0.0009158723 1.250002 0.022111693
000010 27 60 a8 bb 36 12 1c bb c9 16 01 3f 20 ff 59 bc
       -0.0051384154 -0.0023814566 0.5042539 -0.013305455
000020 e6 1e 54 ba 48 a3 cc bd 1e 27 05 bb 35 44 37 3b
       -0.00080917624 -0.09992081 -0.0020317505 0.0027964239
000030 39 a1 16 bc d1 26 d0 be 6f 85 90 bd 20 1c ce 3a
       -0.009193712 -0.40654615 -0.070567004 0.0015724935
000040 98 85 ac bd c4 31 5e 3d 64 f3 2d bb 62 58 1a 3b
       -0.084239185 0.05424668 -0.0026542777 0.0023551215
000050 da 7c 7c 3b 97 77 13 bc ac e0 c4 bc f3 6d 2e 3f
       0.0038526566 -0.00900068 -0.024032913 0.6813652
000060 ba a5 02 bb de 62 97 ba c9 c3 14 3b 64 9a 6f 3d
       -0.0019935207 -0.001154985 0.0022699705 0.058496848
000070 58 d8 66 bd 38 ae 7b 3e f7 83 34 bb 0b 8a cc 3d
       -0.056358665 0.24578178 -0.0027544477 0.09987267
000080 a4 03 1c 39 77 e6 e5 bb d7 79 bb 3e ab 70 eb 3a
       0.00014878676 -0.007015999 0.36616394 0.0017962655
000090 3e 90 2a bd 1b 42 fc 3e de 09 e5 3a 82 4c 50 ba
       -0.041641466 0.49269184 0.0017474254 -0.0007945971
0000a0 54 a8 43 3c 43 9d 72 ba fa 53 0e 3b 44 f4 87 3f
       0.011941988 -0.0009255001 0.0021717534 1.0621419
0000b0 d9 9b 6a 3d 2a 6c e5 ba 30 db 45 bd 2b 76 98 ba
       0.057277534 -0.0017503549 -0.048304737 -0.0011631896
0000c0 d0 7c 35 3b 20 7d 49 3c 45 89 a2 3a 7d 12 01 3f
       0.0027692802 0.0122978985 0.0012400529 0.50418836
0000d0 2f 81 2b 3e 35 e3 14 bf 31 f8 2f 3e aa 2b 2d 3a
       0.16748498 -0.5815919 0.17184521 0.0006605933
0000e0 71 1b 67 3e bd dc 88 ba 55 dd 3c 3b 4d a6 17 be
       0.22569062 -0.0010441762 0.0028818448 -0.14809532
0000f0 d3 ad 57 b8 f3 f1 40 bb 7d 9b 3f 3e 62 b5 8c bd
       -5.142188e-05 -0.0029441088 0.18711658 -0.068705335
000100 32 79 ca 3a 54 0f b2 3d ef 72 bd bc bb df 8d bc
       0.0015447496 0.0869433 -0.023126094 -0.017318597
000110 50 9e f2 3c e5 3d a5 bb 46 45 cb 3b d1 21 0d bb
       0.029616505 -0.005042779 0.0062033264 -0.0021535049
000120 97 2b 42 bd a6 d8 d4 ba e3 38 11 3a f3 8d f6 3c
       -0.04740485 -0.0016238883 0.0005539788 0.030096984
000130 55 f3 e8 b9 06 15 d7 3b f3 47 48 3d bc ad ce be
       -0.00044431785 0.0065637855 0.04889674 -0.40366924
000140 d4 ed 55 3c da e9 92 3e a8 71 30 3b 0b 97 71 3b
       0.013057191 0.2869404 0.0026923213 0.003686371
000150 42 9a 24 3e 81 e6 d1 3d f2 b9 7b 3b 32 59 bd ba
       0.1607447 0.10249043 0.0038410393 -0.0014446138
000160 af 31 27 bb 62 3a d4 b9 62 91 07 bb 99 17 71 3a
       -0.0025511791 -0.0004047929 -0.002068602 0.0009196937
000170 e9 9a 80 bb f8 28 d4 bd 9c 0d 0d 3d c7 72 17 3b
       -0.0039247167 -0.10359377 0.034436807 0.0023109184
000180 f3 7b 99 bc 4e 6e 93 3b 99 c4 2b bb c6 d1 41 bb
       -0.018735861 0.0044992333 -0.002620971 -0.0029574498
000190 6f e8 0b 3d 6f 0e ed bf 72 ee 11 3f 94 b3 3b ba
       0.034157213 -1.852003 0.57004464 -0.0007160243
0001a0 37 52 7e bb 0d 41 03 bb 2f 64 1f 3b d7 13 3a 3e
       -0.0038806328 -0.0020027787 0.0024321189 0.18171631
0001b0 1a 90 9a bd 91 14 48 bb 09 77 06 bb 86 0d 0b 3a
       -0.075470164 -0.0030529837 -0.0020517728 0.00053044443
0001c0 6e ee 39 bb 9f b3 c9 bb 47 4e b6 3d 22 b3 f9 3d
       -0.0028370875 -0.0061554457 0.08901649 0.1219237
0001d0 d1 88 a5 bd 15 49 5b 3c be 6e 01 bb f2 92 1e 3e
       -0.08082736 0.013384123 -0.0019749845 0.15485743
0001e0 5b 47 62 bb 91 7d c1 bd 32 c9 a3 bd 4f 32 1d 3a
       -0.0034527394 -0.09447778 -0.07997359 0.0005996571
0001f0 b5 a3 ac ba db 05 90 bc a9 c6 32 ba 85 df df 3e
       -0.0013171347 -0.017580917 -0.0006819764 0.4372522
000200 a5 8d 07 3c 55 4d fc 3c 8b 97 1e bf e4 55 67 3e
       0.008273517 0.030798594 -0.61949986 0.22591358
000210 e4 76 1b bd 35 22 cd 3d c7 e2 d2 b9 e0 f4 0a 3b
       -0.03795518 0.1001629 -0.00040223284 0.0021203086
000220 76 12 12 bb c6 84 24 3f ce 0b ad 3c 2a 82 7f 3f
       -0.0022288836 0.64265096 0.021123793 0.9980799
000230 cc 67 6c ba 6d ad 22 bb 21 32 56 bd 72 0a b8 3d
       -0.00090181525 -0.0024822608 -0.0522939 0.08986367
000240 74 5d 6f be 9d 5c c4 b9 8b 19 0c be f8 1b ea 3c
       -0.23375493 -0.00037453035 -0.13681619 0.02857779
000250 3e 10 2e bd 31 45 a4 bc 4c c5 ec 3a 1f a0 07 3b
       -0.04249596 -0.020052524 0.001806417 0.0020694805
000260 14 2c 44 ba c9 44 0c be b8 d6 5e 3a 47 15 9a 3d
       -0.0007483375 -0.13698114 0.00085006235 0.075235896
000270 fc 41 e2 b8 43 2f 06 bb e3 20 2f 3a 83 7f 6d ba
       -0.0001078881 -0.0020474948 0.0006680621 -0.0009059833
000280 ec 7f 6c 38 e0 cc 47 bb 89 2a ba 3a 04 7a fe ba
       5.638592e-05 -0.0030487105 0.001420335 -0.0019415026
000290 9b 18 71 3a df b4 0d bc a7 f4 ac 3c 3e 71 18 3e
       0.0009197087 -0.00864908 0.021112753 0.14886948
0002a0 d0 9a b2 3c 3c 37 4f 3f 88 fc dd 3a b5 13 e5 ba
       0.021802336 0.80943656 0.0016936222 -0.0017477187
0002b0 8f 24 63 3e be 88 77 39 db 10 90 be b5 38 d5 3a
       0.22181915 0.00023606696 -0.2813786 0.001626751
0002c0 ed 48 1e bd e7 5f 91 3a 95 8d fe bd cf 90 c8 3f
       -0.038643766 0.0011091203 -0.124293484 1.5669192
0002d0 d9 55 03 3d 26 c4 05 3a 80 2a 00 be c1 a5 98 3d
       0.032064293 0.0005102776 -0.12516212 0.0745349
0002e0 ce 73 8c be b3 9c ed 3b 7c 2b b7 ba 62 0c d1 3d
       -0.27432102 0.007251346 -0.0013974751 0.1020744
0002f0 c7 75 2d 3d 31 a2 d3 3e 8d fd df ba 93 9d 09 3a
       0.04234865 0.4133468 -0.0017089114 0.00052496156
000300 ef 35 30 bb ef 96 97 b7 04 7f a1 3c 30 e1 20 3e
       -0.0026887616 -1.8070887e-05 0.019713886 0.15710902
000310 1b b3 c6 3c 45 0f 18 bc 19 ab 06 bb f1 0d cd 3c
       0.024255326 -0.009280984 -0.002054876 0.025031062
000320 f2 72 77 39 ad 9d 27 bd 68 ca 17 3b de 57 c0 3b
       0.00023598576 -0.040921856 0.0023161415 0.0058698496
000330 c5 ae e9 ba d5 30 8d 3e 5b 53 06 ba ed cc c1 bd
       -0.0017828575 0.27576318 -0.0005124115 -0.094629146
000340 c8 16 0b bb 4a 45 cf ba 4e d3 33 3b cf 81 03 ba
       -0.0021223295 -0.0015813496 0.002743918 -0.00050165964
000350 00 b0 be 3c fe 7b bd bd 07 57 29 bc cc be b2 be
       0.023277283 -0.09252165 -0.01033569 -0.3491119
000360 99 1b 78 bd 30 e6 9c 3c 8a 30 35 bb f4 38 85 be
       -0.060573194 0.01915273 -0.002764734 -0.26020014
000370 5f 99 a4 b9 63 6b e0 3a 36 b3 8e ba 34 99 e0 3d
       -0.00031394788 0.0017121847 -0.0010887149 0.10966721
000380 76 21 3d bc 87 f4 12 3b e6 25 bb b9 f9 c4 01 bb
       -0.011543622 0.0022423582 -0.00035695656 -0.0019801243
000390 42 26 ca 3e e4 2e b4 bd f9 8e 34 ba 7b ac 2d ba
       0.39482313 -0.08798006 -0.00068877597 -0.0006625128
0003a0 15 85 6f 3e 48 fd d9 b9 ea 2f e8 3d db c5 53 bb
       0.2339061 -0.00041578175 0.11337264 -0.0032313976
0003b0 c2 a9 db bd 9b 06 06 3c 68 2e dc 3d 1b 22 b7 ba
       -0.10725738 0.008180286 0.10751039 -0.0013971956
0003c0 98 ac b7 3e ea 2e 0e 3d 36 fc 11 3b 80 55 76 3a
       0.35873866 0.03471271 0.0022275574 0.0009396896
0003d0 c4 e2 5b ba e8 3f 10 3f b4 ef c0 bd d2 a2 c9 be
       -0.0008387978 0.56347513 -0.0942072 -0.39382035
0003e0 01 d9 86 ba 2a c2 84 3a 6b 7d 06 3e b0 49 82 3b
       -0.0010288061 0.0010128666 0.1313378 0.0039760694
0003f0 39 33 f5 be e0 db aa bf 8a 8c 13 bb 4c ad 03 3a
       -0.47890642 -1.334835 -0.0022514188 0.00050230767
