TD3/models/reward_s0.28_a8e-2_t(-2_0.1).pth (torch, 275287 bytes, 5 tensors)

fc1.weight f4 [256, 8]
0	0x3ccfb09c	0.025352769
1	0x3d906ef4	0.07052413
2	0x3ece5829	0.40301636
3	0xbf2185d5	-0.63094836
4	0xbe024c42	-0.12724403
5	0xbdd27881	-0.102768905
6	0xbf985859	-1.1901962
7	0x3e5549a0	0.20828867
8	0xbe7b06e4	-0.24514347
9	0x3c3f7a3c	0.011686858
10	0x3e8a3865	0.2699615
11	0x3dff7afb	0.124746285
12	0x3dedc778	0.11610311
13	0xbd07f9fc	-0.033197388
14	0x3fe6517c	1.7993617
15	0x3cbe5bd6	0.02323715
16	0x3cea8144	0.028626092
17	0xbdbeae1c	-0.093105525
18	0xbea112ae	-0.31459564
19	0x3e90d653	0.28288516
20	0xbdec99a4	-0.11552742
21	0x3c844e9e	0.016150769
22	0xbf4dc091	-0.8037196
23	0x3d770c7b	0.060314637
24	0x3c63fbd7	0.013915024
25	0x3dadee45	0.08492712
26	0xbf77e663	-0.9683592
27	0xbca9e551	-0.02073923
28	0xbd3c6034	-0.045990184
29	0xbc4e59ff	-0.012594699
30	0x3f0dd702	0.554062
31	0x3eeac403	0.4585267
32	0x3cd126a4	0.02553112
33	0xbdf9f638	-0.122051656
34	0x3f386650	0.72031116
35	0xbeb1194c	-0.34589612
36	0x3dbe23cf	0.09284174
37	0xbc81c100	-0.0158391
38	0x3f853432	1.0406554
39	0x3cb89502	0.02253199
40	0xbeec56d7	-0.46160004
41	0x3e057a9e	0.13035056
42	0xbf1c4a39	-0.61050755
43	0x3e941e97	0.28929588
44	0x3e499029	0.19683899
45	0xbe474854	-0.19461185
46	0x3f668c57	0.9005789
47	0x3ec9b15d	0.3939313
48	0x3f062b72	0.5241004
49	0xbe6b9739	-0.23006906
50	0x3f034fa6	0.5129341
51	0x3ec765b8	0.38944793
52	0x3df5e250	0.12006056
53	0xbd83e4e2	-0.0644014
54	0x3fa89e8c	1.3173385
55	0xbe29960b	-0.16561143
56	0x3debac16	0.11507432
57	0x3e718663	0.2358642
58	0x3e68516c	0.2268731
59	0xbee91b33	-0.45528564
60	0xbd86f3c6	-0.06589465
61	0x3d5f3958	0.054498047
62	0xc00ed360	-2.2316513
63	0xbc7f78ef	-0.015592798
64	0x3d8025f0	0.06257236
65	0xbe0532c1	-0.13007642
66	0xbf58a6a6	-0.84629285
67	0xbe647ccd	-0.22313233
68	0x3d8c41f0	0.06848514
69	0x3dadc099	0.08484001
70	0xbfbe3848	-1.4860926
71	0xbcf646be	-0.03006303
72	0xbdc973a3	-0.09836509
73	0x3e6f2aa6	0.23356113
74	0xbe91db6a	-0.28487712
75	0xbd6c8ecc	-0.05775337
76	0x3b47565b	0.0030416462
77	0xbcb97ae0	-0.0226416
78	0xbd8beb42	-0.06831981
79	0xbd973aca	-0.0738426
80	0xbf22acf0	-0.6354513
81	0xbdc164d3	-0.09443059
82	0x3f75214d	0.9575394
83	0xbe71420f	-0.23560356
84	0x3cafcb87	0.021459354
85	0x3c1c67f4	0.009546269
86	0x3f669324	0.9006827
87	0x3c7ef8e8	0.015562274
88	0xbf59d2d2	-0.8508731
89	0xb8d3853d	-0.000100860816
90	0x3f0e5ae9	0.5560747
91	0x3e4cf707	0.20016108
92	0xbdeae61a	-0.1146967
93	0x3cdd0950	0.02698198
94	0xbf119ceb	-0.5688006
95	0x3ceb11ff	0.028695105
96	0xbe6471e9	-0.22309078
97	0x3d418678	0.04724738
98	0x3ee63fc9	0.4497054
99	0x3cedabaf	0.02901253
100	0x3cb1b803	0.021694189
101	0xbd258b0b	-0.040415805
102	0x40096729	2.1469214
103	0x3eb7af73	0.35876045
104	0xbeac5ed5	-0.336661
105	0xbe1ce278	-0.15320766
106	0xbf1d5244	-0.6145365
107	0xbe0dad54	-0.1383565
108	0xbf033f56	-0.5126852
109	0xbd2b5431	-0.041828338
110	0x3d9173f4	0.071021944
111	0x3df691de	0.12039541
112	0xbeffdeb7	-0.49974605
113	0xbdf7934e	-0.12088643
114	0x3e95b7e7	0.2924187
115	0xbd9f7c68	-0.077874005
116	0x3d0da6e9	0.034583006
117	0x3cb9cde1	0.022681179
118	0x4000430c	2.0040922
119	0xbed6eb2c	-0.41976297
120	0xbf112e78	-0.5671153
121	0xbe8b9f2d	-0.2726988
122	0xbe94dfc3	-0.29076967
123	0x3d4ff04d	0.050766278
124	0x3e1d3637	0.15352713
125	0x3dad5011	0.08462537
126	0xbd8b4946	-0.06801085
127	0xbf14a496	-0.5806364
128	0x3e822b0a	0.2542346
129	0xbe8e43f9	-0.27786234
130	0xbf82493d	-1.01786
131	0x3ed96228	0.424577
132	0x3e6081d3	0.21924524
133	0xbe2029ac	-0.15640897
134	0xbea3d032	-0.31994778
135	0x3b960606	0.004578355
136	0x3ed7662c	0.42070138
137	0x3efdccff	0.49570462
138	0xbf4018a6	-0.7503761
139	0xbe0f7238	-0.14008415
140	0xbed33d07	-0.41257498
141	0xbd9511fc	-0.07278821
142	0xbeaa767b	-0.33293518
143	0x3e021148	0.12701905
144	0xbecc512f	-0.39905688
145	0x3d4abd10	0.04949671
146	0xbf5607b7	-0.8360552
147	0xbe51eb6a	-0.2049996
148	0x3d685b7d	0.056727875
149	0x3de1001e	0.109863505
150	0xbfd73af9	-1.6814872
151	0xbe46e0ba	-0.19421664
152	0x3e0843aa	0.13307062
153	0x3d7abb06	0.061213516
154	0x3ee25614	0.44206297
155	0xbebcfcf4	-0.36911738
156	0x3dd90118	0.10595912
157	0xbd031251	-0.03199989
158	0x3f21aa70	0.6315069
159	0x3d92e559	0.07172651
160	0xbdd03976	-0.1016721
161	0xbe478ae2	-0.19486573
162	0xbe937452	-0.28799683
163	0xbeb8142f	-0.359529
164	0xbd1455e1	-0.036214713
165	0x3d1f9000	0.03895569
166	0xc01a65c9	-2.4124625
167	0x3dd40b8d	0.10353766
168	0xbf026863	-0.5094053
169	0xbd44d90f	-0.048058566
170	0xbd90f5e3	-0.07078149
171	0x3e98bfd6	0.2983386
172	0x3d1cd896	0.03829249
173	0xbdee41bc	-0.116336316
174	0xbfa9b109	-1.3257152
175	0x3deace64	0.11465147
176	0x3ebab99c	0.36469734
177	0x3e17929a	0.14802018
178	0xbf8cf00b	-1.1010755
179	0xbf00f829	-0.5037866
180	0x3d16e1ad	0.036836315
181	0x3e12a3c1	0.1432028
182	0xbfa0ab4a	-1.2552273
183	0x3d93dc5c	0.072197646
184	0x3dd8602e	0.1056522
185	0x3c9a2b2e	0.018819418
186	0x39447e41	0.0001873905
187	0x3eb2fc1b	0.34957966
188	0xbbbdb580	-0.0057894588
189	0xbc86813b	-0.016419044
190	0x3f368ce5	0.7130874
191	0xbdad7a0f	-0.084705465
192	0x3c4b2f5d	0.012401429
193	0x3db46a31	0.08809317
194	0x3e8f3eed	0.27977696
195	0xbe82dde6	-0.2555992
196	0xbe952b17	-0.29134437
197	0x3d0f214c	0.034943864
198	0xbff99e4a	-1.9501431
199	0xbed5f1c6	-0.4178602
200	0x3dde1047	0.108429484
201	0xbe5a7242	-0.21332648
202	0x3f0feb53	0.5621845
203	0xbeaebd51	-0.34128812
204	0x3d155ce2	0.036465533
205	0x3df82c5a	0.121178344
206	0x3fe7eca7	1.8119096
207	0xbea2e1b5	-0.31812826
208	0x3d8c4b72	0.068503276
209	0x3e932907	0.2874224
210	0x3db5ee7b	0.08883377
211	0xbd5b575a	-0.0535501
212	0x3d71d9a3	0.059045445
213	0xbcc4e314	-0.02403406
214	0x3f5df433	0.86700743
215	0x3e1d6ff6	0.15374741
216	0xbe744210	-0.23853326
217	0x3ddadb5b	0.1068637
218	0xbeae12a2	-0.3399859
219	0xbe8eb614	-0.2787329
220	0xbd100113	-0.035157274
221	0x3d917bd8	0.071036994
222	0xbfe1c979	-1.763961
223	0xbd8d7acd	-0.06908188
224	0xbeba8ee8	-0.36437154
225	0xbecced29	-0.4002469
226	0xbf22bf0b	-0.6357276
227	0xbe961a12	-0.29316765
228	0xbe12a73c	-0.14321607
229	0x3d8d9ff4	0.06915274
230	0xbf814e95	-1.0102106
231	0xbe572fd2	-0.21014336
232	0x3f2b8eb2	0.6701461
233	0xbc513839	-0.012769752
234	0x3d9ab3f4	0.075538546
235	0x3e77fee1	0.24218322
236	0x3dbdedea	0.09273894
237	0xbe368c30	-0.17826915
238	0x3fd2486d	1.6428353
239	0x3e9c974d	0.30584183
240	0xbd1ccaf7	-0.0382795
241	0x3d8c9711	0.06864751
242	0xbdbcbddb	-0.092158996
243	0xbd99839a	-0.07495804
244	0x3e1e379f	0.15450905
245	0xbcc38adf	-0.02386993
246	0xc007568c	-2.1146574
247	0x3e18385d	0.14865251
248	0x3d008770	0.031379163
249	0xbe99a3f7	-0.30007908
250	0xbe0b1e96	-0.13585886
251	0xbebe59be	-0.37177843
252	0x39966a9d	0.00028689663
253	0xbd818f66	-0.06326179
254	0xc00aaae5	-2.1666806
255	0x3e7c718e	0.24652693

fc1.bias f4 [256]
0	0xbaea9a15	-0.0017898703
1	0x3e30e770	0.17275786
2	0xbe404e43	-0.18779854
3	0xbeb7592e	-0.35810226
4	0x3f2d2975	0.67641383
5	0xbd3ed720	-0.046591878
6	0x3ed4848d	0.41507378
7	0x3e76256c	0.24037713
8	0xbf339f96	-0.70165384
9	0x3dbceda7	0.09225016
10	0x3f310322	0.69145405
11	0xbcbb3503	-0.022852426
12	0x3ebb4b16	0.36580724
13	0xbeb7173d	-0.35759917
14	0x3d20d3fe	0.03926467
15	0xbefb7991	-0.49116185
16	0x3dc9e98c	0.09858999
17	0xbe8ef0ea	-0.27918178
18	0xbf4d4cbe	-0.80195224
19	0x3d8d9e8d	0.06915007
20	0xbe8f1a51	-0.27949765
21	0xbd2a5eff	-0.0415945
22	0xbf8c2f57	-1.0951947
23	0x3e828c07	0.25497457
24	0xbde2bfcd	-0.11071739
25	0x3e110f0b	0.14165895
26	0x3ea4fac9	0.32222584
27	0xbebb1a86	-0.36543673
28	0xbf367475	-0.7127145
29	0x3e4a7dc0	0.19774532
30	0xbea51d3e	-0.32248873
31	0xbe856345	-0.260523
32	0xbe886d43	-0.2664586
33	0x3e0ce6b6	0.13759884
34	0x3e396306	0.1810418
35	0xbf0ef894	-0.5584805
36	0xbf07b3de	-0.5300883
37	0xbe94576e	-0.28972954
38	0xbee1c48e	-0.44095272
39	0xbe1f1617	-0.1553577
40	0x3f5e2179	0.86769825
41	0x3ed1857e	0.4092216
42	0x3e348c45	0.17631634
43	0xbd955ba7	-0.07292872
44	0x3cd1de4d	0.025618697
45	0x3dd13519	0.10215206
46	0xbe0ce07e	-0.13757512
47	0x3b845697	0.0040386426
48	0xbebe4d50	-0.3716836
49	0x3d9a27ad	0.07527099
50	0x3e7e6a1f	0.2484517
51	0xbf04c04b	-0.51855916
52	0x3f4c5984	0.7982409
53	0xbe9fd27b	-0.3121527
54	0xbe5782a0	-0.21045923
55	0x3dd90982	0.105975166
56	0x3e4ef4bf	0.2021055
57	0x3da24dbe	0.079249844
58	0x3e9e5eaf	0.30931613
59	0x3f9212f7	1.1412038
60	0xbda0ac0e	-0.07845317
61	0x3ee29d19	0.4426048
62	0xbe0d10df	-0.13775967
63	0xbe9a0885	-0.30084625
64	0xbe55c0ce	-0.2087433
65	0x3dceea6b	0.101033054
66	0xbe20d55a	-0.15706387
67	0xbeb606fe	-0.3555221
68	0xbf3d4a35	-0.73941356
69	0x3f1d7328	0.6150384
70	0xbe4b760d	-0.19869252
71	0x3cbb8f7c	0.022895567
72	0x3eab53ae	0.3346228
73	0x3f1944f9	0.5987087
74	0x3f9037b8	1.1267004
75	0xbe9f5734	-0.31121218
76	0xbe61e54c	-0.22060126
77	0xbd812f88	-0.06307894
78	0x3e843d9b	0.2582825
79	0x3eaf8673	0.34282264
80	0xbf4d55ff	-0.80209345
81	0x3faa04cd	1.3282715
82	0x3af730e3	0.0018859174
83	0x3d58d226	0.05293479
84	0xbf2baa92	-0.67057145
85	0x3ed1ee97	0.41002342
86	0xbee1eb3b	-0.4412478
87	0x3eafb449	0.34317234
88	0x3ebec557	0.37259933
89	0xbf59dcb3	-0.85102385
90	0x3eb5dfb5	0.35522237
91	0x3f088b21	0.53337294
92	0x3e3c3bbd	0.18382163
93	0x3ddc4a8c	0.10756406
94	0xbe66a77f	-0.22524832
95	0x3ea04dc7	0.3130934
96	0x3eadcf81	0.33947375
97	0xbbb30953	-0.005463758
98	0xbed5d959	-0.41767386
99	0x3f1e2db9	0.6178852
100	0xbde83e1d	-0.11339972
101	0xbf0740b9	-0.52833134
102	0xbe04f965	-0.12985761
103	0x3f13d077	0.5773997
104	0xbc0ccc39	-0.008593612
105	0x3d9d112e	0.076692924
106	0x3d932091	0.07183946
107	0xbf7b98cc	-0.98280025
108	0xbea0836f	-0.31350276
109	0xbdf2c6ef	-0.1185435
110	0x3ec83db1	0.39109567
111	0xbd074c0c	-0.03303151
112	0xbe8be439	-0.27322558
113	0xbe81a635	-0.25322118
114	0x3eea9c16	0.4582221
115	0xbe9e73b1	-0.3094764
116	0x3ed469a7	0.41486856
117	0x3e1c4be2	0.15263322
118	0x3e573962	0.21017984
119	0x3f08c9a4	0.5343268
120	0xbf4606d2	-0.77354157
121	0x3f4436a3	0.7664587
122	0xbf3686c0	-0.7129936
123	0xbf326fc2	-0.6970178
124	0x3d080a98	0.033213228
125	0x3e161970	0.14658141
126	0x3ead6e1c	0.3387307
127	0x3f0af6d5	0.54282886
128	0x3d46feab	0.048582714
129	0x3dc22589	0.094798155
130	0xbf2a65e9	-0.6656175
131	0xbcbf28eb	-0.02333494
132	0xbf40e789	-0.75353295
133	0x3f32e9e2	0.69888127
134	0x3d17d771	0.037070695
135	0x3df7ddcd	0.12102852
136	0xbd9cf1f7	-0.07663339
137	0x3eb423ea	0.3518365
138	0xbc8a89f1	-0.016911479
139	0x3dfd8f9e	0.123809084
140	0xbdad41cd	-0.08459816
141	0xbd914099	-0.07092399
142	0xbee31725	-0.44353595
143	0xbca58179	-0.020203339
144	0x3e300e33	0.17192917
145	0xbea4e627	-0.32206842
146	0xbef5813b	-0.47950158
147	0x3ee626ba	0.4495142
148	0x3e827e5d	0.25487033
149	0xbef1cac2	-0.47225004
150	0xbe929d09	-0.28635433
151	0x3edab6e0	0.42717648
152	0xbe79427c	-0.24341768
153	0x3f10c47c	0.5654981
154	0x3ed4d27d	0.4156684
155	0xbf019739	-0.5062137
156	0xbf8a745b	-1.0816759
157	0x3c9cfdda	0.019164015
158	0x3f7c0090	0.9843836
159	0x3f39d4f7	0.72590584
160	0x3e495e9a	0.19664994
161	0xbea36f8f	-0.3192105
162	0x3d4e2f2b	0.05033795
163	0x3eb4a661	0.35283187
164	0xbd5f57b0	-0.054526985
165	0xbe651a63	-0.22373347
166	0x3dab4ff2	0.08364858
167	0x3d4544f2	0.048161454
168	0xbe3f1f40	-0.18664265
169	0x3d7cdabb	0.061732035
170	0x3dac5357	0.08414333
171	0xbf33c959	-0.7022911
172	0xbed93dd5	-0.42429987
173	0x3e997d93	0.29978618
174	0x3eafcb9f	0.34335038
175	0x3dd23954	0.10264841
176	0xbe054b04	-0.13016897
177	0xbebda163	-0.3703719
178	0x3f47f0c7	0.7810177
179	0x3da66529	0.081247635
180	0xbe7006d9	-0.23440112
181	0xbed9dad9	-0.4254978
182	0xbdadc887	-0.08485513
183	0xbf3611c0	-0.71120834
184	0x3f80e440	1.0069656
185	0x3f7344d8	0.9502692
186	0x3e57d3bf	0.21076868
187	0xbf151908	-0.5824132
188	0xbe325054	-0.17413455
189	0xbefda6da	-0.4954136
190	0xbf1c64e4	-0.61091447
191	0xbe02db83	-0.1277905
192	0xbc507395	-0.012722869
193	0x3e80691a	0.25080186
194	0xbdee092b	-0.116228424
195	0xbe1d58d9	-0.15365924
196	0x3f4b93cd	0.795224
197	0x3dbcbc86	0.092156455
198	0x3f41b571	0.7566748
199	0x3f2d35f9	0.6766048
200	0x3e4a84cc	0.1977722
201	0x3ef73d72	0.48289067
202	0x3e6bd548	0.23030579
203	0xbe5a382f	-0.21310495
204	0x3d000d59	0.03126273
205	0xbf8d5d6d	-1.1044136
206	0xbe23b731	-0.1598785
207	0xbe71b00b	-0.23602311
208	0x3f34fb2e	0.7069577
209	0xbf2375ce	-0.6385163
210	0xbf3fd6ae	-0.7493695
211	0xbe0c6123	-0.1370893
212	0xbeb59964	-0.3546859
213	0xbee23ea2	-0.4418841
214	0xbed070ba	-0.40711004
215	0xbddf85d2	-0.10914196
216	0xbf02fb74	-0.51164937
217	0xbee0632b	-0.4382566
218	0x3e1f8f9c	0.15582126
219	0x3e5ac9ac	0.21365994
220	0x3e0f41ad	0.13989897
221	0xbe9098fe	-0.28241724
222	0xbf185fa7	-0.59520954
223	0xbed05a17	-0.40693733
224	0xbbb2ed7f	-0.0054604406
225	0xbf4f7837	-0.8104281
226	0xbd280ca7	-0.04102769
227	0xbeadc074	-0.33935893
228	0xbe0d0e91	-0.13775088
229	0xbe9a299f	-0.3010988
230	0xbe966069	-0.2937043
231	0x3d0886e9	0.033331785
232	0x3db413e4	0.08792856
233	0xbebab3ff	-0.3646545
234	0x3f66e949	0.90199715
235	0xbd90dd04	-0.070734054
236	0xbea12ea8	-0.31480908
237	0xbd62852b	-0.05530278
238	0xbe021d8a	-0.12706581
239	0xbcb89545	-0.022532115
240	0x3d13662c	0.03598611
241	0xbe8046b5	-0.25053945
242	0xbf65478e	-0.8956231
243	0xbdc30f7f	-0.0952444
244	0xbe7a5b9a	-0.24449006
245	0xbe9f45d5	-0.31107965
246	0xbdb57360	-0.08859897
247	0x3ea33a97	0.31880638
248	0x3efc6413	0.492951
249	0xbead4968	-0.33845067
250	0x3e12ee94	0.14348823
251	0xbe75a879	-0.23990048
252	0xbf0b9ec3	-0.54539126
253	0xbefbfe87	-0.49217626
254	0xbe8a9571	-0.2706714
255	0xbea467a8	-0.32110333

fc2.weight f4 [256, 256]
0	0x3def5803	0.11686709
1	0x3d1f5f98	0.038909525
2	0xbe5a3cbe	-0.21312234
3	0xbde246c9	-0.110486574
4	0x3e05feca	0.13085476
5	0xbdf04a13	-0.117328785
6	0x3cec8938	0.028874025
7	0x3d0348c2	0.03205181
8	0xbc536d6c	-0.012904506
9	0xbd0f9746	-0.035056375
10	0x3dfe92fd	0.124303795
11	0xbea6011e	-0.32422727
12	0x3e5d7f79	0.21630658
13	0xbf0af249	-0.5427595
14	0xbe0334f6	-0.12813172
15	0xbd56b2f0	-0.05241674
16	0x3bd177a7	0.0063924375
17	0xbeffd0b9	-0.4996393
18	0xbdb8bca9	-0.09020359
19	0x3da71911	0.08159078
20	0x3d26f5b5	0.04076167
21	0x3d8497d5	0.06474272
22	0x3b4d9406	0.0031368746
23	0xbdf3953d	-0.11893699
24	0x3cc83b8b	0.024442455
25	0xbc4534b5	-0.012036492
26	0xbccbddd9	-0.024886059
27	0x3c1cb60c	0.009564888
28	0x3da52617	0.08063906
29	0xbd37fa64	-0.044916525
30	0x3c11491b	0.008867527
31	0x3d2df622	0.04247106
32	0xbd9a6100	-0.075380325
33	0xbdfa8da3	-0.12234046
34	0xbd0f8f2a	-0.03504864
35	0x3c488e26	0.012240922
36	0x3c987440	0.01861012
37	0xbd62dc12	-0.055385657
38	0xbe49b1df	-0.19696759
39	0x3d0a0a81	0.033701424
40	0x3e98d1c7	0.29847547
41	0x3e1b18fc	0.1514625
42	0x3d90db3f	0.07073068
43	0xbcb458dc	-0.022015028
44	0x3e101b3f	0.14072894
45	0xbe10a312	-0.14124706
46	0x3c987fb5	0.018615583
47	0x3d8fc160	0.07019305
48	0xbd0976a5	-0.033560414
49	0x3de4d37e	0.111731514
50	0xbe098d6a	-0.13432851
51	0xbd703d3f	-0.05865216
52	0x3e39ce07	0.18145
53	0xbe2d9906	-0.16952905
54	0xbcf39521	-0.029734196
55	0x3da0e48f	0.07856094
56	0x3d03e045	0.032196302
57	0xbe4cf664	-0.20015866
58	0xbc9b441a	-0.018953372
59	0x3e334784	0.1750775
60	0xbe199550	-0.14998364
61	0xbdce3685	-0.100689925
62	0x3d366e6a	0.044538893
63	0x3d6e8c42	0.05823923
64	0xbe870c85	-0.2637674
65	0x3c91849c	0.017763428
66	0x3c725618	0.014791034
67	0x3d78fe4c	0.06078939
68	0xbe23836c	-0.15968102
69	0x3e63748a	0.22212425
70	0xbe3cf3d7	-0.18452393
71	0xbd416850	-0.04721862
72	0x3e0445bf	0.12917231
73	0x3e0274e9	0.1273991
74	0x3e3070fe	0.17230603
75	0xbb24f158	-0.0025168266
76	0xbe1ace8a	-0.15117851
77	0x3dfcc4e7	0.12342244
78	0xbd31b338	-0.043383807
79	0x3d3412de	0.043963306
80	0x3c733565	0.014844273
81	0x3dcaddb4	0.09905568
82	0xbe665712	-0.22494152
83	0xbe0b1da3	-0.13585524
84	0xbe11695b	-0.14200346
85	0x3ce90d69	0.028448777
86	0xbb7e107c	-0.003876715
87	0xbdc1f1e5	-0.09469966
88	0x3d191700	0.03737545
89	0x3cff666c	0.031176768
90	0x3d6ec446	0.05829265
91	0x3cd38545	0.025820384
92	0xbe3e5109	-0.185856
93	0x3df0465c	0.1173217
94	0xbcb97c61	-0.022642316
95	0x3e26fc80	0.16307259
96	0x3c8d374a	0.017238278
97	0xbc57682e	-0.013147397
98	0xbcdcc2e6	-0.026948404
99	0x3dc906b1	0.098157294
100	0x3bcbeae1	0.006223068
101	0x3d3f9757	0.04677519
102	0x3e1503d0	0.14552236
103	0x3e06ccb2	0.13164023
104	0xbdbd9a6f	-0.092579715
105	0x3e337271	0.17524125
106	0xbe458177	-0.19287668
107	0xbe3fd778	-0.18734539
108	0x3c1975cf	0.009366467
109	0x3d2ef5d1	0.042714898
110	0xbbaf5e53	-0.0053518205
111	0x3d9d8566	0.07691459
112	0x3d586045	0.052826185
113	0x3d401e4e	0.0469039
114	0x3ce164cd	0.027513886
115	0xbee49340	-0.44643593
116	0x3e659997	0.22421871
117	0x3d6b56d8	0.057455868
118	0x3da57aa3	0.08080032
119	0x3d89668d	0.06709013
120	0xbd088a10	-0.03333479
121	0xbbaed28d	-0.005335158
122	0xbbc46971	-0.005994015
123	0xbd82fff5	-0.06396476
124	0xbe0a576d	-0.13509913
125	0xbc47cf4d	-0.01219542
126	0x3e0cf0c9	0.13763727
127	0x3de695e5	0.11259059
128	0x3dec8b75	0.11550037
129	0x3d8b035d	0.06787751
130	0xbe15c7a2	-0.14626935
131	0x3e3471a2	0.17621472
132	0xbd7ce130	-0.061738193
133	0x3e1d3b95	0.1535476
134	0x3db07594	0.08616176
135	0xbd57e0d0	-0.052704632
136	0xbdf86765	-0.12129096
137	0xbd9b8ef6	-0.07595627
138	0xbc03a3cc	-0.008034658
139	0xbc81b4f2	-0.015833352
140	0x3c039140	0.008030236
141	0xbdae756c	-0.0851849
142	0xbdcd8910	-0.10035908
143	0x3cb4c6c9	0.022067444
144	0x3d508289	0.050905738
145	0xbe82ec88	-0.25571084
146	0xbde93c28	-0.11388427
147	0x3c4cb5d9	0.012494528
148	0x3e0d47dc	0.13796943
149	0xbd068003	-0.032836925
150	0xbe3af95c	-0.18259186
151	0x3e3747fa	0.1789855
152	0xbd4c4b59	-0.049876545
153	0x3e9cd356	0.30629987
154	0x3dfbdb5a	0.12297697
155	0xbda71b45	-0.08159498
156	0xbd8f8202	-0.07007219
157	0x3ac92ee8	0.0015349062
158	0xbdb2d64d	-0.08732281
159	0x3d921a52	0.071339265
160	0x3c6984f6	0.014252892
161	0xba732e00	-0.0009276569
162	0x3dbd0e13	0.092312
163	0xbdb2bec0	-0.08727789
164	0xbdfb08ad	-0.12257514
165	0xbd67e0e5	-0.05661096
166	0xbd83e0c1	-0.06439353
167	0x3df8cf8a	0.1214896
168	0xbe049bbf	-0.12950037
169	0x3d56779f	0.052360173
170	0xbe959d06	-0.29221362
171	0xbdc289ae	-0.094989166
172	0xbd8c8c28	-0.0686267
173	0x3d58cfe0	0.05293262
174	0xbd33efb4	-0.04392977
175	0x3db1c3a7	0.08679896
176	0xbc2c9c0d	-0.010535252
177	0xbd4ad3be	-0.04951834
178	0x3d99bd93	0.075068615
179	0x3c493534	0.012280751
180	0xbc7e4967	-0.01552043
181	0xbbd698b7	-0.0065489667
182	0x3b2ccc39	0.0026366843
183	0xbe2b911e	-0.16754577
184	0x3f48842e	0.7832669
185	0x3a54b89f	0.0008114669
186	0xbda13908	-0.07872206
187	0xbcf46dbe	-0.029837485
188	0x3e964ca6	0.29355353
189	0x3c8725c9	0.01649751
190	0x3d6c66e6	0.05771532
191	0xbd794345	-0.06085517
192	0xbd2c4338	-0.042056292
193	0x3df94533	0.12171402
194	0x3d4726b0	0.04862088
195	0xbe3ff5f2	-0.18746164
196	0x3e0863c3	0.13319306
197	0xbb1a7132	-0.0023566005
198	0x3e2cb8f1	0.16867425
199	0x3e4f32ae	0.20234177
200	0xbd47f298	-0.04881534
201	0xbd742dd9	-0.059614036
202	0xbcade1f4	-0.021225907
203	0xbd0538d4	-0.0325249
204	0xbd506847	-0.050880697
205	0x3cbee82c	0.023304068
206	0xbd43d0e0	-0.04780662
207	0xbd94e03b	-0.07269331
208	0x3e23e97c	0.16007036
209	0xbbb72349	-0.005588923
210	0xbdaa71d7	-0.083224945
211	0xbdfef544	-0.124491245
212	0xbe11bb2f	-0.14231561
213	0xbe054161	-0.13013221
214	0xbdb7f481	-0.08982182
215	0xbd619875	-0.055077035
216	0xbd59a619	-0.05313692
217	0xbcd574d1	-0.026056679
218	0xbe3616b7	-0.17782103
219	0x3d903d74	0.07042971
220	0xbcffb893	-0.031215942
221	0x3c987fec	0.018615685
222	0xbe92964a	-0.28630286
223	0xbe42a1f3	-0.19007091
224	0xbdfc12e7	-0.12308293
225	0x3d2636a7	0.040579464
226	0x3e8a176d	0.26970997
227	0xbe6674c7	-0.22505485
228	0xbd7f54cb	-0.062336724
229	0xbd21b496	-0.03947886
230	0x3d0ae3e6	0.033908747
231	0xbdf04244	-0.11731389
232	0xbcd1b56c	-0.025599204
233	0x3c81fb8c	0.015867017
234	0x3eac4aa0	0.33650684
235	0xbe0d1349	-0.13776888
236	0xbcb15b27	-0.02164991
237	0x3c23e12a	0.010002414
238	0xbeb51da4	-0.35374177
239	0xbc8196e4	-0.01581902
240	0xbde88760	-0.11353946
241	0xbe4cf567	-0.20015489
242	0xbcc8ed94	-0.024527349
243	0x3db100fd	0.086427666
244	0x3d41c404	0.047306076
245	0xbe56ad1e	-0.20964476
246	0x3d15b769	0.036551867
247	0x3d27f577	0.041005578
248	0x3b26352c	0.0025361283
249	0xbac14428	-0.0014745044
250	0x3da96feb	0.082733
251	0xbcc16d5d	-0.023611719
252	0x3c12bbe1	0.008955927
253	0xbe21b01f	-0.15789841
254	0xbcc36ed5	-0.02385656
255	0x3e03a7da	0.12856999

fc2.bias f4 [256]
0	0x3f00550d	0.5012978
1	0xbd822509	-0.0635472
2	0xba43b7e3	-0.0007466061
3	0xbd8fd010	-0.07022107
4	0x3db4cec5	0.08828501
5	0x3e8e49bc	0.2779063
6	0xbcb9fb28	-0.022702768
7	0x3c071376	0.008244386
8	0xbeaa25c9	-0.33231953
9	0x3c00cbef	0.007861122
10	0x3e00dd22	0.12584355
11	0xbe0e40c9	-0.13891901
12	0x3c2b3cd8	0.010451518
13	0xbc168083	-0.009185913
14	0x3d3497d9	0.044090126
15	0xbdbb523d	-0.09146545
16	0xbdeab059	-0.11459417
17	0x3d095875	0.033531625
18	0x3ea6a70d	0.32549325
19	0x3e2049c8	0.15653145
20	0xbd5ceae0	-0.05393493
21	0xbe8d3624	-0.2758037
22	0x3cb70f25	0.022346089
23	0xbd2db0ab	-0.04240481
24	0xbd692a64	-0.056925192
25	0xbb0f9c27	-0.0021913142
26	0x3c036530	0.00801973
27	0xbc934c1d	-0.01798063
28	0xbe305c2e	-0.17222664
29	0x3e1f14b1	0.15535237
30	0x3dcc327e	0.09970568
31	0xbe39aa73	-0.18131427
32	0xbb8dfff1	-0.004333489
33	0xbba20b22	-0.004945175
34	0x3e106fa4	0.14105088
35	0xbdb1ebaa	-0.086875275
36	0xba60c521	-0.00085742964
37	0x3ea01c8c	0.3127178
38	0x3c01cf29	0.007922926
39	0x3df7d9a5	0.12102059
40	0x3e0ac0a6	0.13550052
41	0xbdd306c2	-0.10304023
42	0xbe408112	-0.18799236
43	0xbddf2d61	-0.10897327
44	0xbdec6b18	-0.11543864
45	0x3eb79a05	0.35859695
46	0x3e2afdbf	0.16698359
47	0xbceb91e6	-0.028756093
48	0xbc3959e9	-0.01131294
49	0xbe3fd37e	-0.18733022
50	0xbbb6dd5a	-0.0055805864
51	0xbe8eee13	-0.2791601
52	0x3dcb0a6f	0.099140994
53	0x3b48e58d	0.00306544
54	0x3d8ae7d5	0.067825
55	0x3d868412	0.06568159
56	0xbd19c4f5	-0.03754135
57	0xbe6a4700	-0.22878647
58	0xbd57a6a5	-0.05264916
59	0x3d2c3954	0.04204686
60	0xbe942519	-0.28934553
61	0xbde1529a	-0.11002083
62	0x3cfd34a3	0.030908888
63	0x3e46f78d	0.1943037
64	0xbd102467	-0.035190966
65	0x3e014dec	0.12627381
66	0x3d4a9cae	0.049465828
67	0x3e1c23f7	0.15248094
68	0xbdd90c9f	-0.105981104
69	0x3dacef1c	0.08444044
70	0xbc3ae219	-0.011406445
71	0x3d942447	0.07233482
72	0xbc4e871f	-0.012605458
73	0x3c4ddcb1	0.012564824
74	0xbd194b06	-0.037425064
75	0x3d30a1bc	0.043122992
76	0xbd25e9f2	-0.04050631
77	0x3cc3f915	0.023922483
78	0x3c486382	0.012230756
79	0xbd81c8cb	-0.06337126
80	0x3ea7ac10	0.3274846
81	0xbdb7d85f	-0.089768164
82	0x3e021a80	0.12705421
83	0xbd6db4e4	-0.05803384
84	0xbe859d21	-0.26096442
85	0xbe725cff	-0.23668288
86	0xbd6c54cc	-0.057698056
87	0xbd8fb239	-0.07016415
88	0xbd92b53f	-0.07163476
89	0xbe75195f	-0.2393546
90	0x3caf424b	0.021393916
91	0x3e66394a	0.22482792
92	0xbd53b826	-0.05168929
93	0xbd207d65	-0.039182086
94	0xbe42e589	-0.19032873
95	0x3e171b5d	0.14756532
96	0xbd5ad0b2	-0.053421684
97	0xbd3b97a5	-0.045798916
98	0x3d0ec092	0.034851618
99	0x3d233426	0.039844655
100	0x3ce03201	0.027367594
101	0xbc47fbfb	-0.012206073
102	0xbe1d8bd2	-0.15385368
103	0xbea28829	-0.31744507
104	0x3e78fb68	0.24314654
105	0xbd5215ed	-0.05129044
106	0x3e6fae56	0.23406348
107	0xbd64ceef	-0.05586141
108	0xbe826f2e	-0.25475448
109	0x3d355433	0.04426975
110	0xbe30f484	-0.17280775
111	0xbe514cd8	-0.2043947
112	0x3d643200	0.055711746
113	0xbe86c82f	-0.26324603
114	0x3d940290	0.07227051
115	0xbe22ee02	-0.15911105
116	0xbd3ba716	-0.045813642
117	0x3d611276	0.054949246
118	0x3dd5c51d	0.10437987
119	0x3da1a278	0.078923166
120	0x3cc9b145	0.024620662
121	0xbd0d1bbe	-0.034450285
122	0xbe17cc08	-0.14823925
123	0x3dadbca5	0.08483247
124	0x3e09cad2	0.13456276
125	0xbba958f0	-0.005168073
126	0xbc09118b	-0.008365999
127	0x3e605f5c	0.21911377
128	0xbe367f6c	-0.17822045
129	0x3b05af39	0.002039863
130	0xbd29ad39	-0.041424964
131	0xbe1b05aa	-0.1513888
132	0x3a16ed37	0.00057573937
133	0xbc32582f	-0.010885282
134	0x3de68f81	0.1125784
135	0xbdff7c04	-0.12474826
136	0xbebaed1c	-0.36509025
137	0xbd68590d	-0.05672555
138	0xbe39ed33	-0.1815689
139	0xbd929092	-0.07156481
140	0x3ecc9a8f	0.3996167
141	0x3d5d0b32	0.053965755
142	0xbc33a75b	-0.010965194
143	0xbdaae84c	-0.08345088
144	0x3e404695	0.18776925
145	0x3ed61b30	0.41817617
146	0xbdd736d1	-0.10508502
147	0x3ce0427a	0.027375448
148	0xbc147993	-0.009062189
149	0x3ccabca5	0.024748156
150	0xbc4e757d	-0.012601254
151	0x3cedc0dc	0.029022627
152	0x3d40b922	0.047051556
153	0x3cdb1d45	0.026747355
154	0x3d26226c	0.04056017
155	0x3c4ea17c	0.012611743
156	0xbd5e3831	-0.054252807
157	0x3c55eaae	0.01305644
158	0x3d6b4334	0.057437137
159	0x3c8b7d44	0.017027505
160	0x3d36ff50	0.04467708
161	0xbda0592c	-0.07829508
162	0x3dc47bc2	0.095939174
163	0xbd0002e3	-0.031252753
164	0xbd8cbd43	-0.06872036
165	0xbd81357f	-0.06309032
166	0x3d43e875	0.04782911
167	0x3e93ca9d	0.2886552
168	0xbd0bc4bf	-0.03412318
169	0xbddb4d29	-0.107080765
170	0xbd965dd5	-0.07342116
171	0x3bcafe10	0.0061948374
172	0xbd8f6105	-0.07000927
173	0x3e9227c8	0.28545976
174	0x3e0d793e	0.13815781
175	0xbd982319	-0.07428569
176	0xbd5e2a7c	-0.054239735
177	0x3e8ca64f	0.27470633
178	0xbd6d8d72	-0.05799622
179	0xbc1875fe	-0.009305475
180	0xbc2052dc	-0.00978538
181	0x3e2487d4	0.1606744
182	0xbdb97016	-0.09054582
183	0xbba4ccdd	-0.0050293044
184	0xbd90ef3e	-0.07076882
185	0xbf0205b2	-0.5078994
186	0x3e3e3e99	0.18578567
187	0xbcec1a70	-0.0288212
188	0xbdcbd52f	-0.09952771
189	0x3c1761e5	0.0092396485
190	0xbe206c4d	-0.15666313
191	0xbc1a60a2	-0.009422453
192	0x3e98c5c6	0.2983839
193	0x3d901440	0.070351124
194	0x3e0c03aa	0.13673273
195	0x3e89ff2c	0.26952493
196	0xbd280d1c	-0.041028127
197	0xbad742bf	-0.001642309
198	0x3cb60112	0.022217307
199	0xbeddd9e7	-0.4333031
200	0xbe41a966	-0.18912277
201	0x3d6ea8f4	0.058266595
202	0xbd9b360d	-0.07578669
203	0x3ee1e105	0.4411699
204	0xbe36b474	-0.17842275
205	0x3e25ff80	0.16210747
206	0x3deb23fb	0.11481472
207	0x3ce1d07e	0.027565237
208	0xbd8261a7	-0.06366282
209	0xbe4f90dd	-0.20270105
210	0x3d0ce116	0.034394346
211	0xbd088712	-0.033331938
212	0x3da03c24	0.07823971
213	0x3d006296	0.03134402
214	0x3aa50966	0.0012591302
215	0xbe7860b5	-0.24255641
216	0x3cb15834	0.021648504
217	0x3d463a0e	0.04839521
218	0x3c69298d	0.014231098
219	0x3d8f9ed1	0.07012714
220	0x3e779d4f	0.24181102
221	0x3dc8e9fd	0.09810255
222	0xbe1a760b	-0.15084092
223	0x3c730b47	0.014834232
224	0x3c7dae7a	0.015483493
225	0x3e5c9cc4	0.21544176
226	0xbd3a60d0	-0.045502484
227	0xbe71fd4b	-0.2363178
228	0xbdc27f02	-0.09496881
229	0xbd2013b4	-0.03908129
230	0x3d890936	0.0669121
231	0x3ed0c748	0.4077704
232	0x3d746968	0.059670836
233	0x3f086cc6	0.53290975
234	0xbea0838f	-0.3135037
235	0xbd379879	-0.044823144
236	0xbcb89054	-0.022529759
237	0xbdaaa163	-0.08331563
238	0x3e166e58	0.1469053
239	0xbd74afc3	-0.059737932
240	0x3e18ce7e	0.1492252
241	0xbcfa6066	-0.030563544
242	0xbd779683	-0.060446274
243	0xbd8f139b	-0.06986161
244	0x3e18178f	0.14852737
245	0xbcfd6d0c	-0.030935787
246	0x3b5643b9	0.0032694174
247	0xbd264d1d	-0.040600885
248	0xbd9e4785	-0.07728485
249	0xbe62f0c6	-0.2216216
250	0xbe9e2cf2	-0.30893666
251	0x3c9816cb	0.018565556
252	0xbe0b0b5d	-0.13578553
253	0xbcaea8ff	-0.021320818
254	0xbe2967f5	-0.16543563
255	0xbe03f5c6	-0.12886724

fc3.weight f4 [1, 256]
0	0x3e37ba7b	0.1794223
1	0xbd3a9284	-0.045549884
2	0x3cba100c	0.02271273
3	0x3a095167	0.0005238265
4	0x3e0c305e	0.13690326
5	0xbdde5e9f	-0.10857891
6	0xbc9f02b3	-0.019410467
7	0x3e3bc04b	0.18335073
8	0xbd9331a9	-0.07187206
9	0x3e2d23fd	0.1690826
10	0x3ccd6a9c	0.02507525
11	0xbb84152e	-0.004030845
12	0xbc97cdfc	-0.018530838
13	0xbce9e032	-0.028549287
14	0xbd2f55a2	-0.042806275
15	0x3c94f8d7	0.018185062
16	0xbdfe29b1	-0.12410296
17	0xba238749	-0.00062381156
18	0x3e4beb81	0.19914056
19	0xbe012d1d	-0.12614866
20	0xbde8f39d	-0.113745905
21	0x3ec9fbf1	0.3945003
22	0x3cc597d2	0.024120245
23	0x3e637f47	0.22216521
24	0xbd4e72ff	-0.050402638
25	0x3d8308dc	0.06398174
26	0xbbc417a4	-0.0059842635
27	0xbcb14eb4	-0.021643974
28	0xbd9195a2	-0.07108618
29	0xbead5f15	-0.33861604
30	0xbcf36711	-0.029712232
31	0xbda0bcdf	-0.07848524
32	0x3d556024	0.05209364
33	0xbd842dc4	-0.064540416
34	0x3cc2f204	0.023797043
35	0xbda3a654	-0.07990709
36	0xbe57a1a5	-0.21057756
37	0x3da8ca97	0.08241766
38	0xbc14db06	-0.009085422
39	0x3f19e9e4	0.60122514
40	0x3dc4a8c4	0.09602502
41	0xbc5ec0e5	-0.013595794
42	0x3e8fbaff	0.28072354
43	0xbdacd0a2	-0.08438231
44	0xbe808085	-0.25098053
45	0x3e9b460f	0.30326888
46	0x3c4b2e93	0.012401241
47	0x3d37d326	0.0448791
48	0x3c352080	0.011055112
49	0x3e320f4b	0.17388646
50	0x3c9706a1	0.018435778
51	0xbcfd3c42	-0.030912522
52	0x3e88ee6b	0.26744398
53	0x3a964398	0.0011464236
54	0x3cd24849	0.025669234
55	0xbea1a89a	-0.31573945
56	0x3cfb1fb6	0.03065477
57	0xbe070ac8	-0.13187706
58	0xbcc84539	-0.02444707
59	0xbd55caae	-0.052195244
60	0x3f14e145	0.58156234
61	0xbe293df8	-0.16527545
62	0x3a1dc278	0.0006018053
63	0x3cedca6a	0.029027183
64	0xbcd3743f	-0.025812266
65	0x3e359ed0	0.17736363
66	0x3ce61aee	0.028089013
67	0x3e6bf07a	0.23040953
68	0xbd8a4e4b	-0.067532144
69	0x3eb9849c	0.36233985
70	0xbe65b352	-0.22431687
71	0x3e6a61e6	0.22888908
72	0xbd4a3644	-0.049368158
73	0x3d334362	0.043765433
74	0xba60cf5c	-0.0008575821
75	0xbd49e0df	-0.04928672
76	0x3bc7a400	0.0060925484
77	0x3e19af40	0.15008259
78	0xbd0f32ce	-0.03496056
79	0xbc9e33b7	-0.019311769
80	0x3ecd8c45	0.4014608
81	0xbddc08f9	-0.10743899
82	0x3e0bce4f	0.13652919
83	0xbde93e32	-0.11388816
84	0xbe421681	-0.18953897
85	0xbed8cdb5	-0.42344442
86	0x3d17220b	0.0368977
87	0x3d899587	0.06717973
88	0x3a34db44	0.0006899128
89	0xbca30ea0	-0.019904435
90	0x3cfb4223	0.030671185
91	0x3b5d5747	0.0033773945
92	0xbc81f0e3	-0.015861934
93	0x3b0f76d8	0.0021890905
94	0x3de2b95f	0.11070513
95	0x3ce5e615	0.028063813
96	0xbd666438	-0.05624792
97	0x3e310fa1	0.17291118
98	0xbd8f1d1a	-0.069879726
99	0xbe17e912	-0.14835003
100	0xb97b7fa6	-0.00023984778
101	0x3dc235a2	0.09482886
102	0xbb746a06	-0.003729464
103	0x3e840833	0.25787506
104	0xbdf7081f	-0.12062096
105	0xbedc9cfb	-0.43088517
106	0x3d88a2ac	0.06671652
107	0xbb357801	-0.0027689936
108	0xbf0eefd7	-0.55834717
109	0x3d5f2806	0.05448153
110	0xbd9560ec	-0.07293877
111	0xbe09e58a	-0.13466468
112	0xbd1831da	-0.037156917
113	0xbce080dc	-0.027405195
114	0xbd137a40	-0.03600526
115	0xbda93e13	-0.08263793
116	0x3b95f791	0.0045766314
117	0x3da2e328	0.07953483
118	0x3cebb80b	0.028774282
119	0x3d8a0920	0.06740022
120	0xbbfc88de	-0.0077067455
121	0x3d9b233f	0.07575082
122	0xbe023067	-0.12713777
123	0xbe47e971	-0.19522645
124	0xbdc590e0	-0.09646773
125	0x3deb6171	0.11493195
126	0xbd50c7a9	-0.05097166
127	0x3da561a8	0.08075267
128	0xbd9593e2	-0.07303597
129	0x3d215a52	0.039392777
130	0xbdf5d21d	-0.120029666
131	0xbde42e2d	-0.1114162
132	0x36a8c9f9	5.030303e-06
133	0x3ebae3b7	0.36501858
134	0xbe18b889	-0.14914145
135	0xbddf87eb	-0.10914596
136	0xbd21d710	-0.03951174
137	0xbca18e4f	-0.019721178
138	0xbea2e514	-0.31815398
139	0x3edda7a1	0.43291953
140	0xbedd67e8	-0.43243337
141	0xbd85c943	-0.06532528
142	0xbdb3a60b	-0.087719046
143	0x3df143b4	0.117804915
144	0xbe564ea6	-0.2092844
145	0x3f3c3801	0.73522955
146	0x3d7494f9	0.059712384
147	0x3bc845ff	0.00611186
148	0x3cfbad7c	0.030722372
149	0x3d90293c	0.07039115
150	0x3e567dc2	0.2094641
151	0xbd100fc2	-0.035171278
152	0xbd04bb4a	-0.032405175
153	0xbc869b68	-0.016431525
154	0x3d099bfe	0.03359603
155	0x3df6dab6	0.120534346
156	0x3d58d743	0.052939665
157	0x3e0d4f71	0.13799836
158	0x3cda0143	0.02661193
159	0x3cf42ebc	0.029807441
160	0xbdc50c07	-0.09621435
161	0xbc88efbd	-0.016715879
162	0x3d52d14b	0.05146913
163	0x3a52c7fb	0.00080406637
164	0xbcadd5fd	-0.021220202
165	0xb997cda2	-0.00028954173
166	0x3d7cfd8a	0.06176523
167	0xbe846c32	-0.25863796
168	0x3d13726f	0.035997804
169	0xbe57e382	-0.21082881
170	0xbc93ff9f	-0.018066226
171	0x3e86f774	0.26360667
172	0xbbf10e05	-0.0073564076
173	0xbe4e5525	-0.20149668
174	0xbe640ce6	-0.22270545
175	0x3bb9f9a9	0.0056755138
176	0xbe67a6e0	-0.22622252
177	0xbe35c60a	-0.17751327
178	0xbc97d0b1	-0.018532129
179	0xbda04333	-0.07825317
180	0xba8b2f24	-0.0010618907
181	0x3e68495d	0.22684236
182	0xbd081446	-0.03322246
183	0x3b9e61ac	0.0048334207
184	0xbb862d3f	-0.004094749
185	0xbdc14355	-0.09436671
186	0x3dc6c1a0	0.097049
187	0x3cf21a1a	0.029553462
188	0x3e3684ff	0.17824171
189	0xbd432e30	-0.04765147
190	0xbd94e4c5	-0.07270197
191	0x3c815bfe	0.015790936
192	0xbe718d31	-0.23589016
193	0x3dcd15d8	0.10013932
194	0x3e39cab3	0.1814373
195	0x3d7118bd	0.058861483
196	0xbd66e185	-0.056367416
197	0xbd3b39fa	-0.045709588
198	0xbc0f972e	-0.008764071
199	0xbe250df1	-0.161186
200	0xbe0eac8a	-0.13933006
201	0x3dc0c6bb	0.09412905
202	0x3d9639c6	0.07335238
203	0x3ec8f71c	0.3925103
204	0xbd0d775f	-0.03453767
205	0x3dc30148	0.09521729
206	0x3d7df6db	0.062002998
207	0x3e3a67eb	0.18203704
208	0xbc73f021	-0.014888794
209	0xbd735fec	-0.05941765
210	0x3a77f0a3	0.000945816
211	0x3d0be135	0.03415032
212	0x3e0457e4	0.12924153
213	0x3c995cb9	0.018720971
214	0xbceca8bd	-0.028889054
215	0xbef146b0	-0.47124243
216	0x3d44ad40	0.048016787
217	0x3d42f4e1	0.047596816
218	0xbce68d51	-0.028143557
219	0x3d1f7d14	0.038937643
220	0xbf02b4a8	-0.5105691
221	0xb88fcd85	-6.857052e-05
222	0xbc95cda1	-0.018286528
223	0xbd141320	-0.03615105
224	0x3b089c4c	0.0020845113
225	0xbe5a5d62	-0.21324685
226	0x3d3a77c1	0.045524362
227	0x3e151317	0.14558063
228	0xbd9c3f11	-0.076292165
229	0x3b8988f6	0.004197235
230	0xbd8569cb	-0.06514319
231	0x3eb9b11f	0.36267945
232	0x3e4792b1	0.19489552
233	0xbece5a3f	-0.40303227
234	0xbe169621	-0.14705707
235	0xbcefcdca	-0.029272933
236	0xbda13a6f	-0.078724734
237	0xbd486248	-0.048921853
238	0x3e645a90	0.22300172
239	0x3c84349c	0.016138367
240	0x3e5bd109	0.2146646
241	0x3b5f8936	0.0034108884
242	0xbd5394ee	-0.051655702
243	0xbd2962d8	-0.04135403
244	0x3e2495c1	0.16072752
245	0x3c827000	0.015922546
246	0x3d2db95c	0.0424131
247	0xbd23f5ee	-0.04002946
248	0x3d6680f3	0.05627532
249	0xbe95ffbc	-0.29296672
250	0xbf1d926a	-0.61551535
251	0xbd645930	-0.05574912
252	0x3d85211d	0.065004565
253	0xbd4c8e71	-0.04994053
254	0xbda57978	-0.08079809
255	0x3d83e160	0.06439471
