TD3/models/reward_s9e-3_a4e-2_t(-0.1_0.01).pth (torch, 275287 bytes, 5 tensors)

fc1.weight f4 [256, 8]
0	0xbf42b293	-0.7605373
1	0x3dd0aa0e	0.10188685
2	0x3ea099f4	0.31367457
3	0xbdcb28e5	-0.099199094
4	0xbf05b5f6	-0.52230775
5	0xbed476a6	-0.41496772
6	0x3e455eaa	0.19274393
7	0x3d701ba1	0.0586201
8	0xb9f5074e	-0.00046735484
9	0x3b185352	0.0023243022
10	0xbeb0eda1	-0.34556296
11	0xbe0fa280	-0.14026833
12	0x3e0458eb	0.12924545
13	0x3d4fe080	0.05075121
14	0xbed2051a	-0.41019517
15	0x3d821333	0.06351318
16	0x3eb39fa0	0.35082722
17	0x3ec830d1	0.39099744
18	0xbdd61fe6	-0.10455303
19	0xbf002b93	-0.5006649
20	0x3e3fa48a	0.1871511
21	0xbe14f8b9	-0.14548005
22	0xbf96840e	-1.175905
23	0xbd5908a6	-0.052986763
24	0x3e3eb341	0.18623067
25	0x3d2b0bce	0.041759305
26	0xbf491a0d	-0.78555375
27	0x3eb0c9ca	0.34528953
28	0xbcf9637d	-0.030442948
29	0x3c8b8011	0.01702884
30	0x3fe80479	1.8126365
31	0x3dddcd92	0.10830225
32	0x3eb491e5	0.3526756
33	0xbe3fb597	-0.18721615
34	0x3d5d3be2	0.054012187
35	0xbd381ca4	-0.04494919
36	0x3b372a1b	0.002794868
37	0xbe95d82b	-0.29266486
38	0xbf8681e8	-1.0508394
39	0x3e103d87	0.14085971
40	0x3e604588	0.21901524
41	0x3e20c176	0.156988
42	0x3f1c60f4	0.6108544
43	0x3e4e517c	0.20148271
44	0xbc3a053f	-0.01135379
45	0xbce2117b	-0.027596226
46	0x3edd8fc5	0.4327375
47	0x3e5679a4	0.2094484
48	0x3e84b4e4	0.2591926
49	0x3e9d733a	0.30751973
50	0xbe767970	-0.24069762
51	0x3e3a5670	0.18197036
52	0xbe09e7b7	-0.13467298
53	0x3dd65bb8	0.10466713
54	0x4008634e	2.131061
55	0x3e6b883d	0.2300119
56	0xbe2a610c	-0.16638583
57	0xbec144ec	-0.37747896
58	0x3de10729	0.10987694
59	0x3f0603af	0.5234937
60	0x3b8a06d9	0.004212242
61	0x3e4ce932	0.20010832
62	0x3f69069f	0.9102573
63	0xbb75b99c	-0.0037494665
64	0x3f401936	0.7503847
65	0x3d60cba7	0.054881718
66	0xbe7d7330	-0.24750972
67	0xbda1ca96	-0.07899968
68	0xbc9f7033	-0.01946268
69	0xbdf5faa6	-0.12010698
70	0x3d12a63c	0.035803065
71	0x3e34a683	0.17641644
72	0x3d84ddcd	0.06487618
73	0x3daa52eb	0.083165966
74	0x3e21d7e5	0.15805013
75	0xbeeca851	-0.46222165
76	0x3cb5086c	0.022098742
77	0x3d713797	0.058890905
78	0x3f08b528	0.5340142
79	0xbec33f0f	-0.38134047
80	0x3dbec969	0.0931576
81	0x3ee1d1e5	0.4410545
82	0x3de73f5a	0.1129138
83	0xbe48f4d2	-0.19624642
84	0x3e9f521b	0.3111733
85	0xbd357b29	-0.044306908
86	0xbeb43163	-0.3519393
87	0xbe299076	-0.16559014
88	0x3b76c2cc	0.003765273
89	0xbe1a3fcb	-0.15063398
90	0xbe820b80	-0.253994
91	0xbe3f1052	-0.1865857
92	0xbd994bb2	-0.07485141
93	0xbd46c21f	-0.048524972
94	0xbcf4a6a8	-0.029864624
95	0xbe874bf4	-0.26425135
96	0x3e0f5d06	0.1400033
97	0xbbfec6c8	-0.0077751614
98	0x3d384fca	0.044997968
99	0x3ec8e1c8	0.39234757
100	0x3e517343	0.20454125
101	0x3e3a4756	0.18191275
102	0xbf684cea	-0.9074236
103	0x3e82aa06	0.25520343
104	0x3e39d319	0.18146934
105	0x3e5b576c	0.21420068
106	0xbe996235	-0.2995774
107	0x3eabe16f	0.3357043
108	0xbb70b546	-0.003672914
109	0xbd725913	-0.05916698
110	0xbea7942e	-0.3273024
111	0x3ecdca13	0.40193233
112	0x3e34ab20	0.17643404
113	0x3d42b72f	0.04753798
114	0xbe981081	-0.2970009
115	0xbeaa7e5f	-0.33299538
116	0xbe18af18	-0.14910543
117	0xbeb16dff	-0.34654233
118	0x3e8d416b	0.27588972
119	0xbe7e38a6	-0.24826297
120	0xbe9eb0bd	-0.30994216
121	0xbd77ce8d	-0.060499717
122	0x3ec5b5b2	0.38615185
123	0x3e854d1d	0.26035395
124	0xbdbec667	-0.09315186
125	0xbe555cf8	-0.20836246
126	0x3ed7cdd6	0.42149228
127	0xbe53b723	-0.2067533
128	0x3e008b91	0.1255324
129	0x3ef7948f	0.4835553
130	0xbf1e3d6e	-0.61812484
131	0xbe99d92c	-0.30048501
132	0xbebd9b4b	-0.37032542
133	0x3e701bfa	0.23448172
134	0xbf4fb27c	-0.8113172
135	0xbe67a0b5	-0.22619899
136	0xbea0727f	-0.31337354
137	0x3dfda5a2	0.123851076
138	0x3f032980	0.512352
139	0xbdb4e6db	-0.08833095
140	0x3db528ea	0.08845694
141	0x3dc0c29b	0.09412118
142	0xbf81cfdd	-1.014156
143	0xbee23de0	-0.44187832
144	0x3e4374d5	0.19087537
145	0x3df49e7b	0.1194429
146	0xbdac8c79	-0.084252305
147	0xbe288c6b	-0.16459815
148	0xbd84cad2	-0.064839974
149	0xbd7c8afe	-0.06165599
150	0x3e92a581	0.28641894
151	0xbe5c6196	-0.21521601
152	0x3ee1744f	0.4403405
153	0xbe56cbd6	-0.20976195
154	0xbea52543	-0.3225499
155	0x3d83cef3	0.06435957
156	0xbca335ef	-0.019923178
157	0xbd1a0e5a	-0.037611343
158	0x3eacb5b3	0.33732376
159	0x3ed6b395	0.41933885
160	0xbeef352b	-0.4672025
161	0xbd157c31	-0.03649539
162	0xbdced479	-0.1009912
163	0x3c912755	0.01771895
164	0x3dedff29	0.116209336
165	0x3d9cb018	0.07650775
166	0x3eca8b18	0.39559245
167	0xbe1f5ec4	-0.15563494
168	0xbefad684	-0.48991787
169	0xbd627fae	-0.055297546
170	0x3f4c846a	0.7988955
171	0x3ed4b413	0.41543636
172	0xbd09fe52	-0.033689804
173	0x3e6304c9	0.22169794
174	0xbeb0dda3	-0.34544095
175	0xbdee95be	-0.11649655
176	0xbebefbe0	-0.3730154
177	0x3e8e3794	0.27776778
178	0xbd245bfe	-0.040126793
179	0xbedb2816	-0.4280402
180	0x3e2709ec	0.16312379
181	0xbe66fb1d	-0.2255673
182	0xbe1cd769	-0.15316547
183	0xbf1319fc	-0.57461524
184	0x3f092749	0.5357557
185	0xbd95b201	-0.07309342
186	0xbf46e302	-0.77690136
187	0x3dc7f1ca	0.097629145
188	0xbd62f822	-0.05541242
189	0x3d84731f	0.0646727
190	0x40059d0e	2.0877109
191	0x3d970ece	0.07375871
192	0x3f6a8ed1	0.9162417
193	0xbe8f734c	-0.28017652
194	0xbf5c140f	-0.85968107
195	0x3ebf1111	0.37317708
196	0xbcfc8536	-0.030825239
197	0xbcd0419a	-0.025421906
198	0xbe67811a	-0.22607842
199	0x3da2a996	0.07942502
200	0x3e984b33	0.29744872
201	0xbdbcb8ea	-0.09214957
202	0xbd00a27e	-0.031404965
203	0xbdd945f8	-0.106090486
204	0xbe250f44	-0.16119105
205	0xbdd43a3d	-0.103626706
206	0x3e954663	0.29155263
207	0xbeb392b1	-0.35072854
208	0xbee478e9	-0.44623497
209	0xbf088f41	-0.5334359
210	0xbf546abc	-0.82975364
211	0xbdc01389	-0.09378726
212	0x3dcc1580	0.09965038
213	0x3d1f1de5	0.03884687
214	0xbfb7783b	-1.4333566
215	0x3e068a65	0.13138731
216	0x3f10f2ea	0.5662066
217	0xbec94335	-0.39309087
218	0x3eb0ea35	0.34553686
219	0x3eb10026	0.34570426
220	0x3d12a5cd	0.03580265
221	0xbc21566a	-0.009847263
222	0x3f5bcc3e	0.85858524
223	0xbe077209	-0.13227095
224	0xbe964dd1	-0.29356244
225	0xbe2f62b5	-0.17127497
226	0xbefb21ca	-0.49049217
227	0xbe8e61e1	-0.2780905
228	0xbe6c6551	-0.23085524
229	0xbe304c09	-0.17216505
230	0xbed2c031	-0.41162255
231	0x3e6dbb87	0.23216067
232	0x3e66eef2	0.22552088
233	0xbf0b09be	-0.5431174
234	0x3e91b073	0.28454933
235	0x3d7f0716	0.062262617
236	0xbdac9198	-0.08426207
237	0x3e85fc6b	0.26169142
238	0x3fb2a771	1.3957349
239	0xbeaab972	-0.3334461
240	0xbd5502e6	-0.052004717
241	0xbeaa8686	-0.33305758
242	0xbf7f2f60	-0.99681664
243	0x3ed923d4	0.42410147
244	0x3e1788fe	0.14798352
245	0xbe1b4608	-0.15163434
246	0xbf1ee302	-0.62065136
247	0x3d1bd7e9	0.038047705
248	0x3f22b79f	0.63561434
249	0xbe873e43	-0.2641469
250	0x3ee8f064	0.45495903
251	0x3e9efc21	0.31051734
252	0x3c3f91e5	0.011692499
253	0xbe57cc83	-0.21074109
254	0xbed18678	-0.40922904
255	0xbe47a0b0	-0.19494891

fc1.bias f4 [256]
0	0x3eef5880	0.46747208
1	0xbf26d1d6	-0.65163934
2	0xbc1f5526	-0.009724891
3	0xbf23b045	-0.6394084
4	0xbeaa66be	-0.3328151
5	0x3ef2f458	0.47452044
6	0x3e9c39c8	0.30512834
7	0x3edc99d4	0.43086112
8	0xbede23d9	-0.43386725
9	0x3f169506	0.5882114
10	0xbeba7ae0	-0.3642187
11	0xbe83233e	-0.25612825
12	0xbf033cb6	-0.5126451
13	0xbf01d72f	-0.5071897
14	0xbe75c39f	-0.24000405
15	0xbdf5093f	-0.11964654
16	0xbf6a3045	-0.91479903
17	0xbdd234b3	-0.10263958
18	0xbeacd9bf	-0.33759877
19	0xbd9f21d3	-0.07770123
20	0xbe1c275d	-0.15249391
21	0x3f4c1ee4	0.79734635
22	0xbea64b17	-0.32479164
23	0xbe85a50d	-0.26102486
24	0xbf58f408	-0.8474736
25	0x3e162c31	0.14665295
26	0xbeac67d5	-0.33672968
27	0x3ecdec44	0.4021932
28	0x3d8ad6d6	0.06779258
29	0x3f02251c	0.50837874
30	0xbe9a1913	-0.30097255
31	0x3d5094aa	0.050923027
32	0xbc565bae	-0.013083382
33	0xbea67d99	-0.32517698
34	0x3d663fb7	0.056213107
35	0x3f6be4bf	0.92145914
36	0x3ef5cf85	0.48009887
37	0x3f426071	0.7592841
38	0xbd8c87ac	-0.06861815
39	0xbe3e30c1	-0.18573286
40	0x3f50beb6	0.81541
41	0x3f1ed423	0.62042445
42	0xbdc926a5	-0.09821824
43	0x3f809092	1.0044119
44	0xbf2bda20	-0.6712971
45	0x3e673d47	0.22581969
46	0x3e0c4ed3	0.13701944
47	0x3ebd37d9	0.3695667
48	0x3f5e4d3d	0.86836606
49	0xbd948934	-0.07252732
50	0xbdcd772b	-0.10032495
51	0xbe6429ec	-0.22281617
52	0xbf09f701	-0.53892523
53	0x3e21fb2e	0.15818474
54	0xbe407b2d	-0.18796988
55	0x3e0be514	0.13661605
56	0xbec8b02c	-0.39196908
57	0xbe821747	-0.25408384
58	0xbe76f225	-0.24115808
59	0xbdb7454b	-0.089487635
60	0xbedd6d49	-0.4324744
61	0x3e570d4c	0.21001166
62	0x3dd81517	0.105508976
63	0x3e88180b	0.26580843
64	0xbe4b6099	-0.19861068
65	0xbe40894d	-0.18802376
66	0x3f27d9d2	0.6556674
67	0x3ee511b8	0.4474008
68	0x3f4cfdd3	0.80074805
69	0xbd005b3b	-0.031337004
70	0xbea2fc86	-0.31833285
71	0x3f64ebf8	0.8942256
72	0x3d8bfa25	0.06834821
73	0xbf27bb72	-0.65520394
74	0x3e8d975b	0.27654538
75	0xbea5fd6d	-0.3241991
76	0xbe20ef47	-0.15716277
77	0x3ecbee53	0.39830264
78	0xbe49c119	-0.19702567
79	0xbcea3c25	-0.028593132
80	0x3cc8bac6	0.024503123
81	0x3dd0993c	0.10185477
82	0xbe9c871a	-0.30571824
83	0x3f233e0e	0.6376656
84	0xbe391a01	-0.18076326
85	0xbee3a161	-0.4445906
86	0xbe85fc3b	-0.26169
87	0x3edd9b60	0.43282604
88	0xbdcbe611	-0.09955991
89	0xbeecf6b3	-0.46281967
90	0xbdf3bf5e	-0.11901735
91	0x3db7402e	0.08947788
92	0x3f68ba3d	0.9090918
93	0xbef55063	-0.47912893
94	0xbef10212	-0.47071892
95	0xbd748db5	-0.059705455
96	0x3e136d75	0.14397223
97	0x3eab6832	0.33477932
98	0xbd8473ff	-0.06467437
99	0xbe7be321	-0.24598362
100	0xbd73c923	-0.05951799
101	0xbf04b18e	-0.51833427
102	0x3e9b8ca5	0.3038074
103	0xbde882da	-0.11353083
104	0xbe88d986	-0.26728457
105	0x3db2a91f	0.087236635
106	0xbde18be2	-0.11013009
107	0xbed53e48	-0.4164908
108	0x398a15ae	0.00026337564
109	0xbc0ac430	-0.008469626
110	0x3ed22ed7	0.4105136
111	0x3f523c77	0.8212351
112	0x3d12ed30	0.03587073
113	0x3f39dbaf	0.72600836
114	0x3db1fed4	0.08691183
115	0x3de52bfa	0.111900285
116	0x3eb4b340	0.35293007
117	0x3eae6c46	0.3406698
118	0xbefe06e0	-0.4961462
119	0xbed61f5f	-0.4182081
120	0x3f0cc6d3	0.5499088
121	0x3ead6551	0.3386636
122	0x3e3b7ce9	0.18309368
123	0x3f1645fa	0.58700526
124	0x3f20107e	0.62525165
125	0xbd8905b0	-0.06690538
126	0xbf1e634c	-0.61870265
127	0xbcb2fd5d	-0.021849329
128	0xbe817d43	-0.2529088
129	0xbe2e9574	-0.170492
130	0xbc6cd4d5	-0.01445504
131	0x3e63116a	0.22174612
132	0x3f12c2a3	0.5732824
133	0xbf0f2c4f	-0.55926985
134	0x3e1b61c4	0.15174013
135	0xbea1c8fd	-0.31598654
136	0xbe4a3db7	-0.19750105
137	0xbea05965	-0.31318203
138	0x3eb415c5	0.3517286
139	0xb99dda37	-0.00030107956
140	0xbd629412	-0.055316992
141	0x3e6c5d4b	0.23082463
142	0x3ee9bfa1	0.45654014
143	0x3ebb4e7d	0.3658332
144	0xbec0a7b9	-0.37627962
145	0xbd135ee5	-0.03597917
146	0xbef6f44a	-0.48233253
147	0x3e548e4f	0.20757411
148	0x3dcbca89	0.0995074
149	0x3ee08537	0.43851635
150	0xbe97dff4	-0.2966305
151	0x3e8c5785	0.27410522
152	0xbdaab4b5	-0.083352484
153	0xbde67d70	-0.11254394
154	0x3d78207a	0.060577847
155	0x3e685d01	0.22691728
156	0x3e5d3c23	0.21604972
157	0xbd115200	-0.035478592
158	0x3ea19519	0.31559065
159	0x3f02ec8d	0.511422
160	0x3e2497bc	0.16073507
161	0xbebcf895	-0.36908403
162	0x3fb2e42f	1.3975886
163	0x3e53c64c	0.20681113
164	0x3f1cc317	0.61235183
165	0x3e99c266	0.30031127
166	0x3cdec8d5	0.027195374
167	0x3eea87e2	0.45806795
168	0x3bc7ae5d	0.006093784
169	0x3ec471ba	0.38368016
170	0x3eda87ef	0.42681834
171	0x3c362d5b	0.011119212
172	0xbef45a45	-0.4772512
173	0x3e1855a0	0.14876413
174	0x3f34b962	0.7059537
175	0xbe8632b2	-0.26210552
176	0x3e073f2b	0.1320769
177	0xbc5adb1b	-0.013357903
178	0xbbf50590	-0.0074774697
179	0x3f048f96	0.51781595
180	0xbf1775dc	-0.59164214
181	0x3ecdb37f	0.40176007
182	0xbf2cb40e	-0.6746224
183	0xbee89dbe	-0.45432848
184	0xbeb15a11	-0.34639028
185	0x3f91e57f	1.1398162
186	0xbea1015a	-0.31446344
187	0x3f78885e	0.9708308
188	0x3f5248dc	0.82142425
189	0xbea31a8f	-0.318562
190	0xbd6ac05e	-0.057312362
191	0x3f1369e3	0.57583445
192	0xbddadf6d	-0.10687146
193	0xbe6c9cb3	-0.23106651
194	0xbeb73cd5	-0.357886
195	0xbcfdf0ed	-0.030998671
196	0x3e7193b2	0.23591498
197	0xbd4e42f3	-0.050356817
198	0xbecf2cb5	-0.40463796
199	0x3ddbcdda	0.107326224
200	0x3ef1be45	0.47215477
201	0x3f9722f2	1.180754
202	0x3f1dd7b0	0.6165724
203	0x3e13a53b	0.14418499
204	0x3eaac603	0.33354196
205	0xbeb7d0e6	-0.35901564
206	0x3fb2e731	1.3976804
207	0xbf1ec4b9	-0.62018925
208	0x3eb57f8b	0.3544887
209	0x3d73f220	0.05955708
210	0xbeeefc78	-0.46676993
211	0x3bb83bfb	0.0056223846
212	0xbcd4cee7	-0.025977565
213	0xbe102d1e	-0.14079711
214	0xbdcdddd9	-0.1005208
215	0x3e430700	0.19045639
216	0xbe81eded	-0.25376835
217	0xbebe89a8	-0.37214398
218	0x3d9230aa	0.07138188
219	0xbea5c36b	-0.32375655
220	0x3e94b70d	0.29045907
221	0xbf09643a	-0.5366856
222	0xbe27b7eb	-0.16378753
223	0xbeaaf445	-0.33389488
224	0xbf147e50	-0.5800524
225	0x3e2eee3e	0.1708307
226	0x3f65b9ea	0.8973681
227	0xbe8a5b58	-0.27022815
228	0xbe5f69c1	-0.21817686
229	0x3e180b97	0.14848171
230	0x3e7118dd	0.23544641
231	0x3e9604ac	0.2930044
232	0xbe84f4cc	-0.25968015
233	0x3f07c859	0.5304008
234	0x3ec52922	0.38507944
235	0xbef78d2c	-0.48349893
236	0xbc9eb1d8	-0.019371912
237	0x3e638c0b	0.22221391
238	0xbf908516	-1.1290615
239	0xbf1d982b	-0.61560315
240	0x3ed1aae3	0.4095069
241	0xbe092118	-0.1339153
242	0xbf511722	-0.8167592
243	0xbe1ba0cb	-0.15198056
244	0xbefd906e	-0.49524254
245	0xbe9c72ac	-0.30556238
246	0x3e4fab8c	0.20280284
247	0xbda067b9	-0.078322835
248	0x3d139f6d	0.036040712
249	0xbeff9be6	-0.4992363
250	0x3e554c44	0.20829874
251	0x3e283a9c	0.16428608
252	0xbe71730c	-0.23579043
253	0x3eddc4cc	0.43314207
254	0x3e54be17	0.20775639
255	0xbe2daeec	-0.16961259

fc2.weight f4 [256, 256]
0	0x3d1cb358	0.038256973
1	0x3d2a3ef0	0.041563928
2	0xbcb756af	-0.022380201
3	0x3c20ba4d	0.009810043
4	0x3a100407	0.0005493764
5	0x3d5f11b1	0.05446023
6	0xbd8c3cd0	-0.068475366
7	0xbd6c7b34	-0.057734683
8	0xbcb5012d	-0.022095287
9	0x3cb8e338	0.022569284
10	0x3d2a56ed	0.041586805
11	0xbd6891f0	-0.0567798
12	0x3d281125	0.041031975
13	0x3cf2f6af	0.029658644
14	0x3cc5d28c	0.024148248
15	0x3cef4a85	0.029210338
16	0x3d534ca3	0.05158676
17	0xbc7ba2ac	-0.015358608
18	0x3d269dbc	0.04067777
19	0xbd204e29	-0.03913704
20	0xbcce7119	-0.025200414
21	0xbd43542c	-0.047687694
22	0xbd3afde6	-0.045652293
23	0xbd27dbbf	-0.04098105
24	0x3d4336c4	0.04765965
25	0xbb0e60a0	-0.0021725073
26	0x3c45ea49	0.012079784
27	0x3ba9755d	0.0051714615
28	0xbd28b102	-0.041184433
29	0x3d649396	0.05580481
30	0xbc4f7cb9	-0.012664014
31	0x3cd3d648	0.025859013
32	0xbd6d8ca6	-0.05799546
33	0x3d56b37f	0.052417275
34	0xbcf2b1a3	-0.02962572
35	0xbcaadb80	-0.020856619
36	0xbd2100aa	-0.039307274
37	0xbd7fe9f9	-0.062478993
38	0x3d525080	0.051346302
39	0x3af6cc56	0.0018829207
40	0x3c12e57c	0.008965846
41	0x3c94259c	0.01808434
42	0xbd1271b9	-0.035752986
43	0xbc8b62ec	-0.017014943
44	0xbd04a803	-0.03238679
45	0x3ba10f2b	0.0049151382
46	0xbc92526c	-0.017861567
47	0xbd10913d	-0.03529476
48	0xbd63f3ff	-0.055652615
49	0xbbf502a8	-0.0074771233
50	0xbc7adb3c	-0.015311059
51	0xbd119dec	-0.035550997
52	0x3be5cbae	0.007012806
53	0xbce41204	-0.027840622
54	0xbd5f0c8c	-0.054455325
55	0xbd0b5fab	-0.034026783
56	0xbd40f273	-0.047106218
57	0x3d18db10	0.03731829
58	0xbc3f9371	-0.011692868
59	0xbd2056af	-0.039145168
60	0xbcb0164b	-0.021495005
61	0xbd7b810d	-0.06140237
62	0xbcec9738	-0.0288807
63	0x3d44a505	0.048008937
64	0xbb90c744	-0.0044182856
65	0xbd6de18c	-0.058076426
66	0xbd07b0b1	-0.03312749
67	0x3cff3a3b	0.031155696
68	0xbd843704	-0.06455806
69	0x3d6c5f14	0.05770786
70	0xbd143105	-0.03617956
71	0x3c3a8ed5	0.011386593
72	0x3ca17206	0.01970769
73	0xbd82f755	-0.06394831
74	0x3ce03482	0.027368788
75	0x3d098e67	0.03358307
76	0x3d1eeca9	0.038799915
77	0xbd68f253	-0.056871723
78	0xbcf56392	-0.029954705
79	0xbd1a2311	-0.0376311
80	0xbd277486	-0.04088261
81	0x3cd031ab	0.025414309
82	0x3d50f90b	0.051018756
83	0xbcd091fa	-0.025460232
84	0x3d587df2	0.052854486
85	0xbd686e37	-0.056745734
86	0x3cb52669	0.022113042
87	0x3c32e8d3	0.010919767
88	0xbca1302d	-0.019676292
89	0xbd11af09	-0.035567317
90	0x3ccf2273	0.025284981
91	0xbd4ade68	-0.04952851
92	0xbb661e20	-0.003511317
93	0x3c959663	0.018260187
94	0xbd8abd16	-0.067743465
95	0xbd33bfa1	-0.043883923
96	0x3c912035	0.017715553
97	0x3c0da4e2	0.008645268
98	0xbd86dce5	-0.06585101
99	0x3c2f8dbe	0.010714946
100	0xbd1d7aaf	-0.03844708
101	0xbbbce149	-0.005764161
102	0xbcf61c5d	-0.030042822
103	0xbd27593f	-0.040856596
104	0xbc4afc6e	-0.0123892855
105	0x3d392aed	0.045206953
106	0xbd1cbee6	-0.038267992
107	0x3d249bf5	0.040187795
108	0xbd151848	-0.03640011
109	0x3d402353	0.046908688
110	0xbd3beedf	-0.045882102
111	0xbd23227e	-0.039827816
112	0x3c4334f2	0.011914479
113	0xbce13eae	-0.027495708
114	0xbd2f9bf0	-0.042873323
115	0xbd49d920	-0.049279332
116	0x3cf3a584	0.02974201
117	0x3d0b2f63	0.03398074
118	0xbd1a9946	-0.03774383
119	0xbd226e4e	-0.039655976
120	0x3d2f49c4	0.042794958
121	0xbcb8d948	-0.022564545
122	0x3d308f81	0.043105606
123	0x3d5737de	0.052543513
124	0xbd565aaa	-0.052332558
125	0xbcb1dd60	-0.021712005
126	0x3ca31f6c	0.019912444
127	0x3cc4b90a	0.024014015
128	0xbcae13e0	-0.021249712
129	0xbd83e957	-0.064409904
130	0x3c427e5f	0.0118709495
131	0xbcc9fe50	-0.024657398
132	0xbd15f3f4	-0.036609605
133	0x39895d1b	0.00026200045
134	0xbd4a9cb0	-0.049465835
135	0xbd11f1d8	-0.03563103
136	0x3cae8d1b	0.021307519
137	0xbc289123	-0.01028851
138	0x3c3acc7e	0.011401294
139	0xbd662fac	-0.056197807
140	0xbd3de48e	-0.046360545
141	0x3c133bf0	0.008986458
142	0xbd4f3afa	-0.050593354
143	0x3cc26256	0.02372853
144	0x3d38df53	0.045134854
145	0x3bf4af59	0.007467192
146	0x3d200357	0.039065685
147	0xbc4deb10	-0.01256825
148	0xbd4795fc	-0.04872702
149	0x3ac92c9d	0.0015348379
150	0x3d0090b1	0.03138799
151	0x3d5a750f	0.053334292
152	0x3d014a6e	0.031565122
153	0xbce53277	-0.027978165
154	0x3ccf0167	0.025269223
155	0x3c732aa5	0.01484171
156	0x3d1dd7e8	0.038535982
157	0xbd2dcbe8	-0.04243079
158	0xbc0813c8	-0.0083054975
159	0x3d25828a	0.040407695
160	0xbc5b050e	-0.013367904
161	0xbc3513f5	-0.011052121
162	0xbd41c620	-0.047308087
163	0xbbb7d2d3	-0.005609849
164	0xbcf716e1	-0.030162277
165	0xbd82bac5	-0.0638328
166	0x3d12aadf	0.035807487
167	0x3c67b7e4	0.014142964
168	0xbd219cc6	-0.03945615
169	0x3bdf7cc0	0.0068202913
170	0xbc8febb9	-0.017568456
171	0xbd4f5205	-0.05061533
172	0x3d41c9bf	0.04731154
173	0x3c537de5	0.012908434
174	0x3cfe796b	0.031063756
175	0xbccaf755	-0.02477614
176	0xbd45b258	-0.048265785
177	0xbae482d5	-0.001743401
178	0xbaf386a3	-0.0018579554
179	0xbd591bfa	-0.053005196
180	0x3cef63bc	0.029222362
181	0x3d27d999	0.040979
182	0xbcfda80d	-0.030963922
183	0x3b7d24fe	0.0038626785
184	0xbcf0dda6	-0.029402565
185	0xbd45f16e	-0.04832595
186	0xbd3769b9	-0.04477856
187	0xbca12168	-0.01966925
188	0x3d683b72	0.056697316
189	0x3ce7bedf	0.028289257
190	0xbd77d2f4	-0.060503915
191	0xbd1aaa39	-0.037759993
192	0x3cda3491	0.026636394
193	0x3d556da1	0.052106503
194	0xbc3ce2b5	-0.011528661
195	0xbd402e4c	-0.046919152
196	0xbd056dcd	-0.032575417
197	0x3bede37f	0.0072597857
198	0xbcd3c6df	-0.025851665
199	0x3ccbe632	0.02489004
200	0xbd171e35	-0.036894042
201	0xbc9709cc	-0.018437289
202	0x3d47b417	0.04875573
203	0xbc1c9ff8	-0.009559624
204	0xbd711c36	-0.058864795
205	0xbce00725	-0.027347157
206	0x3c611eb5	0.013740231
207	0x3b09b46b	0.0021012079
208	0x3ccba2e5	0.024857948
209	0xbd748c26	-0.05970397
210	0x3ccbb800	0.024868011
211	0x3cb3bfe7	0.021942092
212	0xbc0c670f	-0.008569493
213	0x3cb05419	0.021524476
214	0xbd876c3e	-0.066124424
215	0x3b0c4ca4	0.0021407986
216	0xbc7ab2b5	-0.015301396
217	0x3d233ab2	0.039850898
218	0xbd2b6c64	-0.041851416
219	0xbd004824	-0.0313188
220	0x3b2a8c14	0.0026023434
221	0x3c08f2f3	0.008358705
222	0x3d31cbd7	0.043407287
223	0xbc25bf26	-0.010116374
224	0xbb6fa3ab	-0.003656606
225	0xbd0f1a8e	-0.034937434
226	0x3d6acfe8	0.05732718
227	0xbd5e7a94	-0.05431612
228	0xbd7ca99f	-0.0616852
229	0xbcddbda6	-0.02706797
230	0xbd609c5c	-0.054836616
231	0xbd6d5940	-0.057946444
232	0xba469c67	-0.00075764064
233	0xbb27be21	-0.0025595503
234	0xbce05969	-0.027386384
235	0xbc6caa08	-0.0144448355
236	0xbd247759	-0.04015288
237	0x3ccc79c8	0.024960414
238	0x3b6e34b0	0.0036347322
239	0x3ce07cf3	0.02740333
240	0x3d4cbabd	0.049982775
241	0xbd5e308c	-0.054245517
242	0xbd76b67f	-0.060232636
243	0x3a308304	0.000673339
244	0x3c8e60c4	0.017380126
245	0x3c7b9360	0.015354961
246	0xbc4a3181	-0.012340904
247	0xbcad6656	-0.021166962
248	0xbc2d5937	-0.0105803525
249	0x3ce05274	0.027383067
250	0x3c49fa50	0.012327746
251	0xbd07dcc7	-0.033169534
252	0xbd144895	-0.036202032
253	0x3d289b62	0.04116381
254	0x3c8b9ad5	0.017041603
255	0x3c45ccea	0.012072781

fc2.bias f4 [256]
0	0x3d4fbb9d	0.05071603
1	0x3cf50bad	0.029912794
2	0xbcf51c56	-0.029920738
3	0xbbc600fa	-0.006042597
4	0xbe2dfb37	-0.16990362
5	0x3ddf6494	0.10907856
6	0x3d26b5e8	0.040700823
7	0xbd40416b	-0.046937387
8	0x3c9d6a0a	0.019215602
9	0xbe0cf64a	-0.13765827
10	0xbce83aa0	-0.028348267
11	0xbe7f3424	-0.24922234
12	0x3cd19223	0.025582379
13	0xbd8bd8d6	-0.068284675
14	0x3d793d86	0.06084969
15	0x3c967c32	0.018369768
16	0x3d796be4	0.06089391
17	0x3d3efd88	0.046628505
18	0xbc5c86f4	-0.01345991
19	0xbcda02a8	-0.026612595
20	0xbd63c024	-0.05560316
21	0xbd6322ec	-0.055453226
22	0xbe8d2c74	-0.27572978
23	0xbe7243d0	-0.23658681
24	0xbd39d3f2	-0.045368142
25	0x3c64b0df	0.013958185
26	0xbdfe6ae1	-0.12422729
27	0xbc029f4f	-0.007972552
28	0xbdb111a7	-0.08645945
29	0xbdaaceed	-0.08340249
30	0xbc7566ad	-0.014978093
31	0x3d8a3e96	0.067502186
32	0x3d469431	0.04848117
33	0xbbc109b3	-0.005891049
34	0xbd11f589	-0.03563455
35	0x3e4757b5	0.19467051
36	0xbb9f39bd	-0.004859178
37	0xbc8328d8	-0.016010687
38	0x3d1b0b99	0.037852857
39	0xbcb3b9ad	-0.021939123
40	0x3c127426	0.008938825
41	0xbd267fa0	-0.040649056
42	0xbdfcd7bd	-0.12345836
43	0x3c41c114	0.011825819
44	0xbc9d1345	-0.019174227
45	0xbdd79c48	-0.10527855
46	0xbd27d07e	-0.040970318
47	0xbbbd16f7	-0.00577056
48	0x3e2c5526	0.16829357
49	0x3d5f2741	0.054480795
50	0x3d078f4b	0.03309564
51	0x3d10a14d	0.03531008
52	0xbc9fbf79	-0.019500481
53	0x3a51350a	0.0007980621
54	0x3d2ebd9b	0.04266129
55	0xbc597c72	-0.013274299
56	0x3eb35851	0.35028318
57	0x3d150132	0.036378093
58	0xbd792b0b	-0.060832065
59	0xbc6347ba	-0.013872081
60	0xbc1d15a3	-0.009587678
61	0x3c2c6227	0.010521448
62	0xbe560d66	-0.20903549
63	0x3dbce976	0.09224217
64	0x3c711688	0.0147148445
65	0x3c55669a	0.01302495
66	0x3cc52876	0.024067145
67	0xbd7f5197	-0.06233367
68	0x3c8ab45d	0.016931707
69	0xbb46cbe0	-0.0030333921
70	0xbd332217	-0.043733682
71	0xbcd007b0	-0.02539429
72	0x3db9d8b8	0.09074539
73	0x3deb28ac	0.11482367
74	0xbd0cf866	-0.03441658
75	0x3e2749a6	0.16336688
76	0xbc802f6d	-0.015647614
77	0xbe0f518a	-0.13995948
78	0x3d1d1485	0.038349647
79	0x3ca8ecda	0.020620752
80	0xbcebc60c	-0.02878096
81	0xbd8d520f	-0.06900417
82	0x3e1042c2	0.14087966
83	0xbdbf3aa1	-0.093373545
84	0xbc3025e9	-0.010751226
85	0x3d70922b	0.058733147
86	0x3d577976	0.05260607
87	0xbd88462a	-0.06654008
88	0x3d8683da	0.065681174
89	0x3d432d13	0.047650408
90	0xbd5114cb	-0.05104522
91	0xbd5b2f56	-0.05351194
92	0xbba7b3b5	-0.0051178583
93	0xbd2e48c0	-0.04254985
94	0x3d54f7c6	0.051994108
95	0x3debeca7	0.11519747
96	0xbd0ce36f	-0.034396585
97	0xbd2c86fe	-0.042120926
98	0x3a90724e	0.0011020394
99	0xbe0a7709	-0.13521971
100	0xbd186749	-0.037207875
101	0xbca5423a	-0.02017318
102	0x3d02ddc0	0.03194976
103	0xbd8e7803	-0.06956484
104	0x3d7095f8	0.05873677
105	0xbbda1196	-0.0066549284
106	0xbd2e4bb1	-0.042552654
107	0xbcb3b873	-0.021938538
108	0x3c4ca1c4	0.01248974
109	0xbe86e734	-0.2634827
110	0xbd4f3bf6	-0.050594293
111	0x3b81c789	0.003960554
112	0x3cf07741	0.02935374
113	0xbe3b5c1d	-0.18296857
114	0xbbfb079b	-0.0076608188
115	0x3dd271a9	0.10275585
116	0x3bd40ec8	0.0064714886
117	0x3d634b6a	0.055491842
118	0x3d2701ec	0.040773317
119	0xbc68813b	-0.014190967
120	0xbcf0db0b	-0.029401323
121	0x3d4b3f5e	0.04962098
122	0x3cad79ea	0.021176297
123	0x3d8141b4	0.0631136
124	0x3d25a8d6	0.040444218
125	0xbbff0b7b	-0.007783351
126	0x3d752103	0.059845936
127	0x3de4c63c	0.11170623
128	0x3c0cc78e	0.008592499
129	0x3d095202	0.033525474
130	0xbd51b01b	-0.051193338
131	0x3c56da2e	0.0131135415
132	0xbe3914be	-0.18074319
133	0xbd2ab7f8	-0.041679353
134	0x3d9c65db	0.07636615
135	0x3d515315	0.051104624
136	0xbbd435e9	-0.006476153
137	0x3b917da0	0.0044400245
138	0x3d1856c3	0.037192117
139	0xbd6dbbff	-0.058040615
140	0xbca4176a	-0.020030696
141	0x3c5e7727	0.013578213
142	0xbce9f051	-0.028556975
143	0x3c86743b	0.016412845
144	0xbd0bf7af	-0.034171756
145	0x3caac87d	0.020847553
146	0xbd07bbd6	-0.03313812
147	0x3be1cc85	0.0068908357
148	0xbd7acee7	-0.061232474
149	0xba45be04	-0.0007543268
150	0x3d259b93	0.04043157
151	0xbda7f67c	-0.0820131
152	0x3e3d435c	0.18482727
153	0x3d42ff95	0.047607023
154	0xbc837c7d	-0.016050572
155	0xbd012be5	-0.031536
156	0xbd52d31b	-0.051470857
157	0xbe42263d	-0.18959899
158	0x3b938cfd	0.004502891
159	0xbbde0fa4	-0.006776767
160	0x3cdccdcb	0.026953598
161	0x3d41d6ba	0.04732392
162	0xbdaa0895	-0.08302418
163	0xbc9a8689	-0.01886298
164	0x3d33541e	0.043781392
165	0xbcf48d31	-0.029852482
166	0x3d87fba2	0.06639792
167	0xbc4c5185	-0.012470608
168	0xbdc4d1b5	-0.09610311
169	0x3d882aa6	0.066487595
170	0xbca3a360	-0.019975364
171	0xbd35e0d3	-0.044403862
172	0xbd42d768	-0.04756871
173	0xbd46b930	-0.048516452
174	0xbe4131f2	-0.18866709
175	0x3d05f07a	0.03270004
176	0x3c5f186c	0.0136166625
177	0xbd1f8250	-0.038942635
178	0xbe5baad4	-0.21451885
179	0x3cbd952b	0.023142418
180	0x3e6e90d4	0.23297435
181	0xbe0cb146	-0.137395
182	0xbd6f51c7	-0.0584276
183	0x3c2990da	0.010349477
184	0xbc5d5392	-0.013508694
185	0xbd5c9856	-0.053856216
186	0x3e461553	0.19344072
187	0xbcb01a40	-0.021496892
188	0xbda24f02	-0.07925226
189	0x3d5151a8	0.051103264
190	0x3dca25df	0.098705046
191	0xbcf5e2e9	-0.030015426
192	0xbd539bfb	-0.051662426
193	0xbcd3f065	-0.025871465
194	0xbd3b7051	-0.04576141
195	0xbcc5f911	-0.024166616
196	0x3e00f63c	0.12593931
197	0xbe42f193	-0.19037466
198	0x3d8964ee	0.06708704
199	0x3d85ed0f	0.06539356
200	0x3dac5a86	0.084157035
201	0xbe0b3519	-0.13594474
202	0x3eb54af6	0.35408753
203	0xbe7a5872	-0.24447802
204	0x3cf08105	0.029358396
205	0x3c921b7b	0.01783537
206	0xbeb21a47	-0.34785673
207	0xbde1ddd3	-0.11028638
208	0x3e068445	0.13136394
209	0xbd594513	-0.05304439
210	0x3df81f24	0.121153146
211	0xbbfb08db	-0.0076609678
212	0xb99514b3	-0.00028434917
213	0xbd868ef7	-0.06570237
214	0x3e037e1c	0.12841076
215	0x3b9a19e4	0.0047027934
216	0x3ddeebe5	0.10884837
217	0x3c1f7c54	0.009734232
218	0xbe20503c	-0.15655607
219	0xbbd693ef	-0.006548397
220	0xbbcb95f6	-0.006212945
221	0xbba45032	-0.005014443
222	0x3d674acf	0.056467827
223	0x3c5ec4d0	0.013596728
224	0xbe132902	-0.14371112
225	0x3e8ae7cb	0.2712997
226	0x3d8a04a5	0.06739167
227	0xbd3bf04e	-0.04588347
228	0x3d476a26	0.048685215
229	0x3e4af279	0.19819058
230	0x3ee1b615	0.4408423
231	0x3c864e47	0.016394747
232	0x3b8e9f99	0.0043525216
233	0x3d445187	0.047929313
234	0xbe662942	-0.22476676
235	0x3e2262f0	0.15858054
236	0xbb8be913	-0.004269728
237	0xbe0f3ba4	-0.13987595
238	0xbd5116c2	-0.051047094
239	0xbe14bda6	-0.1452547
240	0xbe66436d	-0.22486658
241	0xbd29d4f2	-0.041462846
242	0x3d9d2cfd	0.076745965
243	0x3c87cf5c	0.016578369
244	0x3cef74f6	0.029230576
245	0x3e371f1f	0.17882966
246	0xbd3fa22c	-0.04678552
247	0xbe0e1a8c	-0.13877314
248	0x3c9c2fe2	0.019065801
249	0xbcc68e01	-0.024237635
250	0xbd934af2	-0.07192029
251	0xbdc1e2d1	-0.0946709
252	0x3dafdf0b	0.08587464
253	0x3da3794e	0.079821214
254	0x3de915a1	0.113810785
255	0x3ca9d698	0.02073221

fc3.weight f4 [1, 256]
0	0x3b17eb2e	0.002318095
1	0xba6b45f2	-0.0008974961
2	0x3ad364fb	0.0016128117
3	0x3b5c27d9	0.0033593087
4	0xbdd2a2c2	-0.1028495
5	0xbc7d803e	-0.01547247
6	0xba6a650d	-0.00089414493
7	0x3bff6843	0.0077944114
8	0xbb1d2463	-0.0023977987
9	0x3c3ab856	0.011396488
10	0xb9b264d5	-0.0003402593
11	0x3c3c587b	0.011495705
12	0xb908a37f	-0.00013030878
13	0xbc3bdb74	-0.011465896
14	0xbc206bba	-0.009791309
15	0x3d8f56e6	0.069989964
16	0xba95f3a4	-0.0011440408
17	0x3de2fc4b	0.11083277
18	0x3b69805a	0.0035629482
19	0x38a2f36d	7.7701035e-05
20	0x3ebef556	0.3729655
21	0xba7b8a83	-0.000959553
22	0x3dbcdadc	0.092214316
23	0xbc8a6487	-0.016893638
24	0xbd4148ca	-0.047188558
25	0xbd9f8546	-0.07789092
26	0x3fa05d7a	1.2528527
27	0x3a72fe83	0.00092694926
28	0xbcd0b0f1	-0.025474997
29	0x3c79af0b	0.015239487
30	0x3d9ec4ea	0.07752402
31	0x3e3c0ed9	0.18365039
32	0x3c53f9a4	0.012937937
33	0x3c743a17	0.014906428
34	0x3c9f94bf	0.019480107
35	0x3ed36385	0.41286865
36	0x3c24c577	0.010056845
37	0x3cb426e7	0.021991206
38	0x3e166639	0.14687432
39	0x3b859185	0.004076185
40	0xbb80c3ec	-0.0039296057
41	0xbdaf76a7	-0.08567553
42	0x3d222bb9	0.03959248
43	0x3b4c3f9f	0.003116585
44	0x3bc5f6a3	0.0060413643
45	0xbddb4591	-0.10706628
46	0xba59decd	-0.0008311093
47	0xba0c8a54	-0.00053611887
48	0x3e095ab1	0.13413502
49	0xbbbd04d7	-0.005768399
50	0x3b3157cb	0.0027060385
51	0x3d3750a8	0.044754654
52	0xba5f0b44	-0.00085084536
53	0xbd1279c7	-0.035760667
54	0xb9287c64	-0.00016068068
55	0x3e3fd46e	0.18733379
56	0xbd5de5a5	-0.054174084
57	0xbc84d1ad	-0.016213262
58	0x3e0e1ac6	0.13877401
59	0xb93fafc5	-0.00018280659
60	0x3dad7272	0.08469094
61	0x37f93b11	2.9710618e-05
62	0x3e316cec	0.17326707
63	0x3e6227d1	0.22085501
64	0x3bae45a3	0.00531836
65	0x3c5ccfbb	0.013477261
66	0x3e1ade43	0.15123849
67	0x3b303b6c	0.0026890887
68	0xb9b88d1c	-0.0003520035
69	0xbad7ad86	-0.0016454912
70	0xb9fe560d	-0.00048510768
71	0x3a9ba9c5	0.0011876157
72	0xbe867433	-0.26260528
73	0x3db61080	0.08889866
74	0x3e69e031	0.22839428
75	0x3f03b272	0.5144416
76	0xbca650e5	-0.020302245
77	0x3ee5f193	0.4491087
78	0xbc37a7ea	-0.011209467
79	0xbdc16ae1	-0.09444214
80	0x3d49f57f	0.04930639
81	0xbdf121ae	-0.11774002
82	0x3d7d748f	0.061878737
83	0xbd873a6d	-0.06602941
84	0x39e4a797	0.00043612413
85	0x3aba89af	0.0014231707
86	0xba071631	-0.0005153148
87	0x3abbc56a	0.0014325802
88	0x3b7c8b2f	0.0038535108
89	0xbe3da250	-0.18518949
90	0x3c73ee59	0.0148883695
91	0x3b175eff	0.0023097394
92	0xbd36df1d	-0.04464637
93	0xbb28e9d8	-0.0025774147
94	0x3b03dccb	0.0020120617
95	0xbc096ca3	-0.008387717
96	0x3b2634f6	0.0025361157
97	0x3b294a81	0.0025831761
98	0x3decf9fa	0.11571117
99	0x3edd17d4	0.43182242
100	0x3cb489c4	0.022038348
101	0x3d11a60f	0.035558756
102	0xbb90ac5d	-0.0044150786
103	0x3d2ab54e	0.041676812
104	0xbb572847	-0.0032830404
105	0x3e12939a	0.14314118
106	0x3a80f28c	0.000983791
107	0x3bfdbb81	0.0077432995
108	0x3a47e312	0.00076250837
109	0xbcca0378	-0.024659857
110	0xb981b2e1	-0.00024738073
111	0x3c025538	0.007954888
112	0x3e0b77d6	0.13619933
113	0x3e12ddc8	0.14342415
114	0x3c171fa5	0.009223853
115	0xbd95376f	-0.07285964
116	0x3ec89d63	0.39182577
117	0xbd272f50	-0.040816605
118	0x3ee1fcbd	0.44138137
119	0xb8b88420	-8.798414e-05
120	0x3daf8c73	0.085717104
121	0xbaec0dfe	-0.0018009541
122	0xbb58c516	-0.0033076457
123	0xba0f5153	-0.00054671353
124	0xbb02470c	-0.0019878773
125	0x3b32f7ba	0.00273083
126	0x39d70c99	0.00041017382
127	0x3d8629e1	0.065509565
128	0x3b8e447f	0.0043416615
129	0x3c7ecc6e	0.0155516695
130	0x3ae073c5	0.0017124346
131	0xbc94a86e	-0.01814672
132	0xbd3b9746	-0.045798562
133	0xbc27f80c	-0.01025201
134	0x3e5d9909	0.2164041
135	0x3c42bb40	0.011885464
136	0xbab0c735	-0.0013487103
137	0x3ad00236	0.00158698
138	0xbcb3b7b1	-0.021938177
139	0xbb914bb2	-0.0044340724
140	0x3cef8e7e	0.02924275
141	0xbbf0c9c9	-0.0073482734
142	0x3b9bb4ab	0.004751762
143	0x3993b800	0.00028175116
144	0x3f16aadf	0.5885448
145	0x3ec6c648	0.38823152
146	0x3ab2f628	0.0013653683
147	0x3c41253d	0.011788663
148	0x3ce4d099	0.027931498
149	0x3c3f9af4	0.011694659
150	0x3ad082d5	0.0015908132
151	0xbd977af2	-0.07396497
152	0x3e79d796	0.24398646
153	0x3a97cc9f	0.0011581368
154	0x3e448a00	0.19193268
155	0xbcb25da3	-0.021773165
156	0xbc1144c7	-0.008866495
157	0xbda57443	-0.08078816
158	0xbcc0eaad	-0.023549402
159	0x3bbfdbb6	0.005855049
160	0x39959b03	0.00028534987
161	0xbb42095f	-0.0029607636
162	0x3f12c2e8	0.57328653
163	0xbbb4eab7	-0.0055211443
164	0x393851e4	0.00017578114
165	0xbb66612f	-0.003515314
166	0x3cf0d091	0.029396327
167	0x3b960b82	0.0045790086
168	0xbe4a2557	-0.19740807
169	0xbab67441	-0.0013920144
170	0x3b7354d9	0.003712943
171	0xbee6b485	-0.450596
172	0x3a5c5669	0.000840521
173	0x3b2210ad	0.0024729178
174	0x3d6072b2	0.054796882
175	0xbafee284	-0.0019446169
176	0x3a9b4e32	0.0011848866
177	0xbce6f82e	-0.028194513
178	0xbe9b9510	-0.30387163
179	0x393264bb	0.00017012928
180	0x3cd08789	0.025455253
181	0x3da50453	0.080574654
182	0xbd9e2526	-0.07721929
183	0xbaba5397	-0.0014215586
184	0xba7a30aa	-0.00095439947
185	0x398ebe6e	0.00027226232
186	0xbcf78f08	-0.03021957
187	0x3bdf03a1	0.0068058525
188	0x3b67123f	0.0035258678
189	0xbb65aed7	-0.003504684
190	0x3cc0691b	0.023487618
191	0xb84354e6	-4.657069e-05
192	0xbb44a790	-0.0030007102
193	0x3c942a12	0.018086467
194	0x3d40eee2	0.047102816
195	0x3b6f01b7	0.0036469528
196	0x3d888ddb	0.06667682
197	0x3fa068da	1.2531998
198	0x3f02b4b2	0.5105697
199	0xbd808359	-0.062750526
200	0x3cd9db4e	0.02659383
201	0xbd072d35	-0.033002097
202	0x3f1cdd1b	0.6127488
203	0x3fcdcabe	1.6077497
204	0xbb8d8faf	-0.004320107
205	0xb9c29059	-0.0003711011
206	0xbf7be126	-0.98390424
207	0x3cdfa188	0.027298704
208	0x3cc0d68f	0.02353981
209	0x384c02e8	4.8640097e-05
210	0xbe04bc71	-0.1296251
211	0x3c27d037	0.010242513
212	0xbd84d718	-0.064863384
213	0x3ba7cd07	0.0051208767
214	0x3e60ad16	0.21941027
215	0xbc310a51	-0.010805682
216	0xbdb78699	-0.08961219
217	0x3a816a05	0.0009873515
218	0x3d030bf3	0.031993818
219	0x3e5ccf20	0.21563387
220	0x398401a2	0.00025178218
221	0x3c350337	0.01104813
222	0xbd741f95	-0.05960043
223	0x3db83a81	0.08995534
224	0xbdb7d20d	-0.08975611
225	0x3e031722	0.12801793
226	0x3c0599b3	0.0081543205
227	0x3b019f43	0.0019778765
228	0xba99a722	-0.0011722783
229	0xbd3d28f4	-0.046181634
230	0x3d0d9f12	0.03457553
231	0x3b1aed36	0.0023639924
232	0x3a23b581	0.0006245003
233	0x3b85584b	0.004069363
234	0x3cfef850	0.031124264
235	0x3e883d6f	0.2660937
236	0x3bec28e0	0.007207021
237	0xbdc11d1f	-0.094293825
238	0x3b592fe1	0.003314011
239	0xbdc661f2	-0.0968665
240	0xbd69c68e	-0.057074122
241	0x396fa194	0.00022853009
242	0x3f35a61a	0.70956576
243	0xb9ed427f	-0.00045253706
244	0xbabdc941	-0.0014479534
245	0x3ea37388	0.3192408
246	0x3c222481	0.0098963985
247	0xbeb898f9	-0.3605421
248	0xbac50e9d	-0.0015034262
249	0x3b2d5f8f	0.0026454662
250	0x3a22393d	0.0006188339
251	0x3db3086e	0.08741842
252	0xbddb59d8	-0.10710496
253	0x3e141814	0.1446231
254	0x3e0ef967	0.13962327
255	0x3d57a75c	0.05264984
