TD3/models/reward_s5e-2(-5, 1)_a4e-2_t(-2_0.1)_safe(3, -0.7)_1994_without_safe.pth (torch, 275287 bytes, 5 tensors)

fc1.weight f4 [256, 8]
0.04670974 0.058096375 0.12252272 -0.005693108 0.0033992978 -0.03378514 1.1539944 0.655429
0.24802724 -0.059972353 -0.9005697 -0.26867554 -0.01225616 0.05858279 1.2145753 0.035207897
0.15045978 0.028661622 0.2171266 -0.5929935 -0.24809656 0.07821441 -0.68990016 -0.031100823
-0.69786817 -0.104351915 0.1405472 -0.1756755 -3.624742e-05 0.042687826 1.1520514 0.31288055
0.30659276 -0.041938145 -0.15587628 0.07277272 -0.0030093058 -0.00561475 -0.27023566 -0.007175612
0.45360932 0.20509523 -0.20777221 0.31470564 -0.10734538 0.11774715 0.46096706 -0.24439178
0.32376763 -0.1945322 -0.4293066 0.021458918 -0.20404631 -0.41060114 -0.28686824 0.2457673
-0.018032199 0.30780783 -0.07488985 0.16964033 -0.079482384 -0.30638957 -0.6594556 0.12375316
0.38484067 -0.27180484 0.72480965 0.21037306 0.2514868 -0.1347218 1.4489963 -0.07633078
-0.3718799 -0.48940456 0.40204525 -0.32165828 0.18965445 -0.040798172 0.7821803 0.22348012
0.43254244 -0.02814748 -0.18034351 0.40612882 0.052237496 -0.12082085 0.18639216 0.36608726
-0.24684566 -0.006228354 -0.7886234 0.37909546 -0.046071388 0.025415238 0.7698283 0.1447427
0.50221056 0.09158632 0.78453064 -0.12849054 -0.2761846 0.096985124 0.70670867 -0.089357525
-0.31357417 -0.090940304 -0.32505304 0.2699329 -0.20733865 -0.11712026 0.21774666 -0.0558021
-0.46067026 -0.03718382 0.1939867 0.2862294 -0.026390813 0.07905641 -1.5558213 0.19484994
-0.28560677 -0.2468906 0.4346365 0.17681043 -0.008953091 0.026917724 0.8819139 0.2338736
-0.20956406 -0.33774212 0.07499102 0.25846288 -0.4072011 -0.43044233 -0.37638995 0.26968077
-0.07025729 0.0723471 0.23331974 0.29476476 0.09274117 -0.12360763 1.026955 0.38634557
0.363597 -0.30378112 -0.47995985 0.08982378 -0.13343471 0.13418442 -1.034734 -0.026810661
-0.6971982 -0.09846508 0.25941625 0.13782239 -0.43676057 -0.3439129 -0.3963581 0.019118398
0.41012505 -0.25154144 -0.29796824 -0.3692733 -0.19287892 -0.28770575 -0.06348924 0.099555165
0.4957677 -0.08951744 -0.21562183 0.24583167 0.03222998 -0.039839912 0.11740672 0.20256521
0.14160185 -0.08091198 0.06078096 0.12825833 0.015855867 0.015810268 -2.1570113 -0.011905896
-0.22336295 -0.015934506 -0.02547031 -0.380806 0.12514456 0.07994607 -1.5259813 0.13373487
0.65070647 -0.3023466 -0.642293 -0.18961483 0.11647521 -0.100195944 -1.2276502 0.14865951
-0.22102925 0.013516461 -0.3782251 0.33283505 0.015810357 0.12825681 0.28270167 -0.043286223
-0.23533568 0.577886 0.08226348 0.14739852 0.10161198 -0.14382666 -1.3759692 0.13836496
-0.11637027 0.028197482 0.08335311 0.02386827 0.22600114 0.18505178 -1.8990554 -0.20378612
0.5265912 0.34850913 -0.29769915 0.22779278 -0.013814546 -0.082514085 -0.25543338 0.6415584
0.39485377 -0.018103207 -0.41334084 0.08444435 -0.17250071 0.05965303 -0.8096089 0.09270595
-0.20978524 -0.43468562 -0.45321602 0.33289176 0.010947971 0.120356485 1.6690454 -0.28128457
-0.37506565 0.18307057 0.7253224 -0.4495154 0.09969473 -0.084170505 -0.6994979 0.049977865
00000000: b652 3f3d 77f6 6d3d 31ed fa3d 408d babb
00000010: c1c6 5e3b 4962 0abd 17b6 933f 32ca 273f
00000020: dafa 7d3e 92a5 75bd bc8b 66bf d78f 89be
00000030: 10ce 48bc 82f4 6f3d 3477 9b3f 2836 103d
00000040: 2112 1a3e c7cb ea3c 6f56 5e3e 6cce 17bf
00000050: 060d 7ebe e02e a03d 4c9d 30bf 27c7 febc
00000060: 7da7 32bf 75b6 d5bd 9beb 0f3e 47e4 33be
00000070: 5f08 18b8 6ed9 2e3d 6c76 933f e131 a03e
00000080: baf9 9c3e 55c7 2bbd 089e 1fbe dd09 953d
00000090: c637 45bb f0fb b7bb 545c 8abe 6521 ebbb
000000a0: 7b3f e83e 7c04 523e 3dc2 54be 1921 a13e
000000b0: e5d7 dbbd 6b25 f13d e003 ec3e d741 7abe
000000c0: dfc4 a53e 7333 47be 13ce dbbe 9dca af3c
000000d0: 84f1 50be 503a d2be 65e0 92be 6caa 7b3e
000000e0: 43b8 93bc fd98 9d3e da5f 99bd 32b6 2d3e
000000f0: a9c7 a2bd 18df 9cbe 15d2 28bf 4c72 fd3d
00000100: d609 c53e 012a 8bbe 208d 393f 096c 573e
00000110: e1c2 803e 83f4 09be b678 b93f 5053 9cbd
00000120: 0b67 bebe 3c93 fabe e0d8 cd3e 65b0 a4be
00000130: c734 423e fc1b 27bd f83c 483f f9d7 643e
00000140: 3476 dd3e 8b95 e6bc f8ab 38be 1ef0 cf3e
00000150: fcf6 553d ec70 f7bd 96dd 3e3e ca6f bb3e
00000160: 1cc5 7cbe 3817 ccbb 39e3 49bf cd18 c23e
00000170: 5ab5 3cbd 9e33 d03c 7813 453f 6e37 143e
00000180: df90 003f 9c91 bb3d 00d7 483f 0693 03be
00000190: 1168 8dbe 23a0 c63d dcea 343f 1401 b7bd
000001a0: cb8c a0be e93e babd 5a6d a6be a534 8a3e
000001b0: 9550 54be bfdc efbd fbf8 5e3e be90 64bd
000001c0: f9dc ebbe 104e 18bd 73a4 463e a98c 923e
000001d0: 8c31 d8bc 54e8 a13d 2725 c7bf be86 473e
000001e0: 0d3b 92be e4d0 7cbe ad88 de3e cb0d 353e
000001f0: fcaf 12bc 8f82 dc3c 1cc5 613f 907c 6f3e
00000200: f697 56be 89ec acbe e494 993d 3f55 843e
00000210: aa7c d0be f062 dcbe 2fb6 c0be 9913 8a3e
00000220: 0ee3 8fbd b72a 943d 5feb 6e3e 68eb 963e
00000230: 15ef bd3d ff25 fdbd 4373 833f 16cf c53e
00000240: 6329 ba3e 3389 9bbe 4cbd f5be 88f5 b73d
00000250: 1ca3 08be a467 093e 2a72 84bf 08a2 dbbc
00000260: 957b 32bf 0fa8 c9bd 35d2 843e 5021 0d3e
00000270: 159f dfbe 5a15 b0be 73ef cabe 309e 9c3c
00000280: e9fb d13e 0aca 80be 4b8f 98be 6411 bdbe
00000290: 0d82 45be 2b4e 93be a606 82bd 94e3 cb3d
000002a0: 44d5 fd3e eb54 b7bd f8cb 5cbe 4cbb 7b3e
000002b0: 9503 043d 2d2f 23bd ef72 f03d 416d 4f3e
000002c0: 1300 113e 2eb5 a5bd 75f5 783d 2756 033e
000002d0: 2ae4 813c 8984 813c 790c 0ac0 f210 43bc
000002e0: 42b9 64be 1589 82bc 1da7 d0bc 01f9 c2be
000002f0: e525 003e c4ba a33d 5b53 c3bf cbf1 083e
00000300: b394 263f 2ccd 9abe 506d 24bf 642a 42be
00000310: 8e8a ee3d 8833 cdbd a423 9dbf 333a 183e
00000320: 7e55 62be 2574 5d3c b8a6 c1be 5b69 aa3e
00000330: b984 813c c155 033e 46be 903e e54c 31bd
00000340: d6fb 70be 56f0 133f c179 a83d a3ef 163e
00000350: f119 d03d 4c47 13be c21f b0bf 8baf 0d3e
00000360: 8953 eebd 68fe e63c 09b5 aa3d 6487 c33c
00000370: d86c 673e 377e 3d3e 3f14 f3bf 4fad 50be
00000380: aece 063f ca6f b23e 066c 98be 8342 693e
00000390: 6856 62bc 25fd a8bd 2ac8 82be 2c3d 243f
000003a0: 462a ca3e 2d4d 94bc 69a1 d3be 29f1 ac3d
000003b0: 07a4 30be bc56 743d 8742 4fbf 9edc bd3d
000003c0: f1d1 56be 1d8f debe ee0b e8be ca70 aa3e
000003d0: 1e5f 333c 767d f63d 48a3 d53f 8804 90be
000003e0: 9b08 c0be da76 3b3e bbae 393f e226 e6be
000003f0: c02c cc3d 9661 acbd 4b12 33bf 97b5 4c3d

fc1.bias f4 [256]
-0.60227334 -0.8909412 -0.052326746 0.13710637 -0.17593896 -0.055657975 -0.48512566 0.112928316
0.13493201 0.8127533 0.022216922 -0.7026972 0.76169306 -0.17683062 -0.25871447 -0.16352274
-0.19588846 0.48160183 -0.38036087 -0.104293354 -0.4023375 -0.33957064 0.37617826 0.096912526
-0.22379601 -0.7526597 0.09735104 0.0145130865 0.03340678 -0.15790942 -0.5417718 0.80216414
0.23073119 -0.1825769 0.5830885 -0.0850118 -0.0060254163 -0.21466793 -0.11884976 -0.24282499
0.4360177 0.023163682 -0.17296392 0.37879264 0.5486872 0.3280752 -0.06231306 0.14456347
-0.678314 0.25301996 0.19633485 0.3424625 0.02616026 0.67401767 -0.7837775 0.088767156
-0.8003149 -0.2064255 -0.44679424 -0.26675624 -0.10597943 -0.26240677 -0.087444395 0.23799606
0.23257373 0.2193648 -0.007468305 0.23339702 -0.09206072 -0.15319563 0.055649776 0.08193516
-0.5018628 0.58260304 -0.024933245 0.08472536 -0.9148769 0.4433179 0.23357873 -0.5988899
0.38062066 -0.2919741 0.3437622 0.28957495 -0.13875835 0.09350391 -0.5466382 0.19495964
-0.07640412 -0.5389033 -0.5366528 0.0011761646 0.105636105 -0.28644457 -0.13819683 0.053564977
0.37248823 -0.70825416 -0.08638855 0.640111 0.25088468 -0.8681353 0.46314013 -0.1626615
-0.23236546 0.10432815 0.059500948 0.45589733 -0.24912988 0.16947971 -0.29671726 -0.4642814
-0.7986996 0.030058283 -0.42488846 0.1729249 -0.3851159 -0.3206534 -0.3408444 0.37831745
0.04328958 -0.8625749 -0.2645082 -0.2875148 -0.44674516 -0.63939124 -0.04133527 0.15729317
0.12215656 -0.20988424 -1.0337194 -0.629258 0.012279931 -0.023392444 -0.15435308 0.1395079
0.20218745 -0.76423705 0.3498185 0.26558807 -0.21183044 -1.0061809 -0.013973296 -0.3868646
0.41176578 -0.20366298 -0.28192788 0.6817206 -0.42077187 -0.015102634 0.16500866 -0.025247896
0.88300186 0.519547 -0.3431639 -1.1186953 -0.75989026 0.23282471 -0.30514556 -0.6212537
0.22426797 -0.65630275 -0.16427468 -0.74633425 0.19870901 -0.015334285 -0.7569817 -0.5662612
0.9741037 0.19782947 0.3042919 -0.34273267 0.33382487 1.1492364 -0.18230624 -0.05395738
-0.26964495 0.2539127 0.09383461 -0.47444576 -0.086974055 -0.061415423 -0.022312777 0.5469327
-0.13537386 0.311505 0.48133865 -0.024520071 0.34820744 -0.6993688 0.08870212 0.3493684
-0.42651108 -0.056068294 -0.38147515 -0.3028558 -0.023235196 0.4033258 0.00827131 0.16010526
-0.19036742 -0.0008023342 -0.19754335 0.4856031 -0.06451709 0.19385424 0.23523556 0.5710295
-0.31366155 0.037516806 -0.70788884 0.2974462 -0.4730632 0.4017331 0.73245966 0.25299194
-0.7110274 0.2893806 0.19658999 0.05299124 0.18579869 0.104575634 -0.30916744 0.19910283
0.5075281 0.41191486 0.16022207 -0.9795732 -0.32559574 -0.05568954 0.53679454 -0.111701325
0.37432832 -0.15980534 -0.08885239 1.0240515 -0.1948694 0.31573144 -1.0524966 -0.34339023
0.60059583 0.85996616 -0.022931173 -0.13415456 -0.51308024 0.47463012 0.7588092 -0.11453128
0.10645517 0.43878603 0.22637092 -0.02409857 0.3799374 -0.186911 -0.054380625 0.13178457
00000000: 962e 1abf b914 64bf 9254 56bd 9d65 0c3e
00000010: 5829 34be 9ef9 63bd 6462 f8be f646 e73d
00000020: 9e2b 0a3e 9a10 503f 4300 b63c f7e3 33bf
00000030: 51fe 423f 1613 35be 3976 84be 8172 27be
00000040: fc96 48be 8494 f63e a9be c2be c197 d5bd
00000050: 2eff cdbe 34dc adbe 709a c03e 137a c63d
00000060: c82a 65be 4eae 40bf fb5f c73d 4cc8 6d3c
00000070: 8cd5 083d 02b3 21be 8fb1 0abf a15a 4d3f
00000080: cc44 6c3e 70f5 3abe 4a45 153f ab1a aebd
00000090: db70 c5bb e9d1 5bbe 8167 f3bd 1da7 78be
000000a0: b63d df3e c3c1 bd3c 741d 31be 1cf1 c13e
000000b0: c476 0c3f 79f9 a73e fb3b 7fbd 7208 143e
000000c0: fca5 2dbf d58b 813e 010c 493e 3f57 af3e
000000d0: 0b4e d63c 6c8c 2c3f a4a5 48bf 8ecb b53d
000000e0: 70e1 4cbf 3561 53be 37c2 e4be 4694 88be
000000f0: be0b d9bd 2e5a 86be 0c16 b3bd 3db5 733e
00000100: cf27 6e3e 2ba1 603e afb8 f4bb a1ff 6e3e
00000110: 558a bcbd 51df 1cbe 05f1 633d 9fcd a73d
00000120: 157a 00bf 7925 153f ce40 ccbc 7d84 ad3d
00000130: 5f35 6abf 90fa e23e 432f 6f3e d950 19bf
00000140: b6e0 c23e a17d 95be 9901 b03e 2b43 943e
00000150: ab16 0ebe fa7e bf3d 7bf0 0bbf 80a3 473e
00000160: c379 9cbd 91f5 09bf 1462 09bf 8929 9a3a
00000170: be57 d83d dda8 92be 7883 0dbe f366 5b3d
00000180: c7b6 be3e 2550 35bf 7bec b0bd 51de 233f
00000190: f573 803e 1d3e 5ebf b420 ed3e bc90 26be
000001a0: 36f1 6dbe ffa9 d53d 44b7 733d 606b e93e
000001b0: e71b 7fbe 178c 2d3e 53eb 97be 4bb6 edbe
000001c0: 9477 4cbf ca3c f63c fb8a d9be 3a13 313e
000001d0: e92d c5be af2c a4be 2883 aebe d3b2 c13e
000001e0: 6a50 313d b5d1 5cbf 9e6d 87be 2435 93be
000001f0: c8bb e4be 25af 23bf 2c4f 29bd 7611 213e
00000200: 382d fa3d e5eb 56be eb50 84bf 0d17 21bf
00000210: c431 493c 83a1 bfbc bc0e 1ebe 29db 0e3e
00000220: 3a0a 4f3e 0aa5 43bf 691b b33e 29fb 873e
00000230: 14ea 58be 89ca 80bf 40f0 64bc 1e13 c6be
00000240: f7d2 d23e 078d 50be da58 90be 3e85 2e3f
00000250: 696f d7be 0a71 77bc 08f8 283e add4 cebc
00000260: 690c 623f 0801 053f 2eb3 afbe 6831 8fbf
00000270: 2b88 42bf 9a69 6e3e 0a3c 9cbe 7c0a 1fbf
00000280: 81a6 653e 7503 28bf 9f37 28be c30f 3fbf
00000290: 607a 4b3e a73c 7bbc 8dc9 41bf 7ef6 10bf
000002a0: dc5e 793f cf93 4a3e 26cc 9b3e a87a afbe
000002b0: 18eb aa3e 2e1a 933f 7dae 3abe 6a02 5dbd
000002c0: e70e 8abe d800 823e 5c2c c03d 8eea f2be
000002d0: 741f b2bd bd8e 7bbd 49c9 b6bc c803 0c3f
000002e0: 729f 0abe 957d 9f3e 0572 f63e 51de c8bc
000002f0: 3f48 b23e d509 33bf 75a9 b53d 6ae0 b23e
00000300: a95f dabe dea7 65bd b650 c3be ea0f 9bbe
00000310: bd57 bebc b880 ce3e 6384 073c a2f2 233e
00000320: adef 42be bd53 52ba ce48 4abe f8a0 f83e
00000330: 8921 84bd ba81 463e 97e1 703e fd2e 123f
00000340: 3f98 a0be 39ab 193d 3438 35bf de4a 983e
00000350: 5735 f2be f6af cd3e 7a82 3b3f 2988 813e
00000360: e405 36bf b229 943e e34e 493e 580d 593d
00000370: 0342 3e3e c02b d63d 324b 9ebe 9de1 4b3e
00000380: 5ded 013f 81e6 d23e 4111 243e 4fc5 7abf
00000390: 7cb4 a6be b71a 64bd 5e6b 093f aac3 e4bd
000003a0: f6a7 bf3e 03a4 23be 3ef8 b5bd 1f14 833f
000003b0: d88b 47be 8da7 a13e 35b8 86bf d8d0 afbe
000003c0: a6c0 193f be26 5c3f 28da bbbc d05f 09be
000003d0: 3a59 03bf b802 f33e 5241 423f 608f eabd
000003e0: 2b05 da3d 90a8 e03e c7cd 673e 5d6a c5bc
000003f0: 2887 c23e 9965 3fbe 38be 5ebd 89f2 063e

fc2.weight f4 [256, 256]
-0.32538822 -0.045503583 0.066357106 -0.024753539 -0.16901752 0.13731542 0.012759431 0.07183003
0.12490019 -0.016562598 0.031596173 0.0006050263 0.12312732 0.047363203 -0.113107 -0.3131713
0.055310864 -0.22671586 0.17383474 0.098867625 0.05076477 0.01347113 -0.026957795 -0.09318449
0.00043874333 -0.07111094 -0.039194643 -0.036374215 -0.30013496 0.031016247 0.06472269 -0.057325147
0.12534307 -0.13323647 -0.029600568 -0.0014361767 -0.06884287 0.06627816 -0.0005950621 -0.031990796
0.084623724 -0.23390059 -0.050915353 0.00352569 0.07172007 0.025119757 0.007215716 -0.06139447
-0.04721076 0.0106186615 -0.1118334 -0.06572624 0.10233969 0.066542335 0.048166197 0.010753766
0.000796271 0.11351553 0.08068846 -0.086068586 0.06007751 0.057113685 0.022075796 -0.021318514
0.09505993 -0.109061114 0.0803376 -0.041505724 0.0955517 0.056826092 -0.1580835 0.044712305
0.010013568 0.061923698 -0.037852287 0.021541072 -0.071139306 -0.098219335 0.11490278 0.04479752
0.016635371 0.04344209 0.1489097 -0.13358553 -0.056762334 0.033426985 -0.020062048 0.0062356866
-0.047575388 0.0014927505 0.069931954 0.038811963 -0.05123224 -0.15868601 -0.048969835 -0.053538937
0.07277903 0.036068667 -0.036720447 0.06602155 0.03565605 0.03798633 -0.014085129 -0.10490875
-0.05965168 -0.17911676 -0.046492826 -0.07331216 0.08600537 -0.01892234 -0.16932923 -0.01946022
0.061430212 -0.026899848 0.14194599 0.093421094 0.14629366 -0.16639198 0.030382916 0.03413323
0.01324812 -0.072380945 0.013911165 0.07462681 0.0039010535 -0.13332202 0.05854492 -0.004042383
0.055573855 -0.028676225 0.09782426 -0.33208445 -0.011676374 -0.019725781 -0.13599178 0.059700307
0.1147771 -0.022590324 0.11770285 0.04417238 0.39405075 -0.07337284 -0.0332938 -0.030291403
-0.03056282 -0.045487683 0.0018542021 -0.28958687 -0.0128149325 -0.12885419 0.0018299841 0.02696328
0.07208524 -0.033821385 0.07793473 -0.07445488 0.05334082 -0.042876076 -0.0023680301 0.019116268
0.090113886 -0.060148217 0.020290092 0.07153662 -0.084416024 -0.08074062 0.016874962 0.09973134
0.006365062 0.026170904 -0.87517005 0.09830067 -0.05961337 0.06541273 -0.42060187 -0.30265465
0.06743959 0.036091566 -0.0006630475 0.04849835 -0.06547882 -0.106685944 0.0011572872 0.030260993
0.07250884 0.056908496 -0.042784713 -0.07017335 0.031085623 0.086848415 -0.06804562 0.039353084
-0.038110517 -0.027813425 0.05230164 0.0904153 0.07251968 -0.11494307 0.066422075 0.052967556
-0.046619315 -0.014058912 0.01059781 -0.123724714 -0.04473555 -0.02016079 -0.25557825 -0.009356087
-0.03633039 -0.016161285 0.016108714 -0.01051072 0.01719413 -0.07000172 0.11745997 -0.101794064
-0.05170882 0.0018787931 -0.0015806401 -0.04091676 -0.05307143 -0.019783873 -0.021189075 0.054197893
-0.0042068823 0.04249297 0.021260917 0.030237678 0.042896345 -0.036215488 0.07209855 0.07674839
-0.055533495 -0.043460313 -0.058323566 0.2899683 0.15329346 0.050006106 -0.005935953 -0.039163247
-0.10621467 -0.30536503 -0.07679722 0.015412822 0.027346874 -0.079006836 -0.051177226 -0.010260686
-0.08991624 0.0897665 0.016297625 -0.06589173 -0.29733583 -0.05586593 -0.031554785 0.066260114
00000000: 4999 a6be f761 3abd 3ce6 873d efc7 cabc
00000010: ee12 2dbe 6a9c 0c3e ef0c 513c 9f1b 933d
00000020: accb ff3d 49ae 87bc fd6a 013d a19a 1e3a
00000030: 2d2a fc3d ebff 413d a5a4 e7bd fd57 a0be
00000040: a58d 623d 3428 68be bc01 323e 1c7b ca3d
00000050: b8ee 4f3d 04b6 5c3c 98d6 dcbc 83d7 bebd
00000060: 2207 e639 9da2 91bd 908a 20bd 21fd 14bd
00000070: 4aab 99be c915 fe3c 548d 843d c6cd 6abd
00000080: ef59 003e 246f 08be e47c f2bc 183e bcba
00000090: 7efd 8cbd d8bc 873d f1fd 1bba c808 03bd
000000a0: 344f ad3d a383 6fbe 9e8c 50bd 430f 673b
000000b0: f9e1 923d f3c7 cd3c d071 ec3b c578 7bbd
000000c0: 1260 41bd e5f9 2d3c e908 e5bd 7b9b 86bd
000000d0: 7997 d13d 5947 883d eb49 453d 9030 303c
000000e0: d8bc 503a d57a e83d fe3f a53d ba44 b0bd
000000f0: d613 763d 0af0 693d 4dd8 b43c 2aa4 aebc
00000100: c8ae c23d 6f5b dfbd 0a88 a43d e801 2abd
00000110: 9cb0 c33d 7ac2 683d a4e0 21be 4024 373d
00000120: f30f 243c b4a3 7d3d 000b 1bbd e776 b03c
00000130: 7cb1 91bd 3827 c9bd 2652 eb3d 9b7d 373d
00000140: e746 883c 55f0 313d c97b 183e a5ca 08be
00000150: 9f7f 68bd bcea 083d 2a59 a4bc bb54 cc3b
00000160: 69de 42bd 65a8 c33a 7c38 8f3d 4bf9 1e3d
00000170: e6d8 51bd 967e 22be 9894 48bd a54b 5bbd
00000180: 2c0d 953d bdbc 133d 2e68 16bd 4e36 873d
00000190: 140c 123d 8e97 1b3d 50c5 66bc 66da d6bd
000001a0: 5255 74bd 626a 37be 436f 3ebd b024 96bd
000001b0: 9523 b03d 0603 9bbc a464 2dbe 0a6b 9fbc
000001c0: 3f9e 7b3d 125d dcbc 4a5a 113e 8f53 bf3d
000001d0: 01ce 153e a962 2abe 98e5 f83c 49cf 0b3d
000001e0: a50e 593c 763c 94bd a8eb 633c f1d5 983d
000001f0: d1a8 7f3b 9185 08be cccc 6f3d f775 84bb
00000200: 69a1 633d 67ea eabc 1658 c83d f906 aabe
00000210: 434e 3fbc f697 a1bc 6e41 0bbe 4f88 743d
00000220: 4210 eb3d 580f b9bc 310e f13d 19ee 343d
00000230: 05c1 c93e 8044 96bd 145f 08bd ad25 f8bc
00000240: e15e fabc 4b51 3abd b308 f33a bb44 94be
00000250: b9f5 51bc 5af2 03be 14dc ef3a 19e2 dc3c
00000260: 6da1 933d 4b88 0abd 3e9c 9f3d cd7b 98bd
00000270: e77b 5a3d d39e 2fbd f430 1bbb b899 9c3c
00000280: a18d b83d fa5d 76bd 6837 a63c cb81 923d
00000290: 4fe2 acbd 575b a5bd 5c3d 8a3c f23f cc3d
000002a0: 0392 d03b 5d64 d63c 250b 60bf dd51 c93d
000002b0: 262d 74bd 1cf7 853d 2159 d7be 8df5 9abe
000002c0: c51d 8a3d c0d4 133d 5dd0 2dba 35a6 463d
000002d0: c219 86bd 297e dabd 1db0 973a e7e5 f73c
000002e0: 847f 943d e218 693d 063f 2fbd 0cb7 8fbd
000002f0: 47a7 fe3c 95dd b13d 815b 8bbd b330 213d
00000300: c619 1cbd fbd8 e3bc 3f3a 563d a82b b93d
00000310: 3385 943d 4667 ebbd 4c08 883d 82f4 583d
00000320: e5f3 3ebd 5a57 66bc 70a2 2d3c 6263 fdbd
00000330: a03c 37bd 3e28 a5bc 27db 82be 464a 19bc
00000340: 2dcf 14bd ac64 84bc 6cf6 833c 2835 2cbc
00000350: b4da 8c3c 105d 8fbd da8e f03d 6879 d0bd
00000360: a1cc 53bd d641 f63a 7b2d cfba 5598 27bd
00000370: 6e61 59bd ca11 a2bc b694 adbc 9cfe 5d3d
00000380: e3d9 89bb 1c0d 2e3d 602b ae3c 02b5 f73c
00000390: 14b4 2f3d b156 14bd 68a8 933d 432e 9d3d
000003a0: 1777 63bd 7103 32bd b1e4 6ebd ba76 943e
000003b0: f6f8 1c3e 34d3 4c3d 6282 c2bb a469 20bd
000003c0: 1487 d9bd ce58 9cbe dc47 9dbd 1086 7c3c
000003d0: 8d06 e03c 56ce a1bd 369f 51bd 701c 28bc
000003e0: 0126 b8bd 80d7 b73d 9982 853c 3ef2 86bd
000003f0: 673c 98be acd3 64bd 973f 01bd 62b3 873d

fc2.bias f4 [256]
-0.14412388 -0.031743348 0.013870032 0.08136769 0.48407975 -0.18218336 -0.0065799397 0.16555609
0.03390219 0.048191335 0.115224935 -0.18589586 -0.35620967 0.025389956 0.07441966 0.152929
-0.13466407 -0.16339098 -0.07266517 0.6170874 -0.028159222 0.030372512 0.07726795 -0.0024500515
0.14677466 0.0024634164 -0.0151206665 -0.06311281 -0.026401896 -0.03339922 -0.103991814 -0.041737705
0.46133876 0.004988416 -0.036258694 0.009884082 -0.16789871 0.01994396 -0.08369875 -0.17141688
-0.067036666 0.017151006 0.012144918 0.021503767 -0.0045474544 -0.091137916 0.0024014723 -0.13205807
-0.0044090524 0.092042424 0.078518204 0.009799764 -0.108820036 0.76189727 0.020862637 -0.04479822
0.047186635 0.0652206 -0.26031613 -0.09263476 0.025485143 0.18201748 -0.0090116495 0.011307359
0.032973986 -0.012027914 -0.13086976 0.09103608 0.027644198 0.020322729 -0.06520769 -0.04143746
0.0022085356 0.020540105 0.0916525 0.10080793 -0.13165203 -0.004803687 0.2561125 0.13802862
0.15894103 -0.118335895 0.051788874 0.030773206 -0.05235097 0.2838188 0.19239749 0.04191143
-0.00014829493 0.02699259 0.14432472 0.19728547 0.2080111 0.0113069285 0.017184062 -0.12612097
0.064019024 -0.07536455 -0.06752914 0.13591261 0.13344209 -0.0010853756 -0.15831947 0.034011275
0.29307482 0.18520892 -0.034799177 0.10218637 0.052519843 -0.006072674 -0.35747683 0.12260114
-0.0007006287 0.121392794 -0.024088195 0.0015318383 -0.016590364 0.022304386 0.06410205 -0.03861817
-0.09145932 0.016358944 0.008477847 0.07907415 -0.0698955 0.0074365004 0.5145983 0.20085046
-0.14529316 0.026408173 0.0036015324 -0.020250412 -0.019177647 -0.024442032 -0.08350406 -0.10024447
-0.036186595 -0.035080094 -0.13214694 0.017498555 -0.008562303 -0.0372726 0.21911816 -0.02088378
-0.037906513 -0.00574947 0.3657581 0.14670794 -0.30772454 -0.045975983 -0.050787903 0.09021328
-0.001264607 0.011030392 -0.051846053 -0.006734077 -0.011000365 0.06886867 -0.0154189635 0.1089961
-0.10930991 0.11369357 0.026301898 0.1626262 0.055044234 0.090341575 -0.111919254 0.061099827
-0.28884983 -0.07925223 -0.039488293 -0.09644804 -0.14766121 -0.015265331 -0.012200501 -0.035759136
-0.046674572 0.062570035 0.031361636 0.056695864 -0.0627491 0.11468952 -0.029772276 0.08605865
-0.16508505 0.5030777 0.011144064 -0.06222802 0.38928816 -0.0033675025 0.04434767 0.016717097
0.08453814 -0.00070552336 0.15860425 -0.018946713 0.5567751 0.008039891 -0.26234564 0.1853904
-0.33424956 0.14258416 -0.06719468 0.12210493 -0.03069003 0.1429012 0.1288121 0.098302476
0.11061407 -0.064914905 -0.05558378 0.021413442 0.08564047 -0.12617862 -0.33744636 0.005993091
0.08583616 -0.024355758 0.034799986 0.025691533 -0.002494758 -0.084317446 -0.091375835 0.029806113
0.039510496 -0.058711983 -0.017453417 0.33112836 0.068000145 -0.054950103 -0.018957462 -0.1769115
-0.37550786 -0.057993952 0.0097958855 0.09874913 0.13560577 0.1783687 0.271036 0.012328702
-0.1727656 0.02903881 0.04659705 0.046956968 0.0069189323 0.06210378 0.12811136 -0.15209013
0.117363505 -0.022652037 -0.2862776 0.008281976 -0.032755904 0.04330531 -0.14286354 -0.05512042
00000000: 3695 13be 5005 02bd 213f 633c 1aa4 a63d
00000010: 4dd9 f73e 468e 3abe 899c d7bb 8987 293e
00000020: 06dd 0a3d 4764 453d 0dfb eb3d 7c5b 3ebe
00000030: 1d61 b6be 99fe cf3c 5669 983d 6b99 1c3e
00000040: 61e5 09be f74f 27be 7ad1 94bd 71f9 1d3f
00000050: 2bae e6bc c6cf f83c a93e 9e3d 0b91 20bb
00000060: 194c 163e 4571 213b acbc 77bc 4a41 81bd
00000070: ca48 d8bc 9fcd 08bd a9f9 d4bd 28f5 2abd
00000080: 9834 ec3e de75 a33b ff83 14bd d8f0 213c
00000090: a4ed 2bbe 8461 a33c 406a abbd e887 2fbe
000000a0: 854a 89bd 4480 8c3c 7afb 463c ab28 b03c
000000b0: d002 95bb 84a6 babd 0562 1d3b 3b3a 07be
000000c0: d079 90bb bd80 bc3d 27ce a03d 308f 203c
000000d0: 0add debd b30b 433f 1fe8 aa3c 577e 37bd
000000e0: c646 413d 6192 853d 2848 85be 4bb7 bdbd
000000f0: 38c6 d03c ca62 3a3e 99a5 13bc 8042 393c
00000100: bb0f 073d ba10 45bc b902 06be 2071 ba3d
00000110: 1676 e23c da7b a63c 9c8b 85bd 53ba 29bd
00000120: 14bd 103b b943 a83c 4eb4 bb3d 6374 ce3d
00000130: cacf 06be 3f68 9dbb 2d21 833e 6057 0d3e
00000140: 70c1 223e 175a f2bd 9220 543d 1718 fc3c
00000150: f96d 56bd b350 913e d903 453e 52ab 2b3d
00000160: 9e7f 1bb9 901f dd3c dcc9 133e 3405 4a3e
00000170: dd00 553e b240 393c 97c5 8c3c db25 01be
00000180: 681c 833d bb58 9abd b84c 8abd ad2c 0b3e
00000190: 0ba5 083e 2943 8eba 801e 22be 684f 0b3d
000001a0: e70d 963e 68a7 3d3e 9589 0ebd 1647 d13d
000001b0: 0c1f 573d 48fd c6bb 3407 b7be 4e16 fb3d
000001c0: 65aa 37ba c99c f83d 9b54 c5bc f7c7 c83a
000001d0: 84e8 87bc b0b7 b63c f047 833d 162e 1ebd
000001e0: 064f bbbd 3103 863c abe6 0a3c a1f1 a13d
000001f0: 5f25 8fbd e3ad f33b b7bc 033f beab 4d3e
00000200: bbc7 14be f455 d83c b007 6c3b 31e4 a5bc
00000210: 711a 9dbc a83a c8bc 2d04 abbd f94c cdbd
00000220: 6538 14bd 25b0 0fbd 8751 07be 2159 8f3c
00000230: e748 0cbc 27ab 18bd 8360 603e 7614 abbc
00000240: dc43 1bbd 0d66 bcbb a544 bb3e 9b3a 163e
00000250: 128e 9dbe 5051 3cbd fa06 50bd bdc1 b83d
00000260: 2bc1 a5ba d1b8 343c 875c 54bd 88a9 dcbb
00000270: e03a 34bc 040b 8d3d d29f 7cbc 5939 df3d
00000280: e0dd dfbd 2dd8 e83d 1477 d73c 7c87 263e
00000290: 1076 613d 0105 b93d ec35 e5bd d043 7a3d
000002a0: 20e4 93be fe4e a2bd 7abe 21bd 8d86 c5bd
000002b0: 8034 17be 701b 7abc 9ce4 47bc 2c78 12bd
000002c0: d62d 3fbd b824 803d 0f75 003d ec39 683d
000002d0: 9a82 80bd 57e2 ea3d fde4 f3bc 843f b03d
000002e0: 0e0c 29be b3c9 003f 9895 363c cfe2 7ebd
000002f0: c750 c73e 51b1 5cbb e7a5 353d 4bf2 883c
00000300: 5522 ad3d dff2 38ba 2769 223e 2336 9bbc
00000310: d088 0e3f bfb9 033c 2b52 86be fbd6 3d3e
00000320: c222 abbe 9501 123e 5d9d 89bd 2612 fa3d
00000330: a869 fbbc b154 123e 52e7 033e cf52 c93d
00000340: a189 e23d 1bf2 84bd d1ab 63bd 3e6b af3c
00000350: 4564 af3d f834 01be c5c5 acbe b161 c43b
00000360: deca af3d ba85 c7bc 6e8a 0e3d 0d77 d23c
00000370: 187f 23bb a0ae acbd 4123 bbbd f32b f43c
00000380: c2d5 213d fa7b 70bd 78fa 8ebc a889 a93e
00000390: a943 8b3d 5c13 61bd ae4c 9bbc 4a28 35be
000003a0: 9142 c0be 118b 6dbd ec7e 203c fc3c ca3d
000003b0: 3ddc 0a3e 49a6 363e 3bc5 8a3e 53fe 493c
000003c0: 77e9 30be cce2 ed3c 8cdc 3e3d f355 403d
000003d0: 36b8 e23b 8960 7e3d a02f 033e 84bd 1bbe
000003e0: 475c f03d c490 b9bc fa92 92be 20b1 073c
000003f0: 0e2b 06bd e960 313d d24a 12be f3c5 61bd

fc3.weight f4 [1, 256]
0.067719616 0.0639715 0.015868392 -0.04213773 -1.5837406 0.08110015 -0.36877477 0.31703395
-0.009107165 0.0052009746 -0.23928732 -0.025791962 -0.53282845 -0.0007483335 -0.015770143 0.14232528
-0.03156319 0.07478209 0.16086912 0.46676818 0.06618566 0.19308768 0.017374314 -0.0023941677
0.026935928 -0.06740058 -0.02823069 0.006627382 0.00042785105 -0.6105105 0.40007284 -0.006841019
-0.8401125 0.018047417 -0.18782564 -0.008596446 -0.4110089 -1.6695125 0.018583149 0.06632267
-0.040823713 -0.28877077 -0.2756669 -0.31961402 0.002460989 0.20529965 0.00015384307 0.028124576
0.0022662375 -0.10810995 0.07566332 0.00046190966 0.01053402 0.72838044 -0.035827786 -0.11213511
-0.05396005 -0.013272477 -0.06983478 0.024629977 0.057190005 -0.51050603 -0.1873447 -0.0022326014
0.032666776 -0.00021203894 0.080554396 -0.20428722 -0.00090449 0.12926973 0.25241336 -0.049408328
-0.023315916 6.948001e-06 -0.024925858 -0.056227338 0.011490957 -0.009193447 0.12857515 0.12731443
0.4234542 0.042265933 0.12005887 -0.007285445 -0.002368498 -0.043333665 -0.042701986 0.00037602196
-0.025111547 0.053534042 -0.054802857 -0.3602587 -0.45047814 0.35555977 0.0025159877 -0.14424469
-0.14214225 -1.3457093 -0.002339394 0.03474127 -0.030115508 -0.008145697 0.024153061 -0.15095557
-0.023129042 0.053620886 0.00015640247 0.012423551 -0.0012410327 -0.80153453 0.038225725 0.06923946
0.0014779906 0.20054547 -0.11764142 0.049015626 0.015269017 -0.063796386 -0.25212303 0.023465337
0.0087472005 0.038775325 0.11092555 0.03732018 0.16609351 0.002373568 -0.10038259 -0.1710401
-1.1230066 -0.00063567964 -0.0025174061 0.09370224 0.00032246712 -0.118558854 -0.1146386 -0.10015797
-0.0018805205 0.0982244 -0.44210225 -0.07229997 -0.012286885 -0.026840553 -0.51846623 -0.19522724
0.006142182 -0.64627564 -0.09236592 -0.056167822 0.11929037 -0.00011982291 0.017787943 0.18415996
-0.006520911 -0.0017039865 0.05280334 0.06045926 0.0017334705 -0.052261956 -0.029283347 -0.029387906
0.11977685 -0.54498726 0.0048360853 -1.7821574 -0.00027370866 0.015816815 0.10229205 -0.070915945
0.13522892 -1.2066687 3.902581e-05 0.34866306 0.08404256 0.07028237 0.06720884 -0.0027482635
-0.07858962 0.025860112 0.0030964795 0.0022961982 -0.19892515 0.033508133 0.0012187283 0.1664139
0.049901813 -0.7770693 -0.0029588335 0.00119469 0.15201283 -0.00024653625 -0.006641032 -0.1482073
-0.012876368 0.27341524 -0.2737421 -0.15258978 -2.0134125 -0.00010469524 -0.10103618 -0.12642063
0.15841901 -0.035175987 0.0005437367 -0.56019413 -0.060114548 -0.009733381 0.09108953 -0.15828456
-0.307391 -0.043799497 0.02744505 -0.12262593 -0.013328499 0.03851316 0.18970974 -0.003741655
-2.327044 0.00067843177 -0.00027392892 -0.055200037 -0.026574928 0.00018545953 -0.33992153 0.47306386
-0.030001683 0.002129739 -2.4880171e-06 -0.029618032 -0.050718367 -0.0006637508 0.1209238 -0.034190122
-0.16020116 -0.0029581594 -0.220684 0.0065812417 0.068210796 -0.02979745 -0.5472915 -0.27774823
0.041633107 0.110086225 -0.07370167 -0.1608214 -0.00032278904 -0.05140609 0.118299894 -0.05533381
0.44352254 -0.033959456 0.0031254175 -0.0023104139 0.00072789646 -0.39864856 0.0069540134 -0.04239462
00000000: 95b0 8a3d 7d03 833d 6efe 813c 9d98 2cbd
00000010: 03b8 cabf d617 a63d 0cd0 bcbe 4652 a23e
00000020: 3836 15bc f06c aa3b bc07 75be aa49 d3bc
00000030: 7267 08bf d02b 44ba 6330 81bc b8bd 113e
00000040: 6748 01bd 5a27 993d e0ba 243e 3dfc ee3e
00000050: 598c 873d c7b8 453e 9454 8e3c 78e7 1cbb
00000060: bca8 dc3c 5109 8abd 0c44 e7bc 822a d93b
00000070: 3251 e039 6b4a 1cbf 59d6 cc3e a02a e0bb
00000080: 9d11 57bf 2dd8 933c 5d55 40be 1cd8 0cbc
00000090: c26f d2be 96b2 d5bf b03b 983c 2ed4 873d
000000a0: c436 27bd c3d9 93be 3624 8dbe 73a4 a3be
000000b0: 8b48 213b 123a 523e ef50 2139 8365 e63c
000000c0: 2885 143b c068 ddbd 5ff5 9a3d 772c f239
000000d0: e296 2c3c 2477 3a3f 28c0 12bd 18a7 e5bd
000000e0: 3705 5dbd ce74 59bc 8a05 8fbd cec4 c93c
000000f0: 1140 6a3d 86b0 02bf 4ad7 3fbe d650 12bb
00000100: 99cd 053d c556 5eb9 b4f9 a43d ab30 51be
00000110: 4c1b 6dba 495f 043e 533c 813e 6360 4abd
00000120: 0501 bfbc e022 e936 5031 ccbc a34e 66bd
00000130: 9144 3c3c 1da0 16bc 34a9 033e b75e 023e
00000140: fdce d83e 0b1f 2d3d 6de1 f53d beba eebb
00000150: cd38 1bbb a47e 31bd 47e8 2ebd d024 c539
00000160: bbb6 cdbc 8346 5b3d f678 60bd d473 b8be
00000170: 12a5 e6be ee0b b63e 45e3 243b e1b4 13be
00000180: bd8d 11be 3440 acbf 8550 19bb dd4c 0e3d
00000190: ccb4 f6bc 8875 05bc a4dc c53c 1994 1abe
000001a0: 1e79 bdbc 93a1 5b3d f8ff 2339 268c 4b3c
000001b0: 26aa a2ba 5e31 4dbf 9492 1c3d 6bcd 8d3d
000001c0: 23b9 c13a cb5b 4d3e fced f0bd 9cc4 483d
000001d0: e62a 7a3c aea7 82bd 4516 81be 613a c03c
000001e0: 6b50 0f3c e0d2 1e3d ef2c e33d 0cdd 183d
000001f0: 6b14 2a3e dd8d 1b3b 6395 cdbd 2325 2fbe
00000200: aebe 8fbf bda3 26ba 11fb 24bb f6e6 bf3d
00000210: ce10 a939 fcce f2bd a4c7 eabd 9f1f cdbd
00000220: cc7b f6ba e029 c93d 3a5b e2be 0212 94bd
00000230: ee4e 49bc b8e0 dbbc 34ba 04bf a6e9 47be
00000240: 5b44 c93b 5272 25bf 582a bdbd 3b10 66bd
00000250: 824e f43d 6f49 fbb8 05b8 913c 6e94 3c3e
00000260: 5ead d5bb 4d58 dfba 5148 583d 21a4 773d
00000270: 9e35 e33a a210 56bd a1e3 efbc e8be f0bc
00000280: 914d f53d 4984 0bbf 0678 9e3b bc1d e4bf
00000290: 8e80 8fb9 4492 813c 7f7e d13d 613c 91bd
000002a0: 7379 0a3e 1f74 9abf a5af 2338 f783 b23e
000002b0: 811e ac3d 34f0 8f3d caa4 893d 361c 34bb
000002c0: 98f3 a0bd 96d8 d33c 4eee 4a3b d07b 163b
000002d0: 09b3 4bbe d33f 093d bcbd 9f3a 6868 2a3e
000002e0: d865 4c3d 03ee 46bf fde8 41bb 2597 9c3a
000002f0: 40a9 1b3e 8941 81b9 049d d9bb a8c3 17be
00000300: 67f7 52bc 15fd 8b3e ed27 8cbe 7f40 1cbe
00000310: c0db 00c0 d48f dbb8 0fec cebd 6974 01be
00000320: 9838 223e b214 10bd 8d89 0e3a e268 0fbf
00000330: ac3a 76bd c278 1fbc 268d ba3d 5915 22be
00000340: 5a62 9dbe 1a67 33bd 71d4 e03c 4e23 fbbd
00000350: c75f 5abc fabf 1d3d 4543 423e 8e36 75bb
00000360: 4aee 14c0 c9d8 313a 1e9e 8fb9 6f19 62bd
00000370: aab3 d9bc ea77 4239 320a aebe 6d35 f23e
00000380: 17c6 f5bc 1793 0b3b cff7 26b6 84a1 f2bc
00000390: 10be 4fbd 90ff 2dba e6a6 f73d f10a 0cbd
000003a0: c60b 24be aedd 41bb fdfa 61be 75a7 d73b
000003b0: 1ab2 8b3d c819 f4bc 4c1b 0cbf 0435 8ebe
000003c0: 7a87 2a3d e374 e13d e7f0 96bd 5dae 24be
000003d0: 033c a9b9 318f 52bd 3747 f23d b5a5 62bd
000003e0: 6315 e33e 1219 0bbd ced3 4c3b 506a 17bb
000003f0: 4ed0 3e3a aa1b ccbe 7ede e33b fba5 2dbd
