TD3/models/reward_s9e-3_a4e-2_t(-0.1_0.005)_c.pth (torch, 275287 bytes, 5 tensors)

fc1.weight f4 [256, 8]
-0.07337919 0.29886633 0.18359742 -0.08228129 -0.33364916 -0.09776214 0.20894393 0.19949125
-0.024565578 0.093946904 0.12028582 -0.19040738 0.21316335 0.16711277 0.1756359 0.04203965
0.087298065 0.24321426 0.0788604 -0.2647632 0.23154213 -0.20317091 0.25321898 -0.0501676
-0.07527942 -0.25104544 -0.3511845 0.31876174 -0.19510351 -0.14930151 0.12716968 0.0011972123
0.29359084 -0.15374668 0.052633077 -0.17996952 -0.17803727 -0.26757506 0.13212502 0.11480005
0.009298899 0.29071105 0.2686051 0.138898 -0.024220183 -0.2645324 0.09485183 -0.010327483
0.20147276 0.2928058 -0.2984901 0.3304826 -0.14782974 0.16111411 0.03149242 0.1709537
-0.121041484 0.00018034695 0.104103066 0.2983909 0.0358086 0.29290044 -0.03201437 0.045520462
0.24041899 0.34422573 0.12854141 0.12104705 -0.12048942 -0.19637343 0.08362667 0.11373399
-0.015143587 -0.33506975 -0.27311045 -0.14842297 -0.069934115 0.016554223 -0.3463247 -0.08280015
0.23724192 0.33094555 0.26038125 -0.1999871 0.33936304 -0.110627614 -0.27668744 -0.23462485
0.003765273 -0.15063398 -0.253994 -0.1865857 -0.07485141 -0.048524972 -0.029864624 -0.26425135
0.0916143 -0.30969897 0.33363402 0.33268332 0.2312624 0.2631607 -0.18322021 0.27391654
-0.08206207 -0.02222972 -0.070225164 0.32485563 0.026433079 -0.23978029 -0.15747337 0.33027056
0.17643404 0.04753798 -0.2970009 -0.33299538 -0.14910543 -0.34654233 0.27588972 -0.24826297
-0.15973711 -0.3453112 0.05279272 0.08887915 -0.01695294 -0.16426599 0.28405195 -0.07301687
0.27456948 0.2603311 -0.05270809 0.052818824 -0.26163754 0.32395378 0.11837535 -0.006393995
-0.029435473 -0.16763324 0.2945644 -0.21438521 0.17010972 0.22813189 0.0722559 -0.32366908
0.19087537 0.1194429 -0.084252305 -0.16459815 -0.064839974 -0.06165599 0.28641894 -0.21521601
0.2578592 -0.077177756 0.11275286 0.024989368 -0.11885877 0.050815046 -0.00092516496 0.3348227
-0.31684574 -0.21438637 0.083642475 -0.025500847 0.15277264 0.18183587 -0.0052202535 -0.053951945
-0.2811503 0.35144302 -0.014436538 0.22589795 -0.08823934 0.2728421 -0.29059175 -0.29241928
-0.18865965 -0.0032638006 -0.040126793 -0.30618665 0.22851318 -0.31339553 0.18427119 0.013140631
0.27866554 -0.28768328 -0.35098156 0.23135558 -0.20692785 0.017003462 0.2081595 -0.05306754
0.17591955 -0.34129938 -0.3112634 0.31606385 -0.31253308 0.03933814 -0.0090784 0.21252272
0.29744872 -0.09214957 -0.031404965 -0.106090486 -0.16119105 -0.103626706 0.29155263 -0.35072854
-0.31131357 -0.24231571 -0.0830885 -0.08903466 0.073584564 0.049716823 -0.21264155 0.13557298
0.34252703 -0.13402542 -0.035589308 0.33650228 0.022419915 -0.09905626 0.020121114 -0.12895955
-0.053958155 0.21346173 -0.19209613 -0.09647115 -0.023515575 -0.2658901 -0.15678048 0.198105
0.1844906 -0.35197002 -0.05899084 0.024564253 -0.10255827 0.33775514 -0.28324163 -0.34474218
0.11103918 -0.34065586 -0.28933695 0.22262964 0.1684635 -0.19623467 -0.13238414 0.040425975
0.29256955 -0.18832609 0.061740875 0.34759408 0.08021736 -0.23990367 -0.31307998 -0.1034252
00000000: d447 96bd 0205 993e f600 3c3e 1883 a8bd
00000010: 10d4 aabe 8437 c8bd 66f5 553e 6f47 4c3e
00000020: c03d c9bc 3c67 c03d 6958 f63d 27fa 42be
00000030: 7e47 5a3e 9c1f 2b3e e6d9 333e c531 2c3d
00000040: 54c9 b23d 290d 793e 9081 a13d 0b8f 87be
00000050: 6119 6d3e 090c 50be eba5 813e 8b7c 4dbd
00000060: 192c 9abd 0789 80be 74ce b3be bd34 a33e
00000070: 37c9 47be 7fe2 18be c538 023e c7eb 9c3a
00000080: 8a51 963e c56f 1dbe c895 573d ee49 38be
00000090: 674f 36be 99ff 88be c84b 073e 4a1c eb3d
000000a0: 695a 183c 14d8 943e 9c86 893e 473b 0e3e
000000b0: 6869 c6bc ca70 87be ad41 c23d 9a34 29bc
000000c0: e04e 4e3e a4ea 953e b2d3 98be 0435 a93e
000000d0: ae60 17be 19fb 243e 32fe 003d 7d0e 2f3e
000000e0: 99e4 f7bd 841b 3d39 fd33 d53d b1c6 983e
000000f0: 0aac 123d 0cf7 953e 8021 03bd aa73 3a3d
00000100: 6530 763e 5b3e b03e 5ca0 033e 84e7 f73d
00000110: 28c3 f6bd 1e16 49be 7644 ab3d 5eed e83d
00000120: cf1c 78bc 438e abbe 22d5 8bbe 31fc 17be
00000130: 9e39 8fbd b99c 873c 7951 b1be 2093 a9bd
00000140: 8cef 723e b271 a93e b150 853e 6bc9 4cbe
00000150: fec0 ad3e bb90 e2bd faa9 8dbe 7f41 70be
00000160: ccc2 763b cb3f 1abe 800b 82be 5210 3fbe
00000170: b24b 99bd 1fc2 46bd a8a6 f4bc f44b 87be
00000180: 47a0 bb3d dd90 9ebe 14d2 aa3e 7855 aa3e
00000190: 0dd0 6c3e 00bd 863e 149e 3bbe ca3e 8c3e
000001a0: 2910 a8bd 1a1b b6bc 36d2 8fbd 7a53 a63e
000001b0: 2f8a d83c f788 75be b340 21be 3919 a93e
000001c0: 20ab 343e 2fb7 423d 8110 98be 5f7e aabe
000001d0: 18af 18be ff6d b1be 6b41 8d3e a638 7ebe
000001e0: 2092 23be a1cc b0be 2e3d 583d 4606 b63d
000001f0: e4e0 8abc 5835 28be 426f 913e de89 95bd
00000200: 5f94 8c3e 1e4a 853e 70e4 57bd 8d58 583d
00000210: 5bf5 85be 45dd a53e c76e f23d b884 d1bb
00000220: a922 f1bc 0ca8 2bbe 25d1 963e cc87 5bbe
00000230: 3e31 2e3e 689b 693e e7fa 933d f4b7 a5be
00000240: d574 433e 7b9e f43d 798c acbd 6b8c 28be
00000250: d2ca 84bd fe8a 7cbd 81a5 923e 9661 5cbe
00000260: 1f06 843e 5f0f 9ebd f9ea e63d 81b6 cc3c
00000270: 3a6c f3bd 7023 503d c586 72ba e26d ab3e
00000280: 9b39 a2be 1a88 5bbe bf4c ab3d 27e7 d0bc
00000290: 6e70 1c3e 2f33 3a3e a90e abbb b7fc 5cbd
000002a0: eff2 8fbe 57f0 b33e 3b87 6cbc cb51 673e
000002b0: d4b6 b4bd f6b1 8b3e 71c8 94be fbb7 95be
000002c0: ff2f 41be 7de5 55bb fe5b 24bd 7fc4 9cbe
000002d0: 5cff 693e 6175 a0be 96b1 3c3e cd4b 573c
000002e0: 40ad 8e3e 394b 93be dbb3 b3be 7ae8 6c3e
000002f0: e5e4 53be d84a 8b3c c427 553e 595d 59bd
00000300: 4124 343e cbbe aebe eb5d 9fbe 1fd3 a13e
00000310: 5604 a0be 0821 213d 92bd 14bc 8e9f 593e
00000320: 334b 983e eab8 bcbd 7ea2 00bd f845 d9bd
00000330: 440f 25be 3d3a d4bd 6346 953e b192 b3be
00000340: 7e64 9fbe 9c21 78be 4e2a aabd ce57 b6bd
00000350: 81b3 963d dea3 4b3d b5be 59be a5d3 0a3e
00000360: b45f af3e f63d 09be 18c6 11bd 074a ac3e
00000370: f8a9 b73c 02de cabd 09d5 a43c f90d 04be
00000380: 3a03 5dbd b695 5a3e d9b4 44be ab92 c5bd
00000390: bca3 c0bc bf22 88be 108b 20be 0adc 4a3e
000003a0: 1beb 3c3e 6a35 b4be 61a0 71bd f93a c93c
000003b0: 120a d2bd 3eee ac3e 0c05 91be 0c82 b0be
000003c0: 8268 e33d 726a aebe f923 94be 06f9 633e
000003d0: b281 2c3e bef1 48be b58f 07be b595 253d
000003e0: adcb 953e 8ed8 40be 00e4 7c3d daf7 b13e
000003f0: 0049 a43d 4fa9 75be 054c a0be 97d0 d3bd

fc1.bias f4 [256]
0.3028144 -0.22297941 0.15826303 -0.31567344 -0.27884588 0.35369593 0.20043792 0.31994998
-0.11155565 0.33292526 -0.3047589 -0.25612825 -0.26045147 -0.3516621 -0.24000405 -0.275369
-0.28511304 -0.0813575 -0.33759877 0.089061216 -0.034749918 0.0740385 -0.20405844 0.1488415
-0.16293956 0.14665295 -0.0059302296 0.22246684 0.30497652 0.2660069 -0.1624234 0.00038434236
0.10367646 -0.06564578 -0.068649836 -0.019309599 0.19179034 0.2635442 -0.06861815 0.019012092
0.3155537 0.27928156 0.15180637 0.18840648 -0.27173322 0.30051845 0.13701944 0.32727793
0.1304293 -0.29385674 -0.19333906 0.245412 -0.3494741 0.12962928 -0.18796988 0.20401414
-0.098110884 -0.25408384 -0.13843057 -0.016032647 -0.347407 0.11790018 0.26417848 0.2552457
-0.15572813 -0.13758318 0.3026822 0.31703675 0.30446732 -0.019352477 -0.24234885 0.22160599
0.0010799922 -0.28783032 0.11190261 -0.31802484 -0.34637043 0.09901949 -0.038585316 0.14404333
0.024503123 0.34484538 -0.13112348 0.24020968 -0.13113263 -0.071881965 -0.09061649 0.33789462
-0.25613043 -0.05581861 -0.25662962 0.08947788 -0.07178937 -0.25940222 -0.3185892 -0.030726247
0.26003504 0.10737869 -0.038602743 -0.15296675 -0.08897964 -0.14666338 0.3162167 -0.17623006
-0.34143203 0.32993287 -0.25259405 -0.33842587 0.00026337564 -0.015505363 0.2771598 0.29445353
-0.010826028 0.32801637 -0.08192694 0.0979335 0.1908953 0.34483784 -0.0047973567 -0.2533852
0.18499775 0.3386636 0.187046 0.31898493 -0.06444487 -0.06690538 -0.32847735 -0.026344715
-0.27284372 -0.11927372 -0.026019027 0.16500697 0.31652683 -0.32656235 0.3280038 -0.3308003
0.15969509 0.15184532 0.15859842 0.11206418 0.17175086 0.0019619693 0.1809943 0.23553492
-0.038201977 -0.110283904 -0.33519128 0.20757411 0.0995074 0.25834614 -0.038716603 0.22748072
0.3363392 -0.086991794 -0.058648665 0.22491099 0.12691359 -0.23893474 0.017408047 0.20738249
0.07050845 -0.19639623 0.32415968 0.33122894 0.2832929 0.34825248 0.06295947 0.08234634
-0.024663549 0.3143811 0.2409319 -0.06638673 -0.023134198 0.041662734 0.3443939 -0.25057295
0.32144377 -0.2415166 -0.047248267 0.25615755 -0.27389833 0.22066465 -0.2744028 -0.053139023
-0.29592496 0.09102076 -0.17849432 0.2927752 -0.10953431 -0.25469473 -0.19117974 0.30873248
-0.0558138 0.059840705 -0.33557132 0.15416864 0.12005134 -0.18520683 -0.3075201 -0.17169896
0.33811677 -0.06653067 0.12465238 0.049264763 0.29093605 -0.25218746 0.31292996 0.100068286
0.12910183 0.05955708 -0.17104518 -0.0016958724 0.12589678 -0.27886578 -0.04698322 0.05539653
-0.30145094 -0.25722083 -0.24063885 -0.29946667 0.06678716 -0.22192223 -0.343166 -0.30382848
-0.35030538 0.13229127 0.20902324 -0.2822947 0.07822606 -0.15838932 0.25605148 0.31497362
-0.10091 0.2516903 0.29309782 -0.3471337 0.14391859 -0.016380845 -0.33108175 -0.31006378
0.17293027 -0.07655662 -0.1586705 -0.18495485 -0.28166288 -0.30556238 0.20361364 -0.012865551
0.25533482 -0.014262101 0.20829874 0.055676777 -0.18392473 0.26740736 0.27681088 -0.080078244
00000000: 7d0a 9b3e b754 64be b40f 223e f39f a1be
00000010: e3c4 8ebe a217 b53e 993f 4d3e 7cd0 a33e
00000020: 4a77 e4bd 2e75 aa3e 5c09 9cbe 3e23 83be
00000030: e559 85be 0e0d b4be 9fc3 75be 2afd 8cbe
00000040: 56fa 91be c39e a6bd bfd9 acbe ba65 b63d
00000050: ee55 0ebd 7fa1 973d b2f4 50be e869 183e
00000060: a1d9 26be 312c 163e 5f52 c2bb 59ce 633e
00000070: e225 9c3e 0e32 883e 5252 26be 8f81 c939
00000080: 5354 d43d 4b71 86bd 4998 8cbd 2a2f 9ebc
00000090: b064 443e 44ef 863e ac87 8cbd 3fbf 9b3c
000000a0: 4190 a13e fefd 8e3e 2173 1b3e a1ed 403e
000000b0: 9e20 8bbe 8edd 993e d34e 0c3e f990 a73e
000000c0: 428f 053e 6474 96be adfa 45be 494d 7b3e
000000d0: 45ee b2be 8abd 043e 2d7b 40be 15e9 503e
000000e0: 5cee c8bd 4717 82be bec0 0dbe e656 83bc
000000f0: 55df b1be a675 f13d 6742 873e 90af 823e
00000100: 3277 1fbe 9be2 0cbe 29f9 9a3e a452 a23e
00000110: 24e3 9b3e 1689 9ebc 4c2a 78be aeec 623e
00000120: 868e 8d3a 7f5e 93be 322d e53d 27d4 a2be
00000130: 7757 b1be bbca ca3d a30b 1ebd 1880 133e
00000140: c6ba c83c 938f b03e 3c45 06be 87f9 753e
00000150: a247 06be da36 93bd 2395 b9bd 8600 ad3e
00000160: 8723 83be 0ea2 64bd f564 83be 2e40 b73d
00000170: 4e06 93bd 5ed0 84be 201e a3be 9cb5 fbbc
00000180: 5023 853e 5ce9 db3d e91d 1ebd 51a3 1cbe
00000190: f53a b6bd ed2e 16be 28e7 a13e a775 34be
000001a0: 2ed0 aebe f6ec a83e 0254 81be 2846 adbe
000001b0: ae15 8a39 350a 7ebc e4e7 8d3e 9dc2 963e
000001c0: a75f 31bc c3f1 a73e 50c9 a7bd 5c91 c83d
000001d0: 0f7a 433e 968e b03e 2533 9dbb b4bb 81be
000001e0: 0d70 3d3e 5165 ad3e fd88 3f3e fe51 a33e
000001f0: acfb 83bd b005 89bd 2f2e a8be dfd0 d7bc
00000200: 2cb2 8bbe c845 f4bd db25 d5bc 96f7 283e
00000210: ce0f a23e 2e33 a7be 1df0 a73e a85e a9be
00000220: 1c87 233e 577d 1b3e a067 223e e881 e53d
00000230: 75df 2f3e 6294 003b 9256 393e 1130 713e
00000240: ad79 1cbd 87dc e1bd 319e abbe 4f8e 543e
00000250: 89ca cb3d f245 843e 4d95 1ebd b5f0 683e
00000260: a734 ac3e c128 b2bd 9539 70bd 114f 663e
00000270: a3f5 013e 4fab 74be 529b 8e3c 135c 543e
00000280: bc66 903d 181c 49be 42f8 a53e d796 a93e
00000290: c40b 913e 264e b23e e5f0 803d 33a5 a83d
000002a0: 360b cabc 8ff6 a03e dab6 763e c4f5 87bd
000002b0: ee83 bdbc 8ba6 2a3d 6654 b03e 194b 80be
000002c0: 4794 a43e 2150 77be 6687 41bd 1527 833e
000002d0: 673c 8cbe eaf5 613e 867e 8cbe 4ea8 59bd
000002e0: 7a83 97be 1869 ba3d 37c7 36be a2e6 953e
000002f0: 8653 e0bd 5967 82be 9fc4 43be 2f12 9e3e
00000300: 039d 64bd 871b 753d 01d0 abbe 62de 1d3e
00000310: 7add f53d dca6 3dbe 4673 9dbe dad1 2fbe
00000320: a41d ad3e 3b41 88bd bf49 ff3d d9c9 493d
00000330: 92f5 943e b71e 81be 5b38 a03e 9af0 cc3d
00000340: 4533 043e 20f2 733d 7826 2fbe 0948 deba
00000350: 16eb 003e 7fc7 8ebe 7a71 40bd 79e7 623d
00000360: c757 9abe 73b2 83be 086a 76be b253 99be
00000370: b5c7 883d 953f 63be 74b3 afbe 688f 9bbe
00000380: 3a5b b3be 5d77 073e 300a 563e ee88 90be
00000390: fc34 a03d cf30 22be 2e19 833e 3944 a13e
000003a0: e7a9 cebd 8ddd 803e eb10 963e 82bb b1be
000003b0: 655f 133e 1f31 86bc 8c83 a9be aec0 9ebe
000003c0: a214 313e b8c9 9cbd 857a 22be ce64 3dbe
000003d0: 1e36 90be ac72 9cbe 1880 503e 08ca 52bc
000003e0: 3fbb 823e 96ab 69bc 444c 553e 550d 643d
000003f0: c456 3cbe 9ee9 883e 28ba 8d3e 1000 a4bd

fc2.weight f4 [256, 256]
0.043368775 0.046655264 -0.021894807 0.017454406 0.0038447331 0.06412551 -0.060429692 -0.047504116
-0.014633193 0.022569284 0.048149202 -0.0567798 0.05057844 0.039288033 0.024148248 0.032431774
0.052166834 -0.015089588 0.04067777 -0.0333039 -0.019034015 -0.038092505 -0.045968883 -0.035243373
0.05346592 -0.0021725073 0.01884782 0.01508328 -0.037090357 0.055602293 -0.00237714 0.036702797
-0.04479618 0.060409643 -0.024441669 -0.020856619 -0.03782755 -0.052451726 0.051346302 0.008890533
0.015249151 0.01808434 -0.03292117 -0.017014943 -0.024008447 0.007279107 -0.017861567 -0.035339907
-0.04486456 0.0037835706 -0.013431378 -0.028446915 0.015018104 -0.014936662 -0.054455325 -0.030080777
-0.04106318 0.03731829 -0.002183546 -0.030316375 -0.0146316225 -0.05004745 -0.02559755 0.051257957
0.0018655363 -0.058412787 -0.025823493 0.039360415 -0.06086852 0.05865196 -0.024798514 0.014769493
0.026085965 -0.060757414 0.030011654 0.03730961 0.046045884 -0.05654456 -0.024957418 -0.02677031
-0.04088261 0.026976498 0.059428893 -0.025153952 0.06334203 -0.055630118 0.033451058 0.01074415
-0.014181948 -0.029922469 0.03589483 -0.04952851 -0.003511317 0.023074174 -0.055482335 -0.045526076
0.030336509 0.01606191 -0.052669097 0.011521652 -0.031175476 -0.0007935738 -0.02930577 -0.034321252
0.004453177 0.05666187 -0.038267992 0.044218443 -0.03640011 0.046552 -0.043577928 -0.030559532
0.01498849 -0.02527423 -0.042873323 -0.048306752 0.03213215 0.045302764 -0.03774383 -0.040264014
0.042657338 -0.022564545 0.043156743 0.058636673 -0.043830357 -0.021712005 0.02848309 0.024691725
-0.006050347 -0.059790302 0.013400986 -0.018589612 -0.02430597 -9.72324e-05 -0.041650772 -0.027095541
0.03232783 -0.0020646162 0.013001855 -0.049339868 -0.035340466 0.014755083 -0.050593354 0.036422983
0.05100577 0.016280293 0.041689582 -0.01256825 -0.04872702 0.01040682 0.043457568 0.056166656
0.04055411 -0.015148828 0.030669868 0.019290416 0.042237565 -0.03332395 -0.0083054975 0.050133463
-0.0016350399 -0.0024702097 -0.04467408 0.0009834536 -0.016885992 -0.059178833 0.043359112 0.015939055
-0.030771205 0.020403909 -0.008055661 -0.04921831 0.060016144 0.021287523 0.030292876 -0.012475665
-0.05009002 0.009008077 0.0031153902 -0.050199278 0.031236267 0.048446085 -0.021896875 0.0103929695
-0.014748622 -0.043005787 -0.03418074 -0.01966925 0.056697316 0.03349182 -0.055416457 -0.02400397
0.026882885 0.05281786 -0.006103688 -0.04236302 -0.023504823 0.0059224064 -0.026218725 0.029578734
-0.02577341 -0.018114224 0.04809547 0.0016806806 -0.05120755 -0.019416526 0.01920697 0.0082516
0.027318336 -0.05970397 0.03278989 0.036516003 -0.0020745008 0.03367535 -0.06340546 0.015442879
-0.011416546 0.04027689 -0.028100485 -0.020457972 0.013990926 0.015057895 0.06035657 -0.0036771935
0.0089539485 -0.024821546 0.056899495 -0.05431612 -0.05735979 -0.017410943 -0.05047135 -0.044694506
0.0068910457 -0.0025819796 -0.014161834 -0.006280895 -0.03699185 0.034375247 0.00910909 0.0374777
0.056207757 -0.054245517 -0.051342066 0.0050762934 0.022790926 0.015354961 -0.0128651755 -0.0103989085
-0.0075858366 0.029831447 0.012327746 -0.033650775 -0.026277486 0.041324206 0.01696418 0.017449021
00000000: 75a3 313d 9719 3f3d bd5c b3bc 8bfc 8e3c
00000010: ebf7 7b3b 3c54 833d 2085 77bd ad93 42bd
00000020: 0fc0 6fbc 38e3 b83c 1938 453d f091 68bd
00000030: 572b 4f3d 7dec 203d 8cd2 c53c 2ed7 043d
00000040: e4ac 553d 523a 77bc bc9d 263d ac69 08bd
00000050: 39ed 9bbc e306 1cbd de49 3cbd 5b5b 10bd
00000060: 15ff 5a3d a060 0ebb be66 9a3c dd1f 773c
00000070: 0fec 17bd 3bbf 633d cbc9 1bbb ac55 163d
00000080: 337c 37bd 1a70 773d e539 c8bc 80db aabc
00000090: 10f1 1abd 9fd7 56bd 8050 523d 99a9 113c
000000a0: 93d7 793c 9c25 943c 59d8 06bd ec62 8bbc
000000b0: 5dad c4bc 9385 ee3b 6c52 92bc 94c0 10bd
000000c0: e7c3 37bd c8f5 773b 480f 5cbc 8109 e9bc
000000d0: 7e0e 763c e7b8 74bc 8c0c 5fbd f66b f6bc
000000e0: dd31 28bd 10db 183d d319 0fbb 0c5a f8bc
000000f0: 79b9 6fbc 8efe 4cbd f4b1 d1bc ddf3 513d
00000100: 0385 f43a 3f42 6fbd ca8b d3bc 6338 213d
00000110: 4551 79bd 0a3d 703d 4126 cbbc befb 713c
00000120: 3cb2 d53c c4dc 78bd 00db f53c f6d1 183d
00000130: 9c9a 3c3d 459b 67bd 8073 ccbc 694d dbbc
00000140: 8674 27bd d1fd dc3c b66b 733d a90f cebc
00000150: 77b9 813d 68dc 63bd fa03 093d 3b08 303c
00000160: 675b 68bc f71f f5bc 7506 133d 68de 4abd
00000170: 201e 66bb 0d06 bd3c 7241 63bd 8d79 3abd
00000180: 4584 f83c 4494 833c 8dbb 57bd 50c5 3c3c
00000190: b663 ffbc d607 50ba a712 f0bc 7194 0cbd
000001a0: f5eb 913b 4716 683d e6be 1cbd 661e 353d
000001b0: 4818 15bd 4fad 3e3d c57e 32bd fc57 fabc
000001c0: 4992 753c e70b cfbc f09b 2fbd 4ddd 45bd
000001d0: 009d 033d 648f 393d 4699 1abd e1eb 24bd
000001e0: 76b9 2e3d 48d9 b8bc 20c5 303d 022d 703d
000001f0: 7687 33bd 60dd b1bc 5f55 e93c 4d46 ca3c
00000200: fd41 c6bb ade6 74bd cf8f 5b3c 3e49 98bc
00000210: 501d c7bc 3fe9 cbb8 009a 2abd 78f7 ddbc
00000220: 306a 043d 834e 07bb bc05 553c 9a18 4abd
00000230: 2ac1 10bd 4ebf 713c fa3a 4fbd 4430 153d
00000240: 6deb 503d 405e 853c b2c2 2a3d 10eb 4dbc
00000250: fc95 47bd 5e81 2a3c 9000 323d 020f 663d
00000260: 111c 263d ca32 78bc 603f fb3c ef06 9e3c
00000270: 4c01 2d3d b27e 08bd c813 08bc bf58 4d3d
00000280: d64e d6ba 3ee3 21bb 2bfc 36bd 3ae7 803a
00000290: 7e54 8abc 8165 72bd 5399 313d 9f92 823c
000002a0: e513 fcbc 1926 a73c e4fb 03bc 2399 49bd
000002b0: 7dd3 753d 2c63 ae3c c428 f83c bb66 4cbc
000002c0: 312b 4dbd 9d96 133c 932b 4c3b c29d 4dbd
000002d0: 33e3 ff3c 676f 463d 1361 b3bc 4647 2a3c
000002e0: 34a4 71bc d626 30bd 1b01 0cbd 6821 a1bc
000002f0: 723b 683d b82e 093d 5efc 62bd f9a3 c4bc
00000300: 7f39 dc3c 8a57 583d 7201 c8bb d984 2dbd
00000310: 308d c0bc bf10 c23b a7c8 d6bc 1a4f f23c
00000320: c222 d3bc 4864 94bc c1ff 443d 484a dc3a
00000330: 02bf 51bd 680f 9fbc f057 9d3c b831 073c
00000340: b4ca df3c 268c 74bd b14e 063d ce91 153d
00000350: 59f4 07bb 2aef 093d b9da 81bd 2104 7d3c
00000360: 770c 3bbc 61f9 243d fd32 e6bc 7a97 a7bc
00000370: 323a 653c 64b5 763c 7338 773d 12fd 70bb
00000380: 95b3 123c 8e56 cbbc 720f 693d 947a 5ebd
00000390: 19f2 6abd 65a1 8ebc 0cbb 4ebd 9611 37bd
000003a0: 48ce e13b 6e36 29bb 0907 68bc f7cf cdbb
000003b0: c484 17bd 0fcd 0c3d 4b3e 153c 3782 193d
000003c0: 1b3a 663d 8c30 5ebd 0f4c 52bd 0957 a63b
000003d0: 09b4 ba3c 6093 7b3c 75c8 52bc 2f60 2abc
000003e0: 9c92 f8bb 1461 f43c 50fa 493c 65d5 09bd
000003f0: e243 d7bc 9243 293d 77f8 8a3c 40f1 8e3c

fc2.bias f4 [256]
0.060246002 0.03742544 -0.008723353 0.024811624 0.023561923 0.041576717 0.0441934 -0.05362986
0.0229484 -0.05915402 -0.028348267 -0.025269717 0.025399862 -0.029518507 0.04878714 0.039459404
0.06089391 0.033348043 -0.011399232 -0.021802105 -0.05827705 -0.059532553 0.0049466565 -0.023810307
0.027786456 0.023023551 -0.040350687 -0.005898483 -0.056645177 -0.060805414 0.038638838 0.038305186
0.04903782 -0.0054179216 -0.02725558 0.0093943775 -0.061099786 -0.005377812 0.040233996 -0.03205905
0.0027156323 -0.041923102 0.04767002 0.018397957 -0.0023650096 0.05145041 -0.040970318 0.03890029
0.037264507 0.04754299 0.05010569 0.010369923 -0.01803833 -0.016686019 0.049825467 0.005196671
0.060261983 0.033229932 -0.0544146 -0.01333943 0.009893321 0.017101364 -0.025831286 0.055040225
0.009539023 -0.029623909 -0.040658407 -0.042567074 0.023763163 -0.0030333921 -0.03712719 -0.02539429
0.01969514 0.059864096 -0.028336154 0.056635797 0.017872056 0.024959348 0.033006765 0.028396824
0.005258113 -0.058935396 -0.03801896 -0.04634407 0.007529855 0.05974983 0.060616992 -0.061248153
0.06250499 -0.019816272 -0.039564118 -0.05922255 0.013436042 -0.035678558 0.051994108 0.060679782
-0.041343044 -0.041486643 0.040332794 -0.052195434 -0.053563636 -0.0057682674 0.016055001 -0.030516313
0.059974805 -0.04532223 -0.035478212 -0.021716857 0.0120362565 -0.030760841 -0.04111081 -0.0071825464
0.04323376 -0.042571496 0.022741552 0.05105871 -0.05137047 0.051272586 0.04761131 -0.006604435
0.04199666 0.050497457 0.04458195 0.06024322 0.057309765 -0.007300617 0.05990924 0.029154144
0.0072596376 0.0389786 -0.0497078 0.02799846 -0.05511822 -0.017909031 0.02127426 0.046271853
-0.02163882 0.005660681 0.051693603 -0.05500122 0.008291773 0.040906586 -0.022266105 0.0050676735
-0.03920575 0.02807266 -0.010040561 0.02737694 -0.058166023 0.0038100826 0.058018144 -0.048809886
0.05158847 0.046587735 -0.0027566166 0.014365316 -0.016590538 -0.05763924 0.025401568 -0.005468451
0.0388699 0.04732392 -0.04456379 -0.023730494 0.046011087 -0.00790896 0.003102476 -0.016294098
0.0054190904 0.061474446 -0.023372801 0.0029591843 -0.05129495 -0.059240825 -0.061794445 0.035386235
-0.05310203 -0.013631211 -0.05278337 0.023515629 0.061403338 0.0025754534 0.019050723 0.04464207
-0.011923478 -0.053427543 0.0002753687 0.014886334 -0.027105475 0.051750682 0.008672924 -0.0317737
-0.04557627 0.013319445 0.002907082 -0.016416691 0.030314447 -0.0514792 0.022500131 0.05513237
0.019438136 -0.033377092 0.03811936 0.01179155 0.046785116 0.016454186 -0.02086629 0.00835737
-0.051958684 -0.047308967 0.02291741 -0.0073603084 -0.00365825 -0.009420435 0.048258178 -0.014911331
0.04855777 -0.013181297 -0.060008045 0.011873499 -0.0045245453 -0.008252268 0.023555193 0.022814153
0.024533823 0.026815081 0.05103781 -0.045758493 0.05551986 0.06089106 0.029746098 0.017614378
0.0034843704 0.043848857 0.014785876 -0.00928593 -0.0006812481 0.039090913 -0.055401977 -0.04151022
-0.061732166 -0.027638977 0.058192503 0.027406104 0.04810965 0.057125024 -0.05108524 -0.050599582
0.012820017 -0.023805961 -0.058927502 -0.014784355 0.00090978685 0.008403467 0.042836882 -0.04342734
00000000: 83c4 763d 6b4b 193d 65ec 0ebc bf41 cb3c
00000010: ef04 c13c 594c 2a3d 2304 353d fcaa 5bbd
00000020: 48fe bb3c 7c4b 72bd a03a e8bc 7002 cfbc
00000030: 5f13 d03c ccd0 f1bc 06d5 473d 2fa0 213d
00000040: e46b 793d f597 083d d8c3 3abc 549a b2bc
00000050: eab3 6ebd 68d8 73bd 9017 a23b d50d c3bc
00000060: 6ca0 e33c e39b bc3c c346 25bd 1048 c1bb
00000070: c604 68bd 190f 79bd c243 1e3d e6e5 1c3d
00000080: e2db 483d d288 b1bb 1847 dfbc e0ea 193c
00000090: c543 7abd 5b38 b0bb 67cc 243d 5a50 03bd
000000a0: c0f8 313b 8fb7 2bbd a441 433d 50b7 963c
000000b0: 47fe 1abb aabd 523d 7ed0 27bd e955 1f3d
000000c0: aba2 183d 70bc 423d a03b 4d3d 9ce6 293c
000000d0: 1fc5 93bc 1eb1 88bc ca15 4c3d d648 aa3b
000000e0: 45d5 763d 1c1c 083d d8e1 5ebd a08d 5abc
000000f0: 9917 223c 2918 8c3c 229c d3bc dc71 613d
00000100: 9049 1c3c d7ad f2bc 6e89 26bd d05a 2ebd
00000110: f7aa c23c e0cb 46bb ae12 18bd b007 d0bc
00000120: b457 a13c 0e34 753d 3921 e8bc f0fa 673d
00000130: 6b68 923c 8c77 cc3c 1a32 073d 75a0 e83c
00000140: 404c ac3b 3e66 71bd c5b9 1bbd 48d3 3dbd
00000150: 00bd f63b 3dbc 743d 8649 783d 58df 7abd
00000160: 9e02 803d bc55 a2bc fc0d 22bd 5893 72bd
00000170: d822 5c3c ae23 12bd c6f7 543d 5d8b 783d
00000180: 5357 29bd e6ed 29bd 0034 253d e1ca 55bd
00000190: 8b65 5bbd bc03 bdbb c785 833c 59fd f9bc
000001a0: 24a8 753d cda3 39bd 9a51 11bd 8de7 b1bc
000001b0: b833 453c 29fe fbbc cf63 28bd 915b ebbb
000001c0: e215 313d 735f 2ebd 7e4c ba3c f022 513d
000001d0: d869 52bd 3403 523d 1404 433d 046a d8bb
000001e0: b104 2c3d 6cd6 4e3d 909b 363d 98c1 763d
000001f0: a5bd 6a3d 043a efbb 6463 753d acd4 ee3c
00000200: 41e2 ed3b 06a8 1f3d 689a 4bbd 075d e53c
00000210: a5c3 61bd f6b5 92bc 5b47 ae3c 8e87 3d3d
00000220: e543 b1bc 3c7d b93b acbc 533d f648 61bd
00000230: 37da 073c aa8d 273d 6867 b6bc ba0e a63b
00000240: 3596 20bd a3f8 e53c 2a81 24bc 9b45 e03c
00000250: 7f3f 6ebd 94b2 793b 6fa4 6d3d e0ec 47bd
00000260: 6e4e 533d c8d2 3e3d 5aa8 34bb 815c 6b3c
00000270: e1e8 87bc 2017 6cbd f316 d03c b130 b3bb
00000280: 0b36 1f3d bad6 413d 8588 36bd 7466 c2bc
00000290: 1f76 3c3d 9594 01bc e952 4b3b 337b 85bc
000002a0: a092 b13b a1cc 7b3d 5178 bfbc e0ee 413b
000002b0: a71a 52bd 82a6 72bd 2c1c 7dbd 28f1 103d
000002c0: 8481 59bd 7155 5fbc 6033 58bd d9a3 c03c
000002d0: 1182 7b3d f0c8 283b 4310 9c3c 9ada 363d
000002e0: b15a 43bc d7d6 5abd 5c5f 9039 cfe5 733c
000002f0: 4d0c debc 86f8 533d e118 0e3c 2425 02bd
00000300: 2fae 3abd cd39 5a3c be84 3e3b 4c7c 86bc
00000310: 0156 f83c dbdb 52bd 3252 b83c 7bd2 613d
00000320: ba3c 9f3c 6bb6 08bd 0c23 1c3d 5831 413c
00000330: c0a1 3f3d eeca 863c c8ef aabc 5aed 083c
00000340: a1d2 54bd 0cc7 41bd 4bbd bb3c be2e f1bb
00000350: 40bf 6fbb 2b58 1abc 5eaa 453d a84e 74bc
00000360: 83e4 463d 5ef6 57bc ffca 75bd 1089 423c
00000370: a342 94bb 8534 07bc d2f6 c03c bfe4 ba3c
00000380: 28fb c83c 4dab db3c 060d 513d 426d 3bbd
00000390: cb68 633d e768 793d 17ae f33c 074c 903c
000003a0: 095a 643b dc9a 333d 7540 723c 0324 18bc
000003b0: c995 32ba cb1d 203d 2fed 62bd 9f06 2abd
000003c0: deda 7cbd 236b e2bc 435b 6e3d c482 e03c
000003d0: a00e 453d eefb 693d c23e 51bd 8241 4fbd
000003e0: 0c0b 523c b804 c3bc f75d 71bd 143a 72bc
000003f0: c37e 6e3a b2ae 093c ba75 2f3d dee0 31bd

fc3.weight f4 [1, 256]
-0.014550293 -0.0015221526 0.0015113616 -0.020994823 0.0018991902 0.01483097 -0.0003304732 0.011786868
0.0022610074 -0.009573096 -0.0003402593 0.006236394 0.011009924 0.0067333854 -0.028814422 0.0016015166
-0.0011440408 0.0032562308 0.0015318836 -0.001816402 0.028730309 0.01783889 -0.0132598225 -0.028080756
0.051642258 0.025894636 0.00021005966 -0.0020219584 -0.0029280449 0.001222015 0.0007253344 -0.024940204
0.002348519 0.017780496 -0.0062268893 -0.002108839 0.0014706486 0.00048785764 -0.026189717 0.03600051
-0.0027703254 -0.0001454131 -0.00081596116 -0.008294375 0.0060557495 0.02961104 -0.0008311093 0.015132519
0.0017433233 0.0010696036 -0.025718821 0.0025532802 -0.011541205 -0.0144808255 -0.013589621 -0.00033644726
0.03782454 -0.02974368 0.0018063826 0.002390941 0.018667439 -0.024918225 0.014848222 0.009095207
0.0068478244 0.026528057 0.0135611165 -0.0020978625 2.571381e-05 -0.0016454912 0.014243103 0.0011876157
-0.0009871616 0.0020618867 0.03383387 -0.023852149 0.014477022 -0.0023447594 0.0490808 0.039236777
-0.0016699204 -0.0011062326 -0.022541184 0.006370927 -0.003607867 -0.014613675 -0.0012354011 0.032679178
-0.008733437 0.017798133 0.016851388 0.029477905 -0.0012480008 0.046488877 0.0020120617 -0.031334385
0.03419528 0.0025914216 -0.00096507714 0.01896952 0.0031563996 8.4425745e-05 0.012689401 0.028008642
0.0017379792 -0.0015365493 -0.017092936 -0.00010581509 -9.123849e-05 0.027344529 0.0055681383 0.0021777817
0.001224025 -0.00058001187 0.022820288 0.0007388231 -0.0026194304 0.024799561 0.0021286535 0.002732227
0.00046062042 0.0008555485 -0.008617779 0.036335405 0.0484648 -0.0018702544 0.001493105 0.024962591
-0.0014100183 -0.0030904978 0.0013710731 -0.031937335 -0.000480398 -0.015808411 0.017195687 0.029881207
0.0009863373 -0.0009191299 0.0004291159 0.01684456 0.019413125 0.00041799463 0.006940629 0.0105039645
0.0215297 0.00029468516 -0.0022888992 0.030858874 0.0021454056 -0.0001407529 0.0014060669 0.0075482177
0.01813717 0.0036083993 -0.023559919 0.014520694 0.00576424 0.0060203625 0.039496034 0.0012482284
0.017230436 -0.0029607636 0.008892014 0.02319698 0.0034184884 0.048270255 0.022053683 -0.0011252644
-0.00045520737 0.006780237 -0.037712637 -0.0025878565 -0.02200518 0.0009798836 0.0033439419 0.0029121856
0.00027312644 0.0087716 -0.026810706 0.0057015354 -0.021295775 -0.0021349557 -0.0035978525 -0.024345787
-0.0027190747 -0.0020148566 0.0009473721 0.008678475 -0.0009079068 0.0009798998 -0.029227605 0.015833138
-0.018287592 0.0025600237 0.02614968 -0.0014572574 0.0074000033 0.00059862604 -2.5381956e-05 -0.0009502828
0.008425856 0.023087727 -0.017075067 -0.004518665 -0.0012660194 0.017002968 0.03525745 -0.014636574
0.015653808 5.0716022e-05 0.043255277 0.0017551311 -0.00030711043 0.0031634606 -0.0121438475 0.014612433
0.008276814 0.0025437062 -0.001731725 0.002238374 0.026522694 0.0038862862 0.011650584 -0.00035400956
0.04438236 -0.00075425004 0.023772394 -0.00028446113 0.014650909 -4.3411306e-05 0.0033558314 -0.00057987246
0.0017817849 0.0015067541 -0.0020437434 0.0005328987 0.017332623 0.014960263 0.014810135 0.0016240727
0.0026492681 0.009268439 0.0033290924 -0.0016702061 0.001821464 -0.0016514279 0.0192514 0.03384649
0.008453591 -0.00016787196 0.00195632 -0.0016458906 -0.0008012187 0.00061458256 0.0024834182 -0.0040690186
00000000: 5a64 6ebc f782 c7ba e118 c63a 56fd abbc
00000010: 40ee f83a 99fd 723c 5d43 adb9 b51d 413c
00000020: 692d 143b 7ad8 1cbc d564 b2b9 aa5a cc3b
00000030: f862 343c bba3 dc3b 390c ecbc fbe9 d13a
00000040: a4f3 95ba 7d66 553b 7cc9 c83a 5614 eeba
00000050: d35b eb3c dd22 923c ba3f 59bc 9d09 e6bc
00000060: d586 533d fd20 d43c 7643 5c39 d582 04bb
00000070: 71e4 3fbb 052c a03a 5e24 3e3a 664f ccbc
00000080: 9ce9 193b 67a8 913c ef0a ccbb 7334 0abb
00000090: c7c2 c03a 25c7 ff39 d18b d6bc 4575 133d
000000a0: 598e 35bb 087a 18b9 3ae6 55ba 21e5 07bc
000000b0: 4f6f c63b da92 f23c cdde 59ba 63ee 773c
000000c0: 3980 e43a f131 8c3a 47b0 d2bc ef54 273b
000000d0: 5317 3dbc fc40 6dbc 00a7 5ebc 3065 b0b9
000000e0: e8ed 1a3d 05a9 f3bc 24c4 ec3a 55b1 1c3b
000000f0: 75ec 983c 4e21 ccbc f545 733c 1004 153c
00000100: b763 e03b 5e51 d93c 722f 5e3c 4b7c 09bb
00000110: fdb3 d737 86ad d7ba e75b 693c c5a9 9b3a
00000120: a663 81ba b820 073b 6295 0a3d 9565 c3bc
00000130: 0831 6d3c 89aa 19bb f308 493d beb6 203d
00000140: 3be1 daba 02ff 90ba 4aa8 b8bc 36c3 d03b
00000150: f771 6cbb 326e 6fbc 2fed a1ba 9ada 053d
00000160: b116 0fbc 64cd 913c ec0b 8a3c a67b f13c
00000170: f593 a3ba 1f6b 3e3d cbdc 033b 7c58 00bd
00000180: 5a10 0c3d d7d4 293b 3bfd 7cba f865 9b3c
00000190: 99db 4e3b ba0d b138 35e7 4f3c 6172 e53c
000001a0: e8cc e33a 0a66 c9ba 7c06 8cbc 0be9 ddb8
000001b0: 4b57 bfb8 a201 e03c ee74 b63b 1db9 0e3b
000001c0: 776f a03a f00b 18ba 9df1 ba3c 94ad 413a
000001d0: c0aa 2bbb 7328 cb3c e180 0b3b 2a0f 333b
000001e0: 6d7f f139 e346 603a 9631 0dbc 6fd4 143d
000001f0: 0783 463d 5323 f5ba 4ab4 c33a 597e cc3c
00000200: 5dd0 b8ba f389 4abb 94b5 b33a b9d0 02bd
00000210: eedd fbb9 a480 81bc f8dd 8c3c 6fc9 f43c
00000220: fd47 813a c3f1 70ba f6fa e039 9afd 893c
00000230: 4608 9f3c 4a26 db39 376e e33b d218 2c3c
00000240: 0e5f b03c f97f 9a39 5b01 16bb c0cb fc3c
00000250: ef99 0c3b 1297 13b9 c74b b83a 0a57 f73b
00000260: 6794 943c e57a 6c3b bb00 c1bc 34e8 6d3c
00000270: f3e1 bc3b 7646 c53b 98c6 213d 989b a33a
00000280: d826 8d3c 5f09 42bb cfaf 113c 9807 be3c
00000290: b808 603b 08b7 453d eda9 b43c 9c7d 93ba
000002a0: e6a8 eeb9 c02c de3b 9178 1abd 0799 29bb
000002b0: 3544 b4bc 706f 803a 0926 5b3b 5eda 3e3b
000002c0: 6932 8f39 c2b6 0f3c 20a2 dbbc f2d3 ba3b
000002d0: 7a74 aebc 9dea 0bbb f3c9 6bbb d170 c7bc
000002e0: 8132 32bb af0b 04bb 1159 783a 2a30 0e3c
000002f0: 9800 6eba fb6f 803a bb6e efbc 7fb4 813c
00000300: dccf 95bc 12c6 273b db37 d63c 7201 bfba
00000310: ba7b f23b 1ded 1c3a 56eb d4b7 661c 79ba
00000320: 9a0c 0a3c 7922 bd3c 03e1 8bbc 4f11 94bb
00000330: 90f0 a5ba cf49 8b3c 1e6a 103d 3ece 6fbc
00000340: 6a3c 803c eab7 5438 722c 313d 6d0c e63a
00000350: aa03 a1b9 1052 4f3b fdf6 46bc fc68 6f3c
00000360: 799b 073c 4fb4 263b 0cfb e2ba afb1 123b
00000370: 1f46 d93c 10b1 7e3b 17e2 3e3c 5c9a b9b9
00000380: 47ca 353d ddb8 45ba 53be c23c ba23 95b9
00000390: 5e0a 703c 8914 36b8 82ed 5b3b 9502 18ba
000003a0: c88a e93a 477e c53a 53f0 05bb 3ab2 0b3a
000003b0: 25fd 8d3c e41b 753c 35a6 723c d6de d43a
000003c0: 589f 2d3b a7da 173c e72c 5a3b d1ea daba
000003d0: 31be ee3a ba74 d8ba 1db5 9d3c 9ea2 0a3d
000003e0: ee80 0a3c c906 30b9 9a35 003b edba d7ba
000003f0: e008 52ba f01b 213a d8c0 223b 6755 85bb
