TD3/models/reward_s0.18_a8e-2_t(-2_0.1)_safe(4.5,-0.4).pth (torch, 275287 bytes, 5 tensors)

fc1.weight f4 [256, 8]
0.26747873 -0.2554746 0.29851845 -0.22070828 0.047481317 -0.060504656 0.2228851 0.29732952
-0.21505576 0.0784827 0.046784118 0.19274464 0.18703453 -0.0017743984 0.849193 0.033149008
0.1866131 -0.44552958 -0.2616008 0.24975792 -0.31224355 -0.014326776 0.0013939138 -0.092667475
0.07087392 0.22882389 -0.5090629 0.1458579 -0.15057033 -0.022144536 0.16078866 0.33523485
0.039689038 -0.30285466 0.24881081 -0.2509326 0.19242987 0.009791612 0.77780443 0.021515723
-0.2626187 0.4147368 -0.35328093 0.2647605 0.18301296 -0.2508541 0.23207583 0.31421655
0.3305647 0.18108694 0.19523904 0.32029536 0.17128754 -0.1909422 0.3695373 -0.33985257
0.31438226 0.017907336 0.21373709 -0.15516186 -0.033183306 0.28585353 -0.493488 0.1498977
0.05564137 0.22110271 -0.49261588 -0.18899854 0.1494109 0.18177858 -0.5415024 0.031473372
-0.101128615 0.22938925 -0.2872917 -0.058075324 0.0031865428 -0.01861999 -0.06825453 -0.07119504
-0.22833735 -0.10337268 0.29343805 -0.22850104 0.043643996 0.06365757 0.5304999 -0.10470697
-0.31568772 -0.2475632 0.33824253 0.3402346 -0.33256504 -0.057248406 -0.3186805 -0.091723986
-0.21374537 -0.23097958 0.29098436 0.22132662 0.002421532 -0.07148922 0.82060605 0.33261457
-0.11984048 -0.027191795 -0.080637604 -0.27653083 -0.3313524 0.0027343042 0.06464331 0.25853658
-0.09223326 -0.25950408 0.10009786 -0.024492761 0.050496817 0.08189232 0.6005018 -0.22383904
-0.2797002 0.009137361 0.19878459 0.14015529 0.28719842 0.2562397 -0.56771266 -0.3180277
0.053308655 -0.18747975 -0.12775685 0.16815023 0.30628565 -0.28631455 -0.05071178 0.007385649
0.2984774 0.24154128 -0.23719016 -0.2103362 -0.28748125 -0.012576037 -0.5153613 0.24580413
-0.18362199 -0.21237352 -0.1173148 -0.13178432 0.08331086 0.0864892 -0.827834 -0.11222534
0.26150513 -0.14078245 0.4699041 -0.12373088 0.30591664 0.16913398 0.423417 0.25547108
0.10138598 0.09431663 -0.16027685 -0.13577792 0.050406817 0.25337976 -0.89912975 0.28027338
-0.12826711 0.2108005 0.06423551 0.12227374 -0.19010559 -0.3104604 -0.49552634 -0.0017902268
0.3498892 0.39949867 -0.57819206 -0.33870888 0.070743464 0.29229993 0.15042707 0.17611127
0.16920337 0.4684603 0.6079315 0.34227905 0.031967957 -0.0064379894 0.79567736 -0.0012279002
0.18103758 -0.34176216 0.35748821 -0.028749214 -0.21785069 0.14747298 -0.85014987 -0.24771954
0.28449085 -0.3076565 0.21126585 -0.2265894 0.0869899 0.31253192 0.70503956 -0.24802922
0.1927509 0.2937172 0.030809447 0.08604166 0.157151 0.0757523 0.8402292 0.2698507
-0.016673857 0.20083544 0.11286939 -0.12840988 2.7834847e-05 0.20395008 -0.836338 0.004071257
-0.076937646 -0.24738306 -0.18794483 -0.04357351 0.015799202 0.27573392 -0.6926781 0.026203925
0.09084189 0.096686415 0.30656096 0.22433373 0.21225294 -0.25917467 0.20007029 0.15665768
-0.03578534 -0.07894115 0.145514 -0.14706896 0.19205728 -0.043823306 -0.545341 0.14644356
-0.09756059 -0.2915252 0.039239217 -0.19053307 -0.06381203 0.03615982 -0.7350363 0.32630807
00000000: f9f2 883e 91cd 82be 69d7 983e 5a01 62be
00000010: c57b 423d bbd3 77bd fe3b 643e 933b 983e
00000020: 9437 5cbe 8abb a03d b4a0 3f3d da5e 453e
00000030: fb85 3f3e ee92 e8ba b664 593f 41c7 073d
00000040: 8117 3f3e 741c e4be 8af0 85be 8ac0 7f3e
00000050: 63de 9fbe dbba 6abc fcb3 b63a 72c8 bdbd
00000060: 5926 913d cf50 6a3e f251 02bf c65b 153e
00000070: 1c2f 1abe 7568 b5bc c8a5 243e e7a3 ab3e
00000080: f990 223d c40f 9bbe 43c8 7e3e 3d7a 80be
00000090: 560c 453e ff6c 203c 311e 473f be41 b03c
000000a0: f575 86be 6258 d43e 3de1 b4be b08e 873e
000000b0: c067 3b3e f36f 80be 49a5 6d3e fee0 a03e
000000c0: c73f a93e db6e 393e beec 473e c1fd a33e
000000d0: 0066 2f3e 5a86 43be fe33 bd3e 2801 aebe
000000e0: b6f6 a03e 68b2 923c e5dd 5a3e c0e2 1ebe
000000f0: 38eb 07bd 655b 923e 76aa fcbe c87e 193e
00000100: 35e8 633d c068 623e 2638 fcbe d588 41be
00000110: 2cff 183e 2a24 3a3e e79f 0abf 39ea 003d
00000120: 851c cfbd 04e5 6a3e e617 93be 64e0 6dbd
00000130: 51d5 503b f388 98bc 08c9 8bbd b5ce 91bd
00000140: 44d1 69be 0eb5 d3bd 833d 963e 2dfc 69be
00000150: 0cc4 323d e65e 823d d7ce 073f 9c70 d6bd
00000160: d2a1 a1be 3581 7dbe 202e ad3e 3b33 ae3e
00000170: f745 aabe 4e7d 6abd 172a a3be c9d9 bbbd
00000180: 11e0 5abe e985 6cbe e7fb 943e 72a3 623e
00000190: 91b2 1e3b f168 92bd 3d13 523f 754c aa3e
000001a0: ed6e f5bd 54c1 debc 5425 a5bd 7395 8dbe
000001b0: 06a7 a9be 0332 333b b663 843d e85e 843e
000001c0: cbe4 bcbd b8dd 84be 1b00 cd3d 0ba5 c8bc
000001d0: c0d5 4e3d 29b7 a73d 7cba 193f 1036 65be
000001e0: dd34 8fbe dfb4 153c 308e 4b3e de84 0f3e
000001f0: ac0b 933e da31 833e 9e55 11bf 87d4 a2be
00000200: 2d5a 5a3d b1fa 3fbe b1d2 02be 932f 2c3e
00000210: 79d1 9c3e d297 92be 28b7 4fbd 5003 f23b
00000220: 08d2 983e 9956 773e fae1 72be 5f62 57be
00000230: be30 93be b90b 4ebc b8ee 03bf 14b4 7b3e
00000240: 6707 3cbe 7278 59be be42 f0bd 78f2 06be
00000250: e29e aa3d 4021 b13d eeec 53bf 66d6 e5bd
00000260: 00e4 853e 4629 10be 4597 f03e 9e66 fdbd
00000270: 1ba1 9c3e 7531 2d3e 1dca d83e 1bcd 823e
00000280: 74a3 cf3d 1429 c13d 9d1f 24be 5e09 0bbe
00000290: 6177 4e3d feba 813e 5e2d 66bf fe7f 8f3e
000002a0: 7458 03be 16dc 573e e88d 833d a86a fa3d
000002b0: 0aab 42be aaf4 9ebe a1b5 fdbe 0ba6 eaba
000002c0: ad24 b33e 178b cc3e 6504 14bf 406b adbe
000002d0: f3e1 903d 56a8 953e 8e09 1a3e 8356 343e
000002e0: a643 2d3e 07da ef3e 66a1 1b3f 333f af3e
000002f0: d5f0 023d c5f5 d2bb 83b1 4b3f 7ef1 a0ba
00000300: ea61 393e 73fb aebe b208 b73e 7983 ebbc
00000310: 4014 5fbe 2803 173e 6ca3 59bf 31aa 7dbe
00000320: c9a8 913e 2785 9dbe 1356 583e 0d07 68be
00000330: c327 b23d 2f04 a03e 797d 343f 5ffb 7dbe
00000340: 7e60 453e 1a62 963e 1864 fc3c 9c36 b03d
00000350: 31ec 203e 0624 9b3d 4319 573f df29 8a3e
00000360: 9d97 88bc cea7 4d3e 1128 e73d e17d 03be
00000370: e17e e937 4ad8 503e 3f1a 56bf 2e68 853b
00000380: 7c91 9dbd fc51 7dbe 9c74 40be 237a 32bd
00000390: 546d 813c ff2c 8d3e 5a53 31bf 9da9 d63c
000003a0: 500b ba3d 8703 c63d 8ff5 9c3e beb7 653e
000003b0: d658 593e 8bb2 84be 3adf 4c3e df6a 203e
000003c0: a693 12bd e6ab a1bd 9f01 153e 3f99 16be
000003d0: aaaa 443e 1180 33bd 789b 0bbf 4df5 153e
000003e0: d9cd c7bd ca42 95be 4db9 203d 1a1b 43be
000003f0: e2af 82bd 521c 143d 572b 3cbf da11 a73e

fc1.bias f4 [256]
0.118653685 -0.011618899 -0.2341099 0.042521138 0.29865918 0.012131902 0.26929876 0.30778345
-0.35372916 0.08971051 0.03686639 -0.17365503 0.2860687 0.129385 -0.108426444 -0.19494617
0.21163867 0.26326004 -0.26390138 0.22109288 -0.012619229 -0.057846356 -0.7283021 0.49779263
-0.031393413 -0.081694715 0.35838145 0.07605967 -0.2938631 0.2839535 -0.10202288 -0.033104222
-0.27584904 0.1331881 0.16192694 0.0754728 -0.28426495 -0.0877187 -0.23988424 0.071919724
0.100000046 0.21870683 0.4186181 -0.029994387 0.08315721 0.044259395 0.22013436 0.12694132
-0.21927242 0.25715658 0.21222539 -0.2773402 0.15377225 -0.33698687 -0.39483386 0.052805476
0.14101006 0.25021154 0.12858248 0.33184218 -0.110938 0.22129177 0.21304941 0.32628262
0.017660031 0.3033906 -0.2592793 -0.002044333 -0.31284237 -0.1233607 -0.2928043 0.30140108
0.121436834 0.47957125 0.4429996 -0.19348606 -0.25096723 0.17112345 0.2582825 0.1163652
-0.34503564 0.37307638 0.43539038 0.24246776 -0.38073748 0.25307432 0.005197687 0.2875147
0.20822464 -0.4646322 0.037617393 0.30938792 -0.30322957 -0.025170948 -0.28481373 0.38234702
0.39040545 0.20536387 -0.23389925 0.43061376 0.10233453 -0.2955041 0.15121695 0.1482092
-0.13769181 -0.15354541 0.237531 -0.39827064 0.5496073 -0.054425545 0.09128863 -0.2307562
-0.101802096 -0.25322118 0.17015213 -0.30170745 0.37260345 0.24735385 0.20313928 -0.047970627
-0.16616584 0.008792655 -0.29570472 -0.29117516 -0.16093211 0.1712497 0.4003199 0.31930098
0.22332996 0.0014729903 -0.30621937 0.016472977 -0.35413882 0.50204414 -0.0039308574 0.46420592
0.33118007 0.3632036 0.09711251 0.27305347 -0.08459816 0.041949566 -0.20571657 -0.0005198661
0.26129505 -0.12963101 -0.23050927 0.24624187 0.6172747 -0.18307392 -0.14125116 0.29148704
0.12064712 0.24916562 0.47871983 -0.26237118 -0.38143224 0.25606295 0.67008114 0.36648518
0.14815089 -0.3192105 0.25699875 0.17681013 -0.21379717 -0.24190746 -0.06945597 -0.010535977
0.15292391 0.03729472 0.033778634 -0.40453786 -0.2044119 0.15977183 0.34335038 0.2017859
-0.02809649 -0.20138371 0.31372494 0.1501506 0.17697802 -0.038586996 -0.09589899 -0.05600546
0.25766012 0.48438194 -0.010017561 -0.12208789 -0.12390648 -0.19703534 -0.26865447 -0.08532494
-0.012722869 0.11564888 -0.017431332 -0.09590493 0.50060546 0.060231566 0.25466272 0.15250377
0.5693074 0.21840993 0.08604684 -0.19069222 0.10029963 -0.37059793 -0.1598785 -0.37847555
0.19306432 -0.32959837 -0.22130288 0.097494274 -0.056922004 -0.5950757 -0.37499946 0.06529017
-0.14736466 -0.30710033 -0.25657642 0.3101621 0.2091915 -0.24008115 -0.33406806 0.060674343
0.5404856 -0.46189737 -0.1366284 0.1659762 -0.029507652 -0.3010988 -0.18977335 -0.15658793
0.08792856 0.16763565 0.25424337 -0.08597546 -0.23926325 0.17541085 -0.045885026 0.088907495
-0.050403193 -0.13485005 -0.3261922 0.15224825 -0.08699785 -0.21440215 -0.10040605 0.41798422
0.15427858 -0.039262235 0.28070042 -0.3447846 -0.12456997 -0.20804706 -0.19852142 -0.25497693
00000000: b400 f33d 325d 3ebc 81ba 6fbe a52a 2e3d
00000010: dbe9 983e e3c4 463c 87e1 893e cb95 9d3e
00000020: fd1b b5be 25ba b73d 3601 173d a0d2 31be
00000030: 9977 923e 807d 043e af0e debd f89f 47be
00000040: cfb7 583e 05ca 863e 151e 87be 2c66 623e
00000050: e2c0 4ebc 4df0 6cbd 0272 3abf adde fe3e
00000060: 6196 00bd 8f4f a7bd c67d b73e 2cc5 9b3d
00000070: 3975 96be 5a62 913e 5ff1 d0bd 4b98 07bd
00000080: 163c 8dbe 7662 083e 2dd0 253e 7c91 9a3d
00000090: 2d8b 91be dda5 b3bd 37a4 75be a64a 933d
000000a0: d3cc cc3d aff4 5f3e 1d55 d63e cab6 f5bc
000000b0: 544e aa3d 5749 353d e76a 613e e8fc 013e
000000c0: f388 60be 07aa 833e 9d51 593e 89ff 8dbe
000000d0: 7976 1d3e 8b89 acbe aa27 cabe 8e4a 583d
000000e0: f164 103e ba1b 803e 20ab 033e 38e7 a93e
000000f0: 7633 e3bd 4f9a 623e a029 5a3e 840e a73e
00000100: c5ab 903c 0356 9b3e 42c0 84be 37fa 05bb
00000110: e02c a0be 89a4 fcbd 72ea 95be 3e51 9a3e
00000120: e0b3 f83d 5d8a f53e d8d0 e23e 3621 46be
00000130: c77e 80be fc3a 2f3e 9b3d 843e e150 ee3d
00000140: 83a8 b0be de03 bf3e 7deb de3e 7849 783e
00000150: 06f0 c2be f592 813e 5c51 aa3b 2035 933e
00000160: d738 553e 46e4 edbe b214 1a3d 1868 9e3e
00000170: e840 9bbe 4e33 cebc 1bd3 91be fdc2 c33e
00000180: 39e3 c73e e84a 523e 4983 6fbe 6879 dc3e
00000190: c494 d13d 504c 97be 9ed8 1a3e 27c4 173e
000001a0: 15ff 0cbe 023b 1dbe 543b 733e 21ea cbbe
000001b0: 10b3 0c3f 52ed 5ebd 89f5 ba3d 5a4b 6cbe
000001c0: 9e7d d0bd 35a6 81be 5c3c 2e3e 6679 9abe
000001d0: e1c5 be3e 544a 7d3e be03 503e d97c 44bd
000001e0: 6127 2abe 110f 103c 9c66 97be e914 95be
000001f0: 63cb 24be 155c 2f3e bbf6 cc3e 6b7b a33e
00000200: 9cb0 643e 5a11 c13a c9c8 9cbe 56f2 863c
00000210: af51 b5be f785 003f 6cce 80bb 66ac ed3e
00000220: 6f90 a93e d2f5 b93e ece2 c63d aacd 8b3e
00000230: cd41 adbd 4fd3 2b3d 5da7 52be a047 08ba
00000240: 77c8 853e febd 04be 9f0a 6cbe d426 7c3e
00000250: b705 1e3f bb77 3bbe 25a4 10be ca3d 953e
00000260: d615 f73d 4625 7f3e c41a f53e 8455 86be
00000270: 164b c3be af1a 833e 708a 2b3f f2a3 bb3e
00000280: deb4 173e 8f6f a3be 5795 833e b70d 353e
00000290: a5ed 5abe 97b6 77be ee3e 8ebd 179f 2cbc
000002a0: 1698 1c3e 59c2 183d 775b 0a3d 961f cfbe
000002b0: 5a51 51be 3a9b 233e 9fcb af3e f7a0 4e3e
000002c0: 9c2a e6bc 8837 4ebe 8ea0 a03e 14c1 193e
000002d0: ba39 353e 660d 1ebd b166 c4bd fb65 65bd
000002e0: 07ec 833e e900 f83e b220 24bc 3709 fabd
000002f0: aec2 fdbd a2c3 49be 148d 89be d8be aebd
00000300: 9573 50bc 52d9 ec3d 27cc 8ebc ce69 c4bd
00000310: ae27 003f 60b5 763d 2763 823e f329 1c3e
00000320: 21be 113f daa6 5f3e 5339 b03d d244 43be
00000330: e469 cd3d 03bf bdbe 31b7 23be 8cc7 c1be
00000340: a7b2 453e 1ec1 a8be 399d 62be 14ab c73d
00000350: 0c27 69bd e256 18bf eeff bfbe dab6 853d
00000360: c3e6 16be 413c 9dbe fc5d 83be 91cd 9e3e
00000370: 4c36 563e d5d7 75be f80a abbe a985 783d
00000380: 445d 0a3f d07d ecbe 51e8 0bbe aaf5 293e
00000390: 08ba f1bc 9f29 9abe f253 42be 9658 20be
000003a0: e413 b43d aea8 2b3e 302c 823e e713 b0bd
000003b0: 6d01 75be e79e 333e f0f1 3bbd 2215 b63d
000003c0: 9473 4ebd 2216 0abe aa02 a7be f7e6 1b3e
000003d0: ee2b b2bd 3d8c 5bbe b0a1 cdbd 0702 d63e
000003e0: 34fb 1d3e 70d1 20bd f7b7 8f3e 9b87 b0be
000003f0: 8a1e ffbd 4a0a 55be 3349 4bbe 568c 82be

fc2.weight f4 [256, 256]
-0.058038604 0.03600475 -0.044541106 -0.06503159 0.019889027 -0.068907544 0.03270438 -0.020911403
0.03157888 -0.03263565 -0.011196854 -0.05755611 0.016239887 -0.05932102 0.039116718 -0.052045114
0.0009237868 -0.019613933 0.049417336 0.040438488 0.021725815 0.013189793 0.048283927 -0.04519952
-0.053532343 -0.032349 -0.06403704 -0.03059263 -0.02847325 -0.012610142 -0.0067618215 0.029362455
-0.012830227 -0.03354523 -0.022415346 0.005404642 0.038888562 -0.030948272 -0.05678091 0.002180055
-0.018587181 0.056300204 0.023622973 0.037782278 0.010827043 0.0043943645 0.019850805 -0.014221539
0.015760578 0.009136752 -0.061928578 -0.036584057 -0.033985853 0.058200028 0.023023298 0.009808142
-0.04207014 -0.06284167 -0.06750507 -0.0068177683 -0.025863275 -0.046282023 -0.045101736 0.035978284
-0.038083777 0.008677465 -0.0658534 -0.00055081217 -0.05785009 -0.049944304 0.022438927 -0.013126885
0.0011260834 -0.051672205 0.03460268 0.05625814 0.0010549177 -0.057687473 -0.043383807 0.017934922
0.0024757774 -0.046867553 0.003497205 -0.0638982 -0.07273832 -0.038581822 -0.009335886 -0.022644619
-0.031576723 0.04620264 -0.05268641 0.029827006 -0.035490274 0.04111902 0.009506678 0.034618434
-0.050031893 -0.0056025987 -0.02700322 -0.047203217 -0.06421085 0.010532089 0.012316549 -0.023286711
0.047349073 0.04003872 -0.046583015 -0.028254632 -0.009391862 0.032501772 0.043423675 0.018957522
0.023312217 0.0469039 0.027101899 -0.057576142 -0.029987715 -0.009460413 0.0138749555 0.010954761
-0.024398405 -0.06322786 0.012199186 -0.034177557 -0.017981037 -0.018187582 -0.0055926936 0.026396988
0.012775587 0.06083856 0.03244427 0.06038908 -0.024613915 0.023589145 0.052845087 -0.0014094211
0.06122841 0.031170612 -0.047160085 -2.1850548e-05 0.008030236 -0.018257637 -0.031580362 0.056016896
-0.0040011853 -0.025351921 0.011130916 -0.014750554 0.05301655 0.047821354 -0.06826838 -0.007386242
-0.045892213 0.055307504 0.03391773 0.028240291 -0.05081863 0.05474419 -0.038478173 -0.019887695
0.032126863 -0.0009276569 0.053955417 -0.03033825 0.01108268 -0.051139675 -0.032370098 0.056129523
-0.050667472 0.033899833 -0.013098832 0.022454727 -0.059037652 0.03768572 -0.04392977 0.027893094
-0.017453363 -0.019777052 -0.051441338 0.040990245 -0.015221659 0.027140312 -0.071271025 -0.06617872
0.022552855 -0.057757277 0.021902516 -0.022347182 0.055010337 -0.046760146 0.048388984 -0.06296256
-0.042056292 -0.047215044 -0.05747185 -0.07088205 0.04828822 -0.025546513 -0.045320045 0.01970234
-0.018802922 0.013458255 -0.041810405 -0.0016249925 -0.030838156 -0.015759634 -0.04780662 0.0067769825
0.017983055 0.038163368 0.03801168 0.0405052 0.00874727 0.01693185 -0.031741124 0.009464101
-0.026180169 0.030744895 -0.01988884 0.029469727 -0.033450898 0.026112165 0.008741024 -0.01214922
0.029245768 0.025550522 0.026953466 0.0574858 0.019458223 -0.03947886 -0.028877707 0.016589973
-0.025599204 0.00014193206 0.021381529 -0.0015692789 0.02833324 0.045470387 -0.048075832 -0.052831225
-0.018839236 0.000116932664 0.03257215 -0.06376482 0.025180208 -0.05325468 0.030568285 -0.008669021
0.028006794 0.00272904 0.007656794 -0.018531514 -0.053759567 0.007583227 -0.028644467 0.02608237
00000000: e3b9 6dbd b779 133d bc70 36bd 482f 85bd
00000010: 50ee a23c 661f 8dbd 07f5 053d 644e abbc
00000020: db58 013d f6ac 05bd 0273 37bc f5bf 6bbd
00000030: 8309 853c 99fa 72bd da38 203d 422d 55bd
00000040: 482a 723a 66ad a0bc d569 4a3d d4a2 253d
00000050: 56fa b13c 001a 583c 5ec5 453d 2223 39bd
00000060: bb44 5bbd 6380 04bd da25 83bd 659d fabc
00000070: bc40 e9bc c59a 4ebc 4592 ddbb 8889 f03c
00000080: df35 52bc b966 09bd 63a0 b7bc 6c19 b13b
00000090: 9d49 1f3d 3b87 fdbc 1993 68bd 41df 0e3b
000000a0: 2544 98bc 0b9b 663d f784 c13c 97c1 1a3d
000000b0: e963 313c 9afe 8f3b 289e a23c 7501 69bc
000000c0: 541c 813c 51b2 153c d2a8 7dbd 2ad9 15bd
000000d0: c034 0bbd 2763 6e3d 5b9b bc3c 54b2 203c
000000e0: bd51 2cbd 22b3 80bd 1940 8abd 9667 dfbb
000000f0: 38df d3bc 3892 3dbd 99bc 38bd f75d 133d
00000100: bcfd 1bbd ed2b 0e3c 26de 86bd 6164 10ba
00000110: 37f4 6cbd 6692 4cbd d7d1 b73c 2512 57bc
00000120: 1799 933a 3ca6 53bd 8abb 0d3d ef6e 663d
00000130: 2a45 8a3a b349 6cbd 38b3 31bd 42ec 923c
00000140: a740 223b 31f8 3fbd 5d31 653b 0fdd 82bd
00000150: d4f7 94bd f907 1ebd 8bf5 18bc 3581 b9bc
00000160: 9856 01bd fb3e 3d3d b4cd 57bd c457 f43c
00000170: 405e 11bd 6b6c 283d e6c1 1b3c 0fcc 0d3d
00000180: 3eee 4cbd 0196 b7bb db35 ddbc 2958 41bd
00000190: fa80 83bd c88e 2c3c 5acb 493c c6c3 bebc
000001a0: 1af1 413d a4ff 233d d5cd 3ebd 4276 e7bc
000001b0: 53e0 19bc 9420 053d 06dd 313d ce4c 9b3c
000001c0: 43f9 be3c 4e1e 403d cd04 de3c f6d4 6bbd
000001d0: cca8 f5bc d9ff 1abc c853 633c 997b 333c
000001e0: 2adf c7bc 9c7d 81bd 18df 473c c4fd 0bbd
000001f0: f84c 93bc 20fe 94bc ea42 b7bb 7f3e d83c
00000200: b250 513c db31 793d 48e4 043d 8a5a 773d
00000210: 1fa3 c9bc 063e c13c 1774 583d 53bc b8ba
00000220: a4ca 7a3d 8359 ff3c ef2a 41bd b24b b7b7
00000230: 4091 033c 0a91 95bc 695a 01bd f971 653d
00000240: 601c 83bb d5ae cfbc 725e 363c 4fac 71bc
00000250: e227 593d 53e0 433d 4bd0 8bbd 4a08 f2bb
00000260: 79f9 3bbd 1f8a 623d 51ed 0a3d 2f58 e73c
00000270: 3227 50bd 723b 603d 4a9b 1dbd 85eb a2bc
00000280: 7597 033d 002e 73ba 5b00 5d3d ec87 f8bc
00000290: 2194 353c d677 51bd 8296 04bd 12e8 653d
000002a0: b288 4fbd 8dda 0a3d 7c9c 56bc faf2 b73c
000002b0: 77d1 71bd 575c 1a3d b4ef 33bd 0f80 e43c
000002c0: 5bfa 8ebc 7c03 a2bc 27b4 52bd 63e5 273d
000002d0: 4464 79bc 5c55 de3c 8bf6 91bd b588 87bd
000002e0: c4c0 b83c e592 6cbd e86c b33c 7011 b7bc
000002f0: 8552 613d 9187 3fbd 8733 463d 84f2 80bd
00000300: 3843 2cbd 9064 41bd 9a67 6bbd 9c2a 91bd
00000310: dec9 453d ec46 d1bc 83a1 39bd cd66 a13c
00000320: 9608 9abc 0380 5c3c 6341 2bbd b3fd d4ba
00000330: 4da0 fcbc 591a 81bc e0d0 43bd 7311 de3b
00000340: 3351 933c 3151 1c3d 23b2 1b3d c8e8 253d
00000350: b650 0f3c aab4 8a3c fb02 02bd 510f 1b3c
00000360: cb77 d6bc b8dc fb3c eced a2bc 7f6a f13c
00000370: cf03 09bd 2ee9 d53c 8336 0f3c 860d 47bc
00000380: d294 ef3c 544f d13c 84cd dc3c 3b76 6b3d
00000390: da66 9f3c 96b4 21bd f190 ecbc b2e7 873c
000003a0: 6cb5 d1bc 99d3 1439 5128 af3c 43b0 cdba
000003b0: 1c1b e83c 283f 3a3d 2aeb 44bd 8e65 58bd
000003c0: be54 9abc bf39 f538 606a 053d 2197 82bd
000003d0: b946 ce3c 9421 5abd 576a fa3c 8208 0ebc
000003e0: 816e e53c b2d9 323b d8e5 fa3b 67cf 97bc
000003f0: fe32 5cbd b87c f83b cda7 eabc b2aa d53c

fc2.bias f4 [256]
0.0071479552 -0.06129898 -0.002318396 0.36733398 0.037040383 0.036230724 -0.015728228 0.12703164
-0.10552399 0.11009962 -0.075162746 -0.014501499 -0.0117998645 -0.04872381 0.049149867 -0.05550316
-0.020015499 0.07016773 0.06755443 0.11154168 -0.05125953 -0.009220097 0.05050945 -0.040281102
-0.10252363 0.06091926 0.013761668 -0.06285407 -0.026944498 -0.01311966 0.09561828 -0.056780484
-0.0027420935 0.009748454 0.016750867 -0.06607452 0.44274458 0.118468456 0.020214053 0.007974682
0.022126015 -0.054234557 -0.094725676 -0.097123995 -0.0066072056 0.29883286 0.08916625 -0.032089934
0.056425318 0.059408538 -0.00019354373 -0.053259753 0.07844927 0.07636698 -0.1147494 -0.018652469
-0.034349076 -0.037517663 0.030281961 0.10689668 -0.04033771 -0.06298164 0.008982708 0.06524631
-0.032930695 0.032318387 0.088337585 -0.0075305 -0.094943576 0.09875488 0.041834496 0.101887606
-0.060857236 0.015593541 -0.048639346 0.109512195 -0.04050631 0.2605631 0.026749419 -0.059633527
-0.08818832 0.13407245 -0.0055653164 -0.061797738 -0.09023293 -0.06283519 -0.0526674 0.18190934
-0.039086834 -0.065652445 0.0058876197 0.07838923 -0.12528326 -0.07583443 0.022713317 0.14707677
0.012347751 0.18767746 0.036261164 0.25718418 0.0416596 0.014408737 -0.08119799 0.016308004
0.037114292 -0.09888324 0.04378625 -0.05061467 -0.045255005 0.017211637 -0.05586713 0.45768872
-0.026286777 -0.004800088 -0.06092319 -0.06927215 -0.042770557 0.012653631 0.027390031 0.050410945
-0.024127204 -0.023782754 -0.01021029 0.016387612 0.10436441 0.018498212 -0.007080517 -0.058720443
-0.0399062 0.009438187 -0.020251753 0.00072768296 0.014418078 0.09588201 0.025977131 -0.047709942
-0.030105935 -0.06628045 0.14239022 0.06898059 0.08409454 -0.077642545 -0.021609379 0.021675112
0.07035743 -0.024311885 -0.0066233706 0.21150419 0.011725979 -0.014604559 0.06476826 0.11467882
0.047051556 -0.040027022 0.37378773 0.053191163 -0.04819262 -0.015236151 0.035125095 0.0139216045
-0.01934417 -0.11984802 -0.04091367 -0.020330109 0.09417677 -0.064000085 -0.012165676 0.043662768
0.054297376 -0.017075911 -0.07430594 0.07401946 -0.018055411 0.02071228 0.06178764 -0.050044455
0.025290493 0.23732905 0.026785491 -0.011990955 -0.04189692 0.013527919 -0.07084682 -0.036256477
-0.05876203 -0.10294857 0.23728833 -0.02649169 0.10003356 -0.027541066 -0.03555787 -0.057838958
0.16466276 0.10138164 0.053671855 -0.015092619 -0.03655688 0.020038158 -0.00954836 -0.024959395
-0.0020746922 0.01022857 -0.03933443 -0.022650905 -0.10382377 0.055883836 0.17135617 -0.012263143
0.04073236 -0.104400024 -0.012652013 0.014603482 0.03168676 0.07726526 0.0039783325 -0.08023034
0.018688142 0.051550962 0.044260096 -0.027266055 -0.09096749 0.016609592 -0.057974394 0.027568366
0.017062252 -0.0046538073 -0.056984354 -0.04248072 -0.015455142 -0.09620015 0.033307925 0.02468214
0.08641954 -0.028758124 -0.057581 0.029461693 -0.017247621 0.028006306 0.012441455 -0.05345503
0.14367592 0.16692358 0.01139681 -0.09305292 -0.02123762 -0.026661193 0.064118 -0.042432815
0.02561747 -0.062047523 -0.05596386 0.1438485 -0.015231308 -0.018650599 -0.0659553 0.029890455
00000000: 6539 ea3b a414 7bbd 3bf0 17bb 3313 bc3e
00000010: a8b7 173d ab66 143d 7cd8 80bc 9514 023e
00000020: f61c d8bd e97b e13d edee 99bd b297 6dbc
00000030: 3854 41bc 9e92 47bd 5f51 493d 4857 63bd
00000040: 8bf7 a3bc 19b4 8f3d fa59 8a3d f76f e43d
00000050: 83f5 51bd e40f 17bc ffe2 4e3d ccfd 24bd
00000060: e9f7 d1bd 7986 793d 9e78 613c a2b9 80bd
00000070: b5ba dcbc d8f3 56bc 84d3 c33d a792 68bd
00000080: b2b4 33bb fbb7 1f3c 1d39 893c 1452 87bd
00000090: 6baf e23e 979f f23d f197 a53c 3ea8 023c
000000a0: 9e41 b53c 0e25 5ebd 89ff c1bd f2e8 c6bd
000000b0: 4281 d8bb 9f00 993e cb9c b63d bc70 03bd
000000c0: 3c1e 673d 5e56 733d 00f2 4ab9 e626 5abd
000000d0: 03aa a03d 4b66 9c3d bc01 ebbd 10cd 98bc
000000e0: 9eb1 0cbd 1fac 19bd e011 f83c a6ec da3d
000000f0: 2839 25bd 85fc 80bd 352c 133c db9f 853d
00000100: 56e2 06bd 4960 043d 56ea b43d 6ac2 f6bb
00000110: c771 c2bd 0040 ca3d a65a 2b3d 73aa d03d
00000120: 7045 79bd 0d7c 7f3c 0d3a 47bd ee47 e03d
00000130: f2e9 25bd 8768 853e 9921 db3c 4942 74bd
00000140: 149c b4bd 4a4a 093e 425d b6bb a01f 7dbd
00000150: 0bcc b8bd bcaf 80bd c6b9 57bd 7146 3a3e
00000160: 8419 20bd ca74 86bd efec c03b 888a a03d
00000170: 414a 00be 154f 9bbd 4711 ba3c 4b9b 163e
00000180: 394e 4a3c 852e 403e 9686 143d a5ad 833e
00000190: 42a3 2a3d a012 6c3c 224b a6bd 5d98 853c
000001a0: 2805 183d 4c83 cabd 3659 333d 5451 4fbd
000001b0: 505d 39bd 6bff 8c3c efd4 64bd 2d56 ea3e
000001c0: 5e57 d7bc 0e4a 9dbb 988a 79bd 8fde 8dbd
000001d0: 2e30 2fbd 2d51 4f3c 0f61 e03c b57b 4e3d
000001e0: 6aa6 c5bc 0dd4 c2bc 0f49 27bc 503f 863c
000001f0: 02bd d53d 9089 973c ae03 e8bb d984 70bd
00000200: af74 23bd a0a2 1a3c 01e7 a5bc fac1 3e3a
00000210: cd39 6c3c ca5d c43d fecd d43c 806b 43bd
00000220: b9a0 f6bc 0bbe 87bd bece 113e b245 8d3d
00000230: c239 ac3d 0e03 9fbd 2706 b1bc 0190 b13c
00000240: 8e17 903d b829 c7bc dc08 d9bb 8e94 583e
00000250: 521e 403c f647 6fbc 39a5 843d bbdc ea3d
00000260: 22b9 403d 60f3 23bd 1b61 bf3e fade 593d
00000270: a065 45bd 0da1 79bc 55df 0f3d 7117 643c
00000280: aa77 9ebc e172 f5bd 1895 27bd 548b a6bc
00000290: c0df c03d 7a12 83bd 8b52 47bc bbd7 323d
000002a0: ed66 5e3d c8e2 8bbc b62d 98bd 8497 973d
000002b0: f1e8 93bc cdac a93c 0915 7d3d 6afb 4cbd
000002c0: 022e cf3c 6306 733e 3f6d db3c b675 44bc
000002d0: 1b9c 2bbd 34a4 5d3c 2318 91bd ac81 14bd
000002e0: 74b0 70bd b3d6 d2bd b6fb 723e 1a05 d9bc
000002f0: 65de cc3d cd9d e1bc 21a5 11bd 8be8 6cbd
00000300: 5b9d 283e 2da1 cf3d 05d7 5b3d 0847 77bc
00000310: abbc 15bd 1027 a43c b970 1cbc a577 ccbc
00000320: 8ff7 07bb bb95 273c 241d 21bd 648e b9bc
00000330: 8fa1 d4bd 73e6 643d fe77 2f3e 5aeb 48bc
00000340: fad6 263d aecf d5bd 644a 4fbc 7143 6f3c
00000350: fac9 013d 403d 9e3d ac5c 823b ce4f a4bd
00000360: e017 993c 1a27 533d 134a 353d 105d dfbc
00000370: 2a4d babd d710 883c 8f76 6dbd 0ed7 e13c
00000380: 23c6 8b3c f77e 98bb 6d68 69bd 4300 2ebd
00000390: 9037 7dbc 9604 c5bd e46d 083d 3332 ca3c
000003a0: bafc b03d 2896 ebbc 0eda 6bbd a659 f13c
000003b0: e24a 8dbc 7b6d e53c 3fd7 4b3c a9f3 5abd
000003c0: c81f 133e 04ee 2a3e b0b9 3a3c 8892 bebd
000003d0: 84fa adbc 9368 dabc 4c50 833d 08ce 2dbd
000003e0: badb d13c 8b25 7ebd 5c3a 65bd 054d 133e
000003f0: bc8c 79bc 24c9 98bc 9313 87bd d4dc f43c

fc3.weight f4 [1, 256]
0.0016781023 -0.03751456 0.026823454 0.33953404 0.051883027 0.0022812127 -0.04776057 0.05721632
-0.030606689 0.04727521 0.030483522 -0.0056995037 -0.044778213 -0.15294066 -0.05294719 0.0050295754
-0.047477793 0.04322016 0.020337077 0.042601988 -0.061167445 -0.015250657 0.06075206 0.027139975
-0.04003519 0.04222813 -0.009196767 -0.022494407 -0.039510515 -0.042881407 -0.044006314 -0.04094756
0.054864112 -0.022122752 0.063612536 -0.0178331 0.3561982 0.055028446 -0.015575966 0.040882796
0.029764911 -0.023689453 -0.042060755 -0.039498646 -0.05003243 0.24566618 0.045785766 0.047522623
0.018051613 0.0637026 0.026495345 -0.031626407 0.037917256 -0.03705244 -0.033330202 -0.061936162
0.033936836 -0.051270835 -0.062042147 -0.08079222 0.030627022 -0.043760665 -0.014631363 0.09268396
-0.028248146 0.04430896 0.195979 0.022549598 -0.042267982 0.040224794 -0.02193442 0.045699086
-0.040968448 0.053891435 -0.006198361 -0.23616368 0.0060925484 0.05708849 -0.052474 -0.022056593
0.023700347 -0.06042852 0.06078399 -0.096705005 -0.042947914 -0.05206489 0.041450128 0.26078182
0.016922772 -0.045768674 0.04925766 0.06963194 -0.022365365 -0.0058020544 0.032674156 0.08552657
-0.00502916 0.09578124 -0.0017406078 0.21817093 -0.036927607 0.067038074 -0.04368752 0.053558655
-0.02939914 -0.03082331 0.052825045 -0.005660452 -0.02633919 0.054353636 -0.016712073 0.3433088
-0.07181131 -0.032530066 -0.03773801 -0.09018201 0.0078042075 0.052324034 0.058606915 0.054229893
-0.0110726915 0.03125526 -0.057073787 0.044382207 0.06543981 0.046032835 -0.08432134 0.036188915
-0.04257867 0.046329714 -0.062496766 -0.048463225 0.0038576024 0.047754794 0.035055622 -0.035388645
-0.0004597163 0.02281726 -0.0927463 0.064038716 -0.045365058 -0.03623983 -0.04043359 0.11364736
0.043333527 -0.0100801 0.019933758 0.11637175 0.02185877 0.0039513176 0.003967731 -0.039759386
-0.032405175 -0.03806485 0.3619288 0.061379787 0.058031872 -0.027892523 0.14935362 0.026788203
0.009480674 -0.025371552 0.050960943 0.1129765 0.06357631 -0.00018877423 -0.045514707 0.027227264
0.06844842 -0.009966991 -0.040751908 0.019113978 -0.016235383 0.0058692438 0.060519274 0.023450479
-0.017890079 -0.15742487 0.04023501 -0.010718305 -0.01814922 0.023044752 -0.034296498 0.040338438
-0.01984074 -0.04856775 0.2464922 0.033823874 0.055728707 -0.043833524 -0.026979413 -0.03221803
-0.039097358 0.109098114 0.08532961 0.010906867 -0.006729244 -0.048708647 -0.02175721 -0.0157822
-0.029486435 0.05056839 0.06398429 0.033544727 -0.0029536583 0.061307248 -0.012111287 0.07599702
0.015416475 -0.045138657 -0.001809507 0.015097445 0.022279684 0.015204511 -0.023907794 -0.030928208
0.049492165 0.050396338 -0.082722105 -0.014324389 -0.043172486 0.06809985 -0.06030083 -0.04222421
-0.0024001119 0.043917593 -0.053609442 -0.018325627 -0.037161652 0.025175774 -0.030128293 0.049453646
0.015564663 0.0010614924 -0.06440256 -0.013055596 -0.029979257 -0.047525078 0.036469404 0.021253359
0.040968627 0.03911458 -0.00485906 -0.04094293 0.060672063 0.005059168 0.04227564 -0.042375643
0.06327305 -0.028002929 -0.0228777 -0.037564922 0.023234913 -0.05089537 0.0036198483 0.04372332
00000000: c5f3 db3a dea8 19bd dcbc db3c 68d7 ad3e
00000010: 4c83 543d 6680 153b 96a0 43bd a95b 6a3d
00000020: e1ba fabc a7a3 413d 94b8 f93c e7c2 babb
00000030: 5c69 37bd 7a9c 1cbe 27df 58bd 23cf a43b
00000040: 1378 42bd 9f07 313d f199 a63c 6c7f 2e3d
00000050: b78a 7abd e4dd 79bc 27d7 783d a754 de3c
00000060: f0fb 23bd 67f7 2c3d 09ae 16bc 3146 b8bc
00000070: c7d5 21bd 6aa4 2fbd f73f 34bd a1b8 27bd
00000080: 31b9 603d c63a b5bc 4a47 823d b916 92bc
00000090: 9c5f b63e 8265 613d 5632 7fbc b874 273d
000000a0: 8bd5 f33c 6210 c2bc e647 2cbd 55c9 21bd
000000b0: ceee 4cbd ea8f 7b3e db89 3b3d 15a7 423d
000000c0: fae0 933c 8276 823d c40c d93c b18a 01bd
000000d0: 204f 1b3d 4dc4 17bd 4085 08bd c6b0 7dbd
000000e0: 5a01 0b3d 5e01 52bd e81f 7ebd 6476 a5bd
000000f0: 85e5 fa3c 623e 33bd 62b8 6fbc 17d1 bd3d
00000100: a868 e7bc 507d 353d b8ae 483e efb9 b83c
00000110: 3121 2dbd c1c2 243d d0af b3bc f72e 3b3d
00000120: 88ce 27bd 44bd 5c3d 9f1b cbbb e4d4 71be
00000130: 00a4 c73b 9fd5 693d faee 56bd 07b0 b4bc
00000140: 3b27 c23c e583 77bd a2f8 783d 460d c6bd
00000150: 27ea 2fbd fe41 55bd 9cc7 293d 3285 853e
00000160: a0a1 8a3c ef77 3bbd 66c2 493d 319b 8e3d
00000170: 9237 b7bc 291f bebb 56d5 053d 8e28 af3d
00000180: a7cb a4bb f428 c43d 1b25 e4ba 3368 5f3e
00000190: 6741 17bd 424b 893d aff1 32bd 5260 5b3d
000001a0: 77d6 f0bc 2b81 fcbc 135f 583d 507b b9bb
000001b0: 49c5 d7bc eba1 5e3d c2e7 88bc 2cc6 af3e
000001c0: cf11 93bd 3f3e 05bd 2c93 1abd 58b1 b8bd
000001d0: 70ba ff3b ba51 563d ce0d 703d 2a20 5e3d
000001e0: 3c6a 35bc 8405 003d 34c6 69bd 1eca 353d
000001f0: 4f05 863d ed8c 3c3d abb0 acbd d43a 143d
00000200: f966 2ebd 3ac4 3d3d 9cfc 7fbd 6081 46bd
00000210: d4cf 7c3b 889a 433d 7c96 0f3d aff3 10bd
00000220: 1406 f1b9 43eb ba3c c6f1 bdbd bb26 833d
00000230: b6d0 39bd 3770 14bd b19d 25bd f2bf e83d
00000240: 7f7e 313d 0127 25bc 1f4c a33c 5054 ee3d
00000250: 2a11 b33c 0e7a 813b bd03 823b bdda 22bd
00000260: 4abb 04bd e3e9 1bbd bb4e b93e 5f69 7b3d
00000270: d4b2 6d3d dc7e e4bc 28f0 183e ef72 db3c
00000280: d454 1b3c 00d8 cfbc 6cbc 503d 3960 e73d
00000290: 4c34 823d b2f1 45b9 a16d 3abd b60b df3c
000002a0: af2e 8c3d 974c 23bc 79eb 26bd eb94 9c3c
000002b0: 1100 85bc c952 c03b 0fe3 773d 381b c03c
000002c0: 378e 92bc fc33 21be 77cd 243d d49b 2fbc
000002d0: acad 94bc 59c8 bc3c 7c7a 0cbd eb39 253d
000002e0: 0c89 a2bc faee 46bd 7468 7c3e e78a 0a3d
000002f0: c943 643d c88a 33bd ee03 ddbc 0ef7 03bd
00000300: 8d24 20bd d56e df3d 4ac1 ae3d b7b2 323c
00000310: fd80 dcbb b882 47bd 2d3c b2bc ac49 81bc
00000320: 898d f1bc cd20 4f3d 320a 833d 3266 093d
00000330: 2a92 41bb 4f1d 7b3d 6b6e 46bc 53a4 9b3d
00000340: 6295 7c3c 50e3 38bd fb2c edba 465b 773c
00000350: e283 b63c 571c 793c 47da c3bc 275d fdbc
00000360: 4cb8 4a3d 646c 4e3d 356a a9bd d8b0 6abc
00000370: a2d5 30bd ef77 8b3d 01fe 76bd 4bf3 2cbd
00000380: 324b 1dbb efe2 333d 9395 5bbd a01f 96bc
00000390: d136 18bd 6d3d ce3c 9ccf f6bc e88f 4a3d
000003a0: ee02 7f3c c621 8b3a 7de5 83bd 23e7 55bc
000003b0: 0f97 f5bc a8a9 42bd f160 153d 861b ae3c
000003c0: b8ce 273d 9c36 203d c038 9fbb c6b3 27bd
000003d0: 4583 783d 61c7 a53b 3929 2d3d 1592 2dbd
000003e0: 4d95 813d 6666 e5bc 046a bbbc addd 19bd
000003f0: 2557 be3c aa77 50bd fa3a 6d3b 3917 333d
