TD3/models/reward_s5e-2(-5, 1)_a4e-2_t(-2_0.1)_safe(5, -1).pth (torch, 275287 bytes, 5 tensors)

fc1.weight f4 [256, 8]
-1.0425707 -0.29238003 0.22829662 -0.20958555 -0.6933846 -0.1809393 -0.34959674 0.07189193
-0.7151247 0.38770193 -0.34596384 -0.357481 -0.0057054 0.06220993 -1.5570092 0.045139637
0.22909309 -0.008665386 0.31817198 -0.42318225 0.11554187 -0.15525194 1.7232984 0.13159218
0.40741894 0.11326026 -0.2538602 0.34966427 0.06508442 -0.058192898 0.9491697 0.19440679
0.665747 0.0039892816 -0.026543653 -0.1636663 0.0031576382 -0.09188371 0.24944718 0.26138446
0.21302775 0.6045792 0.40502623 0.1720257 0.026956476 -0.20619975 0.29684877 0.1969935
0.09776171 0.25398389 -0.6611679 0.2485106 -0.28279126 0.037131295 0.6543149 0.1120908
-0.26485452 0.19262658 0.24764465 0.13105015 -0.040301718 0.182702 0.97105783 -0.04720463
0.70862216 0.33930412 -0.12989923 0.15944101 0.009028244 -0.07541844 0.13470721 0.23560372
-0.028360058 -0.26539144 0.06887924 0.08324319 -0.0013249344 0.025378698 -1.7912241 -0.032897778
0.29590526 0.4002983 0.23917282 -0.30043125 0.19489646 -0.18978702 -1.3641642 -0.5420977
0.003765273 -0.15063398 -0.253994 -0.1865857 -0.07485141 -0.048524972 -0.029864624 -0.26425135
-0.030503318 0.036478817 0.0689852 0.236043 0.11876631 0.15315053 -0.5145902 0.19335714
0.01620557 0.024905216 0.25645596 0.24704555 -0.007728116 -0.039682377 0.63016474 0.59587353
0.17643404 0.04753798 -0.2970009 -0.33299538 -0.14910543 -0.34654233 0.27588972 -0.24826297
-0.031481177 -0.48816603 0.19972712 0.19752276 0.026532225 -0.114029214 -0.11774534 0.1231833
-0.031814832 0.12636046 -0.31146654 -0.0015752374 -0.26495674 0.27260834 -0.4347703 -0.04872462
-0.17974935 0.03239317 -0.17655306 -0.44784832 0.11725083 0.060846955 0.7930473 -0.6549315
0.19087537 0.1194429 -0.084252305 -0.16459815 -0.064839974 -0.06165599 0.28641894 -0.21521601
0.09844669 0.1613922 -0.50630563 -0.08100045 -0.012026066 0.013251316 1.6335337 0.31422275
-0.5398184 -0.084820375 0.9149914 0.03494762 0.02357691 0.010046715 0.83109915 -0.008046768
-0.13757093 0.11124319 0.42138675 0.21795666 -0.026205761 0.20376155 0.88310254 -0.37778604
-0.23386145 0.13441943 -0.11069311 -0.35484448 0.12975182 -0.40766925 0.8238431 0.053610597
0.42966378 -0.13626315 -0.6125271 0.21998006 -0.018172447 0.04441806 1.3816696 0.06660267
-0.2502107 -0.60213363 -0.50895125 0.35363722 -0.16710596 0.07934625 -0.37977344 0.23718101
0.29543164 -0.090013355 -0.03315344 -0.106702745 -0.16331473 -0.10460528 0.28980282 -0.35072854
-0.2345274 -0.029365286 0.13782813 0.18968968 0.058294393 0.086672306 -2.5338502 0.043770984
0.5756511 -0.015426194 0.14923812 0.24350978 0.014770852 -0.00044345148 1.955703 -0.027723067
-1.1290567 0.07243579 -0.32805762 -0.16862749 0.027769336 -0.41847712 -0.49820825 0.24427037
0.096823595 -0.24699315 0.06847648 -0.012566566 -0.12764552 0.2531619 -0.6785751 -0.24256125
0.39850944 -0.35709268 -0.52473414 0.2553987 0.11492855 -0.11108187 -1.5387864 0.21503636
0.70662284 -0.14947492 0.2070538 0.15696049 0.055959746 -0.17743246 0.343947 0.06442875
00000000: f572 85bf d6b2 95be 97c6 693e 989d 56be
00000010: a781 31bf 2748 39be 58fe b2be 143c 933d
00000020: 6a12 37bf de80 c63e 2c22 b1be c007 b7be
00000030: 5df4 babb d7cf 7e3d 144c c7bf 57e4 383d
00000040: 6197 6a3e 43f9 0dbc 70e7 a23e 58ab d8be
00000050: 37a1 ec3d 5dfa 1ebe 0b95 dc3f 1ac0 063e
00000060: 3799 d03e fff4 e73d f7f9 81be 3207 b33e
00000070: fb4a 853d ad5b 6ebd c9fc 723f 9312 473e
00000080: 656e 2a3f 85b8 823b 1372 d9bc 2398 27be
00000090: 61f0 4e3b 872d bcbd 156f 7f3e 2fd4 853e
000000a0: f223 5a3e b4c5 1a3f 995f cf3e 8127 303e
000000b0: d4d3 dc3c 0726 53be 90fc 973e aab8 493e
000000c0: 4b37 c83d 2d0a 823e 4d42 29bf 9079 7e3e
000000d0: 04ca 90be fc16 183d 2e81 273f dd8f e53d
000000e0: 039b 87be e73f 453e 8f96 7d3e 0332 063e
000000f0: 6a13 25bd 3c16 3b3e 3f97 783f a459 41bd
00000100: 4368 353f 45b9 ad3e 4e04 05be 8144 233e
00000110: 33eb 133c fc74 9abd b0f0 093e 1a42 713e
00000120: 5a53 e8bc 63e1 87be 8f10 8d3d 687b aa3d
00000130: 6ca9 adba fde6 cf3c d546 e5bf d2bf 06bd
00000140: e580 973e e6f3 cc3e b8e9 743e 20d2 99be
00000150: f092 473e 8757 42be ef9c aebf eac6 0abf
00000160: ccc2 763b cb3f 1abe 800b 82be 5210 3fbe
00000170: b24b 99bd 1fc2 46bd a8a6 f4bc f44b 87be
00000180: 18e2 f9bc d06a 153d 1d48 8d3d 42b5 713e
00000190: c03b f33d 7ed3 1c3e 2fbc 03bf 6aff 453e
000001a0: 8bc1 843c 0606 cc3c 324e 833e 82f9 7c3e
000001b0: 233c fdbb fd89 22bd 7a52 213f 2b8b 183f
000001c0: 20ab 343e 2fb7 423d 8110 98be 5f7e aabe
000001d0: 18af 18be ff6d b1be 6b41 8d3e a638 7ebe
000001e0: 68f2 00bd e6f0 f9be 4485 4c3e 6843 4a3e
000001f0: 1c5a d93c 2688 e9bd 7824 f1bd 8747 fc3d
00000200: 4550 02bd a364 013e 8b78 9fbe 3278 ceba
00000210: 69a8 87be 5293 8b3e 369a debe 7893 47bd
00000220: 3710 38be b3ae 043d 53ca 34be 604c e5be
00000230: 3421 f03d a83a 793d 2605 4b3f 97a9 27bf
00000240: d574 433e 7b9e f43d 798c acbd 6b8c 28be
00000250: d2ca 84bd fe8a 7cbd 81a5 923e 9661 5cbe
00000260: 6b9e c93d ff43 253e 3f9d 01bf 90e3 a5bd
00000270: fa08 45bc 0c1c 593c a217 d13f cee1 a03e
00000280: 8a31 0abf 4eb6 adbd e03c 6a3f 3c25 0f3d
00000290: 5d24 c13c fa9a 243c eac2 543f 97d6 03bc
000002a0: 65df 0cbe 78d3 e33d 01c0 d73e 0830 5f3e
000002b0: 77ad d6bc dea6 503e 0213 623f 2c6d c1be
000002c0: 6079 6fbe 3fa5 093e 12b3 e2bd 2dae b5be
000002d0: a9dd 043e 06ba d0be 62e7 523f c996 5b3d
000002e0: e4fc db3e 9188 0bbe 93ce 1cbf 7442 613e
000002f0: 62de 94bc b6ef 353d 8dda b03f fb66 883d
00000300: 9e1b 80be 6e25 1abf a14a 02bf f00f b53e
00000310: d31d 2bbe 4980 a23d aa71 c2be 94df 723e
00000320: d142 973e ec58 b8bd e7cb 07bd f886 dabd
00000330: fa3b 27be 4b3b d6bd 0961 943e b192 b3be
00000340: f327 70be 788f f0bc d122 0d3e 033e 423e
00000350: 1ac6 6e3d 4081 b13d 9a2a 22c0 3449 333d
00000360: df5d 133f 26be 7cbc e1d1 183e a15a 793e
00000370: 7201 723c 0d7f e8b9 7a54 fa3f 7c1b e3bc
00000380: ee84 90bf 3759 943d 2bf7 a7be afac 2cbe
00000390: 857c e33c a242 d6be 2715 ffbe 0322 7a3e
000003a0: 734b c63d c6eb 7cbe 663d 8c3d ffe3 4dbc
000003b0: 82b5 02be 709e 813e 19b7 2dbf fa61 78be
000003c0: 6e09 cc3e dad4 b6be fa54 06bf 9ec3 823e
000003d0: a95f eb3d e47e e3bd f4f6 c4bf 7e32 5c3e
000003e0: 3ce5 343f f40f 19be e905 543e 40ba 203e
000003f0: 0c36 653d dbb0 35be d219 b03e 38f3 833d

fc1.bias f4 [256]
0.2643742 -0.7015393 0.266442 -0.25086835 -0.30595863 0.45230395 -0.2086897 0.38684
-0.34684438 0.72522396 -0.34833193 -0.25612825 -0.54378223 -0.18597385 -0.24000405 -0.2570885
-0.5668649 -0.48078504 -0.33759877 -0.4847226 0.65674615 0.52719426 -0.2871326 -0.08185636
-0.43825573 0.14490399 0.12409391 0.38348135 0.4163536 0.47591296 -0.26269802 0.15746316
-0.056267094 -0.920547 -0.055572 -0.46643585 0.2694687 0.30190632 -0.06861815 0.031914946
0.4566869 0.7090211 0.3074111 0.715083 -0.791969 0.23125158 0.13701944 0.33500484
0.02537908 -0.30566373 -0.3255193 0.14452507 -0.8685246 0.04015535 -0.18796988 0.0045149606
-0.44022676 -0.25408384 -0.15915139 -0.091889665 -0.44935942 0.24169865 0.12082619 0.1668533
0.016399285 -0.26789534 0.33790106 1.0054473 0.2646742 0.5451802 -0.76584077 0.47496906
-0.3264649 -0.7030364 0.18236567 -0.282145 -0.32163227 -0.047325447 0.07712248 0.1708091
0.024503123 0.4527468 -0.213246 0.32328445 -0.13108687 -0.11685788 0.17185353 0.86071086
-0.42977694 0.5115237 -0.24325809 0.08947788 0.76271325 -0.18958376 -0.20426342 -0.45637727
0.12733482 0.23199241 -0.047329437 0.35767722 -0.46644256 -0.16877346 0.24779171 -0.401842
-0.3698687 0.32776752 -0.22950678 -0.40895903 0.00026337564 -0.13850574 0.464155 0.15853105
0.07764564 0.22123496 0.19027321 0.12567037 -0.012661376 0.17971708 0.02925935 -0.39672223
0.42450464 0.3386636 0.18209274 0.74835336 -0.03412152 -0.06690538 -0.83434117 -0.109710164
-0.29511908 -0.25397915 -0.009251307 0.17368482 0.4657328 -0.04300828 -0.08237941 -0.3547409
-0.15864222 -0.1639068 -0.017526427 -0.12813276 -0.3578003 0.06119612 0.72214574 -0.054785572
-0.558376 0.28911534 -0.47054273 0.20757411 0.0995074 0.46727842 -0.57788825 0.21920033
0.10616996 -0.10546467 -0.014404635 0.30347627 0.32464746 -0.11747763 0.2864339 0.8222101
0.12237512 -0.2995686 0.49662375 0.14200157 0.2841524 0.020763772 0.06484387 -0.45185623
0.006698576 -0.044708148 0.85200083 0.021325007 -0.48126033 -0.18984444 0.343228 -0.13635486
0.117128894 0.052077103 -0.04891977 0.27571768 -0.18523234 0.70437926 -0.1445412 -0.13862622
-0.4628256 0.3196548 -0.8364108 1.0454392 -0.42057493 -0.2279335 -0.49462497 -0.04186487
-0.4464126 0.21172926 -0.253582 0.2476908 -0.13299575 -0.052854832 0.07637745 -0.49948597
0.665098 -0.043519855 0.18447223 0.04520886 0.088554405 -0.44070786 0.7356574 0.103691645
0.24795717 0.05955708 -0.89534223 -0.013568436 0.54468715 -0.3913378 -0.25654945 -0.0015983895
-0.445842 -0.3835562 -0.23597579 -0.47040227 0.025769409 -0.19525513 -0.48176894 -0.083699085
-0.5577219 0.08866512 0.21309239 0.14834802 0.107491 -0.009254022 0.17982626 0.57291526
-0.17906998 0.7426078 0.6969244 -0.5286691 0.35913426 0.46072173 -0.31563565 -0.17630273
0.11185676 0.41653132 -0.40003842 -0.19094856 -0.9422322 -0.30556238 0.526303 -0.14614387
0.6171157 0.3753135 0.20829874 0.042018913 -1.4546483 0.4934346 0.26631367 -0.17697413
00000000: 0e5c 873e 1498 33bf 166b 883e d171 80be
00000010: 9ca6 9cbe 6294 e73e c1b2 55be e40f c63e
00000020: 9695 b1be 47a8 393f 9058 b2be 3e23 83be
00000030: 5035 0bbf ee6f 3ebe 9fc3 75be 1ba1 83be
00000040: 0f1e 11bf 7529 f6be bfd9 acbe 902d f8be
00000050: 8420 283f 34f6 063f 0b03 93be 4fa4 a7bd
00000060: 0e63 e0be b661 143e f324 fe3d ab57 c43e
00000070: 4d2c d53e ddaa f33e 5b80 86be 063e 213e
00000080: 5378 66bd f8a8 6bbf 779f 63bd aed0 eebe
00000090: cdf7 893e 7793 9a3e ac87 8cbd 3fb9 023d
000000a0: ded2 e93e 6882 353f fd64 9d3e ae0f 373f
000000b0: 7bbe 4abf 37cd 6c3e d34e 0c3e c185 ab3e
000000c0: cae7 cf3c f57f 9cbe 77aa a6be 61fe 133e
000000d0: a157 5ebf f079 243d 2d7b 40be 3cf2 933b
000000e0: 6765 e1be 4717 82be 95f8 22be a630 bcbd
000000f0: 7012 e6be da7f 773e b973 f73d 97db 2a3e
00000100: cb57 863c 9429 89be 5e01 ad3e 7fb2 803f
00000110: 6083 873e ee90 0b3f 240e 44bf 252f f33e
00000120: 6826 a7be 32fa 33bf 11be 3a3e 4f75 90be
00000130: fcac a4be 54d8 41bd 64f2 9d3d 95e8 2e3e
00000140: c6ba c83c 6ece e73e 295d 5abe 8a85 a53e
00000150: a33b 06be 2f53 efbd 5ffa 2f3e 8c57 5c3f
00000160: b90b dcbe 38f3 023f a618 79be 2e40 b73d
00000170: 2d41 433f 3f22 42be 6e2a 51be 48aa e9be
00000180: 0f64 023e 6b8f 6d3e 83dc 41bd 7821 b73e
00000190: 8fd1 eebe f3d2 2cbe 1cbd 7d3e 3cbe cdbe
000001a0: 6e5f bdbe 25d1 a73e d303 6bbe 1463 d1be
000001b0: ae15 8a39 73d4 0dbe b9a5 ed3e f755 223e
000001c0: ad04 9f3d 6b8b 623e fbd6 423e bcaf 003e
000001d0: a971 4fbc c107 383e 4eb1 ef3c 2d1f cbbe
000001e0: ac58 d93e 5165 ad3e 8576 3a3e 1694 3f3f
000001f0: 02c3 0bbd b005 89bd 6297 55bf b9af e0bd
00000200: d919 97be 8e09 82be cb92 17bc 6fda 313e
00000210: 8874 ee3e 7329 30bd 89b6 a8bd 99a0 b5be
00000220: 1b73 22be 2fd7 27be 9593 8fbc 3c35 03be
00000230: 9a31 b7be c8a8 7a3d 8bde 383f d666 60bd
00000240: bbf1 0ebf ed06 943e faea f0be 4f8e 543e
00000250: 89ca cb3d 1e3f ef3e 7cf0 13bf 0d76 603e
00000260: a36f d93d dcfd d7bd 6b01 6cbc 3e61 9b3e
00000270: 3138 a63e 1d98 f0bd 77a7 923e 5c7c 523f
00000280: cf9f fa3d 0e61 99be 7845 fe3e dc68 113e
00000290: 6c7c 913e c918 aa3c ddcc 843d b359 e7be
000002a0: ba7f db3b e41f 37bd ba1c 5a3f c8b1 ae3c
000002b0: c167 f6be 9566 42be 95bb af3e 9ca0 0bbe
000002c0: 46e1 ef3d cd4e 553d 1960 48bd de2a 8d3e
000002d0: 8cad 3dbe 3352 343f 9c02 14be 08f4 0dbe
000002e0: 7af7 ecbe cba9 a33e 051f 56bf f4d0 853f
000002f0: 9955 d7be 6667 69be 7c3f fdbe 7f7a 2bbd
00000300: 3190 e4be 8ecf 583e 80d5 81be a8a2 7d3e
00000310: 0a30 08be 4f7e 58bd c86b 9c3d a0bc ffbe
00000320: dd43 2a3f e041 32bd 4ae6 3c3e ed2c 393d
00000330: 035c b53d 76a4 e1be 0b54 3c3f 495c d43d
00000340: 7ce8 7d3e 20f2 733d 2635 65bf 254e 5ebc
00000350: 9e70 0b3f 6e5d c8be 735a 83be 0d81 d1ba
00000360: 6745 e4be 7a61 c4be a3a3 71be 91d8 f0be
00000370: 5e1a d33c f6f0 47be 6baa f6be 6d6a abbd
00000380: ddc6 0ebf 0f96 b53d e434 5a3e 8be8 173e
00000390: 3e24 dc3d 2e9e 17bc 6024 383e 93aa 123f
000003a0: 1f5e 37be 8b1b 3e3f a369 323f dc56 07bf
000003b0: 72e0 b73e b8e3 eb3e ff9a a1be b488 34be
000003c0: 2815 e53d 9843 d53e d6d1 ccbe 0588 43be
000003d0: 2136 71bf ac72 9cbe cbbb 063f bda6 15be
000003e0: 4bfb 1d3f 1729 c03e 444c 553e 061c 2c3d
000003f0: ea31 babf 76a3 fc3e 445a 883e b538 35be

fc2.weight f4 [256, 256]
0.038897883 0.045247473 -0.022361893 0.007367754 0.0034565157 0.05262614 -0.069118805 -0.05774343
-0.024137998 0.0223161 0.04770155 -0.0567798 0.041478917 0.02818392 0.024148248 0.025240324
0.051539358 -0.0151482625 0.04067777 -0.039142836 -0.021548456 -0.0465247 -0.046329305 -0.04323288
0.046558317 -0.0021725073 0.013649116 0.0063310787 -0.042307712 0.05806573 -0.011857916 0.02719625
-0.048978463 0.05550114 -0.026916904 -0.020856619 -0.038950767 -0.0611252 0.051346302 0.005376266
0.009132468 0.01808434 -0.033234585 -0.017014943 -0.030563649 0.007360792 -0.017861567 -0.042308666
-0.053229466 -0.004966871 -0.018335953 -0.030111143 0.009590957 -0.024526557 -0.054455325 -0.030888114
-0.042294387 0.03731829 -0.013179823 -0.0391827 -0.022465264 -0.059794262 -0.029740209 0.05199822
-0.00015241902 -0.05846518 -0.03550354 0.033653233 -0.065789916 0.058875978 -0.03157924 0.014378138
0.019652665 -0.062641665 0.022713404 0.029189289 0.0395642 -0.06157673 -0.030603837 -0.03809518
-0.04088261 0.027775409 0.04776844 -0.023690049 0.053224456 -0.060138654 0.021735176 0.010884874
-0.013665095 -0.03212537 0.026648102 -0.04952851 -0.003511317 0.012215041 -0.0633593 -0.04946353
0.017415443 0.0072901812 -0.062286973 0.01201163 -0.03451026 -0.006530271 -0.030721227 -0.040926468
-0.0064495793 0.050589908 -0.038267992 0.044054028 -0.03640011 0.04641872 -0.04401725 -0.03879369
0.006102339 -0.030505046 -0.042873323 -0.04705459 0.026964322 0.035194457 -0.03774383 -0.04201498
0.042521957 -0.022564545 0.0430985 0.049392864 -0.044418387 -0.021712005 0.021618975 0.02476363
-0.011549654 -0.05952205 0.0043537975 -0.019965436 -0.032853696 -0.00018846756 -0.049489774 -0.029659064
0.02348753 -0.010611914 0.013881511 -0.056231692 -0.045426473 0.0141460085 -0.050593354 0.02705759
0.04465712 0.016147861 0.040592827 -0.01256825 -0.04872702 -9.635581e-05 0.033080723 0.04690446
0.03280598 -0.026525369 0.02936538 0.019030478 0.038700502 -0.044019815 -0.0083054975 0.040448796
-0.010010131 -0.009027352 -0.044693932 0.0013603779 -0.023653824 -0.060396664 0.034551796 0.015724542
-0.030015426 0.008658554 -0.018184824 -0.048050873 0.049935184 0.012522223 0.027116353 -0.023862518
-0.05013459 -0.0010353992 -0.0064042653 -0.05046163 0.031904127 0.043059886 -0.027702898 0.0059031905
-0.016398175 -0.043937888 -0.042524114 -0.01966925 0.056697316 0.032769397 -0.060794573 -0.026075967
0.027014371 0.05281786 -0.009115451 -0.050315484 -0.032015115 0.0075912536 -0.026456201 0.020775218
-0.036992043 -0.018114224 0.047110114 -0.008385723 -0.057866044 -0.028615443 0.017727528 0.0044994615
0.027892327 -0.05970397 0.026120016 0.025570955 -0.011030273 0.031818867 -0.06495427 0.0069000185
-0.018932976 0.040439293 -0.037040636 -0.030218763 0.012099731 0.012351299 0.05814871 -0.01425242
0.0014724688 -0.033911426 0.05692557 -0.05431612 -0.061978303 -0.017337626 -0.050754387 -0.053537004
0.0008692074 -0.0025846362 -0.021657659 -0.012670076 -0.037193157 0.023970788 0.0032680389 0.026267413
0.05151769 -0.054245517 -0.05722553 0.0050740275 0.017397262 0.015354961 -0.012767587 -0.01765044
-0.01382291 0.024778021 0.012327746 -0.033490688 -0.03579338 0.036651827 0.016968474 0.0083626965
00000000: 6353 1f3d 6a55 393d 4a30 b7bc 336d f13b
00000010: b686 623b 828e 573d 298e 8dbd 6084 6cbd
00000020: 0dbd c5bc 41d0 b63c b362 433d f091 68bd
00000030: cce5 293d f7e1 e63c 8cd2 c53c ccc4 ce3c
00000040: ef1a 533d 6b30 78bc bc9d 263d 3d54 20bd
00000050: 6386 b0bc af90 3ebd ccc3 3dbd f614 31bd
00000060: efb3 3e3d a060 0ebb 8ba0 5f3c f074 cf3b
00000070: da4a 2dbd 55d6 6d3d b447 42bc acca de3c
00000080: a49d 48bd 2a55 633d d780 dcbc 80db aabc
00000090: d78a 1fbd 6b5e 7abd 8050 523d 632b b03b
000000a0: 59a0 153c 9c25 943c fd20 08bd ec62 8bbc
000000b0: 9e60 fabc cc32 f13b 6c52 92bc da4b 2dbd
000000c0: 2407 5abd 22c1 a2bb 4835 96bc a5ab f6bc
000000d0: 6423 1d3c ebeb c8bc 8c0c 5fbd 1209 fdbc
000000e0: e13c 2dbd 10db 183d 2ff0 57bc 0a7e 20bd
000000f0: 1309 b8bc d4ea 74bd bda1 f3bc 16fc 543d
00000100: abd2 1fb9 2f79 6fbd 296c 11bd f9d7 093d
00000110: ddbc 86bd f027 713d 3c59 01bd 4892 6b3c
00000120: a0fe a03c 464a 80bd 7611 ba3c 601e ef3c
00000130: 120e 223d e237 7cbd e6b4 fabc b109 1cbd
00000140: 8674 27bd 4189 e33c d7a8 433d a211 c2bc
00000150: e301 5a3d f353 76bd f80d b23c 7856 323c
00000160: 90e3 5fbc e495 03bd 1f4d da3c 68de 4abd
00000170: 201e 66bb 9821 483c 85c2 81bd 459a 4abd
00000180: d5aa 8e3c 79e2 ee3b a020 7fbd 6ecc 443c
00000190: a15a 0dbd e2fb d5bb 15ab fbbc 83a2 27bd
000001a0: fe56 d3bb 5d37 4f3d e6be 1cbd ff71 343d
000001b0: 4818 15bd 8e21 3e3d 6f4b 34bd 22e6 1ebd
000001c0: 21f6 c73b b8e5 f9bc f09b 2fbd 50bc 40bd
000001d0: 48e4 dc3c 1028 103d 4699 1abd e617 2cbd
000001e0: 812b 2e3d 48d9 b8bc 0e88 303d 2c50 4a3d
000001f0: 0ef0 35bd 60dd b1bc 471a b13c 19dd ca3c
00000200: c33a 3dbc 65cd 73bd 4daa 8e3b 8e8e a3bc
00000210: 9991 06bd 609f 45b9 cab5 4abd 91f7 f2bc
00000220: ec68 c03c 98dd 2dbc 476f 633c 3453 66bd
00000230: 1c11 3abd a9c4 673c fa3a 4fbd e1a7 dd3c
00000240: 62ea 363d 8548 843c aa44 263d 10eb 4dbc
00000250: fc95 47bd a212 cab8 a77f 073d e41e 403d
00000260: 905f 063d bb4b d9bc aa8f f03c cee5 9b3c
00000270: 6b84 1e3d 1f4e 34bd c813 08bc a3ad 253d
00000280: 8801 24bc 75e7 13bc fc10 37bd b54e b23a
00000290: aac5 c1bc 7e62 77bd 2f86 0d3d c1d0 803c
000002a0: e9e2 f5bc 9cdc 0d3c 57f8 94bc fed0 44bd
000002b0: d688 4c3d 032a 4d3c 1d23 de3c 547b c3bc
000002c0: ee59 4dbd 3bb6 87ba dfda d1bb dbb0 4ebd
000002d0: e7ad 023d 905f 303d 30f1 e2bc 8d6f c13b
000002e0: 7755 86bc 37f8 33bd c42d 2ebd 6821 a1bc
000002f0: 723b 683d 3439 063d bb03 79bd 449d d5bc
00000300: 3e4d dd3c 8a57 583d f958 15bc 9c17 4ebd
00000310: 4822 03bd 0dc0 f83b adba d8bc ca30 aa3c
00000320: f884 17bd 4864 94bc 89f6 403d 4664 09bc
00000330: f204 6dbd ef6a eabc 5239 913c 3870 933b
00000340: 737e e43c 268c 74bd a5f9 d53c 2e7a d13c
00000350: 51b8 34bc 8054 023d bf06 85bd 8d19 e23b
00000360: 5419 9bbc aca3 253d ecb7 17bd 578d f7bc
00000370: f33d 463c 1a5d 4a3c 572d 6e3d fb82 69bc
00000380: dbff c03a b5e6 0abd c92a 693d 947a 5ebd
00000390: f6dc 7dbd a307 8ebc d5e3 4fbd 9e49 5bbd
000003a0: 85db 633a 0063 29bb 676b b1bc 2796 4fbc
000003b0: da57 18bd 635e c43c 982c 563b c22e d73c
000003c0: 3704 533d 8c30 5ebd 5165 6abd 0744 a63b
000003d0: b484 8e3c 6093 7b3c 242f 51bc a897 90bc
000003e0: 7d79 62bc 47fb ca3c 50fa 493c 882d 09bd
000003f0: 149c 12bd 3a20 163d 7801 8b3c b103 093c

fc2.bias f4 [256]
0.05217835 0.41890985 -0.024778163 -0.18035251 0.008942231 -0.16985342 0.17531852 0.0794255
-0.10140522 -0.07499437 -0.030889336 0.336717 0.10585519 -0.24264865 0.13214071 0.11748688
0.0589226 -0.13175495 -0.015515884 -0.07556781 -0.30144298 0.22333333 -0.11028619 -0.028518971
-0.09275707 0.33710104 -0.05092747 -0.0070883026 -0.06433537 0.22017953 0.123984806 -0.119590595
-0.0002137511 -0.09359054 0.23118435 0.0024318325 -0.27029306 0.27250445 0.032978084 -0.29326966
0.14665593 0.109087765 -0.5070325 0.07860114 0.19957343 -0.022365548 -0.04373201 0.018318685
0.35288078 0.0016718907 0.20311677 0.06423637 0.020106109 -0.04941291 0.18274517 0.076725006
0.2865192 0.07225776 -0.0048391987 -0.016818222 0.27324015 0.24138495 0.08625183 0.2553027
0.3442631 0.09306711 0.03890272 0.043527346 0.019894617 -0.005562363 -0.001558143 -0.026860636
0.036171675 -0.11614583 -0.1623661 0.054540504 0.21492496 0.062446818 -0.14156592 -0.12219324
-0.00047324973 -0.062637106 -0.21581209 -0.10478521 0.10264863 -0.18810247 0.053458683 0.008051208
-0.118811324 0.30734295 -0.24116053 0.053253133 0.012068248 0.05424667 0.051994108 0.005638306
-0.16060694 -0.042436104 0.03505413 -0.06403882 -0.18557988 0.015417784 0.07094094 -0.041546203
0.0575162 0.07471487 0.13435361 -0.011143819 0.09840514 -0.06760418 0.31804195 0.036247294
0.04323376 -0.10612861 -0.016692668 -0.0017212639 -0.24849723 0.1428038 -0.12032408 -0.017475214
0.24254104 0.047893405 -0.21476752 0.05272288 0.120382905 -0.06392922 0.0579878 -0.078846656
-0.009765071 0.54640186 -0.011100156 -0.032248877 0.15509227 -0.15098065 0.36566645 0.030879045
-0.18746687 0.2666172 0.17085162 -0.061332546 0.19326337 0.19743475 0.22511268 -0.13902502
0.43893212 0.10483578 0.19448067 -0.10101986 -0.32912076 0.16403939 -0.008654836 0.08904487
-0.09193769 -0.06283792 -0.061237764 -0.09888577 -0.06327145 0.0498494 0.011267107 -0.15013531
0.028868012 0.043597173 -0.059751138 -0.1652341 0.039398253 0.27501178 -0.008469874 0.0645313
0.004482481 -0.017043618 0.08004128 0.17515576 0.35700023 -0.36792907 0.07663015 0.08338271
-0.2221308 -0.036181103 -0.13571438 -0.10685384 0.16202608 0.18255258 0.07748467 0.09951792
-0.06386694 -0.055771686 0.0865117 0.0035703324 0.028043548 0.066855565 0.15181448 -0.07588274
0.3829447 0.028927654 -0.01100297 0.059076425 -0.08380018 0.11080911 0.18738706 0.055602964
0.29258406 -0.15426998 -0.15158018 -0.052669033 0.051927757 -0.1249165 0.28688768 0.11901935
0.29496342 -0.051585484 -0.20997393 -0.08838269 -0.007993634 -0.34646675 0.24876846 -0.060840614
-0.058490008 -0.0456483 -0.072781384 -0.06586951 -0.07313199 -0.06667432 -0.084221706 0.37737566
-0.18431894 0.47594148 0.3227423 0.041058026 -0.30111915 0.06962516 0.1589928 0.011859742
-0.019932022 0.039242912 0.0035321151 -0.19502468 0.20247895 -0.109889984 -0.058843497 -0.17452283
0.07142959 0.16963932 -0.07414928 0.19851902 0.047237456 0.04661767 0.29362318 -0.17884184
0.07346519 -0.047015093 -0.06691483 -0.17686167 -0.123835534 0.24491876 0.32929945 0.003530787
00000000: f7b8 553d 5a7b d63e 93fb cabc 54ae 38be
00000010: 6f82 123c 0eee 2dbe b386 333e d6a9 a23d
00000020: 8aad cfbd a696 99bd a20b fdbc 2c66 ac3e
00000030: 9bca d83d e378 78be e54f 073e f69c f03d
00000040: d358 713d c5ea 06be 5636 7ebc 4cc3 9abd
00000050: bc56 9abe 7eb1 643e badd e1bd 9ea0 e9bc
00000060: 6bf7 bdbd 8298 ac3e 5399 50bd fe44 e8bb
00000070: 43c2 83bd be76 613e bfeb fd3d eaeb f4bd
00000080: 6022 60b9 66ac bfbd 97bb 6c3e 615f 1f3b
00000090: da63 8abe b485 8b3e 0714 073d 7127 96be
000000a0: f92c 163e 6869 df3d e2cc 01bf a2f9 a03d
000000b0: fa5c 4c3e f437 b7bc 5620 33bd 1111 963c
000000c0: caac b43e 5823 db3a d8fd 4f3e 5c8e 833d
000000d0: 91b5 a43c 3165 4abd 8d21 3b3e 0022 9d3d
000000e0: a5b2 923e e0fb 933d 2492 9ebb 5ec6 89bc
000000f0: 22e6 8b3e 9e2d 773e cda4 b03d 09b7 823e
00000100: 4143 b03e f899 be3d 7558 1f3d bb49 323d
00000110: 09fa a23c 7c44 b6bb 9a3a ccba d60a dcbc
00000120: c028 143d dddd edbd 4d43 26be dd65 5f3d
00000130: 4a15 5c3e 3cc8 7f3d a8f6 10be 7340 fabd
00000140: 811e f8b9 e247 80bd d8fd 5cbe a199 d6bd
00000150: 7239 d23d ef9d 40be 7ef7 5a3d 37e9 033c
00000160: 5a53 f3bd 0e5c 9d3e c9f2 76be f51f 5a3d
00000170: e7b9 453c c231 5e3d c6f7 543d 8ac1 b83b
00000180: 2576 24be 7bd1 2dbd eb94 0f3d c926 83bd
00000190: a708 3ebe e09a 7c3c 7c49 913d 5a2c 2abd
000001a0: 1b96 6b3d 1c04 993d fe93 093e 9194 36bc
000001b0: a288 c93d 0f74 8abd 65d6 a23e 0b78 143d
000001c0: e215 313d f559 d9bd 10bf 88bc 089c e1ba
000001d0: 0f76 7ebe 293b 123e 796c f6bd 2e28 8fbc
000001e0: ae5c 783e e02b 443d 04ec 5bbe f2f3 573d
000001f0: 508b f63d 53ed 82bd 9e84 6d3d 5b7a a1bd
00000200: adfd 1fbc fee0 0b3f 6edd 35bc 6617 04bd
00000210: 82d0 1e3e ac9a 1abe a238 bb3e 0df6 fc3c
00000220: 51f7 3fbe 0d82 883e baf3 2e3e d637 7bbd
00000230: d5e6 453e 562c 4a3e f083 663e 935c 0ebe
00000240: b6bb e03e 24b4 d63d f125 473e 80e3 cebd
00000250: 8482 a8be f1f9 273e 03cd 0dbc 285d b63d
00000260: d449 bcbd 2bb1 80bd 73d4 7abd 9f84 cabd
00000270: 7694 81bd e22e 4c3d ac99 383c 12bd 19be
00000280: 9c7c ec3c f392 323d 9cbd 74bd 2133 29be
00000290: 1060 213d 58ce 8c3e 3ac5 0abc fc28 843d
000002a0: c7e1 923b 0f9f 8bbc afec a33d 085c 333e
000002b0: bcc8 b63e 3361 bcbe 45f0 9c3d 8ec4 aa3d
000002c0: 4276 63be a332 14bd b6f8 0abe 30d6 dabd
000002d0: 2aea 253e 10ef 3a3e 48b0 9e3d 0dd0 cb3d
000002e0: accc 82bd da70 64bd 0c2d b13d 3dfc 693b
000002f0: 95bb e53c 92eb 883d 4175 1b3e 6968 9bbd
00000300: 5411 c43e b0f9 ec3c cd45 34bc 1ffa 713d
00000310: 6e9f abbd e3ef e23d 65e2 3f3e efbf 633d
00000320: 94cd 953e f3f8 1dbe d637 1bbe 7cbb 57bd
00000330: 33b2 543d 39d4 ffbd f1e2 923e 6bc0 f33d
00000340: 7205 973e 4d4b 53bd 6803 57be fc01 b5bd
00000350: bbf7 02bc 1764 b1be 29bd 7e3e 0234 79bd
00000360: 3893 6fbd b6f9 3abd 680e 95bd 98e6 86bd
00000370: 3ac6 95bd 8c8c 88bd 6e7c acbd 6237 c13e
00000380: 1bbe 3cbe 9aae f33e 7b3e a53e 762c 283d
00000390: 4a2c 9abe a397 8e3d 02cf 223e 5d4f 423c
000003a0: 7b48 a3bc 2dbd 203d 0f7b 673b 8db4 47be
000003b0: a456 4f3e 000e e1bd e105 71bd 1db6 32be
000003c0: ad49 923d eeb5 2d3e 94db 97bd 9248 4b3e
000003d0: 107c 413d 2cf2 3e3d c755 963e 5122 37be
000003e0: eb74 963d e692 40bd a40a 89bd 3a1b 35be
000003f0: 7c9d fdbd fccb 7a3e f099 a83e c764 673b

fc3.weight f4 [1, 256]
-0.0027187092 -0.2807268 -0.096874386 0.118165284 0.021831887 0.03513219 -0.046267774 0.038777497
-0.07467005 -0.09060048 -0.0045163603 -1.2999481 -0.01169784 0.056358013 0.06534144 -0.032709673
-0.0033334107 0.037701268 -0.0012222531 0.033192836 -2.5618234 -0.10247979 0.08996075 -0.044522315
-0.013444763 -0.39149055 0.10758263 -0.0021544867 0.27737814 -0.05560859 -0.09629919 0.08290651
0.056406662 -0.0589272 -0.01578394 0.0018870268 0.054701947 -0.11818255 -0.0029235268 0.2788534
-0.06959165 -0.008103738 -0.65068835 -0.0659171 -0.10209562 -0.06376151 0.0022851364 0.059363056
-0.20317644 0.06875683 -0.15337732 0.081001505 -0.1159735 9.842029e-06 -0.07946608 0.026611343
0.3774585 -0.025526581 0.013184961 -0.0015334958 -0.7044454 0.18670897 0.013475766 -0.14854936
-0.7870625 -0.0067843166 -0.24390863 -0.015396801 -0.0027706195 0.0002049999 0.23855712 -0.001805493
-0.15293202 -0.095210165 0.027583743 -0.004985079 -0.360157 -1.8230579 0.03438463 0.03939447
0.00060744386 0.0015339793 0.016527792 0.9696842 -0.1337022 0.03305871 -6.5090912e-06 -0.028715713
0.14043382 -0.5891813 0.019966543 0.3297889 0.0014931585 0.059976786 0.0020120617 0.012331917
0.061862748 0.002053897 0.0015140688 -0.00080187933 0.03813534 -0.08220217 -0.035009447 0.0047300835
-0.0031873393 -0.2865608 -0.16355972 0.030827358 -0.09834005 0.029674117 -0.073707156 -0.16573286
0.0012239863 0.11495925 0.03211534 -0.07011462 0.060891923 -0.025022829 0.061348602 0.0027527963
0.09560222 -0.0016803023 0.09991242 0.10012366 0.15813684 -0.55129534 -0.0012954618 0.15333225
0.0008469821 -0.118594386 0.036422085 0.6809818 -0.034943633 0.084265664 -0.093219265 -0.001094611
0.0030410765 -0.28815296 0.09534632 -0.002346845 -0.35394365 0.23994994 0.3471752 0.07595832
-0.030576667 0.27037978 -0.02933469 0.19158368 -1.6641142 0.37168038 -0.036125313 -0.18490863
0.06704233 -0.5897158 -0.10943659 -0.25102365 -0.19767633 -1.140734 0.0023186032 0.11618893
-0.0049569737 -0.0076303715 -0.051634062 -0.038058903 0.0025448313 -0.03998276 -0.37313434 -0.5555621
0.0025765295 -0.039925247 -0.5939072 -0.115783885 -0.061218884 0.04635087 0.07751067 0.12895767
0.032497596 0.27737907 0.051610913 -0.03153897 0.20005506 -0.022244032 -0.042101555 -0.06440882
-0.038330954 -0.0006387858 -0.31291944 0.0019351197 0.4958886 -0.09984564 0.058250885 -0.5990111
-0.49910706 0.10595505 0.005167943 -1.11483 -0.11851522 -0.34842286 -0.5263314 0.00014652447
-0.0053578587 0.0024002718 0.06576364 0.15741184 -0.08242045 0.0023962534 -0.9476823 0.04803823
0.38395476 -0.0017676945 0.03013288 0.050749667 -0.004275233 -0.07980155 0.2367004 -0.016842058
-0.11634522 0.12174826 0.0017922363 0.053288694 0.2621775 -0.36433634 0.047752015 -0.3112812
0.0056362385 0.16082928 0.07015383 0.06285512 0.02822326 0.11986011 0.10629138 0.00070574466
-0.029425245 -0.04903896 0.0017363648 0.015867084 0.7332903 -0.0142590515 -0.23737875 0.043999717
0.083797574 -0.26818138 0.047198024 -0.05699154 0.10424149 -0.0013338468 -0.21750294 0.011332977
-0.027039088 -0.049064636 0.0020709136 -0.12052198 0.101073645 -0.097276546 -0.86472636 -0.0117435055
00000000: 5f2c 32bb 6cbb 8fbe 1466 c6bd a400 f23d
00000010: c9d8 b23c c5e6 0f3d 4783 3dbd 27d5 1e3d
00000020: 9cec 98bd bf8c b9bd fafd 93bb b364 a6bf
00000030: 4ca8 3fbc a9d7 663d bcd1 853d 94fa 05bd
00000040: 5a75 5abb a56c 1a3d 0234 a0ba 36f5 073d
00000050: eaf4 23c0 ede0 d1bd 573d b83d 085d 36bd
00000060: 6c47 5cbc 7371 c8be 4854 dc3d 4a32 0dbb
00000070: 8204 8e3e d5c5 63bd 8238 c5bd e3ca a93d
00000080: ac0a 673d a65d 71bd 524d 81bc 1d56 f73a
00000090: 260f 603d b109 f2bd a498 3fbb dfc5 8e3e
000000a0: 1186 8ebd 8ac5 04bc 8393 26bf 8bff 86bd
000000b0: 8217 d1bd 6595 82bd 3ac2 153b ad26 733d
000000c0: 7c0d 50be 62d0 8c3d f20e 1dbe 1ee4 a53d
000000d0: 8483 edbd 311f 2537 1dbf a2bd 0800 da3c
000000e0: 3e42 c13e 1f1d d1bc bc05 583c 95ff c8ba
000000f0: 8956 34bf a330 3f3e 76c9 5c3c 531d 18be
00000100: ee7c 49bf f94e debb 2fc3 79be dd42 7cbc
00000110: 4893 35bb 3ef5 5639 5148 743e 4ba6 ecba
00000120: 369a 1cbe 8cfd c2bd 4df7 e13c e059 a3bb
00000130: 8066 b8be f659 e9bf e6d6 0c3d 195c 213d
00000140: de3c 1f3a ce0f c93a 4b65 873c 393d 783f
00000150: 3be9 08be 9268 073d ab68 dab6 373d ebbc
00000160: e2cd 0f3e 96d4 16bf e090 a33c 17da a83e
00000170: 16b6 c33a 38aa 753d cbdc 033b cf0b 4a3c
00000180: cb63 7d3d ac9a 063b b873 c63a 3635 52ba
00000190: cd33 1c3d 9c59 a8bd 1166 0fbd d1fe 9a3b
000001a0: aee2 50bb 19b8 92be 337c 27be a889 fc3c
000001b0: 8266 c9bd 2217 f33c c7f3 96bd e0b5 29be
000001c0: 2a6e a03a c16f eb3d 608b 033d 4198 8fbd
000001d0: cf69 793d adfc ccbc ac48 7b3d 4268 343b
000001e0: 19cb c33d 973d dcba e29e cc3d a20d cd3d
000001f0: a0ee 213e b121 0dbf 7ccc a9ba 2103 1d3e
00000200: 0208 5e3a 9de1 f2bd 532f 153d d354 2e3f
00000210: 0e21 0fbd 7a93 ac3d bee9 bebd 0d79 8fba
00000220: cc4c 473b c988 93be ee44 c33d 87cd 19bb
00000230: 1a38 b5be 70b5 753e f3c0 b13e 0990 9b3d
00000240: eb7b fabc 386f 8a3e 4e4f f0bc 832e 443e
00000250: b201 d5bf e44c be3e 23f8 13bd b058 3dbe
00000260: 7d4d 893d 9df7 16bf 4a20 e0bd 2c86 80be
00000270: aa6b 4abe 9203 92bf b5f3 173b 76f4 ed3d
00000280: 1c6e a2bb 3208 fabb 3d7e 53bd a7e3 1bbd
00000290: 2fc7 263b f6c4 23bd 770b bfbe 5139 0ebf
000002a0: feda 283b a888 23bd 4d0a 18bf 1a20 edbd
000002b0: a7c0 7abd 69da 3d3d eabd 9e3d 7b0d 043e
000002c0: 331c 053d a104 8e3e f765 533d 022f 01bd
000002d0: 3cdb 4c3e 1e39 b6bc ae72 2cbd c5e8 83bd
000002e0: eb00 1dbd 3074 27ba fa36 a0be d8a3 fd3a
000002f0: 1ce5 fd3e df7b ccbd 7b98 6e3d cb58 19bf
00000300: f68a ffbe f6fe d83d d957 a93b c0b2 8ebf
00000310: 1cb8 f2bd 7b64 b2be a8bd 06bf 5da4 1939
00000320: fa90 afbb e14d 1d3b 16af 863d 9230 213e
00000330: 0ecc a8bd 760a 1d3b 4f9b 72bf bcc3 443d
00000340: b895 c43e fcb1 e7ba 3bd9 f63c e2de 4f3d
00000350: 4117 8cbb ff6e a3bd 9761 723e 5bf8 89bc
00000360: 6746 eebd 2757 f93d 79e9 ea3a 3f45 5a3d
00000370: 213c 863e 4b8a babe 9e97 433d 4060 9fbe
00000380: 32b0 b83b 6eb0 243e d0ac 8f3d 2fba 803d
00000390: 7734 e73c 3879 f53d 4caf d93d b901 393a
000003a0: 360d f1bc 14dd 48bd bc96 e33a b0fb 813c
000003b0: eab8 3b3f cc9e 69bc 6a13 73be 0c39 343d
000003c0: 109e ab3d 124f 89be b752 413d f66f 69bd
000003d0: 907c d53d 79d4 aeba 17b9 5ebe f3ad 393c
000003e0: 1481 ddbc 00f8 48bd 2ab8 073b 3ad4 f6bd
000003f0: b3ff ce3d ed38 c7bd b55e 5dbf d567 40bc
