TD3/models/reward_s9e-3_a4e-2_t(-0.7_0.06)_safe(5, 0.16).pth (torch, 275287 bytes, 5 tensors)

fc1.weight f4 [256, 8]
000000 6f c1 09 be 74 9e ff 3e a0 09 46 3e 3b 83 2f 3e
       -0.13452695 0.49925578 0.19339609 0.17139904
000010 b4 cc 8d be 98 58 ab bd 22 69 aa 3e 18 00 63 3e
       -0.2769524 -0.08366507 0.33283335 0.22168005
000020 bf 00 20 3c ff cc 6c 3c bb 3d 3c 3d dd 96 b6 be
       0.009765803 0.014453172 0.04595731 -0.35661975
000030 f4 26 16 3e 85 98 13 3e cc 8c 17 3f 35 4b e2 3c
       0.14663297 0.1441365 0.59199214 0.027623752
000040 6f e6 90 3d dd 12 78 3e 72 20 65 3d 43 86 8a be
       0.07075202 0.24225946 0.055939145 -0.2705556
000050 d2 05 78 3e 44 bf 4a be 8b 42 96 3d 12 53 09 bd
       0.2422097 -0.19799525 0.07336911 -0.033526488
000060 00 00 f9 bc 73 91 af be 4c 5d b8 be 29 c9 93 3e
       -0.030395508 -0.34290656 -0.3600868 0.2886441
000070 23 6c 25 be 41 1d 50 bd 66 42 a5 3e 7b 25 78 3d
       -0.16154532 -0.05080915 0.3227722 0.06058262
000080 ff 06 e7 3e b9 da 86 be 32 17 d1 3d 83 0d 89 be
       0.45122525 -0.26338747 0.10209502 -0.2676812
000090 fb 79 b2 bd 56 f8 65 be f6 8c 40 3e 55 17 2c 3e
       -0.08714672 -0.22458014 0.18803772 0.16805775
0000a0 72 a1 e9 bc 9b 72 7f 3e ff 0f 83 3e 37 38 80 3e
       -0.028519366 0.24946062 0.25598142 0.2504289
0000b0 6f ad 1d 3b 30 df 5f be 9e fb 2d 3e f4 73 f9 3c
       0.0024059673 -0.21862483 0.16990516 0.030450799
0000c0 ef 64 81 3e d2 a0 c8 3e e0 e3 ed be 2b bb bf 3e
       0.2527232 0.39185196 -0.46462917 0.37447485
0000d0 25 8d 2f be 18 9f 0b 3e da c7 1c 3f 72 9e 17 3e
       -0.17143686 0.13634908 0.6124245 0.14806536
0000e0 09 26 11 be bb 55 88 bd 1c 88 3b 3e f4 71 ba 3e
       -0.14174666 -0.06656977 0.1831364 0.36415064
0000f0 cc ac 1a 3d fa d4 88 3e d7 d4 34 bf 37 96 d7 3c
       0.03776245 0.26724988 -0.7063727 0.026316745
000100 97 2e 9f 3e a3 51 1b 3f 43 d9 97 3d a9 97 df 3e
       0.31090233 0.6067144 0.07414486 0.43670395
000110 77 ca db bc 33 70 49 be 47 2a 33 3e d5 da c5 3d
       -0.026829941 -0.19671707 0.17496596 0.096608795
000120 da cd a5 bd 2c 9f c2 be f5 d0 37 be e4 e6 ce be
       -0.08095904 -0.38012064 -0.17950805 -0.4041053
000130 51 ee f0 bd d4 dd 21 3d 41 a2 7c bf 2b de eb bb
       -0.11764205 0.039518192 -0.9868508 -0.0071981153
000140 05 58 b8 3e 21 ed 9e 3e 5c 3a 54 3e ac 49 b0 be
       0.36004654 0.3104029 0.20725387 -0.34431207
000150 07 56 d8 3e 23 29 82 bd 68 c3 cd be 4b ba 1d 3d
       0.42253134 -0.063555025 -0.40188146 0.03850774
000160 cc c2 76 3b cb 3f 1a be 80 0b 82 be 52 10 3f be
       0.003765273 -0.15063398 -0.253994 -0.1865857
000170 b2 4b 99 bd 1f c2 46 bd a8 a6 f4 bc f4 4b 87 be
       -0.07485141 -0.048524972 -0.029864624 -0.26425135
000180 a4 61 c1 3d a9 68 9c be 86 85 ab 3e 89 84 b3 3e
       0.094424516 -0.305486 0.33500308 0.35062054
000190 bc 26 55 3e b7 b3 71 3e c9 fe 50 bf 73 8b 83 3e
       0.20815557 0.23603712 -0.8163877 0.2569233
0001a0 5e d7 ee 3d 69 a3 eb bd 1e a4 44 be a7 89 23 3f
       0.11662172 -0.115057774 -0.1920323 0.63881916
0001b0 26 40 85 3c 45 64 92 be 57 26 15 be 9d f9 96 3e
       0.01626594 -0.28592125 -0.14565407 0.29487315
0001c0 20 ab 34 3e 2f b7 42 3d 81 10 98 be 5f 7e aa be
       0.17643404 0.04753798 -0.2970009 -0.33299538
0001d0 18 af 18 be ff 6d b1 be 6b 41 8d 3e a6 38 7e be
       -0.14910543 -0.34654233 0.27588972 -0.24826297
0001e0 c4 d9 28 be 49 b2 b5 be 2e 3d 58 3d d9 b6 ab 3d
       -0.16489321 -0.35487583 0.05279272 0.08384485
0001f0 bd 4f c7 bc 9a 07 28 be 0c 79 8d 3e c5 24 8a bd
       -0.024330014 -0.1640915 0.27631414 -0.067452945
000200 6c 79 9b 3e ae 09 d0 3e 86 77 11 be f2 ae 0b be
       0.30366075 0.40632385 -0.14205751 -0.13640955
000210 cf 0c 98 be 4a 21 a5 3e 1c 5e 04 3f 22 eb 23 3d
       -0.29697272 0.3225196 0.517061 0.040019162
000220 19 bb be bd f2 ae 30 be f7 5d 9b 3e 15 60 b4 be
       -0.0931303 -0.17254236 0.30345127 -0.35229555
000230 83 1c e3 3d 5d e7 29 3e c1 26 88 be 1a 25 c7 be
       0.110894226 0.16592164 -0.26592067 -0.38895494
000240 d5 74 43 3e 7b 9e f4 3d 79 8c ac bd 6b 8c 28 be
       0.19087537 0.1194429 -0.084252305 -0.16459815
000250 d2 ca 84 bd fe 8a 7c bd 81 a5 92 3e 96 61 5c be
       -0.064839974 -0.06165599 0.28641894 -0.21521601
000260 3b b2 83 3e 7a f6 e5 bd bc 74 95 3d 05 01 cf bd
       0.25721917 -0.11228652 0.07297656 -0.10107616
000270 9e f2 19 be 5a dc 0e 3d e9 ca 73 3d 40 1c ab 3e
       -0.15033957 0.034878112 0.059519682 0.3341999
000280 89 b1 9e be 40 d9 bb be d6 3b 27 3e 68 a4 da bb
       -0.30994824 -0.36689186 0.1633142 -0.006672431
000290 16 e7 16 3e b8 2d 20 3e c0 6c 2c bf 97 e6 82 bd
       0.1473659 0.1564244 -0.6735344 -0.06391638
0002a0 ae b6 ab be 54 83 9f 3e dd b9 f8 3d 73 4b e9 3d
       -0.3353781 0.31154883 0.121448256 0.11391344
0002b0 c7 07 b2 bd 78 2e 8a 3e 1f 24 74 bf f6 49 8b be
       -0.0869289 0.26988578 -0.95367616 -0.27204865
0002c0 2d cd 2f be e0 13 42 3d fe 5b 24 bd 43 b8 92 be
       -0.17168112 0.047382236 -0.040126793 -0.28656206
0002d0 c5 cc 84 3e 97 34 8f be 37 95 34 3d e0 23 9c 3d
       0.25937477 -0.2796981 0.044087615 0.0762403
0002e0 26 94 b0 3e b4 67 9e be a8 68 dc be 87 b6 38 3e
       0.34488028 -0.30938494 -0.43048596 0.18038379
0002f0 d3 ee 04 be 43 8d ac 3d 92 29 ff 3e 3a 85 d9 3b
       -0.12981729 0.08425381 0.49836403 0.0066381963
000300 05 94 d3 3d d6 72 2b be 24 e9 e4 be 31 03 d7 3e
       0.10330967 -0.16743025 -0.44709122 0.41994622
000310 b4 64 b5 be 2f bb 20 3d 67 4d 19 3f be f1 51 3e
       -0.35428393 0.039241012 0.5988373 0.20502374
000320 33 4b 98 3e ea b8 bc bd 7e a2 00 bd f8 45 d9 bd
       0.29744872 -0.09214957 -0.031404965 -0.106090486
000330 44 0f 25 be 3d 3a d4 bd 63 46 95 3e b1 92 b3 be
       -0.16119105 -0.103626706 0.29155263 -0.35072854
000340 a1 31 b8 be 88 2b 76 bd 37 a0 54 be 3e ff de bd
       -0.35975364 -0.06010011 -0.20764242 -0.10888527
000350 ca 77 0b 3d 56 73 0c 3d 59 07 57 bf 89 10 e2 3d
       0.034049787 0.03428968 -0.83995587 0.1103831
000360 73 72 de 3e a9 35 be bd 15 bb 1f be 3f d1 36 3e
       0.43446693 -0.092875786 -0.1559871 0.17853259
000370 84 35 a0 3d a1 ea c8 bd cf 85 de bd 64 76 28 bc
       0.07822707 -0.09810377 -0.10865366 -0.010282133
000380 54 32 48 3d 29 0e db 3d e9 3d 45 be 3c f2 dd bd
       0.04887612 0.1069606 -0.19261898 -0.10837218
000390 6d de 60 3c 0d 8e 81 be 6a 42 17 be 7d 59 62 3e
       0.013724905 -0.2530369 -0.14771429 0.2210445
0003a0 f1 82 09 3e 56 f4 cd be 21 80 09 3d 31 7d aa bd
       0.13428856 -0.40225476 0.03356946 -0.083246596
0003b0 37 65 1a be 66 ae ab 3e 9d ef 53 bf 39 1a a8 be
       -0.15077673 0.33531493 -0.82787496 -0.32832506
0003c0 8f 45 a7 3e 5a e4 eb be c8 88 9d be bc 2a eb 3d
       0.32670256 -0.46072656 -0.30768418 0.1148276
0003d0 a8 ae 82 3e 7d e1 13 be 3e 8a 0f be 05 f9 81 3c
       0.25523877 -0.14441486 -0.14017579 0.015865812
0003e0 ce ef be 3e 3f 7c 45 be 8f be 9f 3d 58 68 3e 3e
       0.3729233 -0.19285677 0.07800018 0.18594491
0003f0 9b 3f 05 3e 30 7f 29 be 06 a7 9c be 61 5e 7a 3d
       0.13012545 -0.16552424 -0.3059618 0.061125163

fc1.bias f4 [256]
000000 ba ff 9d 3e 98 6d 9b be 2a ff 1d 3e c6 fc 97 be
       0.30859166 -0.3035705 0.15429369 -0.29685038
000010 ee 03 68 be f2 73 c2 3e e6 b2 00 3d 9e 42 cd 3e
       -0.22657749 0.37979084 0.03142061 0.40089887
000020 db 9f 1c be 49 61 da 3e e3 5d b5 be 3e 23 83 be
       -0.15295355 0.42652348 -0.35423192 -0.25612825
000030 78 18 88 be 36 e4 f5 be 9f c3 75 be ed de 89 be
       -0.26581168 -0.48025674 -0.24000405 -0.2692789
000040 ad 2a c5 be 3e 9a a9 bd bf d9 ac be d9 a2 51 3d
       -0.38509122 -0.082813725 -0.33759877 0.051180694
000050 c9 c8 3a 3d 3a 63 56 3e 3e e0 3b be d9 17 86 3d
       0.04560164 0.2093629 -0.1834726 0.06547517
000060 3f 75 99 be 31 2c 16 3e 29 9b e4 bd b5 a1 ce 3d
       -0.29972264 0.14665295 -0.11162407 0.10089437
000070 56 1d 98 3e ef c5 ba 3e c8 81 49 be 9f 9c 23 3d
       0.29709882 0.36479136 -0.19678414 0.039944287
000080 bf 17 da 3c 13 34 c4 bd 7b 31 90 bd 3b 17 db bc
       0.026622651 -0.09580245 -0.07040688 -0.026744476
000090 90 d6 56 3e f8 d8 a1 3e ac 87 8c bd 83 c1 e1 39
       0.20980287 0.31610847 -0.06861815 0.00043059522
0000a0 6e 1c b8 3e 66 d1 10 3f 55 f3 0d 3e c6 3b a9 3e
       0.3595919 0.56569517 0.13862355 0.33053416
0000b0 a3 77 a5 be fd 51 9d 3e d3 4e 0c 3e 93 f2 a2 3e
       -0.32317838 0.30726615 0.13701944 0.31825694
0000c0 50 73 7a 3e bb 1d a4 be 2a 41 9d be f6 8f 8f 3e
       0.2445805 -0.32053933 -0.3071378 0.2803952
0000d0 f8 4d e3 be a5 80 d6 3d 2d 7b 40 be 78 67 53 3e
       -0.44395423 0.10473756 -0.18796988 0.20644939
0000e0 e6 b1 95 3c 47 17 82 be 89 91 04 be 39 aa 83 3c
       0.018273305 -0.25408384 -0.12946142 0.01607238
0000f0 f3 27 ca be d0 f6 2a 3e 56 c9 93 3e 6e 74 8b 3e
       -0.39483604 0.16695714 0.28864545 0.27237266
000100 c6 d6 2e be 5e da 13 be d7 ff a3 3e 7b 32 aa 3e
       -0.17074117 -0.14438769 0.32031128 0.3324164
000110 8a c9 4e 3e a1 4e 8b 3d c2 74 94 be 6b be cc 3e
       0.20194069 0.06802107 -0.2899533 0.39989027
000120 08 9d e7 3c a6 1c b4 be 5e ff 31 3e 1f 9b 9f be
       0.02827312 -0.35178107 0.17382571 -0.31173036
000130 f7 8c f3 be 4c fe ce 3d 2a f1 a1 3b d8 3c f7 3d
       -0.47568485 0.10107097 0.004942079 0.12072152
000140 c6 ba c8 3c 79 5f 8f 3e d9 78 d9 bd 9b f4 93 3e
       0.024503123 0.28002527 -0.10618753 0.28897557
000150 77 e4 24 be 35 53 ee 3a f3 17 de bd e6 a3 d3 3e
       -0.16102777 0.0018182757 -0.10844412 0.41335982
000160 c3 32 ae be c4 25 a3 bd cd 85 80 be 2e 40 b7 3d
       -0.34023103 -0.079661876 -0.25102082 0.08947788
000170 4c 91 02 3d 3a fb 43 be 62 15 c5 be a4 dc 92 bd
       0.031876847 -0.19138804 -0.38492876 -0.0717099
000180 c9 53 9a 3e d5 a4 bd 3d 6f 80 33 bd 68 5b 6d be
       0.30142048 0.09259955 -0.043823656 -0.231794
000190 5f f4 cc bd 1c c9 0b be d5 ad b9 3e 0c 49 0e be
       -0.100075476 -0.13650936 0.36265436 -0.13895053
0001a0 8f fc b2 be 66 2f af 3e c6 93 95 be cb e3 ab be
       -0.34958312 0.3421585 -0.29214305 -0.3357223
0001b0 ae 15 8a 39 73 92 7c bc e9 e5 a0 3e 21 a5 d6 3e
       0.00026337564 -0.015415776 0.31425408 0.41922858
0001c0 7c a1 9d 3b cb 52 cc 3e 50 c9 a7 bd a7 ae 30 3e
       0.00481051 0.39906916 -0.08192694 0.17254125
0001d0 40 e7 3a 3e ca bd d7 3e 2e e2 97 3c f5 f5 8f be
       0.18252277 0.42136985 0.018540468 -0.28117338
0001e0 1a 79 9e 3e 51 65 ad 3e d2 4e 3f 3e 38 dd 9c 3e
       0.30951768 0.3386636 0.18682411 0.30637527
0001f0 4e e0 46 3e b0 05 89 bd 6e a4 aa be e3 e5 27 bc
       0.19421503 -0.06690538 -0.33328575 -0.01024768
000200 b7 1d 88 be 59 4c 24 be 6b 2c df bb fb 5a 39 3e
       -0.2658517 -0.1604475 -0.006810715 0.18101113
000210 fc a8 c0 3e 15 3a b2 be 65 a2 b6 3e 53 5f 8c be
       0.37628925 -0.34809938 0.35670772 -0.27416477
000220 1f 07 1d 3e ce 9d 1d 3e dc 44 42 3e 54 d4 65 3d
       0.15334748 0.15392229 0.1897158 0.056110695
000230 21 58 e7 3d f1 24 a7 3c 2e 35 7e 3e a8 b5 8a 3e
       0.11296106 0.020403357 0.24824974 0.27091718
000240 74 94 85 bd a2 16 f2 bd c1 2f bf be 4f 8e 54 3e
       -0.06522456 -0.11820723 -0.3734112 0.20757411
000250 89 ca cb 3d cc 26 9e 3e 02 67 4d bd c0 8a 54 3e
       0.0995074 0.30888975 -0.050147064 0.20756054
000260 1e 23 99 3e c4 5f b4 bd 8c 01 d9 bb 1a ad 6c 3e
       0.29909605 -0.08807328 -0.006622499 0.23112908
000270 e2 ca 0f 3e 36 ff 2b be 0f 80 1f 3e 4b df 7f 3e
       0.14042237 -0.16796574 0.15576194 0.24987523
000280 0b 39 62 3c 0a fd 80 be b2 06 0c 3f a8 16 e5 3e
       0.013807545 -0.25193053 0.54697716 0.44743848
000290 15 59 ca 3e 33 bd db 3e 77 5d c4 bd cf a4 7c 3d
       0.3952109 0.42917785 -0.095881395 0.06168061
0002a0 1b e0 6e bd 1a f1 ad 3e 37 0c 85 3e 0c e5 02 be
       -0.058319192 0.33973008 0.25985882 -0.12782687
0002b0 a3 13 54 bd 52 74 8c 3d 24 b6 0b 3f fb db 66 be
       -0.05177654 0.06858124 0.545748 -0.22544853
0002c0 7d 69 a2 3e 00 0d 8d be 8b f6 e0 3b 68 c2 97 3e
       0.31721106 -0.2754898 0.0068653277 0.29640508
0002d0 06 19 49 be a8 9c 82 3e cb 28 96 be 4a 81 9d bd
       -0.19638452 0.25510144 -0.29327998 -0.076906756
0002e0 c4 7a 98 be d5 ad 78 3d 80 02 45 bd 08 55 e3 3e
       -0.29781163 0.060712654 -0.048098087 0.4440081
0002f0 3d 18 8c ba 0a 8a 88 be 55 ef 42 be 32 8d a5 3e
       -0.0010688376 -0.26667815 -0.1903661 0.32334286
000300 c4 c2 c8 bc 90 8e db 3b 27 f9 cc be 0d 10 0b 3e
       -0.024506934 0.0067003444 -0.40033838 0.13580342
000310 b4 a3 ca 3d a4 5f 34 be ce d7 a5 be 26 34 0b be
       0.09894505 -0.17614609 -0.32391208 -0.13594112
000320 1e cf c1 3e f5 d4 5c 3b e0 90 b1 3d 45 ee 78 3d
       0.3785333 0.0033696268 0.08670211 0.060774107
000330 64 e8 ce 3d 7e 78 73 be 27 e1 e3 3e 3f b8 e5 3d
       0.10102919 -0.23776433 0.44507715 0.11216783
000340 90 36 7e 3e 20 f2 73 3d ff e6 1b be db fc 88 bc
       0.24825501 0.05955708 -0.15224837 -0.016722133
000350 cc 53 80 3e 09 e8 89 be dd f4 c7 bc b5 41 74 3d
       0.25063932 -0.2693484 -0.024408752 0.059632976
000360 24 09 d9 be 6f 35 be be 5e 05 6e be d4 7f 96 be
       -0.42389786 -0.37150142 -0.23244235 -0.293944
000370 fb 9a 9b 3d a5 f0 9e be 93 b7 b8 be b2 f4 a2 be
       0.075979196 -0.31042972 -0.36077556 -0.31827313
000380 a7 99 e3 be 1d ff 05 3e b4 2f f0 3e ee 88 90 be
       -0.44453165 0.13085599 0.46911395 -0.2822947
000390 61 9f 17 be 2d 99 22 be 8a 18 74 3e fa dc b0 3e
       -0.14806892 -0.15878744 0.23837486 0.34543592
0003a0 9a 2d ed bd c0 ec b8 3e 3a c1 77 3e ce c1 c5 be
       -0.115809634 0.36118126 0.24194804 -0.38624424
0003b0 76 57 cd 3d da d4 8c 3d 77 62 bb be 7d 91 cc be
       0.100264475 0.06876536 -0.3659856 -0.3995475
0003c0 be 94 21 3e 01 d5 90 bd 12 8a 44 be 39 b3 3c be
       0.15779397 -0.07071877 -0.19193295 -0.18427743
0003d0 11 a8 e8 be ac 72 9c be 2d 2a 3c 3e 52 be 00 bd
       -0.45440724 -0.30556238 0.18375464 -0.031431504
0003e0 07 16 b9 3e 6c 49 51 be 44 4c 55 3e 3b 8f 9a 3d
       0.36149618 -0.20438164 0.20829874 0.0754685
0003f0 dc 71 4b be c7 8d 9f 3e 7b 3b 8c 3e 7a 20 ca bd
       -0.19867653 0.31162855 0.2738913 -0.09869476

fc2.weight f4 [256, 256]
000000 ac ed 64 3d 35 50 31 3d 14 8e cb bb c9 29 09 3d
       0.055890724 0.043289382 -0.0062120054 0.033487115
000010 bc 57 96 ba 55 2d b4 3d 70 cf b2 bd 19 18 3c bd
       -0.0011470239 0.08797709 -0.08730972 -0.04592142
000020 e3 b0 9c 3b f9 1e b8 3c 59 e6 61 3d f0 91 68 bd
       0.0047818287 0.022475706 0.055151317 -0.0567798
000030 ba e7 5c 3d 14 ea 87 3d 8c d2 c5 3c c5 38 56 3d
       0.05393193 0.06636444 0.024148248 0.052300233
000040 44 4c ff 3c 8f be 8c bc bc 9d 26 3d 9f 46 18 bd
       0.031164296 -0.01718071 0.04067777 -0.037176725
000050 2a e7 79 bc 36 99 c1 bc ed bf 10 bd 44 e0 01 bd
       -0.015252868 -0.023632627 -0.035339285 -0.031708017
000060 13 70 7e 3d a0 60 0e bb 38 14 90 3d 7e d2 80 3c
       0.0621186 -0.0021725073 0.070351064 0.01572537
000070 45 4c d3 bc 61 83 89 3d 21 d8 3a 3c 26 98 1b 3d
       -0.025793204 0.06714512 0.011404068 0.037986897
000080 58 c2 1b bd 59 17 4f 3d 35 f0 c1 bc 19 53 d0 bc
       -0.038027138 0.050559375 -0.02367411 -0.025430249
000090 b2 12 83 bc 81 6d 4f bd 80 50 52 3d e6 7f 08 3c
       -0.016000126 -0.05064154 0.051346302 0.008331275
0000a0 07 3e 35 3c ff fe c7 3c f0 bd a4 bc 10 a5 a6 bc
       0.011062152 0.024413584 -0.0201101 -0.02034238
0000b0 96 ea be bc f5 31 d8 3c 6c 52 92 bc 37 97 07 bd
       -0.023305219 0.026391009 -0.017861567 -0.033103194
0000c0 8f f0 f7 bc b0 55 92 3c b2 04 c7 bc ca 96 70 bd
       -0.030266074 0.017863125 -0.024294231 -0.058737554
0000d0 7e 01 05 3c 1f 2b 3b bc 8c 0c 5f bd eb 06 c4 bc
       0.008118032 -0.011423855 -0.054455325 -0.02392908
0000e0 ad c0 25 bd 10 db 18 3d e1 5c c7 3c 26 91 55 bd
       -0.040466953 0.03731829 0.02433628 -0.052140377
0000f0 12 0c 9f 3b 60 3d 36 bd be 91 97 bc 11 6e 5c 3d
       0.004853734 -0.044492126 -0.018502112 0.053815905
000100 d5 03 cf bb ef 12 5b bd d9 bd 36 3c 64 88 43 3d
       -0.0063175955 -0.053484853 0.011153662 0.047737494
000110 f7 68 87 bd 40 1c 7a 3d d3 38 f3 bc 61 a9 8f 3c
       -0.06611817 0.061062098 -0.029690182 0.01753682
000120 dc 96 f4 3c b8 12 70 bd 7a 2d 3b 3d 90 e3 86 3d
       0.029857092 -0.0586116 0.045697667 0.06586373
000130 36 54 2d 3d 7b b8 60 bd df 6c 0d bd f7 92 af bc
       0.042316638 -0.054863434 -0.034527656 -0.021432383
000140 86 74 27 bd 89 68 62 ba b9 6c 8f 3d 5b d3 02 bd
       -0.04088261 -0.0008636793 0.07003159 -0.031939846
000150 7b 3a 57 3d 1a 0f 38 bd 39 b7 15 3d e2 b4 4a 3c
       0.052546006 -0.044936277 0.036551688 0.012372227
000160 7d d8 ae bc b8 b4 03 bd 6e 1d 4b 3d 68 de 4a bd
       -0.021343464 -0.03215477 0.049588613 -0.04952851
000170 a7 cf 3b 3d 98 d6 36 3d b3 ad 4c bd 1e 8c 88 bd
       0.04585233 0.044638246 -0.04997034 -0.0666735
000180 9d 14 19 3d be 06 b2 3c 67 8d 57 bd 97 f5 c0 3b
       0.037373174 0.02173173 -0.052625086 0.0058886516
000190 92 89 00 bd b1 b0 2c bc 2c 4c 03 bd f7 01 1f bd
       -0.031381197 -0.010540173 -0.032055065 -0.038820233
0001a0 19 1a 99 3c 86 67 6f 3d e0 68 03 bd 80 46 8d 3d
       0.018689202 0.058448337 -0.03208244 0.068982124
0001b0 48 18 15 bd eb 19 99 3d 7b e4 17 bd f6 9a 9d bc
       -0.03640011 0.074756466 -0.03708313 -0.01923893
0001c0 8d 21 0c 3d 0b 0e d2 bc f0 9b 2f bd 05 80 49 bd
       0.034211684 -0.025641462 -0.042873323 -0.049194355
0001d0 98 ca 14 3d b7 0b 44 3d 0c cb 39 bd 1a 45 0c bd
       0.03632602 0.047862735 -0.045359656 -0.034245588
0001e0 94 11 4c 3d 48 d9 b8 bc ee 87 30 3d 73 54 a8 3d
       0.04982145 -0.022564545 0.043098383 0.082192324
0001f0 a5 01 11 bd 60 dd b1 bc 5d 1d e1 3c c7 b5 a8 3c
       -0.03540196 -0.021712005 0.027479822 0.02059449
000200 9f e0 42 bc a3 4c 82 bd ff aa 08 3d 82 81 aa ba
       -0.011894374 -0.063622735 0.0333662 -0.0013008567
000210 98 fb 8b bc e7 1b f4 3c ec 4b 88 bd 67 20 0e bd
       -0.017087743 0.029798461 -0.06655106 -0.03469887
000220 f6 c7 16 3d 69 55 7b bb 93 66 8d bc 93 fd 55 bd
       0.03681179 -0.003835047 -0.017260825 -0.05224378
000230 f0 df 09 bd e5 a6 05 3d a8 4e ae bc 52 dc 3b 3d
       -0.03366083 0.032629866 -0.02127774 0.04586441
000240 5e 65 30 3d b1 a1 a0 3c 38 1c 19 3d 10 eb 4d bc
       0.04306542 0.01960835 0.037380427 -0.01256825
000250 fc 95 47 bd cb ef 8a 3c 49 fb 3a 3d 3a 24 9e 3d
       -0.04872702 0.016960045 0.0456498 0.077217534
000260 02 a4 b2 3d 30 44 02 bc 09 8e 79 3c 32 6a d2 3c
       0.08722688 -0.0079508275 0.015231618 0.025685403
000270 93 e6 55 3d ac 46 64 bc 37 23 6d bc 5d 27 5b 3d
       0.052221846 -0.013932865 -0.014473728 0.053504337
000280 d3 94 80 3a 32 44 3f bc bc df 18 bd 25 c3 63 ba
       0.0009809978 -0.011673974 -0.037322745 -0.00086884416
000290 d0 c9 02 bc 6d 7d 5f bd 2e 3f 85 3d f1 be a0 3c
       -0.007982686 -0.054562975 0.06506191 0.019622298
0002a0 ce 74 c4 bc dc 1a b2 3c 58 cc 95 3c 9f 38 80 bd
       -0.023981478 0.021741323 0.018285915 -0.062607996
0002b0 5c 8d 87 3d f3 4b 0e 3d 10 03 84 3c f9 47 ad bc
       0.06618759 0.0347404 0.016114742 -0.021152483
0002c0 a8 dd 62 bd 7f b2 88 3c 68 35 c7 3c f5 e8 19 bd
       -0.05538717 0.016686676 0.024317458 -0.03757568
0002d0 f1 9d 90 3c 93 16 5f 3d 93 e7 88 bc 71 9a 93 3c
       0.017653437 0.054464888 -0.016711986 0.01801798
0002e0 99 02 02 bc be bb 57 bd 1c 8e fc bc c0 12 c4 bc
       -0.00793519 -0.05266928 -0.030829482 -0.023934722
0002f0 ce 0c 0d 3d 94 18 4c 3d 79 e9 51 bd a9 84 ac bc
       0.03443604 0.049828127 -0.051248048 -0.021059351
000300 f0 4e f6 3c e3 60 0e 3d 97 f9 52 bc 1d e0 43 bd
       0.030066937 0.034760367 -0.01287689 -0.047821153
000310 ad 89 bd bc 89 dd c9 3c 82 33 2c 3c 07 33 eb 3c
       -0.023136938 0.024641769 0.010510327 0.028710855
000320 ee 44 05 3b 89 7d 0b 3c cf b9 66 3d ee 22 a3 3c
       0.0020335275 0.008513817 0.056329545 0.019914117
000330 ae 4b 61 bd 13 e9 5e bc a1 b6 a2 3c 97 82 d2 39
       -0.055003814 -0.013605374 0.019862475 0.00040151618
000340 fb dd aa 3c 26 8c 74 bd ec 75 0e 3d c1 c8 0e 3d
       0.020857802 -0.05970397 0.034780428 0.034859423
000350 c2 03 5d 3c d2 3e 46 3d 0d 88 46 bd 72 c9 ab 3c
       0.013489665 0.048399754 -0.048469592 0.02097008
000360 16 2a 8f ba ad 68 2f 3d 16 9c 7b bc a4 32 aa bb
       -0.0010922577 0.042824436 -0.015357038 -0.005194025
000370 b5 d2 82 3c 0b e0 c3 3a a6 ed 83 3d fe 58 98 bb
       0.015969614 0.0014944089 0.06441812 -0.0046492806
000380 c5 40 76 3c e5 58 b6 bc 03 aa 85 3d 94 7a 5e bd
       0.015030091 -0.022259185 0.06526568 -0.05431612
000390 5e ca 7e bd 34 34 14 3c 82 af 4e bd 64 a5 0b bd
       -0.06220471 0.009045649 -0.050460346 -0.034093276
0003a0 06 84 b5 3a bf 58 b5 3c 64 e1 b1 bc c2 06 29 bc
       0.001384855 0.022137044 -0.02171392 -0.010316553
0003b0 ee d4 a6 bc f2 e9 8e 3d fe e6 12 3c 50 e1 72 3d
       -0.020365205 0.06978215 0.008966206 0.059296906
0003c0 c9 c6 58 3d b9 f1 66 bd f7 b5 67 bd 2e 48 a5 3b
       0.05292395 -0.05638287 -0.05657002 0.005044005
0003d0 bb ad f0 3c 60 93 7b 3c c0 b2 a7 bb 81 3c b2 3b
       0.029379716 0.015354961 -0.005117744 0.0054393415
0003e0 10 df 34 bc 24 8c fd 3c 50 fa 49 3c f5 55 af bc
       -0.01103951 0.030950613 0.012327746 -0.021403292
0003f0 f4 b7 e1 bc b9 98 30 3d d1 32 58 3c a4 e2 bf 3c
       -0.027553536 0.043114398 0.013195709 0.0234235

fc2.bias f4 [256]
000000 30 f1 4a 3d c2 48 13 3d 81 01 c6 3b 7f 44 e6 3c
       0.04954642 0.03595806 0.0060426597 0.028108833
000010 9f 25 ed 3c 05 1f ae 3d 79 82 4c 3d 39 bf 16 bd
       0.028948603 0.0850201 0.049929116 -0.036803458
000020 b5 9e 10 3d 8f 3d 28 bd d6 47 c7 bc 93 9c bb bc
       0.035307605 -0.04107433 -0.024326246 -0.022901809
000030 df 50 2e 3d 60 f8 37 bd 7a 61 96 3d f9 38 4c 3d
       0.042557593 -0.044914603 0.07342811 0.04985902
000040 e4 6b 79 3d a7 dd 5c 3d b2 d6 6c bc 0e 24 ff bc
       0.06089391 0.05392232 -0.014455484 -0.031145122
000050 5c a9 1b bd 8b e0 17 bd eb 89 ae 3c b2 35 ef bc
       -0.03800331 -0.037079375 0.021305999 -0.029200409
000060 24 0e 23 3d d7 03 18 3d 0d 63 8b bc 10 48 c1 bb
       0.039808407 0.037113037 -0.017015005 -0.005898483
000070 c6 04 68 bd 09 74 42 bd d1 b7 1a 3d dd 83 a5 3d
       -0.056645177 -0.04747394 0.037772957 0.080817915
000080 52 c1 87 3d 8b e2 df 3b d5 22 c3 bb 69 49 13 3e
       0.0662867 0.006832426 -0.00595508 0.14383473
000090 90 91 31 bd 6f 37 37 3c 9d 8a c9 3d 05 68 41 bc
       -0.04335171 0.01118265 0.098408915 -0.011804585
0000a0 07 86 da b9 2f d3 30 b8 64 54 cd bc 26 64 bc 3c
       -0.00041680058 -4.215835e-05 -0.025064655 0.022996973
0000b0 9d b8 bd 3a 31 67 95 3d 7e d0 27 bd d3 b8 4e 3d
       0.0014474575 0.07295073 -0.040970318 0.05046923
0000c0 ed 1d f9 3c f8 40 8f 3d a3 9c 91 3d 7a 7c 09 3c
       0.030409778 0.06994814 0.07109954 0.008391494
0000d0 8e 4d 32 bc 8e 80 94 bc 2e cd 4e 3d 49 3b ad 3b
       -0.010882748 -0.018127706 0.050488643 0.0052866084
0000e0 b6 e0 d7 3d ae a2 77 3d 21 d8 07 be a0 8d 5a bc
       0.10540907 0.060457878 -0.1326604 -0.01333943
0000f0 ad 4f 04 3d e2 0c 31 3d 95 da 0e bd ed 4b 71 3d
       0.032302547 0.043225177 -0.034876425 0.0589103
000100 cf 2c be 3c 78 7f 39 bd 55 84 a2 bc f0 dd 27 bd
       0.023214726 -0.04528758 -0.019838491 -0.04098314
000110 c1 fa c2 3c e0 cb 46 bb 20 07 32 3c 5d f6 f2 bc
       0.02380121 -0.0030333921 0.010865957 -0.02965849
000120 2c 7e cf 3c 6f d7 4d 3d f4 2c 65 bc 7a 31 63 3d
       0.025328718 0.05025428 -0.013987768 0.055467106
000130 2c 5e 76 3d 87 68 d5 3c 5c e0 49 3d ae bf 51 3d
       0.060148403 0.02605082 0.04928623 0.05120819
000140 8f 67 b4 3c 25 0a 7d bd 09 a5 8e bc c2 db 3c bc
       0.022022037 -0.061777253 -0.01741268 -0.011527004
000150 58 c2 43 3c 75 70 70 bb b6 4a a2 3d 54 72 26 bd
       0.011948191 -0.0036688123 0.07924406 -0.040636376
000160 3a 4b 94 3d 7f f9 63 bb 1f e4 c4 bc 06 66 2b bd
       0.07240911 -0.0034786162 -0.024034558 -0.041845344
000170 d8 22 5c 3c 91 32 ab bc c6 f7 54 3d b6 45 99 3d
       0.013436042 -0.020898135 0.051994108 0.074839994
000180 85 f8 a0 bc e6 ed 29 bd c2 6c 84 bc 63 26 f0 bd
       -0.019649753 -0.041486643 -0.016165141 -0.11726072
000190 2b d4 58 bd 9f 9f 4b 3c 1e 26 8f 3c 62 05 f4 bc
       -0.052936714 0.012428193 0.01747423 -0.029787723
0001a0 5a 1f d7 3d d8 ce eb bc 29 ab 0a bd 21 b8 ea 3b
       0.10504027 -0.028785154 -0.033854637 0.007163063
0001b0 34 c4 f9 3c 65 62 97 bc 9e dd f9 bd 66 da c3 3c
       0.030489065 -0.018479535 -0.12200473 0.023907851
0001c0 e2 15 31 3d 3d d8 db bc fd 73 92 3c be 10 ac 3d
       0.04323376 -0.026836509 0.017877573 0.08401631
0001d0 d7 a8 c3 3b fc 4e 93 3d 9b dc ea bd 37 2f 30 bc
       0.005971055 0.071927994 -0.114678584 -0.010753444
0001e0 76 41 8d 3d 69 05 42 3d 37 df 88 3d 73 67 a3 3d
       0.06897251 0.04736844 0.066832 0.07978716
0001f0 fa 73 64 3e 9f 0b f3 bb 64 63 75 3d d7 cf 48 3d
       0.22309867 -0.007417157 0.05990924 0.049026337
000200 e9 e3 dc 3c da 50 59 3d 1a 53 55 bd 05 9f 85 3d
       0.026964145 0.05305562 -0.052081205 0.06524471
000210 73 df 1f bd a2 e7 f1 bc c3 7f fd 3d 43 16 80 3d
       -0.039031457 -0.029529396 0.12377884 0.06254246
000220 c8 13 30 3a cb ba 55 3b 11 72 28 3d b3 0c 66 bd
       0.0006716815 0.0032612558 0.041124407 -0.056164455
000230 4d e1 ad 3c b2 ba 97 3d 67 55 fd bb 70 83 99 3c
       0.021225596 0.07408656 -0.007731128 0.018739432
000240 de 65 9e bc 02 3c 54 3d 6d ac 94 3c 77 5e 0b 3d
       -0.019335683 0.05181504 0.018148625 0.034025636
000250 82 b5 cd bd d1 0b 5d 3c 63 3b a2 3d 00 ad 3b bd
       -0.100443855 0.013491587 0.07921483 -0.045819283
000260 6e 05 99 3d ee 35 73 3d ad 51 1f 3c 34 85 12 3d
       0.07471739 0.059377603 0.009724063 0.035771564
000270 c3 3a 6b bc 39 a7 43 bd 34 16 f6 3c 31 30 10 3d
       -0.014357272 -0.047766898 0.030039884 0.03520221
000280 99 16 fb 3c ba d6 41 3d b4 93 e3 bc e3 8f 9e bb
       0.030650424 0.04732392 -0.027780391 -0.00483893
000290 97 f2 1d 3d b3 e6 60 3c 25 39 da 3c 5e 38 28 bb
       0.03856143 0.013726878 0.026638577 -0.0025668363
0002a0 a0 92 b1 3b 8a 8e ac 3d f2 87 a1 bc e0 ee 41 3b
       0.0054190904 0.08425625 -0.019718144 0.0029591843
0002b0 68 31 e7 bc 53 78 1b bd d3 99 85 bd 28 f1 10 3d
       -0.0282218 -0.037956547 -0.0652348 0.035386235
0002c0 e9 f3 4a bc 33 c7 8a 3c 75 a2 3c bd 5f 29 40 3d
       -0.012387254 0.016940689 -0.04605337 0.046914455
0002d0 9c dc b2 3d d1 59 61 bb 63 4b 98 3c 0a 69 49 3d
       0.08733484 -0.003438581 0.018590635 0.04917244
0002e0 d9 0d ec 3a 28 df 5a bd 65 59 c2 3d c2 d6 f5 3c
       0.0018009498 -0.053435475 0.09489707 0.030009631
0002f0 09 e4 93 3d 81 92 32 3d 13 7d 4e 3c 53 27 82 bc
       0.07221229 0.04359675 0.012603062 -0.015887892
000300 d2 d4 51 bd 8f 6d 08 3c 38 16 10 3d 1c 9b 09 3e
       -0.051228352 0.008326902 0.03517744 0.13438076
000310 df e6 4a 3d 40 b0 91 bc 63 61 07 3d e0 be 56 3d
       0.049536582 -0.017784238 0.03305186 0.052428126
000320 cd 46 a4 3c 7f 1a 6f bc 47 cd 2c 3d 4e c2 03 3d
       0.020053292 -0.0145937195 0.042187955 0.032167725
000330 7a 2f 36 3d 71 f2 0c 3d 30 c6 8e bb b2 aa d5 3c
       0.04447887 0.034410898 -0.004357122 0.02608237
000340 fd ad d9 bc f1 bb e4 bc 51 14 cb 3d 69 d3 32 3c
       -0.026572222 -0.027921649 0.099159844 0.010914662
000350 40 bf 6f bb 5b 97 9d ba 4c 15 80 3d bb 78 ff 3d
       -0.00365825 -0.0012023257 0.06254062 0.124741994
000360 e8 a1 87 3d e7 ac 35 3b e1 f6 88 bd 67 ee df 3c
       0.06622678 0.0027721466 -0.066877134 0.027335359
000370 79 5f 2b 3c 53 ea 49 3c 6a 85 1f 3d 6d cd 1e 3d
       0.010459774 0.012323934 0.038945593 0.038770128
000380 7b 5b 44 3d 59 b3 40 3d 8d 36 95 3d 42 6d 3b bd
       0.047938805 0.04704604 0.07285795 -0.045758493
000390 f3 44 b6 3d 8f 4b a4 3d ac 4c 12 bd cd 7c 3d bb
       0.0889987 0.08022224 -0.03571765 -0.0028913498
0003a0 c2 c4 b8 b8 41 06 76 3d 31 d9 82 3c 7c 82 4f 3c
       -8.810453e-05 0.060064558 0.015972706 0.012665387
0003b0 86 27 d3 3c 29 0f 2b 3d c8 e6 23 bd b3 b9 20 be
       0.025775682 0.041762505 -0.040015012 -0.15695839
0003c0 4b e1 36 bd 82 6d dc bb ad 6f bd 3d d8 ac c7 3c
       -0.04464845 -0.0067269215 0.09249816 0.02437441
0003d0 f8 a4 9b 3d 0d 4f 2a 3e d6 f1 03 bd 4b 94 51 3d
       0.07599825 0.16631718 -0.032213055 0.051166814
0003e0 8d b1 f8 3c b8 04 c3 bc f0 5c db bd a0 d1 9e bc
       0.0303581 -0.023805961 -0.10711086 -0.019387066
0003f0 7b f7 91 3c 7a 8c 31 3c 66 33 82 3d 80 a1 d7 bc
       0.017818203 0.010836715 0.0635746 -0.026322126

fc3.weight f4 [1, 256]
000000 cd 5d 5f bc 87 37 af 3a ad 7e 25 bc 15 15 48 bc
       -0.013633204 0.0013367989 -0.010101003 -0.012212058
000010 96 5f 5f bc 33 18 b8 3c dc 5c 94 bc e3 0a 28 bc
       -0.013633629 0.022472477 -0.018110685 -0.010256502
000020 d0 e6 1d 3c 29 78 13 bc f3 9b 28 bc 11 eb 94 bc
       0.0096375495 -0.009000816 -0.010291087 -0.018178495
000030 4f 27 12 bc 9a 60 f2 bd 92 a9 1d bc 4f 5e 8b bb
       -0.008920505 -0.118348315 -0.009622948 -0.004253186
000040 a4 f3 95 ba 03 64 e9 ba 07 a2 0b bb 5a 16 f2 bc
       -0.0011440408 -0.0017806295 -0.0021306293 -0.029551674
000050 88 23 fe bb 31 5d 36 bc 8f 03 05 bd ee fe 4b 3b
       -0.0077557005 -0.011130617 -0.032474097 0.0031127292
000060 aa 45 8a bb a3 b0 1e bc 0f 9b 35 bc d5 82 04 bb
       -0.0042197304 -0.009685668 -0.011084332 -0.0020219584
000070 71 e4 3f bb 30 11 0c bc ee 7c 22 3a e7 53 c7 3c
       -0.0029280449 -0.00854902 0.00061984255 0.024332
000080 d2 38 2c bc 42 b6 14 bc b6 74 1b bc 0f fb 0f be
       -0.010511594 -0.009076657 -0.009488275 -0.14060615
000090 2e 85 12 3d d2 9e c8 bb 80 c7 cf bd e9 ba 2f bc
       0.03577154 -0.0061224485 -0.101454735 -0.010725715
0000a0 87 55 ac 39 81 94 83 bc cc 13 84 3e 34 bb 36 bc
       0.0003287012 -0.016062023 0.25796354 -0.011153031
0000b0 83 5d b0 ba 19 69 02 bc cd de 59 ba a4 05 e4 bb
       -0.0013455603 -0.007959628 -0.0008311093 -0.00695868
0000c0 10 50 ea bc eb 3d 37 bc ca fa 3b bc 4a 27 0b 3c
       -0.02860263 -0.011184196 -0.011473367 0.008493254
0000d0 a2 14 2d 3b ec fd 00 bc 12 ed 92 bc 55 6c b8 39
       0.0026410003 -0.00787304 -0.01793531 0.00035175928
0000e0 02 61 48 3d a6 6b 58 3d 2c 7b ac bd 55 b1 1c 3b
       0.04892064 0.052837037 -0.08421931 0.002390941
0000f0 c2 17 3b bc 29 7c 68 3c 1f e7 cd 3c 61 a4 1f bc
       -0.0114192385 0.014189758 0.025134621 -0.009743781
000100 50 84 0f bc 68 ca 2c bb 93 c9 00 bc 0e af 79 bc
       -0.008759573 -0.002636576 -0.007860559 -0.01523949
000110 53 7c bf b9 86 ad d7 ba 48 3d 25 3d 63 ea 48 bb
       -0.00036522988 -0.0016454912 0.040341645 -0.0030657283
000120 61 8f ba bc e2 d8 9e bb 26 bd e0 bb 8e 5c 6c bd
       -0.022773447 -0.004847632 -0.0068584858 -0.057705455
000130 6a 32 b7 bc 04 e1 72 bc 1d 98 14 bc aa 9a 34 bc
       -0.022362906 -0.014824156 -0.00906947 -0.011023203
000140 ee d5 07 bc 3a ce 14 3b 78 53 41 bc 6e b9 b3 3c
       -0.008290751 0.0022705928 -0.011799686 0.021939006
000150 f5 49 3c bc 72 01 c1 bd 4b a4 c3 bc 43 bb 91 3c
       -0.011492242 -0.09424104 -0.023882052 0.017789489
000160 08 5f 2e bc 12 17 87 bb c1 74 38 3c 41 ed 9e bb
       -0.010642774 -0.0041226232 0.011258305 -0.00485006
000170 f5 93 a3 ba 1c 67 28 ba cb dc 03 3b 7d 11 f7 3b
       -0.0012480008 -0.0006424056 0.0020120617 0.0075399266
000180 69 8e 11 bc d7 d4 29 3b 8a 0c 0d be 61 5d 40 bd
       -0.008884051 0.0025914216 -0.13774315 -0.046964053
000190 f7 e4 98 39 12 dd 94 bb da 32 73 bc de 49 16 bc
       0.0002916229 -0.004542955 -0.014843667 -0.009172885
0001a0 8b 94 5e 3d 4c 6c ba bb 8d 22 05 3d de 46 dd 3a
       0.05434088 -0.0056891795 0.032503653 0.0016882082
0001b0 2e be 30 bc ca 1d 0d bc e5 72 38 3e a8 70 79 bc
       -0.01078753 -0.008613059 0.18012579 -0.015224613
0001c0 77 6f a0 3a dd 2c 19 bc 7d 1b 4b bb 0d 40 6e bc
       0.001224025 -0.009349075 -0.0030991726 -0.014541638
0001d0 f6 16 86 3c 8d 8a f0 bb 61 62 cc 3e 9f 94 07 bb
       0.01636837 -0.0073407353 0.39918807 -0.002068795
0001e0 20 63 5c bc ac c3 15 bb d6 df 50 bc e7 6f 0d bc
       -0.013451368 -0.0022852225 -0.012748679 -0.008632637
0001f0 20 2a 8f bd da 31 c7 ba 4a b4 c3 3a fa 51 2d bc
       -0.069904566 -0.0015197352 0.001493105 -0.010578627
000200 a3 fd ba bc 5a 71 8e bb 4b 2d 8d 3a 8d 42 09 3d
       -0.022826022 -0.0043470087 0.0010770945 0.033510733
000210 de 7b 0b bc 28 0e fa b9 c1 52 d2 3d 74 63 0f bc
       -0.008513419 -0.00047694263 0.1026969 -0.008751739
000220 2a a3 0e bc e4 12 14 3b 38 2f 66 3b 39 22 f7 bb
       -0.0087058935 0.0022594268 0.003512336 -0.0075419215
000230 49 cb 00 3c aa 9b a6 3b f0 de 1c bc 46 a5 ad bb
       0.007860967 0.0050844746 -0.009574637 -0.005299243
000240 b9 d3 20 bc 67 bd 3f bc ac e6 8f 3d 7b 6c 90 bc
       -0.009816104 -0.011702872 0.07026419 -0.017629853
000250 f1 66 88 3d 8b 4b 6b bc 95 85 ea bb 70 bb bc ba
       0.066602595 -0.014361273 -0.0071570375 -0.0014399122
000260 93 8c 1e bc 46 a4 99 bb ca 92 de ba 47 e3 14 bc
       -0.00967707 -0.0046887724 -0.0016981002 -0.00908739
000270 d2 1a 1f bc 16 c8 5a ba ec 64 0f bc 08 8f 93 3c
       -0.009710984 -0.0008345855 -0.008752089 0.018012539
000280 24 f5 16 bc 5f 09 42 bb 9b 11 75 3d b3 0f e8 bb
       -0.0092137195 -0.0029607636 0.059831243 -0.0070819496
000290 59 1e 27 3c f8 70 51 bc b0 94 07 bc 33 f1 10 bc
       0.010200107 -0.0127832815 -0.008275196 -0.008846569
0002a0 e6 a8 ee b9 95 8d 65 bc 1b f1 3f bc 07 99 29 bb
       -0.00045520737 -0.014010807 -0.011715199 -0.0025878565
0002b0 68 27 c1 bb cc 01 09 bc ff aa 4c bb 5e da 3e 3b
       -0.00589459 -0.008362245 -0.0031229851 0.0029121856
0002c0 e9 a5 ae 3c 82 33 ec 3b db 4a 0e bb 7e fc 12 ba
       0.021319347 0.0072082886 -0.0021712098 -0.0005607082
0002d0 79 03 13 3c ce 3f 68 3b d6 53 3f 3a d7 70 5a bd
       0.008972996 0.0035438421 0.00072985643 -0.05333027
0002e0 e1 dc f9 bb bc 95 03 bb 0a f5 ef 3c 51 60 a5 bb
       -0.007625208 -0.0020078262 0.029291648 -0.005046882
0002f0 95 74 b1 bd b5 87 44 bc 31 11 42 bd 55 3a d4 bb
       -0.086648144 -0.011995246 -0.047379676 -0.0064766803
000300 46 86 27 3b 85 3a e0 bc 3c 32 0d bc 50 aa b2 bd
       0.002556221 -0.027371654 -0.008617934 -0.08723891
000310 da 3a d6 bb 15 cb 40 bc 5d 2a 90 bb f8 72 25 3b
       -0.0065377774 -0.0117671685 -0.0043995813 0.0025245529
000320 95 bd 3b 3b 9c 8f 35 bc f1 c9 b7 bc 35 c8 05 bc
       0.0028646935 -0.011081602 -0.02243516 -0.008165409
000330 8a 34 e3 bb db d1 02 bc e8 5e 0e bc e9 f3 fe bb
       -0.0069337534 -0.007984604 -0.00868962 -0.007780541
000340 1b 01 ca bb 88 6c b9 3c ed 5b a6 3d 30 db 3c 3c
       -0.0061646826 0.02263476 0.08123002 0.011526868
000350 aa 03 a1 b9 8f 4a bb bc 1a 69 58 bc 9f 2a aa bd
       -0.00030711043 -0.0228627 -0.013208652 -0.083089106
000360 e4 c9 86 bb 32 e1 4c bc 02 1b 19 bc 18 cd f1 bb
       -0.0041134227 -0.012504863 -0.009344818 -0.0073791854
000370 38 9e 5a bb 13 12 18 bc 30 f3 c6 bb e1 b1 51 bc
       -0.0033358466 -0.009281653 -0.0060714707 -0.012798757
000380 49 74 25 bc 61 60 08 bc ed b0 24 bc ba 23 95 b9
       -0.010098525 -0.00832376 -0.010051948 -0.00028446113
000390 17 2b 1d bc 96 fc 0a bc 58 25 41 3e 9e 0d 87 bb
       -0.009592793 -0.008483073 0.18861902 -0.0041214963
0003a0 12 bf a6 bb cb f3 b0 3b cd 9b 53 bc c8 1e f6 bb
       -0.0050886953 0.005400156 -0.012915564 -0.0075109936
0003b0 04 83 98 3c 79 2c 72 bc 26 72 19 bc 35 9d 24 3e
       0.01861716 -0.014781111 -0.009365594 0.16075595
0003c0 83 da ed bb 46 75 50 bc dd 27 08 3c e7 7d d8 3a
       -0.0072587146 -0.012723273 0.008310285 0.0016517014
0003d0 98 a8 21 3c 99 f9 bf bd d0 12 25 bc ba a2 b3 bd
       0.009866856 -0.09373779 -0.010075286 -0.08771272
0003e0 ac 08 42 bc c9 06 30 b9 fc 89 31 3d 57 2a 52 3b
       -0.011842888 -0.00016787196 0.043344483 0.0032068694
0003f0 cb 95 22 bc 4c 9f 91 3b 13 f2 3d bc 01 fa 8b bb
       -0.009923409 0.0044440385 -0.0115933595 -0.004271746
