TD3/models/reward_s9e-3_a4e-2_t(-0.1_0.1)_c.pth (torch, 275287 bytes, 5 tensors)

fc1.weight f4 [256, 8]
000000 b0 3d a8 bf 3d 36 c2 be 86 ef 21 3f 1a f7 f3 bf
       -1.3143826 -0.37932006 0.6325611 -1.9059784
000010 55 9a 11 bf dc a9 1d bd 1f 45 28 3e 7a 0a d4 3c
       -0.56876117 -0.03849207 0.16432618 0.025883902
000020 f5 27 33 be 1d 0d 29 be d2 3e 53 be 3e fc ea be
       -0.17495711 -0.16508909 -0.20629433 -0.4589557
000030 46 15 e2 3d 52 66 70 3d 7d 1f fc 3f 8d 66 22 bd
       0.11039214 0.05869133 1.969711 -0.03964858
000040 31 9b 41 3f a8 47 fb 3c 33 cb cc 3e a5 89 6b be
       0.7562743 0.030673817 0.3999878 -0.23001726
000050 ca 78 09 3e fc 53 e2 bd 78 a9 0b 3f 7e 97 8a 3d
       0.13424984 -0.11051175 0.54555464 0.06767176
000060 5e 32 17 be ce dd 2b bd 69 c2 7c be 6f fc 97 3e
       -0.14765307 -0.041959576 -0.24683537 0.2968478
000070 b2 16 85 be f5 ac 23 bf 0c fa 38 bf 1a 38 08 3e
       -0.25993878 -0.63935786 -0.7225654 0.13302651
000080 3e f5 0e 3f e9 81 88 bd 17 49 61 3d 18 4a 3a be
       0.5584296 -0.066654034 0.055001345 -0.18192327
000090 35 53 34 3c 88 fe 1e be 2f 19 6a 3d 48 61 7e 3e
       0.011006166 -0.15526783 0.057152923 0.24841797
0000a0 2c cd d5 bd fa c1 08 3d 9c 86 89 3e ab 67 4b 3e
       -0.10439524 0.033388115 0.2686051 0.19863765
0000b0 33 a5 31 be d0 b3 62 be a5 e4 ba be 59 9f 0d be
       -0.17348175 -0.22138906 -0.36502567 -0.13830318
0000c0 f8 b3 7b 3e 10 63 8a 3d f0 2d 47 bf e7 f2 6c 3e
       0.24580371 0.06757176 -0.7780447 0.23139535
0000d0 f1 d7 d3 bd 9e 75 c9 3d 95 82 67 3f c9 ec c3 3d
       -0.10343922 0.09836887 0.9043363 0.095666476
0000e0 6c ba 39 be 19 23 60 be f6 83 a6 be 4a b4 b0 3e
       -0.1813752 -0.21888389 -0.32522553 0.3451255
0000f0 cf e8 96 bc 44 90 48 3e df b1 30 3f 9f e1 8d bc
       -0.018421559 0.19586283 0.6902141 -0.017319499
000100 71 2f 1d 3f 2c 62 78 3e b4 87 3b 3e fa 15 c7 3d
       0.61400515 0.242562 0.18313485 0.097209886
000110 45 9a c9 bd 48 e8 fe bb 01 74 93 3d 29 10 22 3e
       -0.09843878 -0.007779155 0.0719986 0.15826477
000120 86 2b d3 bc 55 2e 16 bd 70 48 0b 3f 19 76 0f be
       -0.02577759 -0.03666528 0.54407406 -0.14009894
000130 27 eb 4f 3c 5a 43 03 3c 6e b6 6b bf e7 f6 4a bd
       0.012690342 0.008011663 -0.9207524 -0.04955187
000140 b6 55 30 3f 9c cc 1b 3c 76 37 0e 3f 3d 3f 55 be
       0.68880785 0.009509232 0.55553377 -0.20824905
000150 68 91 9f 3e ca 47 e0 3c 1a 25 a0 bf ff d7 04 bd
       0.31165624 0.027377982 -1.2511322 -0.032432552
000160 cc c2 76 3b cb 3f 1a be 80 0b 82 be 52 10 3f be
       0.003765273 -0.15063398 -0.253994 -0.1865857
000170 b2 4b 99 bd 1f c2 46 bd a8 a6 f4 bc f4 4b 87 be
       -0.07485141 -0.048524972 -0.029864624 -0.26425135
000180 58 37 80 3e 74 a7 1a bf 71 86 8e 3e db e5 39 3d
       0.25042224 -0.60411763 0.27836946 0.045385223
000190 10 60 aa 3d df 3e 13 3e 26 8e c3 3e 0f 0c 3d 3e
       0.08319104 0.14379452 0.38194388 0.18461631
0001a0 cf 1c e2 3e d1 c9 a9 bd 2a 93 4a be 55 e7 e8 3d
       0.44162604 -0.082904465 -0.19782701 0.11372248
0001b0 06 d3 78 be f7 da 2d be fe e8 c4 be 82 d0 b6 3e
       -0.24299249 -0.1697806 -0.3845901 0.35705954
0001c0 20 ab 34 3e 2f b7 42 3d 81 10 98 be 5f 7e aa be
       0.17643404 0.04753798 -0.2970009 -0.33299538
0001d0 18 af 18 be ff 6d b1 be 6b 41 8d 3e a6 38 7e be
       -0.14910543 -0.34654233 0.27588972 -0.24826297
0001e0 51 03 71 3e 7b 9e 16 be e1 09 90 3e 85 4b 30 3e
       0.23536421 -0.14708893 0.28132537 0.17216308
0001f0 cc b1 00 bd 3b f7 01 bd 41 89 22 3f 7f 2a 01 3d
       -0.03141956 -0.031729918 0.6349068 0.031534668
000200 1f 6d ff bd 93 16 a6 3e 44 4d 4c be bc e0 30 bf
       -0.12471985 0.32439098 -0.1995135 -0.6909292
000210 38 46 c6 be 20 f3 39 3e 71 4f 5e bf d9 3c 2f be
       -0.38725448 0.18159151 -0.8683997 -0.17113055
000220 11 74 e0 be f9 d4 7b be b3 26 52 3e c2 58 d4 be
       -0.43838552 -0.24592961 0.20522575 -0.41473967
000230 b6 be d1 3d aa 89 ec 3d c9 b5 47 3f b0 2b c2 be
       0.10241453 0.11549695 0.7801176 -0.37923956
000240 d2 8a 3e 3e 45 2b ef 3d 02 6c b4 bd a4 f7 2c be
       0.18607643 0.11678175 -0.08809663 -0.16891342
000250 af 6e 8d bd f2 f4 85 bd 88 66 93 3e 2e 09 57 be
       -0.06905877 -0.0654086 0.28789163 -0.20999596
000260 d8 d6 e5 be f2 94 f6 3c fa 59 bb 3e 15 68 bf bd
       -0.44890475 0.03010032 0.36592084 -0.09346024
000270 bd 95 d1 be 59 5f 3f 3d 03 65 dc 3e e2 54 d7 3d
       -0.40934554 0.04672179 0.43045816 0.10514237
000280 fe cc 1f bf 4f 52 28 be 95 ac a3 be f9 0d 17 3e
       -0.6242217 -0.16437648 -0.31967607 0.14751424
000290 05 a0 d5 3d f0 75 fd 3d 74 bf 8f 3f b7 a1 3d bc
       0.10430912 0.123760104 1.1230302 -0.0115742
0002a0 4c 8f 1a bf 69 f8 14 3e 42 f6 8c be 44 8a ff 3e
       -0.60374904 0.14547886 -0.2753163 0.49910176
0002b0 22 20 1e bc c4 9e 45 3e b0 fb cd bd f6 10 ab be
       -0.009651216 0.19298846 -0.10057771 -0.33411378
0002c0 90 41 43 bf b9 b6 3e bf 25 ba b8 3d 70 bc 5b be
       -0.76271915 -0.7449756 0.09019879 -0.21458602
0002d0 ea c0 47 3e 17 11 19 be b7 ff 26 bf 9a 5e 65 be
       0.19507185 -0.14947926 -0.6523394 -0.22399369
0002e0 ab 91 0a bc b5 71 f9 be 3b 89 f6 bd 87 57 4e 3d
       -0.0084575815 -0.48719564 -0.120378934 0.05037644
0002f0 de 5b c2 be 46 3c 03 3d f9 fe af 3e 44 33 12 bd
       -0.37960714 0.032039903 0.34374216 -0.035693422
000300 b1 74 fd 3e fa b9 c4 3c e8 32 78 bf e4 8e 71 3e
       0.4950309 0.024014462 -0.96952677 0.23589665
000310 4d 2f ad be b9 9a 87 3d 86 1a 8f bf b5 10 34 3e
       -0.3382515 0.06621308 -1.1179969 0.17584498
000320 d5 ba 99 3e 8e 5b c0 bd e7 23 f4 bc ad 62 d0 bd
       0.30025354 -0.09392463 -0.029802276 -0.10175071
000330 90 46 22 be 35 e4 cb bd 15 24 96 3e b1 92 b3 be
       -0.1584723 -0.099556364 0.29324403 -0.35072854
000340 1f d5 1a be 2c 0c d5 bd fd 42 8c 3d 0f de 3f 3e
       -0.15120362 -0.10402712 0.068487145 0.18737052
000350 0e 42 8e 3d 84 af a2 3c 49 30 73 c0 0d 18 01 3d
       0.06946193 0.019859083 -3.799822 0.031517077
000360 61 f7 10 3f 97 de cb be 86 07 2a 3e 85 1d ae 3e
       0.5662747 -0.3981826 0.16604432 0.34006897
000370 ac ec 19 3d 59 ea 68 3c 42 52 82 be c2 7b 4c bd
       0.037579224 0.014216029 -0.25453383 -0.049922712
000380 7f 21 c4 be 09 80 83 be a6 0c 0f be 05 e1 0b 3a
       -0.38306805 -0.2568362 -0.13969669 0.000533596
000390 38 e4 07 bc 31 69 d5 be 2b 6f 8f bf 2d 31 15 3e
       -0.008294158 -0.41681817 -1.1205801 0.1456954
0003a0 14 49 06 3d 5c fc cf be 8f c6 b8 3e 17 f3 e0 3d
       0.032784536 -0.40622222 0.36088988 0.10983866
0003b0 65 9a 3f be f4 05 67 3e af 12 2e bf e9 8a 9e be
       -0.1871124 0.22560865 -0.6799726 -0.30965355
0003c0 89 43 02 3f cf c1 16 be f6 c6 67 be 87 de 1b 3e
       0.508843 -0.1472237 -0.22634491 0.15221606
0003d0 61 ca 0f 3e e2 44 c7 bd aa 2b 5e bd 1c f6 51 3e
       0.14042045 -0.09729935 -0.05424086 0.2050404
0003e0 00 ff 49 3f 4a ff 8a be 44 61 00 3e 9a 1c c5 3e
       0.78904724 -0.27147895 0.12537104 0.38498384
0003f0 f0 d8 13 3d b2 49 f6 bd 92 c0 c8 be 8c 4e df 3d
       0.03609556 -0.12025775 -0.3920942 0.109036535

fc1.bias f4 [256]
000000 4e 3f 30 3f d8 79 11 bf b1 a0 c3 3e c5 9b b5 be
       0.68846595 -0.56826544 0.38208535 -0.35470405
000010 85 ff 8c be 8b 87 d3 3e a6 87 92 be 10 5c 88 3b
       -0.27538696 0.4131435 -0.28619117 0.0041613653
000020 b8 c4 c2 bd f4 88 8d 3f e4 6a 48 be 3e 23 83 be
       -0.095101774 1.105742 -0.19572026 -0.25612825
000030 98 53 c9 be 14 22 02 bf 9f c3 75 be 6c d1 f0 bd
       -0.3932159 -0.5083325 -0.24000405 -0.11758694
000040 47 13 e5 be c1 a5 03 be 6f d1 ae be 87 52 94 3e
       -0.4474127 -0.12856199 -0.3414416 0.28969213
000050 9b e1 e5 be 35 f5 02 be 69 bb 3f be eb 6f cf 3e
       -0.44898686 -0.12788852 -0.18723835 0.40515074
000060 9c 7c 45 bf e9 cf 17 3e 4f 3e f3 3d 85 7a d4 3e
       -0.77143264 0.14825405 0.11877119 0.41499725
000070 01 a3 91 3e 19 77 34 3f 38 72 01 be 0d 71 15 3e
       0.28444675 0.7049423 -0.12641227 0.14593907
000080 bb 6d 3e 3f 4e 1f 51 bf da a4 d0 bd ef ad 39 be
       0.74386185 -0.8168839 -0.10187693 -0.18132757
000090 61 ef e4 3e e5 11 21 3f ac 87 8c bd c3 10 ec 3e
       0.44713882 0.6291793 -0.06861815 0.46106538
0000a0 74 97 5d 3f e7 18 8d 3f 67 13 9f 3e 24 62 80 3e
       0.86559224 1.1023225 0.3106949 0.25074875
0000b0 17 2b 6c bf 2b 38 41 3e d3 4e 0c 3e 0a 5b cd 3e
       -0.9225325 0.18869083 0.13701944 0.4010852
0000c0 ff 54 a3 3e 13 71 0f bf b5 7a d5 be 2b 63 45 be
       0.31900784 -0.5603191 -0.4169518 -0.19276111
0000d0 ee 2b 3a bf f6 fc da be 2d 7b 40 be 8f 34 92 3c
       -0.7272328 -0.4277112 -0.18796988 0.017847328
0000e0 6a d6 5f be 47 17 82 be 99 8e 58 3e e6 ef 6d 3e
       -0.21859136 -0.25408384 0.21148147 0.23236045
0000f0 8a 9f 03 bf dd c7 d7 3e 4f db d9 3e f2 77 2d 3f
       -0.5141531 0.4214467 0.42550132 0.6776115
000100 4e 31 1f bd c5 ed bf bc a9 c1 04 3f b4 51 0f 3f
       -0.03886538 -0.023428807 0.51858 0.55984044
000110 2a a8 4e 3e 53 0b c9 3e 60 3d e0 be 95 06 17 3f
       0.20181337 0.39266452 -0.43796825 0.5899442
000120 e3 fb 3a bd 9d 45 0c bd cb 90 17 3f d1 0b d3 be
       -0.045650374 -0.034246076 0.5920531 -0.41219953
000130 b3 b2 11 bf e3 28 32 3e 00 24 7a be 3c ba 5a 3e
       -0.569133 0.1739841 -0.24427795 0.21360105
000140 c6 ba c8 3c 4f 0b b3 3e 95 42 ec 3c bb 5e 2f 3f
       0.024503123 0.34969565 0.028840343 0.6850392
000150 64 61 cc bd 8a cc a1 bd eb c4 20 be 55 1a 42 3f
       -0.09979513 -0.07900341 -0.15700118 0.7582143
000160 fd 22 fd 3e 49 ae bf 3b b7 ba 52 be 2e 40 b7 3d
       0.49440756 0.005849634 -0.20579039 0.08947788
000170 7d b3 07 3e 0b 8c 8d be 58 d3 72 3d 7e a2 01 bf
       0.13252063 -0.27645907 0.059283584 -0.5063857
000180 50 fc 5e 3e c1 a3 a8 3e 30 00 49 bf 26 25 41 bb
       0.21775937 0.32937434 -0.7851591 -0.0029471605
000190 24 3e a0 be 63 48 87 3d a6 b7 e0 3e 37 d4 38 bf
       -0.3129741 0.066056035 0.43890113 -0.72198814
0001a0 a0 07 2c be 13 0f d9 3e 92 f2 37 bf 8d 16 5d 3d
       -0.16799784 0.42394313 -0.7185451 0.053976584
0001b0 ae 15 8a 39 e1 69 24 3e 68 09 19 3f e0 52 0a 3f
       0.00026337564 0.16056015 0.5977998 0.5403271
0001c0 3a cb 45 3d a6 f3 f7 3d 29 a9 be 3e 19 0b 63 be
       0.048289515 0.12107019 0.37238434 -0.22172202
0001d0 5c 2f e6 3e 57 fb 7d bd b1 67 0c bf 6e 42 ae be
       0.44958007 -0.062007274 -0.5484572 -0.34035057
0001e0 5a d0 0b 3f 51 65 ad 3e 6a a3 05 3f 04 50 93 3e
       0.54614794 0.3386636 0.52202475 0.28771985
0001f0 08 7a 01 bd b0 05 89 bd 4a 83 32 bf b6 7e 9f be
       -0.03161052 -0.06690538 -0.6973158 -0.3115136
000200 31 d6 bc be a3 f5 9e 3d 8e b3 90 3d 2f 06 ac 3e
       -0.36882165 0.07761695 0.07065497 0.33598468
000210 b5 6c 5b 3f 99 08 a7 be e1 ce 26 3d 8a ad f4 3d
       0.8571275 -0.32623747 0.04072464 0.119471624
000220 a2 3f 08 3f 49 c4 13 be c8 10 c5 3d 73 e7 2c bf
       0.53222096 -0.14430346 0.096223414 -0.67540663
000230 bb 68 0a bd c7 76 ae 3d 45 02 27 3f 8c 42 db be
       -0.033791285 0.08518749 0.6523784 -0.4282421
000240 f0 90 b2 be cf 18 b8 be c7 aa 61 bf 4f 8e 54 3e
       -0.34876204 -0.35956427 -0.8815121 0.20757411
000250 89 ca cb 3d a6 49 b5 3e 3a 04 0f bf 3a 51 8e 3e
       0.0995074 0.35407752 -0.55865824 0.27796346
000260 31 bc 7c 3f 67 b2 8b bd a5 b6 2a be 91 17 9a 3e
       0.9872466 -0.06821137 -0.16671236 0.30096105
000270 2f aa a3 3e 13 15 cf bd 5b 4b 4e 3e e7 6c 06 3f
       0.31965777 -0.101114415 0.20145933 0.5250992
000280 39 32 3d 3e d3 cd 88 be 0e 5a 2e 3f 42 58 11 3e
       0.1847619 -0.2671953 0.6810616 0.14193824
000290 19 ab c4 3e ae 41 c8 3d c3 59 1b bd a2 bf 09 bf
       0.38411787 0.097781524 -0.0379274 -0.53808033
0002a0 27 3c 58 3f 54 99 36 3d 05 62 f2 3e bb db 62 3e
       0.84466785 0.04457982 0.47340408 0.22154133
0002b0 08 46 22 bf 12 1e c9 3e 48 6c fd bd ae 29 db bd
       -0.6338811 0.39280754 -0.12374169 -0.10701309
0002c0 e9 52 a5 3e e1 4c 24 bf f9 17 f2 bd 5c bb 67 3e
       0.32289818 -0.6417981 -0.11820979 0.22630066
0002d0 b1 d5 c7 bd 39 8d c6 3e 37 26 80 be 3f 85 11 be
       -0.09757555 0.3877962 -0.25029156 -0.14210986
0002e0 1a 49 e7 bd 7e b4 fa 3e e0 a3 0d 3d f1 8c b0 3f
       -0.1129324 0.4896583 0.03458011 1.3793012
0002f0 0b e5 ab be b1 9f 41 be 83 fa e9 be db 58 f7 3d
       -0.33573183 -0.18908574 -0.45698938 0.12077495
000300 b9 64 af 3e be 95 b9 3e 99 92 18 bf 6a 1d 01 3f
       0.34256533 0.36247057 -0.5959869 0.5043551
000310 45 71 e1 bd 12 26 a1 be a5 ad 90 be 7b 16 04 3d
       -0.110079326 -0.31474358 -0.2825748 0.032248
000320 9a 32 a7 3e 0e d0 d9 3e 78 6c 21 be 9f 36 d5 bc
       0.32655793 0.42541546 -0.15764034 -0.026027022
000330 55 9a 28 3f de 1c 62 bf 5e aa 91 3f 83 d3 95 3e
       0.6586049 -0.883253 1.1380117 0.29262933
000340 d1 c0 ee 3e 20 f2 73 3d c3 b1 bd bd a0 65 89 3d
       0.46631482 0.05955708 -0.09262421 0.067088366
000350 11 32 08 bd 65 e7 3f be 40 ab 55 be a5 d4 e4 be
       -0.033250872 -0.18740614 -0.20866108 -0.44693485
000360 c1 8f 63 be 36 f1 9e 3d 35 1c 09 bf 44 9b e1 be
       -0.22222807 0.07760851 -0.53558666 -0.4406377
000370 bb dc 8f 3e 38 2c 3d bf 34 71 6f be 55 93 27 bf
       0.2809809 -0.738956 -0.23383027 -0.65459186
000380 f9 f0 48 bf d2 e7 57 be 88 4a 70 3f a1 90 e5 3d
       -0.78492695 -0.21084526 0.93863726 0.112092264
000390 bb 49 89 3c 57 f6 b6 3d 5b 02 a3 3e 1d 86 e5 3e
       0.01675879 0.08933704 0.31837735 0.44828883
0003a0 8e 07 2c bf d3 ac ec 3e 4e 20 40 3f e4 c6 a1 be
       -0.6719903 0.46225604 0.75049293 -0.31597054
0003b0 d4 d2 82 3e 9a eb e7 3d 92 41 58 bf 32 b1 d3 be
       0.25551474 0.11324234 -0.8447505 -0.41346127
0003c0 a0 d9 91 3e c7 22 9c 3e 2a c6 85 be e0 eb 5a be
       0.28486347 0.30495283 -0.2612775 -0.21379042
0003d0 23 1f 5e bf ac 72 9c be b4 77 9e 3e d1 cb e7 bd
       -0.8676626 -0.30556238 0.309507 -0.11318172
0003e0 d9 7e da 3e 10 57 ed be 44 4c 55 3e 7c 28 ed 3d
       0.42674902 -0.46355486 0.20829874 0.115799874
0003f0 07 fd 7f bf 92 c2 94 3f 4e 88 20 3f bd 00 82 3e
       -0.99995464 1.1621878 0.62707984 0.25391188

fc2.weight f4 [256, 256]
000000 37 43 23 3d f4 e2 30 3d 58 0d b8 bc 80 d6 43 3c
       0.039859023 0.04318519 -0.0224673 0.011952996
000010 81 2a 2a 3a 4a 45 6b 3d 61 fd 88 bd ec 82 61 bd
       0.0006491319 0.057439126 -0.06688953 -0.055056497
000020 2a 6a af bc 38 e3 b8 3c 94 53 42 3d f0 91 68 bd
       -0.021412928 0.022569284 0.047442988 -0.0567798
000030 d5 db 33 3d 1a f9 ff 3c 8c d2 c5 3c c5 e5 e5 3c
       0.04391082 0.03124671 0.024148248 0.028063664
000040 4f fa 50 3d 54 9b 7b bc bc 9d 26 3d 26 63 1e bd
       0.051019963 -0.015356857 0.04067777 -0.038668774
000050 a3 7e bf bc 9c dd 28 bd 78 42 3e bd 28 35 13 bd
       -0.023375815 -0.04122697 -0.04645011 -0.035939366
000060 29 eb 49 3d a0 60 0e bb 6c d6 36 3c f5 65 1b 3c
       0.04929653 -0.0021725073 0.011159521 0.009484758
000070 3a 89 35 bd 2b c3 69 3d 1d 5a 1f bc 22 f8 f9 3c
       -0.044320323 0.057070892 -0.0097260745 0.030513827
000080 e4 6a 46 bd 22 40 65 3d 07 a1 cd bc 80 db aa bc
       -0.048441783 0.055969365 -0.025101198 -0.020856619
000090 29 51 1f bd 6d a3 70 bd 80 50 52 3d 2e a9 9d 3b
       -0.03889576 -0.058749605 0.051346302 0.0048114276
0000a0 26 89 31 3c 9c 25 94 3c 45 3a 10 bd ec 62 8b bc
       0.010835921 0.01808434 -0.03521182 -0.017014943
0000b0 47 87 03 bd 9a 4e e1 3b 6c 52 92 bc c4 45 27 bd
       -0.032111432 0.006875825 -0.017861567 -0.040838018
0000c0 7c 76 4d bd 67 a6 d2 b8 1f 23 9f bc 5c 89 f9 bc
       -0.050161824 -0.00010044575 -0.019425927 -0.030461006
0000d0 73 a4 20 3c 3c 91 be bc 8c 0c 5f bd e6 20 00 bd
       0.009804833 -0.023262613 -0.054455325 -0.031281374
0000e0 17 c2 35 bd 10 db 18 3d a7 7b 2a bc 35 7c 19 bd
       -0.04437455 0.03731829 -0.010405458 -0.03747197
0000f0 04 78 a6 bc a8 9a 71 bd b1 0d 03 bd 2d 2c 4a 3d
       -0.0203209 -0.058985382 -0.03199548 0.049358536
000100 4c 6d 5b bb b2 32 70 bd 32 3b 0d bd 6e 81 1c 3d
       -0.0033481894 -0.058642097 -0.03448028 0.03820937
000110 dd 15 87 bd a0 b0 70 3d 0b 7c f8 bc 4a 2d 59 3c
       -0.06595967 0.058762193 -0.030332586 0.013255427
000120 0e 6a 9c 3c f5 42 84 bd eb cb ed 3c bf 0c 00 3d
       0.01909354 -0.064580835 0.0290279 0.031262156
000130 25 b2 1e 3d f0 72 7f bd ed 99 02 bd fe 17 13 bd
       0.03874411 -0.062365472 -0.031885076 -0.035911553
000140 86 74 27 bd 02 68 df 3c f6 d6 4c 3d 3d 51 c9 bc
       -0.04088261 0.027271274 0.05000969 -0.02457487
000150 51 19 63 3d f2 0a 5e bd 10 71 c9 3c bd f7 2f 3c
       0.055444065 -0.054209657 0.024590045 0.010740218
000160 7c 2f 8b bc 56 06 0e bd c5 aa 00 3d 68 de 4a bd
       -0.016990416 -0.03467401 0.03141286 -0.04952851
000170 20 1e 66 bb 9b 9b 87 3c b5 16 78 bd 71 97 44 bd
       -0.003511317 0.01655369 -0.06056853 -0.04799599
000180 c7 5a a1 3c 00 3b 29 3c ea 50 79 bd 5f 03 40 3c
       0.019696606 0.010329008 -0.06086818 0.011719554
000190 c7 01 11 bd 70 d0 b5 bb 33 9b 03 bd cf 5e 25 bd
       -0.035402086 -0.0055485293 -0.03213043 -0.04037362
0001a0 aa 30 93 bb 39 c7 4e 3d e6 be 1c bd bb ce 33 3d
       -0.004491885 0.050482962 -0.038267992 0.043898325
0001b0 48 18 15 bd 4e 74 3d 3d f3 76 36 bd b9 10 02 bd
       -0.03640011 0.046253495 -0.044547033 -0.03175423
0001c0 d1 3b 1e 3c f0 f9 d0 bc f0 9b 2f bd 6a 46 44 bd
       0.009657816 -0.025509804 -0.042873323 -0.047918715
0001d0 af 2a c5 3c 40 38 18 3d 46 99 1a bd 8b cf 2e bd
       0.024068205 0.03716302 -0.03774383 -0.042678397
0001e0 e0 74 2d 3d 48 d9 b8 bc cd 5d 28 3d 83 5b 55 3d
       0.04234779 -0.022564545 0.04110508 0.052089226
0001f0 3f 78 37 bd 60 dd b1 bc 1e fd b3 3c 7a 95 c8 3c
       -0.04479241 -0.021712005 0.021971282 0.024485338
000200 92 83 34 bc 2b f7 74 bd 8d 12 09 3c 29 b3 a7 bc
       -0.011017697 -0.05980603 0.008366239 -0.020471172
000210 74 a5 00 bd 9e 02 bb b9 4f 58 47 bd 7e 3c dc bc
       -0.03140779 -0.0003566937 -0.048668202 -0.026884314
000220 69 5c cd 3c a0 76 0b bc 51 64 5a 3c 80 cc 68 bd
       0.025068479 -0.008512169 0.013329581 -0.05683565
000230 8b 54 31 bd 75 bb 35 3c fa 3a 4f bd 41 44 e0 3c
       -0.043293517 0.0110920565 -0.050593354 0.027376296
000240 91 80 39 3d 41 cf 78 3c 81 55 1f 3d 10 eb 4d bc
       0.045288626 0.015186132 0.038899902 -0.01256825
000250 fc 95 47 bd 18 d4 3a 3b e0 ae 0c 3d 52 4d 4f 3d
       -0.04872702 0.0028507765 0.03434646 0.050610848
000260 17 37 07 3d 84 5b cb bc 37 ea eb 3c 8a 60 88 3c
       0.033011522 -0.024823911 0.028798206 0.016647596
000270 f9 a4 2a 3d 66 df 22 bd c8 13 08 bc ee d1 2b 3d
       0.041661236 -0.03976383 -0.0083054975 0.04194825
000280 30 70 01 bc 0d 04 29 bc 55 ee 37 bd 0d 4d 2b 39
       -0.007900283 -0.010315907 -0.044905026 0.00016336534
000290 21 be c0 bc e2 4c 75 bd b2 55 16 3d d5 9a 7d 3c
       -0.02352816 -0.059887774 0.03670282 0.015478809
0002a0 1a 33 01 bd e8 71 22 3c 60 a0 8c bc c1 d6 47 bd
       -0.031542875 0.009914853 -0.017166317 -0.04878879
0002b0 5c 31 51 3d ff fb 6c 3c 14 71 fb 3c 69 7b ba bc
       0.051072463 0.014464377 0.030693568 -0.022763925
0002c0 6a 68 58 bd 55 a4 9e 3b fc 44 0e bb 05 f6 4f bd
       -0.052833952 0.0048413672 -0.0021708598 -0.050771732
0002d0 49 40 00 3d 3e 5a 23 3d 3e 4c dd bc 43 0f 50 3b
       0.031311307 0.039880984 -0.027013894 0.0031747378
0002e0 31 cb 8c bc 12 15 35 bd 94 39 28 bd 68 21 a1 bc
       -0.017186733 -0.044209547 -0.041070536 -0.01966925
0002f0 72 3b 68 3d ec 46 f2 3c 38 5a 72 bd 31 e0 e0 bc
       0.056697316 0.029574834 -0.05916807 -0.027450653
000300 4c 9e db 3c 8a 57 58 3d 7f 0a 37 bc 87 9e 3f bd
       0.02680888 0.05281786 -0.011171936 -0.046782043
000310 ff b8 f3 bc c5 28 f5 3b 30 93 d9 bc 25 e6 b8 3c
       -0.029751299 0.0074816667 -0.026559442 0.022570679
000320 27 c0 fc bc 48 64 94 bc 1d 57 4d 3d f6 bb b2 bb
       -0.030853344 -0.018114224 0.050131906 -0.0054545356
000330 85 e0 6f bd 32 af d8 bc 5c 37 a6 3c da 03 a2 3b
       -0.058563728 -0.026450727 0.02029007 0.004944307
000340 d3 ce e1 3c 26 8c 74 bd e9 b2 cd 3c b9 c8 d3 3c
       0.027564442 -0.05970397 0.025109725 0.025852548
000350 2c 97 16 bc 6b b8 e7 3c 08 f4 87 bd 43 e2 b2 3b
       -0.009191316 0.02828618 -0.06638342 0.0054591014
000360 ed 08 97 bc a8 fd 24 3d 30 0f 12 bd 0f 40 e6 bc
       -0.018436873 0.040280968 -0.035659015 -0.028106717
000370 24 9f 2e 3c ec 53 46 3c 6a 26 6a 3d e4 d8 41 bc
       0.010658059 0.0121049695 0.05716554 -0.011831496
000380 af 23 c0 3a 73 a5 07 bd ab 49 68 3d 94 7a 5e bd
       0.0014659072 -0.03311677 0.05671088 -0.05431612
000390 e5 7c 74 bd 58 14 95 bc e3 9c 50 bd 36 e3 5a bd
       -0.05968942 -0.018198177 -0.05093087 -0.05343934
0003a0 49 3a d6 b9 24 7a 29 bb ef d8 aa bc b0 41 58 bc
       -0.00040860687 -0.0025860155 -0.020855395 -0.013199255
0003b0 bf 29 19 bd ff 99 da 3c b3 b6 11 3b 3e d8 ec 3c
       -0.037393328 0.02668476 0.0022234141 0.028911706
0003c0 11 e8 4a 3d 8c 30 5e bd 8e 68 70 bd 57 cf a5 3b
       0.049537722 -0.054245517 -0.05869346 0.005060117
0003d0 25 4d 90 3c 60 93 7b 3c 66 26 55 bc 2d be a0 bc
       0.01761491 0.015354961 -0.013009643 -0.019621933
0003e0 08 8e 4d bc b7 e0 da 3c 50 fa 49 3c 9b e0 09 bd
       -0.01254607 0.02671848 0.012327746 -0.033661466
0003f0 0c 08 0a bd 6e dc 2e 3d 34 d1 8a 3c 6e 8d 31 3c
       -0.03369908 0.042690687 0.016945459 0.010836942

fc2.bias f4 [256]
000000 44 57 5c 3d d0 5d db 3c d8 b4 4f bc ad 5b 42 bc
       0.05379416 0.026778132 -0.012677394 -0.0118626775
000010 7e 81 80 3c fa 25 bb bd fb 4b 68 3e b6 d6 26 bc
       0.015686747 -0.09138103 0.22685234 -0.010183027
000020 53 e5 3b 3e 94 98 c9 bd 1e 38 3b 3d 29 ea 15 bd
       0.18349199 -0.09843555 0.045707814 -0.036600266
000030 1e 64 42 3e 6c fc 23 bd a4 21 c7 bd 3d f7 a1 3c
       0.18983504 -0.04003565 -0.09723213 0.019771213
000040 e9 47 6a 3d bc 08 6a 3d ed 26 29 3e 92 8e c3 bc
       0.057197485 0.057137236 0.16518755 -0.023871694
000050 77 88 58 3e 14 75 58 bd 6e ac a9 bd 5c da a6 bd
       0.21145807 -0.05284603 -0.082848415 -0.081471175
000060 c9 76 b5 3d fc b5 dd 3d f8 c1 92 3c 10 48 c1 bb
       0.08860547 0.108257264 0.017914757 -0.005898483
000070 c6 04 68 bd aa 71 bf bd 73 e1 03 3d 87 e0 1e 3e
       -0.056645177 -0.093478516 0.032197427 0.15515338
000080 6b 02 08 3e 1c 41 7a 3e 79 b5 b8 bd da 15 8b bb
       0.13282172 0.244389 -0.09018988 -0.0042445483
000090 64 b7 33 bb a1 cb 30 3d 9e de b0 3c 12 96 24 be
       -0.0027422542 0.043162946 0.021590527 -0.16072872
0000a0 d7 85 42 3e ba df 42 38 3f fa 69 be 0f fe 80 ba
       0.18996368 4.6461566e-05 -0.22849368 -0.000984134
0000b0 2a 97 1e 3e 6a 5e 73 3c 7e d0 27 bd 00 aa d8 3b
       0.15487352 0.014854053 -0.040970318 0.0066120625
0000c0 a5 ec 60 3d 02 54 1e 3d f8 4e 9e 3e d4 3e ee 3c
       0.05491318 0.038654335 0.30919623 0.029082693
0000d0 3d 95 9f 3d 3d b8 60 be 95 d1 30 3d 63 37 66 3e
       0.07792137 -0.21945281 0.043168623 0.22482066
0000e0 1b 2f 4b 3e 3b b5 d4 3c 61 ea ee 3d 72 48 7a bc
       0.19842188 0.025965324 0.11665798 -0.015276061
0000f0 79 f3 98 3e 06 e3 80 bd fe 9b 59 3d ed f7 01 3d
       0.29873255 -0.06293301 0.05312728 0.03173058
000100 56 48 3d 3c 86 0d 90 3d b8 74 ae bd 7d ef 21 3d
       0.011552891 0.070338294 -0.08518356 0.039535034
000110 76 e9 75 3d 4a 04 ac bb e3 a7 86 3d 19 d2 e8 bc
       0.0600371 -0.0052495347 0.065749906 -0.028420495
000120 c5 f7 1a 3d bd ba 88 bc 73 32 8f bd 8e dc 51 3d
       0.037833948 -0.016690606 -0.06992044 0.051235728
000130 9b 74 83 3e f2 7a 3c 3e 00 e0 06 bd cd 83 f5 3d
       0.256749 0.18406275 -0.032928467 0.1198803
000140 99 1b ba 3c 3a 9b d8 3d b4 6d 7c 3d 88 f1 38 be
       0.022718238 0.10576482 0.06162806 -0.18060887
000150 1c 24 d0 3c ad b5 6d 3d 6d a1 26 3e 5f 76 90 ba
       0.025407843 0.058034588 0.16272517 -0.0011021605
000160 23 47 6f 3d 4d 68 34 be fe 4b 72 bd e2 10 8c bd
       0.05841745 -0.17617913 -0.059154503 -0.06839158
000170 5d 69 43 3c f2 bb 57 3c c6 f7 54 3d 4a 98 0f 3e
       0.011926976 0.013167368 0.051994108 0.14022937
000180 73 d1 72 be c4 d9 37 bd ed 1f 93 3e 48 92 bb bd
       -0.23712711 -0.04488541 0.28735295 -0.0915876
000190 7f 0a 67 3e 7e d8 55 3e ab d1 ba 3d 08 43 a8 bc
       0.22562598 0.20883366 0.09122022 -0.020539775
0001a0 33 1c 87 bb 2c eb f7 3d 58 6c 34 3d e6 92 ec bc
       -0.0041232347 0.12105402 0.044048637 -0.02887864
0001b0 05 76 4e 3e 48 56 3a 3e c1 37 44 bd 84 1d 52 bd
       0.20162208 0.18196976 -0.047904734 -0.05129768
0001c0 e2 15 31 3d 27 9f 96 be 83 2a 84 3c 1e 4d 62 3e
       0.04323376 -0.294183 0.016133552 0.2209973
0001d0 9c 41 a8 bd d4 6b 47 3e c2 67 94 3d 26 73 58 bc
       -0.08215639 0.19474727 0.07246353 -0.013211047
0001e0 a2 81 53 3e 97 46 39 3d 0b 5c 8c 3d 4e fd 34 3e
       0.2065492 0.045233335 0.06853493 0.17674753
0001f0 b7 4d 0f 3e ec 83 3f bc 6f fd 72 3d 34 57 2a 3e
       0.1399449 -0.0116891675 0.059323724 0.16634828
000200 28 89 bc bd dc b6 7c bc b3 00 69 bd af a6 2e 3d
       -0.09205848 -0.015424456 -0.056885432 0.04263943
000210 fe dd 4e 3e 5d f9 2f 3e 92 f8 21 3d 19 1f 3c 3e
       0.20201871 0.17184968 0.039543696 0.18371238
000220 ac fc 05 bd cd be 3d 3e e9 2c 60 3d 64 1c 76 bd
       -0.03271167 0.18529816 0.05473033 -0.06008567
000230 ab aa 54 3e a5 79 24 3e ae 2d 7e bc 19 70 55 3c
       0.2076823 0.16062029 -0.015513821 0.013027214
000240 c1 73 54 3d 6d 01 32 be b2 59 cc 3c 9a a1 e8 be
       0.051868204 -0.17383356 0.024945114 -0.45435792
000250 a2 46 10 bd 12 9b 2c bd d3 48 4d 3d 8a 94 5e be
       -0.03522361 -0.042140074 0.05011828 -0.2173635
000260 8d 40 28 3b e3 f8 32 3d 51 a1 40 3c d9 14 f4 bc
       0.002567324 0.043694388 0.011757211 -0.029795097
000270 f8 8f cf bd a2 b0 76 bc 00 1f 42 3c 4a 76 07 bc
       -0.10134882 -0.015056761 0.011848211 -0.008267948
000280 bf dc 45 3e dd a3 37 3d e4 15 bb bd 43 2a fa bc
       0.19322489 0.044834007 -0.09135035 -0.03053773
000290 0d 2a 9a 3d 9d 7e da 3e af aa 21 3d 28 40 98 bd
       0.07527552 0.42674723 0.039469417 -0.07434112
0002a0 f9 59 37 3b cf e3 6d 3e 37 17 03 be a7 da fa b8
       0.0027977212 0.23231433 -0.12801825 -0.00011961656
0002b0 88 80 18 bd 0f d1 b8 bd 97 7e e4 bd a9 f6 09 3d
       -0.037231952 -0.0902425 -0.111569576 0.0336825
0002c0 c8 b5 d0 bd 02 ad 53 3e 96 09 22 be b8 73 5b be
       -0.10190922 0.20671466 -0.15823969 -0.21430862
0002d0 c2 73 40 3e cb 05 bd bb ef 02 9a 3d 3f e9 05 3e
       0.18794158 -0.005768513 0.07520091 0.13077258
0002e0 8d 57 eb 3c 19 8c 65 bd 91 01 e9 3d 7e 6f 7c 3a
       0.02872827 -0.05604181 0.11377252 0.0009629651
0002f0 b1 9b c6 bc b7 15 74 be 3a f6 a9 3c 8e a7 27 bd
       -0.024244161 -0.23836409 0.020747293 -0.040931277
000300 c7 73 2a be d3 e6 f2 3d c6 77 b3 bd 1b ef 07 3e
       -0.16645728 0.118604325 -0.08763079 0.13274805
000310 c9 9e b4 3e 3e b9 3a 3e be 3f 74 bd bc a5 5b 3e
       0.35277393 0.18234727 -0.0596311 0.21449941
000320 37 32 01 3d 55 7c b7 3c 30 64 33 3e 77 61 4b bd
       0.03154203 0.022398153 0.17518687 -0.049653497
000330 1d 3d 32 3d e1 ff 96 3b c1 25 59 3e 63 3d 1a bd
       0.043515313 0.00460814 0.21205808 -0.0376562
000340 fc 96 28 be 8b 85 64 bd 62 35 d5 3d c8 e4 90 3d
       -0.16463846 -0.05579142 0.104105726 0.070748866
000350 cc 85 c9 bb d5 13 31 39 e6 36 e1 bc 45 59 ad 3e
       -0.006149983 0.00016887423 -0.027491998 0.3385717
000360 ff f7 01 bc a6 98 33 3d d1 a4 db be 72 1e 2b 3e
       -0.007932662 0.04384675 -0.42899182 0.16710833
000370 7c 1a 90 3e 72 df 11 3d 9a bd 2b 3e d6 b9 7e 3a
       0.28145206 0.035613485 0.16771546 0.0009717023
000380 5e fb c1 bd 7d ca 9a 3e 98 26 e1 3e 7e 9c 3e bd
       -0.094717726 0.3023261 0.43974757 -0.04653596
000390 c7 52 d3 bc ca 8f ee 3d b1 3e 06 3e 89 15 43 3c
       -0.025796307 0.11648519 0.13109852 0.01190699
0003a0 05 ee 01 3d 96 b1 b3 3d f3 c9 51 3d 66 f3 05 bd
       0.031721134 0.08774106 0.051217984 -0.032702826
0003b0 ec fd 5a 3e 36 12 db bd de bf 03 bd 94 f1 15 be
       0.21385926 -0.10696833 -0.0321654 -0.14642936
0003c0 57 5b 6a bd 30 a9 b7 be af 01 28 3d be 78 aa 3c
       -0.057216015 -0.35871267 0.04101723 0.020809527
0003d0 2f e3 90 3e 8e 8b 64 3d ab 58 09 3e 47 b9 2d 3e
       0.28298327 0.055797152 0.1341273 0.16965209
0003e0 18 74 1c 3d 82 6b d4 bc 9f 23 9b bd d2 93 ad bc
       0.038196653 -0.02593017 -0.075751536 -0.02118865
0003f0 17 02 5c ba 33 03 9f bc d5 c5 04 3e cd d3 de bd
       -0.00083926454 -0.019410705 0.12966092 -0.108802415

fc3.weight f4 [1, 256]
000000 fb 8f 00 bb 93 3c 59 b9 b8 4e 18 3b 4f 35 dc bd
       -0.001961707 -0.00020717298 0.002324028 -0.10752355
000010 70 7c e1 39 6a 28 bb be c7 a3 0c 3f 9c 4b 04 ba
       0.00043008057 -0.3655427 0.54937404 -0.0005046667
000020 7b 87 a1 3d 9d 9d 1f 3a 9f 19 97 3d b2 9e b3 bc
       0.07887169 0.0006088855 0.07377934 -0.021926258
000030 8c 96 4e be 82 f6 5e 3c 6b 82 10 be 21 ae 50 3c
       -0.20174617 0.013608577 -0.1411225 0.012736828
000040 81 44 45 ba 2a e9 4d 3f ad 6e d3 3d ce 1a e1 ba
       -0.00075251615 0.80433905 0.10323844 -0.0017174126
000050 97 f2 b8 3e 08 b2 fd be 05 c5 95 be 05 04 17 3e
       0.3612258 -0.4954989 -0.29251876 0.14747627
000060 ca af 70 bd cf c2 9b 3f d7 82 68 3d d5 82 04 bb
       -0.058761396 1.2168826 0.056765404 -0.0020219584
000070 71 e4 3f bb 65 f0 4a bd 74 3b c7 b9 68 8b a1 bd
       -0.0029280449 -0.049545664 -0.00038000534 -0.07887918
000080 30 07 28 be 6f c8 34 3f ba c2 b4 be 7b 28 3a bc
       -0.16408992 0.7061834 -0.35304815 -0.01136219
000090 34 52 8a 3d 38 f4 53 3e 3d 52 f6 3c da d5 b7 bd
       0.0675396 0.20698631 0.030068511 -0.08976336
0000a0 85 19 f0 be d4 d3 97 3c a1 71 5e be 53 7e 45 3e
       -0.4689447 0.018533625 -0.21723033 0.1928647
0000b0 3b 03 ac 3d d3 88 30 3d cd de 59 ba 9b fc 50 ba
       0.08399054 0.043099236 -0.0008311093 -0.00079722115
0000c0 9a d7 57 3c 99 b3 6f ba e7 5a 00 3e 8b 21 63 3d
       0.013173962 -0.00091438886 0.12534676 0.05545191
0000d0 f3 05 4e 3d 27 66 50 3c e5 4d 17 3a 47 39 9b be
       0.050298642 0.0127196675 0.00057718 -0.30317137
0000e0 d2 da 1b 3e 70 45 b6 bb e9 9e bb 3d fb 1f 7c b9
       0.15220192 -0.005562477 0.09161169 -0.00024044506
0000f0 ed c0 8a bd 54 27 91 be 09 17 e4 3d 1c af 61 ba
       -0.06775079 -0.28350317 0.11137206 -0.0008609162
000100 45 38 5a 3c 5b 4d 94 3d cc 4f 13 bb c4 64 22 3c
       0.01331908 0.07241317 -0.0022477983 0.00991172
000110 b6 b2 3d 3d 94 d1 a5 3a cc 76 6d bd 57 bb 86 ba
       0.04631301 0.001265096 -0.05797462 -0.001027922
000120 0c 32 cf 3d 54 89 1f 3c 55 5b fc bd 63 8e 1c 3b
       0.101169676 0.009737331 -0.12322108 0.002388858
000130 2b 0b 9b 3d af 0c 10 be 24 9a 99 3b d4 63 55 3e
       0.075704895 -0.14067338 0.0046875644 0.20838863
000140 61 d3 da 3c f6 7a 7d be 9f 11 1f 3c 9e a3 26 3d
       0.026712121 -0.24753937 0.009708791 0.04068338
000150 77 67 1f 3e 2c e6 4b 39 a4 51 3b 3e 13 f0 14 3d
       0.15566812 0.00019445334 0.18292862 0.036361765
000160 7b 1a 47 3c be c5 dd bd 0e f5 8c be 7f 1f b9 b9
       0.0121523095 -0.10828732 -0.27530712 -0.00035309416
000170 27 6a b8 3a 4d 80 69 3e cb dc 03 3b f1 d3 60 bc
       0.0014069722 0.22802849 0.0020120617 -0.013722406
000180 6a 57 ee bd 3d 0f 05 3b 34 7d 45 3f 84 2b 68 3d
       -0.11637767 0.0020303272 0.7714417 0.056682125
000190 71 c5 2f 3f b2 89 f8 3d 11 45 40 be fe 95 c2 ba
       0.68660647 0.12135638 -0.18776347 -0.0014845727
0001a0 03 26 18 3d 2a 70 1a 3f 8b 79 0f 3d 93 1d e4 ba
       0.037145626 0.603274 0.03502802 -0.0017403833
0001b0 83 d8 8e be 58 9d 80 bd 29 14 a7 3a de 4c a2 3a
       -0.2789956 -0.06280011 0.0012747097 0.0012382527
0001c0 77 6f a0 3a 20 ff a2 bf fc 30 cd ba b6 ba d4 3e
       0.001224025 -1.2734108 -0.0015654857 0.415487
0001d0 f2 ea 07 3d fb c9 fb bd 7d b0 01 3d 01 15 a9 3a
       0.033183046 -0.12294384 0.031662453 0.0012899936
0001e0 10 8e 8d 3d 30 01 f8 ba 40 bd 2e 3d 63 37 06 be
       0.06911862 -0.0018921252 0.04266095 -0.13107066
0001f0 e4 8c 3e 3d 3e 56 3d 3b 7c 1d f2 b8 dd c7 c4 bd
       0.046521083 0.0028890516 -0.00011544951 -0.096084334
000200 30 42 d5 bd cf 1e 89 bf 0a 79 1a 3b 72 95 cc bb
       -0.10413015 -1.0712527 0.002357068 -0.006243401
000210 fe a3 df be 57 ef 95 bd f7 d3 97 3c 70 c1 37 3d
       -0.43679804 -0.07321041 0.01853369 0.04486221
000220 09 bd a4 be f2 7a 9e 3d 4d 6a 93 3a 59 4d 9e ba
       -0.32175472 0.07738294 0.001124689 -0.0012077495
000230 ea 5e 94 3e ec 54 51 bd e5 b7 8b 3b a1 58 dd 3b
       0.28978664 -0.05110638 0.0042638653 0.00675495
000240 ca 71 ce 3e 30 47 b2 3d 72 d7 b5 3d da 99 b8 be
       0.4032119 0.08704984 0.088789836 -0.3605488
000250 dd 50 1f 3d aa 74 e8 3c 82 56 53 3e dc ed e5 bd
       0.038895477 0.028375942 0.20638469 -0.11227009
000260 f0 ff b7 be f3 e6 43 3c 29 16 30 3c 18 1a 39 3e
       -0.35937452 0.011956918 0.010747471 0.1807636
000270 46 e6 9f bd 85 15 1a bd 4e 1d 86 3d 41 de 23 3b
       -0.07807593 -0.03761818 0.06548558 0.00250043
000280 9c 04 90 3e 84 9d e4 ba 3a b1 2e 3d a9 3b eb 3c
       0.28128517 -0.0017441963 0.042649485 0.028714972
000290 89 a8 9a 3c fe b9 85 3d 96 8e 9a be 33 59 6b 3c
       0.018879192 0.06529616 -0.3018691 0.0143645285
0002a0 3e 75 31 3b 08 04 eb 3d d0 ef ee be 8d 85 19 3a
       0.0027077938 0.11475378 -0.46667337 0.00058563874
0002b0 06 00 00 ba 88 47 83 ba 04 4d f2 3c 15 46 b1 3a
       -0.0004882816 -0.0010015825 0.02957774 0.0013524914
0002c0 b5 43 76 bc 58 9f ce bc e7 82 98 bd e1 42 96 bd
       -0.015030791 -0.025222465 -0.07446843 -0.07336975
0002d0 53 83 1f 3e 73 9a c2 3a d4 b7 eb 3d 50 20 4d bd
       0.1557744 0.0014847055 0.11509672 -0.050079644
0002e0 71 52 8e 3f f6 56 e8 ba 40 71 4a be c4 ec df ba
       1.1118909 -0.0017726112 -0.19769764 -0.0017084111
0002f0 12 b3 af bd 5f fc 95 3e 6f d5 86 3d f8 f4 2c bb
       -0.08579077 0.29294106 0.06583678 -0.002639113
000300 4b aa bb 3c ad 99 72 3e 8c 19 18 40 34 48 82 be
       0.02290835 0.23691435 2.3765593 -0.25445712
000310 cc c3 75 3f 63 a2 fc 3e 01 a8 d5 bd 75 b1 d4 3d
       0.9600189 0.4934264 -0.10432435 0.1038541
000320 6f 7f 17 3d 5a 0a a0 3e 5c ad a8 3d 6d b0 8c be
       0.036986765 0.31257898 0.08236191 -0.27478352
000330 bb 44 70 ba 6f 28 4b ba e5 86 35 bd c8 a8 8d 3d
       -0.0009165515 -0.00077498605 -0.0443181 0.06916958
000340 53 56 9a be f6 ee 56 3c a5 07 9e bc 95 e9 c2 3c
       -0.30143985 0.013118496 -0.019290755 0.023793021
000350 54 e4 a6 3b 97 60 5d bd a3 6f ad 3c 8a 75 ea 3e
       0.005093137 -0.054047193 0.021171397 0.457928
000360 93 09 33 bb be bb d2 3c eb c6 aa bf e9 29 20 40
       -0.002731894 0.025724288 -1.3341955 2.502558
000370 82 43 4c be 3a cc 8f 3e a8 ee c0 bd e8 e9 02 bc
       -0.19947627 0.280855 -0.0942052 -0.007990338
000380 8c 96 1d be 55 0f 47 3f 66 5a b0 be ed 38 e5 b9
       -0.1538946 0.7775777 -0.3444397 -0.00043720697
000390 cb a7 4f bb 0e 75 11 3c ee 67 87 be 8f 7b a5 ba
       -0.0031685706 0.008878006 -0.2644648 -0.0012625324
0003a0 8f b4 17 3c 90 78 2a be 2a 7e 2e 3a a5 65 07 3d
       0.009259357 -0.16647553 0.0006656373 0.03305592
0003b0 ca 1b ba bd 51 b7 43 3e bf e1 5a bb 89 9d 9a 3e
       -0.090873316 0.19112898 -0.0033398715 0.30198315
0003c0 09 dd 0c 3b c7 d4 e2 bc a3 35 b2 3c 63 eb 4b 3a
       0.0021494052 -0.02768935 0.021754092 0.0007778911
0003d0 f4 5d e9 3d 8a dc a5 b9 e8 cb a2 bd ec ad 69 3f
       0.11394873 -0.00031635567 -0.07949048 0.9128101
0003e0 67 5d 78 3b b7 ce 28 3b c3 72 84 ba 43 b0 0d 3b
       0.003789747 0.0025757977 -0.0010105002 0.0021619953
0003f0 69 fb 45 3b 4b 06 f6 3c 47 62 01 3f 3a 13 36 be
       0.0030209667 0.030032298 0.50540584 -0.17780772
