TD3/models/reward_s5e-2(-5, 0.9)_a4e-2_t(-2_0.1).pth (torch, 275287 bytes, 5 tensors)

fc1.weight f4 [256, 8]
0	0xbc61bf3d	-0.013778505
1	0xbd1ef79c	-0.038810357
2	0x3f28146c	0.6565616
3	0xbdadb1df	-0.08481192
4	0xbe0fe684	-0.14052778
5	0x3b93a383	0.004505576
6	0x3f37b1d7	0.7175574
7	0x3e436213	0.19080381
8	0xba98e25a	-0.0011664138
9	0x3d008b51	0.031382862
10	0xbe957545	-0.29191032
11	0xbeeaa95c	-0.45832336
12	0x3e147aed	0.14500017
13	0x3dc5640a	0.096382216
14	0x401d4a05	2.4576428
15	0xbccbc0fc	-0.024872296
16	0xbe4af6af	-0.19820665
17	0x3e02c920	0.12772036
18	0x3f15d8c7	0.585339
19	0xbe35652a	-0.17714372
20	0x3e62f158	0.22162378
21	0xbddc3358	-0.107519805
22	0xbff1b73f	-1.8884047
23	0x3d4824e5	0.04886331
24	0x3d80cf9b	0.062895976
25	0x3d67ad91	0.05656201
26	0xbf4af9b9	-0.79287297
27	0x3f0b68c1	0.54456717
28	0xbd3e3a08	-0.04644206
29	0x3cbe8641	0.023257377
30	0x3db14aac	0.08656821
31	0x3d43f336	0.047839366
32	0x3f54576a	0.82945883
33	0xbd89b807	-0.067245536
34	0x3e93f171	0.28895143
35	0xbe459b72	-0.19297579
36	0x3c178906	0.0092489775
37	0xbccd9314	-0.025094546
38	0xbcbc28cb	-0.02296867
39	0x3e4e5d03	0.20152669
40	0x3d1d5234	0.038408473
41	0xbd91ef73	-0.071257494
42	0x3e89869c	0.2686051
43	0x3de6d911	0.11271871
44	0xbba3e8e1	-0.0050021266
45	0xbe9f7720	-0.31145573
46	0xbe5c536e	-0.21516201
47	0xbe0260cd	-0.12732239
48	0x3d1c6124	0.038178578
49	0x3e025976	0.12729439
50	0xbf36423e	-0.7119483
51	0x3e84d43b	0.2594317
52	0xbe1a8202	-0.15088657
53	0x3dc6ade9	0.097011395
54	0xbfb57bc8	-1.41784
55	0x3d85296b	0.065020405
56	0xbe9a4b4f	-0.3013558
57	0xbd900779	-0.07032675
58	0x3e342c0e	0.1759493
59	0x3e851923	0.2599574
60	0xbd818f64	-0.06326178
61	0x3e089644	0.13338572
62	0x3e607ce3	0.2192264
63	0xbdd66830	-0.10469091
64	0x3e3acc96	0.18242106
65	0xbda038a0	-0.078233
66	0x3e6e0062	0.23242334
67	0x3df903d2	0.12158932
68	0xbe3b3835	-0.1828316
69	0xbea4b354	-0.32168067
70	0xbe8c3d85	-0.27390686
71	0xbcc53817	-0.024074597
72	0xbea3b30a	-0.31972533
73	0xbd435c12	-0.047695227
74	0x3eec7963	0.4618636
75	0x3c161546	0.009160345
76	0x3d2508a5	0.040291447
77	0x3d5c7b30	0.05382842
78	0xc014aefe	-2.3231807
79	0xbf0e850c	-0.55671763
80	0x3e989544	0.2980138
81	0x3e2b2982	0.16715053
82	0x3f16a60d	0.58847123
83	0xbeacc670	-0.33745146
84	0x3e5dcd8a	0.21660438
85	0xbe5d2a7c	-0.21598238
86	0xbf815a8d	-1.0105759
87	0xbe9a7c03	-0.30172738
88	0x3b76c2cc	0.003765273
89	0xbe1a3fcb	-0.15063398
90	0xbe820b80	-0.253994
91	0xbe3f1052	-0.1865857
92	0xbd994bb2	-0.07485141
93	0xbd46c21f	-0.048524972
94	0xbcf4a6a8	-0.029864624
95	0xbe874bf4	-0.26425135
96	0x3d3887fb	0.045051556
97	0xbe949fe0	-0.29028225
98	0xbe8e29e5	-0.27766338
99	0x3ea234be	0.31680864
100	0x3dcf070e	0.101087674
101	0x3e15c869	0.14627232
102	0x3f16fd32	0.58980095
103	0x3e510bec	0.20414704
104	0x3ee89cd3	0.45432147
105	0xbcff0568	-0.031130508
106	0xbf0524d1	-0.520093
107	0x3e96d458	0.2945888
108	0xbc136c6a	-0.008998016
109	0xbdb2c752	-0.087294236
110	0x3ebd826d	0.3701357
111	0x3e9e3d7d	0.30906287
112	0x3e34ab20	0.17643404
113	0x3d42b72f	0.04753798
114	0xbe981081	-0.2970009
115	0xbeaa7e5f	-0.33299538
116	0xbe18af18	-0.14910543
117	0xbeb16dff	-0.34654233
118	0x3e8d416b	0.27588972
119	0xbe7e38a6	-0.24826297
120	0xbed17b4f	-0.4091439
121	0xbe4efe0f	-0.20214103
122	0x3d583d2e	0.05279272
123	0x3cd527a5	0.02601988
124	0xbb261e04	-0.002534748
125	0xbef50dfb	-0.4786223
126	0xbf02ee2f	-0.5114469
127	0xbdbdc4bd	-0.092660405
128	0x3d7fa941	0.062417272
129	0x3d8d5622	0.06901194
130	0xbe9ca14a	-0.30591804
131	0x3ccf4bd7	0.025304718
132	0xbe3bac9a	-0.18327561
133	0x3e6866a2	0.22695401
134	0xbf97fa08	-1.1873178
135	0xbe5c36a3	-0.21505217
136	0xbe355612	-0.17708614
137	0xbe835e58	-0.25657916
138	0x3f0b84e5	0.54499656
139	0xbe843e2c	-0.25828683
140	0x3d906246	0.07049994
141	0x3dd5def2	0.10442914
142	0x3fc37f3d	1.5273205
143	0xbec43505	-0.383217
144	0x3e4374d5	0.19087537
145	0x3df49e7b	0.1194429
146	0xbdac8c79	-0.084252305
147	0xbe288c6b	-0.16459815
148	0xbd84cad2	-0.064839974
149	0xbd7c8afe	-0.06165599
150	0x3e92a581	0.28641894
151	0xbe5c6196	-0.21521601
152	0x3e7e64c9	0.24843134
153	0x3e034c9e	0.12822196
154	0x3deb35fe	0.114849076
155	0xbe8f2f18	-0.27965617
156	0xbd961db8	-0.07329887
157	0x3d4348b7	0.04767677
158	0xbe86c609	-0.26322964
159	0x3eb434fd	0.35196677
160	0xbef3ce18	-0.47618175
161	0xbe5b42bf	-0.2141218
162	0x3da4d20f	0.08047878
163	0xb953347a	-0.00020142077
164	0x3d2824ec	0.041050836
165	0x3d9be615	0.07612244
166	0x3f69ee94	0.91379666
167	0xbdce3171	-0.10068024
168	0xbeae3d04	-0.34030926
169	0xbbfbfbc2	-0.007689924
170	0x3e0e4bb1	0.13896061
171	0x3eb15ef2	0.3464275
172	0xbdc21744	-0.09477094
173	0x3e3162cb	0.17322843
174	0x3fdb186d	1.7116829
175	0xbeb64a48	-0.35603547
176	0xbed9dec6	-0.42552775
177	0xbbe9e36c	-0.0071377065
178	0xbd245bfe	-0.040126793
179	0xbec6927f	-0.38783643
180	0x3e1f5db8	0.15563095
181	0xbec8253a	-0.39090902
182	0xbc9935b9	-0.018702375
183	0xbd075027	-0.033035424
184	0x3ea1c60f	0.3159642
185	0xbd01b883	-0.031670105
186	0xbf56fd87	-0.839806
187	0x3e9695e3	0.2941123
188	0xbda2b74b	-0.079451166
189	0x3b15588c	0.0022788374
190	0x3e77cef0	0.24200034
191	0x3df4b6da	0.11948939
192	0x3ea1d969	0.31611183
193	0x3d4723a6	0.04861798
194	0xbf775e25	-0.9662803
195	0x3e895aa5	0.2682697
196	0xbe6e7f0d	-0.23290654
197	0x3dad5c50	0.08464873
198	0xbfc70642	-1.5548785
199	0x3e076269	0.13221134
200	0x3eb566d4	0.35430014
201	0xbdb0ba73	-0.08629312
202	0x3edd8cd6	0.43271512
203	0x3d9702c0	0.073735714
204	0x3c96e9bd	0.018422002
205	0x3cd18595	0.025576392
206	0x3ef02542	0.46903425
207	0xbe9c9b7d	-0.30587378
208	0xbf85faa5	-1.0467116
209	0x3c5b8b5d	0.013399926
210	0xbf8a0793	-1.0783561
211	0x3db76e23	0.08956554
212	0x3c8dc27c	0.017304651
213	0x3cd88aa2	0.026433293
214	0xbf98b9d2	-1.1931708
215	0x3e4538fc	0.19260019
216	0x3f1a7f09	0.6035009
217	0x3d8d6143	0.06903317
218	0x3e87aff1	0.2650142
219	0x3e7763c6	0.24159154
220	0xbd0f2e52	-0.034956284
221	0xbc2895e5	-0.010289644
222	0x3e2a597a	0.16635695
223	0x3d0e97ef	0.034812864
224	0xbeb72c67	-0.35776064
225	0xbd881c92	-0.06646074
226	0xbeb1c239	-0.34718493
227	0xbdcb5e9b	-0.09930154
228	0xbde95ac3	-0.113942645
229	0xbf08f7e2	-0.5350324
230	0xbf479b6b	-0.77971524
231	0x3d8fc40d	0.070198156
232	0xbb97089b	-0.00460918
233	0xbe68298d	-0.226721
234	0x3eced617	0.40397713
235	0xbe73458d	-0.23757
236	0xbe263fee	-0.16235325
237	0x3e44c42d	0.1921546
238	0xbf2796a4	-0.65464234
239	0xbf03e368	-0.5151887
240	0xbb63c6ef	-0.0034756025
241	0xbddefa4f	-0.10887586
242	0xbede6620	-0.4343729
243	0x3ea11b91	0.31466344
244	0x3d8f0c08	0.06984717
245	0xbea6a9ea	-0.3255151
246	0xbcf97eee	-0.030456033
247	0x3d460261	0.048342112
248	0x3f04d6f4	0.5189049
249	0x3dcddfe0	0.100524664
250	0x3ec49f3a	0.3840273
251	0x3eb4c676	0.35307664
252	0x3d3ac996	0.045602404
253	0xbd969955	-0.073534645
254	0x3f4b274e	0.7935685
255	0xbd1177f0	-0.035514772

fc1.bias f4 [256]
0	0x3f37d9dc	0.718168
1	0xbf30d1d6	-0.69070184
2	0x3ef10061	0.47070602
3	0xbed56ee9	-0.4168618
4	0xbd9ee099	-0.07757682
5	0x3ea8faea	0.33003932
6	0xbe3af2a5	-0.18256624
7	0x3eb23c02	0.34811407
8	0xbdb5a62e	-0.08869587
9	0x3f6ffe81	0.9374772
10	0xbe05b9ee	-0.13059208
11	0xbe83233e	-0.25612825
12	0xbf569213	-0.8381664
13	0xbf38d10b	-0.72193974
14	0xbe75c39f	-0.24000405
15	0xbeace01b	-0.3376473
16	0xbf0a9ab3	-0.541423
17	0x3e08556a	0.13313833
18	0xbeacd9bf	-0.33759877
19	0x3cd9a3be	0.026567336
20	0x3ab2e6b7	0.0013649081
21	0x3ea385a2	0.3193789
22	0xbe91ee2c	-0.28502023
23	0xbe2c9737	-0.16854559
24	0xbf4ab3ce	-0.7918061
25	0x3f1eb73c	0.61998343
26	0xbf293603	-0.6609804
27	0x3ec1373c	0.37737453
28	0x3e06e32c	0.13172597
29	0x3f1ff09c	0.62476516
30	0xbe290fed	-0.16509981
31	0x3ebef4f5	0.37296262
32	0x3e301604	0.17195898
33	0xbf101fe8	-0.56298685
34	0xbcc7c6c5	-0.024386773
35	0x3d3c4e3c	0.045973048
36	0x3e988201	0.29786685
37	0x3e508c39	0.2036599
38	0xbd8c87ac	-0.06861815
39	0xbe1adb7e	-0.15122792
40	0x3ead341f	0.33828828
41	0x3f1ebcc5	0.6200679
42	0xbc630c17	-0.013857863
43	0x3f410e1e	0.75412166
44	0xbf5bc8bc	-0.8585317
45	0x3ee5d2b7	0.44887325
46	0x3e0c4ed3	0.13701944
47	0x3e97655e	0.29569525
48	0x3edc167e	0.4298591
49	0x3f2201b9	0.6328388
50	0xbf37601b	-0.7163102
51	0xbf1242f0	-0.5713339
52	0xbf1ecaa7	-0.6202797
53	0xbe2aadfd	-0.16667934
54	0xbe407b2d	-0.18796988
55	0x3de38e0d	0.111110784
56	0xbee046e8	-0.43804097
57	0xbe821747	-0.25408384
58	0xbf0076a7	-0.5018105
59	0xbd9b727f	-0.07590198
60	0xbdf67d62	-0.120356336
61	0x3dc68be8	0.09694654
62	0x3ed9830e	0.424828
63	0xbdde20b7	-0.108460836
64	0xbe0a37ae	-0.13497803
65	0xbdbaeec8	-0.09127575
66	0x3f52c5a7	0.82332844
67	0x3efba43e	0.49148744
68	0x3d37f1d8	0.044908375
69	0x3f2da2f7	0.6782679
70	0xbeeefd78	-0.46677756
71	0x3f2cf5ed	0.6756275
72	0xbe1d0fc2	-0.15338042
73	0xbef6fa0b	-0.48237643
74	0x3f41f421	0.75763136
75	0xbee63776	-0.44964188
76	0xbf0994b5	-0.53742534
77	0x3e964a59	0.29353598
78	0xbe24b99d	-0.16086431
79	0x3d66c73a	0.05634234
80	0x3cc8bac6	0.024503123
81	0x3f265d1c	0.64985824
82	0xbe08e5c7	-0.13368903
83	0x3f10b698	0.56528616
84	0xbed31f52	-0.41234833
85	0x3f12c02e	0.5732449
86	0xbec615d3	-0.38688526
87	0x3f808f80	1.0043793
88	0xbd4f5b27	-0.05062404
89	0x3da970d0	0.082734704
90	0xbe4513e9	-0.19245876
91	0x3db7402e	0.08947788
92	0x3e1efc78	0.15525997
93	0xbe98592c	-0.29755533
94	0xbee6a02e	-0.45044082
95	0x3e396c24	0.18107659
96	0xbd2582c0	-0.040407896
97	0xbded9bcc	-0.116019815
98	0xbeb2d383	-0.34926996
99	0x3deca0be	0.11554097
100	0xbf022e6f	-0.508521
101	0xbecf4d0e	-0.40488476
102	0x3ea1e407	0.31619284
103	0xbebd87c6	-0.3701765
104	0xbe3b313c	-0.182805
105	0x3e9bacec	0.30405366
106	0xbefe0a9a	-0.49617463
107	0xbec98855	-0.39361826
108	0x398a15ae	0.00026337564
109	0xbd308255	-0.043093044
110	0x3ea49e78	0.32152152
111	0x3e12215d	0.1427054
112	0xbe0b6c6a	-0.13615575
113	0x3f11eff7	0.5700678
114	0xbd7bb291	-0.06144959
115	0x3e41d428	0.18928587
116	0x3cfa83e1	0.030580463
117	0xbdd0ca6a	-0.101948574
118	0x3f167a7d	0.5878065
119	0xbe790357	-0.2431768
120	0x3ea1be9f	0.31590745
121	0x3ead6551	0.3386636
122	0x3e607c82	0.21922496
123	0x3e55733b	0.20844738
124	0x3dc83595	0.09775845
125	0xbd8905b0	-0.06690538
126	0xbfa24523	-1.2677349
127	0x3e2b4860	0.16726828
128	0xbe94cd15	-0.29062715
129	0xbdddf662	-0.108380094
130	0xbdf5ffb7	-0.12011664
131	0x3d9489ce	0.07252847
132	0x3f130c0d	0.57440263
133	0xbeeb1f48	-0.45922303
134	0x3e23693f	0.15958117
135	0x3ddcd6a5	0.10783128
136	0xbec3125b	-0.38099942
137	0xbf07d36e	-0.5305699
138	0x3eef5038	0.4674089
139	0xbe190e7e	-0.14946935
140	0xbe847842	-0.25873
141	0x3dc67dd9	0.09691972
142	0x3f6195b6	0.88119066
143	0x3e2a5afe	0.16636273
144	0xbc3061f0	-0.010765538
145	0xbe9b1d84	-0.30295956
146	0xbf87585e	-1.0573843
147	0x3e548e4f	0.20757411
148	0x3dcbca89	0.0995074
149	0x3e1d8c8f	0.1538565
150	0xbf03a070	-0.51416683
151	0x3e0d5ce0	0.1380496
152	0x3d2b4b9f	0.041820165
153	0xbdee79e5	-0.11644343
154	0xbd82692d	-0.06367717
155	0x3e7c7af5	0.2465628
156	0x3eee281f	0.46514985
157	0x3bb57756	0.0055379076
158	0x3f459e94	0.77195096
159	0x3e98b523	0.29825696
160	0xbda43291	-0.08017457
161	0xbe03b890	-0.12863374
162	0x3f7aedbc	0.98019004
163	0x3dd16026	0.10223417
164	0x3ea5ae19	0.32359388
165	0x3e99f807	0.30072042
166	0x3eab92aa	0.33510333
167	0xbe5ddd7a	-0.21666518
168	0xbde135b6	-0.10996573
169	0xbe3f7e43	-0.18700509
170	0x3ebafbbe	0.3652019
171	0x3cdf5e3c	0.027266614
172	0xbe314c73	-0.1731432
173	0xbe220208	-0.15821087
174	0x3f1fb64a	0.62387526
175	0xbea0ad84	-0.31382382
176	0x3eda6069	0.4265168
177	0xbe9c5af3	-0.3053814
178	0x3d33a22a	0.043855824
179	0x3ef93afb	0.4867781
180	0xbebcaa14	-0.3684851
181	0xbdbfc1a4	-0.09363106
182	0xbf5b8c13	-0.8576061
183	0xbeb73a3e	-0.35786623
184	0xbe8197db	-0.2531117
185	0x3ec1a7a0	0.378232
186	0xbf0eabe9	-0.55731064
187	0x3f5c938a	0.86162627
188	0x3f15dfbb	0.5854451
189	0xbedb2dd1	-0.42808393
190	0xbf0c5cab	-0.548289
191	0x3e7fe80c	0.24990863
192	0x3e7072eb	0.23481338
193	0x3ea69d3f	0.32541844
194	0xbf00e368	-0.50346994
195	0xbcc3fd05	-0.02392436
196	0x3df9fea8	0.12206775
197	0xbe500216	-0.20313296
198	0xbed1a1f6	-0.4094388
199	0xbe122579	-0.14272107
200	0x3f0bab50	0.5455828
201	0xbce28413	-0.027650869
202	0x3f033f85	0.512688
203	0x3beddd7c	0.007259069
204	0xbd31d779	-0.04341838
205	0xbee4cae7	-0.44686052
206	0x3ed7f02b	0.4217542
207	0xb9f49150	-0.00046647573
208	0x3d960104	0.073244125
209	0x3d73f220	0.05955708
210	0xbf0f3ea5	-0.5595496
211	0xbd79ea59	-0.061014507
212	0x3c23ef73	0.01000582
213	0xbea7b0b3	-0.32751998
214	0xbedcfa47	-0.43159696
215	0xbd568cad	-0.052380253
216	0xbeea82a2	-0.4580279
217	0xbf00afd7	-0.5026831
218	0xbf287e82	-0.65818036
219	0xbf0c1eee	-0.54734695
220	0x3e97d3e7	0.29653856
221	0xbf20e01f	-0.6284198
222	0xbebc26ab	-0.3674825
223	0xbf356376	-0.7085489
224	0xbeefb5dd	-0.46818438
225	0x3da7e619	0.081981845
226	0x3e6c9f1a	0.23107567
227	0xbe0fcc44	-0.14042765
228	0xbe458521	-0.19289066
229	0x3bb0a693	0.005390951
230	0x3dac2316	0.084051296
231	0x3ebf8184	0.374035
232	0xbed50fcb	-0.41613612
233	0x3f744e89	0.95432335
234	0x3ef0d541	0.470377
235	0xbf40d6d0	-0.7532778
236	0x3e7bbf83	0.24584775
237	0xbdeb19dc	-0.11479542
238	0xbeb7c710	-0.3589406
239	0xbf1ef31f	-0.62089723
240	0x3e9fde81	0.31224445
241	0xbcfaa9ba	-0.03059851
242	0xbed7fbd3	-0.42184314
243	0xbe5732fe	-0.21015546
244	0xbf8a8754	-1.0822549
245	0xbe9c72ac	-0.30556238
246	0x3e20848d	0.15675564
247	0xbe7b5050	-0.24542356
248	0xbcb49d3c	-0.022047631
249	0xbec0c6f0	-0.37651777
250	0x3e554c44	0.20829874
251	0xbd07f788	-0.03319505
252	0xbf644494	-0.8916714
253	0x3f880751	1.0627233
254	0x3f4901d4	0.78518414
255	0xbcedfce7	-0.029051257

fc2.weight f4 [256, 256]
0	0x3d261742	0.040549524
1	0x3d3d60f5	0.046235044
2	0xbcb62814	-0.022235908
3	0x3c25e7ad	0.010126037
4	0x3b65deba	0.0035075382
5	0x3d647951	0.05577976
6	0xbd8b5bde	-0.06804632
7	0xbd666d7a	-0.05625675
8	0xbcb0d967	-0.02158804
9	0x3cb8e338	0.022569284
10	0x3d43d8dd	0.04781424
11	0xbd6891f0	-0.0567798
12	0x3d2ebece	0.042662434
13	0x3cf38106	0.02972461
14	0x3cc5d28c	0.024148248
15	0x3cf13239	0.029442893
16	0x3d56b7f0	0.05242151
17	0xbc77e464	-0.015130136
18	0x3d269dbc	0.04067777
19	0xbd1b2d0b	-0.037884753
20	0xbca856f3	-0.020549273
21	0xbd2fe4f4	-0.042942956
22	0xbd3d836b	-0.046267908
23	0xbd242ba0	-0.040080667
24	0x3d458e57	0.04823145
25	0xbb0e60a0	-0.0021725073
26	0x3c7c4b81	0.015398861
27	0x3c0e507a	0.008686179
28	0xbd282845	-0.04105403
29	0x3d6dbbf0	0.05804056
30	0xbc22afec	-0.009929638
31	0x3cf428e4	0.029804654
32	0xbd407de3	-0.046995055
33	0x3d68e8bd	0.05686258
34	0xbcd59afe	-0.026074883
35	0xbcaadb80	-0.020856619
36	0xbd1e1fd2	-0.038604565
37	0xbd744b9c	-0.05964242
38	0x3d525080	0.051346302
39	0x3bdd175d	0.00674717
40	0x3c36f979	0.011167877
41	0x3c94259c	0.01808434
42	0xbd07fff9	-0.0332031
43	0xbc8b62ec	-0.017014943
44	0xbcf3fd29	-0.029783802
45	0x3bf1841b	0.0073704845
46	0xbc92526c	-0.017861567
47	0xbd210d68	-0.039319426
48	0xbd4af35d	-0.049548496
49	0xbae59440	-0.0017515495
50	0xbc8f3e89	-0.017485874
51	0xbcf08fca	-0.029365439
52	0x3c32532a	0.010884086
53	0xbcbb3275	-0.022851208
54	0xbd5f0c8c	-0.054455325
55	0xbcfb2de2	-0.030661527
56	0xbd2ad216	-0.04170426
57	0x3d18db10	0.03731829
58	0xbc425c13	-0.0118627725
59	0xbd1ad6c6	-0.03780248
60	0xbcada96a	-0.021198947
61	0xbd6e3508	-0.058156043
62	0xbce54af9	-0.027989851
63	0x3d540742	0.051764734
64	0x3a357f4b	0.000692357
65	0xbd6f9da0	-0.058499932
66	0xbd0a1b94	-0.033717707
67	0x3d18aa28	0.03727165
68	0xbd85932e	-0.06522213
69	0x3d7127f0	0.058875978
70	0xbcf5c22a	-0.029999811
71	0x3c5d0734	0.013490487
72	0x3ca62950	0.020283371
73	0xbd7c3df8	-0.061582536
74	0x3cd9a39f	0.026567278
75	0x3cfc02ee	0.030763116
76	0x3d25f2f3	0.040514898
77	0xbd748978	-0.059701413
78	0xbcf295f6	-0.029612523
79	0xbd1741da	-0.036928035
80	0xbd277486	-0.04088261
81	0x3ce1b324	0.027551241
82	0x3d4bc60f	0.04974943
83	0xbcc317c1	-0.023815038
84	0x3d619c18	0.055080503
85	0xbd687ccb	-0.056759637
86	0x3cbcd154	0.023049034
87	0x3c32535b	0.010884131
88	0xbc619baa	-0.013770023
89	0xbcfd17bb	-0.030895105
90	0x3cfb08c0	0.03064382
91	0xbd4ade68	-0.04952851
92	0xbb661e20	-0.003511317
93	0x3c6bb6a4	0.014386807
94	0xbd7d7ffb	-0.06188963
95	0xbd3d130e	-0.04616075
96	0x3c9893a2	0.018625084
97	0x3c17ad0e	0.009257568
98	0xbd78d2e2	-0.06074799
99	0x3c40b82b	0.011762659
100	0xbd08c236	-0.03338834
101	0xbb97ee35	-0.004636551
102	0xbcf5cc9d	-0.030004794
103	0xbd2311e3	-0.03981198
104	0xbb0ad515	-0.0021184136
105	0x3d571249	0.052507672
106	0xbd1cbee6	-0.038267992
107	0x3d346200	0.044038773
108	0xbd151848	-0.03640011
109	0x3d3e1052	0.046402283
110	0xbd33a133	-0.043854903
111	0xbd0cc093	-0.03436334
112	0x3c2833ee	0.010266287
113	0xbce34adc	-0.027745657
114	0xbd2f9bf0	-0.042873323
115	0xbd410353	-0.04712231
116	0x3cefad12	0.029257331
117	0x3d1508c5	0.036385316
118	0xbd1a9946	-0.03774383
119	0xbd28618f	-0.041108664
120	0x3d2e219b	0.042512517
121	0xbcb8d948	-0.022564545
122	0x3d30880e	0.0430985
123	0x3d59505c	0.053055152
124	0xbd351191	-0.044206206
125	0xbcb1dd60	-0.021712005
126	0x3cba3863	0.022731965
127	0x3cca77a2	0.024715248
128	0xbc1db4d4	-0.009625632
129	0xbd748c40	-0.059704065
130	0x3c139bb6	0.009009292
131	0xbca191aa	-0.019722778
132	0xbcfd0270	-0.030884951
133	0xb9655f74	-0.00021874701
134	0xbd45269d	-0.048132528
135	0xbce80833	-0.028324222
136	0x3cca671c	0.02470737
137	0xbc1b846b	-0.00949202
138	0x3c601580	0.013677001
139	0xbd62bf09	-0.055357967
140	0xbd34d251	-0.044145886
141	0x3c622311	0.013802306
142	0xbd4f3afa	-0.050593354
143	0x3cf029a6	0.029316735
144	0x3d3c6203	0.04599191
145	0x3c825dab	0.015913805
146	0x3d28e4dd	0.041233886
147	0xbc4deb10	-0.01256825
148	0xbd4795fc	-0.04872702
149	0x3accc7b3	0.001562348
150	0x3d0c7475	0.03429075
151	0x3d4ce645	0.05002429
152	0x3d0ceec5	0.034407396
153	0xbccdbe14	-0.02511505
154	0x3cf13d53	0.029448187
155	0x3c9f6c38	0.019460782
156	0x3d1818f5	0.037133176
157	0xbd28d9ba	-0.041223265
158	0xbc0813c8	-0.0083054975
159	0x3d2b7c29	0.041866455
160	0xbbe3a9b8	-0.0069477223
161	0xbbe940f4	-0.0071183387
162	0xbd371fe2	-0.04470814
163	0x3a984204	0.0011616354
164	0xbcaca6cc	-0.021075629
165	0xbd714630	-0.058904827
166	0x3d13c85d	0.036079753
167	0x3c80d60d	0.015727067
168	0xbcf22f3f	-0.029563544
169	0x3c1c7945	0.009550397
170	0xbc899ea1	-0.016799273
171	0xbd45aaac	-0.04825847
172	0x3d528369	0.051394854
173	0x3c65d61b	0.0140280975
174	0x3ce6884d	0.028141165
175	0xbcae260c	-0.021258377
176	0xbd4e758c	-0.05040507
177	0x3b0edc9c	0.0021798974
178	0xbb915c82	-0.0044360766
179	0xbd4ea4b2	-0.050450034
180	0x3d01e3e8	0.03171149
181	0x3d37caf0	0.04487127
182	0xbcd4120f	-0.025887517
183	0x3bfa5d7c	0.0076405387
184	0xbc830660	-0.01599425
185	0xbd31958d	-0.043355513
186	0xbd280a7d	-0.041025627
187	0xbca12168	-0.01966925
188	0x3d683b72	0.056697316
189	0x3d076a0b	0.033060115
190	0xbd73644f	-0.059421834
191	0xbcd20da5	-0.025641272
192	0x3cdd6255	0.027024427
193	0x3d58578a	0.05281786
194	0xbbe9d129	-0.0071355295
195	0xbd432505	-0.047642726
196	0xbcfbee5e	-0.03075331
197	0x3bf8a890	0.0075884536
198	0xbcd8cef7	-0.026465876
199	0x3cbfa211	0.023392709
200	0xbd04ef9f	-0.032455083
201	0xbc946448	-0.018114224
202	0x3d429d27	0.047513153
203	0xbba6d94f	-0.005091823
204	0xbd677e5c	-0.05651699
205	0xbcdeab57	-0.02718131
206	0x3c97179b	0.018443873
207	0x3bafaa02	0.0053608427
208	0x3ce25ae5	0.027631233
209	0xbd748c26	-0.05970397
210	0x3cdf05c4	0.027224429
211	0x3ce8650b	0.028368494
212	0xbc22293e	-0.009897528
213	0x3d033eca	0.032042302
214	0xbd828286	-0.063725516
215	0x3c13ed19	0.009028696
216	0xbc8bd8fb	-0.017071238
217	0x3d2585f8	0.040410966
218	0xbd0f230b	-0.03494553
219	0xbce3674a	-0.027759213
220	0x3c502f6e	0.012706621
221	0x3c5ca6e1	0.013467521
222	0x3d6ef0e9	0.05833522
223	0xbc540534	-0.012940694
224	0x3b7dd3c6	0.0038730963
225	0xbd05048c	-0.03247504
226	0x3d69137a	0.05690334
227	0xbd5e7a94	-0.05431612
228	0xbd7a57b0	-0.06111878
229	0xbc8db64a	-0.017298836
230	0xbd4fd8ac	-0.050743744
231	0xbd5086ec	-0.05090992
232	0x3b005a06	0.0019584908
233	0xbb296300	-0.0025846362
234	0xbc96d806	-0.018413555
235	0xbc3564c7	-0.0110713905
236	0xbd185dc5	-0.0371988
237	0x3cd4c84d	0.025974417
238	0x3b8ea585	0.0043532276
239	0x3ce31554	0.027720131
240	0x3d58d75a	0.05293975
241	0xbd5e308c	-0.054245517
242	0xbd659692	-0.0560518
243	0x3ba5cc89	0.005059783
244	0x3c96c216	0.018403094
245	0x3c7b9360	0.015354961
246	0xbc51b45a	-0.012799347
247	0xbc7ed25b	-0.015553082
248	0xbc4693ba	-0.012120182
249	0x3cd08415	0.025453607
250	0x3c49fa50	0.012327746
251	0xbd094b35	-0.03351899
252	0xbd0dea70	-0.034647405
253	0x3d24b68e	0.04021316
254	0x3c8a67d2	0.016895209
255	0x3c29c2b8	0.010361366

fc2.bias f4 [256]
0	0x3d641e1c	0.055692777
1	0x3cf2c060	0.029632747
2	0xbcf8e2e0	-0.03038162
3	0x3ecb6d32	0.39731747
4	0x3c6879be	0.014189182
5	0x3d419e93	0.04727037
6	0x3d7b395d	0.061334003
7	0xbdfd205a	-0.12359686
8	0x3f1a6c03	0.6032106
9	0x3df65567	0.12028008
10	0xbcf51e9e	-0.029921826
11	0xbd90ebd8	-0.070762336
12	0xbbd7da72	-0.00658732
13	0xbc5ae7a2	-0.01336089
14	0x3db20b35	0.08693544
15	0xbe88c527	-0.26712915
16	0x3d707baa	0.058711685
17	0x3e0e398a	0.13889137
18	0xbc7ac9e7	-0.015306926
19	0x3ccdafcd	0.025108242
20	0xbd9fe1ea	-0.078067616
21	0xbe0b8dcf	-0.13628314
22	0xbcb5bf66	-0.022185992
23	0xbcce3c96	-0.025175374
24	0x3e5f2635	0.21791919
25	0x3bfeb9eb	0.007773628
26	0x3dfdbbb6	0.12389319
27	0xbbc14810	-0.005898483
28	0xbd83cf70	-0.0643605
29	0xbdd3b536	-0.103372976
30	0x3dc7becf	0.09753191
31	0x3e011bee	0.1260831
32	0x3e2593e6	0.161697
33	0xbdcaa593	-0.09894862
34	0x3b6c6b99	0.0036074875
35	0x3e27e1fe	0.16394803
36	0xbdc87096	-0.09787099
37	0x3d10f644	0.035391107
38	0x3d0ef357	0.034900036
39	0x3ce6f08c	0.028190874
40	0x3e24b4b7	0.16084562
41	0xbd3a62a9	-0.045504246
42	0x3c860555	0.016359964
43	0x3c2869c1	0.01027912
44	0xbe338702	-0.1753197
45	0xbee0a182	-0.4387322
46	0xbd308ead	-0.043104816
47	0x3e60e08f	0.21960662
48	0x3d0f09a2	0.034921296
49	0xbbb4a1cc	-0.0055124518
50	0x3cb57892	0.022152219
51	0xbbab3bb7	-0.0052256244
52	0x3e05af07	0.13055049
53	0xbd0f1af9	-0.034937833
54	0x3c92c3bf	0.017915605
55	0xbc742bf2	-0.0149030555
56	0x3e71029a	0.23536149
57	0x3e50065a	0.20314923
58	0xbcde43b3	-0.02713189
59	0xbc5a8da0	-0.01333943
60	0xbbe20b91	-0.0068983515
61	0xbe3e8ec6	-0.18609151
62	0xbd22a1da	-0.039705135
63	0xbd62835b	-0.05530105
64	0xbd97113a	-0.073763326
65	0x3eb23451	0.3480554
66	0x3e4ec83c	0.20193571
67	0x3d7539b9	0.0598695
68	0xbd9911f0	-0.074741244
69	0xbc0954a0	-0.008381993
70	0xbcb3d914	-0.021954097
71	0xbcf91d62	-0.030409519
72	0xbeb9b651	-0.3627191
73	0x3da4f985	0.080554046
74	0xbd1a4ecd	-0.037672807
75	0xbcf2bb47	-0.029630316
76	0x3c065573	0.008199084
77	0x3e832a76	0.25618333
78	0xbda12825	-0.07868985
79	0xbcee10fc	-0.029060833
80	0x3d4ada62	0.049524672
81	0xbde06e47	-0.10958534
82	0xbe18a474	-0.14906484
83	0xbe57f463	-0.2108932
84	0x3e81e754	0.25371802
85	0x3e9820fb	0.29712662
86	0x3dcd7dd6	0.10033767
87	0x3e51ec85	0.20500381
88	0xbbdfe438	-0.0068326257
89	0x3e299f71	0.16564728
90	0x3d0892a3	0.03334297
91	0x3d2c99e0	0.042138934
92	0x3c48c66e	0.012254341
93	0xbdd221b6	-0.10260336
94	0x3de77887	0.11302286
95	0x3e3d1bf4	0.18467695
96	0x3d65f67f	0.05614328
97	0xbd306279	-0.04306266
98	0x3d12ee53	0.035871815
99	0xbd79bd73	-0.06097169
100	0x3d3046f9	0.043036435
101	0x3d56a414	0.05240257
102	0x3c879756	0.016551655
103	0x3dc8517b	0.09781166
104	0x3debf787	0.115218215
105	0xbecf4178	-0.40479636
106	0x3e3a5e36	0.18200001
107	0x3c9824f9	0.018572317
108	0xbd641bef	-0.055690702
109	0x3cf40738	0.029788598
110	0xbd605af5	-0.054774243
111	0xbc42f9e9	-0.011900404
112	0x3d290471	0.041264
113	0xbd965f1f	-0.07342362
114	0x3d923f7e	0.071410164
115	0x3ed0fecd	0.40819398
116	0xbd6b860c	-0.057500884
117	0x3df00ef1	0.117216
118	0x3e759e08	0.23986065
119	0xbc8bf665	-0.017085264
120	0x3e14207c	0.14465517
121	0x3e0a7f89	0.13525213
122	0x3e896092	0.2683149
123	0x3e7d3a9c	0.24729389
124	0x3d321e3a	0.043485858
125	0xbceada9c	-0.028668694
126	0x3d69c2f2	0.05707068
127	0x3eb28a1b	0.3487099
128	0x3e57d5f3	0.21077709
129	0x3bf031ba	0.0073301466
130	0x3c903e0b	0.01760771
131	0x3d22f19b	0.039781194
132	0xbdcc1be4	-0.09966257
133	0xbe01806e	-0.12646648
134	0x3d25588d	0.04036765
135	0x3e07249b	0.13197558
136	0xbd6e6631	-0.058202926
137	0xbc7105ef	-0.014710887
138	0x3c9050f2	0.017616723
139	0xbd7f2c8d	-0.062298346
140	0x3e35cc79	0.17753781
141	0x3dd989a7	0.10621958
142	0x3d0402d6	0.032229267
143	0xbcb8c6ec	-0.02255579
144	0xbd9a1591	-0.07523645
145	0x3dd06849	0.10176141
146	0x3d2f9ff7	0.042877164
147	0x3e077026	0.13226375
148	0x3e47c0dd	0.19507165
149	0x3e1efacd	0.1552536
150	0x3df4deb0	0.11956537
151	0x3e569228	0.20954192
152	0x3c8bc593	0.017061984
153	0x3e237d3b	0.1596574
154	0xbd3ed85c	-0.046593055
155	0x3aa76cb5	0.0012773486
156	0xbd8efab1	-0.06981409
157	0xbd8cd1cf	-0.06875955
158	0x3d004984	0.03132011
159	0xbd32bbff	-0.04363632
160	0x3e089668	0.13338625
161	0x3d37bd3a	0.044858195
162	0xbdb57562	-0.088602796
163	0xbe6c1846	-0.23056135
164	0x3d2b784c	0.04186277
165	0x3eb462fa	0.35231763
166	0x3e14ef1c	0.14544338
167	0xbce103ca	-0.027467627
168	0x3c45ee63	0.012080762
169	0x3dac64b2	0.084176436
170	0xbd80ea28	-0.06294662
171	0x3e844511	0.25833943
172	0xbd6fb94e	-0.05852633
173	0x3cf61321	0.030038418
174	0x3d1ef5cc	0.03880863
175	0x3d9a32c6	0.075292155
176	0xbdbc22d0	-0.091863275
177	0x3c592e74	0.013255704
178	0xbe05840d	-0.13038655
179	0xbe6eb5d6	-0.23311552
180	0x3eb8c7d4	0.36089957
181	0xbd7eb00e	-0.062179618
182	0x3bb44926	0.005501884
183	0x3ced1dee	0.028944936
184	0xbc7df340	-0.01549989
185	0xbd5fc950	-0.054635346
186	0xbc0fe35b	-0.008782233
187	0xbdd0fdf9	-0.102046914
188	0x3cd92c53	0.026510393
189	0xbd8be62b	-0.068310104
190	0x3d3da844	0.04630305
191	0xbda9d318	-0.08292216
192	0xbe1ee738	-0.1551789
193	0x3d2c9589	0.042134795
194	0x3cf541c7	0.029938592
195	0x3c8fc310	0.017549068
196	0x3d02fc02	0.031978615
197	0xbe5f3fdd	-0.21801706
198	0x3de3c228	0.11121017
199	0x3e913082	0.2835732
200	0x3c585a9f	0.0132051995
201	0xbcf1bb0c	-0.029508136
202	0x3ddaad91	0.106776364
203	0x3daee884	0.085404426
204	0x3eb962c7	0.36208174
205	0xbd28a011	-0.041168276
206	0xbd70da63	-0.05880202
207	0xbdf58974	-0.11989108
208	0x3cf839f3	0.03030107
209	0x3e8e79a0	0.27827168
210	0x3e2308b2	0.15921286
211	0xbc2f9518	-0.010716699
212	0x3d31e61c	0.04343234
213	0xbc4cfd43	-0.012511554
214	0x3e0a3aba	0.13498965
215	0x3d65803f	0.056030508
216	0xbd934f4a	-0.071928576
217	0xbdf191fd	-0.11795423
218	0xbd79251f	-0.060826417
219	0x3cb964eb	0.02263113
220	0x3d27f761	0.041007403
221	0xbc9cac8b	-0.019125244
222	0x3db9f6b7	0.0908026
223	0xbc7c8efa	-0.015414948
224	0x3e873684	0.2640878
225	0xbd8c8a83	-0.068623565
226	0x3e004a6b	0.12528388
227	0xbd33e35b	-0.043917995
228	0x3eaa0d88	0.3321345
229	0xbadde4de	-0.001692917
230	0x3c8f28e7	0.017475558
231	0x3c4a727f	0.0123564
232	0x3c8a9b6a	0.01691981
233	0xb81a482c	-3.6783676e-05
234	0x3a77f021	0.0009458084
235	0x3e10cfc6	0.1414176
236	0xbc249916	-0.010046264
237	0xbd0a2e1c	-0.03373538
238	0xbdf40d83	-0.1191664
239	0x3cafa855	0.021442572
240	0xbd53d6a5	-0.051718373
241	0xbd537f13	-0.05163486
242	0x3d47ecde	0.04880988
243	0x3c2bc22e	0.010483308
244	0x3d8c2f4d	0.068449594
245	0x3e435232	0.19074324
246	0xbcc312e7	-0.023812724
247	0x3de6b751	0.112654336
248	0xbd920114	-0.07129112
249	0x3e929f48	0.28637147
250	0xbd9f1f50	-0.07769644
251	0xbcf78ebd	-0.03021943
252	0x3e468211	0.19385554
253	0x3ec31e2c	0.38108957
254	0x3cb6e36f	0.022325246
255	0xbcbb3ac2	-0.022855166

fc3.weight f4 [1, 256]
0	0xbb13e8ad	-0.0022569105
1	0x3b34cd8e	0.002758834
2	0xbdef1ed6	-0.11675803
3	0xbe7c2bdf	-0.2462611
4	0xba9ddfed	-0.0012044884
5	0xbf4fad47	-0.81123775
6	0xbb853cce	-0.0040660864
7	0xbddac119	-0.10681362
8	0x3f1a3560	0.60237694
9	0x3ec201ce	0.37892002
10	0xba5c50e8	-0.000840439
11	0x3b56d327	0.0032779665
12	0xbd3180e6	-0.043335818
13	0xbe580cc6	-0.21098623
14	0x398cf6ae	0.00026886672
15	0x3dc17d8a	0.09447773
16	0x39d9701c	0.00041472993
17	0xbe27470b	-0.16335694
18	0xbb332f13	-0.002734129
19	0x3daf7f2f	0.0856918
20	0xbbefda6a	-0.007319738
21	0xbeb13993	-0.34614238
22	0xbdb7956f	-0.08964049
23	0xba90c33a	-0.001104451
24	0xbe295734	-0.16537172
25	0xbdfcb44d	-0.12339077
26	0xbdceec22	-0.101036325
27	0xbb0482d5	-0.0020219584
28	0x3a9ca2fa	0.0011950426
29	0xbc977326	-0.018487524
30	0xbd8378e6	-0.06419544
31	0xbd044922	-0.032296307
32	0x3e72584f	0.236665
33	0xbf93a054	-1.1533303
34	0x39c58990	0.0003767726
35	0xbe3c61d9	-0.18396701
36	0xbdb21769	-0.086958714
37	0xbe0931b0	-0.1339786
38	0xbbabd938	-0.0052444004
39	0xb9abfcd4	-0.00032804033
40	0xbd9b0fb7	-0.07571357
41	0xbb9e7487	-0.0048356685
42	0xbd097198	-0.033555597
43	0xbbc609d1	-0.0060436507
44	0xbf4d3c70	-0.80170345
45	0x3e1f31d7	0.15546356
46	0x3b136cad	0.0022495196
47	0x3e44fb3a	0.1923646
48	0x39e9ce1b	0.00044594784
49	0xbb773c25	-0.0037725058
50	0xbd82218a	-0.06354053
51	0x3e115502	0.14192584
52	0xbe5befc7	-0.21478187
53	0xbd9994a2	-0.074990526
54	0xbc2fabb0	-0.010722086
55	0xbdf24c1b	-0.11830922
56	0x3e772fa6	0.2413927
57	0xbe724710	-0.2365992
58	0xbe040db9	-0.1289586
59	0x3b1cb155	0.002390941
60	0xbe34ef0d	-0.17669316
61	0xbe8008aa	-0.2500661
62	0xbb98bb68	-0.0046610124
63	0xbe0b7155	-0.13617451
64	0xbd2e5af7	-0.04256722
65	0xbec7f9fd	-0.39057913
66	0x3d820fda	0.0635068
67	0x3d9f3132	0.07773055
68	0xbd779223	-0.0604421
69	0x3a0f54eb	0.0005467671
70	0x3e419d77	0.18907724
71	0xb9a31020	-0.00031101797
72	0xbe53539a	-0.2063736
73	0xbadce6da	-0.0016853467
74	0xbbf1d0c8	-0.007379625
75	0xbe2be1e0	-0.16785383
76	0xba93ed0f	-0.0011285859
77	0xbd2e73c6	-0.04259088
78	0xbdb9aca7	-0.09066134
79	0x3d9063f7	0.07050317
80	0x3e4e7ac3	0.20164017
81	0xbcfd610b	-0.030930063
82	0xbe11c08b	-0.14233606
83	0xbe12e721	-0.14345981
84	0xbd552915	-0.052041132
85	0xbe03d781	-0.12875177
86	0xbe93fc11	-0.2890325
87	0xbdd474ba	-0.10373826
88	0xbe896c62	-0.26840502
89	0x3e081f58	0.13293207
90	0xbef3841e	-0.47561735
91	0xbdfb9425	-0.12284116
92	0xbab27338	-0.001361466
93	0xba80cd09	-0.000982673
94	0xbe97baf9	-0.29634836
95	0xbe1ca302	-0.15296558
96	0xbdac1f00	-0.0840435
97	0x3a02f033	0.0004994899
98	0xbad63a06	-0.0016344197
99	0x3ab1701b	0.0013537438
100	0x3d4a38ae	0.04937046
101	0xbb0331d9	-0.0020018725
102	0x3b48a10e	0.0030613574
103	0xbdc4ed65	-0.09615592
104	0x3a8c7273	0.0010715261
105	0xbe7305b1	-0.2373264
106	0xbedb2987	-0.4280512
107	0x3d89d067	0.06729203
108	0x3aa14c8e	0.001230614
109	0xbd26c3f8	-0.040714234
110	0x3b28b856	0.0025744638
111	0xbcbb594d	-0.02286973
112	0xb9f0403b	-0.00045824223
113	0xbe71d75d	-0.23617311
114	0xbe0f8a23	-0.14017539
115	0xbe43b525	-0.1911207
116	0xbb7a985f	-0.0038237793
117	0x3b8240b3	0.003974998
118	0x3ea4a03d	0.32153502
119	0xba9d88d7	-0.0012018931
120	0x3de0087b	0.109391175
121	0xbd93a707	-0.07209592
122	0x3e7f936d	0.24958582
123	0xbade6cd1	-0.0016969686
124	0xbe5b61c0	-0.21424007
125	0xbeb38a59	-0.35066488
126	0x3a07494c	0.00051607634
127	0x3dafd911	0.08586324
128	0xbe4aee63	-0.198175
129	0xbc3eb363	-0.011639449
130	0x3e915b08	0.28389764
131	0xbe1202b8	-0.1425885
132	0xbdfbaa83	-0.12288382
133	0xbca3a1b2	-0.019974563
134	0xb9541e59	-0.00020229201
135	0x3ddc6d3c	0.10763022
136	0xbaf3e8a1	-0.0018608758
137	0xbaa5fe88	-0.0012664357
138	0xbe491140	-0.19635487
139	0x39e27c00	0.00043198466
140	0xbf783b1e	-0.96965206
141	0xbce928e8	-0.028461888
142	0xbe3796fa	-0.17928687
143	0xbd899cb0	-0.06719339
144	0xbb32b3f9	-0.0027267917
145	0xbe06dafc	-0.13169473
146	0x3d7493f5	0.059711415
147	0xbd4dc9b4	-0.050241187
148	0xbe72f457	-0.23726021
149	0xbde272e9	-0.110570736
150	0x3dadc4ae	0.08484779
151	0xbe1086d7	-0.14113937
152	0x3d90ab6f	0.07063948
153	0xbeb18944	-0.34675038
154	0xb8a677fa	-7.937844e-05
155	0xbdb60a0b	-0.08888634
156	0xbc23d952	-0.010000544
157	0xbb857761	-0.004073069
158	0xbe34b18b	-0.17645852
159	0xbb466ccf	-0.0030277257
160	0xbe954cdd	-0.29160205
161	0x3afca4e0	0.0019275211
162	0xbdbec587	-0.09315019
163	0x3d384a2a	0.044992603
164	0xbac4b961	-0.001500886
165	0xbdec29d8	-0.115314186
166	0xbd46e44f	-0.048557576
167	0xbf98b8cc	-1.1931396
168	0x3d98f627	0.07468825
169	0xbbc96ff5	-0.0061473795
170	0xbbc61ed4	-0.0060461555
171	0xbe96f8e0	-0.29486752
172	0xbb51bed4	-0.0032004612
173	0x3dbdba01	0.09263993
174	0x3dd19da5	0.102351464
175	0xbe566f94	-0.20941001
176	0xb9a41297	-0.00031294368
177	0xbe2aa2c0	-0.16663647
178	0xbe675274	-0.22590047
179	0xbeee557e	-0.465496
180	0xbd3d2792	-0.046180315
181	0xbacc6589	-0.0015594225
182	0xbf3f8379	-0.74809986
183	0x3da59197	0.0808441
184	0xbd4cde45	-0.05001666
185	0xbb01946a	-0.00197723
186	0xbc872773	-0.016498303
187	0xbd96bc93	-0.073601864
188	0x3e041b11	0.1290095
189	0xbe12e9c6	-0.1434699
190	0xbe6751b1	-0.22589757
191	0xbc5aec1d	-0.013361958
192	0xbba61ddd	-0.005069478
193	0x3de0adbb	0.109706365
194	0xbe5dbd65	-0.2165428
195	0xbd4d0b37	-0.050059523
196	0xbd2b8e33	-0.04188366
197	0x3e90b724	0.28264725
198	0xbab2f25d	-0.0013652552
199	0x3d9d19ac	0.07670912
200	0xba818680	-0.0009882003
201	0x39d2ef2f	0.00040232527
202	0x3da614cb	0.08109435
203	0x3df439e5	0.11925105
204	0xbe95861e	-0.29203886
205	0x3a4e8185	0.0007877576
206	0xbea1e91e	-0.31623167
207	0xbe6db704	-0.23214346
208	0xbdc5a497	-0.09650534
209	0xbe249d8c	-0.16075724
210	0x3db32e5c	0.08749077
211	0xbb6e67d3	-0.0036377802
212	0xbe14686b	-0.14492957
213	0xbdb8b7c8	-0.090194285
214	0xbb5408fa	-0.0032353983
215	0x3a940c2f	0.0011295135
216	0xbc4a1d44	-0.012336079
217	0x3e153315	0.14570267
218	0x3da63e1f	0.081173174
219	0xbcf5b1af	-0.029991953
220	0x3ae8d1b6	0.0017762694
221	0xbd8ade42	-0.067806736
222	0xbd2f8a78	-0.042856663
223	0xbd379a5d	-0.044824947
224	0xbd8fb5fe	-0.07017134
225	0xbd90d2bc	-0.070714444
226	0xbe02d844	-0.12777811
227	0x3d1a259b	0.03763352
228	0xbdf648ef	-0.1202563
229	0xbe39738f	-0.18110488
230	0xbc683ef7	-0.014175168
231	0xba883cde	-0.0010394116
232	0xbcc24ae4	-0.023717351
233	0xbd19ab7c	-0.037517056
234	0x3a06580f	0.0005124816
235	0x3d99c8d8	0.07509011
236	0xba578b2c	-0.00082223373
237	0xbd14e980	-0.036355495
238	0xbba6aa22	-0.0050861994
239	0x3e27d1ee	0.16388676
240	0x3a514601	0.00079831487
241	0xbd4eade2	-0.050458796
242	0xbbd18b4f	-0.0063947807
243	0x3d9130a9	0.07089359
244	0xbe0b6b70	-0.13615203
245	0xbd31849a	-0.04333935
246	0xbc2f6f2e	-0.01070766
247	0xbc719194	-0.014744181
248	0x3d8d37df	0.06895422
249	0xbef46567	-0.47733614
250	0xbc516a59	-0.012781703
251	0xba88adce	-0.0010427774
252	0xbeeb9908	-0.4601519
253	0xbf3279d1	-0.6971713
254	0xbe068e22	-0.13140157
255	0x3b6ec6d2	0.0036434424
