TD3/models/reward_s0.17_a10e-2_t(-2_0.9).pth (torch, 275287 bytes, 5 tensors)

fc1.weight f4 [256, 8]
00000000: 212a bebd 17bc 7d3e c20f 8ebc 1e07 01bf
00000010: 009f 08bf ddca 8cbd 6da2 ea3e 76bf 3e3e
00000020: 7002 18bd 9545 af3d 5b48 77bc b573 4dbe
00000030: 4c45 353e 200b 163e d672 5d3f ea95 19bc
00000040: 0fd8 5c3e 3eb6 ad3e d614 b53d 2f70 84be
00000050: cb0c 7b3e 5f62 3abe e3b7 d0bd 848f 7cbd
00000060: d509 2abe 4925 9ebe 4fda cfbe 4f1e c83e
00000070: e772 bf3c 6206 2fbd f7d9 413e 19a4 ef3b
00000080: 24fb a23e db7f a2bd 4cca b9bd 27cd 36be
00000090: 0687 29be 79a8 a1be 7c0a 933c a613 9d3d
000000a0: 32d8 29be 3211 163f 2ce2 893e 594b 283e
000000b0: 773a dabb b606 9ebe e45c b43d e8ed 04bd
000000c0: 4c1b 3c3e 0624 ce3e 8212 04bf 10b0 c63e
000000d0: 39aa 1ebe cabe 163e 58ca 393f 8d1a 233e
000000e0: 375e e9bd 5541 e9bd d3b7 473e 2813 8c3e
000000f0: 082f 783c 4636 863e 3c51 3bbf e4ad cd3c
00000100: 243c db3e 415d e13e 65cc 453e b506 873e
00000110: 6679 a43d 78b4 20be 9081 aa3e 9b52 18bd
00000120: cb04 113e 2a3a 75be 1482 75bd 00ff 01be
00000130: 005d 81ba f07a 9f3c c1a0 99bf a6c2 38be
00000140: 555a 683e 830f c63e 2c86 0ebd 3be7 73be
00000150: 603a 9b3e 71b8 17be 0a07 2e3d 69e3 dbbe
00000160: ccc2 763b cb3f 1abe 800b 82be 5210 3fbe
00000170: b24b 99bd 1fc2 46bd a8a6 f4bc f44b 87be
00000180: 7ea9 fc3d 8ae4 11bf faa9 c83e d888 a03e
00000190: df8d 313e f3bb 4e3e 2a87 adbf a34f 513e
000001a0: 4a13 3fbc 5b7e 4f3d bb6c e7be 121c c73e
000001b0: b38b b13d 9c27 e7bd d93b f13d 163a da3e
000001c0: 20ab 343e 2fb7 423d 8110 98be 5f7e aabe
000001d0: 18af 18be ff6d b1be 6b41 8d3e a638 7ebe
000001e0: 97a5 bdbe 3b43 1fbf 8d13 f93d aa4a 57be
000001f0: 930c 073d ec21 29bd 9339 8d3e a563 a73d
00000200: 4f52 733e 286a 0a3f f128 80be 5eca 743d
00000210: 214a 97be a51b 983e e479 3e3f e010 5cbd
00000220: 1508 adbc 013a 66be cca2 ac3e 98fe 6dbe
00000230: 64ad 103e c9d7 4d3e 7596 1f3f f8a1 b0be
00000240: d574 433e 7b9e f43d 798c acbd 6b8c 28be
00000250: d2ca 84bd fe8a 7cbd 81a5 923e 9661 5cbe
00000260: 731a 8a3e 47fb 333e cf57 d6bc f641 243d
00000270: b88b 0ebe c989 ba3c aa14 013e 0fc7 a33e
00000280: 672f 9cbe cc77 7cbe ab70 96be 7586 ba3c
00000290: f430 143e 301a 333e 8ddf e93e b13f 1bbd
000002a0: 2a56 c7be 9ee8 aa3e ac51 e73d 1282 193e
000002b0: 0439 00be 6869 653e 0cda b0be 5e41 a2be
000002c0: 30d3 4cbd 5039 05be a3c6 313c 7e0c 24be
000002d0: 2456 633e cd74 a9be 6391 36be 4370 f93d
000002e0: 149c 863e 85b4 f4be 4a06 c0be a204 923b
000002f0: 2254 a4be f930 aa3c 4816 4a3e 84b9 a03c
00000300: 9e41 2f3b 2a02 9bbe 5502 c6be b9ff 8b3e
00000310: d90b c8be a7fb 493d acce 9bbe 1e88 723e
00000320: 334b 983e eab8 bcbd 7ea2 00bd f845 d9bd
00000330: 440f 25be 3d3a d4bd 6346 953e b192 b3be
00000340: 6229 a8be a1cd debe 8d57 02be 913e 8fbd
00000350: 4545 cd3d 191c 1b3d ff7d 82bb c85d 1f3e
00000360: 53e5 143f 37cc a1be edc7 783e 004a a63e
00000370: 91ce 043d f46e 2cbd df6f 003f 86ff 803d
00000380: 0d4c aabd 5e58 343b 7a53 24be d223 76be
00000390: 18e8 a9bd af70 98be d855 11bf 8d32 273e
000003a0: 0c92 733e ecc7 47be f3d1 a63e 44d3 b2bb
000003b0: 4b7f 01be 5142 9d3e d8c9 e13e 0766 d4be
000003c0: 2732 773e 6bc2 c2bd 34e1 0ebf f6f6 bd3e
000003d0: 0270 0f3e c12c 27be af28 fbbe 8ac3 813d
000003e0: d96e b03e 8ac0 843e d428 a2bc 5550 c43e
000003f0: afbd fb3d 84ba 38be 5785 c3bd 3534 50be
-0.09285379 0.24778782 -0.017341498 -0.50401485 -0.53367615 -0.068746306 0.45827046 0.18627724
-0.0371117 0.085581936 -0.0150929345 -0.2006367 0.17702216 0.14652681 0.8650335 -0.009374121
0.21566795 0.33928102 0.08841865 -0.2586684 0.24516599 -0.18201588 -0.101913236 -0.061660305
-0.16605313 -0.3088782 -0.40596244 0.39085624 0.02337022 -0.042730696 0.18930803 0.007313263
0.3183223 -0.07934543 -0.09071788 -0.17851697 -0.16555414 -0.31573847 0.017949335 0.07669763
-0.16586378 0.5861999 0.26930368 0.16434993 -0.0066598016 -0.30864495 0.0880678 -0.032453448
0.18369788 0.4026186 -0.5159074 0.388062 -0.15494622 0.14721218 0.7257438 0.15928097
-0.11394923 -0.11389414 0.19503717 0.27358365 0.015147932 0.26213282 -0.7317083 0.025107332
0.4281932 0.4401646 0.19316252 0.26372305 0.080309674 -0.15693843 0.33301973 -0.037188154
0.14161985 -0.23947969 -0.059938505 -0.12694931 -0.0009869635 0.0194678 -1.2002183 -0.18043002
0.22690709 0.3868371 -0.034795925 -0.23818676 0.30317974 -0.14816453 0.04248718 -0.42946938
0.003765273 -0.15063398 -0.253994 -0.1865857 -0.07485141 -0.048524972 -0.029864624 -0.26425135
0.123370156 -0.5698935 0.39192182 0.31354403 0.17339276 0.20188884 -1.3556874 0.20440535
-0.011662314 0.05065761 -0.45200142 0.38888603 0.08669224 -0.11286852 0.11778993 0.4262244
0.17643404 0.04753798 -0.2970009 -0.33299538 -0.14910543 -0.34654233 0.27588972 -0.24826297
-0.37040398 -0.6221196 0.12161932 -0.21024576 0.032970976 -0.041292116 0.27582988 0.081733026
0.23761867 0.5406823 -0.25031236 0.059763305 -0.29548743 0.2970859 0.7440474 -0.05372703
-0.021122018 -0.22483064 0.33717954 -0.23241651 0.14128643 0.20101847 0.62338954 -0.34498572
0.19087537 0.1194429 -0.084252305 -0.16459815 -0.064839974 -0.06165599 0.28641894 -0.21521601
0.26973304 0.17576323 -0.026164917 0.040101968 -0.13920486 0.02277078 0.12605539 0.31987807
-0.30504915 -0.24655074 -0.29382834 0.022769192 0.14471799 0.17490458 0.45678368 -0.037902538
-0.38932925 0.33380598 0.112948745 0.14991024 -0.1252175 0.2240349 -0.34541357 -0.31690496
-0.05000609 -0.13010144 0.010850581 -0.1602039 0.22200829 -0.33096924 -0.17828898 0.12179615
0.26290953 -0.47793975 -0.37504798 0.0044561187 -0.32095438 0.020775305 0.19735062 0.01961971
0.0026741992 -0.3027509 -0.38673654 0.27343538 -0.3907154 0.04931226 -0.30431116 0.23684737
0.29744872 -0.09214957 -0.031404965 -0.106090486 -0.16119105 -0.103626706 0.29155263 -0.35072854
-0.32844073 -0.43516257 -0.1272871 -0.069943555 0.10022978 0.037868593 -0.003982305 0.15563118
0.5816242 -0.31601116 0.24295016 0.32478333 0.03242356 -0.042098 0.501707 0.06298737
-0.08315287 0.0027518491 -0.16047469 -0.24037102 -0.082962215 -0.2977347 -0.5677161 0.16327877
0.23786181 -0.19509858 0.32582054 -0.0054573137 -0.12646215 0.30714658 0.44099307 -0.4148409
0.24140225 -0.095097385 -0.5581238 0.3710248 0.14007571 -0.16325666 -0.49054477 0.06336124
0.3445957 0.25928146 -0.019794859 0.38342538 0.12292039 -0.180399 -0.09546917 -0.20332415

fc1.bias f4 [256]
00000000: 5712 ec3d 5607 bebe 315d 643e fe11 72be
00000010: a3f1 d3be 208c c23e 6706 b43c e86f bf3e
00000020: 1ec6 eebd 4071 0b3f ee3c 14bf 3e23 83be
00000030: e9c2 6fbe 0a1b 13bf 9fc3 75be 5f14 f7bd
00000040: 1d92 e6be 002b 48bc bfd9 acbe 5a17 05bd
00000050: 8e2d b8be a748 593e e679 34be e076 0d3e
00000060: a7ae 69be 312c 163e ec38 0dbd c6b5 f03e
00000070: 286e 8b3e 4d2a 203f 7682 92be 0ae5 debc
00000080: 4191 043e 0ed1 62be 2ae8 26bc c70c ea3d
00000090: e531 683e a2d0 303f ac87 8cbd f55b 6a3d
000000a0: 3ade fd3d 7d5d a73e a415 093e 567f 213f
000000b0: f57e 50bf f42d 983e d34e 0c3e 842b bb3e
000000c0: 946c 0cbd 974d 5cbe 3337 91be 492c 98bd
000000d0: 21b7 53bf 5a1f 98be 2d7b 40be 88b4 5d3e
000000e0: e98e febe 4717 82be 963d 8bbe 44c7 acbe
000000f0: 6978 bcbe d742 6b3e 83bf b33e 1a18 0c3f
00000100: 6db0 7a3d 05c7 bebd 40b5 d23e cfa8 be3e
00000110: 2eb1 a33e 3c38 c63e 85b7 33bf 432d 0e3f
00000120: 7e87 d23d f2fc 8cbe 5950 ef3e fd22 edbe
00000130: 23ff ebbe 118e 0e3d 9847 d0bd dfe4 41be
00000140: c6ba c83c f0e3 db3e 1428 2abe b440 df3e
00000150: afcd fdbd 6ae8 1d3f 7f1b 313d 51eb fb3e
00000160: 80dc b7be f40a 43be 7d90 58be 2e40 b73d
00000170: fb6a 763e 0fe9 9cbe adc3 09bf 2a79 96bc
00000180: 70bb 4e3c 285f 973e c820 8bbe 44a0 ebbe
00000190: 5f1c 323d 2c9b a0be 5173 263f 11b0 f0bd
000001a0: acb1 a2be 061a 2e3e 368e 92be 8804 d2be
000001b0: ae15 8a39 e6ef 22bd 4e5f 9a3e 1df5 c13e
000001c0: 3124 643d 901d 743f 50c9 a7bd 0ff1 8bbb
000001d0: 9c8c bb3d ede6 0a3e 7517 ed3e 501f 84be
000001e0: 632c 1d3f 5165 ad3e cc6d 3f3f 70ee 8f3e
000001f0: d405 d8bc b005 89bd 4efb 64bf 59ed d2bd
00000200: 3f09 89be 70b8 cd3d 386d d73c 5592 a73e
00000210: ff20 923d de1a 59be aa07 1f3e 2542 bdbe
00000220: ed1a de3d 0fe9 96be 5d55 0f3e 6445 6b3e
00000230: 7b5d 32be 070d 843c 2c25 1e3f 1a96 08be
00000240: 8f7c 1dbd 2eba c3bd 1766 09bf 4f8e 543e
00000250: 89ca cb3d 62d9 ac3e 81fe 8dbe 3f26 713e
00000260: 2f02 c53e fecc d1be 29de 243c c696 923e
00000270: 95ea ed3e 90fe 3bbe 479a 803e e88f cb3e
00000280: cbf4 0d3d 5383 80be 7c84 653f 688d 023f
00000290: e78f 503e 19bf 873e eacd 4f3e 58a4 a4be
000002a0: 25bf c3bd 13b1 323e 093e 9d3e 8b4d c8bd
000002b0: 4916 29be 3e82 c13e cafe ce3e 695d abbe
000002c0: ed16 c83e b73b 8bbe bc73 05bd bf74 653e
000002d0: 5807 c5bc 0fb9 0c3f 9220 ebbe 2bd2 8d3d
000002e0: 141e 81be 049b 913e d515 4fbe 54f2 ef3e
000002f0: 7991 863e 3de9 82be 27b4 15bf c48f 623e
00000300: 6249 1a3d 3d38 c5bd bf1f c8be ff2f 07be
00000310: 8c56 67bd 0702 933e 5275 98be ca3c 083e
00000320: 63fd 413f 4116 583b a979 233e 4ce9 0b3d
00000330: 86b3 ec3e 1a3b b0be 1cc2 ae3e 9647 453d
00000340: 98e6 643e 20f2 733d c4f9 94be a266 0a3d
00000350: 6bf9 fa3e 316d 60be 9de8 13bd 5ca7 a7be
00000360: bb70 0bbe f604 32bf bd0a 36bf 4b8f 96be
00000370: 680a a13e 92c1 dfbd 32af 09be a79b c8be
00000380: 68f2 00bf 19e1 98bd 4b55 443f 80a2 7cbe
00000390: 39dc 87be 6763 14be b92a bc3e 2d1e 503e
000003a0: 5f9b 6dbd edef 213f ba81 e53e f0f4 b8be
000003b0: 6b82 993e 9add 2ebe 96e3 a0be 4833 2cbf
000003c0: 13ae 5d3d 8221 e1be ea82 dcbd d6d3 42be
000003d0: 0e84 c6be ac72 9cbe af27 4d3e ce45 b7bd
000003e0: f735 483f dca5 ad3e 444c 553e 843e 7c3d
000003f0: edfa afbe fa6e 023f 64bc ad3e 5233 a9be
0.115269355 -0.37114972 0.22301175 -0.23639676 -0.41395292 0.37997532 0.02197571 0.37390065
-0.116588816 0.5446968 -0.5790547 -0.25612825 -0.23414196 -0.57463133 -0.24000405 -0.12064432
-0.4503335 -0.012217283 -0.33759877 -0.032492973 -0.35972255 0.21219121 -0.17624626 0.13814878
-0.22820531 0.14665295 -0.034478113 0.47013682 0.2723248 0.62564546 -0.2861516 -0.027208824
0.12946035 -0.2215006 -0.010187188 0.11428218 0.22675283 0.6906835 -0.06861815 0.057216603
0.12395902 0.32688513 0.13387161 0.63084924 -0.8144372 0.2972256 0.13701944 0.36556637
-0.034283236 -0.21513973 -0.28362426 -0.07430322 -0.8270131 -0.2971142 -0.18796988 0.21650898
-0.49718407 -0.25408384 -0.27195424 -0.33745778 -0.36810616 0.22974716 0.3510705 0.54724276
0.06120341 -0.09315304 0.41153908 0.37238166 0.31971115 0.38714778 -0.70201904 0.55537814
0.10279749 -0.27536732 0.46740988 -0.46315756 -0.4609309 0.034803454 -0.101699054 -0.18934964
0.024503123 0.4294734 -0.16616851 0.43604052 -0.12392747 0.6168276 0.043239113 0.4920297
-0.35910416 -0.19047147 -0.21148868 0.08947788 0.24064247 -0.3064656 -0.538142 -0.018368322
0.012617931 0.29564786 -0.27173448 -0.4602071 0.043484088 -0.31368387 0.6501971 -0.11752332
-0.31776178 0.17002115 -0.28624123 -0.41019082 0.00026337564 -0.039779566 0.30150837 0.3788232
0.055698577 0.9535761 -0.08192694 -0.00427068 0.091576785 0.13564654 0.4630696 -0.2580514
0.61395854 0.3386636 0.7477691 0.281116 -0.026369967 -0.06690538 -0.8944596 -0.10299177
-0.26764867 0.10044944 0.026297197 0.3272883 0.071352 -0.21201655 0.15530267 -0.36964527
0.108449794 -0.29474685 0.13997407 0.22975689 -0.17418472 0.016119493 0.6177547 -0.13338509
-0.038448866 -0.09556995 -0.536714 0.20757411 0.0995074 0.337596 -0.27733234 0.23549746
0.38478228 -0.4097671 0.010062733 0.28630656 0.46468034 -0.18358827 0.25117704 0.3975823
0.03465728 -0.25100192 0.8965528 0.5099702 0.20367394 0.26512983 0.20293394 -0.32156634
-0.09557942 0.17450361 0.30711392 -0.09780415 -0.16512407 0.3779468 0.40428764 -0.33469704
0.3907999 -0.27193996 -0.032581076 0.22407816 -0.024051353 0.54969877 -0.45923287 0.06924852
-0.2521826 0.2843858 -0.20223172 0.4686457 0.26282862 -0.25568572 -0.58478016 0.22125155
0.03766764 -0.09629867 -0.3908672 -0.13201903 -0.056479022 0.28712484 -0.29777008 0.13304439
0.7577726 0.0032972249 0.15964378 0.034158036 0.46230716 -0.3442009 0.3413247 0.048163973
0.2235359 0.05955708 -0.29096806 0.033789285 0.49018416 -0.21916653 -0.03611051 -0.32744873
-0.13617222 -0.6953882 -0.71110135 -0.294062 0.31453252 -0.109255925 -0.13445738 -0.39181253
-0.5036988 -0.07464809 0.76692647 -0.24671364 -0.26535204 -0.14491044 0.36751345 0.20324011
-0.0580095 0.6325672 0.44825536 -0.36124372 0.29982314 -0.17076722 -0.31423634 -0.6726575
0.05412109 -0.43970877 -0.107671574 -0.19026121 -0.38772625 -0.30556238 0.2003467 -0.08948861
0.78207344 0.33915603 0.20829874 0.061583057 -0.3437113 0.50950587 0.33932793 -0.33046967

fc2.weight f4 [256, 256]
00000000: b4d1 093e a92f 493d c38a 1abe 41b5 5c3c
00000010: 94b2 cd3d b6d2 983c aea6 87bd e5ca 74bc
00000020: fd67 a1bc ef4a dbbd f81c 91bd f091 68bd
00000030: 9de3 b63d bfdd 9e3d 8cd2 c53c b073 183e
00000040: da9a 7ebb b406 c0bd bc9d 263d 9a1e a0bc
00000050: 2c0d 5bbc dbed c7bd d817 fabd c954 603e
00000060: cf10 193d a060 0ebb 5ef2 e73d 1136 61bd
00000070: 9b6c 08be 76ff edbc 6ac1 d2bd 72ad 9fbd
00000080: b69c 38be 865a d23d b0f5 d23c 5dce 943c
00000090: 1831 0ebe e70b e2bc 8050 523d 5b54 d53d
000000a0: 67da 563d 23e8 b8be 4c9c 1abe 1603 bb3e
000000b0: f6f6 b23c bc1e 383c 6c52 92bc 95e5 d53d
000000c0: cf7c 6dbe ac38 02be 8434 b83c 350b f2bc
000000d0: e376 c03d 8da9 4cbc 8c0c 5fbd a4c2 e33c
000000e0: cc10 36bd 10db 183d bbcf 103d 791a a2bc
000000f0: 5821 16bd 3d41 413c 93f6 6e3d bf67 eb3d
00000100: d674 633d f637 54bc 8b9e 0e3d 3738 8fbd
00000110: f375 0ebd 4f5f a03d 28ab 0ebd 7b42 c2bd
00000120: 9eae 8d3d 65f1 aa3c 4052 7a3d fad3 6f3d
00000130: 03c9 df3d eff7 e5bc 3ece b93b 6b98 cebc
00000140: 8674 27bd 346a 173d b042 4a3c 3801 7bbc
00000150: a360 c23d db90 c53d a090 843d 6644 09bd
00000160: 7ee7 673c 20f4 ad3d 2b13 203e 68de 4abd
00000170: 6f10 90bd c48e bb3d 2326 c1bd ad26 18be
00000180: 8b34 eb3c ca78 543d f5df 5fbd fbaf 5cbd
00000190: 8dc0 e53c 85d0 233d c31e ee3b 0bc7 083c
000001a0: 914f d8bd d8ec bc3d eb9b 10be dfd5 3ebc
000001b0: 4818 15bd 9119 603d d78c ce3c bf54 4abe
000001c0: 15d9 893d 57a8 bf3b f09b 2fbd c41f 9abd
000001d0: cf1c 983d a4b8 883d f711 46be 6d54 23be
000001e0: fe2a 263d 48d9 b8bc 5325 853e 622b a23d
000001f0: 6f40 92bd 60dd b1bc 0527 723d a6f4 cfbd
00000200: 871f 96bd 0806 81bb e7fe 1e3d c46b f43d
00000210: e403 a6bd d6f2 1a3e 794d 4ebd 375d a6bd
00000220: 29f8 253d 686b 883c dbce 69bd 377f aa3b
00000230: e45f 84bc ddd4 04be 0207 d43b f5bd f0bb
00000240: 74c0 9c3d 8cb6 623d 4882 983d 10eb 4dbc
00000250: fc95 47bd 6b35 31bb 32de 523d 0da8 ec3d
00000260: 27bf 573d b863 3bbd ad4c a8bc acf4 1abe
00000270: 2648 ad3c 1b5c 32bc 8528 823e c877 983d
00000280: a2aa fabd cea7 213e 4215 513c 29c1 de3c
00000290: 15c6 07be a7ad f1bd afe6 243d d450 89bd
000002a0: d2aa 5abd 8f27 183d 0024 393d 25d3 0cbd
000002b0: 53c5 683d d4bd ef3d 8a8d ae3b bd44 4bbc
000002c0: 384d 41be 896a 2bbe b7e1 9d3c 64c3 b0bd
000002d0: 6958 7a3d 7841 743e 9953 503d e57d 153e
000002e0: e8c8 17bc 3602 953d 96ed 18bc 8614 d5bd
000002f0: 6f6d de3d bc90 bebc 7945 84bd 0e2c 70bd
00000300: 267a abbd e386 eabd 6996 043e 56b8 34bd
00000310: e8b3 3cb9 c912 eebc b9b8 9b3d 20b6 553e
00000320: ddd6 b43e 98d1 35be 1a9c cbbd d987 a0bc
00000330: caa1 8d3d 93d4 40bd 4ab8 2f3d 38d6 813d
00000340: 8d9d 8e3e 268c 74bd b42c 0b3e efda e13d
00000350: 1c8c 863d d920 363e 7f80 c9bd 5e1a 453c
00000360: e11d 1a3d a361 28bd 559b ddbd 13e8 ef3c
00000370: e6e3 c93d 02a3 453d d8bd b3bd a72c 3f3d
00000380: 2161 5f3d 50cf 8b3c 9269 cc3d 4aeb 5dbd
00000390: 307d 7cbd 1c1a 7ebe 7694 d5bb 07b2 68bd
000003a0: 8edf a23d f992 103e 5e27 82be f3a0 c9bc
000003b0: 2592 08be ca8e f03d 4ac1 853d 29e4 433d
000003c0: b0bc f53d ac9f 1ebe d1e1 28bb 7e45 263a
000003d0: e3f9 253d 6093 7b3c 5b6e b0bc 6185 d4bd
000003e0: 6e3f 643d 75bd a53d 50fa 493c 769f cebd
000003f0: 0072 f8bb 62dc 553d 11b3 b03e 2fee efbd
0.13458902 0.049117718 -0.15091996 0.013470949 0.10043827 0.018655162 -0.066235885 -0.014940952
-0.019702906 -0.10707652 -0.070856035 -0.0567798 0.089301325 0.077571385 0.024148248 0.14887881
-0.0038849623 -0.093762785 0.04067777 -0.019545842 -0.01336984 -0.09762164 -0.12211579 0.21907343
0.037369546 -0.0021725073 0.11325525 -0.054983202 -0.1332268 -0.029052477 -0.10290797 -0.07796754
-0.1802853 0.10271172 0.025751919 0.018164808 -0.13885915 -0.027593566 0.051346302 0.1041648
0.05245438 -0.36114606 -0.15098685 0.36525792 0.021846276 0.011237796 -0.017861567 0.1044418
-0.23192142 -0.12716931 0.022485979 -0.02954636 0.09397676 -0.012491596 -0.054455325 0.027802773
-0.044449612 0.03731829 0.035354357 -0.019788014 -0.036652893 0.011795339 0.05834062 0.11494397
0.055531345 -0.012952795 0.034819167 -0.06993144 -0.034780454 0.07830679 -0.034831196 -0.094853364
0.06918071 0.020867059 0.061113596 0.058551766 0.10927012 -0.028072326 0.005670338 -0.025219163
-0.04088261 0.036966518 0.012345001 -0.015320115 0.09491088 0.096467696 0.064728975 -0.033512495
0.014154313 0.08493829 0.15632312 -0.04952851 -0.070343845 0.0915809 -0.09431102 -0.14858504
0.028711578 0.051873006 -0.05465694 -0.053878766 0.028045917 0.03999378 0.0072668507 0.008348237
-0.10562051 0.09224862 -0.14121978 -0.0116476705 -0.03640011 0.054711882 0.025213642 -0.1975889
0.06730858 0.005848925 -0.042873323 -0.0752559 0.0742737 0.066758424 -0.1934279 -0.15950175
0.040568344 -0.022564545 0.2600504 0.07918431 -0.07141196 -0.021712005 0.059119243 -0.10154085
-0.07330232 -0.0039374866 0.038817313 0.11934617 -0.08106211 0.15131697 -0.050366852 -0.08123248
0.040519867 0.016652778 -0.05708204 0.0052031535 -0.016159005 -0.12971826 0.006470562 -0.0073468634
0.07653895 0.05534987 0.07446724 -0.01256825 -0.04872702 -0.0027039896 0.051481433 0.11555491
0.05267253 -0.045749396 -0.020544374 -0.15132397 0.021152567 -0.0108862175 0.2542154 0.074447215
-0.12239577 0.15786669 0.012761416 0.027191715 -0.13259156 -0.118007 0.04025906 -0.0670487
-0.053385563 0.0371471 0.045200348 -0.03438105 0.056828808 0.11706129 0.0053269314 -0.012406525
-0.18877113 -0.16739859 0.019272668 -0.08631018 0.06111947 0.238531 0.050860975 0.14598806
-0.009264208 0.07275812 -0.009333989 -0.10404305 0.108607166 -0.023262374 -0.06458563 -0.058635764
-0.08372907 -0.11451509 0.12948002 -0.04412111 -0.00017996097 -0.029061692 0.076035924 0.20870256
0.35320178 -0.17755735 -0.099418834 -0.019596027 0.069156244 -0.047077727 0.04290036 0.06339687
0.27854577 -0.05970397 0.13591272 0.110280864 0.065696925 0.17785968 -0.09838962 0.012030212
0.03762615 -0.04110874 -0.10820643 0.029285466 0.09857921 0.04825116 -0.08776444 0.046673443
0.05453599 0.017066628 0.099810734 -0.054179467 -0.061642826 -0.24814647 -0.006517942 -0.056810405
0.07952796 0.14118566 -0.2542066 -0.02461288 -0.13337 0.11745985 0.065310076 0.047825012
0.1199888 -0.15490597 -0.0025769363 0.00063427526 0.040521514 0.015354961 -0.021536997 -0.103770025
0.055724554 0.08092777 0.012327746 -0.100890085 -0.0075819492 0.052212127 0.34511617 -0.11715352

fc2.bias f4 [256]
00000000: 1cb2 1e3e 8ec1 0f3d ccc4 b23e ef08 3e3d
00000010: 1d37 923c f6fc ea3c e1ad 84bc 9257 613e
00000020: 0125 513e a350 5ebd 3135 f6bc 4275 8c3d
00000030: 3e56 2c3d d79d 1abc 8d54 103d 1f94 483c
00000040: e46b 793d 4558 913e c9dd 43bc 1138 c3bc
00000050: da04 52bd f8c7 37bd 428d 7fbd f681 d339
00000060: 306c 0c3d da22 053e 9bf5 16bc 7cde 673c
00000070: c604 68bd 574b 39bd 51d9 143d 12b6 383d
00000080: c782 253d cfee a33c 29c8 19bc 3fff ba3b
00000090: d104 83bd 02ff 86bc df75 0c3d de3c 9dbc
000000a0: 2d54 d4bb f37c 29bd 81bc 223c 2ff6 ed3b
000000b0: 44bf cfbc 0485 863d 7ed0 27bd dbe7 bf3d
000000c0: 4e3e 153d b162 85bb db99 513d 4e2d f83c
000000d0: a5b4 98bc 9e6b 85ba f70e 3c3d bce5 0bba
000000e0: 8936 e93d 8e28 833e bad6 cfbc a08d 5abc
000000f0: 606e ab3c 015c 1ebd 04cc 0dbd ae3c b63d
00000100: 0b7a 283d 9df3 4ebc 14b0 ddbc 2fb9 cdbc
00000110: 94a9 2f3d 8e45 b2bb 4681 413d 314b d2bc
00000120: 7ee1 9b3e 1bd7 af3d f1a4 10b9 695f 283d
00000130: 2665 433c b3c6 3b3d 0b82 2dbd 459f 313d
00000140: 976e 623d 8b56 cfbc 9931 6cbd f8b1 e8bc
00000150: f829 60bd 2c79 813d cd73 733d 3b10 873e
00000160: ed06 95bc 7b64 45bd 5f8e bbbc dfdd 1cbd
00000170: d822 5c3c 3980 d3bc c6f7 543d f8e5 703d
00000180: 9ab3 4abd e6ed 29bd d719 123d 9685 5abd
00000190: 60d3 68bd dae9 123d a7b9 103d 7570 9bbc
000001a0: 3db4 703d 3dae 41be dd7a 23bd 2c1b 1e3d
000001b0: 01e5 193c 0b6a 11bc 575b 40bd 750a 723c
000001c0: e215 313d d5b7 fdbb be7f 843c d4db 653d
000001d0: dfec 6fbd a3b2 263c 9120 063e d21c 36bc
000001e0: b9dc ae3d ce36 443d afab 5d3d 9650 a73c
000001f0: 61db 5b3d 27b8 df3c f867 abbe 1b10 2f3d
00000200: fecb 0e3d b461 413d e42b 963c 61ef 583d
00000210: 56ef 3bbd 5965 c03b 0c6f 253d c120 403d
00000220: 763a 22bd 820e b93b 15bf 843d cbe4 7bbd
00000230: 16a8 393d 0481 9d3d a294 1ebd 65fa 3cbd
00000240: c3c5 8dbc 5670 433d d222 8a3c 7c95 a93c
00000250: 7a08 2d3b c1be 213d 95c8 ee3c 58f7 1b3e
00000260: e553 a93d 7251 583d 62f8 f0bd f8f4 05bb
00000270: ae59 44bd 3352 a9bd b2a2 4c3d 2d43 d83e
00000280: 4dd4 af3c bad6 413d 116f 6cbc 25a3 a43d
00000290: 4524 2c3d ae70 da3b 06e1 63bc 3af9 80bd
000002a0: a092 b13b 08e7 903d 4c7a 4fbc 7cdb 423a
000002b0: 5fc5 67bd feb8 30bd e24a c5bd 28f1 103d
000002c0: fa55 96bd 17ac e6bc 227d b9bc b7ce 7a3d
000002d0: f74e 223e 0e06 d43c f77d 043d 3ff5 05bd
000002e0: 7c08 fcbb cfd0 5abd 31ed d13d 4649 063c
000002f0: 28a4 08bd 9264 5c3d e1e3 a13e 3ef8 eabd
00000300: 7948 e9bc f475 153c f2ae 2f3d dd9b 8fbd
00000310: 2d36 853b ce4c 5fbd 3d62 9c3d 5678 563d
00000320: bea1 f83c f012 e6bc 037d da3e 30d3 00bd
00000330: 79f8 323d b69c ee3c c380 afbd bfbf 9e3d
00000340: 6f15 73bd ddf1 48bd 1160 883e a078 26bc
00000350: 3c6c a9bb bc55 873c 548a 4e3c 1d49 64bd
00000360: f476 1d3d efcd 743c a0c1 8dbd baed ef3c
00000370: e920 56be d7b0 6d3c 94d3 2a3d a6aa 763d
00000380: d69c 2f3d 8811 803d 9880 353c 91e2 45bd
00000390: 324a 9a3d 5128 39bd ae2f d63c 086f 5c3c
000003a0: 1fc3 2f3a 883a 603d db63 1c3d ba0f 2dbd
000003b0: 1874 18bc 7a69 983d d249 54bd 45d6 2ebd
000003c0: e745 3abd bf25 83bb b1de 7a3d a061 313d
000003d0: 0b17 8dbc 1acb 3d3e 8fb2 42bd f214 7cbd
000003e0: 07ee a3bd 18cb c0bc 93c6 7ebc 5e99 583c
000003f0: 73dd 10bd 8bba 2d3d beca 603d 5cf4 88bc
0.15497631 0.035096698 0.3491577 0.04639524 0.017848546 0.028685074 -0.016196193 0.22006062
0.20424272 -0.05427612 -0.03005466 0.06858303 0.042074434 -0.009437046 0.035236884 0.012242346
0.06089391 0.28387657 -0.011954733 -0.023830445 -0.051274158 -0.04486844 -0.062390573 0.00040341885
0.034282863 0.13001576 -0.00921383 0.0141521655 -0.056645177 -0.045237865 0.03634006 0.04509551
0.040407922 0.020011334 -0.009386101 0.0057066972 -0.06397403 -0.01647902 0.034292098 -0.019194063
-0.006479761 -0.041378926 0.009932638 0.0072620134 -0.025359757 0.065683395 -0.040970318 0.09370395
0.03643637 -0.004070603 0.05117212 0.03029504 -0.018640826 -0.0010179167 0.04591271 -0.0005336662
0.11387355 0.25616878 -0.025370944 -0.01333943 0.020926654 -0.03866196 -0.034618393 0.088982925
0.041132014 -0.012631324 -0.0270615 -0.025112716 0.04288633 -0.0054404205 0.047242425 -0.02567062
0.30445474 0.0858595 -0.00013794356 0.041106615 0.011925971 0.04584379 -0.042360347 0.043364782
0.055281248 -0.025309822 -0.057664488 -0.028405175 -0.054727525 0.0632194 0.059436608 0.2637957
-0.018191779 -0.04819153 -0.022895036 -0.03829753 0.013436042 -0.025817977 0.051994108 0.058813065
-0.049487688 -0.041486643 0.035669174 -0.053350054 -0.056842208 0.03586755 0.035333302 -0.018974522
0.05876564 -0.18914123 -0.039912093 0.038600132 0.009392978 -0.00887538 -0.04696211 0.014773001
0.04323376 -0.0077428618 0.016174193 0.056117848 -0.058575507 0.010174426 0.1309836 -0.01111527
0.08538193 0.04790383 0.05411881 0.020424169 0.053676013 0.02730949 -0.3347776 0.04273997
0.03486251 0.047212318 0.018331476 0.052962665 -0.045882545 0.0058714566 0.040389106 0.046906237
-0.039606534 0.0056474814 0.064817585 -0.06149749 0.045326315 0.076906234 -0.038715966 -0.046137232
-0.017306214 0.047714554 0.016862307 0.020701163 0.0026402758 0.039488558 0.02914838 0.15231073
0.08267955 0.052812047 -0.11766125 -0.0020440202 -0.047937088 -0.082676314 0.049959846 0.4223875
0.021463538 0.04732392 -0.014430777 0.0803893 0.042026777 0.0066662645 -0.01390863 -0.06297536
0.0054190904 0.07075316 -0.012663435 0.00074332184 -0.056584712 -0.043145172 -0.096334234 0.035386235
-0.073406175 -0.02815823 -0.022642676 0.061232295 0.15850435 0.025881793 0.032346692 -0.032704588
-0.007691441 -0.05342179 0.10250319 0.008196181 -0.033359677 0.05380685 0.3161917 -0.1147313
-0.02847694 0.0091223605 0.04289145 -0.070121504 0.004065296 -0.054516606 0.07635925 0.052360855
0.030350562 -0.028085202 0.426735 -0.031451404 0.043693993 0.02912746 -0.08569481 0.077514164
-0.059346613 -0.049058784 0.26635793 -0.010160595 -0.0051703732 0.016520374 0.012606222 -0.05573379
0.03844352 0.0149416765 -0.06921697 0.029288162 -0.20910992 0.014507494 0.041705683 0.060221337
0.04287418 0.06253344 0.011078022 -0.048311774 0.07533683 -0.045204464 0.026145782 0.013454206
0.00067047955 0.05474332 0.038181167 -0.042251326 -0.009305023 0.07441993 -0.051828213 -0.042684812
-0.04547682 -0.0040023024 0.06124753 0.043305993 -0.017222902 0.18534508 -0.047533568 -0.061543413
-0.080043845 -0.023534343 -0.0155502735 0.013220159 -0.03536744 0.04241423 0.05488085 -0.016718082

fc3.weight f4 [1, 256]
00000000: 1c0c 7e3e bb81 4abb 7cd6 06be e172 a2bc
00000010: 5b6e 84bb 7fbf 82bb c081 393e b097 0cbe
00000020: 771e 87be 03eb e23b a07a a7bb eab8 8b3e
00000030: 1a87 a1bc 4985 62bd 908e cabc 734e 2d3e
00000040: a4f3 95ba e539 91bd 9cd3 4eba e2a1 34bb
00000050: a65d 67bc b1e4 f0bb 9b6b 2bbe 337d fdbb
00000060: d1bf cebd f9eb 153e 6062 b6bc 0488 02bd
00000070: 71e4 3fbb 57e0 b2bc 0a1f 7b3d b73e 11bd
00000080: c301 83bc 411f b6bb b28b 19bc bb66 aab9
00000090: d3b8 74bb 0be6 c0bc 75f3 96bb c1e7 1bbc
000000a0: 5690 90bd 9e2f ebbb d860 83bc 7585 adba
000000b0: a70b 93bb 791b f339 cdde 59ba e969 a5bb
000000c0: 8fee 02bb d5b5 ebbc 9511 70bb 674b 203d
000000d0: 101f dfbb 020e 37bc 05f3 1ebb b0d9 13bb
000000e0: c84a 8b3d d8a0 6e3e e4a2 11bd 55b1 1c3b
000000f0: 148f e5bb 0861 82bd 4304 e2bb e5d1 26bc
00000100: 1135 29bc 5148 0bbd 592f 3fbc d865 72bc
00000110: f06b 81bd 09a5 90ba 4bd8 a73e bb8b 9eba
00000120: 75b3 c3be f59a 3fbb 6380 bebb 6898 1dbd
00000130: 659e ecbb 4d7e 51bc 02e9 94bc 6a05 0cbc
00000140: 51fe 91bd 4a38 9dbc 777a 063d 239a 53bd
00000150: b15b dbbc 9851 f13c bcac 653c cc32 eabd
00000160: c046 243e d8e1 363e 6083 69bc 9fb9 9cbd
00000170: f593 a3ba 5787 6cbc cbdc 033b 8f35 cab9
00000180: e5ae 1ebc d7d4 293b f46b 16bb 1a56 d2bb
00000190: 8747 adba ed6f 5dbc 2279 6bbc 4dfe 85bc
000001a0: 7902 28bb f1eb df3c ede4 87bb 2478 3fbc
000001b0: 5110 52bc 5386 49bc 0413 56bb b366 75bc
000001c0: 776f a03a f0f9 32bc 627d c8bb 6f25 40bc
000001d0: 9576 2fbb b752 ce3d 7806 8f3d 4cd2 0a3a
000001e0: 12c2 56bc fe11 0fbb ae62 52bc 1c24 6dbd
000001f0: 391b b2bb c111 33bd 9677 813e e226 cfbb
00000200: 80df 55bc 6d10 6fbc 9c0d 0c3f 340c 4c3e
00000210: 4c02 1cbd 5197 2fbc 2856 93bc 0e52 90bc
00000220: 9f62 b4bc e334 70ba 6550 803c 1975 25bb
00000230: 6141 17be 44b0 683a ac92 ebbc 2b91 9b3c
00000240: 0f3d 15bc a238 1bbc b71e 96bc f0aa 9bbb
00000250: e360 38be b28a 9fbc efd7 2538 ce47 91bd
00000260: 7e96 d938 ccd3 68ba 5894 1cbd 55f0 04bc
00000270: dbc6 19bc fad5 35bb 8bda 3dbc 52f5 f3be
00000280: 7753 273a 5f09 42bb 6b4a 7ebc aee6 513d
00000290: df44 c3ba 8cff a5bc fe51 f3ba 2b82 fdbc
000002a0: e6a8 eeb9 6b98 e0bb 6549 05bc eda0 aeba
000002b0: 6f01 b0bb 5d9d 4ebc 0d0c 3a3d 5eda 3e3b
000002c0: ca66 87bb ba71 dabc 9207 39bc a17c 7cbc
000002d0: 8700 f8bd b660 d6bb 41c5 94bc e0a1 40bd
000002e0: dc50 57bc 228b 04bb 4b12 40bd ac9e 04ba
000002f0: 312c 36ba 2b37 34ba a795 c13e b84c a9bc
00000300: 8595 523b 5501 83bb 43ef 7abc f506 a3bc
00000310: 4882 19bd 4b6b f4ba 0a00 1a3d 113a 533d
00000320: 26d7 2cbd 53c7 d8bb 554f 0a3f 1292 51bb
00000330: 892a fa3a 52a9 04bc 1e2b 6bbd a291 fb3d
00000340: 45cf edbb eb20 7e3d 10b3 973e 47ea 47bb
00000350: bccf 54ba 1d48 57bc 59dc 96bc 9e5c c4bc
00000360: dc01 87bd 7e26 04bd 7728 59bb 2e4b 36bc
00000370: 0dd1 7abe 3d62 56bc ebde 53bc 2063 bbbc
00000380: fb3d 36bc dbbf 67bc f90e c9bc 7b57 b63a
00000390: 65ac 19be 70cd 553d d75c 69bb 03fc 00bb
000003a0: 50bc 87bb 6d74 01bd 128d 84bc 148a 52bb
000003b0: 4882 01bc 7ace 62bc 9a2d 973e ef1d 16bb
000003c0: 6cc4 27bc 25e6 2cbc 7f8d 8fbd 5152 62bc
000003d0: bd29 56bd 9ee7 1ebe 66aa f5bb 8192 5c3b
000003e0: 9e15 a43e f0cd 353b 715d 34bc e1e3 24bc
000003f0: 2d86 5ebd 0f08 eebe 8e00 efbb c673 c9ba
0.24809307 -0.003090008 -0.13167757 -0.01983017 -0.0040414757 -0.0039901133 0.18115902 -0.13729739
-0.2639043 0.0069249882 -0.0051110536 0.27289516 -0.019717742 -0.055302892 -0.024726182 0.16924457
-0.0011440408 -0.07091121 -0.00078898086 -0.002756231 -0.014121449 -0.007351481 -0.16740267 -0.007735872
-0.1009518 0.14640798 -0.022263706 -0.031867996 -0.0029280449 -0.02183549 0.061308898 -0.0354602
-0.015992051 -0.005557925 -0.009371685 -0.00032501467 -0.003734161 -0.023547193 -0.004606659 -0.009515704
-0.0705878 -0.0071773073 -0.01603739 -0.0013238626 -0.004487473 0.0004636904 -0.0008311093 -0.005048026
-0.0019978618 -0.028773228 -0.0036631573 0.03913441 -0.006809123 -0.011172773 -0.0024253738 -0.0022560172
0.06801373 0.23303545 -0.035555735 0.002390941 -0.0070055816 -0.063661635 -0.0068974807 -0.010181879
-0.010327593 -0.034004513 -0.011669003 -0.014794789 -0.063194156 -0.0011035512 0.32782206 -0.0012096086
-0.38222852 -0.0029236649 -0.0058136447 -0.038475424 -0.0072210305 -0.01278646 -0.018177513 -0.008546213
-0.07128585 -0.01919188 0.032831635 -0.051660668 -0.02677712 0.029457852 0.014018234 -0.1143547
0.16042614 0.1785959 -0.014252514 -0.07652592 -0.0012480008 -0.014436564 0.0020120617 -0.00038568347
-0.009685253 0.0025914216 -0.0022952529 -0.0064189555 -0.0013220169 -0.013515455 -0.014372142 -0.016356612
-0.002563624 0.027334185 -0.004147163 -0.011686359 -0.012821273 -0.012300092 -0.0032665143 -0.014978099
0.001224025 -0.010923848 -0.0061184624 -0.011727675 -0.0026773561 0.1007437 0.06983656 0.0005295619
-0.013107793 -0.0021830793 -0.01284091 -0.057895765 -0.005435374 -0.043718103 0.2528655 -0.006321774
-0.013053775 -0.014591319 0.54708266 0.1992653 -0.038088128 -0.010717229 -0.017985418 -0.017617252
-0.022019682 -0.0009163154 0.015663335 -0.0025246798 -0.14771034 0.0008876363 -0.028756462 0.01899012
-0.009108796 -0.0094739515 -0.018325193 -0.004750602 -0.1800571 -0.019475315 3.954017e-05 -0.07093774
0.00010375398 -0.0008881658 -0.03822741 -0.00811394 -0.00938579 -0.0027745948 -0.011587749 -0.47648102
0.00063829817 -0.0029607636 -0.015520672 0.051245384 -0.0014897845 -0.020263456 -0.0018563864 -0.030945858
-0.00045520737 -0.006854107 -0.008135174 -0.0013323106 -0.0053712646 -0.0126107605 0.04542165 0.0029121856
-0.0041321265 -0.026665557 -0.011293309 -0.015410573 -0.121094756 -0.0065422906 -0.018160464 -0.047029376
-0.013141837 -0.0020224531 -0.046892446 -0.00050590443 -0.0006949334 -0.0006874676 0.37809488 -0.020666465
0.0032132578 -0.0039979615 -0.0153158335 -0.019900778 -0.03747776 -0.0018647698 0.037597694 0.05156905
-0.04219737 -0.006615558 0.540273 -0.0031977934 0.0019086163 -0.00809701 -0.057414167 0.12283637
-0.0072573745 0.06204311 0.296288 -0.003050463 -0.0008118113 -0.013139752 -0.018415617 -0.023969945
-0.065921515 -0.03226327 -0.0033135691 -0.011126323 -0.24493809 -0.013084945 -0.012931566 -0.022874415
-0.011123176 -0.014144863 -0.024543272 0.0013911569 -0.1500717 0.052197874 -0.0035608315 -0.001968146
-0.0041423216 -0.031605173 -0.016180549 -0.0032125758 -0.007904597 -0.013843173 0.2952698 -0.0022906025
-0.010239702 -0.010552918 -0.0700941 -0.013813571 -0.0522859 -0.15518042 -0.0074971197 0.003365666
0.32047743 0.0027741157 -0.011008606 -0.010064096 -0.05432718 -0.46490523 -0.0072937673 -0.0015369586
