TD3/models/reward_s0.18_a8e-2_t(-2_0.1)_safe(3,-0.4)_pn0.45.pth (torch, 275287 bytes, 5 tensors)

fc1.weight f4 [256, 8]
0.1648909 0.008822982 -0.2713848 -0.24603513 0.008274364 0.013648351 0.77305055 0.26333523
-0.31266597 0.34792462 -0.0503083 0.15963458 0.11015972 -0.00131251 0.81882083 0.03860938
0.4774248 -0.20595786 -0.8892369 0.48664615 -0.07817783 0.118524976 0.06602764 0.04839836
0.26515055 0.1966733 -0.72423583 0.10488102 0.0012546919 -0.001583674 -0.59489036 0.26536572
0.03871221 -0.26633373 0.36752838 -0.37974945 0.09526549 -0.016300866 1.9491398 -0.18666087
-0.36993754 0.40614945 -0.15526228 0.15057218 0.120581016 -0.25656807 1.4311869 0.3017949
0.36688945 0.25136206 -0.5739889 0.34399933 0.1626064 -0.1500492 1.0456368 -0.45499912
0.07475226 -0.28830895 0.3279121 -0.5361986 -0.33603913 0.032169733 1.0281194 -0.03402217
-0.19863635 0.08459059 -0.9876085 -0.13134985 -0.012056925 0.11493866 -2.4212348 0.05099303
-0.22944778 0.17795372 -0.4408206 -0.055433635 0.0024027408 0.043129537 1.675208 -0.048486255
-0.4589484 -0.24193975 0.53568745 -0.18468496 0.0035673159 0.07084445 0.2922042 -0.3083202
-0.34288925 0.03723143 0.31276995 0.47855964 -0.022885516 0.02406558 -2.2940469 -0.04726665
-0.32069215 -0.24116468 0.26933742 0.20181021 0.0014945848 -0.09827322 0.019118536 0.27170202
0.057458848 -0.4686397 -0.59096175 -0.597357 -0.37476638 0.051679105 0.4915512 0.23202507
-0.16683325 0.043027937 -0.20453255 -0.011863614 0.03827802 0.040895823 1.915102 -0.44333935
-0.5797942 0.4422468 0.20060588 0.23893663 0.1444731 0.089522965 -1.4012455 -0.47044295
0.6298358 0.0136304945 -0.31400093 0.30241123 0.19184655 -0.16723429 1.0837479 0.17117551
-0.22646359 -0.17414883 -0.69981337 -2.1371384 -0.83780444 -0.029285252 0.2333339 0.19453727
-0.43156284 -0.10386885 -0.016534224 -0.051739693 0.026733136 0.10121323 -3.4422019 0.022365494
0.11914701 0.18369783 0.3913707 -0.45237207 0.1468062 -0.018012807 1.0913293 0.0758021
0.12705114 0.19815472 -0.68548054 -0.22780938 -0.009675334 0.07550624 -0.47819337 0.19827352
-0.09353291 0.19263555 0.23713984 0.135377 0.0016766433 -0.2634479 -1.9588041 0.08897541
0.45604816 0.50695026 -0.1824346 -0.48225135 0.02214902 0.1789037 -0.9004393 0.17056231
0.11092599 0.12824161 0.5035197 0.25199082 0.025073662 -0.052208878 3.193813 -0.025474012
-0.0122507205 0.05921797 1.1165868 -0.15634969 -0.08629642 0.0789792 -1.0109292 -0.3145798
0.19290017 -0.2539015 -0.10413857 -0.58706397 -0.073096514 0.17830949 1.5440491 -0.38756064
0.15095553 0.28359705 -0.38390929 -0.27093846 0.051923197 -0.013138753 2.2001288 0.09349813
-0.08296171 -0.073985375 0.26787266 -0.12634213 -0.08514886 0.08213493 -1.4683189 -0.025462309
-0.19040388 -0.43396708 -0.9531181 0.0069512916 -0.09231972 0.2042258 -2.3846433 0.084693514
0.586928 -0.1473619 0.55395675 0.37658745 0.13939025 -0.16984704 0.054682415 0.12437001
-0.013287745 -0.0031381028 0.17353012 -0.10433374 0.1339998 -0.02094126 -1.18604 0.17222372
-0.19837803 -0.06324652 0.24785301 -0.3667584 0.005029186 0.025294453 -1.6041104 0.31625417
00000000: 29d9 283e 458e 103c f3f2 8abe a2f0 7bbe
00000010: 3391 073c 559d 5f3c a4e6 453f e0d3 863e
00000020: c115 a0be 2d23 b23e 1310 4ebd 3f77 233e
00000030: 6b9b e13d 8708 acba 3e9e 513f df24 1e3d
00000040: 0671 f43e 9ee6 52be 08a5 63bf af29 f93e
00000050: b31b a0bd 39bd f23d 8039 873d 5c3d 463d
00000060: d0c1 873e ba64 493e 8567 39bf dccb d63d
00000070: 7974 a43a 4893 cfba bc4a 18bf 04de 873e
00000080: b290 1e3d e55c 88be ae2c bc3e 856e c2be
00000090: 8e1a c33d 6589 85bc 6a7d f93f 0724 3fbe
000000a0: 7468 bdbe d2f2 cf3e 13fd 1ebe 982f 1a3e
000000b0: 2ef3 f63d e45c 83be 2231 b73f dc84 9a3e
000000c0: efd8 bb3e 87b2 803e f0f0 12bf ae20 b03e
000000d0: 4b82 263e 7fa6 19be 6dd7 853f a5f5 e8be
000000e0: b717 993d 3b9d 93be 18e4 a73e 5044 09bf
000000f0: 520d acbe 69c4 033d 6b99 833f d55a 0bbd
00000100: 5467 4bbe d53d ad3d e9d3 7cbf 9380 06be
00000110: 698a 45bc f664 eb3d 83f5 1ac0 11de 503d
00000120: 5cf4 6abe 8039 363e 3db3 e1be 610e 63bd
00000130: 4d77 1d3b 99a8 303d 376d d63f 8699 46bd
00000140: 49fb eabe 0ebf 77be d022 093f 0e1e 3dbe
00000150: a1c9 693b e516 913d ca9b 953e 25dc 9dbe
00000160: 2e8f afbe fc7f 183d 6223 a03e c505 f53e
00000170: 687a bbbc 2e25 c53c aad1 12c0 ad9a 41bd
00000180: c331 a4be e0f3 76be 98e6 893e 56a7 4e3e
00000190: f2e5 c33a 7843 c9bd 7a9e 9c3c 871c 8b3e
000001a0: f859 6b3d 8bf1 efbe 4549 17bf 63ec 18bf
000001b0: 61e1 bfbe 78ad 533d 99ac fb3e fb97 6d3e
000001c0: 56d6 2abe 103e 303d fb70 51be 9b5f 42bc
000001d0: 6ac9 1c3d 6182 273d 1022 f53f 60fd e2be
000001e0: 656d 14bf 2c6e e23e a16b 4d3e ceab 743e
000001f0: c2f0 133e d157 b73d 035c b3bf e6dd f0be
00000200: eb3c 213f 7052 5f3c bbc4 a0be a5d5 9a3e
00000210: 6c73 443e 773f 2bbe 40b8 8a3f a248 2f3e
00000220: 12e6 67be 1254 32be f826 33bf e0c6 08c0
00000230: 5a7a 56bf a0e7 efbc 15ef 6e3e c734 473e
00000240: cef5 dcbe 31b9 d4bd c872 87bc 00ed 53bd
00000250: 73ff da3c e248 cf3d 094d 5cc0 d737 b73c
00000260: 5903 f43d 491b 3c3e be61 c83e 509d e7be
00000270: 5d54 163e 988f 93bc aeb0 8b3f 223e 9b3d
00000280: b219 023e 12e9 4a3e a77b 2fbf dd46 69be
00000290: 4b85 1ebc 04a3 9a3d c3d5 f4be 3708 4b3e
000002a0: 2f8e bfbd 4142 453e c9d4 723e 45a0 0a3e
000002b0: d0c2 db3a a5e2 86be 18ba fabf bd38 b63d
000002c0: 257f e93e 7ec7 013f 23d0 3abe a6e9 f6be
000002d0: dd71 b53c 8832 373e 3183 66bf e3a7 2e3e
000002e0: 2a2d e33d c551 033e abe6 003f f104 813e
000002f0: 4867 cd3c fad8 55bd 6f67 4c40 e0ae d0bc
00000300: 3fb7 48bc 8b8e 723d 51ec 8e3f 221a 20be
00000310: 2dbc b0bd d9bf a13d 2166 81bf 9b10 a1be
00000320: 9f87 453e 61ff 81be 9a46 d5bd d349 16bf
00000330: a0b3 95bd c396 363e 67a3 c53f 596e c6be
00000340: 1694 1a3e a233 913e c28f c4be 72b8 8abe
00000350: 6bad 543d ed43 57bc e9ce 0c40 f37b bf3d
00000360: d4e7 a9bd a585 97bd 9b26 893e d55f 01be
00000370: 8762 aebd 5c36 a83d e0f1 bbbf 5596 d0bc
00000380: 3cf9 42be ef30 debe 8cff 73bf a9c7 e33b
00000390: 1f12 bdbd 9120 513e ff9d 18c0 cb73 ad3d
000003a0: ea40 163f 0ae6 16be 1cd0 0d3f 12d0 c03e
000003b0: 51bc 0e3e 62ec 2dbe abfa 5f3d b4b5 fe3d
000003c0: d8b4 59bc a1a8 4dbb e1b1 313e eeac d5bd
000003d0: 3e37 093e 018d abbc 29d0 97bf 6a5b 303e
000003e0: 9c23 4bbe 6487 81bd 2ecd 7d3e c2c7 bbbe
000003f0: dfcb a43b 5036 cf3c 7d53 cdbf 11ec a13e

fc1.bias f4 [256]
-0.45093668 -0.14812705 -0.84409994 -0.16505216 0.36016995 0.053203825 -0.18889831 0.41993856
-0.8356101 -0.015268035 0.22165987 -0.07171629 0.23609552 -0.34610996 -0.32328746 -0.16511327
0.2506266 -0.13808426 -0.11906676 0.034441713 -0.5024916 -0.010809012 -0.3739496 0.41648623
0.703741 -0.42345142 -0.11676842 0.24793237 -0.9530502 0.52036846 -0.06736502 0.13435788
-0.6095919 -0.24835274 -0.31864172 -0.08629276 -0.17556202 -0.22026105 0.7831475 0.05549606
0.22074936 0.2224886 0.013996397 -0.61337364 0.14144988 0.056573525 -0.033667654 0.18815435
-0.10466156 0.32155082 0.22145171 -0.3802396 0.8384492 -0.3674784 -0.64114594 0.20453435
-0.09933605 0.38311717 0.5269048 0.66599196 0.35362434 0.28709596 0.0103323655 0.34000912
0.12909958 0.4802218 0.14877492 0.231769 -0.5149084 0.0522907 -0.2494743 0.35537332
-0.090049505 0.32702395 0.18920852 -0.27923936 -0.3388214 0.2965197 0.2582825 -0.04904852
-0.77946436 1.2954289 0.38451988 0.06526677 -0.36629325 0.23497038 -0.17070371 0.14478211
-0.015262997 -0.16824886 0.24979873 0.232439 -0.29800725 -0.13879204 -0.31605586 0.7597895
0.573702 0.27732107 0.27316597 0.43782264 0.3062392 0.3712466 0.20395915 0.39653048
-0.4001582 0.06892513 0.339216 -0.7539409 0.46576717 -0.15456662 -0.13983826 -0.18703619
-0.3295734 -0.25322118 -0.065669134 -0.4686134 0.56208736 0.19368306 0.3362444 0.6861356
-0.26251554 -0.16511397 -0.2253731 -0.798536 0.099368565 0.11218685 0.6946221 0.18249841
-0.15650108 0.21351393 -0.2873895 -0.16019706 -0.40763792 0.21066543 -0.3062474 0.16505718
0.38911712 0.8659427 0.22807495 -0.28093708 -0.08459816 -0.30621803 -0.38985154 -0.10967996
0.5364509 -0.27045444 -0.100589216 0.042434182 0.6524416 -0.56698626 -0.30198205 0.62370586
0.06747861 0.14443758 0.49439397 -0.39377907 -0.66182417 -0.4437721 0.68893963 0.09557571
0.38196447 -0.3192105 0.30396375 0.44552085 0.15082547 -0.69759417 0.27894056 0.56876796
0.38793916 -0.23542535 -0.032793075 -0.82709414 -0.27435848 0.3304529 0.34335038 0.20325853
-0.28917357 -0.5069787 0.702622 0.0646878 0.059829656 -0.64020866 0.20088282 -0.09453311
0.6805157 1.4686427 -0.03911981 -0.4388708 -0.21644843 -0.27894914 -0.14984816 -0.25147194
-0.012722869 0.18152508 -0.45941442 -0.011012317 1.0377681 -0.46107855 1.0116899 0.17208527
0.51102763 0.38593793 -0.084590286 -0.18757515 0.1372876 -0.5926857 -0.1598785 -0.47088715
0.041079137 -0.2842625 -0.49014136 0.13370448 -0.32558525 -0.73346573 -0.548923 0.06360452
-0.37587783 -0.5648825 -0.07638126 0.15607098 -0.16412084 -0.5610958 -0.4255216 0.39542192
0.44794717 -0.7854982 -0.17093447 0.0027453678 -0.089731745 -0.3010988 -0.32544893 -0.18731852
0.08792856 0.3091753 0.28056014 -0.26828352 -0.18742783 0.2671244 0.07986633 -0.099855445
0.69122446 -0.3248591 -1.0166214 -0.20474598 0.11695066 -0.16203354 0.049437597 0.23883326
0.25962034 -0.2188526 -0.10349712 -0.5372283 -0.22063106 -0.43931985 -0.409019 -0.43210003
00000000: 2ce1 e6be 9eae 17be ef16 58bf 6f03 29be
00000010: 3268 b83e 41ec 593d 8f6e 41be 3002 d73e
00000020: 8bea 55bf c826 7abc cefa 623e fedf 92bd
00000030: 06c3 713e 5335 b1be ef85 a5be 7413 29be
00000040: 2152 803e f665 0dbe 46d9 f3bd c112 0d3d
00000050: 4aa3 00bf 4818 31bc 5276 bfbe af3d d53e
00000060: 5f28 343f a0ce d8be 4824 efbd fce1 7d3e
00000070: 19fb 73bf de36 053f acf6 89bd 1d95 093e
00000080: 370e 1cbf 2e50 7ebe 0225 a3be 42ba b0bd
00000090: 88c6 33be 1d8c 61be 5b7c 483f d64f 633d
000000a0: 1f0c 623e 0dd4 633e 2551 653c 0e06 1dbf
000000b0: 3dd8 103e a4b9 673d 18e7 09bd 89ab 403e
000000c0: cd58 d6bd 4fa2 a43e 3dc4 623e c4ae c2be
000000d0: 9ba4 563f 2126 bcbe 2422 24bf 7471 513e
000000e0: b370 cbbd ef27 c43e 3ce3 063f 737e 2a3f
000000f0: 400e b53e 3efe 923e 1549 293c ad15 ae3e
00000100: ae32 043e a2df f53e 7458 183e da54 6d3e
00000110: 09d1 03bf c62e 563d 3176 7fbe 7ef3 b53e
00000120: e06b b8bd af6f a73e e1bf 413e 76f8 8ebe
00000130: 007a adbe 6ed1 973e 9b3d 843e 1ae7 48bd
00000140: fa8a 47bf 9dd0 a53f cadf c43e 96aa 853d
00000150: ca8a bbbe 139c 703e f4cc 2ebe c341 143e
00000160: a611 7abc 6e49 2cbe 3dcb 7f3e 7d04 6e3e
00000170: 6894 98be 801f 0ebe 13d2 a1be 9181 423f
00000180: 22de 123f 07fd 8d3e 69dc 8b3e 4a2a e03e
00000190: 62cb 9c3e 0914 be3e abda 503e 0b06 cb3e
000001a0: 89e1 ccbe 9e28 8d3d b8ad ad3e 4502 41bf
000001b0: 0979 ee3e b646 1ebe c331 0fbe 6a86 3fbe
000001c0: d8bd a8be 35a6 81be 8a7d 86bd 18ee efbe
000001d0: f5e4 0f3f da54 463e 3a28 ac3e 95a6 2f3f
000001e0: 7068 86be a313 29be 35c8 66be db6c 4cbf
000001f0: bf81 cb3d 38c2 e53d c1d2 313f dde0 3a3e
00000200: d241 20be 65a3 5a3e b724 93be b30a 24be
00000210: ebb5 d0be aeb8 573e 76cc 9cbe c004 293e
00000220: 5c3a c73e 6cae 5d3f 7b8c 693e fcd6 8fbe
00000230: cd41 adbd 9cc8 9cbe 9f9a c7be e39f e0bd
00000240: d954 093f 0179 8abe b801 cebd 77cf 2d3d
00000250: 6a06 273f 0326 11bf 649d 9abe 30ab 1f3f
00000260: 3a32 8a3d 72e7 133e 3521 fd3e 699d c9be
00000270: 4f6d 29bf 1936 e3be 595e 303f 33bd c33d
00000280: d990 c33e 8f6f a3be 23a1 9b3e 4f1b e43e
00000290: fe71 1a3e 8895 32bf 4cd1 8e3e c79a 113f
000002a0: f69f c63e 5813 71be 0852 06bd 71bc 53bf
000002b0: b778 8cbe 1f31 a93e 9fcb af3e 0123 503e
000002c0: 8f0e 94be 5bc9 01bf 09df 333f 0a7b 843d
000002d0: f10f 753d b7e4 23bf 3ab4 4d3e 939a c1bd
000002e0: 4736 2e3f 7cfc bb3f 183c 20bd acb3 e0be
000002f0: a8a4 5dbe 6cd2 8ebe cc71 19be eec0 80be
00000300: 9573 50bc b6e1 393e 5e38 ebbe 016d 34bc
00000310: 96d5 843f 7d12 ecbe 0e7f 813f 1f37 303e
00000320: b5d2 023f a899 c53e ac3d adbd b313 40be
00000330: 1f95 0c3e 40ba 17bf 31b7 23be 1f18 f1be
00000340: 9942 283d db8a 91be cff3 fabe d4e9 083e
00000350: 1cb3 a6be 69c4 3bbf 3886 0cbf 1643 823d
00000360: 0f73 c0be 249c 10bf c76d 9cbd 12d1 1f3e
00000370: 4b0f 28be f9a3 0fbf f8dd d9be be74 ca3e
00000380: 5559 e53e 6916 49bf 7209 2fbe a1eb 333b
00000390: 47c5 b7bd 9f29 9abe 3ea1 a6be 6dd0 3fbe
000003a0: e413 b43d 3a4c 9e3e 94a5 8f3e 755c 89be
000003b0: 15ed 3fbe 88c4 883e f590 a33d 0381 ccbd
000003c0: 16f4 303f ef53 a6be a620 82bf eea8 51be
000003d0: d483 ef3d 1fec 25be 147f 4a3d b590 743e
000003e0: f5ec 843e e51a 60be 4cf6 d3bd cb87 09bf
000003f0: 1ced 61be 88ee e0be f06a d1be 373c ddbe

fc2.weight f4 [256, 256]
-0.07718508 0.03714019 -0.044533335 -0.07127589 0.019292476 -0.068890475 0.037198227 -0.022478348
0.029838413 -0.022576459 -0.007384605 -0.057541206 0.0050886306 -0.06569547 0.040838715 -0.05227624
-0.0001556799 -0.025041927 0.051274788 0.03802215 0.0183901 0.013189793 0.044833038 -0.03196196
-0.06106397 -0.032502968 -0.066348 -0.03190027 -0.028057942 -0.0126020145 -0.009441546 0.022619018
-0.014149423 -0.014045414 -0.02918755 0.01113511 0.037960783 -0.028434535 -0.060305014 0.0039827703
-0.01889414 0.059172545 0.023623973 0.037137903 0.014067084 0.0043951115 0.019542338 -0.015261809
0.004810332 0.008984823 -0.061928578 -0.03212048 -0.038041648 0.06280465 0.027691225 0.005961331
-0.049933963 -0.06746018 -0.06486901 -0.004166061 -0.028831528 -0.04628072 -0.051919077 0.033041947
-0.045994926 -0.0009932511 -0.061596908 0.00216917 -0.059637643 -0.049944304 0.024871072 -0.013136264
-0.0016545932 -0.051672205 0.03771042 0.0533351 0.001393059 -0.062052704 -0.043383807 0.021535916
0.0018535896 -0.054002855 0.0030617993 -0.068621375 -0.081186496 -0.038833603 -0.009524875 -0.022022948
-0.03315326 0.045884307 -0.04534387 0.031735796 -0.035490274 0.04118213 0.0026763591 0.04044852
-0.05902943 -0.00710843 -0.022919355 -0.040622454 -0.06622408 0.0086758435 0.00918078 -0.03177111
0.05249351 0.03935775 -0.050257176 -0.02875486 -0.010514672 0.027358579 0.040471103 0.018765787
0.029062238 0.0469039 0.02867147 -0.057576142 -0.03351304 -0.011490024 0.011275887 0.010398198
-0.026054086 -0.06460621 0.011085508 -0.035992302 -0.017981037 -0.026366169 -0.006538186 0.026826324
0.016352054 0.057734717 0.032445706 0.05993909 -0.02729159 0.02358954 0.050573155 -0.0024537193
0.06123623 0.031889614 -0.04526472 -0.00056181545 0.008030236 -0.018666577 -0.05115978 0.05457142
-0.008594008 -0.022432262 0.011001219 -0.013931788 0.04588001 0.04720952 -0.07419105 -0.0018377951
-0.044729766 0.06115324 0.03281934 0.023142492 -0.05310944 0.05344296 -0.038334288 -0.020486785
0.03422601 -0.0009276569 0.053955805 -0.029847775 0.018861668 -0.04851488 -0.037865363 0.05534391
-0.050280366 0.03244181 -0.011970795 0.020990025 -0.061457552 0.040726464 -0.04392977 0.02393921
-0.019277312 -0.020999322 -0.05219217 0.042972352 -0.015559386 0.031340037 -0.07646657 -0.07474456
0.022552855 -0.05459018 0.020198068 -0.023877498 0.047966853 -0.042711746 0.04715536 -0.05915781
-0.042056292 -0.047215044 -0.058334462 -0.06337357 0.046943206 -0.021042926 -0.04841738 0.01864378
-0.0143217 0.011600118 -0.040780608 0.0029438785 -0.03222338 -0.0069614323 -0.04780662 0.0067547136
0.015162917 0.03614057 0.03976493 0.028394615 -0.0012110075 0.010141995 -0.03846071 0.012915218
-0.027738556 0.027635708 -0.01988884 0.024914106 -0.030446757 0.027163997 0.006830579 -0.029337043
0.02816628 0.025767531 0.028090624 0.052969802 0.014970187 -0.03947886 -0.028877476 0.01570161
-0.025599204 0.0005482392 0.025141308 -0.0077878796 0.02833324 0.031501614 -0.048075832 -0.054411963
-0.01889069 -0.00730946 0.036908817 -0.06492883 0.024082702 -0.056659825 0.03337441 -0.0145217115
0.03702498 0.0027299873 0.003400835 -0.018698584 -0.049982764 0.007434822 -0.029171558 0.024271514
00000000: 3613 9ebd 5020 183d 9668 36bd 18f9 91bd
00000010: 410b 9e3c 7316 8dbd 2b5d 183d 8324 b8bc
00000020: b06f f43c 44f2 b8bc 8efa f1bb 54b0 6bbd
00000030: 87be a63b 598b 86bd 7f46 273d 9c1f 56bd
00000040: 013e 23b9 ba24 cdbc 8305 523d 1dbd 1b3d
00000050: d6a6 963c 001a 583c d9a2 373d 8bea 02bd
00000060: 371e 7abd d521 05bd 76e1 87bd dca9 02bd
00000070: c5d9 e5bc ae78 4ebc b7b0 1abc 854b b93c
00000080: fbd2 67bc bc1e 66bc bb1a efbc 0970 363c
00000090: c47c 1b3d 8bef e8bc 6402 77bd e681 823b
000000a0: e2c7 9abc e95e 723d 1087 c13c ea1d 183d
000000b0: a079 663c de04 903b 4117 a03c ab0c 7abc
000000c0: fd9f 9d3b 1435 133c d2a8 7dbd c490 03bd
000000d0: 8fd1 1bbd b99f 803d b5d8 e23c 4557 c33b
000000e0: 8e87 4cbd 9028 8abd 0bda 84bd 7483 88bb
000000f0: 1930 ecbc da90 3dbd 19a9 54bd fe56 073d
00000100: 2d65 3cbd fa2f 82ba 0a4d 7cbd a228 0e3b
00000110: 9a46 74bd 6692 4cbd 6bbe cb3c 7c39 57bc
00000120: efde d8ba 3ca6 53bd 3e76 1a3d e875 5a3d
00000130: 4e97 b63a fa2a 7ebd 38b3 31bd 176c b03c
00000140: 25f4 f23a 1932 5dbd 78a8 483b 5d89 8cbd
00000150: 1b45 a6bd fc0f 1fbd 390e 1cbc 7869 b4bc
00000160: b6cb 07bd 2ff1 3b3d 7eba 39bd 65fd 013d
00000170: 405e 11bd 98ae 283d db65 2f3b 59ad 253d
00000180: d8c8 71bd d5ed e8bb 5fc1 bbbc bb63 26bd
00000190: 7ea0 87bd 2025 0e3c fb6a 163c 6c22 02bd
000001a0: 6f03 573d 9835 213d 78da 4dbd 508f ebbc
000001b0: bb45 2cbc 191f e03c 07c5 253d b5ba 993c
000001c0: ee13 ee3c 4e1e 403d 6ee0 ea3c f6d4 6bbd
000001d0: f844 09bd a740 3cbc 7fbe 383c 345d 2a3c
000001e0: 616f d5bc 4350 84bd fe9f 353c aa6c 13bd
000001f0: f84c 93bc ddfd d7bc 483e d6bb e1c2 db3c
00000200: bef4 853c 3d7b 6c3d cae5 043d b182 753d
00000210: 9d92 dfbc da3e c13c cc25 4f3d 94ce 20bb
00000220: d7d2 7a3d af9e 023d 8067 39bd cc46 13ba
00000230: 4091 033c a6ea 98bc eb8c 51bd 4886 5f3d
00000240: e2cd 0cbc ddc3 b7bc 753e 343c 2742 64bc
00000250: adec 3b3d c55e 413d 7af1 97bd 2ce2 f0ba
00000260: 8f36 37bd d27b 7a3d 926d 063d 5395 bd3c
00000270: 4989 59bd 01e7 5a3d 6a04 1dbd e7d3 a7bc
00000280: 9330 0c3d 002e 73ba c300 5d3d 5283 f4bc
00000290: c983 9a3c 8ab7 46bd b618 1bbd 4cb0 623d
000002a0: c9f2 4dbd b4e1 043d 2721 44bc 46f3 ab3c
000002b0: eaba 7bbd cbd0 263d b4ef 33bd 2a1c c43c
000002c0: 74eb 9dbc c506 acbc 75c7 55bd c703 303d
000002d0: ccec 7ebc 695e 003d 819a 9cbd ad13 99bd
000002e0: c4c0 b83c f499 5fbd 6b76 a53c be9a c3bc
000002f0: e478 443d 83f2 2ebd fb25 413d 764f 72bd
00000300: 3843 2cbd 9064 41bd 1ef0 6ebd 01ca 81bd
00000310: 8547 403d 3762 acbc 4d51 46bd d7ba 983c
00000320: 90a5 6abc 6c0e 3e3c 9109 27bd 16ee 403b
00000330: aafc 03bd ba1c e4bb e0d0 43bd a556 dd3b
00000340: e26d 783c 2208 143d 8de0 223d d39b e83c
00000350: abba 9eba 9c2a 263c fa88 1dbd 5a9a 533c
00000360: f83b e3bc 4864 e23c eced a2bc ab18 cc3c
00000370: 7a6b f9bc 0887 de3c 0dd3 df3b 3d54 f0bc
00000380: f8bc e63c 6e16 d33c 4f1e e63c ddf6 583d
00000390: 8445 753c 96b4 21bd 7590 ecbc aaa0 803c
000003a0: 6cb5 d1bc b6b7 0f3a 25f5 cd3c 7831 ffbb
000003b0: 1c1b e83c d607 013d 2aeb 44bd 14df 5ebd
000003c0: a6c0 9abc 3284 efbb b32d 173d 68f9 84bd
000003d0: 1649 c53c 2214 68bd 9bb3 083d 79ec 6dbc
000003e0: 81a7 173d 96e9 323b 8be0 5e3b c62d 99bc
000003f0: baba 4cbd cf9f f33b 31f9 eebc 0ed5 c63c

fc2.bias f4 [256]
0.0004004162 0.02847226 -0.0054062023 -0.0038882226 -0.17725179 0.028518686 0.07411796 -0.048646886
-0.028338758 -0.07183295 0.029047044 -0.0046992996 0.018712677 -0.008424758 0.0473592 -0.009116574
-0.0066369385 0.11245539 -0.023738392 0.13320139 0.02373209 -0.05469868 0.029546823 -0.045068618
-0.06309353 0.12594272 0.17528954 -0.09576632 -0.03248708 -0.016797157 0.119577475 -0.051382996
0.27192536 -0.067298934 -0.16457005 0.044372983 0.11358726 -0.097515576 0.014186109 0.0136622805
0.017050842 -0.031425096 -0.07005548 -0.084881835 -0.032813895 0.33772644 0.09027318 -0.032745503
0.19558428 -0.06511187 -0.0043841493 -0.04596225 0.06908139 0.2194142 -0.011962851 -0.024147473
-0.037519768 -0.10841921 -0.004712458 0.05162078 -0.08708833 0.04099799 0.08783224 -0.24465562
-0.042611163 0.010851385 -0.09953377 -0.004799539 0.031794414 -0.026609194 0.11414312 -0.05865641
-0.0068819458 0.009988233 0.2338788 0.05618166 -0.04050631 0.11218237 0.015682917 -0.06526803
-0.030743059 0.15784009 0.051683355 -0.30891046 -0.25112376 0.14076203 -0.0526674 0.03963512
0.30070353 0.18185744 0.3223394 -0.04061948 -0.041324925 -0.21821123 0.09691795 0.21741714
0.062254395 -0.071485616 0.10521817 0.22305931 0.030366331 -0.052945197 0.01675487 -0.054565065
0.03828324 0.16138831 0.040959224 -0.05375071 -0.038060214 0.011712344 -0.048470225 0.03164772
0.058580503 0.09668447 -0.055867516 -0.04851103 -0.045108173 0.29970148 0.022983912 0.009063934
0.023802048 0.11852075 0.024139985 -0.037904676 -0.008751987 0.07200459 0.0037650424 -0.016129343
-0.004149944 0.006265029 0.04465213 -0.118800856 0.28450376 0.019555187 0.24854906 -0.038329486
-0.12531672 0.06515516 0.1124694 -0.07553028 0.07517775 -0.0130204465 -0.021816187 0.18162034
0.2769091 0.13288723 0.23571905 0.027762089 0.33976984 -0.16510251 0.08074293 0.0008996629
0.04298203 0.32048878 0.15929112 0.35884714 -0.051796533 0.28207958 -0.021662353 0.014074124
-0.023337174 -0.07504626 -0.12312763 -0.018202689 0.008204107 -0.06293352 0.14274395 -0.24878162
0.107988305 0.10092492 -0.048268758 0.34888935 -0.058146853 0.17530891 -0.102718644 -0.06952006
0.109600514 0.023468737 0.032100134 0.0237419 0.037644006 -0.04357364 -0.0880895 -0.021252232
0.03854121 0.36833233 0.014366218 -0.030305648 -0.009480497 0.20963638 0.052637484 -0.006644448
0.22391702 0.2627841 0.18992005 0.09302132 -0.042041577 0.045623068 -0.029600248 -0.11449174
0.25060543 -0.0143782245 0.2003534 -0.028536966 0.02107449 0.05151248 0.58656585 -0.036900535
0.41952914 -0.06537754 -0.043487914 -0.03428085 -0.05446644 0.23510776 -0.0022134897 -0.023485955
0.16251996 0.051550962 0.061998848 -0.028918685 -0.0143703725 -0.06801732 0.09564733 0.02959239
-0.15622996 -0.043676063 -0.10600574 0.09492958 0.053999748 -0.067883916 0.030135835 0.14764333
0.16204055 0.113956496 0.09398288 0.20183243 -0.05557514 -0.015765857 -0.02719212 -0.058618452
0.024660992 0.18896562 0.034665767 -0.04614387 -0.19282097 -0.005698949 0.00878308 -0.059975844
-0.05944401 -0.032975685 0.039878514 0.1427965 0.018006224 -0.059116278 0.26350743 0.008955217
00000000: f4ee d139 a83e e93c 8326 b1bb 8dd1 7ebb
00000010: 7e81 35be 05a0 e93c 28cb 973d f541 47bd
00000020: af26 e8bc 271d 93bd 11f4 ed3c 95fc 99bb
00000030: 544b 993c ff07 0abc b8fb 413d af5d 15bc
00000040: ad7a d9bb 034f e63d 0477 c2bc f265 083e
00000050: cd69 c23c b90b 60bd 2e0c f23c df99 38bd
00000060: 2e37 81bd 21f7 003e 1a7f 333e 2221 c4bd
00000070: 2c11 05bd 319a 89bc 09e5 f43d fa76 52bd
00000080: cd39 8b3e 06d4 89bd 0d85 28be 72c0 353d
00000090: 70a0 e83d 3fb6 c7bd db6c 683c c2d7 5f3c
000000a0: 35ae 8b3c 9ab7 00bd 3f79 8fbd 87d6 adbd
000000b0: dd67 06bd 7bea ac3e 25e1 b83d 2620 06bd
000000c0: 3f47 483e 5f59 85bd e9a8 8fbb ea42 3cbd
000000d0: 8b7a 8d3d 1eae 603e d5ff 43bc ecd0 c5bc
000000e0: 54ae 19bd e40a debd f66a 9abb 5070 533d
000000f0: 5e5b b2bd 82ed 273d 64e1 b33d 0187 7abe
00000100: 0b89 2ebd 02ca 313c 5cd8 cbbd 7445 9dbb
00000110: dc3a 023d 86fb d9bc dec3 e93d b441 70bd
00000120: f281 e1bb b0a5 233c ed7d 6f3e be1e 663d
00000130: f2e9 25bd dfbf e53d 7679 803c 3fab 85bd
00000140: ded8 fbbc d5a0 213e edb1 533d 8329 9ebe
00000150: 4b93 80be ec23 103e c6b9 57bd 7058 223d
00000160: d0f5 993e d638 3a3e ab09 a53e 9d60 26bd
00000170: 5344 29bd c472 5fbe eb7c c63d 99a2 5e3e
00000180: 77fe 7e3d 0d67 92bd a07c d73d a969 643e
00000190: d0c2 f83c 10dd 58bd 8241 893c 9e7f 5fbd
000001a0: e3ce 1c3d fa42 253e dcc4 273d b429 5cbd
000001b0: 07e5 1bbd 22e5 3f3c b788 46bd 0aa1 013d
000001c0: 1cf2 6f3d 8202 c63d 56d5 64bd 80b3 46bd
000001d0: 59c3 38bd 7972 993e c248 bc3c e580 143c
000001e0: 83fc c23c 02bb f23d 38c1 c53c ef41 1bbd
000001f0: 7e64 0fbc 2477 933d eebe 763b af21 84bc
00000200: 41fc 87bb df4a cd3b 27e5 363d dd4d f3bd
00000210: 7aaa 913e 3332 a03c a583 7e3e 61ff 1cbd
00000220: 0753 00be 1270 853d 5b56 e63d 9faf 9abd
00000230: cbf6 993d b653 55bc dcb7 b2bc affa 393e
00000240: 08c7 8d3e 9713 083e 5660 713e 526d e33c
00000250: 50f6 ad3e a210 29be 8d5c a53d 5bd7 6b3a
00000260: ed0d 303d 1b17 a43e 361d 233e d0ba b73e
00000270: 9a28 54bd bc6c 903e 3f75 b1bc 2897 663c
00000280: 9a2d bfbc dbb1 99bd 572a fcbd ce1d 95bc
00000290: 856a 063c 4ae3 80bd 782b 123e 9cc0 7ebe
000002a0: f928 dd3d b9b1 ce3d 76b5 45bd a0a1 b23e
000002b0: 652b 6ebd 2e84 333e 275e d2bd 8960 8ebd
000002c0: 3c76 e03d 8241 c03c 6e7b 033d 607e c23c
000002d0: 9a30 1a3d 467a 32bd 4568 b4bd 2919 aebc
000002e0: 63dd 1d3d 0e96 bc3e 4960 6b3c 8d43 f8bc
000002f0: 1654 1bbc ebaa 563e 679a 573d abb9 d9bb
00000300: 814a 653e a38b 863e 677a 423e f681 be3d
00000310: ca33 2cbd 41df 3a3d 387c f2bc a57a eabd
00000320: 5b4f 803e a592 6bbc 7129 4d3e 5bc6 e9bc
00000330: 69a4 ac3c c0fe 523d 2e29 163f 0425 17bd
00000340: 86cc d63e a9e4 85bd 6220 32bd 146a 0cbd
00000350: 3418 5fbd 17c0 703e 3210 11bb 9e65 c0bc
00000360: a26b 263e 1a27 533d 81f2 7d3d e1e6 ecbc
00000370: b671 6bbc aa4c 8bbd bfe2 c33d bd6b f23c
00000380: bffa 1fbe ace5 32bd 8a19 d9bd 716a c23d
00000390: d72e 5d3d b906 8bbd 6ddf f63c d02f 173e
000003a0: f5ed 253e 0662 e93d 197a c03d 29ad 4e3e
000003b0: c2a2 63bd 6627 81bc 02c2 debc e719 70bd
000003c0: d905 ca3c 3480 413e b1fd 0d3d 5b01 3dbd
000003d0: dc72 45be 40be babb e8e6 0f3c 3ba9 75bd
000003e0: 907b 73bd 8311 07bd a757 233d 3f39 123e
000003f0: ca81 933c e923 72bd 72ea 863e e7b8 123c

fc3.weight f4 [1, 256]
-0.0027763206 -0.20027559 0.023901384 0.09116631 0.2697251 -0.00026461337 -0.28687418 0.019923558
-0.018191963 0.07104398 -0.25603163 -0.0044676415 -0.011577172 -0.03141375 -0.042434484 0.11183045
-0.7251986 0.21158911 0.1412127 -0.26747847 -0.09651358 -0.14019126 0.02544598 0.1266103
-0.0483482 0.060024995 -0.076262854 0.033904385 -0.03381671 -0.043533485 0.059959322 -0.17988114
0.0023886317 0.07799474 0.2727804 -0.119145036 0.22163562 0.15300144 -0.011694252 0.04564396
0.025276907 0.09644916 0.052105583 0.07493658 -0.024144482 0.3270594 0.030861164 0.040578023
0.20579675 0.081188075 0.019273296 0.088562526 0.2815475 -0.12931995 -0.9427734 -0.057369187
0.030770352 -0.03794842 0.08406008 -0.06062738 0.07734962 0.03458132 -0.10959361 0.16788742
-0.026642896 -0.25065297 0.06829761 0.018866891 -0.20786771 0.044041928 -0.026481226 0.11742806
-0.04313697 0.039822012 -0.06807347 -0.05300846 0.0060925484 0.029316608 -0.03670585 -0.020089753
0.38101685 -0.040820453 0.020645184 -0.30199212 -0.12682591 0.07904819 0.041450128 0.56766766
0.39024925 -0.15956986 0.17535394 0.052229106 -0.017002964 -0.058226433 0.47306257 0.11085148
-0.06900118 0.007907976 0.067112945 0.12904131 0.00012321856 0.14896089 0.15897886 0.17219031
-0.031145755 -0.06326566 0.050787844 -0.0025620146 -0.03919941 0.047734894 -0.12837778 0.058965743
-0.06479061 -0.01901963 -0.044967856 -0.03510985 0.0046694553 0.12472257 0.05411491 0.00072479725
-0.017960457 0.098137386 -0.049472872 0.06201998 0.13683397 0.14228493 -0.050974343 0.15659139
-0.3814409 0.04316489 -0.035237998 -0.08316704 0.19727106 0.013014564 0.11761939 -0.0659677
-0.8389854 0.017004028 -0.058199987 0.03137406 -0.2714475 -0.16548592 -0.032911852 0.029941496
0.43009353 -0.06713027 0.55887747 0.010080837 0.13602678 0.0419209 0.22269283 -0.1935355
-0.030728804 -0.77789336 0.35356745 0.14276832 0.055485923 -0.08302191 0.009513695 0.027181467
0.005980353 -0.016460393 -0.014347888 -0.003354914 0.13566637 -0.0020473457 -0.027262637 0.12216885
0.18370302 -0.1137216 -0.03504834 0.23736313 -0.002620872 0.111246325 0.046140254 -0.0004171527
-0.19055241 -0.055108454 -0.0851833 -0.09328928 -0.09802295 -0.3421222 -0.14738299 0.08794517
-0.151976 -0.33349162 0.028821675 0.028746199 0.13668416 -0.83301234 -0.4147491 -0.09979171
-0.50787455 -0.51952904 0.41599974 0.12233565 -0.18546948 -0.051263485 -0.1121854 -0.59446436
-0.058059044 0.08751445 0.06774006 0.02814158 -0.050445102 0.055405784 -0.16050145 0.0023228007
-0.7308031 -0.04520306 -0.012213103 0.031191535 0.15801953 0.13651061 -0.025689002 -0.3289904
0.10158789 0.050396338 -0.25674802 0.0021768492 -0.034847267 -0.048584536 -0.053875938 -0.047433168
-0.06938934 0.005718442 -0.048232026 -0.022761146 -0.15868111 0.011910022 -0.026971538 0.0978038
0.45162207 -0.27905676 -0.92345226 -0.064557254 -0.53740156 -0.21193701 0.31925544 0.019520395
0.19980457 0.46923208 -0.06635916 -0.043319948 0.36159378 0.12782158 0.045415226 -0.63857067
0.1826363 -0.0188798 -0.04729612 -0.16270195 0.14038412 -0.110957295 -0.58625364 0.1329892
00000000: eef2 35bb 0b15 4dbe d6cc c33c 67b5 ba3d
00000010: 6919 8a3e cebb 8ab9 2ce1 92be bb36 a33c
00000020: 5007 95bc 827f 913d 9416 83be 4b65 92bb
00000030: 2eae 3dbc b4ab 00bd c8cf 2dbd 5d07 e53d
00000040: 9ea6 39bf d1aa 583e 109a 103e f0f2 88be
00000050: e9a8 c5bd 4c8e 0fbe 1674 d03c 21a6 013e
00000060: c308 46bd c5dc 753d b32f 9cbd 53df 0a3d
00000070: 6483 0abd 2b50 32bd e897 753d c332 38be
00000080: 978a 1c3b b5bb 9f3d dfa9 8b3e 5002 f4bd
00000090: 73f4 623e 69ac 1c3e 3f99 3fbc 29f5 3a3d
000000a0: 8411 cf3c 2387 c53d aa6c 553d 5a78 993d
000000b0: a6ca c5bc 5474 a73e 8dd0 fc3c 2435 263d
000000c0: 62bc 523e ef45 a63d 08e3 9d3c 4560 b53d
000000d0: fe26 903e 736c 04be 9959 71bf f4fb 6abd
000000e0: 1b12 fc3c cd6f 1bbd b127 ac3d 6a54 78bd
000000f0: 7a69 9e3d 24a5 0d3d 9d72 e0bd aeea 2b3e
00000100: 3442 dabc 9655 80be 9edf 8b3d bd8e 9a3c
00000110: 46db 54be 4f65 343d 28ef d8bc 1f7e f03d
00000120: 64b0 30bd 681c 233d 1a6a 8bbd 661f 59bd
00000130: 00a4 c73b 6229 f03c e058 16bd 4493 a4bc
00000140: a414 c33e 5933 27bd 1720 a93c b69e 9abe
00000150: a7de 01be 04e4 a13d 9cc7 293d ab52 113f
00000160: c0ce c73e 4866 23be fc8f 333e 30ee 553d
00000170: cd49 8bbc d77e 6ebd 4235 f23e 1a06 e33d
00000180: 7e50 8dbd 7590 013c 8372 893d 6823 043e
00000190: 3b34 0139 3489 183e 5bcb 223e a852 303e
000001a0: 6225 ffbc 6d91 81bd ea06 503d 79e7 27bb
000001b0: 8f8f 20bd aa85 433d 7775 03be 1086 713d
000001c0: f0b0 84bd 0ecf 9bbc 3730 38bd 59cf 0fbd
000001d0: 3b02 993b 8c6e ff3d 99a7 5d3d 5200 3e3a
000001e0: cf21 93bc 41fc c83d 11a4 4abd aa08 7e3d
000001f0: 341e 0c3e 24b3 113e 79ca 50bd 7e59 203e
00000200: 394c c3be abcd 303d b855 10bd 7b53 aabd
00000210: 6d01 4a3e 0a3b 553c 6fe2 f03d 131a 87bd
00000220: bfc7 56bf 084c 8b3c 1c63 6ebd 1682 003d
00000230: 2bfb 8abe 2475 29be 94ce 06bd de47 f53c
00000240: 3835 dc3e 987b 89bd 9812 0f3f 182a 253c
00000250: 9b4a 0b3e 40b5 2b3d 9709 643e 2c2e 46be
00000260: f9ba fbbc 0524 47bf cb06 b53e dc31 123e
00000270: 3545 633d 6407 aabd 54df 1b3c abab de3c
00000280: d6f6 c33b f2d7 86bc 6713 6bbc 1ede 5bbb
00000290: 20ec 0a3e c32c 06bb e555 dfbc a933 fa3d
000002a0: a51c 3c3e dfe6 e8bd d98e 0fbd 520f 733e
000002b0: f0c2 2bbb 1dd5 e33d 90fd 3c3d 4ab5 dab9
000002c0: 2c20 43be 67b9 61bd 9574 aebd 730e bfbd
000002d0: 42c0 c8bd a42a afbe 91eb 16be 991c b43d
000002e0: 999f 1bbe 6abf aabe 6f1b ec3c 267d eb3c
000002f0: eff6 0b3e 4c40 55bf fe59 d4be 995f ccbd
00000300: 1104 02bf dbff 04bf ebfd d43e 1d8b fa3d
00000310: b6eb 3dbe a9f9 51bd 76c1 e5bd d12e 18bf
00000320: 52cf 6dbd c73a b33d 4dbb 8a3d 2c89 e63c
00000330: 869f 4ebd 2df1 623d 7e5a 24be 213a 183b
00000340: e915 3bbf d826 39bd 7719 48bc 6485 ff3c
00000350: dfcf 213e 70c9 0b3e be71 d2bc 6e71 a8be
00000360: 500d d03d 646c 4e3d 7a74 83be 78a9 0e3b
00000370: 02bc 0ebd 9400 47bd 04ad 5cbd 4849 42bd
00000380: 001c 8ebd c561 bb3b f28e 45bd 9575 babc
00000390: 4d7d 22be 4122 433c 6af3 dcbc 5c4d c83d
000003a0: 023b e73e 87e0 8ebe 5e67 6cbf 9836 84bd
000003b0: 2693 09bf 0406 59be 7375 a33e 3ce9 9f3c
000003c0: 9299 4c3e 303f f03e 50e7 87bd 4270 31bd
000003d0: d222 b93e a9e3 023e 5105 3a3d 5e79 23bf
000003e0: 0305 3b3e cfa9 9abc 94b9 41bd 579b 26be
000003f0: dbc0 0f3e 943d e3bd b814 16bf 522e 083e
