DDPG/models/actor_eps120_veh100_92e-3_8e-2_6e-2_gpu_Y.pth (torch, 505665 bytes, 11 tensors)

ln0.weight f4 [8]
1.1502781 0.8804896 1.1161274 1.0402504 0.30515176 0.56621283 1.1169518 1.0235394
00000000: 503c 933f c467 613f 43dd 8e3f ed26 853f
00000010: da3c 9c3e 53f3 103f 47f8 8e3f 5703 833f

ln0.bias f4 [8]
0.084526874 0.1797869 0.029282346 0.103141025 -0.28367832 -0.27973974 0.002451955 0.18598111
00000000: 6d1c ad3d 0f1a 383e 88e1 ef3c 9a3b d33d
00000010: 493e 91be 0c3a 8fbe fbb0 203b d571 3e3e

fc1.weight f4 [400, 8]
0.09433134 -0.01033098 -0.13686897 0.101087615 0.008297867 -0.012943055 0.08898163 -0.044035494
-0.05584453 -0.111772336 -0.097853065 0.04582909 0.0116630215 0.049880665 -0.123292334 0.008951556
-0.06953936 0.011904639 -4.9040802e-05 0.02223663 0.0003432353 -0.021858543 0.03998809 -0.1650066
-0.012115348 0.016102564 -0.038780864 0.011963602 -0.07448998 -0.046712507 0.16330847 0.10277592
-0.19899496 -0.064834826 0.01180458 0.17311746 0.031097641 0.04214854 -0.04889979 0.010699413
-0.0701685 -0.02025364 0.07016025 0.13947657 -0.025600044 -0.022754207 -0.095261104 0.018676935
-0.04769471 -0.06055954 -0.08980545 0.044174694 0.112337604 0.03280277 -0.022821961 0.08869237
0.104420386 0.11440936 0.10510495 0.048274163 -0.024952626 -0.04814123 -0.06672647 -0.0046676756
-0.13978116 0.014836035 0.06403762 -0.050326966 0.04083501 -0.011514204 -0.081729464 0.10933799
0.00084930274 0.03018969 -0.06140536 -0.087678894 -0.02975467 -0.012362418 0.11157023 0.111074224
-0.13716479 -0.115954794 -0.10564413 0.009761582 0.02760997 0.08020089 0.07248732 0.022975037
-0.15311636 -0.14861216 -0.14133807 0.07201531 -0.053198993 0.10161172 -0.081646174 0.031223685
-0.04203115 -0.011603817 0.03898602 -0.19040069 0.13948946 0.024438696 -0.059724905 0.14773108
0.14918323 0.01992149 -0.1324326 -0.03555691 0.0057499795 -0.029899968 0.0051090177 -0.015319789
0.047500815 -0.0024707096 -0.07754016 0.11299764 0.0187125 0.015176651 -0.06964601 -0.021825986
-0.07917027 -0.01015146 0.069227464 -0.08598594 -0.004442143 0.054665953 -0.103881255 -0.010213604
0.04748803 0.089896806 0.0714039 0.03943352 0.0031311677 -0.03278405 -0.073607735 0.06090069
-0.06968464 -0.13414869 0.050465025 -0.07019537 -0.024703223 0.06742621 -0.2106218 -0.013674454
0.07551636 -0.013250929 -0.09665173 -0.18018156 0.11110892 0.01668497 -0.13504982 -0.015086996
-0.033766296 0.052185524 -0.055101305 -0.0735162 0.0018195544 0.018102096 0.12769473 -0.019710919
0.006829224 0.07886592 0.16978967 0.10604986 -0.03472541 -0.032677807 -0.043735363 -0.016673045
0.035447933 -0.013261723 0.13454232 -0.09136052 0.04241023 0.014326053 -0.112902336 0.074258104
0.044267762 0.000114164686 -0.06922604 -0.019854432 0.018212102 0.032231443 -0.17970572 0.016122524
-0.038904607 0.041824754 -0.10623265 -0.026360871 -0.018731412 -0.0070922575 0.14062028 0.0023152656
0.15291587 0.012989903 -0.119903855 0.058996838 0.016217886 -0.014407173 0.031868417 -0.08658441
0.06327306 -0.13624068 -0.03543004 -0.11801061 0.02243851 0.10365229 -0.089986235 -0.07543522
-0.09803107 0.06703393 0.20576641 -0.06230538 -0.031007247 -0.037384816 0.05068094 -0.012288056
-0.101821475 0.039903358 -0.08200793 -0.02032498 0.06101675 0.056610335 0.112243146 0.0067684497
0.045331046 -0.1437511 -0.075371 -0.12421395 0.06608038 0.03737051 -0.041287623 0.009885391
-0.03471892 -0.077397354 -0.17236727 -0.09001805 0.008517537 0.10571709 -0.06353641 0.036312263
-0.1736341 0.10220272 0.12780237 -0.08343455 0.030004013 0.029477466 0.02383954 -0.05489191
0.035175446 -0.028613485 -0.062333822 -0.012189256 0.06403002 0.027918495 -0.08789512 0.09666719
00000000: ca30 c13d 4543 29bc 6127 0cbe 0607 cf3d
00000010: c7f3 073c 1b0f 54bc 003c b63d 905e 34bd
00000020: 3cbd 64bd e5e8 e4bd 3067 c8bd 49b7 3b3d
00000030: 4216 3f3c ab4f 4c3d b180 fcbd 8ca9 123c
00000040: a76a 8ebd ad0b 433c 29b1 4db8 9829 b63c
00000050: 43f4 b339 b010 b3bc 8dca 233d 7df7 28be
00000060: 747f 46bc 86e9 833c afd8 1ebd fc02 443c
00000070: 348e 98bd 9d55 3fbd 563a 273e 2e7c d23d
00000080: 56c5 4bbe 1fc8 84bd ff67 413c b445 313e
00000090: 7bc0 fe3c f3a3 2c3d 254b 48bd 974c 2f3c
000000a0: 81b4 8fbd f6ea a5bc 2db0 8f3d f2d2 0e3e
000000b0: 2fb7 d1bc 0867 babc 4118 c3bd 5f00 993c
000000c0: 875b 43bd 480d 78bd ebeb b7bd 86f0 343d
000000d0: 4211 e63d 335c 063d 1ff5 babc 58a4 b53d
000000e0: 5bda d53d 744f ea3d 4441 d73d 21bb 453d
000000f0: 7369 ccbc bd2f 45bd e3a7 88bd 4df3 98bb
00000100: cb22 0fbe d712 733c 2826 833d a623 4ebd
00000110: 9d42 273d 12a6 3cbc c761 a7bd 99ec df3d
00000120: bea3 5e3a 5e50 f73c 3084 7bbd fe90 b3bd
00000130: 11c0 f3bc bd8b 4abc ef7e e43d e27a e33d
00000140: ed74 0cbe b579 edbd f35b d8bd 0bef 1f3c
00000150: 4e2e e23c 5d40 a43d 3b74 943d 2536 bc3c
00000160: 89ca 1cbe c92d 18be edba 10be c37c 933d
00000170: 30e7 59bd ce19 d03d 1c36 a7bd d0c8 ff3c
00000180: db28 2cbd f01d 3ebc ceaf 1f3d 66f8 42be
00000190: 53d6 0e3e a933 c83c 1aa2 74bd d146 173e
000001a0: 7dc3 183e 6532 a33c 699c 07be 1fa4 11bd
000001b0: 536a bc3b c7f0 f4bc 8c69 a73b daff 7abc
000001c0: 3790 423d a1eb 21bb 60cd 9ebd 4f6b e73d
000001d0: f54a 993c 7da7 783c 91a2 8ebd 69cc b2bc
000001e0: 0624 a2bd 4f52 26bc 21c7 8d3d 6619 b0bd
000001f0: 658f 91bb 68e9 5f3d b2bf d4bd f656 27bc
00000200: cf82 423d d11b b83d 353c 923d 0b85 213d
00000210: 4734 4d3b 9148 06bd a7bf 96bd 0073 793d
00000220: d2b6 8ebd 465e 09be 6ab4 4e3d 97c2 8fbd
00000230: 6a5e cabc c116 8a3d 3ead 57be d10a 60bc
00000240: 52a8 9a3d 6d1a 59bc 58f1 c5bd 8481 38be
00000250: 138d e33d ebae 883c 804a 0abe 732f 77bc
00000260: 874e 0abd 7dc0 553d e8b1 61bd a98f 96bd
00000270: 1d7e ee3a d94a 943c 68c2 023e cb78 a1bc
00000280: afc7 df3b 7584 a13d 58dd 2d3e ab30 d93d
00000290: 3b3c 0ebd 2ad9 05bd da23 33bd e995 88bc
000002a0: da31 113d b347 59bc 76c5 093e 391b bbbd
000002b0: 59b6 2d3d d2b7 6a3c 5739 e7bd a214 983d
000002c0: 1d52 353d b36b ef38 62c6 8dbd c3a5 a2bc
000002d0: 8c31 953c 1e05 043d c704 38be 6213 843c
000002e0: 705a 1fbd 6f50 2b3d 8190 d9bd c1f2 d7bc
000002f0: 9e72 99bc 2b66 e8bb c3fe 0f3e b6bb 173b
00000300: fa95 1c3e 9ad3 543c 2790 f5bd aba6 713d
00000310: 5fdb 843c 100c 6cbc 7588 023d 2b53 b1bd
00000320: 4e95 813d ad82 0bbe 171f 11bd 8caf f1bd
00000330: f7d0 b73c a747 d43d b44a b8bd c87d 9abd
00000340: 83c4 c8bd 1649 893d 6eb4 523e ed33 7fbd
00000350: e902 febc d220 19bd d196 4f3d d853 49bc
00000360: c787 d0bd b471 233d c6f3 a7bd 9380 a6bc
00000370: b3ec 793d 3de0 673d bcdf e53d dfc9 dd3b
00000380: 0cad 393d 7d33 13be 1c5c 9abd e263 febd
00000390: 2655 873d d211 193d 361d 29bd 56f6 213c
000003a0: 6d35 0ebd 8182 9ebd 0c81 30be 625b b8bd
000003b0: 248d 0b3c 3482 d83d 611f 82bd 2bbc 143d
000003c0: 23cd 31be a94f d13d a0de 023e bcdf aabd
000003d0: faca f53c ba7a f13c 244b c33c 57d6 60bd
000003e0: 2114 103d d466 eabc c051 7fbd 72b5 47bc
000003f0: 2c22 833d 54b5 e43c 5b02 b4bd 73f9 c53d

fc1.bias f4 [400]
0.14651294 -0.21592017 0.037305113 0.23766552 0.003415508 0.12217722 0.007262832 0.27986094
0.015905155 0.20675926 -0.059468426 -0.21700531 -0.085318916 0.19417284 0.012893668 -0.018383203
0.24798825 -0.14934798 -0.16451935 0.12053015 0.2743979 0.11330054 -0.058217034 0.15314588
0.13169834 -0.21112643 0.263169 0.048195455 -0.04622127 -0.2305544 0.067764394 -0.02830394
0.063385695 -0.19161463 0.1123894 -0.17679158 0.21977435 0.05449089 0.14859155 0.1762888
0.26449388 0.07739248 0.25541928 -0.19687982 0.20015551 0.20580746 -0.10932141 -0.11890718
0.25494957 0.23425241 -0.19003591 0.03606474 -0.17402919 0.14647302 -0.19348596 -0.10793832
0.22383921 0.22565582 0.2779627 0.05416066 -0.19837955 0.18549104 0.25664964 0.29848152
0.19751371 -0.002288502 0.15461366 0.06108825 -0.111330286 0.20184667 -0.07249477 0.1653193
0.021738784 0.028609367 0.12766092 -0.00042796208 0.13328984 -0.2144337 -0.24387905 0.06828716
-0.014475432 -0.086623706 -0.1989908 0.049985677 -0.07120768 0.28763485 -0.21498406 -0.0620585
-0.02491003 0.05534018 -0.1970593 0.16428225 -0.24536398 -0.13636796 0.061655033 0.0021427942
0.04783834 -0.24371827 -0.15984066 0.1912211 0.12501085 0.13295725 0.16537282 0.21395132
0.14418955 -0.04810034 -0.101946086 -0.16395539 0.12387605 0.043769144 -0.09524393 0.16413881
0.031947117 0.0058549824 -0.030874796 -0.17823768 0.25008965 -0.22950274 -0.19956118 0.060005467
-0.1172514 0.2152669 0.031338748 -0.07641206 0.022011431 0.014165176 -0.016082065 -0.008316893
-0.12613732 -0.052445795 -0.2533713 -0.08330698 0.038576864 0.20188111 0.022796873 0.24899578
-0.18167435 0.09665704 0.090361625 -0.053565998 0.14296487 -0.123347536 0.02127032 0.122480236
-0.082739346 -0.17108071 0.20790549 -0.18589944 0.30170834 -0.060441487 -0.0016199735 -0.11443166
0.052140128 0.21698731 0.11759534 -0.07385534 -0.035534102 0.3209639 0.057218343 0.03079241
-0.22064759 0.19842622 -0.1567171 0.030774243 0.023473155 -0.14212742 0.21594505 0.078769825
-0.083854996 0.28882143 0.16851802 0.105922274 -0.09435414 -0.14585361 0.05711502 0.12265682
-0.20098093 0.28404045 0.042794712 0.08712756 -0.09837534 -0.038174372 -0.024825117 -0.046418395
0.12262746 0.28472927 0.08161021 0.033432703 0.075111635 -0.10698546 0.14372286 -0.18993314
0.28281504 -0.16316226 -0.12003746 -0.19328323 -0.03241732 0.22487995 0.08195847 -0.10959405
0.25729865 0.0636586 -0.07840245 -0.15662535 0.27671877 -0.16414727 -0.053843528 -0.06477468
-0.19791897 0.2937102 -0.015375286 -0.074067935 0.18778859 -0.09425111 0.15728031 -0.08507499
0.13665941 0.034364507 0.17067191 0.18715367 0.15116681 -0.07786812 -0.2307334 -0.100809194
-0.21226467 0.14696187 0.03846383 0.28056642 0.257286 -0.11642806 -0.013663653 0.2478661
0.23748171 0.050931703 0.027533386 -0.035303235 -0.24165606 -0.03769837 0.10154492 0.16054851
0.1901894 0.08538405 -0.21169548 -0.106291845 -0.032343894 0.12509201 0.22861129 -0.0007644163
-0.019489022 0.06291996 -0.06042035 0.009382794 0.068767525 -0.24734938 0.24564953 -0.14163168
00000000: 7d07 163e 2d1a 5dbe 3fcd 183d 975e 733e
00000010: b7d6 5f3b 0d38 fa3d 0dfd ed3b ef49 8f3e
00000020: 874b 823c b3b8 533e 2a95 73bd a436 5ebe
00000030: afbb aebd 3fd5 463e f73f 533c 5f98 96bc
00000040: a2f0 7d3e adee 18be c377 28be 83d8 f63d
00000050: e27d 8c3e 1d0a e83d fc74 6ebd 46d2 1c3e
00000060: eedb 063e 8731 58be 16be 863e 9968 453d
00000070: 8452 3dbd 7416 6cbe 0fc8 8a3d aadd e7bc
00000080: 5cd0 813d a036 44be 6a2c e63d da08 35be
00000090: 870c 613e d731 5f3d 6228 183e 0d85 343e
000000a0: be6b 873e f37f 9e3d 51c6 823e dd9a 49be
000000b0: 91f5 4c3e 31bf 523e e7e3 dfbd 9c85 f3bd
000000c0: c088 823e dddf 6f3e c698 42be 9fb8 133d
000000d0: b534 32be 06fd 153e 2f21 46be c40e ddbd
000000e0: 1b36 653e 5212 673e 2151 8e3e 91d7 5d3d
000000f0: 0224 4bbe 5df1 3d3e 9567 833e 92d2 983e
00000100: 0941 4a3e b1fa 15bb 0b53 1e3e ac37 7a3d
00000110: 2201 e4bd e5b0 4e3e 2378 94bd 7649 293e
00000120: 8915 b23c 315e ea3c 8bb9 023e 1960 e0b9
00000130: 227d 083e 8294 5bbe 6ebb 79be 23da 8b3d
00000140: 5d2a 6dbc c567 b1bd 3fc4 4bbe c8bd 4c3d
00000150: 55d5 91bd e044 933e c824 5cbe 0e31 7ebd
00000160: 1f10 ccbc 62ac 623d eac9 49be 9b39 283e
00000170: b240 7bbe 0ba4 0bbe fd89 7c3d 1f6e 0c3b
00000180: 23f2 433d 4891 79be 45ad 23be 77cf 433e
00000190: d802 003e f225 083e 7e57 293e 0e16 5b3e
000001a0: 6da6 133e dd04 45bd 1cc9 d0bd ece3 27be
000001b0: bab2 fd3d 4647 333d 400f c3bd 0114 283e
000001c0: fbda 023d 27db bf3b 24ed fcbc f083 36be
000001d0: c00b 803e c402 6bbe c459 4cbe 4bc8 753d
000001e0: 8121 f0bd ed6e 5c3e 0f5d 003d ed7d 9cbd
000001f0: 5151 b43c 0e15 683c 89be 83bc 9443 08bc
00000200: 242a 01be 67d1 56bd e2b9 81be da9c aabd
00000210: c602 1e3d ecb9 4e3e 82c0 ba3c c0f8 7e3e
00000220: d708 3abe 20f4 c53d 840f b93d 0568 5bbd
00000230: 6265 123e a29d fcbd 183f ae3c ebd6 fa3d
00000240: 3f73 a9bd c82f 2fbe 2de5 543e 6c5c 3ebe
00000250: 8479 9a3e 7e91 77bd 4a55 d4ba 255b eabd
00000260: e390 553d ec31 5e3e d3d5 f03d 7841 97bd
00000270: 358c 11bd 6155 a43e c85d 6a3d 5d40 fc3c
00000280: 71f1 61be 3e30 4b3e 737a 20be 441a fc3c
00000290: c64a c03c da89 11be b320 5d3e 1352 a13d
000002a0: 2bbc abbd 67e0 933e fd8f 2c3e c7ed d83d
000002b0: be3c c1bd a65a 15be 70f1 693d 8033 fb3d
000002c0: f2cd 4dbe c06d 913e 8249 2f3d ef6f b23d
000002d0: 0379 c9bd bb5c 1cbd 0b5e cbbc 3721 3ebd
000002e0: 1b24 fb3d 09c8 913e 4123 a73d bbf0 083d
000002f0: 21d4 993d 311b dbbd 162c 133e d57d 42be
00000300: 22cd 903e 0214 27be 33d6 f5bd 0aec 45be
00000310: 06c8 04bd ee46 663e d8d9 a73d d872 e0bd
00000320: a6bc 833e 715f 823d 7791 a0bd 6562 20be
00000330: 15ae 8d3e 3916 28be 088b 5cbd 96a8 84bd
00000340: 45ab 4abe 2f61 963e a0e8 7bbc eeb0 97bd
00000350: a74b 403e ba06 c1bd 170e 213e cc3b aebd
00000360: 72f0 0b3e ccc1 0c3d 9ec4 2e3e 36a5 3f3e
00000370: 79cb 1a3e 5279 9fbd 6045 6cbe 0d75 cebd
00000380: e95b 59be 2c7d 163e 408c 1d3d 67a6 8f3e
00000390: feba 833e d671 eebd 84dd 5fbc 9cd0 7d3e
000003a0: 682e 733e c39d 503d b28d e13c 209a 10bd
000003b0: b074 77be 9b69 1abd c8f6 cf3d d466 243e
000003c0: 03c1 423e d5dd ae3d b3c6 58be 8aaf d9bd
000003d0: 087b 04bd 1f18 003e 1419 6a3e 1c63 48ba
000003e0: 71a7 9fbc 2edc 803d 547b 77bd 4aba 193c
000003f0: fdd5 8c3d 2849 7dbe 8d8b 7b3e e507 11be

ln1.weight f4 [400]
0.94636697 1.1311656 1.1677314 0.80663854 1.6212554 0.86359197 0.6796597 0.72634494
0.8559951 0.6863446 1.0493934 1.046859 1.2887487 0.5517965 0.87603873 0.7989715
0.58392864 1.0746189 1.0706912 0.92093027 0.7207195 1.0809339 0.64966035 1.0939914
0.9060089 1.0914576 0.8064725 1.1147728 0.7112782 1.0121082 1.5427864 0.92419237
0.9883593 1.305575 0.9392295 0.96977925 0.67781085 1.2162282 0.60059845 1.007408
0.40512142 0.9097389 0.3530222 0.9667115 0.95935684 0.83097005 0.96797496 1.0022032
0.64200854 0.71158135 0.8764122 0.5755302 0.6650474 0.8103352 0.87675416 1.126152
0.69190395 0.65393907 0.99914676 1.138789 0.8122652 0.771246 0.7772324 0.31853878
0.8611359 1.090569 0.61312157 1.4575632 0.76915425 0.9907704 1.1956801 0.7373452
1.0717579 1.0672672 1.3009086 0.82614297 1.0852119 0.9421777 1.0394644 1.0823715
1.0354787 1.0859177 0.6972996 1.009474 0.85998124 0.40428805 1.0603362 1.1827577
1.4127995 1.4074732 1.0194147 0.48963776 1.1476381 0.94283503 0.8978702 0.7590982
1.1584923 1.0930005 1.1034902 0.8533176 0.90622497 0.8991506 0.89667004 0.7923595
0.8331455 0.99701726 0.9960971 1.0087036 1.1112002 1.0937957 1.0413351 1.1190166
1.1595919 0.9666596 1.1971298 1.0620824 0.36573583 0.9783402 0.81925493 0.8240832
1.0512459 0.8471134 2.4734898 0.61527914 1.2740412 0.46359402 0.961367 0.9332129
0.8234298 1.0260589 1.0342491 0.41658312 1.099352 0.48450428 1.2457466 0.2637721
0.9690385 0.7283965 1.2119093 1.4221126 1.0549446 1.0604364 1.4949375 1.2189918
0.7570484 1.0912802 0.44635385 0.99340564 0.94475794 0.9576318 1.4912432 1.0074192
1.1795567 0.7059699 0.949778 1.1566532 1.0814354 0.10896533 1.0449852 1.1312083
1.1481233 0.8974095 1.0378555 1.2304878 1.019462 1.2333368 0.5106374 1.5413278
0.8101668 0.44941175 0.8766977 0.89667267 2.1132689 0.7568037 1.2430118 1.2189167
0.6949875 0.7548455 1.0729364 1.3769313 1.1169844 0.9532491 1.2667077 0.6492225
0.91316944 0.5754079 0.9926358 1.22065 1.5418531 1.1614369 0.8340667 1.1254879
0.22094631 1.176887 0.7103822 1.2501345 1.2648059 0.69371814 1.0565504 0.7568401
0.78974986 0.94267833 1.0008454 0.89561397 0.7198764 0.9475942 1.000183 0.83278555
1.0561972 0.42497894 0.9059863 0.7810328 0.66317445 1.1921929 0.93836015 1.0677755
0.6949592 1.0410945 0.9521167 1.0549363 0.9626888 0.7690194 1.0439253 1.0011535
1.2068707 0.93877596 1.5665926 0.29409876 0.7816092 0.86747485 1.2323754 0.7446609
0.6904178 1.3584121 0.89956367 0.9749766 0.86526686 0.8689225 0.97489506 0.46339568
0.7553231 1.049802 1.1283098 1.3551672 0.9111598 0.84345967 0.625872 0.9411182
1.4144015 1.2087836 1.1357552 1.8651453 1.3264049 1.1366345 0.79144406 0.967004
00000000: 1b45 723f 09ca 903f 3978 953f dd7f 4e3f
00000010: 4c85 cf3f 5d14 5d3f 2efe 2d3f bef1 393f
00000020: 7f22 5b3f 48b4 2f3f 8652 863f 7aff 853f
00000030: b8f5 a43f 8942 0d3f 1344 603f 6589 4c3f
00000040: 597c 153f 1d8d 893f 690c 893f 16c2 6b3f
00000050: 1381 383f 0b5c 8a3f 2450 263f e907 8c3f
00000060: 33f0 673f e2b4 8b3f fb74 4e3f e0b0 8e3f
00000070: 5416 363f c38c 813f 067a c53f df97 6c3f
00000080: 1d05 7d3f 151d a73f 5871 703f 7443 783f
00000090: 0385 2d3f 5ead 9b3f d2c0 193f bff2 803f
000000a0: 136c cf3e a6e4 683f 53bf b43e 687a 773f
000000b0: 6998 753f 74ba 543f 35cd 773f 3248 803f
000000c0: ac5a 243f 322a 363f 8d5c 603f f255 133f
000000d0: 8c40 2a3f 2172 4f3f f672 603f c025 903f
000000e0: 9e20 313f 8d68 273f 15c8 7f3f d7c3 913f
000000f0: 9df0 4f3f 6170 453f b4f8 463f 8417 a33e
00000100: 6773 5c3f c497 8b3f 89f5 1c3f 6e91 ba3f
00000110: 4be7 443f 21a3 7d3f 0c0c 993f a8c2 3c3f
00000120: 5d2f 893f 369c 883f 2c84 a63f 1b7e 533f
00000130: 39e8 8a3f 8f32 713f 2b0d 853f 268b 8a3f
00000140: 918a 843f 5aff 8a3f 3a82 323f 7236 813f
00000150: bb27 5c3f d8fe ce3e 19b9 873f 9b64 973f
00000160: 9dd6 b43f 1528 b43f 2e7c 823f cdb1 fa3e
00000170: cee5 923f a35d 713f d2da 653f 4254 423f
00000180: 7a49 943f 71e7 8b3f 2b3f 8d3f 0673 5a3f
00000190: 5cfe 673f bc2e 663f 2b8c 653f 12d8 4a3f
000001a0: 0649 553f 863c 7f3f 3800 7f3f 331d 813f
000001b0: cf3b 8e3f 7f01 8c3f 784a 853f f03b 8f3f
000001c0: 826d 943f 0177 773f 8d3b 993f 51f2 873f
000001d0: ba41 bb3e 8174 7a3f b1ba 513f 1ef7 523f
000001e0: 3a8f 863f 6cdc 583f a84d 1e40 ef82 1d3f
000001f0: c813 a33f 325c ed3e 261c 763f 0ae7 6e3f
00000200: 4ccc 523f e655 833f 4662 843f 624a d53e
00000210: 91b7 8c3f f210 f83e a074 9f3f 230d 873e
00000220: e812 783f 3178 3a3f d81f 9b3f c907 b63f
00000230: 6d08 873f 61bc 873f 1d5a bf3f ec07 9c3f
00000240: edcd 413f 12af 8b3f 7e88 e43e d54f 7e3f
00000250: a8db 713f 5c27 753f 0fe1 be3f 1df3 803f
00000260: b7fb 963f 72ba 343f a724 733f 360d 943f
00000270: 7a6c 8a3f 3729 df3d 13c2 853f 6fcb 903f
00000280: b4f5 923f a1bc 653f 73d8 843f a080 9d3f
00000290: bb7d 823f fbdd 9d3f 22b9 023f 3b4a c53f
000002a0: 1767 4f3f 4c19 e63e 436f 603f 578c 653f
000002b0: cc3f 0740 e3bd 413f 031b 9f3f 7605 9c3f
000002c0: b3ea 313f 8e3d 413f fb55 893f 493f b03f
000002d0: 58f9 8e3f 2208 743f 7a23 a23f 7233 263f
000002e0: 79c5 693f ef4d 133f 611d 7e3f 423e 9c3f
000002f0: 715b c53f f7a9 943f 6585 553f fd0f 903f
00000300: c03f 623e 3ca4 963f 9cdb 353f 6804 a03f
00000310: 29e5 a13f 8397 313f 0b3d 873f 46c0 413f
00000320: 0c2d 4a3f 5e53 713f b41b 803f f546 653f
00000330: d249 383f 8995 723f ff05 803f 6f31 553f
00000340: 7831 873f d796 d93e b8ee 673f c4f1 473f
00000350: cdc5 293f c799 983f 5f38 703f deac 883f
00000360: d9e8 313f 9642 853f ecbd 733f 2708 873f
00000370: c672 763f 75de 443f 589f 853f cc25 803f
00000380: bd7a 9a3f 9f53 703f 1b86 c83f 1d94 963e
00000390: 8a17 483f d512 5e3f 7abe 9d3f 19a2 3e3f
000003a0: 39bf 303f 73e0 ad3f ce49 663f 1198 793f
000003b0: 2182 5d3f b471 5e3f b992 793f 3342 ed3e
000003c0: db5c 413f e95f 863f 756c 903f 1e76 ad3f
000003d0: c541 693f f9ec 573f 2639 203f 1fed 703f
000003e0: 1c0b b53f 6cb9 9a3f 6d60 913f 15bd ee3f
000003f0: a3c7 a93f 3d7d 913f 149c 4a3f 938d 773f

ln1.bias f4 [400]
-0.15101077 -0.22904658 -0.09803714 -0.19777955 0.0055428254 -0.2163056 -0.222039 -0.24461421
-0.30960953 -0.30368197 0.038192857 -0.08505582 -0.16610883 -0.46668026 -0.27709362 -0.15934715
-0.3104747 -0.009104449 -0.2862836 -0.1357417 -0.25928387 -0.03571007 -0.34373483 -0.0102805775
-0.15112016 -0.16916738 -0.23762523 0.0031339477 -0.26063243 -0.22551838 -0.14543915 -0.1925878
-0.10113984 -0.08581388 -0.20159422 -0.12901033 -0.38672623 -0.009310853 -0.3465871 -0.07849241
-0.5148879 -0.15418047 -0.57422876 -0.12035158 -0.15683487 -0.1714312 0.00364566 -0.01355705
-0.39966437 -0.46715462 -0.20286277 -0.36754552 -0.27461556 -0.2639592 -0.22474308 0.068841405
-0.3986662 -0.3187953 -0.07499744 -0.14955649 -0.3398186 -0.23899528 -0.16930732 -0.6095162
-0.15430899 -0.031594716 -0.4427502 -0.10162341 -0.2676103 -0.07713114 -0.13838768 -0.28391653
-0.040406253 -0.13473934 -0.081528485 -0.30027735 -0.039347157 -0.16543014 -0.18576556 -0.19310488
-0.24461636 -0.09177141 -0.3932594 -0.011064544 -0.13615048 -0.57219946 -0.07559248 -0.0075417478
-0.08536519 -0.09562219 -0.014316049 -0.49620754 -0.12581563 -0.02437871 -0.24315952 -0.20957027
-0.103077546 -0.0333656 0.040674113 -0.15148655 -0.21142562 -0.07830365 -0.12016587 -0.20987087
-0.22075826 -0.11493105 0.00570192 -0.1580055 -0.01706003 -0.021187138 0.031366374 -0.17337783
-0.043164134 -0.08307385 0.026014289 0.032716475 -0.5504912 -0.23411626 -0.28002512 -0.21885712
-0.004016773 -0.18803234 0.09261627 -0.34011462 -0.0028118812 -0.5348734 -0.093035944 -0.060240876
-0.1356634 -0.18471335 -0.18541248 -0.5806333 -0.04606205 -0.43954873 0.038405795 -0.6958343
0.004188772 -0.2529476 0.041713055 -0.043098748 -0.08887029 -0.20923968 -0.12137041 -0.14419366
-0.3457224 -0.008055729 -0.50350237 -0.031883035 -0.11168603 -0.010257309 0.0025658333 -0.11160929
0.0026116876 -0.4330936 -0.14834757 0.028765958 0.06702867 -0.81603384 -0.24098463 -0.26400104
-0.060933534 -0.10317573 0.033652693 0.00812882 -0.060169034 -0.08666664 -0.56220424 -0.108656146
-0.10062736 -0.55278915 -0.19335474 -0.12184393 0.05625112 -0.2084747 -0.0077777915 -0.15963948
-0.3214858 -0.21237043 -0.1351851 -0.103060335 0.17946066 -0.28561574 -0.02776135 -0.32860777
-0.11511828 -0.37091714 -0.06897854 0.024840787 -0.09501654 0.0051282626 -0.22582115 -0.19270459
-0.65321296 -0.037787847 -0.21480355 -0.22043265 0.06734257 -0.30088833 -0.047332525 -0.2799619
-0.16196236 -0.077633545 0.116785206 -0.10431963 -0.23723665 -0.175354 0.039864127 -0.22216828
0.030428596 -0.4844501 -0.19893591 -0.18629113 -0.31053942 -0.16822894 -0.22109875 0.04835636
-0.35347313 -0.037223108 -0.1259625 -0.12582733 -0.106491484 -0.18252903 -0.06553475 0.10532792
-0.04949896 -0.20998654 0.029763583 -0.67046833 -0.29364336 -0.023705903 -0.13336454 -0.25438243
-0.3256768 0.015269647 -0.22218879 -0.37256712 -0.26758158 -0.23255642 -0.059882242 -0.55932254
-0.2139428 -0.016609117 -0.13662162 0.19282475 -0.20538564 -0.3606961 -0.4119366 -0.20805773
-0.0102292225 -0.05542863 -0.0062200087 -0.061241254 -0.054857723 0.015493934 -0.20832865 -0.23234794
00000000: 91a2 1abe 308b 6abe b2c7 c8bd b986 4abe
00000010: 97a0 b53b 377f 5dbe 315e 63be 267c 7abe
00000020: 2485 9ebe 347c 9bbe 1d70 1c3d bf31 aebd
00000030: 6f18 2abe b7f0 eebe 37df 8dbe e62b 23be
00000040: 8af6 9ebe d42a 15bc c493 92be dfff 0abe
00000050: dbc0 84be b944 12bd 03fe afbe de6f 28bc
00000060: 3ebf 1abe 373a 2dbe 0754 73be eb62 4d3b
00000070: 9d71 85be 4aee 66be 00ee 14be bc35 45be
00000080: 6822 cfbd 30bf afbd b76e 4ebe 491b 04be
00000090: fb00 c6be 8c8c 18bc dd73 b1be a1c0 a0bd
000000a0: b2cf 03bf 7ce1 1dbe a800 13bf e47a f6bd
000000b0: 5299 20be a98b 2fbe 06ec 6e3b 641e 5ebc
000000c0: cfa0 ccbe e42e efbe 42bb 4fbe ed2e bcbe
000000d0: 699a 8cbe a925 87be 0d23 66be b9fc 8c3d
000000e0: fa1d ccbe 2339 a3be 4298 99bd 5625 19be
000000f0: b4fc adbe 2ebb 74be e65e 2dbe 4109 1cbf
00000100: 2d03 1ebe 7669 01bd 27b0 e2be ef1f d0bd
00000110: 3804 89be eef6 9dbd 80b5 0dbe 825d 91be
00000120: 0781 25bd 1cf9 09be 68f8 a6bd f4bd 99be
00000130: 7c2a 21bd 8566 29be 5439 3ebe 49bd 45be
00000140: b67c 7abe a6f2 bbbd 4c59 c9be 1048 35bc
00000150: 086b 0bbe aa7b 12bf 3bd0 9abd c420 f7bb
00000160: f2d3 aebd 91d5 c3bd dd8d 6abc ea0e febe
00000170: d0d5 00be dcb5 c7bc cffe 78be 9799 56be
00000180: 521a d3bd 5eaa 08bd e699 263d 4a1f 1bbe
00000190: f57f 58be aa5d a0bd 8619 f6bd 64e8 56be
000001a0: 740e 62be f860 ebbd 2cd7 ba3b 32cc 21be
000001b0: 7ac1 8bbc a690 adbc 077a 003d f589 31be
000001c0: e0cc 30bd 9f22 aabd eb1b d53c b601 063d
000001d0: feec 0cbf 2cbc 6fbe 745f 8fbe 151c 60be
000001e0: 229f 83bb 8d8b 40be 99ad bd3d 8123 aebe
000001f0: 8a47 38bb 77ed 08bf a189 bebd 23bf 76bd
00000200: 59eb 0abe 7f25 3dbe c5dc 3dbe 62a4 14bf
00000210: 8fab 3cbd 880c e1be 654f 1d3d 3222 32bf
00000220: f741 893b 5982 81be 4fdb 2a3d 5088 30bd
00000230: a001 b6bd ed42 56be 0d91 f8bd 81a7 13be
00000240: 8702 b1be 2dfc 03bc 88e5 00bf c997 02bd
00000250: a5bb e4bd 460e 28bc 8a27 283b 6993 e4bd
00000260: d928 2b3b 72be ddbe 6de8 17be 96a6 eb3c
00000270: 5446 893d 98e7 50bf adc4 76be 252b 87be
00000280: 7195 79bd cc4d d3bd 68d7 093d be2e 053c
00000290: ce73 76bd 487e b1bd 9eec 0fbf 1d87 debd
000002a0: b815 cebd 9783 0dbf c9fe 45be 4f89 f9bd
000002b0: 9367 663d 647a 55be d8dc febb 8878 23be
000002c0: c999 a4be a277 59be f66d 0abe 4c11 d3bd
000002d0: 89c4 373e 3a3c 92be c56b e3bc 473f a8be
000002e0: 22c3 ebbd dae8 bdbe 9f44 8dbd e87e cb3c
000002f0: 0898 c2bd fc0a a83b a93d 67be 5a54 45be
00000300: f738 27bf 6ec7 1abd 76f5 5bbe 19b9 61be
00000310: e7ea 893d 090e 9abe c0df 41bd 2b57 8fbe
00000320: 76d9 25be 56fe 9ebd 152d ef3d 88a5 d5bd
00000330: 2aee 72be 0090 33be 9148 233d 1580 63be
00000340: 6445 f93c d809 f8be dbb5 4bbe 1ac3 3ebe
00000350: 06ff 9ebe 3544 2cbe b667 62be 5211 463d
00000360: 6efa b4be 4277 18bd 50fc 00be e1d8 00be
00000370: 3518 dabd e4e8 3abe 1537 86bd 2ab6 d73d
00000380: 6cbf 4abd b606 57be c2d2 f33c d0a3 2bbf
00000390: 6c58 96be e232 c2bc b790 08be 6a3e 82be
000003a0: 1cbf a6be 8b2d 7a3c 7585 63be 1ec1 bebe
000003b0: 7400 89be 4523 6ebe 1547 75bd c32f 0fbf
000003c0: d213 5bbe d80f 88bc 8ae6 0bbe da73 453e
000003d0: 9d50 52be 29ad b8be 5be9 d2be 160d 55be
000003e0: 7898 27bc 2209 63bd 37d1 cbbb 1cd8 7abd
000003f0: 7eb2 60bd 45da 7d3c 1b54 55be 9eec 6dbe

fc2.weight f4 [300, 400]
0.1592586 0.041216034 0.027503202 0.0929633 -0.019838998 0.0011711047 0.09066533 0.095362894
0.08521689 0.092509925 0.10380604 0.1070657 0.086327694 0.089680836 0.11605731 0.13945132
0.046978958 -0.018337958 0.041733082 0.15806472 0.04005306 -0.09930808 -0.048664726 0.19357522
0.106395215 0.18156537 0.040368002 0.14827017 0.026760764 0.03544118 0.12459444 -0.121626996
0.042027712 0.0830219 0.16805835 0.0013183536 0.1047315 -0.028364208 0.06864428 0.16222294
0.06612227 0.11952131 0.06982527 -0.00584304 0.112314135 -0.015581634 0.12495913 0.1546268
0.10173001 0.06305748 0.08873234 0.050781883 0.04953769 0.070556 0.0881413 0.022806402
-0.013198496 0.09173735 0.03995046 -0.024533473 -0.05056567 0.038604263 0.10892647 0.02224342
-0.0012164029 0.21673957 -0.027477253 -0.23645593 0.14093134 0.13956839 0.3202181 -0.016265156
0.11274244 0.06503002 0.14566445 -0.03283733 0.16407338 0.16555119 0.023889076 0.09587601
-0.099316575 -0.0665137 0.08088775 0.12885103 0.0706015 0.08540934 0.09114892 -0.2621407
-0.08237255 0.16588739 0.13189253 0.033364423 -0.02562418 0.109451205 0.035023652 0.16143864
0.014542218 0.07748952 -0.06891313 0.006105095 0.1715172 0.13838771 0.054351002 0.0887067
0.037044566 0.15046266 0.1489464 0.08456614 -0.04581225 -0.0012952083 0.12289361 0.1886732
0.24968755 0.1043516 0.15210414 0.13927585 0.030788166 0.008203543 -0.03206234 0.09287769
0.10044466 -0.0100371735 -0.33022377 0.06089119 -0.14429238 0.059231967 0.02574759 -0.016885076
0.07709636 0.1779633 0.16303883 0.19473574 -0.082903676 0.112451546 -0.08463717 0.028196676
0.0034308804 0.11488391 0.24588948 -0.069065124 0.16522475 0.1473908 0.022588085 0.05406064
0.14032698 0.11836425 0.029594403 0.08106974 0.10541465 0.008517383 -0.1547653 0.1408564
0.13779981 -0.019511469 0.08975211 0.18746431 0.09667106 0.013339654 0.008414307 0.104536235
-0.019402493 0.08039204 0.026561687 0.1961726 -0.007828503 0.19140844 0.08317535 0.113836795
0.0886279 0.10712167 0.075148255 0.060939886 0.6305848 0.13757105 0.16399835 0.031563796
0.1283316 0.09359885 0.057939593 0.2776951 -0.07347899 0.042040095 0.071197666 -0.0016429931
0.075006954 0.02627289 0.068008035 0.041156873 -0.16508316 0.1591594 0.039737094 -0.09171778
0.03761933 0.15681654 0.07648455 0.14304061 -0.07993192 0.01893733 0.18363066 0.04961304
0.07143217 0.14847767 -0.006126928 -0.046289902 0.057798784 0.1198385 0.16166689 0.12828566
0.092271425 0.11966527 0.02768564 0.10843916 0.055266745 0.29260936 -0.18070109 0.18310452
-0.00074395875 0.17960535 -0.043187656 0.053301115 0.106686026 0.069358885 -0.017026894 -0.06169766
0.11480568 0.10520255 -0.23237818 -0.0001667151 0.0750012 0.09917087 0.16238753 0.13844967
0.104611225 0.26004544 0.20611233 0.26510978 0.064065695 0.1430192 0.16503277 0.15890379
0.11333393 0.18281926 0.12370855 -0.14322457 0.09005103 0.13289581 0.024111444 0.091617614
0.10828447 0.13707247 0.06360925 0.2163779 0.020334918 0.081043616 0.05852181 0.12753195
00000000: b014 233e 25d2 283d 654e e13c 8b63 be3d
00000010: 6585 a2bc c17f 993a bfae b93d 9f4d c33d
00000020: 3186 ae3d d875 bd3d 4398 d43d 4345 db3d
00000030: 93cc b03d 96aa b73d 74af ed3d 54cc 0e3e
00000040: 026d 403d 7c39 96bc 4ff0 2a3d b8db 213e
00000050: ad0e 243d 0962 cbbd aa54 47bd 9538 463e
00000060: bce5 d93d 46ec 393e eb58 253d 23d4 173e
00000070: 6439 db3c c52a 113d 5f2b ff3d 9317 f9bd
00000080: 4025 2c3d 6307 aa3d 7d17 2c3e 9bcc ac3a
00000090: 787d d63d 0e5c e8bc 5f95 8c3d c51d 263e
000000a0: 1d6b 873d 97c7 f43d 8d00 8f3d f976 bfbb
000000b0: f404 e63d 1c4a 7fbc 93ea ff3d 7d56 1e3e
000000c0: d357 d03d 4824 813d 4db9 b53d aa00 503d
000000d0: 08e8 4a3d aa7f 903d 6d83 b43d 7ed4 ba3c
000000e0: 813e 58bc cbe0 bb3d 18a3 233d 6cfa c8bc
000000f0: f31d 4fbd 811f 1e3d d714 df3d d537 b63c
00000100: b56f 9fba faf0 5d3e fa17 e1bc 8121 72be
00000110: 4e50 103e 04eb 0e3e a0f3 a33e 813e 85bc
00000120: 82e5 e63d 762e 853d 1029 153e 7080 06bd
00000130: da02 283e 4086 293e 06b3 c33c a45a c43d
00000140: 7d66 cbbd 5638 88bd 7aa8 a53d 86f1 033e
00000150: 8597 903d 18eb ae3d 49ac ba3d 4e37 86be
00000160: f1b2 a8bd 62de 293e d60e 073e 22a9 083d
00000170: cde9 d1bc f427 e03d f674 0f3d 2c50 253e
00000180: 7c42 6e3c d3b2 9e3d 5422 8dbd 400d c83b
00000190: 34a2 2f3e 82b5 0d3e 289f 5e3d dcab b53d
000001a0: 0bbc 173d e212 1a3e 6885 183e 0331 ad3d
000001b0: a0a5 3bbd fbc3 a9ba a5af fb3d 8c33 413e
000001c0: 18ae 7f3e 4bb6 d53d 30c1 1b3e 549e 0e3e
000001d0: 7737 fc3c 2768 063c cd53 03bd a936 be3d
000001e0: eeb5 cd3d f572 24bc 1713 a9be 0a69 793d
000001f0: 62c1 13be 389d 723d 9cec d23c 9252 8abc
00000200: b2e4 9d3d 033c 363e a7f3 263e ce68 473e
00000210: 67c9 a9bd ff4c e63d 4156 adbd b7fc e63c
00000220: 9fd8 603b 4148 eb3d 74ca 7b3e 0472 8dbd
00000230: ad30 293e 9ded 163e a60a b93c b16e 5d3d
00000240: e0b1 0f3e f568 f23d f66f f23c e407 a63d
00000250: a3e3 d73d 7e8c 0b3c cb7a 1ebe a93c 103e
00000260: 651b 0d3e 84d6 9fbc f4cf b73d a5f6 3f3e
00000270: 7afb c53d 908e 5a3c 29dc 093c 1817 d63d
00000280: faf1 9ebc 95a4 a43d e597 d93c 78e1 483e
00000290: 1f43 00bc 9300 443e d757 aa3d 4423 e93d
000002a0: 8b82 b53d 9b62 db3d 54e7 993d 1a9c 793d
000002b0: 016e 213f 6ddf 0c3e 2fef 273e 0a49 013d
000002c0: 5c69 033e c1b0 bf3d 1152 6d3d 0d2e 8e3e
000002d0: 277c 96bd 3c32 2c3d 15d0 913d b359 d7ba
000002e0: 3f9d 993d 3e3a d73c cc47 8b3d 1c94 283d
000002f0: 8f0b 29be affa 223e 5dc3 223d 88d6 bbbd
00000300: ba16 1a3d 8494 203e efa3 9c3d 3d79 123e
00000310: 59b3 a3bd 7622 9b3c ad09 3c3e 0b37 4b3d
00000320: 084b 923d 880a 183e 66c4 c8bb 7b9a 3dbd
00000330: 6bbe 6c3d e36d f53d 018c 253e 515d 033e
00000340: cdf8 bc3d 1113 f53d ffcc e23c 5a15 de3d
00000350: 625f 623d e5d0 953e b509 39be c07f 3b3e
00000360: 3a06 43ba 77ea 373e 8ae5 30bd 4552 5a3d
00000370: 347e da3d 080c 8e3d fc7b 8bbc afb6 7cbd
00000380: 3e1f eb3d 6f74 d73d 8cf4 6dbe 3ed0 2eb9
00000390: 3b9a 993d 191a cb3d eb48 263e c0c5 0d3e
000003a0: 693e d63d ad24 853e 1c0f 533e 78bc 873e
000003b0: e034 833d a073 123e 5afe 283e adb7 223e
000003c0: 9f1b e83d f934 3b3e e95a fd3d 76a9 12be
000003d0: ad6c b83d d715 083e 5d85 c53c 04a2 bb3d
000003e0: 40c4 dd3d ba5c 0c3e 9145 823d 2b92 5d3e
000003f0: 6a95 a63c 32fa a53d 91b4 6f3d bc97 023e

fc2.bias f4 [300]
-0.010316414 0.12894674 -0.029307429 0.13739392 0.081010014 0.116433166 0.044241253 0.13648902
0.15525386 -0.013386694 0.04316023 0.0051926724 0.079680674 0.025388049 0.115155 0.06858145
0.054840032 0.12997743 0.07206033 0.08228991 0.06944546 0.10926229 0.03709661 0.10835376
0.08669239 0.06348315 0.029359581 0.060756616 0.11500793 0.04752488 0.06723038 0.061306685
0.068242155 0.13262156 0.0788209 0.021282643 0.14672731 0.007770195 0.02542147 0.08245866
0.12679622 0.07740982 0.14362198 0.052500963 0.11552456 0.060480565 0.09562726 0.06365418
-0.0038552925 0.14168574 0.04149326 0.12424041 0.089660265 0.048432544 0.050072186 0.013659625
0.04894914 0.11433915 0.10628415 0.09972191 0.092432775 0.037208825 0.0939956 0.07496563
-0.0062050777 0.033957604 0.06000671 0.060432445 0.007878104 0.12275403 -0.025366366 0.014627693
0.11917923 0.081873074 0.00927866 -0.00085903594 0.112697035 -0.0015863898 0.02272343 0.047909852
0.06581102 0.013998303 0.095937684 0.033907074 0.10056609 0.11255018 0.009058473 0.062262975
0.06728984 0.051162105 0.090048395 0.052997913 0.03425852 0.06682036 0.06949794 0.13897629
0.06379731 0.13817203 0.06634437 0.07730783 0.07373197 0.084288195 0.07895596 0.06558283
0.091400795 0.10326192 0.05431827 0.017673867 0.088811666 0.05861978 0.13044041 0.025101956
0.06643208 0.090358496 0.09269617 0.14670493 0.021699581 0.10071727 -0.0062201163 0.124102555
0.015475874 0.006874138 0.05688693 0.06579461 0.06656148 0.03925624 0.13990384 0.023627691
0.063181505 0.06223167 0.07203147 0.034849167 0.0917556 0.14392558 0.019413019 0.1061324
0.14586931 0.12177922 0.026301714 0.074057736 0.10744938 0.06300695 0.10162878 0.028396156
0.1095451 0.108986974 0.116562165 0.018747507 0.10871621 0.11887871 0.043434676 0.13488835
0.061018478 0.019895773 0.030586313 0.10120366 0.09167244 0.032862823 0.03059929 0.065324344
0.08058459 0.10011509 0.06250878 0.06863465 0.027325178 0.07975332 0.060769077 0.06291197
0.054871038 0.04395992 0.10910772 0.14174107 0.048973173 0.03678846 -0.0013214101 0.12785381
0.074274786 0.029449627 0.055644266 0.13844156 0.06883735 0.051501 0.07137028 0.119808994
0.07366152 0.08088878 0.0556916 0.12441831 0.06503492 0.057645075 -0.006058697 0.10832344
0.023108259 0.06288021 0.13375887 -0.010416134 0.037572365 0.08551904 0.08358896 0.09411765
-0.00017376916 0.11147137 0.12557787 0.09917729 0.08689879 0.070972964 0.09434842 0.0632207
0.034292795 0.008684251 0.070102684 0.04050074 0.06063663 0.00506203 0.06047215 0.13080072
0.11512705 0.07324284 0.104405664 0.14616479 0.08613106 0.065767825 0.011619249 0.11265195
0.10627546 0.042998843 0.06463677 0.0429264 0.057075944 0.12409233 0.07289921 0.011139569
0.1109497 0.05610169 0.0019149423 0.095151 0.10124516 0.07093881 0.079321794 0.04362404
0.047929015 0.06729607 0.053355806 0.028018791 0.01754099 0.06572183 0.12669832 0.081132144
0.1211406 0.09495736 0.012923164 -0.0077993255 0.12864308 0.04540311 0.0043197246 0.12932453
00000000: 2d06 29bc 9d0a 043e 2216 f0bc feb0 0c3e
00000010: 94e8 a53d 8374 ee3d 5136 353d c7c3 0b3e
00000020: defa 1e3e dd53 5bbc c8c8 303d 4b27 aa3b
00000030: 9f2f a33d 99fa cf3c 62d6 eb3d 6e74 8c3d
00000040: f19f 603d ce18 053e 5e94 933d 9d87 a83d
00000050: 6c39 8e3d e8c4 df3d 9df2 173d 93e8 dd3d
00000060: c88b b13d 7403 823d 8183 f03c eedb 783d
00000070: 4789 eb3d 73a9 423d 15b0 893d b81c 7b3d
00000080: 8bc2 8b3d f2cd 073e da6c a13d f058 ae3c
00000090: af3f 163e 1f9d fe3b b040 d03c 16e0 a83d
000000a0: ded6 013e 0a89 9e3d a411 133e 400b 573d
000000b0: 2498 ec3d 78ba 773d 3ad8 c33d 1f5d 823d
000000c0: 13a9 7cbb 1116 113e d6f4 293d c271 fe3d
000000d0: cd9f b73d 3461 463d 7e18 4d3d 9fcc 5f3c
000000e0: e57e 483d a52a ea3d 81ab d93d 003b cc3d
000000f0: 654d bd3d 4868 183d c480 c03d 9587 993d
00000100: f753 cbbb 2117 0b3d 99c9 753d 0388 773d
00000110: 2a13 013c 7766 fb3d 20cd cfbc fea8 6f3c
00000120: 3d14 f43d 12ad a73d 8505 183c ed30 61ba
00000130: b4cd e63d 69ee cfba 7d26 ba3c 1f3d 443d
00000140: eec7 863d 2359 653c fa7a c43d 25e2 0a3d
00000150: 98f5 cd3d b580 e63d fd69 143c 7607 7f3d
00000160: 41cf 893d 5b8f 513d 4b6b b83d 5714 593d
00000170: a952 0c3d 1dd9 883d f054 8e3d cd4f 0e3e
00000180: 2aa8 823d f87c 0d3e 8fdf 873d 9153 9e3d
00000190: c900 973d 4a9f ac3d aab3 a13d 4a50 863d
000001a0: 5730 bb3d fc7a d33d d67c 5e3d c9c8 903c
000001b0: e4e2 b53d 4b1b 703d 2c92 053e 9ea2 cd3c
000001c0: 8b0d 883d e00d b93d 7dd7 bd3d d139 163e
000001d0: 52c3 b13c db44 ce3d 1ed2 cbbb 7b29 fe3d
000001e0: 858e 7d3c 7340 e13b 4502 693d 53bf 863d
000001f0: 6351 883d 27cb 203d f442 0f3e dc8e c13c
00000200: 4e65 813d a3e6 7e3d 3c85 933d 00be 0e3d
00000210: 5cea bb3d 3a61 133e 0d08 9f3c f25b d93d
00000220: c45e 153e 6267 f93d b176 d73c 95ab 973d
00000230: 6c0e dc3d ca09 813d c022 d03d 0e9f e83c
00000240: 2e59 e03d 9034 df3d 25b8 ee3d 5f94 993c
00000250: 9ba6 de3d ae76 f33d 8fe8 313d 2c20 0a3e
00000260: 83ee 793d 76fc a23c 2690 fa3c dd43 cf3d
00000270: c3be bb3d 2b9b 063d 5dab fa3c c5c8 853d
00000280: 8909 a53d 2409 cd3d 9a04 803d 5390 8c3d
00000290: 0dd9 df3c b555 a33d ffe8 783d fed7 803d
000002a0: 74c0 603d 510f 343d de73 df3d 9224 113e
000002b0: 1898 483d 7faf 163d 2a33 adba 1cec 023e
000002c0: 611d 983d 5840 f13c 3eeb 633d a0c3 0d3e
000002d0: 99fa 8c3d b6f2 523d 952a 923d 6b5e f53d
000002e0: dadb 963d 04a9 a53d e01c 643d 07cf fe3d
000002f0: 0731 853d 3e1d 6c3d 0988 c6bb aed8 dd3d
00000300: 884d bd3c 57c7 803d 16f8 083e 6fa8 2abc
00000310: 7be5 193d 9b24 af3d b030 ab3d c1c0 c03d
00000320: ce35 36b9 1a4b e43d 7c97 003e 771d cb3d
00000330: fef7 b13d 465a 913d bf39 c13d db79 813d
00000340: 9a76 0c3d 6448 0e3c ff91 8f3d 1be4 253d
00000350: 1d5e 783d 63df a53b a5b1 773d a0f0 053e
00000360: bbc7 eb3d 5800 963d a3d2 d53d 39ac 153e
00000370: 7b65 b03d 48b1 863d aa5e 3e3c 11b6 e63d
00000380: f3a6 d93d 8e1f 303d 4860 843d 98d3 2f3d
00000390: 77c8 693d 1f24 fe3d 2e4c 953d bd82 363c
000003a0: 9939 e33d e3ca 653d cdfe fa3a 87de c23d
000003b0: 9f59 cf3d 5e48 913d 7773 a23d 1faf 323d
000003c0: 3751 443d 86d2 893d 9e8b 5a3d aa87 e53c
000003d0: 1fb2 8f3c 2b99 863d 34bd 013e 9c28 a63d
000003e0: 9018 f83d 0179 c23d aebb 533c 7c91 ffbb
000003f0: 03bb 033e 9df8 393d 7a8c 8d3b a66d 043e

ln2.weight f4 [300]
1.7553207 0.43448296 1.2167124 0.464487 0.335477 0.39520323 2.5411282 0.47275555
0.39235243 2.3366475 0.5007622 1.3389139 0.50224864 1.6214848 0.42762506 1.3328053
1.4260888 0.43993348 0.40593874 0.6192874 0.3483408 0.28132686 1.3013608 1.0460868
2.4915104 0.3682021 1.0233945 0.55496085 0.47855815 1.0422033 1.8974605 1.3095071
0.4682027 0.5422052 1.0382348 1.355959 0.5157974 1.1422733 1.2168238 1.0857477
0.3949699 1.2762479 0.37385184 1.3008211 0.3463514 1.3753711 0.46395746 1.8334906
1.7540505 0.39055002 0.9807898 0.41502753 0.39242378 0.8064536 1.0522201 2.6526577
1.2565286 0.47844505 0.49510983 0.728244 0.64546406 1.2670156 0.6593299 0.340322
1.5900441 1.3050939 1.1059154 1.418552 3.1315491 0.5871817 1.6892737 1.8269305
0.5150355 0.43863732 1.7555729 1.3330783 0.5028012 1.460123 1.8106564 1.3800386
0.37912735 1.0860838 0.5166413 2.0021713 0.5826817 0.49359533 1.206781 1.1408767
1.2322557 0.5284277 1.7807496 0.42607433 1.8824545 1.1829784 0.6607712 0.45224053
0.4536 0.20750237 0.30321333 0.5983296 1.5427821 1.0883027 1.3820374 1.4229891
0.43624535 0.8899726 1.209795 1.3780853 1.6231711 2.0822432 0.47763714 1.1125832
3.021287 1.3123131 0.40469798 0.32749742 1.5142297 0.38793585 1.5264187 0.47350553
1.165499 1.052126 1.2781551 0.60936534 0.3633679 1.192283 0.4869493 1.449296
1.707203 3.5372407 1.1889234 1.1214027 0.89280194 0.4990906 1.5054169 0.3931469
0.5672663 0.8084177 1.3989067 1.2188201 1.5042783 0.5670123 0.38317645 1.4102588
0.55739963 0.3291014 0.48210624 1.3012463 0.44533774 0.3192101 1.0010419 0.41593033
0.49140844 1.9810015 1.5847365 0.4237835 2.5862331 2.5231102 0.6973588 0.5827367
1.2854108 1.1329688 0.436546 1.2346845 3.220599 0.5737411 1.1908715 2.2683105
1.153897 0.43720812 0.56507117 0.5725268 1.1423641 1.63846 1.6800461 0.50996697
1.057555 2.7745557 1.3418831 0.54595906 0.78946173 1.7887919 1.9238282 0.31038246
0.43426433 1.3472458 1.6966369 0.79336953 0.472946 0.4913475 2.2608962 0.5574656
1.1618365 0.57837874 0.88120633 1.4147404 1.186823 0.39980236 0.31324962 0.47064883
1.1249223 0.43275324 0.53748965 0.82437694 0.50528616 0.91537005 1.2698644 0.50411123
1.4843805 1.5162908 1.5194752 1.0014333 1.6015706 1.2434069 1.2677372 0.46038812
0.46444905 1.1906608 1.2090032 0.46967134 1.120932 1.3069421 1.7716583 0.7546448
0.77560997 0.32432196 1.3770082 1.3578455 1.5404124 0.66164654 2.108146 1.820581
1.1561166 3.3033743 1.3067561 1.102555 1.1148168 0.99985075 0.41061807 1.1213772
1.913818 0.34455442 1.0898273 1.0690056 1.4302496 1.2256924 0.36134535 0.35897273
0.8118866 1.108251 2.218421 1.5927638 0.50819486 0.3837224 1.6675386 0.5349295
00000000: 59ae e03f 8d74 de3e 3bbd 9b3f 3dd1 ed3e
00000010: a4c3 ab3e 1458 ca3e d8a1 2240 040d f23e
00000020: 6be2 c83e a28b 1540 f431 003f 8861 ab3f
00000030: 5e93 003f d08c cf3f acf1 da3e 5d99 aa3f
00000040: 148a b63f f63e e13e 34d7 cf3e 9e89 1e3f
00000050: ba59 b23e 130a 903e fe92 a63f 2ce6 853f
00000060: e874 1f40 fc84 bc3e 97fe 823f ea11 0e3f
00000070: 9305 f53e eb66 853f fcdf f23f ee9d a73f
00000080: 44b8 ef3e f6cd 0a3f e1e4 843f 1190 ad3f
00000090: 4c0b 043f 0336 923f e2c0 9b3f c8f9 8a3f
000000a0: 7f39 ca3e 175c a33f 8269 bf3e 4e81 a63f
000000b0: f854 b13e 290c b03f d58b ed3e d2af ea3f
000000c0: ba84 e03f 2cf6 c73e 0a15 7b3f 7d7e d43e
000000d0: c5eb c83e be73 4e3f 26af 863f 25c5 2940
000000e0: eed5 a03f c0f6 f43e 097f fd3e 336e 3a3f
000000f0: 223d 253f 912d a23f d8c9 283f af3e ae3e
00000100: 9186 cb3f 510d a73f a38e 8d3f 1d93 b53f
00000110: 4d6b 4840 8a51 163f 1f3a d83f dcd8 e93f
00000120: 5ed9 033f 1295 e03e 9db6 e03f 4fa2 aa3f
00000130: 94b7 003f 4fe5 ba3f 97c3 e73f 1ba5 b03f
00000140: fb1c c23e cb04 8b3f 9b42 043f 9323 0040
00000150: a12a 153f 87b8 fc3e cd77 9a3f 3f08 923f
00000160: 8eba 9d3f 0a47 073f 9aef e33f 6a26 da3e
00000170: 45f4 f03f d66b 973f 4d28 293f 128c e73e
00000180: 423e e83e 807b 543e c73e 9b3e 212c 193f
00000190: e279 c53f 814d 8b3f 9ae6 b03f 8224 b63f
000001a0: 8d5b df3e 3fd5 633f 90da 9a3f 1965 b03f
000001b0: 12c4 cf3f 7943 0540 db8c f43e 2069 8e3f
000001c0: c45c 4140 e0f9 a73f 9334 cf3e bead a73e
000001d0: 47d2 c13f 879f c63e b061 c33f 516f f23e
000001e0: 122f 953f 11ac 863f 969a a33f 5eff 1b3f
000001f0: 5b0b ba3e bb9c 983f 6b51 f93e 8882 b93f
00000200: a185 da3f 2762 6240 a42e 983f 208a 8f3f
00000210: ab8e 643f ce88 ff3e 80b1 c03f 8d4a c93e
00000220: 5d38 113f 76f4 4e3f 600f b33f 4c02 9c3f
00000230: 318c c03f b827 113f b42f c43e 5c83 b43f
00000240: beb1 0e3f fb7f a83e a1d6 f63e 3d8f a63f
00000250: 4f03 e43e 826f a33e 2422 803f d2f4 d43e
00000260: e399 fb3e 7591 fd3f a5d8 ca3f 27fa d83e
00000270: d884 2540 a37a 2140 1b86 323f 3b2e 153f
00000280: 5788 a43f 1f05 913f f582 df3e 240a 9e3f
00000290: 4b1e 4e40 b2e0 123f 7a6e 983f 002c 1140
000002a0: e6b2 933f bed9 df3e 81a8 103f 1e91 123f
000002b0: fd38 923f 0fb9 d13f c00b d73f 328d 023f
000002c0: f65d 873f 5292 3140 d3c2 ab3f f9c3 0b3f
000002d0: 2a1a 4a3f 22f7 e43f 0140 f63f 73ea 9e3e
000002e0: e557 de3e 8d72 ac3f 662b d93f 441a 4b3f
000002f0: fa25 f23e e691 fb3e 86b2 1040 11b6 0e3f
00000300: 0fb7 943f a110 143f bd96 613f 3716 b53f
00000310: d1e9 973f e5b2 cc3e 4162 a03e e2f8 f03e
00000320: 74fd 8f3f d591 dd3e ec98 093f 5e0a 533f
00000330: 6f5a 013f b155 6a3f eb8a a23f 6f0d 013f
00000340: 2e00 be3f d115 c23f 2a7e c23f f72e 803f
00000350: 4400 cd3f f527 9f3f 3645 a23f feb7 eb3e
00000360: 44cc ed3e 9367 983f 9ec0 9a3f c378 f03e
00000370: b37a 8f3f e149 a73f b3c5 e23f 6730 413f
00000380: 608e 463f 870d a63e ce41 b03f e2cd ad3f
00000390: 3c2c c53f ab61 293f ddeb 0640 cc08 e93f
000003a0: a1fb 933f 7c6a 5340 c943 a73f 8620 8d3f
000003b0: 51b2 8e3f 38f6 7f3f 883c d23e 4a89 8f3f
000003c0: fdf7 f43f 7069 b03e 767f 8b3f 2dd5 883f
000003d0: 6b12 b73f 7de3 9c3f 4202 b93e 46cb b73e
000003e0: cdd7 4f3f 2bdb 8d3f 9cfa 0d40 afdf cb3f
000003f0: 0f19 023f 4377 c43e e871 d53f 24f1 083f

ln2.bias f4 [300]
-0.05238318 -0.6042789 -0.3174628 -0.6012016 -0.6827548 -0.66143316 -0.08323273 -0.44642505
-0.6195957 -0.092465855 -0.5655448 -0.1917721 -0.64524615 -0.12758483 -0.63120806 0.09457201
-0.32735685 -0.58117735 -0.6017114 -0.41211933 -0.64369947 -0.6262128 -0.18615995 -0.23636974
-0.04218655 -0.6507105 -0.34965917 -0.40823033 -0.61077076 -0.1759172 -0.082710475 -0.25032586
-0.61736304 -0.545314 -0.33611912 -0.15059106 -0.55790156 -0.065147966 -0.16001606 -0.3002562
-0.60573316 -0.08041579 -0.55000883 -0.0872188 -0.707571 -0.31921676 -0.6621162 -0.12775336
-0.13669293 -0.7012465 -0.1790112 -0.6353782 -0.6539048 -0.30267605 -0.044254854 -0.13648945
-0.065835 -0.52706534 -0.623092 -0.466356 -0.46998215 -0.27369288 -0.439169 -0.6151654
-0.07458989 -0.2587612 -0.06831808 -0.2103162 -0.023178434 -0.50856805 -0.08944609 -0.042673428
-0.5688629 -0.62822497 -0.10463069 -0.16555728 -0.61870146 -0.14217931 -0.22443381 -0.15657909
-0.7548344 -0.14863795 -0.6706552 -0.17749494 -0.5134609 -0.58526707 -0.1902579 -0.1833461
-0.105304696 -0.54945713 -0.09875028 -0.58301616 -0.20845835 -0.22783695 -0.5063228 -0.539834
-0.5527301 -0.7062213 -0.6248937 -0.50261974 -0.11138329 -0.21725248 -0.21275546 -0.14130265
-0.61860096 -0.18363632 -0.16132061 -0.051993947 -0.11460339 -0.06724115 -0.5388441 -0.29671577
-0.045662194 -0.14717798 -0.60397214 -0.56556815 -0.37680927 -0.5818617 -0.17551057 -0.51472527
-0.23734826 -0.42631403 -0.18223035 -0.55997217 -0.65315604 -0.17046373 -0.5173497 -0.1920153
-0.1600742 -0.18766181 -0.17779064 -0.24047159 -0.3498479 -0.58024913 -0.16285849 -0.544478
-0.41069913 -0.27521202 -0.22854882 -0.31861076 0.03683118 -0.6464221 -0.6524286 -0.28200322
-0.5363366 -0.61537087 -0.63229555 -0.16800345 -0.5454863 -0.6953195 -0.27841803 -0.64506286
-0.6238515 -0.16252778 -0.06996143 -0.6167323 -0.053446464 -0.058480136 -0.4371534 -0.4656644
-0.16492453 -0.17633805 -0.6396351 -0.12203982 -0.11662946 -0.46710134 -0.16325358 -0.053124815
-0.15278561 -0.68590856 -0.5737509 -0.59450555 -0.1437226 -0.11866866 -0.12435269 -0.6361742
-0.07113155 -0.017008586 -0.22847703 -0.4260412 -0.5353055 -0.08018779 -0.12364556 -0.61844516
-0.47899464 -0.14164309 -0.16993046 -0.30664796 -0.6370512 -0.56280404 -0.16760401 -0.33935177
-0.17787178 -0.41806793 -0.11362245 -0.085960485 -0.05242414 -0.6258728 -0.6115888 -0.5106518
-0.07262481 -0.5418483 -0.549432 -0.39635664 -0.63791907 -0.32240227 -0.16268562 -0.6413755
-0.063909665 -0.13346669 -0.25122407 -0.29452574 -0.16380878 -0.37983182 -0.15414484 -0.65617895
-0.57362247 -0.085610256 -0.06993625 -0.57818043 -0.03807147 -0.28223225 0.032384366 -0.39665988
-0.36179587 -0.61291546 -0.25774837 -0.30454043 0.011567021 -0.41202742 -0.049760867 -0.11027227
-0.08954486 -0.011768167 -0.17011063 -0.06122468 -0.109559886 0.037396215 -0.6539577 -0.26573536
-0.11360606 -0.6151294 -0.17616439 -0.10697591 -0.043351006 -0.18202668 -0.67905265 -0.69836044
-0.33264464 -0.09678141 -0.063747756 -0.18802114 -0.4274144 -0.61228615 -0.047111757 -0.5024981
00000000: bf8f 56bd 06b2 1abf 7c8a a2be 59e8 19bf
00000010: 05c9 2ebf af53 29bf ec75 aabd d391 e4be
00000020: d39d 1ebf bd5e bdbd 8bc7 10bf e85f 44be
00000030: da2e 25bf 99a5 02be da96 21bf f8ae c13d
00000040: 519b a7be 0ac8 14bf c209 1abf 4e01 d3be
00000050: 7dc9 24bf 7b4f 20bf b7a0 3ebe e90a 72be
00000060: cecb 2cbd f794 26bf 8706 b3be 9103 d1be
00000070: 795b 1cbf a323 34be 1c64 a9bd b62a 80be
00000080: 810b 1ebf b399 0bbf ce17 acbe 8b34 1abe
00000090: a3d2 0ebf 4c6c 85bd 40db 23be 2ebb 99be
000000a0: 5411 1bbf 09b1 a4bd 61cd 0cbf c59f b2bd
000000b0: 6023 35bf 6170 a3be 7380 29bf c7d1 02be
000000c0: 3bf9 0bbe e484 33bf b64e 37be 25a8 22bf
000000d0: 4e66 27bf 5bf8 9abe 9444 35bd e4c3 0bbe
000000e0: 80d4 86bd c1ed 06bf f582 1fbf 37c6 eebe
000000f0: 80a1 f0be 7921 8cbe c2da e0be 7b7b 1dbf
00000100: 96c2 98bd 597c 84be 59ea 8bbd 215d 57be
00000110: b3e0 bdbc 8431 02bf 832f b7bd 55ca 2ebd
00000120: 00a1 11bf 5ad3 20bf 9d48 d6bd d987 29be
00000130: 3863 1ebf 7497 11be fad1 65be 4556 20be
00000140: d43c 41bf 8c34 18be 0fb0 2bbf 3cc1 35be
00000150: 2c72 03bf 10d4 15bf f8d2 42be 14bf 3bbe
00000160: fda9 d7bd 39a9 0cbf 963d cabd 8c40 15bf
00000170: 1b76 55be 174e 69be 5f9e 01bf 9032 0abf
00000180: b87f 0dbf ebca 34bf 09f9 1fbf b0ab 00bf
00000190: ec1c e4bd 6f77 5ebe 91dc 59be a4b1 10be
000001a0: a25c 1ebf 290b 3cbe 3b31 25be 9bf7 54bd
000001b0: 2fb5 eabd bab5 89bd b0f1 09bf 21eb 97be
000001c0: 4808 3bbd d3b5 16be eb9d 1abf 13c9 10bf
000001d0: 25ed c0be e3f4 14bf 0bb9 33be 09c5 03bf
000001e0: 6c0b 73be d545 dabe 989a 3abe 565a 0fbf
000001f0: 3c35 27bf 0b8e 2ebe 0871 04bf a99f 44be
00000200: 7eea 23be 6b2a 40be c00e 36be 2f3e 76be
00000210: 441f b3be 358b 14bf 60c4 26be e962 0bbf
00000220: 2847 d2be 97e8 8cbe b408 6abe f320 a3be
00000230: 4bdc 163d eb7b 25bf 9005 27bf ba62 90be
00000240: 5b4d 09bf f288 1dbf 1fde 21bf 1909 2cbe
00000250: fda4 0bbf 7500 32bf cf8c 8ebe d722 25bf
00000260: bbb4 1fbf af6d 26be f047 8fbd 2be2 1dbf
00000270: aeea 5abd de88 6fbd 92d2 dfbe 906b eebe
00000280: fae1 28be f691 34be 20bf 23bf 03f0 f9bd
00000290: 6ddb eebd e827 efbe f22b 27be 6899 59bd
000002a0: d573 1cbe b497 2fbf 57e1 12bf 8431 18bf
000002b0: 042c 13be 8e08 f3bd a0ac febd 50dc 22bf
000002c0: 6bad 91bd 9755 8bbc e2f5 69be 1222 dabe
000002d0: c809 09bf 7f39 a4bd e239 fdbd 6c52 1ebf
000002e0: c93e f5be e30a 11be 4002 2ebe f600 9dbe
000002f0: ca15 23bf ed13 10bf 63a0 2bbe 84bf adbe
00000300: 0524 36be 000d d6be e3b2 e8bd 0d0c b0bd
00000310: b2ba 56bd 3339 20bf 1591 1cbf 14ba 02bf
00000320: 51bc 94bd 92b6 0abf 93a7 0cbf 42ef cabe
00000330: aa4e 23bf e911 a5be 0f97 26be 2f31 24bf
00000340: 12e3 82bd 7eab 08be 71a0 80be 14cc 96be
00000350: 7dbd 27be 5179 c2be 25d8 1dbe 58fb 27bf
00000360: ecd8 12bf 6e54 afbd bd3a 8fbd a203 14bf
00000370: d4f0 1bbd bf80 90be 78a5 043d 0117 cbbe
00000380: 4f3d b9be 07e8 1cbf 98f7 83be b9ec 9bbe
00000390: 9a83 3d3c 42f5 d2be 0dd2 4bbd 6ed6 e1bd
000003a0: 4c63 b7bd 45cf 40bc 7b31 2ebe bbc6 7abd
000003b0: ef60 e0bd c62c 193d c669 27bf 770e 88be
000003c0: 4baa e8bd 1f79 1dbf 7064 34be 3016 dbbd
000003d0: d390 31bd 3465 3abe 65d6 2dbf c0c7 32bf
000003e0: 6650 aabe 5535 c6bd 2f8e 82bd 9d88 40be
000003f0: 0fd6 dabe c9be 1cbf 42f8 40bd b7a3 00bf
