DDPG/models/actor_eps120_veh100_12e-2_8e-2_0.1.pth (torch, 505665 bytes, 11 tensors)

ln0.weight f4 [8]
0	0x3f8ed889	1.1159831
1	0x3f7036bf	0.93833536
2	0x3f8e9e28	1.1142015
3	0x3f7f92cf	0.9983339
4	0x3e9cd472	0.30630833
5	0x3f3864e8	0.7202897
6	0x3f8abca6	1.0838821
7	0x3f837562	1.0270197

ln0.bias f4 [8]
0	0x3d215f0f	0.039397296
1	0x3e2bb3ad	0.1676776
2	0x3a67ae55	0.0008837928
3	0x3e0c1d71	0.13683106
4	0xbe818d26	-0.25303
5	0xbe784c52	-0.24247864
6	0x3ce83663	0.028346246
7	0x3dff6930	0.12471235

fc1.weight f4 [400, 8]
0	0x3abfebc0	0.0014642403
1	0x3d391aec	0.04519169
2	0xbdf698a7	-0.12040835
3	0xbd85f129	-0.06540138
4	0x3d59f9c1	0.0532167
5	0x3ced3237	0.028954608
6	0x3d9bf39f	0.076148264
7	0x3cc2f1a2	0.02379686
8	0xbcea1316	-0.028573554
9	0xbdba89a9	-0.09108288
10	0xbd187a98	-0.03722629
11	0xbcc05f65	-0.023482988
12	0x3e14e4d3	0.14540415
13	0x3d13f630	0.036123455
14	0xbe4d06da	-0.20022145
15	0x3ca5e129	0.020248966
16	0x3d16d0bf	0.03682017
17	0xbd12635c	-0.035739288
18	0x3d3dffcd	0.04638653
19	0xbbde252c	-0.0067793336
20	0x3c2cafc8	0.010539956
21	0x3b9ba02b	0.004749318
22	0xbe0697b3	-0.13143806
23	0x3c7a2756	0.0152681675
24	0xbccf8994	-0.025334157
25	0xbd93fe33	-0.07226219
26	0xbd529003	-0.05140687
27	0xbdc26c7e	-0.094933495
28	0x3d816ce7	0.063195996
29	0x3d26cfaf	0.040725406
30	0xbe4e38fd	-0.20138927
31	0xbc9271fb	-0.017876616
32	0x3e04f58d	0.12984295
33	0xbd7b79c0	-0.061395407
34	0xbc5b4046	-0.013382023
35	0x3d003778	0.0313029
36	0x3d035089	0.032059226
37	0xbbf2f04a	-0.0074138986
38	0xbe0b4b97	-0.13603054
39	0xbd5648b0	-0.052315414
40	0xbc9f9a88	-0.019482866
41	0x3d6d7c96	0.057980143
42	0x3dcc0d48	0.09963471
43	0x3d1c27aa	0.038123764
44	0x3c1591d0	0.009129003
45	0xbbe3cdb8	-0.006952014
46	0xbdb3abb4	-0.08772984
47	0x3c25a2ae	0.010109587
48	0xbdb4a879	-0.08821196
49	0xbc17e602	-0.009271147
50	0xbcc125dd	-0.023577625
51	0xbe323b20	-0.17405367
52	0x3dbff6f0	0.093732715
53	0x3d192403	0.03738786
54	0xbe296f4c	-0.16546363
55	0xbd367cdd	-0.044552673
56	0xbd23c469	-0.039982233
57	0xbd85d828	-0.06535369
58	0xbe481eb1	-0.19542958
59	0xbd216e03	-0.039411556
60	0x3cc2c135	0.023773769
61	0x3def748a	0.1169215
62	0x3cddf984	0.027096517
63	0xbd8c8215	-0.06860749
64	0x3deb81c8	0.11499363
65	0xbd8980b0	-0.06713998
66	0x3d52bc2b	0.051448982
67	0x3daff357	0.08591335
68	0x3bbda299	0.0057872054
69	0xbd28a30d	-0.041171122
70	0xbd088fa4	-0.03334011
71	0x3c7ae599	0.015313529
72	0xbdfcf9f2	-0.12352361
73	0xbd9273fc	-0.071510285
74	0xbe01fbb5	-0.12693675
75	0x3d4426a1	0.047888402
76	0xbca9f363	-0.020745939
77	0x3cd2cdd0	0.025732905
78	0x3d963f11	0.07336248
79	0xbd876691	-0.0661136
80	0xbd5adcb0	-0.05343312
81	0xbd67c76b	-0.056586664
82	0x3d32413e	0.04351925
83	0xbc66a1d9	-0.014076673
84	0x3d19b148	0.037522584
85	0x3d8d3da8	0.068965256
86	0xbe12acdd	-0.14323755
87	0xbcd94d30	-0.026526064
88	0xbd450686	-0.048101924
89	0xbd7d0386	-0.06177094
90	0xbd9772e6	-0.07394962
91	0xbd124bf8	-0.03571698
92	0x3ca36079	0.019943463
93	0x3d0910d9	0.033463333
94	0x3ccfe1fc	0.025376312
95	0x3d65138d	0.05592685
96	0x3d81e6e9	0.06342871
97	0xbdffdf15	-0.124937214
98	0xbe03bd8b	-0.12865274
99	0x3d00fe66	0.031492613
100	0x3d193a8c	0.03740935
101	0x3d850bd6	0.06496398
102	0xbd9f387f	-0.07774448
103	0xbcea79b9	-0.028622495
104	0xbe1cf10f	-0.15326332
105	0xbdf6ed63	-0.12056997
106	0xbd51baee	-0.05120366
107	0x3dd01f02	0.10162164
108	0x3c9de65e	0.019274887
109	0x3d8ce0c7	0.068788104
110	0xbd10f376	-0.035388432
111	0xbd62233d	-0.055209387
112	0x3ccdac39	0.025106536
113	0xbda12720	-0.078687906
114	0x3cdf00ca	0.027222056
115	0x3d8294cd	0.06376038
116	0x3cd994b2	0.026560161
117	0x3d92d533	0.07169571
118	0xbdde0641	-0.108410366
119	0xbe05b736	-0.1305817
120	0xbdb055e8	-0.08610135
121	0xbd39f238	-0.045397013
122	0xbd47d832	-0.048790164
123	0xbd08f372	-0.033435293
124	0x3d1efdf0	0.038816392
125	0x3d96e91d	0.073686816
126	0xbe0ac612	-0.1355212
127	0x3e0b9ec3	0.13634782
128	0x3df8b335	0.12143556
129	0x3cea6346	0.02861179
130	0x3dc09425	0.09403256
131	0x3bf50860	0.007477805
132	0x3c894be3	0.016759818
133	0xbd0b47c7	-0.034004
134	0xbd81c8dd	-0.0633714
135	0x3d27236d	0.04080527
136	0xbd8184c3	-0.063241504
137	0xbd000286	-0.031252407
138	0xbdb0a2ba	-0.08624788
139	0x3de292ab	0.11063131
140	0xbd098631	-0.03357524
141	0xbd047974	-0.03234239
142	0x3dd0c6bb	0.10194155
143	0xbace9d5d	-0.0015763451
144	0x3d2cad16	0.042157255
145	0x3dae6de1	0.085170515
146	0xbde02f03	-0.10946467
147	0x3c253f57	0.010085902
148	0x3c78e18d	0.015190494
149	0x3bbf93e6	0.0058464883
150	0x3df54c7a	0.11977477
151	0xbc7206b6	-0.014772108
152	0x3d8609cf	0.065448396
153	0x3ccc7836	0.024959665
154	0xbdb8bd98	-0.09020537
155	0x3b95c5fd	0.004570721
156	0x3cc8b391	0.024499686
157	0xba9bdbaa	-0.0011891027
158	0xbdaeff32	-0.085447684
159	0x3d7f41a9	0.062318478
160	0xbc5c3cc5	-0.013442223
161	0xbc13c7bc	-0.009019788
162	0x3cb5f04a	0.022209305
163	0x3b600256	0.003418108
164	0x3c678d0f	0.014132752
165	0xbc94f056	-0.018181007
166	0xbbe59c94	-0.007007191
167	0x3d3a42d3	0.045473885
168	0x3dc9cdeb	0.09853729
169	0x3c8dd156	0.017311733
170	0xbbe006d4	-0.0068367515
171	0x3d107e87	0.035276916
172	0xbc0df531	-0.008664415
173	0x3b1319e6	0.0022445857
174	0xbe0921ca	-0.13391796
175	0xbd9162cf	-0.07098924
176	0xbc85a750	-0.016315132
177	0x3d48c4d6	0.049015842
178	0xbe341c6a	-0.17588964
179	0x3aacd9ae	0.0013187432
180	0x3d620ef4	0.05519004
181	0x3dd5ffd3	0.10449185
182	0xbcdf7c60	-0.027280986
183	0xbd254bb8	-0.040355414
184	0xbceb8f10	-0.028754741
185	0xbc266070	-0.010154828
186	0xbe0d08a6	-0.1377283
187	0xbe09f348	-0.1347171
188	0x3dbc6d87	0.09200578
189	0x3d8ece16	0.069729015
190	0xbe08a8d6	-0.13345656
191	0x3d5b3924	0.05352129
192	0x3ca507cd	0.020145321
193	0xbd897e9c	-0.06713602
194	0xbe10272a	-0.1407744
195	0x3d041273	0.032244157
196	0x3d339efe	0.0438528
197	0x3d9cdb0d	0.07658968
198	0xbd92f1c3	-0.07175019
199	0x3d876a17	0.06612032
200	0xbdd58258	-0.10425252
201	0x3d2229f0	0.039590776
202	0x3ce87ef1	0.028380843
203	0xbdbaa97f	-0.0911436
204	0x3de7cd62	0.113184705
205	0x3d1a7a0c	0.03771405
206	0xbdf26cc3	-0.11837151
207	0x3d383d9c	0.04498063
208	0xbc5cbe7c	-0.013473149
209	0xbe253fd7	-0.16137634
210	0xbda8314f	-0.0821253
211	0xbd38bd7a	-0.045102574
212	0x3d4316f2	0.047629304
213	0x3d8ebc4b	0.06969508
214	0xbe21e696	-0.15810618
215	0xbdcc93c1	-0.09989119
216	0x3d3a46cc	0.045477673
217	0x3d595e8b	0.05306868
218	0x3dca1abb	0.0986838
219	0x3d24af1f	0.04020607
220	0x3bbbc46a	0.0057302015
221	0xbd61186f	-0.054954942
222	0xbdec89e0	-0.11549735
223	0x3d82ed59	0.06392927
224	0x3cfa1444	0.030527242
225	0x3d009c10	0.031398833
226	0xbd70af0b	-0.058760684
227	0x3ce5f556	0.028071087
228	0xbc2ba0ee	-0.01047538
229	0xbc02c02a	-0.007980386
230	0x3e047c9e	0.12938163
231	0x3d1d147c	0.038349614
232	0x3dbdf99c	0.09276125
233	0x3cc83e5b	0.024443796
234	0x3da048f9	0.078264184
235	0x3dacd78c	0.0843955
236	0xbc5e01b4	-0.013550211
237	0xbd4357fc	-0.04769133
238	0xbd901f5f	-0.070372336
239	0x3d6fdc31	0.0585596
240	0x3d2672a1	0.040636662
241	0x3d8e2334	0.06940308
242	0xbe0d7e99	-0.13817824
243	0xbd45be98	-0.048277467
244	0xba49cfae	-0.0007698488
245	0xbb58048a	-0.003296169
246	0x3c3aae32	0.01139407
247	0x3bfedc59	0.0077777323
248	0xbb4d5f66	-0.003133738
249	0x3c5bdc01	0.013419152
250	0x3d986b3d	0.07442329
251	0x3ddb5bb3	0.107108496
252	0xbcf90ec3	-0.030402547
253	0xbd701d44	-0.05862166
254	0xbd92d857	-0.0717017
255	0x3d8c19b3	0.06840839

fc1.bias f4 [400]
0	0x3d0930a1	0.03349364
1	0xbe53b782	-0.20675471
2	0x3d6b6801	0.057472233
3	0xbe65c87f	-0.22439764
4	0x3d3328d5	0.043740112
5	0x3e2d0d60	0.16899633
6	0xbe717588	-0.23579991
7	0xbe6c6f50	-0.23089337
8	0x3dd81050	0.10549986
9	0xbd59473e	-0.053046457
10	0xbdd7e340	-0.105413914
11	0xbd0962ba	-0.03354142
12	0xbe1c2ee5	-0.15252264
13	0xbe2dbdfa	-0.16967002
14	0xbdd71775	-0.10502521
15	0xbe3cd7c9	-0.1844169
16	0x3e6a5a8b	0.22886102
17	0x3e1357a1	0.14388897
18	0x3e22e615	0.15908082
19	0x3dcd36c5	0.10020212
20	0x3e9c4d9e	0.30527967
21	0x3d8de725	0.06928853
22	0xbe27e8f6	-0.16397461
23	0xbe7bb090	-0.24579072
24	0xbded078f	-0.11573707
25	0xbdc5eef0	-0.09664714
26	0xbe830a5e	-0.25593847
27	0x3e86084f	0.26178214
28	0x3e3cebda	0.18449345
29	0x3e5ba1dd	0.21448465
30	0x3d8efd9b	0.06981965
31	0x3e251439	0.16120996
32	0xbdb19104	-0.08670238
33	0x3e323936	0.17404637
34	0xbe32ed0f	-0.17473243
35	0xbd6f5503	-0.058430683
36	0x3e835101	0.2564774
37	0xbddd8ab9	-0.10817475
38	0x3e432ddb	0.19060461
39	0xbe509618	-0.20369756
40	0xbc88b6f0	-0.016688794
41	0x3e389f93	0.18029623
42	0x3c60b6aa	0.0137154255
43	0x3e6239b7	0.22092329
44	0xbd96d50b	-0.073648535
45	0xbe804344	-0.2505132
46	0xbd4825c7	-0.048864152
47	0xbe82835b	-0.2549084
48	0x3dd66bf1	0.10469807
49	0xbd8b4cd5	-0.06801764
50	0xbe0012e3	-0.12507205
51	0x3e5f8479	0.21827878
52	0x3d9c390d	0.07628069
53	0xbdac9baa	-0.08428128
54	0x3e8345b3	0.25639114
55	0x3e16784d	0.14694329
56	0xbe849cf2	-0.2590099
57	0x3ddd55a9	0.10807354
58	0x3e80ad6c	0.2513231
59	0x3e88e450	0.2673669
60	0xbe5cb52f	-0.21553491
61	0xbe480d33	-0.19536285
62	0x3d8aab6c	0.067709774
63	0xbe365cf7	-0.17808901
64	0xbe2de8f3	-0.16983394
65	0xbe6d7b2c	-0.23191518
66	0x3e919861	0.28436568
67	0xbe0cbf37	-0.13744818
68	0x3e57ad33	0.21062164
69	0x3e19555b	0.14973967
70	0x3dafdede	0.085874304
71	0x3e6b7b6c	0.229963
72	0xbe4bd6db	-0.1990618
73	0x3d73ceec	0.059523508
74	0xbcea58a2	-0.028606717
75	0xbe53833d	-0.20655532
76	0x3e2c38ff	0.16818617
77	0xbe83512c	-0.25647867
78	0xbe302827	-0.17202817
79	0x3df49216	0.11941926
80	0xbd3164f7	-0.04330918
81	0xbe48e96d	-0.19620295
82	0xbe18cc3b	-0.14921658
83	0xbe29ecf3	-0.16594295
84	0xbcff5e1e	-0.031172808
85	0xbdd3f090	-0.10348618
86	0x3ca48a5a	0.020085502
87	0xbd56ab3a	-0.052409388
88	0x3e945dc8	0.289778
89	0x3e907eae	0.2822165
90	0xbe2443e9	-0.1604153
91	0xbd67056c	-0.056401655
92	0x3dba1038	0.09085125
93	0x3d1d322c	0.038377926
94	0xbe4f881c	-0.20266765
95	0x3e304469	0.17213596
96	0x3e945cf5	0.2897717
97	0x3dd9b7c7	0.10630756
98	0x3e03b813	0.12863187
99	0xbe5185b7	-0.20461164
100	0xbe5d3a5e	-0.21604297
101	0x3d6d1b47	0.05788734
102	0xbe765cc9	-0.24058832
103	0xbe205b2f	-0.15659784
104	0xbe74c316	-0.23902544
105	0x3e0933b9	0.13398637
106	0xbe1b558c	-0.15169352
107	0x3e3a96aa	0.18221536
108	0xbdfd4f23	-0.1236861
109	0xbdc69b7e	-0.096976265
110	0x3d96417b	0.07336708
111	0xbe612313	-0.21986036
112	0xbcff204f	-0.031143336
113	0x3df80875	0.12110988
114	0x3e038545	0.12843807
115	0x3dc3e23d	0.09564636
116	0xbe25ed25	-0.16203745
117	0x3da37e69	0.07983095
118	0xbda36c34	-0.079796225
119	0x3dbfdf75	0.09368793
120	0x3e3ea7e7	0.18618737
121	0x3d8cb292	0.06869997
122	0x3df5f7e4	0.12010172
123	0x3e76ecb5	0.24113734
124	0x3e10f219	0.14154853
125	0x3e6f2c19	0.23356666
126	0xbe23e98e	-0.16007063
127	0x3d416e1b	0.047224145
128	0xbe254bad	-0.1614215
129	0x3e180d51	0.1484883
130	0xbc82b880	-0.015957117
131	0xbdf894b4	-0.12137738
132	0xbe098f6d	-0.13433619
133	0xbda5f207	-0.08102804
134	0x3e2d21aa	0.16907373
135	0xbe46e2c2	-0.19422439
136	0xbe2c8c84	-0.16850477
137	0x3ddcfe8c	0.107907385
138	0xbddf830c	-0.10913667
139	0x3e8ef76f	0.27923152
140	0xbe3b9633	-0.18319015
141	0x3dcd7090	0.10031235
142	0x3df1ea40	0.11812258
143	0x3da49b42	0.080374256
144	0x3e7e95de	0.24861857
145	0x3dbafff7	0.09130853
146	0x3e8bbc25	0.2729198
147	0xbd622264	-0.05520858
148	0xbe2ff239	-0.17182244
149	0x3e6d34c6	0.23164663
150	0xbd9c6adb	-0.076375686
151	0xbda34eca	-0.07974012
152	0xbe6a26de	-0.22866389
153	0xbe42fc3a	-0.1904153
154	0xbe814ea3	-0.25255308
155	0x3e9a9b2a	0.30196506
156	0xbd45bd0e	-0.048276
157	0x3e2e2ce9	0.1700932
158	0xbd7cc4f4	-0.061711267
159	0x3e89641b	0.26834187
160	0xbe817530	-0.2528472
161	0xbdf5b85d	-0.11998055
162	0x3cb91d5e	0.022597011
163	0x3e67cc9e	0.22636649
164	0xbd89d333	-0.06729736
165	0xbe68844e	-0.2270672
166	0xbd8f1a05	-0.06987385
167	0xbc37e24b	-0.011223386
168	0x3e3f591a	0.18686333
169	0x3e8505b3	0.2598091
170	0x3dfc8518	0.12330073
171	0x3e872a45	0.26399437
172	0x3bf7caaa	0.0075620012
173	0x3e6b0089	0.22949423
174	0xbe3c980b	-0.18417375
175	0xbd1f26d3	-0.038855385
176	0xbe78f957	-0.24313866
177	0xbe5890ab	-0.21148936
178	0xbdd6dd98	-0.104914844
179	0x3def8718	0.11695689
180	0xbe4c3edd	-0.19945855
181	0x3e93f239	0.2889574
182	0x3e13196d	0.14365168
183	0xbde5bdc6	-0.11217837
184	0xbda61854	-0.08110109
185	0xbd09bf74	-0.03362985
186	0x3d42d948	0.047570497
187	0xbcbae703	-0.022815233
188	0x3e13841f	0.14405869
189	0x3e7b2b22	0.24528173
190	0x3c4493a5	0.011998092
191	0xbe50e4e4	-0.20399815
192	0xba987f5a	-0.0011634633
193	0xbd98bc18	-0.07457751
194	0xbd829bdf	-0.06377386
195	0x3de67921	0.11253572
196	0x3dd98726	0.10621481
197	0x3e869789	0.26287487
198	0x3e7cd413	0.24690275
199	0xbe3eee30	-0.18645549
200	0xbe7fe921	-0.24991275
201	0x3dc5be0c	0.09655389
202	0xbe7e8f36	-0.24859318
203	0x3e4ee6e8	0.20205271
204	0x3d581519	0.052754495
205	0xbe232791	-0.15933062
206	0xbdaecdb3	-0.08535328
207	0x3e5d3b97	0.21604763
208	0x3cd8f294	0.026482858
209	0x3e0d53df	0.13801526
210	0xbe81c3db	-0.25344738
211	0x3c87722f	0.01653394
212	0x3e85be1e	0.2612161
213	0xbe834cd1	-0.25644544
214	0x3e8e03fe	0.2773742
215	0xbe6334c5	-0.22188099
216	0x3e7132f7	0.23554598
217	0x3e70f373	0.23530369
218	0xbe37478c	-0.17898387
219	0x3e7574d3	0.23970346
220	0xbd3b90a0	-0.045792222
221	0xbe395ca9	-0.18101753
222	0x3dbf93ee	0.09354387
223	0x3ce06c08	0.027395263
224	0xbe6215fd	-0.220787
225	0x3e364897	0.17801128
226	0xbe5e8b71	-0.2173288
227	0x3e7553db	0.2395777
228	0x3db4b783	0.088240646
229	0xbd44fc8f	-0.04809242
230	0xbda72ddb	-0.08163043
231	0xbc61ebf2	-0.013789164
232	0x3de5888c	0.11207685
233	0xbc9c0621	-0.019045891
234	0x3e414b34	0.18876344
235	0x3d2e3ab5	0.042536456
236	0x3e521298	0.20514905
237	0x3dcc834d	0.09985981
238	0x3e4ceeae	0.20012924
239	0x3ca01f53	0.019546187
240	0xbd433d3c	-0.04766582
241	0x3d172114	0.03689678
242	0x3d203a87	0.039118316
243	0xbd4052a9	-0.04695383
244	0xbc831139	-0.015999423
245	0xbe2ab16d	-0.16669245
246	0x3d463b22	0.048396237
247	0x3e78f695	0.24312814
248	0xbe7e7a12	-0.24851254
249	0x3e43fd65	0.19139631
250	0xbd60c1f4	-0.054872468
251	0x3e905a26	0.28193778
252	0xbce4250d	-0.027849698
253	0xbd061ebe	-0.03274416
254	0x3e45edca	0.1932899
255	0x3d0f169d	0.034933675

ln1.weight f4 [400]
0	0x3f9a6d37	1.206458
1	0x3f963729	1.1735584
2	0x3f6483a2	0.89263356
3	0x3f947a11	1.1599752
4	0x3f87da07	1.0613412
5	0x3f58ee83	0.8473894
6	0x3f845cd7	1.0340832
7	0x3f999343	1.1998066
8	0x3f9b3233	1.2124695
9	0x3f975479	1.1822654
10	0x3f890348	1.0704126
11	0x3f5b3ae7	0.8563675
12	0x3f8aacaa	1.0833943
13	0x3f9e7851	1.2380468
14	0x3f9728b6	1.1809299
15	0x3f793a4a	0.9735457
16	0x3f4f98f5	0.8109277
17	0x3f998de4	1.1996427
18	0x3f686f2e	0.90794647
19	0x3f07eaa5	0.53092414
20	0x3e7d0f5c	0.2471289
21	0x3f814eb1	1.010214
22	0x3f933501	1.150055
23	0x3f7d83b9	0.9902912
24	0x3f4882c8	0.78324556
25	0x3f87fcaf	1.0623988
26	0x3f7e3606	0.99301183
27	0x3f614e28	0.8800988
28	0x3f585b4f	0.84514326
29	0x3f3bef73	0.73412246
30	0x3f7717c6	0.9652065
31	0x3f5d4b47	0.8644299
32	0x3f524998	0.82143545
33	0x3f9cfcf5	1.2264696
34	0x3f4fb564	0.81136155
35	0x3f99ca43	1.201485
36	0x3f5d0344	0.8633311
37	0x3f87a08a	1.0595868
38	0x3f653746	0.89537466
39	0x3f5c5331	0.8606444
40	0x3f9cffe2	1.2265589
41	0x3f6dc268	0.92874765
42	0x3f9f7a37	1.2459172
43	0x3f3075e6	0.689299
44	0x3fa1e1fb	1.2647089
45	0x3f624e51	0.8840075
46	0x3f9219e2	1.1414149
47	0x3f8fbdc3	1.1229786
48	0x3fa47c74	1.285048
49	0x3f8e0739	1.1095954
50	0x3f787813	0.9705822
51	0x3f5f6b84	0.8727343
52	0x3f8f0e9d	1.1176335
53	0x3fa85bb0	1.3152981
54	0x3eaf3a2a	0.34224063
55	0x3f7d38a4	0.9891455
56	0x3f783020	0.9694843
57	0x3f4091e7	0.7522263
58	0x3eff834f	0.49904868
59	0x3f1db607	0.61605877
60	0x3f83abe1	1.0286828
61	0x3f8cbf8c	1.0995955
62	0x3f922193	1.1416496
63	0x3f813a81	1.0095979
64	0x3f249c11	0.6430064
65	0x3f83730d	1.0269486
66	0x3f5ea00c	0.8696296
67	0x3f892b8f	1.0716418
68	0x3efbeebf	0.49205586
69	0x3f67bde0	0.905241
70	0x3f98a981	1.1926728
71	0x3f297697	0.6619658
72	0x3f50f4ce	0.8162354
73	0x3f8f55c7	1.1198052
74	0x3f93ffda	1.1562455
75	0x3faed3d1	1.3658391
76	0x3ee885a6	0.45414466
77	0x3f7823d8	0.96929693
78	0x3f87b7e4	1.0602994
79	0x3f8be2c0	1.0928574
80	0x3f823a85	1.0174109
81	0x3f76bc3f	0.9638099
82	0x3fabb7db	1.3415483
83	0x3f812003	1.0087894
84	0x3f9e5608	1.2370005
85	0x3fbd00f4	1.4765916
86	0x3fafdac2	1.3738635
87	0x3f7da218	0.9907546
88	0x3eeaf66b	0.45891127
89	0x3f0a2f6e	0.5397862
90	0x3f5e4fb5	0.86840373
91	0x3fa1bb63	1.2635311
92	0x3f8da397	1.1065549
93	0x3f928ddd	1.1449543
94	0x3f315d7a	0.6928326
95	0x3fa0f852	1.2575781
96	0x3f4265cb	0.75936574
97	0x3f1b0924	0.6056082
98	0x3f5ffab6	0.8749193
99	0x3f974ea8	1.1820879
100	0x3f6d614f	0.92726606
101	0x3f9b6f0b	1.2143263
102	0x3fbb7949	1.4646388
103	0x3f925795	1.1432978
104	0x3f5a0a12	0.85171616
105	0x3f7b1c4d	0.9809006
106	0x3f9b35b5	1.2125765
107	0x3f69040c	0.910218
108	0x3f42f6ee	0.76158035
109	0x3f3b2040	0.73096085
110	0x3fac7b42	1.3475115
111	0x3f65f2e6	0.8982376
112	0x3f88a395	1.0674921
113	0x3f4a1fbe	0.78954685
114	0x3f8fa46c	1.1222053
115	0x3fa7f198	1.3120604
116	0x3fb0b76c	1.3805976
117	0x3f8c77f7	1.097411
118	0x3f3a8c29	0.7287012
119	0x3f4bbb55	0.7958272
120	0x3f84d302	1.0376894
121	0x3f9b430b	1.2129835
122	0x3f4ad85c	0.7923639
123	0x3f2752fc	0.65361
124	0x3f835f33	1.0263427
125	0x3f0c7b52	0.5487567
126	0x3fa14b41	1.2601091
127	0x3f62c8d8	0.88587713
128	0x3f8349b6	1.025687
129	0x3f89469a	1.0724671
130	0x3f51d67b	0.81967896
131	0x3f8cbec6	1.099572
132	0x3f9a861f	1.207218
133	0x3fa36379	1.2764732
134	0x3f67d39e	0.9055728
135	0x3f80d191	1.0063955
136	0x3f61139c	0.87920547
137	0x3fa7b2b9	1.3101417
138	0x3f7d34fe	0.98908985
139	0x3f3fdc61	0.74945647
140	0x3f97d934	1.186316
141	0x3fac596d	1.346479
142	0x3f3be1ba	0.73391306
143	0x3f870ff0	1.0551739
144	0x3f65a599	0.89705807
145	0x3f7cb277	0.98709816
146	0x3f4e1d09	0.80513054
147	0x3f8b4215	1.0879542
148	0x3f7b71c4	0.9822047
149	0x3f63de46	0.8901104
150	0x3f81f5bf	1.0153121
151	0x3f48bec9	0.78416115
152	0x3f2db5c2	0.67855465
153	0x3f9f4f2c	1.2446036
154	0x3f49d621	0.7884236
155	0x3eb01a25	0.34394947
156	0x3f5ad78f	0.85485166
157	0x3faad68e	1.3346727
158	0x3f7d4951	0.98939997
159	0x3f51729a	0.81815493
160	0x3f8e960d	1.1139542
161	0x3f8471bd	1.034721
162	0x3f8e80eb	1.1133093
163	0x3f375e69	0.71628433
164	0x3f7f454b	0.9971511
165	0x3f521a43	0.8207132
166	0x3f93afff	1.1538085
167	0x3f8f249a	1.1183045
168	0x3fb53d69	1.4159366
169	0x3f60d7e4	0.8782942
170	0x3f5b6e75	0.8571542
171	0x3f623fd2	0.8837863
172	0x3f5fc936	0.874164
173	0x3f670a93	0.9025051
174	0x3f87e0a2	1.0615427
175	0x3f556817	0.83361953
176	0x3fb8a66c	1.4425788
177	0x3f74227e	0.9536513
178	0x3f9b50a4	1.2133985
179	0x3f8ee6f7	1.1164235
180	0x3f4e4349	0.8057142
181	0x3f1f707e	0.62281024
182	0x3f676346	0.90385854
183	0x3f631378	0.8870158
184	0x3f5b77bf	0.85729593
185	0x3f507218	0.81424093
186	0x3fa6b628	1.302434
187	0x3f82f43e	1.0230787
188	0x3fa2bfd9	1.2714797
189	0x3f605019	0.8762222
190	0x3f9204fd	1.1407772
191	0x3f8878af	1.066183
192	0x3f54d1bf	0.8313255
193	0x3f8be0f9	1.0928031
194	0x3f7878fd	0.97059613
195	0x3f35997c	0.70937324
196	0x3f9d4011	1.2285177
197	0x3f27db68	0.6556916
198	0x3f207bde	0.62689006
199	0x3f9a11ba	1.203666
200	0x3f99b0bd	1.2007061
201	0x3f62d4a3	0.8860571
202	0x3f8a4065	1.0800902
203	0x3f0bbd90	0.54586124
204	0x3f87f8b9	1.0622779
205	0x3fcfbfc7	1.6230401
206	0x3f870c92	1.0550711
207	0x3f7ed719	0.9954696
208	0x3f91a51b	1.1378511
209	0x3f6835ae	0.9070691
210	0x3f803ce7	1.0018586
211	0x3f95812b	1.1680044
212	0x3f099e5e	0.53757274
213	0x3f643044	0.8913615
214	0x3f70d135	0.94069225
215	0x3f69f860	0.91394615
216	0x3ed92d51	0.42417386
217	0x3f3639cb	0.71181935
218	0x3f940b8b	1.1566023
219	0x3f621cab	0.88324994
220	0x3fbe288a	1.4856122
221	0x3f87b409	1.0601817
222	0x3f65782e	0.89636505
223	0x3f95884e	1.1682222
224	0x3f7c1715	0.9847272
225	0x3f2e2c1e	0.6803607
226	0x3f8f9801	1.1218263
227	0x3f73f74a	0.9529921
228	0x3f7135fd	0.94223005
229	0x3f8d6401	1.1046144
230	0x3f89e1bb	1.0772012
231	0x3f853153	1.0405678
232	0x3f633036	0.8874544
233	0x3f92386b	1.1423467
234	0x3edc0b21	0.4297724
235	0x3f39a3cd	0.72515565
236	0x3f72ca48	0.94839907
237	0x3f86e33b	1.0538095
238	0x3f7c4025	0.98535377
239	0x3f8f7e01	1.1210328
240	0x3f6c48a3	0.92298335
241	0x3fee74b1	1.8629361
242	0x3f3ca160	0.7368374
243	0x3f85eb5e	1.0462453
244	0x401925d9	2.392935
245	0x3f8abd8c	1.0839095
246	0x3f92f8b9	1.1482154
247	0x3f0888f0	0.5333395
248	0x3f6a3f8a	0.915032
249	0x3e741a30	0.23838115
250	0x3f2d7194	0.6775143
251	0x3ed8bb21	0.42330268
252	0x3f8ea155	1.1142985
253	0x3f39e93f	0.7262153
254	0x3f5fc932	0.87416375
255	0x3f8f3e52	1.1190894

ln1.bias f4 [400]
0	0xbaabd08f	-0.001310842
1	0xbd116879	-0.035500024
2	0xbdc10f08	-0.09426695
3	0xbe0c9657	-0.13729225
4	0xbd88d68c	-0.066815466
5	0xbe28fb06	-0.16502008
6	0xbdbfd22c	-0.09366259
7	0x3c3050d9	0.010761463
8	0xbdd9bb0a	-0.10631378
9	0x3da33306	0.07968716
10	0xbd00ce3e	-0.031446688
11	0xbe198c72	-0.14994982
12	0x3cfecec2	0.03110445
13	0xbd25af11	-0.04045016
14	0xbd215d88	-0.03939584
15	0xbdc6ba92	-0.09703554
16	0xbe1cdc03	-0.15318303
17	0xbc7ee18e	-0.015556706
18	0xbe03ed7d	-0.12883563
19	0xbecf5bf2	-0.40499836
20	0xbf33eaa0	-0.70279884
21	0xbd277481	-0.04088259
22	0x38f22522	0.00011546376
23	0xbe284567	-0.16432725
24	0xbe1cd8b2	-0.15317038
25	0xbdd6c5de	-0.10486959
26	0xbe6db684	-0.23214155
27	0xbe1415ea	-0.14461485
28	0xbe2f99b2	-0.17148474
29	0xbe83cea4	-0.25743592
30	0xbe180d30	-0.1484878
31	0xbe39c48d	-0.18141384
32	0xbe431154	-0.19049579
33	0xbe193427	-0.14961301
34	0xbe00eaf9	-0.12589635
35	0x3d37f870	0.044914663
36	0xbe0ce859	-0.13760509
37	0xbe4b4de6	-0.19853935
38	0xbdec88fe	-0.11549567
39	0xbe9716f6	-0.29509705
40	0xbd12247a	-0.035679318
41	0xbe65c913	-0.22439985
42	0x3d362896	0.0444723
43	0xbe8b2fb5	-0.27184835
44	0xbdbba3c6	-0.09162097
45	0xbe2fd923	-0.17172675
46	0xbdd8863a	-0.10572477
47	0xbe0ba3cd	-0.13636704
48	0xbdaa324a	-0.08310373
49	0x3c9d2e5e	0.019187149
50	0xbc7efd9f	-0.015563398
51	0xbdf4d64a	-0.11954935
52	0xbc42125e	-0.011845199
53	0xbcc3d342	-0.023904447
54	0xbf1440b7	-0.57911247
55	0xbdbb0967	-0.09132653
56	0xbe09b43d	-0.13447662
57	0xbe79717d	-0.24359699
58	0xbed5509f	-0.41663072
59	0xbed1ca55	-0.4097468
60	0xbda8139a	-0.08206864
61	0xbe356785	-0.17715271
62	0xbc9f0b44	-0.019414552
63	0xbdfedc00	-0.124443054
64	0xbeb35b1a	-0.35030442
65	0xbdb5a551	-0.08869422
66	0xbe1b4550	-0.1516316
67	0xbe034730	-0.12820125
68	0xbef009e5	-0.4688255
69	0xbd9f8459	-0.07788915
70	0xbd9beb7d	-0.07613275
71	0xbe98af17	-0.29821083
72	0xbe678dfe	-0.2261276
73	0xbd1a71e0	-0.037706256
74	0xbda7f9ff	-0.0820198
75	0x3cf8b354	0.030358948
76	0xbef33276	-0.47499436
77	0xbcffd807	-0.03123094
78	0xbd8ba19e	-0.068179354
79	0xbe169ad8	-0.14707506
80	0x3d9f4885	0.07777504
81	0xbd8287dc	-0.06373569
82	0x3d750688	0.05982068
83	0xbe23d22b	-0.15998141
84	0x3cf35450	0.02970329
85	0x3ce659b2	0.028118942
86	0xbda150bc	-0.07876727
87	0xbe59a1dd	-0.21253152
88	0xbee4429d	-0.44582072
89	0xbec79d20	-0.38987064
90	0xbe672ff6	-0.2257689
91	0x3d0a6369	0.03378621
92	0xbda46f7d	-0.08029077
93	0xbe509d65	-0.20372541
94	0xbe8e5d05	-0.27805343
95	0xbd1f6e93	-0.03892381
96	0xbe6566ae	-0.2240245
97	0xbea88238	-0.3291185
98	0xbe55932c	-0.20856923
99	0xbdf4b846	-0.1194921
100	0xbe59a3d6	-0.21253905
101	0x3c551553	0.013005572
102	0x3d49a713	0.0492316
103	0x3d81001b	0.06298848
104	0xbe202333	-0.15638427
105	0xbdb7c7d9	-0.08973665
106	0x3d5c94f6	0.053852998
107	0xbdc5dbd8	-0.096610725
108	0xbe67b6e4	-0.22628361
109	0xbe8a2895	-0.26984087
110	0xbcd1371d	-0.025538975
111	0xbe33ee45	-0.17571361
112	0x3d233d54	0.03985341
113	0xbe5efbfd	-0.21775813
114	0xbcb9935e	-0.022653278
115	0xbe06df58	-0.13171136
116	0xbd948b8b	-0.07253178
117	0x3bd300f6	0.0064393235
118	0xbe940eaf	-0.28917453
119	0xbe620729	-0.22073044
120	0xbd970092	-0.07373156
121	0xbc6515b7	-0.013982228
122	0xbe6e15fd	-0.23250575
123	0xbe92d0a1	-0.28674796
124	0xbe0c1d5f	-0.13683079
125	0xbed0c538	-0.40775466
126	0x3d0701aa	0.03296057
127	0xbe231d3c	-0.15929121
128	0xbd862c86	-0.06551461
129	0xbd8dfdf7	-0.069332056
130	0xbde35e9e	-0.11102031
131	0x3d3033c9	0.043018136
132	0xbe2c01d7	-0.16797577
133	0xbe07b8a8	-0.13254035
134	0xbe16149e	-0.14656302
135	0xbaa21634	-0.0012366236
136	0xbe7507b4	-0.2392872
137	0xbdad6041	-0.084656246
138	0xbc4cb8ce	-0.012495233
139	0xbe7919f2	-0.24326304
140	0x3a4691ab	0.0007574807
141	0xbd5f5aed	-0.054530073
142	0xbe527f20	-0.20556307
143	0xbe6eb727	-0.23312055
144	0xbe0414ba	-0.12898532
145	0xbdd43460	-0.10361552
146	0xbe6380c0	-0.22217083
147	0xbd4c9c83	-0.04995395
148	0xbe22e782	-0.15908626
149	0xbe17dfea	-0.1483151
150	0x3ca0e136	0.019638639
151	0xbcd83026	-0.026390146
152	0xbe29a25e	-0.16565844
153	0x3d4e977a	0.050437428
154	0xbe94c660	-0.29057598
155	0xbf1ede83	-0.62058276
156	0xbe5013a6	-0.20319995
157	0xbd26e35b	-0.040744167
158	0xbe0a782a	-0.13522401
159	0xbe1cbc73	-0.15306263
160	0xbe3bfdc1	-0.18358518
161	0x3c895fd4	0.016769327
162	0xbd775f16	-0.060393415
163	0xbea09289	-0.31361797
164	0xbdd500d3	-0.10400548
165	0xbe909c91	-0.2824445
166	0x3d5bbecd	0.05364876
167	0x3c80fb76	0.015744906
168	0xbd194900	-0.037423134
169	0xbe2baaaf	-0.1676433
170	0xbe23001c	-0.1591801
171	0xbe40f1b5	-0.18842204
172	0xbdada46b	-0.08478626
173	0xbe22f153	-0.1591237
174	0xbdfcff06	-0.12353329
175	0xbe541ff5	-0.20715316
176	0xbdb96088	-0.09051615
177	0xbd8ad1f1	-0.067783244
178	0x3c8f17e7	0.017467452
179	0xbd55f203	-0.052232753
180	0xbe5d908a	-0.21637169
181	0xbed5a859	-0.41730002
182	0xbe26e032	-0.16296461
183	0xbe4d5d2e	-0.20055076
184	0xbe99307e	-0.2991981
185	0xbe2772d5	-0.16352399
186	0x3cc41774	0.023936965
187	0xbe17398a	-0.14768043
188	0xbd9f62f7	-0.07782548
189	0xbe075cd6	-0.13219008
190	0xbdc06ef8	-0.093961656
191	0xbe098713	-0.13430433
192	0xbe6e3a9c	-0.23264545
193	0x3c64d75b	0.01396736
194	0xbe512249	-0.20423235
195	0xbe89cc22	-0.26913553
196	0xbdd64eb7	-0.104642324
197	0xbeae835d	-0.34084597
198	0xbeafdd40	-0.34348488
199	0x3d089ae4	0.03335084
200	0xbdf73ac2	-0.12071754
201	0xbdf66a64	-0.12032011
202	0xbd46ee95	-0.048567373
203	0xbedde4b3	-0.43338546
204	0xbe0613a5	-0.13093431
205	0x3ddd3f0c	0.10803041
206	0xbdc1a1bd	-0.09454677
207	0xbd5e4e71	-0.054274026
208	0x3d937dd4	0.07201734
209	0xbe0c44d3	-0.1369813
210	0xbdadd6a5	-0.08488206
211	0x3c99d514	0.018778361
212	0xbed09260	-0.40736675
213	0xbe56d947	-0.20981322
214	0xbdf617de	-0.12016271
215	0xbe2694b0	-0.16267657
216	0xbf01360e	-0.50473106
217	0xbe6690d4	-0.22516185
218	0x3d8550a1	0.06509519
219	0xbe45f536	-0.19331822
220	0xbd9206b6	-0.07130186
221	0x3bf553da	0.0074868025
222	0xbe5ef0c0	-0.21771526
223	0x3c6dc895	0.0145131545
224	0xbbc59c0f	-0.0060305665
225	0xbe9c061f	-0.3047342
226	0x3c05fdb8	0.008178167
227	0xbdec1a65	-0.11528472
228	0xbd365c68	-0.04452172
229	0xbcc0c5a2	-0.023531739
230	0x3da74b5e	0.08168672
231	0xbe4dcea0	-0.20098352
232	0xbe2dfa74	-0.16990072
233	0xbe01d778	-0.12679851
234	0xbf039cef	-0.51411337
235	0xbeb623c9	-0.35574177
236	0xbddcc360	-0.10779452
237	0xbe32324e	-0.17402002
238	0xbd752f85	-0.05985977
239	0xba904e3a	-0.0011009641
240	0xbc1e76b9	-0.00967186
241	0x3c9a7125	0.01885278
242	0xbe5828d5	-0.21109326
243	0xbd55afad	-0.05216949
244	0x3d5e16a0	0.054220796
245	0xbdaab7f8	-0.083358705
246	0xbc99bb48	-0.01876606
247	0xbedca5de	-0.43095297
248	0xbe09bebe	-0.13451669
249	0xbf2b4de7	-0.66915745
250	0xbe149bfa	-0.14512625
251	0xbf065e3f	-0.5248756
252	0xbd831d02	-0.06402017
253	0xbe82b077	-0.25525257
254	0xbe1e4556	-0.15456137
255	0xbddd2ccb	-0.10799559

fc2.weight f4 [300, 400]
0	0x3e011279	0.12604703
1	0x3d9929ad	0.07478652
2	0x3d60e3ca	0.054904737
3	0xbd81ad28	-0.06331855
4	0x3da34652	0.07972397
5	0x3d84ed54	0.06490579
6	0x3ded5a7d	0.11589525
7	0x3e05f04b	0.13079946
8	0x3e4d8ef1	0.20074059
9	0xbccc8418	-0.024965331
10	0x3c2d015a	0.010559404
11	0xbd085ee5	-0.033293623
12	0xbe081a34	-0.13291246
13	0x3e2eff08	0.17089474
14	0x3e1fe47e	0.15614507
15	0x3d00e0f4	0.031464532
16	0x3c1e711f	0.009670525
17	0xbaa44bd3	-0.0012534804
18	0x3d90db13	0.07073035
19	0x3c83716e	0.016045298
20	0x3d7e49fe	0.062082283
21	0x3b5a827f	0.0033341942
22	0x3e0683b7	0.13136183
23	0xbd64c6c2	-0.055853613
24	0xbb7f3b1f	-0.003894515
25	0x3da9ab50	0.082846284
26	0xbc440d5a	-0.011966074
27	0xbc9dccc5	-0.01926268
28	0x3d34ef82	0.044173725
29	0x3cc8a54c	0.024492882
30	0x3e0ed9ec	0.13950318
31	0x3dc42259	0.09576864
32	0x3c0ee866	0.0087224
33	0x3df7390c	0.12071428
34	0x3d498dee	0.04920762
35	0x3c75e4e2	0.015008183
36	0x39c8784f	0.0003823661
37	0x3c80815e	0.015686687
38	0x3cde83ba	0.027162421
39	0xbd38f687	-0.04515698
40	0x3d189bd6	0.03725799
41	0x3db2f6bd	0.08738468
42	0x3de2d030	0.11074865
43	0x3dbbdeb3	0.09173336
44	0x3d48fb3c	0.04906772
45	0xbaa4da63	-0.0012577291
46	0x3d8222d0	0.06354296
47	0xbd184b51	-0.037181202
48	0xbdc06cf6	-0.09395783
49	0xbc6c6d8e	-0.014430417
50	0x3e2e4197	0.17017208
51	0xbc9d3ec4	-0.019194968
52	0xbcef8d21	-0.0292421
53	0x3e8f8612	0.28031975
54	0x3d15561a	0.036459066
55	0xbd156eee	-0.036482744
56	0x3d87ae4b	0.066250406
57	0xbd30d120	-0.043168187
58	0x3e14928c	0.14509028
59	0xbd2f4aa0	-0.042795777
60	0xbd0e4edd	-0.03474318
61	0x3d19ca2f	0.037546333
62	0xbdc3072f	-0.095228545
63	0x3dd70c6f	0.105004184
64	0x3db238c4	0.087022334
65	0xbd371af4	-0.04470344
66	0x3d6305c5	0.055425424
67	0x3c6b6642	0.014367642
68	0x3d7c8799	0.061652754
69	0x3cfaa1f7	0.030594809
70	0x3dfd928b	0.123814665
71	0x3da3b195	0.079928555
72	0x3d897f4c	0.06713733
73	0x3de8b55e	0.11362718
74	0x3c9f7cdc	0.019468717
75	0x3cb248f3	0.0217633
76	0x3e0b438d	0.13599987
77	0x3dd8980a	0.10575874
78	0x3defb0f1	0.11703671
79	0x3d7e3864	0.062065497
80	0x3d98303c	0.07431075
81	0x3e0f7d6a	0.14012685
82	0xbda8c50e	-0.0824071
83	0x3e3defcf	0.18548511
84	0xbcd7bfe4	-0.026336618
85	0x3decdb0f	0.115652196
86	0x3ddacbbc	0.106833905
87	0x3dd21f18	0.10259837
88	0x3c928ed2	0.017890368
89	0x3dabbead	0.08385978
90	0x3b8f706d	0.004377416
91	0xbd176adf	-0.036967155
92	0xbdc60afc	-0.09670064
93	0x3de1d1e7	0.11026364
94	0xbd17f8a8	-0.03710237
95	0xbd3c9a3a	-0.04604552
96	0x3b256fc3	0.0025243617
97	0x3dd31874	0.103073984
98	0x3df09c43	0.117485546
99	0x3d713b99	0.058894727
100	0xbce52de8	-0.027975991
101	0xbce01241	-0.027352454
102	0xbd5bbb12	-0.0536452
103	0x3e6c7018	0.23089635
104	0xbd3493f5	-0.044086415
105	0x3c9f9376	0.019479495
106	0xbc4e024b	-0.012573789
107	0x3d004dd3	0.03132422
108	0xbda2be46	-0.07946448
109	0x3d979721	0.074018724
110	0xbc4b6aad	-0.01241557
111	0xbd4f2637	-0.050573554
112	0x3d2780fa	0.040894486
113	0x3e04969c	0.12948078
114	0x3d34d70f	0.04415041
115	0xbdaad6a4	-0.08341721
116	0x3d7e4b16	0.062083326
117	0x3ca8c3f0	0.020601243
118	0x3d2c6780	0.042090893
119	0x3d32d5ce	0.04366093
120	0xbc8946ab	-0.01675733
121	0xbd26efaa	-0.040755905
122	0x3decb68e	0.11558257
123	0x3cfd19fd	0.030896181
124	0x3d5c92c1	0.053850893
125	0x3c90dc9e	0.017683323
126	0x3d4073e0	0.046985507
127	0x3dfec3c8	0.12439686
128	0x3dd99747	0.10624557
129	0x3dbaed4c	0.09127292
130	0x3db71a6b	0.08940586
131	0x3dbf1b07	0.09331327
132	0x3cff1d2a	0.031141836
133	0x3e3e583f	0.1858835
134	0xbda9568f	-0.08268463
135	0x3d4dbb47	0.05022743
136	0xbd8636b3	-0.06553402
137	0x3eecd2b8	0.46254516
138	0xbd4795a5	-0.048726697
139	0x3d1650eb	0.036698263
140	0x3e7a0c25	0.24418695
141	0xbc87b53f	-0.016565917
142	0x3de6a298	0.11261481
143	0xbc866933	-0.016407585
144	0x3decc572	0.11561097
145	0xbd51d16a	-0.051225103
146	0x3da6ba53	0.08141007
147	0x3dea8778	0.1145162
148	0x3d0bd1a7	0.034135487
149	0xbbdb568d	-0.0066936673
150	0x3d17edce	0.037092023
151	0xbd561fd1	-0.052276436
152	0xbc4f2b61	-0.01264462
153	0x3e3c8a68	0.18412173
154	0x3d267744	0.040641084
155	0x3cfb3d43	0.03066886
156	0x3cde4397	0.027131839
157	0x3d5cb64e	0.053884797
158	0x3db93f96	0.09045331
159	0x3d2101d8	0.0393084
160	0xbc336bc0	-0.010950983
161	0x3d70d30f	0.05879503
162	0xbd8bb333	-0.06821289
163	0x3d25a64e	0.040441804
164	0x3d5de424	0.05417265
165	0xbb9c4369	-0.004768778
166	0x3dcfe23e	0.10150574
167	0x3b309c71	0.0026948715
168	0xbca3fa7e	-0.020016905
169	0x3d8f0ad7	0.069844894
170	0x3d456526	0.048192166
171	0x3e033562	0.12813333
172	0x3d088f68	0.033339888
173	0x3b7dd493	0.003873144
174	0x3d00c4a7	0.031437542
175	0x3e1c96d3	0.1529191
176	0xbd817d4d	-0.06322727
177	0x3d29409e	0.04132139
178	0xbbf0640b	-0.007336145
179	0x3cca5411	0.02469829
180	0xbbe8c033	-0.00710299
181	0x3d1e5ae6	0.038660906
182	0x3ddbe45a	0.10736914
183	0x3dae1b9c	0.0850136
184	0xbc0d9b5c	-0.008642998
185	0x3d19b97f	0.03753042
186	0xbe7a40d3	-0.24438791
187	0x3d50daca	0.050989904
188	0x3e758dce	0.23979875
189	0x3c9c13e2	0.01905245
190	0xbd43359a	-0.04765854
191	0x3d880980	0.06642437
192	0x3d828e59	0.06374807
193	0x3d7eba2b	0.062189262
194	0xbd5e4d50	-0.05427295
195	0xbc77eb9c	-0.015131857
196	0xbc02b3ae	-0.007977409
197	0xbc1041d2	-0.008804755
198	0x3d54bb72	0.051936574
199	0xbe1a020e	-0.15039846
200	0x3de2d7c1	0.11076308
201	0x3d72d577	0.059285607
202	0x3ceefa50	0.029172093
203	0x3d7d9d85	0.0619178
204	0x3cad036c	0.021119796
205	0x3e8a79ff	0.270462
206	0x3dff8f21	0.124784715
207	0x3d7c46d5	0.06159099
208	0x3d646810	0.055763304
209	0x3c6fe71e	0.014642505
210	0x3c9a6513	0.018847024
211	0xbc43ad65	-0.011943196
212	0x3d9cb793	0.076522015
213	0x3d578d95	0.052625258
214	0x3d8caa9a	0.06868477
215	0x3d5713c2	0.052509077
216	0x3d1110b1	0.03541631
217	0x3d6bb353	0.057544064
218	0x3dc24939	0.09486622
219	0xbd6eca6b	-0.05829851
220	0x3eb392ef	0.3507304
221	0x3d863a39	0.06554074
222	0x3d469c62	0.048488982
223	0xbd179358	-0.037005752
224	0x3e1b9a5f	0.15195607
225	0x3cf20a30	0.029545873
226	0x3dc759f0	0.09733951
227	0xbd52e909	-0.05149177
228	0xbc92d772	-0.017924998
229	0x3dc82bc2	0.09773971
230	0x3d8ec07f	0.069703095
231	0x3b9bb7f9	0.004752156
232	0x3e0843fa	0.13307181
233	0x3d98ef5c	0.07467529
234	0x3dfe6eba	0.12423463
235	0xbd1513bf	-0.036395784
236	0x3ca46890	0.02006939
237	0x3d6e8e86	0.05824139
238	0x3d0a3bc2	0.033748396
239	0xbd4afcdb	-0.049557548
240	0xbb1d92f2	-0.0024043885
241	0x3ea5ee7d	0.32408515
242	0x3d1304a6	0.035893105
243	0x3ded7740	0.11595011
244	0xbd82e0b6	-0.063905165
245	0x3e1507c4	0.14553744
246	0x3dc2de50	0.09515059
247	0x3cd76b8f	0.026296405
248	0xbcb18add	-0.02167266
249	0x3db76e6d	0.08956609
250	0xbd83a164	-0.06427267
251	0x3df1112f	0.11770856
252	0x3d26e6dd	0.040747512
253	0xbc9e2baa	-0.01930793
254	0x3d7232ea	0.059130587
255	0x3df24203	0.11828997

fc2.bias f4 [300]
0	0x3c2ba6b5	0.010476758
1	0x3d7af893	0.061272215
2	0x3d4b8a2f	0.04969233
3	0x3dcb6b05	0.09932522
4	0x3c40f5ed	0.011777383
5	0x3d55ee30	0.052229106
6	0x3d1899e6	0.037256144
7	0x3c8c41ac	0.017121159
8	0x3da6bdff	0.08141708
9	0x3d0ee8f1	0.03489012
10	0x3cd8f10a	0.026482124
11	0x3dcb70d9	0.09933633
12	0x3d8b4115	0.06799523
13	0x3db0def4	0.08636275
14	0x3d834849	0.06410272
15	0x3d3c4930	0.045968235
16	0x3d11570a	0.035483398
17	0x3d3897c8	0.045066625
18	0x3d042df1	0.032270376
19	0x3c6368e6	0.01387999
20	0x3d0032ef	0.031298574
21	0x3c9e408b	0.019317886
22	0x3d8fab5b	0.07015105
23	0x3d7aab35	0.061198432
24	0x3da77a21	0.08177591
25	0x3c46e969	0.01214061
26	0x3d9724ec	0.07380089
27	0x3d9027c0	0.07038832
28	0x3d9afbe0	0.075675726
29	0x3ca971bf	0.020684121
30	0x3bb8d8b6	0.0056410683
31	0x3c9cbd35	0.01913319
32	0x3c23a03d	0.009986934
33	0x3d97aacb	0.07405623
34	0x3dbde146	0.09271483
35	0x3b899093	0.004198143
36	0x3db28ff6	0.087188646
37	0x3d3964ac	0.045262024
38	0x3d1b23cc	0.037875935
39	0x3c7337f9	0.014844888
40	0x3daca995	0.08430783
41	0x3d0af0f0	0.033921182
42	0x3ccf1dad	0.025282705
43	0x3c73468e	0.0148483645
44	0x3d42a707	0.04752257
45	0x3d0e8443	0.034794103
46	0x3da899a6	0.08232431
47	0x3cef0a91	0.029179843
48	0x3d476992	0.048684664
49	0x3d301bbf	0.04299521
50	0x3d0ae933	0.033913802
51	0xbc9d32dd	-0.019189293
52	0x3d2d93cd	0.042377282
53	0x3c63d8cc	0.013906669
54	0x3d8e96a4	0.06962326
55	0xbd3e7bec	-0.0465049
56	0x3d68a65e	0.056799285
57	0x3d49f906	0.049309753
58	0x3d4b407d	0.049622048
59	0x3d36b24b	0.044603627
60	0x3dd12cd0	0.102136254
61	0x3d7a74eb	0.061146658
62	0x3db53769	0.08848459
63	0x3c035b5b	0.008017386
64	0x3dc06287	0.093937926
65	0xbb8b2263	-0.0042460426
66	0x3c50f052	0.012752609
67	0x3dbd7f41	0.092527874
68	0x3d51528a	0.051104106
69	0x3d89c0a9	0.067262
70	0x3d196619	0.037450884
71	0xbaa5b174	-0.0012641386
72	0x3dd783d3	0.1052319
73	0x3d37a553	0.0448354
74	0x3d5357a0	0.051597238
75	0x3d15768a	0.03649
76	0xbc335999	-0.010946655
77	0x3d5ea71f	0.054358598
78	0x3dc398d4	0.09550634
79	0xbbeed31f	-0.007288351
80	0xbcae3fce	-0.021270659
81	0x3c92b096	0.017906468
82	0x3d831b69	0.064017124
83	0x3cbf9f78	0.02339147
84	0xbc0dacde	-0.008647172
85	0x3d5e3ce0	0.054257274
86	0x3d9b0e23	0.07571056
87	0x3d3b36c8	0.04570654
88	0x3d334c51	0.043773953
89	0x3c85e010	0.016342193
90	0x3c553b3b	0.01301461
91	0xbcb0edf6	-0.021597844
92	0x3d01941f	0.0316354
93	0x3d8adce2	0.06780411
94	0x3d9322b7	0.07184356
95	0x3da84a8f	0.08217346
96	0x3cdb1d4e	0.026747372
97	0x3d454bdd	0.048168052
98	0x3d7349d0	0.059396565
99	0x3c0a6e32	0.008449124
100	0x3d8531ce	0.0650364
101	0x3d3c22ab	0.0459315
102	0x3df2ee2a	0.118618324
103	0x3da187d1	0.07887233
104	0xbcc8fae1	-0.02453369
105	0x3dccaa5d	0.09993432
106	0x3d1e003e	0.03857445
107	0x3d8cf2c0	0.068822384
108	0x3d826c53	0.063683175
109	0x3d89da20	0.06731057
110	0x3d5c4747	0.053778913
111	0x3c85272c	0.01625403
112	0x3dc405dc	0.0957143
113	0x3d410a47	0.047128942
114	0x3d3aebe6	0.045635127
115	0x3dbbba84	0.091664344
116	0x3d2bd6ab	0.04195277
117	0x3dddb5fa	0.10825725
118	0x3dbb2458	0.091377914
119	0x3c9d21cd	0.019181157
120	0x3cf6d439	0.030130493
121	0x3d794ed9	0.06086621
122	0x3cea7a28	0.028622702
123	0x3d1c367e	0.038137905
124	0x3daaf2f5	0.083471216
125	0x3d166db5	0.03672572
126	0xbbe10aae	-0.006867728
127	0x3d822bc9	0.063560076
128	0x3d35bd8f	0.04437023
129	0x3d1e7b76	0.03869196
130	0x3c8a2a2f	0.016865818
131	0x3db71fdc	0.089416236
132	0x3dbd6cd2	0.092492715
133	0x3d4cd09f	0.050003644
134	0x3dc8e880	0.09809971
135	0x3daf308b	0.08554181
136	0x3d8c0c8d	0.06838331
137	0x3da276a0	0.07932782
138	0xbcdedd08	-0.027205005
139	0x3ccaeba2	0.024770562
140	0xbcd1f822	-0.025631014
141	0x3d7ebfbb	0.062194567
142	0x3c9389ed	0.018010104
143	0x3c8e73ae	0.017389145
144	0x3d044c43	0.03229929
145	0x3d9d0d99	0.07668609
146	0x3d8ca3bf	0.068671696
147	0x3d906b76	0.070517465
148	0x3d7ceb0e	0.061747603
149	0x3d596ffe	0.05308532
150	0x3d201634	0.039083675
151	0x3d788ad5	0.060679276
152	0x3cae5fb7	0.021285875
153	0x3d7f068c	0.062262103
154	0x3d9f7539	0.0778603
155	0x3d9b7a84	0.075917274
156	0x3d5469d1	0.051858727
157	0x3b8aeee7	0.004239905
158	0x3dd993e0	0.10623908
159	0x3d11cf9f	0.035598394
160	0x3d18fe68	0.037351996
161	0x3ca53c5d	0.020170385
162	0x3b99d897	0.004695009
163	0x3ca87cc4	0.020567305
164	0x3d73e537	0.05954477
165	0x3cf5859e	0.02997094
166	0x3c9dab4d	0.019246722
167	0x3d299a88	0.041407138
168	0x3cf216c3	0.02955187
169	0xbc747cef	-0.014922365
170	0x3ccae729	0.024768429
171	0xbbe73539	-0.007055905
172	0x3d6f7f0d	0.058470774
173	0x3ca9fab5	0.02074943
174	0x3cc6863b	0.024233928
175	0x3db07382	0.08615781
176	0x3d908928	0.070574105
177	0x3d83a451	0.06427825
178	0x3d727b1d	0.05919944
179	0x3d2cc849	0.042183194
180	0x3da2888f	0.07936203
181	0x3d5e88ac	0.05432956
182	0x3d32d85c	0.043663368
183	0x3dca55e4	0.098796636
184	0x3d878cb5	0.066186346
185	0x3d5d1c6c	0.053982183
186	0x3d098d66	0.033582114
187	0xbcde43c5	-0.027131924
188	0xbc074e4b	-0.008258413
189	0x3dd24b82	0.10268308
190	0x3c828533	0.015932655
191	0x3d62cadb	0.05536924
192	0x3d6bd952	0.0575803
193	0x3d1b331d	0.037890542
194	0x3da742a2	0.08167006
195	0xbc7978aa	-0.015226522
196	0x3d809b14	0.06279579
197	0x3d91ddf1	0.0712241
198	0x3db1a520	0.08674073
199	0x3b368b1f	0.0027853919
200	0x3d1ce2e4	0.038302317
201	0x3d57d05c	0.05268894
202	0x3cbf59da	0.023358274
203	0x39a55120	0.00031531695
204	0x3cc4aacc	0.024007224
205	0x3d840b2a	0.06447442
206	0x3d933e25	0.071895875
207	0x3dc02e71	0.09383858
208	0x3d6dee6d	0.05808871
209	0x3da118b5	0.078660406
210	0x3d912f54	0.07089105
211	0x3da6fd3c	0.081537694
212	0x3d23a671	0.039953653
213	0x3d97d9e5	0.07414607
214	0x3ca53909	0.020168798
215	0x3de6f70c	0.11277589
216	0x3d0da74d	0.03458338
217	0x3dc27111	0.09494222
218	0x3d0b2e65	0.033979792
219	0x3d319f2b	0.043364685
220	0x3d5198ba	0.051171042
221	0x3d2018cc	0.03908615
222	0xbd67afe1	-0.056564216
223	0xbcf96320	-0.030442774
224	0x3d81219d	0.06305239
225	0x3db0cdbd	0.086329915
226	0x3ca2e7d4	0.019885935
227	0x3d096f6e	0.033553533
228	0x3d8b7033	0.0680851
229	0x3cb42802	0.021991733
230	0x3d8e9765	0.0696247
231	0x3ce893c4	0.028390773
232	0x3d2a5da5	0.041593213
233	0x3d3e19a2	0.046411164
234	0x3d03d18e	0.03218227
235	0x3ccd6fc1	0.025077702
236	0x3d80aeba	0.062833264
237	0x3dba19ab	0.09086927
238	0x3db3ae59	0.087734886
239	0x3dc16241	0.094425686
240	0x3d6da794	0.058021143
241	0x3d4b9788	0.04970506
242	0x3d979131	0.0740074
243	0x3d760f30	0.060073078
244	0x3d9dc7b5	0.07704107
245	0x3d9de6d7	0.07710045
246	0x3d208eb7	0.039198603
247	0x3d154b1d	0.036448587
248	0x3d734eb9	0.059401248
249	0x3ba9d240	0.0051825345
250	0x3d5f706a	0.054550566
251	0xbd0763f2	-0.0330543
252	0x3cd7ff44	0.026366837
253	0x3dde5cff	0.10857581
254	0x3da0e643	0.07856419
255	0x3d9ec076	0.07751553

ln2.weight f4 [300]
0	0x3f9a7f5f	1.207012
1	0x3f8bcf7a	1.0922692
2	0x3f0aadac	0.5417125
3	0x3ea5727c	0.32313907
4	0x3f4a8164	0.79103684
5	0x3f9517e4	1.1647916
6	0x3faa1a14	1.3289208
7	0x3f436128	0.76320124
8	0x3f96b076	1.1772602
9	0x3f081d63	0.5316984
10	0x3f8f248a	1.1183026
11	0x3ef0d5d7	0.47038147
12	0x3f863b13	1.0486778
13	0x3ef8b271	0.4857364
14	0x3f835dd5	1.026301
15	0x3f2e3dfa	0.6806332
16	0x3ed41890	0.4142499
17	0x3f72449a	0.9463593
18	0x3ee700ba	0.45117742
19	0x3fbd05d7	1.4767407
20	0x3ee826d9	0.45342138
21	0x3f8ad2a1	1.0845529
22	0x3ecb5303	0.3971177
23	0x3f156369	0.5835481
24	0x3fbb00a7	1.4609574
25	0x3ecf1bc9	0.40450886
26	0x3ef9ae9f	0.48766038
27	0x3f1580fb	0.58399934
28	0x3f73d3fa	0.95245326
29	0x3ed69d8f	0.41917083
30	0x3f116d99	0.5680786
31	0x4008ed43	2.1394813
32	0x3f6fa7a2	0.9361516
33	0x3f96cf98	1.1782103
34	0x3f02782e	0.5096463
35	0x3f87c2d0	1.0606327
36	0x3f6e3c8e	0.9306115
37	0x3fb2ce8f	1.3969287
38	0x3fd5cad7	1.6702527
39	0x3fb8920e	1.4419572
40	0x3eddc745	0.43316093
41	0x3ea52aae	0.32259125
42	0x3f8774ab	1.0582479
43	0x3ede6fea	0.4344476
44	0x3fab1a17	1.3367337
45	0x3ecf895b	0.4053448
46	0x3ecf9db4	0.40550005
47	0x3fa272a0	1.2691231
48	0x3ec4eff0	0.38464308
49	0x3f1c33c7	0.61016506
50	0x3f15e7de	0.58556926
51	0x3f8e3be7	1.1112031
52	0x3f924d69	1.1429874
53	0x3f1225e3	0.5708906
54	0x3f7b721a	0.9822098
55	0x40075009	2.11426
56	0x3ec8cb48	0.3921759
57	0x40011d38	2.0174084
58	0x3ec1e055	0.37866464
59	0x3fa20976	1.2659137
60	0x3ef31870	0.47479582
61	0x3f1af57d	0.60530835
62	0x3ed3c9e2	0.41364962
63	0x3fc0a9bb	1.5051798
64	0x3eb6335d	0.35586062
65	0x3f89c0fe	1.0762022
66	0x40212159	2.5176604
67	0x3f4e838b	0.8066947
68	0x3f998f4c	1.1996856
69	0x3eeb51ce	0.4596085
70	0x3f91574b	1.1354765
71	0x3f8f1f44	1.1181417
72	0x3f28a37f	0.65874475
73	0x3fb67953	1.4255775
74	0x3f4d30d3	0.80152625
75	0x3efb7de3	0.4911948
76	0x3faa2d40	1.3295059
77	0x3f80cc4a	1.0062344
78	0x3ee8037a	0.45315152
79	0x4002985e	2.0405498
80	0x3fe589d7	1.793269
81	0x3f70480d	0.9385994
82	0x3ed58e68	0.4171021
83	0x3f8b4b6f	1.0882396
84	0x3f4b6307	0.7944798
85	0x3fb77b34	1.4334474
86	0x3fa7efd1	1.3120061
87	0x3f906d3d	1.1283337
88	0x3f9c93a7	1.223256
89	0x404608f7	3.0942972
90	0x3f8ff994	1.124804
91	0x3fbf25be	1.4933393
92	0x3eb811dd	0.3595113
93	0x3f56e2af	0.8393964
94	0x3f3adb3f	0.72990793
95	0x3f87da1b	1.0613436
96	0x3f993e86	1.1972206
97	0x3ed27fbe	0.41113085
98	0x3eb321b6	0.34986657
99	0x3fb151f1	1.3853132
100	0x3f94a11d	1.1611668
101	0x3f8d26a0	1.1027412
102	0x3ee5c925	0.44880024
103	0x3ecc6e8d	0.39928094
104	0x3ff5cb23	1.9202617
105	0x3f050f8f	0.51976866
106	0x3f883b1d	1.064304
107	0x3f3a8925	0.72865516
108	0x3f34d307	0.706345
109	0x3ed6eace	0.41976017
110	0x3eb1f130	0.34754324
111	0x3fb3634e	1.401468
112	0x3f1c7e7c	0.611305
113	0x3fb7f3d0	1.4371281
114	0x3f831242	1.0239947
115	0x3ec8576d	0.391292
116	0x3efe4b58	0.49666858
117	0x3ef3b19f	0.47596452
118	0x3f2d7541	0.6775704
119	0x3fb0ca1f	1.3811682
120	0x3ff21422	1.8912394
121	0x3f96666b	1.1750005
122	0x3fb5af21	1.419407
123	0x3ee7c274	0.45265543
124	0x3f9c64a6	1.2218215
125	0x3ec6a043	0.38794145
126	0x4063c207	3.5587175
127	0x3fed6c2e	1.8548639
128	0x3ebb018e	0.36524624
129	0x3f889273	1.0669693
130	0x3f5a53da	0.852842
131	0x3f9142c3	1.1348499
132	0x3f2fc721	0.6866322
133	0x3f4b633f	0.7944831
134	0x3ecef333	0.4041992
135	0x3eedaced	0.46420994
136	0x3f8f999a	1.121875
137	0x3f820f97	1.0161008
138	0x3f9fc269	1.2481204
139	0x3f27ebcb	0.65594167
140	0x3fc36f17	1.5268277
141	0x3ed19e74	0.40941203
142	0x3f4a4710	0.7901468
143	0x3e8328c0	0.25617027
144	0x3f9195a0	1.1373787
145	0x3ec97d85	0.39353576
146	0x3fa9d590	1.3268299
147	0x3ec39203	0.38197336
148	0x3f1c1bba	0.6097981
149	0x3f87d74a	1.0612576
150	0x3ee1471b	0.43999562
151	0x3f6f631e	0.93510616
152	0x3f9637f5	1.1735827
153	0x3eac14ab	0.33609518
154	0x3f8e4b11	1.1116658
155	0x3ea322b6	0.3186242
156	0x3fa97131	1.3237668
157	0x3fab82a2	1.3399241
158	0x3ea8d58a	0.32975417
159	0x3eeb5770	0.45965147
160	0x3f90f485	1.1324621
161	0x3ec51739	0.3849428
162	0x3f9610d8	1.172389
163	0x3ecd6114	0.40113127
164	0x3fbfde1d	1.4989659
165	0x3f9ec6b1	1.2404386
166	0x3f1878fd	0.59559613
167	0x3ef48a6c	0.47761858
168	0x3f8046ae	1.002157
169	0x3fad6c57	1.3548688
170	0x3f947a94	1.1599908
171	0x3f973261	1.181225
172	0x3f0d3d1f	0.5517139
173	0x3ff6ba13	1.9275535
174	0x3f82fd68	1.0233583
175	0x3ece090e	0.40241283
176	0x3f28511b	0.6574876
177	0x3ecd7cc2	0.40134245
178	0x400cb9c8	2.1988392
179	0x3ef32842	0.47491652
180	0x3eaa12e0	0.33217525
181	0x3f9508a6	1.1643264
182	0x3fc19b34	1.5125489
183	0x3f502af8	0.81315565
184	0x3eb1afe3	0.34704503
185	0x3f03cdd3	0.5148594
186	0x3f877833	1.0583557
187	0x3ff73290	1.9312305
188	0x3f70f587	0.94124645
189	0x3ebf5bef	0.37374827
190	0x3f986fed	1.1909157
191	0x3ecf4bc6	0.40487498
192	0x3f04f70b	0.5193946
193	0x3fa16d43	1.2611469
194	0x3f8e2584	1.1105199
195	0x3fc0e15a	1.5068772
196	0x3eea8f20	0.4581232
197	0x3ef04ff2	0.46935993
198	0x3ebd0be0	0.36923122
199	0x3f79ddfb	0.9760434
200	0x3f2bcc67	0.6710877
201	0x3f850e52	1.0394995
202	0x3fe7f892	1.8122733
203	0x3f94ff6d	1.164045
204	0x3f7709b2	0.9649917
205	0x3ea815df	0.32829186
206	0x3f207bdc	0.62688994
207	0x3eb9a625	0.3625957
208	0x3ea40535	0.32035223
209	0x3f865410	1.0494404
210	0x3ee67062	0.45007616
211	0x3f0dab3d	0.55339414
212	0x3f8b9ee9	1.090787
213	0x3efe3498	0.496495
214	0x3ec29cdf	0.38010308
215	0x3efa99a6	0.4894535
216	0x3edbc84c	0.42926252
217	0x3f6623a6	0.89898145
218	0x3fbe037b	1.4844812
219	0x3ed6c9a5	0.41950718
220	0x3f914289	1.134843
221	0x3f8a7aad	1.0818688
222	0x3fc5cada	1.545253
223	0x3f95c854	1.170176
224	0x3f078e07	0.5295109
225	0x3f0d9386	0.5530323
226	0x3fb5c53d	1.4200817
227	0x3eb55403	0.35415658
228	0x3f75b3f9	0.9597774
229	0x3eff21a9	0.49830368
230	0x3f50e0b7	0.8159289
231	0x3ec59501	0.38590243
232	0x3eb00ce2	0.3438483
233	0x3f1de643	0.61679476
234	0x3edd62b4	0.43239367
235	0x3f64823e	0.89261234
236	0x3f128e46	0.5724834
237	0x3f2079d0	0.6268587
238	0x3ee4cd7e	0.44688028
239	0x3f574adb	0.84098595
240	0x3f28ff33	0.66014403
241	0x3f2a9e09	0.6664739
242	0x3f8e9108	1.113801
243	0x3f94ae14	1.1615624
244	0x3e8ea72d	0.2786192
245	0x3ea8b33c	0.32949245
246	0x3f859b2f	1.0437983
247	0x3f6edd75	0.93306667
248	0x3ec04c98	0.37558436
249	0x3f8829c3	1.0637745
250	0x3f24df4b	0.6440322
251	0x3fd913c8	1.6959162
252	0x3f5820b9	0.8442493
253	0x3f2eead9	0.683271
254	0x3fa90d3c	1.3207164
255	0x3f6b40ff	0.9189605
