DDPG/models/actor_eps120_veh100_3e-2_8e-2_6e-2_gpu_Y.pth (torch, 505665 bytes, 11 tensors)

ln0.weight f4 [8]
1.1033689 0.8938289 1.1353749 1.0150346 0.4288961 0.55681306 1.1305354 0.99918735
00000000: 313b 8d3f f9d1 643f f753 913f a7ec 813f
00000010: 4598 db3e 4d8b 0e3f 62b5 903f beca 7f3f

ln0.bias f4 [8]
0.052864943 0.113796145 0.004505841 0.11425046 -0.33581403 -0.23722358 -0.016806543 0.1507334
00000000: e988 583d f40d e93d bca5 933b 25fc e93d
00000010: d1ef abbe bdea 72be e0ad 89bc db59 1a3e

fc1.weight f4 [400, 8]
0.01902285 0.052836265 -0.14062554 -0.026497213 0.04360937 0.0366278 0.03655614 0.036400948
-0.031373862 -0.11683382 -0.0026029267 -0.047565892 0.11853143 0.037474234 -0.22416128 0.053943004
0.12969115 0.013188139 -0.06412756 -0.06615124 0.023503099 0.012766476 -0.08760563 -0.020322809
-0.022504278 -0.119345695 0.001738707 -0.146021 0.0061777015 0.05689299 -0.2297062 0.004149436
0.073321514 -0.027587561 0.050932538 -0.044348568 0.029669393 0.009067232 -0.16474092 0.04155807
-0.02065972 0.066882394 0.10278147 0.041307233 0.013529815 -0.006368806 -0.09616207 -0.0009372441
-0.0077093723 -0.027716914 -0.022357382 -0.14696702 0.05229611 0.043479275 -0.24822584 0.07901298
-0.021240221 -0.16159827 -0.14649203 -0.058361117 0.03260141 0.12184396 -0.015941087 -0.0020045505
0.07271563 -0.06115039 0.061105445 0.111572675 -0.011503814 -0.038374487 -0.040374175 0.05821458
-0.083478466 -0.088563204 -0.15196888 0.16446592 0.020766668 0.017599063 0.0018529736 -0.062645875
-0.11456158 -0.0775153 0.05401405 0.008755124 0.035140164 0.07031007 -0.03468461 -0.13468936
-0.090247974 -0.07302618 -0.09669865 -0.019758789 0.028335085 0.031881865 0.06977182 0.029270466
0.06612986 -0.16951731 -0.064226784 -0.057574213 0.07752229 0.034761403 -0.13670474 0.07686226
-0.1348932 -0.2114107 0.033088844 -0.044653516 -0.035311867 0.076687306 -0.03259166 0.025695086
0.040364377 -0.09118748 -0.06131594 0.07504329 0.060533445 0.068979 -0.057072453 -0.14485775
-0.091445595 -0.055231802 0.0054738177 -0.051251903 0.0738246 0.0465137 -0.13594076 0.13317245
0.19025138 0.035362262 0.10444529 -0.037917554 0.0032351622 -0.0071358145 0.040216144 -0.034271743
-0.085970856 0.0006038656 -0.05475868 0.05048147 -0.025643742 -0.027962204 0.12627411 -0.003547251
0.00031150025 0.062244717 -0.093635924 0.052455686 0.015146519 -0.007350033 0.12656851 -0.023811346
-0.023442335 -0.006754027 -0.11346415 -0.023772627 0.0057126773 0.0055973157 0.09950199 0.019882444
0.057847265 0.0448966 -0.03482615 0.050005957 -0.035318203 -0.037887126 0.13780873 -0.009778229
-0.052694123 0.074365385 -0.0063941977 0.08101886 0.02763924 0.040531714 -0.03299664 0.0033845454
0.023975898 -0.026657201 -0.14825138 -0.045815665 0.06162291 0.111814976 -0.071689285 0.04370939
0.032269683 0.026894437 -0.13515031 -0.15838368 -0.009032126 0.10666314 -0.18430996 -0.004676922
0.037148546 -0.08402261 -0.19355002 -0.036060188 0.024497021 0.061790172 0.005209456 0.023122886
-0.045158546 0.021091735 0.07767877 -0.1180781 0.021394178 0.06821743 -0.17142552 0.00012541785
-0.036018252 -0.16102603 -0.058820568 -0.06404075 0.0069097057 0.059897695 -0.1919164 0.056984797
0.01808166 0.06778997 0.14458002 0.05702325 2.223897e-05 -0.058140878 -0.1117676 0.03347429
-0.0041479506 0.038100105 -0.055652186 0.041895803 -0.0003599896 -0.0040344214 0.120023824 -0.05404968
0.09253526 0.01133546 -0.11291424 0.004328132 0.019968256 -0.0314316 0.088562585 0.06285159
0.053011674 0.06630541 0.00060735014 -0.023967285 -0.0031279062 0.0022095358 -0.14514942 -0.030445188
0.02712652 0.01035014 0.11956144 -0.027498465 0.009263894 -0.04060968 -0.07727987 0.096600905
00000000: cfd5 9b3c d76a 583d 2400 10be af10 d9bc
00000010: bd9f 323d 0807 163d e4bb 153d 2919 153d
00000020: e181 00bd 9246 efbd dd95 2abb 74d4 42bd
00000030: 9bc0 f23d 957e 193d 898a 65be 57f3 5c3d
00000040: c2cd 043e 1013 583c 4f55 83bd 4d7a 87bd
00000050: 9289 c03c 7b2a 513c 956a b3bd 057c a6bc
00000060: e45a b8bc 846b f4bd 53e5 e33a 8786 15be
00000070: 516e ca3b a008 693d 1a38 6bbe fef7 873b
00000080: 9729 963d 4fff e1bc a39e 503d d8a6 35bd
00000090: 3a0d f33c ba8e 143c d8b1 28be cb38 2a3d
000000a0: 933e a9bc a3f9 883d 177f d23d c631 293d
000000b0: 28ac 5d3c 6bb1 d0bb 9ff0 c4bd 63b1 75ba
000000c0: e79e fcbb 950e e3bc d426 b7bc 867e 16be
000000d0: 7234 563d 5317 323d ea2e 7ebe 8fd1 a13d
000000e0: f9ff adbc 047a 25be 0202 16be 110c 6fbd
000000f0: 0e89 053d 5389 f93d e296 82bc c75e 03bb
00000100: efeb 943d d578 7abd b449 7a3d 3780 e43d
00000110: 7e7a 3cbc 912e 1dbd 645f 25bd 6972 6e3d
00000120: c2f6 aabd a060 b5bd bb9d 1bbe c169 283e
00000130: dc1e aa3c e92b 903c 7adf f23a 7b4c 80bd
00000140: 439f eabd 57c0 9ebd d63d 5d3d a771 0f3c
00000150: 22ef 0f3d bafe 8f3d 7311 0ebd 02ec 09be
00000160: eed3 b8bd c08e 95bd f109 c6bd 2fdd a1bc
00000170: fb1e e83c 8f96 023d 87e4 8e3d 9ec8 ef3c
00000180: 186f 873d f295 2dbe 5589 83bd f0d2 6bbd
00000190: 02c4 9e3d f961 0e3d 54fc 0bbe f669 9d3d
000001a0: 7121 0abe 0c7c 58be 2b88 073d 9be6 36bd
000001b0: 2da3 10bd 3c0e 9d3d d57e 05bd 807e d23c
000001c0: 1e55 253d 80c0 babd 6c26 7bbd 4cb0 993d
000001d0: ebf1 773d dd44 8d3d cec4 69bd 9755 14be
000001e0: d447 bbbd be3a 62bd b65d b33b 84ed 51bd
000001f0: 5a31 973d 2685 3e3d 0e34 0bbe 5c5e 083e
00000200: 42d1 423e 05d8 103d 6ae7 d53d 704f 1bbd
00000210: 0405 543b 8dd3 e9bb afb9 243d 8760 0cbd
00000220: 7d11 b0bd bc4c 1e3a a34a 60bd a8c5 4e3d
00000230: d312 d2bc fe10 e5bc 004e 013e ff78 68bb
00000240: db50 a339 51f4 7e3d 31c4 bfbd c6db 563d
00000250: 1b29 783c 8cd8 f0bb 2d9b 013e 0310 c3bc
00000260: 240a c0bc e350 ddbb e45f e8bd d0be c2bc
00000270: 6931 bb3b b069 b73b b3c7 cb3d 82e0 a23c
00000280: 41f1 6c3d 7fe5 373d dda5 0ebd 0cd3 4c3d
00000290: d2a9 10bd 882f 1bbd bb1d 0d3e dd34 20bc
000002a0: cbd5 57bd e14c 983d 6b86 d1bb 37ed a53d
000002b0: b06b e23c 9504 263d 7c27 07bd 40cf 5d3b
000002c0: 1a69 c43c 3460 dabc 36cf 17be 35a9 3bbd
000002d0: 4e68 7c3d 40ff e43d d5d1 92bd 9e08 333d
000002e0: 372d 043d b951 dc3c d864 0abe 552f 22be
000002f0: 7bfb 13bc 3472 da3d c0bb 3cbe de40 99bb
00000300: 1329 183d 0c14 acbd fa31 46be d9b3 13bd
00000310: faad c83c b117 7d3d 16b4 aa3b 356c bd3c
00000320: 2bf8 38bd 93c8 ac3c 0c16 9f3d eed2 f1bd
00000330: d842 af3c 94b5 8b3d 2c8a 2fbe 9982 0339
00000340: e087 13bd 02e4 24be d6ed 70bd cc27 83bd
00000350: d06a e23b 4957 753d bc85 44be e468 693d
00000360: fd1f 943c 78d5 8a3d c90c 143e 3691 693d
00000370: d38d ba37 2125 6ebd 69e6 e4bd 561c 093d
00000380: 88eb 87bb db0e 1c3d 8cf3 63bd ef9a 2b3d
00000390: fcbc bcb9 2e33 84bb 0dcf f53d 3263 5dbd
000003a0: 2083 bd3d 5db8 393c 953f e7bd 01d3 8d3b
000003b0: 7894 a33c 6cbe 00bd 4d60 b53d 56b8 803d
000003c0: c522 593d 21cb 873d 9436 1f3a 0a57 c4bc
000003d0: 8ffd 4cbb dccd 103b 0da2 14be 3068 f9bc
000003e0: 7038 de3c a293 293c a1dc f43d 7644 e1bc
000003f0: 96c7 173c 5656 26bd e944 9ebd b2d6 c53d

fc1.bias f4 [400]
0.036826327 -0.18877566 0.07083094 -0.19659345 0.038624384 0.15800597 -0.19693403 -0.21496543
0.12961511 -0.052615292 -0.08068477 -0.022299824 -0.11441613 -0.1395559 -0.084583454 -0.16729556
0.22556238 0.12602137 0.15929754 0.08572782 0.25190237 0.054323073 -0.13975637 -0.23268946
-0.09574633 -0.08072649 -0.22068754 0.25463542 0.1823468 0.2079452 0.065552846 0.16274486
-0.08401422 0.18020387 -0.14848094 -0.04289354 0.22578675 -0.09410118 0.18853673 -0.1700925
0.0240322 0.18286414 0.029116252 0.21261919 -0.050345823 -0.22411394 -0.0044535324 -0.21421324
0.1052092 -0.057805188 -0.1047114 0.21618158 0.077323355 -0.11437315 0.24457853 0.1432774
-0.23538423 0.10176748 0.2509489 0.26120383 -0.17557317 -0.15932421 0.0706171 -0.13555935
-0.13926953 -0.2130736 0.2673112 -0.1336661 0.22431402 0.12225311 0.0870258 0.23009905
-0.17949116 0.024289936 -0.0041377586 -0.17712882 0.16033438 -0.23249456 -0.1712014 0.13116062
-0.016890723 -0.17324878 -0.14443998 -0.15009646 -0.026437482 -0.0941506 0.040066376 -0.03884265
0.27889255 0.2539216 -0.14738451 -0.07116732 0.09142367 0.04182635 -0.18912032 0.16709831
0.26450557 0.08340191 0.12891556 -0.1619675 -0.20578994 0.054893214 -0.22864816 -0.14370853
-0.22639433 0.12790988 -0.12528016 0.15758905 -0.113250434 -0.07028573 0.07912714 -0.17611745
-0.0064143185 0.11926628 0.12389003 0.08798005 -0.13312414 0.07201555 -0.06367376 0.086387634
0.18405543 0.061472792 0.11338339 0.47406095 0.12238632 0.25023156 -0.14047702 0.05393181
-0.14660406 0.13938211 -0.012120751 -0.09788492 -0.09724227 -0.05043899 0.16454005 -0.1612461
-0.14634989 0.12234988 -0.07672873 0.25587958 -0.16571145 0.10376959 0.12987126 0.0838263
0.23590174 0.09658969 0.2661744 -0.040750057 -0.13643295 0.2387715 -0.0661125 -0.04253182
-0.19869836 -0.17744783 -0.23000498 0.26275462 -0.066965014 0.16066413 -0.07331584 0.23959565
-0.22315986 -0.0920836 0.034163788 0.20713766 -0.059343804 -0.18990849 -0.046824638 -0.016231297
0.16618712 0.23139569 0.115367346 0.2605208 0.026863065 0.21747793 -0.15959007 -0.041067746
-0.22140267 -0.18835442 -0.077648856 0.12304178 -0.1792725 0.27304423 0.14650047 -0.10414864
-0.07689132 -0.0318762 0.058957838 -0.010947849 0.121701255 0.2330188 0.023941467 -0.17600998
0.008654042 -0.047694296 -0.04041509 0.123769626 0.13829447 0.283009 0.27112958 -0.16316555
-0.21994536 0.08855667 -0.21220714 0.19295152 0.051347055 -0.1499858 -0.06524864 0.20439874
0.033067912 0.14552617 -0.21289328 0.0181634 0.36649325 -0.23903038 0.26302293 -0.19988005
0.22579095 0.22229485 -0.1591271 0.21580988 -0.03937 -0.16454263 0.10317925 0.033839803
-0.18802017 0.17567034 -0.17036845 0.21763326 0.0701011 -0.04463825 -0.062252197 -0.014207947
0.101989456 -0.0153691005 0.17886974 0.028786013 0.17731088 0.10789972 0.18301661 0.026567962
-0.037930936 0.026316527 0.028485332 -0.059740324 -0.039144143 -0.13864405 0.047039177 0.23997228
-0.24081641 0.150049 -0.052872628 0.25926512 -0.011859401 0.0025224322 0.17927781 0.045530688
00000000: 34d7 163d 684e 41be d00f 913d cb4f 49be
00000010: 9a34 1e3d 51cc 213e 13a9 49be e61f 5cbe
00000020: d3b9 043e 2283 57bd 0f3e a5bd 1fae b6bc
00000030: 0153 eabd bee7 0ebe 173a adbd 874f 2bbe
00000040: d3f9 663e bf0b 013e e51e 233e 1192 af3d
00000050: 59f9 803e df81 5e3d 4b1c 0fbe 2546 6ebe
00000060: a716 c4bd ee53 a5bd eafb 61be 935f 823e
00000070: 1fb9 3a3e 96ef 543e 9240 863d 97a6 263e
00000080: a60f acbd 5d87 383e 630b 18be 23b1 2fbd
00000090: a434 673e 1fb8 c0bd c60f 413e ba2c 2ebe
000000a0: 2ddf c43c bd40 3b3e 3585 ee3c d8b8 593e
000000b0: 6c37 4ebd 207e 65be f0ee 91bb b75a 5bbe
000000c0: ec77 d73d 22c5 6cbd ee72 d6bd b45e 5d3e
000000d0: b55b 9e3d 783c eabd cb72 7a3e 50b7 123e
000000e0: 9008 71be 786b d03d 607c 803e 82bc 853e
000000f0: 74c9 33be e325 23be b39f 903d 12d0 0abe
00000100: ac9c 0ebe f72f 5abe 03dd 883e c4df 08be
00000110: 93b2 653e d75f fa3d 953a b23d 169f 6b3e
00000120: 88cc 37be b0fb c63c 0996 87bb 4261 35be
00000130: b22e 243e 0e13 6ebe 6b4f 2fbe f84e 063e
00000140: 6a5e 8abc 2168 31be 13e8 13be e3b2 19be
00000150: 6b93 d8bc 08d2 c0bd a41c 243d 7819 1fbd
00000160: 01cb 8e3e 0302 823e f7eb 16be 2cc0 91bd
00000170: 553c bb3d 1b52 2b3d c2a8 41be d21b 2b3e
00000180: 466d 873e 9fce aa3d 7102 043e cfda 25be
00000190: 99ba 52be b5d7 603d be22 6abe 5428 13be
000001a0: ead3 67be cffa 023e 7149 00be 065f 213e
000001b0: d8ef e7bd f7f1 8fbd 690d a23d 2258 34be
000001c0: 342f d2bb e141 f43d 0eba fd3d e22e b43d
000001d0: b251 08be e47c 933d 6367 82bd 00ec b03d
000001e0: 0779 3c3e e5ca 7b3d 8d35 e83d 1eb8 f23e
000001f0: aea5 fa3d 5a1e 803e 35d9 0fbe 9ae7 5c3d
00000200: 601f 16be 2fba 0e3e 1d96 46bc e477 c8bd
00000210: f526 c7bd 1d99 4ebd 307d 283e b31d 25be
00000220: bfdc 15be 9392 fa3d f423 9dbd a602 833e
00000230: 43b0 29be 2785 d43d f9fc 043e 20ad ab3d
00000240: 3a90 713e d1d0 c53d 0348 883e 88e9 26bd
00000250: 14b5 0bbe 8480 743e fe65 87bd d835 2ebd
00000260: 9577 4bbe e2b4 35be 6d86 6bbe c687 863e
00000270: f424 89bd 2385 243e 9d26 96bd 9058 753e
00000280: 0584 64be 5496 bcbd 54ef 0b3d e51b 543e
00000290: 7d12 73bd 5f77 42be 31cb 3fbd 7ff7 84bc
000002a0: f52c 2a3e fef2 6c3e b745 ec3d fb62 853e
000002b0: ee0f dc3c 89b2 5e3e 946b 23be a736 28bd
000002c0: 62b7 62be fbdf 40be 5d06 9fbd 54fd fb3d
000002d0: 3693 37be 74cc 8b3e 3804 163e e24b d5bd
000002e0: 3279 9dbd 9e90 02bd c67d 713d 9b5e 33bc
000002f0: 823e f93d 7b9c 6e3e e520 c43c f63b 34be
00000300: afc9 0d3c 185b 43bd 4b8a 25bd ee7a fd3d
00000310: 119d 0d3e 8ee6 903e 7fd1 8a3e df14 27be
00000320: 5b39 61be 335d b53d d44c 59be 1595 453e
00000330: 4a51 523d e195 19be 14a1 85bd e74d 513e
00000340: 3872 073d d004 153e b200 5abe 69cb 943c
00000350: 01a5 bb3e 61c4 74be f1aa 863e 5bad 4cbe
00000360: be35 673e 43a1 633e 37f2 22be 44fd 5c3e
00000370: 7042 21bd dd7d 28be a54f d33d 9b9b 0a3d
00000380: 5c88 40be ede2 333e 1175 2ebe 41db 5e3e
00000390: 2a91 8f3d 99d6 36bd 29fc 7ebd 73c8 68bc
000003a0: d9df d03d aece 7bbc a129 373e a5d0 eb3c
000003b0: fc90 353e 87fa dc3d b568 3b3e 0ea5 d93c
000003c0: 785d 1bbd c295 d73c 125a e93c 45b2 74bd
000003d0: 9c55 20bd b5f8 0dbe 27ac 403d 4bbb 753e
000003e0: 9498 76be 72a6 193e f890 58bd 66be 843e
000003f0: ef4d 42bc 644f 253b 9a94 373e 637e 3a3d

ln1.weight f4 [400]
1.2772903 1.046846 0.5528613 1.0453308 1.1006541 0.7938348 1.0077534 1.1755849
1.3670933 1.4757538 1.2073392 1.037418 0.75071895 1.210369 1.0118452 0.8562589
1.1699147 1.0268835 0.9064647 1.0571146 0.6994143 1.1675936 0.8607704 1.1596456
0.99680704 1.0686764 0.68573207 0.9155019 0.83717996 0.6947504 0.7431125 0.9547459
1.076733 1.289711 0.86257654 1.1492141 0.7798958 0.85243815 0.39745638 0.7048259
0.8475744 0.8766275 0.76375145 0.5721019 1.1460955 1.1503675 1.1841909 0.62631375
1.0315585 1.0734506 0.91862637 0.9089429 1.0519226 1.0914884 0.34581405 0.9173847
0.9974883 0.93802077 0.8683916 0.8118031 0.74991316 0.57045585 1.2738072 1.1881031
0.659675 1.2232318 0.5390976 1.0023843 0.38676357 0.6671492 2.0759115 0.79494876
1.0078017 0.9360335 1.1528254 0.9608742 0.70446813 0.7320866 1.1842812 1.2036519
1.2218741 1.1863956 1.0930781 0.8200359 1.1313578 1.1020242 1.1410251 1.1406974
0.723787 0.6936047 1.293128 0.8751708 1.0126722 0.8660143 0.9619891 1.127993
0.7283355 0.8159539 0.6094061 0.96376675 1.1203381 1.0826768 1.1373969 1.1069448
1.1306154 0.7263885 1.13779 0.7465476 0.93893224 0.6253009 1.234336 0.8060152
0.7860132 0.98103607 1.1080071 1.318299 0.99107987 0.9870504 0.9249193 1.012597
1.1423646 1.1536804 1.1368382 0.11443416 1.0183961 0.2917702 1.3845438 1.0034807
1.162562 1.1721865 0.8461719 0.9055389 1.0104558 1.5149149 0.97258687 0.89012325
1.0217172 1.067027 1.180145 0.48625812 1.1253167 1.3251762 1.070072 0.7515133
0.87971663 1.0588788 0.89489436 1.155124 0.8660412 0.44420615 1.1819245 0.8965157
0.874916 1.0046114 0.7837621 0.61127603 1.3656367 1.3656248 1.1763871 0.5704935
1.0042078 0.9957394 1.372541 0.75579697 1.1455374 0.5323302 1.1453332 1.1146584
0.97350246 0.7889731 0.7256881 0.4751211 1.383476 0.9530516 1.0315053 0.8229701
0.8717303 1.1512048 1.1020087 1.0398217 0.8786104 0.6404874 0.81880766 1.1961476
1.1311499 1.1671044 1.2438 0.89130366 0.95538515 0.88940465 1.1750369 0.96398
1.091806 1.1761135 1.1893622 0.870289 1.1709887 0.3285783 0.2847016 1.0369639
1.1154642 0.8563271 1.0330906 0.7914346 1.1829699 0.97327995 0.95349264 1.0491283
1.1995395 1.1737765 0.92044944 1.2235541 0.16137376 0.8630092 0.90910494 0.95460427
0.59838897 0.8522199 1.021756 0.9737827 1.1456745 1.0670449 0.74579906 1.3727832
0.8203151 0.88490367 0.990195 0.8130476 0.893198 1.2894703 1.0981563 1.2733442
1.4151784 1.2199442 0.45142514 0.9298451 0.65004945 1.2608373 0.9828436 1.1861598
1.1772684 1.0847046 1.1187412 1.1236844 1.2083094 0.703473 1.1459044 0.61762637
1.0591879 0.8520276 1.0022259 0.8336863 1.3169786 0.92013735 0.87775785 1.3120757
00000000: 407e a33f 0dff 853f 5188 0d3f 66cd 853f
00000010: 3ce2 8c3f c238 4b3f 10fe 803f 9179 963f
00000020: eafc ae3f 80e5 bc3f 178a 9a3f 1dca 843f
00000030: 1e2f 403f 5fed 9a3f 2584 813f c933 5b3f
00000040: c4bf 953f eb70 833f 120e 683f 884f 873f
00000050: d10c 333f b573 953f 735b 5c3f 446f 943f
00000060: bf2e 7f3f 63ca 883f 238c 2f3f 555e 6a3f
00000070: 6d51 563f 2adb 313f 9f3c 3e3f 3a6a 743f
00000080: 63d2 893f 4015 a53f d1d1 5c3f 7319 933f
00000090: 40a7 473f 6339 5a3f 677f cb3e 786f 343f
000000a0: a3fa 583f a96a 603f 3785 433f 4575 123f
000000b0: 42b3 923f 3e3f 933f 9193 973f 1956 203f
000000c0: 1c0a 843f d466 893f 192b 6b3f 7bb0 683f
000000d0: 66a5 863f e4b5 8b3f 8a0e b13e b9d9 6a3f
000000e0: 655b 7f3f 2122 703f e94e 5e3f 54d2 4f3f
000000f0: 4ffa 3f3f 6509 123f 1d0c a33f c313 983f
00000100: 76e0 283f dc92 9c3f 4d02 0a3f 214e 803f
00000110: e005 c63e 4aca 2a3f bcdb 0440 c381 4b3f
00000120: a5ff 803f e49f 6f3f c88f 933f dafb 753f
00000130: 0658 343f 076a 3b3f 8796 973f 4411 9a3f
00000140: 5f66 9c3f d0db 973f fce9 8b3f dfed 513f
00000150: 55d0 903f 210f 8d3f 1c0d 923f 5f02 923f
00000160: 1b4a 393f 1490 313f 3885 a53f 320b 603f
00000170: 3e9f 813f 1db3 5d3f eb44 763f 1362 903f
00000180: 3274 3a3f 5be2 503f 0a02 1c3f 6bb9 763f
00000190: 3d67 8f3f 2795 8a3f 3996 913f 5eb0 8d3f
000001a0: 01b8 903f 99f4 393f 1aa3 913f be1d 3f3f
000001b0: dd5d 703f b813 203f b9fe 9d3f 0357 4e3f
000001c0: 2938 493f 2e25 7b3f 2dd3 8d3f 06be a83f
000001d0: 69b7 7d3f 56af 7c3f 83c7 6c3f c79c 813f
000001e0: 0139 923f cdab 933f ea83 913f 755c ea3d
000001f0: ce5a 823f e762 953e bb38 b13f 0e72 803f
00000200: d5ce 943f 350a 963f b99e 583f 66d1 673f
00000210: 9e56 813f bbe8 c13f 74fb 783f 1edf 633f
00000220: a1c7 823f 5794 883f fe0e 973f d3f6 f83e
00000230: 610a 903f 609f a93f 1ff8 883f 2d63 403f
00000240: 1c35 613f 5789 873f cc17 653f 1adb 933f
00000250: e0b4 5d3f fd6e e33e 4d49 973f 0e82 653f
00000260: 7ffa 5f3f 1b97 803f a2a4 483f 967c 1c3f
00000270: 2fcd ae3f cbcc ae3f da93 963f dd0b 123f
00000280: e289 803f c7e8 7e3f 6caf af3f e97b 413f
00000290: f8a0 923f cb46 083f 479a 923f 20ad 8e3f
000002a0: 7537 793f 24fa 493f b2c6 393f 1343 f33e
000002b0: be15 b13f 31fb 733f 5e08 843f 2bae 523f
000002c0: b829 5f3f ae5a 933f 9f0e 8d3f e118 853f
000002d0: 9cec 603f fbf6 233f 619d 513f 5d1b 993f
000002e0: 85c9 903f ad63 953f d734 9f3f 7a2c 643f
000002f0: 1f94 743f 06b0 633f 9c67 963f 65c7 763f
00000300: 4dc0 8b3f e38a 963f 053d 983f 43cb 5e3f
00000310: f5e2 953f 6a3b a83e 68c4 913e 3cbb 843f
00000320: 88c7 8e3f 4138 5b3f 503c 843f 759b 4a3f
00000330: 8f6b 973f e028 793f 1818 743f d649 863f
00000340: 838a 993f 4f3e 963f 93a2 6b3f 6c9d 9c3f
00000350: 2a3f 253e 2cee 5c3f 1abb 683f f260 743f
00000360: 0530 193f 152b 5a3f e7c8 823f d349 793f
00000370: 76a5 923f ed94 883f b0ec 3e3f 5cb7 af3f
00000380: 2c00 523f 0c89 623f 6b7d 7d3f e323 503f
00000390: a0a8 643f 5d0d a53f 6390 8c3f f1fc a23f
000003a0: 9124 b53f 2227 9c3f 3221 e73e 540a 6e3f
000003b0: a469 263f 1e63 a13f a39b 7b3f 16d4 973f
000003c0: bbb0 963f 9ad7 8a3f e932 8f3f e4d4 8f3f
000003d0: e2a9 9a3f ce16 343f ffac 923f c31c 1e3f
000003e0: 7893 873f 7b1e 5a3f f048 803f 776c 553f
000003f0: c192 a83f 1f8e 6b3f bdb4 603f 19f2 a73f

ln1.bias f4 [400]
-0.04989303 -0.05613324 -0.39684823 0.028229095 -0.031104345 -0.22343975 -0.10606221 -0.06251194
-0.012734089 -0.016810365 -0.01806022 0.03682303 -0.12795867 -0.07217959 0.0017065802 -0.17667687
-0.16151607 -0.069445126 -0.11389273 -0.06032059 -0.29104936 -0.17821728 -0.21961413 -0.18243137
0.008177311 -0.04952925 -0.255949 -0.11366024 -0.1739652 -0.29357773 -0.264505 -0.13855024
-0.1260047 -0.15811205 -0.122429065 0.046401687 -0.28632584 -0.15719648 -0.57024056 -0.255124
-0.09047462 -0.18725355 -0.20002961 -0.44354025 -0.0004292192 -0.023247125 -0.0049853465 -0.34651968
-0.13088216 -0.08767495 0.0215149 -0.1491151 0.0003226171 -0.076541625 -0.6248609 -0.12244348
-0.14454004 -0.13807468 -0.15648824 -0.24332991 -0.166111 -0.25738925 0.004006978 -0.07082764
-0.3373623 -0.10917814 -0.41166288 -0.05176539 -0.59054863 -0.3013957 -0.0439183 -0.21545918
-0.21700317 -0.17101716 -0.07828389 -0.109956585 -0.36872032 -0.27527 -0.055745542 -0.05274681
-0.123122305 0.030725056 -0.25712955 -0.19901091 -0.1689375 0.021293553 -0.029639978 0.05637846
-0.27619374 -0.37694645 -0.065184146 -0.1820737 -0.08142305 -0.11299257 -0.20287727 -0.060037427
-0.2580187 -0.27349964 -0.36239946 -0.20918557 -0.08715339 -0.064849176 -0.11782595 0.0324753
0.07754946 -0.35625824 0.011659707 -0.25722998 -0.25584856 -0.33361492 -0.00043201592 -0.32556042
-0.15573779 -0.16915454 -0.041754834 -0.17365207 -0.10147358 -0.049895335 -0.10637407 -0.17800169
-0.11898245 -0.13270801 -0.15954056 -0.7611246 -0.08385635 -0.6762253 -0.21009442 -0.10695021
-0.08910442 -0.049805257 -0.12855199 -0.11870583 -0.10941435 -0.08751532 -0.09643346 -0.17056014
-0.14469118 -0.0727415 0.05179355 -0.49533945 -0.100913525 0.00437158 -0.28548393 -0.30069372
-0.1633714 -0.041734472 -0.22009501 -0.07247841 -0.16657786 -0.5328233 -0.08443308 -0.2820967
-0.11254011 -0.058656972 -0.3238598 -0.33961248 -0.110338226 -0.09082351 -0.089268 -0.38041055
-0.14567001 -0.1464492 0.0033537392 -0.26847348 -0.10096719 -0.27406025 0.1358577 0.044515457
-0.097203925 -0.27101177 -0.30603132 -0.47733906 -0.0070828456 -0.18964818 -0.090583 -0.07729972
-0.22261707 -0.07793284 0.034310192 -0.043703564 -0.20551603 -0.36595353 -0.21006002 -0.046880808
-0.03159121 -0.18560725 -0.0017467891 -0.15815157 -0.1261786 -0.1475293 0.018750327 -0.029242711
-0.05523899 -0.0060159396 -0.056911092 -0.15581433 -0.024270346 -0.642537 -0.67190474 -0.086369604
-0.11351539 -0.21072969 -0.06382164 -0.2769367 0.0024911873 -0.036920972 -0.25829944 -0.053817336
-0.12156332 -0.10851902 -0.020050619 0.019624166 -0.78096306 -0.1635876 -0.1407233 -0.15751468
-0.38226634 -0.19784041 -0.00021491323 -0.29999295 -0.052063275 0.0038877272 -0.26822793 8.127856e-05
-0.13740328 -0.13278662 -0.2157106 -0.21873525 -0.23152016 -0.017766437 0.059525043 -0.095635794
-0.117167786 0.04746979 -0.511956 -0.16499947 -0.33233553 -0.09601021 -0.13452467 0.0100463675
-0.008533839 -0.1250094 -0.20301941 -0.16830109 -0.11671429 -0.16184942 -0.023939414 -0.38892922
-0.17647457 -0.31535304 -0.0702856 -0.21738851 -0.028423408 -0.0118891215 -0.15448514 -0.012367537
00000000: a25c 4cbd f8eb 65bd b12f cbbe b440 e73c
00000010: 8ace febc 64cd 64be 2537 d9bd 4306 80bd
00000020: a4a2 50bc e4b5 89bc 07f3 93bc bfd3 163d
00000030: 9907 03be e5d2 93bd 54af df3a c8ea 34be
00000040: 7864 25be 3f39 8ebd 9740 e9bd b912 77bd
00000050: 6c04 95be 977e 36be 87e2 60be 4acf 3abe
00000060: 21fa 053c 2fdf 4abd bf0b 83be b3c6 e8bd
00000070: ef23 32be d24f 96be 336d 87be 1de0 0dbe
00000080: 6007 01be 20e8 21be 17bc fabd b20f 3e3d
00000090: 4d99 92be 1df8 20be 49fb 11bf 9d9f 82be
000000a0: c24a b9bd 65bf 3fbe 90d4 4cbe b517 e3be
000000b0: d308 e1b9 c170 bebc 1e5c a3bb 076b b1be
000000c0: f905 06be ed8e b3bd 0440 b03c a1b1 18be
000000d0: ef24 a939 dbc1 9cbd e2f6 1fbf a6c3 fabd
000000e0: 4e02 14be 7363 0dbe 743e 20be 7a2b 79be
000000f0: 0119 2abe 86c8 83be f84c 833b 150e 91bd
00000100: c0ba acbe ca98 dfbd 7ac5 d2be f207 54bd
00000110: 322e 17bf 8a50 9abe ade3 33bd 55a1 5cbe
00000120: 1436 5ebe 1f1f 2fbe 4e53 a0bd eb30 e1bd
00000130: e9c8 bcbe 30f0 8cbe 7055 64bd 0a0d 58bd
00000140: 8c27 fcbd 1db3 fb3c 7ca6 83be 84c9 4bbe
00000150: f4fd 2cbe d16f ae3c 8acf f2bc 1aed 663d
00000160: 4469 8dbe 20ff c0be 447f 85bd 8771 3abe
00000170: 21c1 a6bd a668 e7bd 0fbf 4fbe cee9 75bd
00000180: 071b 84be 2508 8cbe 6c8c b9be be34 56be
00000190: 7a7d b2bd a5cf 84bd bb4e f1bd d204 053d
000001a0: 40d2 9e3d 7b67 b6be 5b08 3f3c a6b3 83be
000001b0: 95fe 82be 93cf aabe 3280 e2b9 dbaf a6be
000001c0: ba79 1fbe d936 2dbe 1e07 2bbd d9d1 31be
000001d0: 61d1 cfbd 0d5f 4cbd a6da d9bd 1346 36be
000001e0: 12ad f3bd 9ce4 07be 9a5e 23be 10d9 42bf
000001f0: e1bc abbd 1a1d 2dbf fe22 57be b608 dbbd
00000200: 617c b6bd 9900 4cbd 22a3 03be 0b1c f3bd
00000210: a114 e0bd 3b3b b3bd e87e c5bd 51a7 2ebe
00000220: ed29 14be 7ff9 94bd 7925 543d 229d fdbe
00000230: c0ab cebd 793f 8f3b f32a 92be 87f4 99be
00000240: d54a 27be c4f1 2abd 9660 61be 906f 94bd
00000250: 6393 2abe 1c67 08bf 40eb acbd fb6e 90be
00000260: 6e7b e6bd 4b42 70bd f4d0 a5be b0e1 adbe
00000270: 02f9 e1bd ad01 babd 24d2 b6bd 2cc5 c2be
00000280: 852a 15be c7f6 15be 68ca 5b3b 5b75 89be
00000290: e3c7 cebd a051 8cbe 481e 0b3e d755 363d
000002a0: da12 c7bd 0ec2 8abe 23b0 9cbe c965 f4be
000002b0: 3717 e8bb 2233 42be 9483 b9bd 514f 9ebd
000002c0: bbf5 63be 419b 9fbd d888 0c3d 8202 33bd
000002d0: cb72 52be 435e bbbe f919 57be 1706 40bd
000002e0: c965 01bd d40f 3ebe 84f4 e4ba 7cf2 21be
000002f0: f734 01be ec11 17be 499a 993c 698e efbc
00000300: 4742 62bd 5c21 c5bb 9b1b 69bd cb8d 1fbe
00000310: 9bd2 c6bc 4e7d 24bf f301 2cbf 8ce2 b0bd
00000320: c27a e8bd 86c9 57be ecb4 82bd a6ca 8dbe
00000330: 3043 233b 723a 17bd d33f 84be 916f 5cbd
00000340: 31f6 f8bd 383f debd 3241 a4bc dcc2 a03c
00000350: 32ed 47bf 8283 27be c519 10be 874b 21be
00000360: 6ab8 c3be ad96 4abe 555a 61b9 ad98 99be
00000370: 4d40 55bd 3dc9 7e3b 2c55 89be 1874 aa38
00000380: 72b3 0cbe 37f9 07be 3de3 5cbe 22fc 5fbe
00000390: 9f13 6dbe eb8a 91bc 88d0 733d b3dc c3bd
000003a0: aaf5 efbd af6f 423d 8c0f 03bf 9ff5 28be
000003b0: e227 aabe 00a1 c4bd d6c0 09be 8599 243c
000003c0: 84d1 0bbc 7702 00be 52e4 4fbe 1f57 2cbe
000003d0: e707 efbd dbbb 25be 971c c4bc bb21 c7be
000003e0: c0b5 34be f475 a1be e6f1 8fbd 189b 5ebe
000003f0: 35d8 e8bc 97ca 42bc 5a31 1ebe 36a1 4abc

fc2.weight f4 [300, 400]
-0.2783906 0.20916313 0.076393336 0.07646179 0.10559005 0.13310982 0.003952 -0.0011616636
0.12980632 0.19404581 -0.031626698 -0.047628026 -0.0136129 0.20205088 -0.10594025 0.15607275
0.28880286 -0.033099104 0.03048376 -0.13710405 0.026234364 -0.13366207 -0.032236475 -0.05773961
-0.14578213 0.16282511 0.1212637 0.0087996805 -0.005089163 -0.07861589 0.14093296 0.11686305
0.03460093 -0.13422096 0.015055015 0.069178484 0.03681543 0.12991779 0.060618717 0.11780049
0.14884652 0.20027277 -0.04564877 -0.052569933 0.036799304 0.33423793 0.0015187908 0.19273618
0.25784108 -0.20507272 0.18459299 0.18346512 0.10677113 0.129133 -0.022956641 0.1122983
0.033901878 -0.13018447 0.18793964 0.116846934 0.109648585 0.14767534 0.17672536 0.1239147
-0.032006867 0.11925893 0.027653214 -0.13371158 0.11523353 -0.03727784 0.20044051 0.07610791
-0.05051946 -0.27273032 0.0315081 0.09277389 0.16282459 0.0060501006 -0.19179 0.5358494
-0.16532809 0.24861428 0.3023449 0.11154332 -0.1989482 0.010423645 0.1672606 0.21347348
0.03955349 0.015103596 -0.18201087 0.00084865576 0.14462996 -0.09960462 -0.07584598 0.23699373
0.045299724 0.048951034 0.12682255 -0.06145536 0.19547549 -0.056682713 0.41996405 -0.101789676
0.06774343 -0.056022145 0.036849022 0.043643195 0.105194844 -0.060127463 0.1426357 0.061072968
0.036881827 0.3070435 0.006373972 -0.07126481 0.09265611 0.04555453 0.2409428 -0.10773786
0.4153173 0.15808453 0.3007798 -0.011797261 -0.079674914 0.03181831 0.47900295 0.30956617
0.004211828 -0.09446399 0.1263089 0.06708408 -0.041169778 -0.088913485 -0.08488121 -0.10897007
0.07381749 0.20553792 0.20176144 0.063571304 -0.025143592 0.48763 0.3167292 0.070541434
0.011013784 0.098208025 -0.18284932 -0.01960717 0.03415499 0.07167883 -0.13237168 0.106273465
0.13853864 -0.047641724 0.17664221 -0.053352136 0.10303684 -0.26337373 0.24573429 -0.022123007
0.11965854 0.08570089 0.21732506 -0.09637932 -0.036580034 0.19274874 -0.075075924 -0.15386109
0.30531627 0.004243477 0.07371967 0.1573414 0.27846342 0.23405701 0.20470649 0.004400132
0.09420886 0.15015057 0.08677675 -0.072046876 0.04948898 0.054792576 0.08135172 0.32901746
-0.5384316 0.2253806 0.2155466 0.07131938 -0.17243387 -0.043263447 0.053759184 -0.037672482
-0.17295228 0.2864892 0.020063719 0.15522102 0.26841015 0.06686331 0.03247188 0.2476639
0.15011166 0.15847552 -0.11865816 -0.18431342 0.16927539 0.05784866 -0.16067787 0.18776077
-0.11246783 0.3085412 0.026361607 0.1346223 0.10692759 -0.027224487 0.012614108 0.18142442
0.1013116 0.15025936 -0.09307212 0.2877096 0.13850468 -0.08855294 0.022584595 0.3213538
0.08014671 -0.03368883 0.18127601 -0.032968137 0.010006316 0.1577115 -0.12703677 0.19669944
0.13100028 -0.14046879 0.13571766 0.053452577 -0.012549807 0.43726084 -0.0092098685 0.28964958
0.047618866 0.029134987 0.17849235 -0.50428677 -0.31733847 0.14484432 -0.10840577 -0.059589125
0.003168029 -0.10764645 0.076134965 -0.0042027114 -0.5550077 -0.0052071777 -0.036735233 -0.14831398
00000000: 3689 8ebe dc2e 563e 1c74 9c3d 0098 9c3d
00000010: 993f d83d f14d 083e c77f 813b f642 98ba
00000020: f3eb 043e f2b3 463e ff8a 01bd 9b15 43bd
00000030: a408 5fbc 6de6 4e3e 34f7 d8bd 89d1 1f3e
00000040: f8dd 933e ed92 07bd 14b9 f93c 0165 0cbe
00000050: 73e9 d63c b6de 08be 650a 04bd 5f80 6cbd
00000060: e947 15be a0bb 263e 1a59 f83d 892c 103c
00000070: fec2 a6bb 5e01 a1bd bb50 103e e555 ef3d
00000080: b4b9 0d3d 3871 09be 4fa9 763c 73ad 8d3d
00000090: c7cb 163d 2b09 053e 554b 783d 6241 f13d
000000a0: 396b 183e 4e14 4d3e 34fa 3abd 9253 57bd
000000b0: deba 163d 3c21 ab3e 2a12 c73a a25c 453e
000000c0: bf03 843e 95fe 51be f205 3d3e 48de 3b3e
000000d0: d2aa da3d 713b 043e 910f bcbc a7fc e53d
000000e0: b2dc 0a3d 144f 05be 4073 403e 724d ef3d
000000f0: 708f e03d 3438 173e 7ef7 343e fdc6 fd3d
00000100: a219 03bd 073e f43d fe88 e23c b0eb 08be
00000110: 8fff eb3d a6b0 18bd 4740 4d3e 77de 9b3d
00000120: 7eed 4ebd 4fa3 8bbe a30e 013d 3d00 be3d
00000130: 7dbb 263e ec3f c63b 9964 44be 6d2d 093f
00000140: c44b 29be be94 7e3e f3cc 9a3e d370 e43d
00000150: 14b9 4bbe f0c7 2a3c 5d46 2b3e cb98 5a3e
00000160: d702 223d 1375 773c 0f61 3abe 5378 5e3a
00000170: e019 143e 82fd cbbd 2355 9bbd 7cae 723e
00000180: 348c 393d e180 483d c5dd 013e 9eb8 7bbd
00000190: ba2a 483e 222c 68bd 8705 d73e 1b77 d0bd
000001a0: 11bd 8a3d 7a77 65bd 00ef 163d 35c3 323d
000001b0: 6570 d73d 3748 76bd 180f 123e a627 7a3d
000001c0: 6611 173d ce34 9d3e c1dc d03b 49f3 91bd
000001d0: 7dc2 bd3d 6397 3a3d b6b9 763e aba5 dcbd
000001e0: 78a4 d43e e9e0 213e cfff 993e 4d49 41bc
000001f0: 9a2c a3bd eb53 023d e03f f53e 757f 9e3e
00000200: 6003 8a3b 5676 c1bd 1f57 013e 6163 893d
00000210: a4a1 28bd 4618 b6bd 33d6 adbd b32b dfbd
00000220: a02d 973d 8878 523e 8d9a 4e3e ac31 823d
00000230: eff9 cdbc a4aa f93e 542a a23e 0778 903d
00000240: 2973 343c 4a21 c93d da3c 3bbe 379f a0bc
00000250: 1ae6 0b3d 5acc 923d 718c 07be e7a5 d93d
00000260: 13dd 0d3e f823 43bd b2e1 343e c587 5abd
00000270: fb04 d33d ecd8 86be c5a1 7b3e 4f3b b5bc
00000280: 890f f53d f383 af3d 768a 5e3e 8562 c5bd
00000290: f2d4 15bd ed5f 453e 68c1 99bd c38d 1dbe
000002a0: 6a52 9c3e dd0c 8b3b 57fa 963d 1b1e 213e
000002b0: c292 8e3e a4ac 6f3e 949e 513e fc2e 903b
000002c0: 93f0 c03d 12c1 193e 02b8 b13d 508d 93bd
000002d0: f5b4 4a3d 2e6e 603d bb9b a63d fa74 a83e
000002e0: a7d6 09bf 2cca 663e 3fb8 5c3e e50f 923d
000002f0: 8192 30be 0335 31bd 9732 5c3d 764e 1abd
00000300: 671a 31be b6ae 923e ab5c a43c 42f2 1e3e
00000310: 0e6d 893e a2ef 883d 3c01 053d 9b9b 7d3e
00000320: dfb6 193e 6847 223e 0d03 f3bd a8bc 3cbe
00000330: 8756 2d3e b7f2 6c3d bd88 24be 5c44 403e
00000340: 8955 e6bd 1df9 9d3e 4cf4 d73c 6eda 093e
00000350: dafc da3d e305 dfbc 67ab 4e3c 53c7 393e
00000360: 757c cf3d 97dd 193e 989c bebd ac4e 933e
00000370: 2cd4 0d3e 3e5b b5bd 5403 b93c 7c88 a43e
00000380: f523 a43d 4cfd 09bd 6ba0 393e 9909 07bd
00000390: 88f1 233c 207f 213e ed15 02be 946b 493e
000003a0: f024 063e 0dd7 0fbe 92f9 0a3e 17f1 5a3d
000003b0: b59d 4dbc a7e0 df3e fde4 16bc f34c 943e
000003c0: 000c 433d 7fac ee3c b3c6 363e f018 01bf
000003d0: 307a a2be 1252 143e d803 debd ba13 74bd
000003e0: b59e 4f3b be75 dcbd a6ec 9b3d e6b6 89bb
000003f0: fc14 0ebf f9a0 aabb af77 16bd 9fdf 17be

fc2.bias f4 [300]
0.032533295 0.083674185 0.025560956 0.08598271 0.039368417 0.040679708 0.06861651 0.018749459
0.08463284 0.023829475 0.060048964 0.07735199 0.10316111 0.100027874 0.07323296 0.03926589
0.0074171913 0.067954205 0.020194888 0.007884238 -0.002496108 0.052401878 0.074049 0.036933757
0.101188466 0.009510375 0.041107804 0.045782164 0.06322182 0.01017455 -0.026611814 0.034796506
0.018990124 0.098577015 0.052527495 0.00066658296 0.052968435 0.057786223 0.07984861 0.03911153
0.025935499 -0.0076088817 0.08650337 0.0135043245 0.028278938 -0.014863806 0.08416382 0.05528432
0.032125924 0.021204524 -0.0053170985 0.009688564 0.07976545 0.02379621 0.088642076 0.0076071867
0.051712755 0.07605636 0.02275255 0.031398524 0.09087906 0.051023133 0.089822 0.035690866
0.07876565 0.0066351527 0.03468789 0.08623518 0.07712079 0.028036587 0.050999098 0.009284879
0.098342575 0.032656062 0.045121573 0.0006621456 0.011487905 0.05519482 0.089830555 0.0095925955
0.013317845 0.0218963 0.051915653 0.026305133 0.0053635854 0.03626665 0.09234928 0.058673814
0.037366327 0.05456757 0.00657098 0.0006425456 -0.044126946 0.07201238 0.044036776 0.08266451
0.03890181 0.03596359 0.064335115 0.0379819 0.07797462 0.039829366 0.107516535 0.07186258
0.006547361 0.08170541 0.044426363 0.08650831 0.070964955 0.037764594 -0.0036976715 0.01929283
0.10228568 0.096676655 0.03959549 0.040872473 0.027550358 0.07517567 0.065260515 0.07758082
0.066454984 0.06553696 0.06229298 0.0017789303 0.10996235 0.057287224 0.020462327 0.080763385
0.04412183 0.04973068 0.0018897289 0.09034449 0.06630277 -0.0019312808 0.09656365 0.106355555
0.05593871 0.0392234 -0.021766594 0.035241187 0.0017081205 0.03209937 0.019052709 -0.016887195
0.07307718 0.053155553 0.0626705 0.06829725 0.034327958 0.062814 0.018940054 0.04172027
0.04143025 0.0536417 0.047407534 0.07244262 0.060311362 0.030137626 0.098369844 0.01928491
0.041120566 0.017790621 0.0140521 0.011181455 0.0847202 0.028942438 0.016042065 0.05178389
0.04248749 0.0015187231 0.011603916 0.039028227 0.06518068 0.06220502 0.022575729 0.08029467
0.06351716 0.062603824 0.06794962 0.015404186 0.06917631 0.07578212 0.051102776 0.09128273
0.07044829 0.019615965 0.040294845 0.0147237005 0.0103309285 0.07642845 0.027294993 0.018432835
0.036643263 0.052905105 0.102429375 0.020057349 0.030398661 0.07350974 0.07187367 0.020702975
0.05752662 0.060802914 0.08315807 0.033963144 0.02329542 0.036457323 0.07138853 0.06607535
0.036024883 0.070022255 0.06929474 0.053400975 0.034810126 0.06999337 -0.017243534 0.08746744
-0.021796804 0.09663681 0.050779182 0.026801959 0.07202188 0.02982589 -0.03148572 -0.017578859
0.049399186 0.07970812 0.036627073 0.027096426 0.09993817 0.014984535 0.018683992 0.014340591
-0.0035781802 0.023161357 0.032859057 -0.04794608 0.054287095 0.057835802 0.088278465 0.08358978
0.020203527 0.044554047 0.06395222 0.09193097 0.07325593 0.07935389 0.07148441 0.03518593
0.026163127 0.026330091 0.04108114 0.00685591 0.056124568 0.086861 0.0931272 0.063384645
00000000: a241 053d 5f5d ab3d 3665 d13c b417 b03d
00000010: c740 213d c49f 263d d086 8c3d 7798 993c
00000020: fb53 ad3d 0836 c33c e7f5 753d b86a 9e3d
00000030: 2246 d33d 6adb cc3d 2afb 953d 45d5 203d
00000040: e90b f33b 932b 8b3d c06f a53c e42c 013c
00000050: be95 23bb 5aa3 563d 01a7 973d da47 173d
00000060: e63b cf3d 67d1 1b3c a860 283d 1486 3b3d
00000070: 717a 813d 28b3 263c 0501 dabc c886 0e3d
00000080: 2d91 9b3c bfe2 c93d 1227 573d a0bd 2e3a
00000090: 6ef5 583d 3fb1 6c3d ab87 a33d 6933 203d
000000a0: af76 d43c ed53 f9bb ae28 b13d 3e41 5d3c
000000b0: 3ba9 e73c 5287 73bc 155e ac3d d071 623d
000000c0: 7996 033d 1cb5 ad3c 0e3b aebb c8bc 1e3c
000000d0: 115c a33d 45f0 c23c fa89 b53d b545 f93b
000000e0: c1d0 533d 70c3 9b3d 8e63 ba3c bd9b 003d
000000f0: cd1e ba3d a2fd 503d 99f4 b73d 9630 123d
00000100: e34f a13d b26b d93b e414 0e3d 129c b03d
00000110: 81f1 9d3d fcac e53c 6ee4 503d 9b1f 183c
00000120: d567 c93d 5dc2 053d 66d1 383d d793 2d3a
00000130: c437 3c3c f713 623d 15f9 b73d 432a 1d3c
00000140: 1733 5a3c df5f b33c 82a5 543d dd7d d73c
00000150: 04c1 af3b 578c 143d 9f21 bd3d f453 703d
00000160: 6f0d 193d 3f82 5f3d 6051 d73b 8170 283a
00000170: 75be 34bd 3a7b 933d e85f 343d 034c a93d
00000180: 8157 1f3d 8f4e 133d 21c2 833d e992 1b3d
00000190: 28b1 9f3d 1e24 233d a131 dc3d b02c 933d
000001a0: 3f8b d63b 2a55 a73d 6bf8 353d 452b b13d
000001b0: 1356 913d 0caf 1a3d a254 72bb ff0b 9e3c
000001c0: 287b d13d 69fe c53d e12e 223d e569 273d
000001d0: 4ab1 e13c b4f5 993d 4ea7 853d b1e2 9e3d
000001e0: 8d19 883d 3e38 863d ec26 7f3d ff2a e93a
000001f0: f133 e13d 02a6 6a3d 9ca0 a73c 4667 a53d
00000200: 18b9 343d 66b2 4b3d c8b0 f73a 8806 b93d
00000210: bfc9 873d 0823 fdba 2ac3 c53d f1d0 d93d
00000220: fd1f 653d b7a8 203d db4f b2bc 1059 103d
00000230: 03e3 df3a a17a 033d 6d14 9c3c 0457 8abc
00000240: 7da9 953d a3b9 593d 6459 803d 6edf 8b3d
00000250: 799b 0c3d a0a4 803d 2c28 9b3c e0e2 2a3d
00000260: c4b2 293d 66b7 5b3d 672e 423d cc5c 943d
00000270: 0c09 773d 2fe3 f63c 2176 c93d 63fb 9d3c
00000280: 0a6e 283d a3bd 913c c73a 663c 6c32 373c
00000290: c981 ad3d b118 ed3c a66a 833c 581b 543d
000002a0: 5d07 2e3d e40f c73a 5a1e 3e3c 10dc 1f3d
000002b0: 737d 853d b1ca 7e3d bcf0 b83c 8871 a43d
000002c0: 4915 823d 6f36 803d 2c29 8b3d d761 7c3c
000002d0: 4fac 8d3d a833 9b3d 2551 513d 71f2 ba3d
000002e0: 3147 903d a9b1 a03c 350c 253d ad3b 713c
000002f0: 0e43 293c 8586 9c3d c099 df3c 7500 973c
00000300: 3f17 163d 06b3 583d 7ec6 d13d 4f4f a43c
00000310: 9d06 f93c 468c 963d 8132 933d 4999 a93c
00000320: 08a1 6b3d 7a0c 793d c74e aa3d f01c 0b3d
00000330: 09d6 be3c 4654 153d 2634 923d 8352 873d
00000340: d48e 133d d467 8f3d 67ea 8d3d fbba 5a3d
00000350: 1095 0e3d af58 8f3d 5042 8dbc 2122 b33d
00000360: 368f b2bc 85e9 c53d d5fd 4f3d c88f db3c
00000370: 3580 933d 6d55 f43c 2cf7 00bd 8a01 90bc
00000380: cd56 4a3d 033e a33d 4506 163d 53f9 dd3c
00000390: 62ac cc3d b281 753c 2c0f 993c ccf4 6a3c
000003a0: e77f 6abb e3bc bd3c 3897 063d 1c63 44bd
000003b0: 255c 5e3d 3ce5 6c3d 57cb b43d 1e31 ab3d
000003c0: de81 a53c 4e7e 363d 62f9 823d 4e46 bc3d
000003d0: 3407 963d 4b84 a23d 6b66 923d 1f1f 103d
000003e0: 0e54 d63c 34b2 d73c b344 283d 8ba7 e03b
000003f0: e0e2 653d 2ee4 b13d 79b9 be3d cfcf 813d

ln2.weight f4 [300]
0.66147685 0.5712447 1.4667716 0.9306777 0.27376425 1.3900397 0.30199558 0.8139866
0.6590708 0.8209466 0.9104571 0.5915712 0.6340987 0.61696523 0.7973149 1.0202948
1.119138 0.5001529 0.76895845 1.2668374 1.441861 0.85676956 0.7301335 1.1823388
0.5682597 1.0687112 1.3181444 0.92922485 1.0673859 0.8971385 1.6463137 1.0842526
1.4248949 1.1301045 1.271755 1.3302126 1.1213467 0.979523 0.97586715 1.583433
1.1557004 1.2705739 0.63551706 0.51956064 1.2027425 1.4427515 0.7276361 1.0395778
0.7368186 0.9528333 1.3589333 0.87526906 0.67954713 0.6790647 1.0661993 0.66753185
0.8270617 0.7921232 1.1890947 1.2055085 0.7232403 0.6980171 0.8126306 0.9991279
1.441602 1.1591456 0.802672 0.5573797 0.36557433 1.3689489 0.7481919 0.89590657
0.82421374 1.3524221 1.1951925 1.1653751 1.1390069 1.2234236 0.84496677 0.8376868
1.0025612 1.1117873 0.74237543 1.1877913 0.8061577 1.1220099 0.6266414 1.6572632
1.1251676 0.3163445 1.1392986 1.2304467 1.8619539 0.542457 1.2886215 0.79615307
1.0348941 0.8967025 0.68409437 0.95194954 0.5997838 0.9786864 0.8067868 0.7508743
1.0643077 1.466403 1.2048872 0.51027226 0.564229 1.0738953 1.3661655 1.2387072
0.23387867 0.5497746 1.219308 0.98476076 1.0704614 1.3861006 0.9687646 0.43659085
0.95731515 1.3807719 1.437684 1.1959045 0.77231985 0.7982639 1.217401 0.5234156
0.7692525 0.7726233 1.1126161 1.2981279 1.0406611 1.349435 0.8936307 0.8517617
1.0725325 1.1238581 1.4353065 0.6704957 0.99973816 1.3041165 0.52784395 1.2906536
0.83377886 1.0583204 1.4758713 0.6691781 1.094394 0.8870775 1.3445512 1.192653
1.0970628 0.98466635 1.3310784 0.5572625 1.2400618 0.74996126 0.70799774 0.62242794
1.7118995 1.2218567 0.80093867 0.9883148 1.1127934 1.4226558 1.4649214 0.67956203
1.6167755 1.0682625 0.79275644 0.24338837 0.35338244 1.1035329 1.5787804 0.54550844
1.0362005 0.33159816 1.1569251 1.2740388 0.79026884 0.7927957 1.385022 0.8710383
0.62271273 1.3403558 0.8186261 0.58455634 0.60215 1.1167014 0.86740637 1.3772919
1.228313 1.2690884 0.81337595 0.44752464 1.0120931 0.5739149 0.9052598 0.44480622
0.6549443 0.7903819 0.7717166 0.45172188 1.5592196 0.9678948 0.62084633 1.3303818
1.2105887 0.8574597 0.8916836 1.2075157 0.7241589 0.7711622 1.2513732 1.2839813
1.6484812 0.6417728 0.9643789 0.6049878 0.88789845 1.3833917 1.1262072 1.35634
1.198302 0.5646491 0.7373993 0.7775342 0.83427083 1.2069976 1.3561647 1.0519888
1.1983253 1.6288393 0.90706533 1.764537 0.84867936 1.1958349 1.3222803 0.4769848
1.5706002 0.60891795 1.5821527 0.835881 0.64943343 0.86291337 0.8816834 1.1596522
1.2394903 0.40299085 0.35895038 1.4558508 0.43678656 0.64645374 0.8914456 1.2228119
00000000: 8c56 293f 183d 123f 2cbf bb3f e540 6e3f
00000010: d42a 8c3e d2ec b13f 2a9f 9a3e 6d61 503f
00000020: ddb8 283f 8e29 523f b713 693f 3671 173f
00000030: 4b54 223f 6ff1 1d3f d41c 4c3f 0599 823f
00000040: ea3f 8f3f 050a 003f 76da 443f ba27 a23f
00000050: e78e b83f 4055 5b3f 07ea 3a3f e156 973f
00000060: 7879 113f 87cb 883f f5b8 a83f aee1 6d3f
00000070: 1aa0 883f deaa 653f 68ba d23f cac8 8a3f
00000080: f562 b63f 44a7 903f dec8 a23f 6844 aa3f
00000090: 4a88 8f3f 05c2 7a3f 6ed2 793f efad ca3f
000000a0: feed 933f 2aa2 a23f 3fb1 223f ed01 053f
000000b0: 77f3 993f 15ac b83f 5c46 3a3f e310 853f
000000c0: 25a0 3c3f e2ec 733f 87f1 ad3f a211 603f
000000d0: cdf6 2d3f 2fd7 2d3f 3879 883f 5ee3 2a3f
000000e0: 51ba 533f 96c8 4a3f 4134 983f 1a4e 9a3f
000000f0: 4726 393f 40b1 323f 8f08 503f d9c6 7f3f
00000100: 6a86 b83f e25e 943f ea7b 4d3f 70b0 0e3f
00000110: 8f2c bb3e b839 af3f 8189 3f3f 225a 653f
00000120: acff 523f 2b1c ad3f 11fc 983f 032b 953f
00000130: faca 913f 2599 9c3f be4f 583f a472 563f
00000140: ed53 803f 0c4f 8e3f 510c 3e3f 8c09 983f
00000150: 5a60 4e3f 059e 8f3f 926b 203f 3321 d43f
00000160: 7e05 903f e8f7 a13e 89d4 913f 477f 9d3f
00000170: 8154 ee3f 76de 0a3f 8df1 a43f b0d0 4b3f
00000180: 6977 843f 4c8e 653f cf20 2f3f f7b2 733f
00000190: 6e8b 193f 318b 7a3f 9489 4e3f 4c39 403f
000001a0: 3c3b 883f 18b3 bb3f be39 9a3f 34a1 023f
000001b0: 5071 103f 6775 893f 83de ae3f f58d 9e3f
000001c0: e47d 6f3e 07be 0c3f 4912 9c3f 4819 7c3f
000001d0: e104 893f bf6b b13f f500 783f d688 df3e
000001e0: 9b12 753f 22bd b03f 0806 b83f 6613 993f
000001f0: c1b6 453f 065b 4c3f ccd3 9b3f 91fe 053f
00000200: bbed 443f a4ca 453f 346a 8e3f 0e29 a63f
00000210: 6234 853f 49ba ac3f fbc4 643f 0e0d 5a3f
00000220: bf48 893f 95da 8f3f 20b8 b73f 9ba5 2b3f
00000230: d7ee 7f3f 4aed a63f c820 073f 2334 a53f
00000240: 8872 553f 0b77 873f 5ae9 bc3f 424f 2b3f
00000250: 1a15 8c3f 8317 633f 411a ac3f daa8 983f
00000260: 8e6c 8c3f 1813 7c3f c760 aa3f c1a8 0e3f
00000270: 58ba 9e3f 76fd 3f3f 573f 353f 7057 1f3f
00000280: 861f db3f cd65 9c3f 510a 4d3f 3302 7d3f
00000290: 0470 8e3f 9619 b63f 8b82 bb3f c7f7 2d3f
000002a0: 80f2 ce3f d3bc 883f 16f2 4a3f cd3a 793e
000002b0: 8bee b43e 9140 8d3f 7a15 ca3f 71a6 0b3f
000002c0: 38a2 843f 3cc7 a93e 1f16 943f b413 a33f
000002d0: 0f4f 4a3f a9f4 4a3f 6748 b13f 5efc 5e3f
000002e0: 1a6a 1f3f c790 ab3f 7b91 513f 7ca5 153f
000002f0: 8126 1a3f 12f0 8e3f 580e 5e3f 1a4b b03f
00000300: 5c39 9d3f 7d71 a23f 6839 503f f321 e53e
00000310: 448c 813f 16ec 123f 1bbf 673f a4bd e33e
00000320: 6eaa 273f 7856 4a3f 388f 453f 1748 e73e
00000330: 8294 c73f f4c7 773f c9ef 1e3f f349 aa3f
00000340: 92f4 9a3f 7b82 5b3f 6045 643f e08f 9a3f
00000350: 7a62 393f e36a 453f ff2c a03f 8059 a43f
00000360: 6f01 d33f 394b 243f 89e1 763f 7be0 1a3f
00000370: 504d 633f fb12 b13f 8f27 903f 8d9c ad3f
00000380: f661 993f d88c 103f 33c6 3c3f 7b0c 473f
00000390: c692 553f e67e 9a3f ce96 ad3f 92a7 863f
000003a0: b962 993f ce7d d03f 6f35 683f 59dc e13f
000003b0: 0d43 593f 1e11 993f 7b40 a93f 5a37 f43e
000003c0: 6d09 c93f 0ce2 1b3f fb83 ca3f 4cfc 553f
000003d0: 4541 263f e4e7 5c3f 01b6 613f 7c6f 943f
000003e0: 9ea7 9e3f d154 ce3e 58c8 b73e 5259 ba3f
000003f0: 7da2 df3e fe7d 253f c735 643f 1a85 9c3f

ln2.bias f4 [300]
-0.3144055 -0.41455626 -0.12722394 -0.28473222 -0.6043893 -0.27692848 -0.641235 -0.27155554
-0.43953374 -0.20617282 -0.18892401 -0.35857448 -0.41229302 -0.3408132 -0.19058782 -0.30889714
-0.0007254762 -0.4855425 -0.15943563 -0.38109154 0.0026525646 -0.24834733 -0.21810213 -0.0319957
-0.46825734 -0.20432095 -0.09844097 -0.11899486 0.03602169 -0.1968423 -0.08048729 -0.17456289
0.035619788 -0.096022375 -0.22408488 -0.2139485 -0.30489177 -0.27511245 -0.25401866 -0.22952358
-0.29524985 -0.4168596 -0.46069756 -0.3906322 -0.16229104 -0.212011 -0.29192585 -0.39243037
-0.40087095 -0.2676203 -0.35937518 -0.21526892 -0.27920714 -0.29731634 -0.0422821 -0.39028746
-0.21823105 -0.26066393 -0.1187595 -0.38558915 -0.28571966 -0.421541 -0.24462545 -0.18334337
0.037649497 -0.2215141 -0.18589781 -0.48302394 -0.6524806 -0.41458982 -0.2556326 -0.24049194
-0.111929856 -0.24495235 -0.014300394 0.059501413 -0.19774258 -0.14861938 -0.16509268 -0.15128358
-0.47370544 -0.081861034 -0.2551812 -0.37140605 -0.3262271 -0.20057537 -0.4279295 -0.18337347
-0.17897815 -0.6387136 -0.22145556 0.015128289 -0.103418596 -0.40436414 -0.12037782 -0.61296624
-0.06782125 -0.12299986 -0.3568803 -0.120995335 -0.34575215 0.024534525 -0.17003037 -0.31933963
-0.016414117 -0.3333245 -0.054776076 -0.5280802 -0.46738857 -0.14046714 -0.28314075 -0.10322117
-0.7010486 -0.50820637 -0.1980918 -0.47080094 0.05927186 -0.23170878 -0.31107828 -0.63159156
-0.12456906 0.090431415 -0.15216394 -0.1327665 -0.31868201 -0.10950805 0.05560357 -0.36232242
-0.25432095 -0.23138583 -0.24416187 -0.038821463 -0.19066611 -0.09690876 -0.10616835 -0.19886425
-0.19506304 -0.15204361 -0.23697987 -0.31664968 -0.112387046 -0.22734131 -0.5276234 -0.20061703
-0.19977824 0.006245151 0.007606514 -0.2911634 -0.13585459 -0.34148842 -0.116095535 -0.23418432
-0.14662842 -0.12686507 -0.17342287 -0.42046332 -0.3248987 -0.22377953 -0.26016325 -0.39081386
-0.31537315 0.06014022 -0.24205591 -0.03236295 -0.16953793 -0.30746886 -0.24768671 -0.28880775
-0.3068208 -0.023389364 -0.24042615 -0.6539689 -0.5752198 0.020994714 -0.44050252 -0.37861222
-0.20352627 -0.59905404 -0.113999575 0.034879453 -0.2337946 -0.23848176 -0.2710063 -0.2595623
-0.48474103 -0.36917692 -0.25279635 -0.36249205 -0.36406627 -0.008161394 -0.35476062 -0.0039824233
-0.1837218 -0.27348873 -0.18365297 -0.67161614 -0.2887042 -0.40526062 -0.40504184 -0.50995183
-0.43559626 -0.3025974 -0.17615089 -0.62901974 -0.23506835 -0.43245125 -0.4623739 -0.0439721
-0.06199386 -0.24947737 -0.28650388 -0.20965698 -0.26920205 -0.31082967 -0.27086684 0.021548128
-0.34189123 -0.4260405 -0.04484467 -0.34157592 -0.17355683 -0.2935857 -0.27933204 -0.08964534
-0.14676864 -0.42772877 -0.30994198 -0.20709562 -0.18555117 -0.20977563 -0.27696735 -0.08304336
-0.39369377 0.06390059 -0.2994204 -0.03369483 -0.11603865 -0.0668893 0.031049458 -0.48845753
-0.1280709 -0.31616405 -0.32500434 -0.17636952 -0.3681772 -0.14953624 -0.20712541 -0.13041474
0.05455336 -0.61574066 -0.5911312 -0.08825779 -0.6016801 -0.41855925 -0.24034555 -0.12746942
00000000: c2f9 a0be b840 d4be fe46 02be 6cc8 91be
00000010: 42b9 1abf 92c9 8dbe fa27 24bf 5409 8bbe
00000020: 910a e1be f81e 53be 4c75 41be 1397 b7be
00000030: 1218 d3be 117f aebe 7429 43be c427 9ebe
00000040: e22d 3eba 0799 f8be 1843 23be 6e1e c3be
00000050: a6d6 2d3b c34e 7ebe 2a56 5fbe ec0d 03bd
00000060: 6dbf efbe 8339 51be 6b9b c9bd 94b3 f3bd
00000070: 7b8b 133d 0791 49be 85d6 a4bd 9dc0 32be
00000080: 0ee6 113d 61a7 c4bd 8276 65be 5115 5bbe
00000090: c61a 9cbe 8adb 8cbe bc0e 82be 3b08 6bbe
000000a0: fd2a 97be 9f6e d5be 8de0 ebbe f200 c8be
000000b0: 9f2f 26be 6919 59be 4e77 95be a2ec c8be
000000c0: f53e cdbe 8705 89be 0600 b8be 756f 5cbe
000000d0: 3df4 8ebe d939 98be ff2f 2dbd c2d3 c7be
000000e0: f677 5fbe be75 85be 2e38 f3bd f16b c5be
000000f0: d949 92be 39d4 d7be 187f 7abe 5dbe 3bbe
00000100: 5c36 1a3d 98d4 62be ff5b 3ebe ea4e f7be
00000110: f808 27bf 1e45 d4be 47e2 82be 8543 76be
00000120: 7b3b e5bd cad4 7abe 334c 6abc c1b7 733d
00000130: 087d 4abe ae2f 18be 0e0e 29be 15ea 1abe
00000140: 8589 f2be c2a6 a7bd 1ca7 82be ef28 bebe
00000150: 3d07 a7be a163 4dbe 9319 dbbe 41c6 3bbe
00000160: 0c46 37be bc82 23bf 3fc5 62be a5dc 773c
00000170: 21cd d3bd d108 cfbe a688 f6bd 5beb 1cbf
00000180: dee5 8abd 5ae7 fbbd 04b9 b6be 67cc f7bd
00000190: 6d06 b1be a1fc c83c 711c 2ebe 7c80 a3be
000001a0: e676 86bc 82a9 aabe e15c 60bd 4430 07bf
000001b0: 8e4d efbe 9ed6 0fbe d3f7 90be 9f65 d3bd
000001c0: ec77 33bf d019 02bf 94d8 4abe d20c f1be
000001d0: 0dc7 723d 1145 6dbe a745 9fbe fcaf 21bf
000001e0: 101e ffbd 1b34 b93d ddd0 1bbe f1f3 07be
000001f0: 4a2a a3be c245 e0bd 92c0 633d 5382 b9be
00000200: 5b36 82be 68f0 6cbe 9205 7abe 4103 1fbd
00000210: fa3d 43be 1a78 c6bd cb6e d9bd 12a3 4bbe
00000220: 9bbe 47be 52b1 1bbe daaa 72be e81f a2be
00000230: 2e2b e6bd 29cc 68be 5412 07bf 8d6e 4dbe
00000240: ab92 4cbe 20a4 cc3b 1040 f93b 5f13 95be
00000250: 771d 0bbe 92d7 aebe 7fc3 edbd 04ce 6fbe
00000260: c325 16be ebe8 01be c495 31be f846 d7be
00000270: 1f59 a6be 7626 65be 1e34 85be c118 c8be
00000280: 9778 a1be 9755 763d 81dd 77be 038f 04bd
00000290: 5a9b 2dbe 8f6c 9dbe 96a1 7dbe 9cde 93be
000002a0: 9e17 9dbe 0d9b bfbc 4632 76be 816a 27bf
000002b0: 9b41 13bf 1bfd ab3c 8c89 e1be 76d9 c1be
000002c0: 3169 50be 9b5b 19bf 9c78 e9bd c2dd 0e3d
000002d0: da67 6fbe 9034 74be 56c1 8abe 5ae5 84be
000002e0: fa2f f8be c204 bdbe 866e 81be 8f98 b9be
000002f0: e566 babe 5eb7 05bc 2fa3 b5be fd7e 82bb
00000300: 9121 3cbe b706 8cbe 860f 3cbe 09ef 2bbf
00000310: 09d1 93be 527e cfbe a561 cfbe 348c 02bf
00000320: 7906 dfbe 0cee 9abe e660 34be 7007 21bf
00000330: c2b5 70be 406a ddbe 46bc ecbe 171c 34bd
00000340: 46ed 7dbd ff76 7fbe a3b0 92be 52b0 56be
00000350: dad4 89be 1125 9fbe 0faf 8abe b385 b03c
00000360: 5e0c afbe fb21 dabe 0baf 37bd 0ae3 aebe
00000370: e2b8 31be dd50 96be 9c04 8fbe fa97 b7bd
00000380: 854a 16be 44ff dabe b7b0 9ebe e010 54be
00000390: 2001 3ebe 6ccf 56be aace 8dbe a312 aabd
000003a0: 3b92 c9be 50de 823d a14d 99be 9703 0abd
000003b0: aca5 edbd 42fd 88bd 6f5b fe3c 1b17 fabe
000003c0: 0525 03be 41e0 a1be f866 a6be 369a 34be
000003d0: b981 bcbe 0720 19be af18 54be 718b 05be
000003e0: 5873 5f3d 2ea1 1dbf 6054 17bf 80c0 b4bd
000003f0: b507 1abf 664d d6be 251d 76be 5887 02be
