DDPG/models/actor_eps120_veh100_100e-3_0e-2_6e-2_gpu_Y.pth (torch, 505665 bytes, 11 tensors)

ln0.weight f4 [8]
00000000: 689d 903f 4346 653f 269a 8d3f 55b7 833f
00000010: 43ac ee3e d29b 2e3f 1e46 8e3f 14ad 823f
1.1298037 0.89560336 1.1062667 1.0290323 0.466158 0.6820651 1.1115148 1.0209069

ln0.bias f4 [8]
00000000: 6b7e 613d 5c5c 503e dc16 cb3c c116 fe3d
00000010: 2dc0 abbe 0377 6dbe ec78 273c 4df6 0b3e
0.055052202 0.20347732 0.024791174 0.12406684 -0.33545056 -0.2318993 0.010221701 0.13668175

fc1.weight f4 [400, 8]
00000000: e2b5 233e 5467 16bd fe28 aebd 1b60 8a3c
00000010: a916 babc c121 01bc f64c a73d 806b a13d
00000020: 752d b5bd a925 ddbd 1dca 10be 1454 41bc
00000030: 1d0c 5a3d 41e6 003d 74a9 ddbd 6077 103d
00000040: a611 09be 8eab 12bc bff0 d53b 594e 333d
00000050: eed0 15bc 3129 44bc d7a8 1f3d 2bc0 04be
00000060: e7ce 493d 015d c83c f3d0 92bd 3edf 14bd
00000070: ce70 08bd 1322 60bd 71a0 153e 31fe 293d
00000080: 509a 22bc 1031 5cbc 93a2 9fbd cdb1 22bc
00000090: 1992 df3c b557 f83c f5a1 8abd 763d 163d
000000a0: 7940 f63c 8e25 14bd 2d42 a13d 9b7f 22bc
000000b0: bf96 20bc 7f7e f0bc c128 dfbd 9a90 2b3d
000000c0: b818 e03b 8cf3 10bd 692a 0a3d 652b ffbd
000000d0: 040e ab3d 36ba 073c 1020 5ebd e40d 333e
000000e0: 4fb8 953d 6637 0e3e cc2e 563d 2a0b 54bd
000000f0: f7fc 38bc 5674 1bbd db41 8fbd 8de9 cc3c
00000100: 9e98 3c3c 67a8 0fbd 403c 893d e2ee e8bd
00000110: d9eb be3c 1cb2 df3c cf03 eabd cce5 4d3d
00000120: b2b0 9b3d fab7 7b3b c46b 6fbd 8629 8dbd
00000130: 4c3c 41bc 29a3 dcbc 2778 df3d 823b db3d
00000140: 646d 02be d1f4 b1bd 63cc a9bd 9645 1b3d
00000150: eb76 c03d dad3 e53b 4ab7 5c3d 6bce f4bc
00000160: 184e 11be 47a4 d8bd 6073 19be 9601 50bd
00000170: 87a1 a5bc a723 a73d 3988 93bc 79c0 763c
00000180: cf61 b0bd 34eb 6ab9 17e2 2f3c f662 1abe
00000190: ffc3 c13d 17ec 193d 250a 0dbd 7fca 183e
000001a0: ced2 ee3d 76a6 2bbd abfe 53bd 2779 bebc
000001b0: 5dea 4bbc 1e72 27bd c163 0abd 13a8 b03d
000001c0: 73ab 3c3c 8ed5 0c3c b000 cfbd f38f aa3d
000001d0: 4abf 0e3d 86e2 263c 54f8 d2bc 5a59 5a3c
000001e0: 56ab b73c 4f67 05bb 3fdb cabc e3b2 b4bd
000001f0: 42ac c33c e1c6 043d 0740 3bbd c490 dbbd
00000200: 98ce b23c 889c 7e3d 9721 1c3e 4a7a e93b
00000210: 0996 bb3b 6dc7 5fbd a5f7 b9bd d267 673d
00000220: 25f5 c9bd ae7b bdbd 327b e53c f97f 26bd
00000230: 07a7 87bc 166a 353d 0cf9 47be fcfc a0bb
00000240: 5d46 153d 4169 0dbd 50fc 4dbe 81d9 06be
00000250: 0d78 3d3d a263 fb3c 6d1d fcbd f3a3 cf3d
00000260: 080a 153c 71e4 563d fc7d f4bd c559 693b
00000270: be54 b43c 2021 273c c9c7 c43d 9b42 ee3c
00000280: 7aee 813c 348f 073d 7875 fa3d 2e5a a93d
00000290: ca83 853b 0f67 0fbd 40df 49bd ca42 3f3d
000002a0: 1e57 25bd 3a20 663a 5d97 523e e24e 40be
000002b0: 641f f33c 1150 f43c 6e3f 053d cadf 9c3d
000002c0: 7759 36be 11d6 6c3c ed23 aabd 68f3 2cbc
000002d0: 8191 c6bc e7f0 063d 67e2 b13c 6928 dfbc
000002e0: 41b6 5c3c 1f34 c43c 4d04 02be 6d26 febc
000002f0: ce5b 8fbc 8b83 09bd ef3b f43d aa4e 293d
00000300: 28d0 e83d 69e6 7e3b 8050 2b3d ff2f 373c
00000310: a609 28b9 6d45 66bc cc17 b2bd a5b8 e5bc
00000320: 7893 a13d 756e d1bd 190c b9bd 4702 6ebc
00000330: 3dd5 b03d c4f5 5f3d 946d 07be 6121 90bc
00000340: c9da a8bd 72d0 c33c d696 433d ff38 963d
00000350: c4d2 88bb b968 3cbd 202a 023e 630d 173d
00000360: 46c6 86bd 6b85 0f3d 8428 d9bd e6ec bb3d
00000370: 7fb0 5f3d 9c88 4d3d ebf0 bc3d 85a5 b2bb
00000380: 17e9 ec3c a7ae 95bd 4aae 46be a756 c03b
00000390: 6558 7f3d 7a32 443b 5405 383c 6cfa 003c
000003a0: 45a5 9cbd 9d2a acbd afc7 30be 9dcb 98bd
000003b0: f6b0 cc3c 1841 a43d 5592 f2bc 19e6 833d
000003c0: 2ee2 7dbc 6efa 053e 5fef 19bd cafc 20be
000003d0: f0fc fc3c a17d 853c c75b ff3c 54c1 df3d
000003e0: 5b46 0b3d 88d7 25bd 9097 9bbd ec82 833c
000003f0: d0d0 753d 8cc8 9f3b 7208 03be a81a 123e
0.15987352 -0.036719635 -0.085039124 0.01689153 -0.022715883 -0.007881583 0.08168976 0.07881832
-0.08846561 -0.10798199 -0.141396 -0.011799831 0.05323421 0.031469587 -0.10823336 0.035270095
-0.13385639 -0.008952035 0.0065289433 0.04377589 -0.009144051 -0.011972711 0.038979378 -0.12963931
0.049269583 0.02445841 -0.0716876 -0.036345713 -0.033310704 -0.054719996 0.14611985 0.04150218
-0.009924486 -0.013439432 -0.077946804 -0.009930086 0.027291344 0.03031526 -0.06769172 0.036679707
0.03006004 -0.036168627 0.0787395 -0.009918119 -0.009801566 -0.029357193 -0.10896445 0.04188595
0.006838884 -0.035388514 0.03373185 -0.12459449 0.08352283 0.008284142 -0.054229796 0.17485768
0.07310545 0.1388832 0.052290723 -0.05176846 -0.01129078 -0.037952743 -0.06994983 0.02501371
0.011510996 -0.03507271 0.06700945 -0.11373688 0.02330582 0.027306609 -0.11426508 0.05026798
0.07602061 0.003840922 -0.058452383 -0.068926856 -0.011794161 -0.02693327 0.10911589 0.107047096
-0.12737042 -0.08689273 -0.08290937 0.03790816 0.09397682 0.00701378 0.053885736 -0.029883584
-0.14189947 -0.105782084 -0.14985418 -0.050782762 -0.020218624 0.08161097 -0.018009292 0.0150605375
-0.086124055 -0.00022403599 0.010735056 -0.15076813 0.094612114 0.03757867 -0.034433503 0.14920996
0.116613016 -0.041906796 -0.051756542 -0.02325113 -0.012446013 -0.040880315 -0.03378654 0.086258076
0.011515486 0.008595837 -0.10107553 0.083282374 0.034850396 0.010185843 -0.025753178 0.013326967
0.022420567 -0.0020355766 -0.024762748 -0.088231824 0.02388585 0.03241623 -0.045715358 -0.10720971
0.021827027 0.062161 0.15247189 0.0071251737 0.0057246727 -0.054633547 -0.090804376 0.056495495
-0.09861211 -0.09252106 0.028012846 -0.040649388 -0.016559137 0.044290625 -0.19528598 -0.0049129706
0.036444057 -0.034524206 -0.20115781 -0.13168909 0.046257067 0.030687157 -0.123103 0.10138693
0.00909663 0.052463952 -0.11938092 0.0035606485 0.022013064 0.010200769 0.096084185 0.029084494
0.015860785 0.033095554 0.12229437 0.082691535 0.0040745484 -0.035010394 -0.049285173 0.046694554
-0.040366285 0.0008778606 0.20565553 -0.18780091 0.029678054 0.029823335 0.032531194 0.07659872
-0.17807566 0.014455334 -0.083076335 -0.010556079 -0.024239304 0.032944586 0.021714402 -0.027240949
0.013471187 0.023950635 -0.12696953 -0.031024182 -0.01749983 -0.033572715 0.11925494 0.041334786
0.11367828 0.003889466 0.041824818 0.011180877 -0.00016025323 -0.014054638 -0.08695945 -0.028042147
0.078894556 -0.10226146 -0.090355106 -0.01452691 0.08634422 0.05467774 -0.13225394 -0.017594041
-0.08244855 0.023903105 0.04775127 0.0733509 -0.004175516 -0.04599831 0.12711382 0.036878
-0.065807864 0.035039347 -0.10603431 0.09176044 0.05461168 0.05017911 0.09225639 -0.0054518604
0.02891974 -0.07308703 -0.19402424 0.0058697048 0.06234016 0.0029937313 0.011231739 0.007872205
-0.0764871 -0.08406565 -0.17263673 -0.07460711 0.024986725 0.08020228 -0.029610792 0.06440372
-0.01549582 0.13083813 -0.037581798 -0.15721431 0.030882329 0.016295256 0.031171693 0.10925546
0.034002643 -0.04048875 -0.07597268 0.01605364 0.060013592 0.004876202 -0.1279619 0.14267981

fc1.bias f4 [400]
00000000: c72a 243e 8995 5cbe 693e 1f3d fa7e 713e
00000010: 9a76 2a3c 3e9e fd3d 4d00 20bb 55b2 8d3e
00000020: a479 05bc 3d28 483e dfe2 95bd ac74 69be
00000030: c448 babd 4c21 4e3e 4bf2 663c f84a 1bbd
00000040: 8cff 843e aebc 1fbe f6e5 2dbe 7977 e73d
00000050: 3d13 893e fffc b13d 9fbd adbd 6669 2a3e
00000060: 94ff 123e 30b5 51be ec6f 843e 21a0 213d
00000070: d9e6 a4bd 3e5c 75be 3fff ae3d 6283 febc
00000080: 6a17 7d3d 8d73 46be a3b8 063e 00d2 32be
00000090: 0691 753e f533 593d 3d88 163e 4942 363e
000000a0: 5701 803e 7711 cd3d bd02 693e 6eaf 51be
000000b0: ca35 513e 9558 3d3e f689 d9bd 367c ecbd
000000c0: 6d32 7d3e e5d6 7e3e 0a47 4bbe ddda a43c
000000d0: ebfc 3fbe 2f71 113e 6e49 66be 85db febd
000000e0: 36cc 5e3e 3dea 6a3e 81d6 863e 6d58 583d
000000f0: 969f 60be bccd 3c3e 9f42 833e c273 723e
00000100: 10cd 3b3e 9688 083a 2c24 1d3e 9786 9a3d
00000110: 126c 01be e15a 463e c669 b9bd f462 3b3e
00000120: 4789 bbbb 347d a23c 99e4 023e 2d31 653c
00000130: 31f4 113e 4ecb 67be 6a67 85be a35b 5a3d
00000140: ad37 a9bc 14bc e3bd cf07 6dbe 6dd6 433d
00000150: 9479 93bd ef8f 813e 9e71 61be 0281 adbd
00000160: 9ca8 2bbd dc59 5a3d 7b63 6cbe 2a36 123e
00000170: 32d0 82be 5b63 fbbd ce76 833d d676 02bd
00000180: 825a 7a3d 89cb 8cbe ae61 27be 0c48 5b3e
00000190: 641a 043e dcd5 0c3e 55cf 2b3e 0c15 473e
000001a0: e2a3 273e da9b 40bd 113a d1bd b739 2dbe
000001b0: 32ea d03d 80a2 d83c 9ddd cfbd e5f7 273e
000001c0: cdb1 373d e813 103c 11b8 febc 8f32 51be
000001d0: de2f 613e 6b4a 82be 0a2f 56be e457 763d
000001e0: 735a ecbd 1f5f 483e 2c04 263d 5600 cabd
000001f0: df14 9f3c d573 68bd f37e 0f3c da9b 9bbc
00000200: b998 13be f54e 77bd 565a 75be d6a4 09be
00000210: 87f9 083d c90a 483e 130a d5bb 13c8 5d3e
00000220: a39b 44be bb70 d33d 6946 773d f70d 9ebd
00000230: 2149 1a3e 897b 11be d92c 6e3c 4cb5 0b3e
00000240: 4dae d6bd 1680 2cbe 4b42 433e 7d49 49be
00000250: 5e19 9b3e 5d65 86bd 1dd3 f6bb 0d43 fcbd
00000260: 0222 5a3d d569 673e 3bbe e73d e5d8 d0bd
00000270: 7dfc 4fbd 717e 243e 3653 863d d9bf 443d
00000280: 2746 72be a1a9 5d3e 168c 2dbe b8ea b13c
00000290: 4df8 cb3c 6522 20be b891 4c3e 8bb2 9d3d
000002a0: 54d6 c3bd 6827 903e 6743 233e b5a5 813d
000002b0: 14f7 f9bd 61f1 2dbe f43d 6c3d 5b67 033e
000002c0: 1472 57be 51fb 943e c235 ef3c 8a93 c03d
000002d0: b593 f2bd 78da 82bd 8902 b9bc fe22 b0bd
000002e0: 48e6 023e fbbd 8d3e 1b40 bd3d 8d69 f73b
000002f0: 9d06 8c3d 454c c6bd 3ea7 f73d 9e41 4dbe
00000300: 6b3b 563e dc09 16be 7d99 0cbe f26a 54be
00000310: c834 1abd ae03 723e 68bc b53d bf15 00be
00000320: e63c 873e 4b51 873d ae5f 9dbd 7cd9 32be
00000330: 810d 873e d6f7 3abe 6147 a8bd 74d3 8abd
00000340: 4f88 52be a287 993e d6bd 00bd bc19 5abd
00000350: b38b 3b3e 49aa d2bd 6267 243e dea6 aabd
00000360: 1d71 103e f2eb ef3c 106e 3d3e 9a9b 363e
00000370: 7530 203e 90f4 dbbd 50e8 70be 8515 9ebd
00000380: bda1 64be 8ea3 333e 2934 f63c 2af5 773e
00000390: a63c 883e 1b5b 01be 984f 3bbc 71cd 703e
000003a0: f42f 633e e72f 4d3d 33f4 2f3d 747b 81bd
000003b0: 344e 6cbe 8237 80bb 3c1b cc3d 6d6a 0a3e
000003c0: 5917 373e 8b3c a93d 6cb4 5bbe 27c2 01be
000003d0: f21b 5ebd 167c 0c3e 8a15 823e 312f f13b
000003e0: 5bf6 e0bc bc29 5b3d 3ac1 4bbd 29f6 fd3b
000003f0: c312 753d fac5 85be 6929 713e 093f 37be
0.16031943 -0.21541418 0.03887788 0.23583594 0.010404253 0.12383698 -0.0024414242 0.2767512
-0.008146677 0.195466 -0.07318663 -0.22798413 -0.0909591 0.20129889 0.014095853 -0.037913293
0.25976217 -0.1559932 -0.16982254 0.113020845 0.2677249 0.08690833 -0.08483433 0.16641769
0.14355308 -0.20479274 0.2586664 0.03945935 -0.08051843 -0.23960969 0.08544778 -0.031068508
0.061789908 -0.19380017 0.13156371 -0.17462921 0.23981103 0.053028066 0.14700408 0.17798723
0.25001022 0.10013097 0.22754951 -0.20477077 0.20430675 0.18490823 -0.10622017 -0.11547129
0.24726267 0.24886663 -0.19851318 0.020123893 -0.18748824 0.14203332 -0.22488949 -0.12444214
0.21757588 0.22940917 0.26335528 0.052818704 -0.21935877 0.18437856 0.25636765 0.2367697
0.18339944 0.0005208341 0.1534583 0.07545202 -0.12638882 0.19370605 -0.09053378 0.18299466
-0.005723152 0.019835092 0.12782516 0.013988775 0.14253308 -0.22636148 -0.2605546 0.053310048
-0.020656431 -0.111198574 -0.2314751 0.047811914 -0.072009236 0.25305125 -0.22015998 -0.08471872
-0.041908845 0.053308353 -0.23084824 0.14278474 -0.25549465 -0.1227481 0.064191446 -0.031851612
0.06112147 -0.27499035 -0.16345856 0.21414202 0.12900692 0.13753456 0.1677831 0.19441622
0.1637111 -0.04702363 -0.102161534 -0.16916548 0.10200919 0.026444674 -0.10149691 0.16403158
0.0448473 0.0087938085 -0.03109363 -0.20429443 0.21990916 -0.254474 -0.20916381 0.060142413
-0.11540689 0.19567536 0.040531322 -0.09863345 0.019419132 -0.05675109 0.008758294 -0.018995214
-0.14413728 -0.060378034 -0.23960242 -0.13441786 0.033441093 0.19535364 -0.006501445 0.21658354
-0.19199996 0.10324236 0.060369883 -0.07717507 0.15066959 -0.14207281 0.01453706 0.13643378
-0.10482464 -0.16845736 0.19068258 -0.1965694 0.3029279 -0.06562302 -0.007532491 -0.123174764
0.05325509 0.22598965 0.113155805 -0.10197619 -0.0507779 0.16063859 0.0655884 0.048034523
-0.23659573 0.2164674 -0.1694797 0.021718368 0.024898672 -0.1563812 0.19977462 0.0770007
-0.09562364 0.28155065 0.1594368 0.06330434 -0.122053295 -0.1698661 0.05767627 0.12832396
-0.21039611 0.2909799 0.029200438 0.09403141 -0.11844579 -0.06389326 -0.022584217 -0.08600424
0.12783158 0.27684006 0.09240743 0.0075504244 0.06837199 -0.09682516 0.12092446 -0.20044562
0.20921104 -0.14652199 -0.13730426 -0.20743921 -0.037647992 0.23634216 0.08873826 -0.12508295
0.2641365 0.06607302 -0.07684265 -0.17465776 0.2637749 -0.18258604 -0.082167394 -0.06778613
-0.2055981 0.29986292 -0.03143104 -0.0532472 0.1831501 -0.102863856 0.16055062 -0.08332609
0.1410565 0.029287312 0.18499017 0.17832795 0.15643485 -0.10740006 -0.2352612 -0.07718948
-0.22327323 0.1754286 0.030054169 0.24214616 0.2660877 -0.1263241 -0.011432551 0.2351587
0.22186261 0.05009451 0.042957496 -0.06322375 -0.23076707 -0.003912867 0.09966132 0.1351716
0.1788 0.08263501 -0.21455544 -0.1267172 -0.05422587 0.1371921 0.25407058 0.007360362
-0.027461221 0.053506598 -0.049744822 0.007750292 0.059832346 -0.26127607 0.23550953 -0.1789514

ln1.weight f4 [400]
00000000: 4656 713f 670d 423f 0f61 8b3f 7248 423f
00000010: 0a3a 013f 4b04 553f f16a 883f c35d da3e
00000020: 7ce6 6c3f c54c 4c3f e591 893f bff6 573f
00000030: 11f4 933f 1cc5 e03e 3c3a 773f dddf 603f
00000040: 7cae 803f c5d0 943f a996 7a3f 8e93 673f
00000050: 0484 133f e94e ee3f c4c0 813f 3d2d 923f
00000060: e6b4 723f eaf2 ad3f e6eb 243f 11b2 903f
00000070: 3030 8d3f 8535 763f bbf3 633f 7622 823f
00000080: d8b9 4d3f d34a 743f 8a90 663f 6284 613f
00000090: 61e3 663f 8aa1 a43f 3207 753f 0bc0 6c3f
000000a0: 59eb 323f 03a4 523f f647 483f ab74 573f
000000b0: 463e 543f 7a6c 253f 5431 793f 19b8 833f
000000c0: c90e 223f 3e9a 513f bc4a 4e3f 958c 323f
000000d0: d25d 7d3f 824f 4a3f c3bd 7b3f 73f4 6a3f
000000e0: d7e0 5d3f 28ea 403f a1d6 543f b23f 9d3f
000000f0: fa96 723f 2e14 d63e 13bb 483f cac4 653f
00000100: fa94 533f 1444 6c3f 0cb3 563f 606d 873f
00000110: 08dd 713f 1f9b 583f 9b76 903f 1a26 813f
00000120: af8c 9a3f 0443 483f ae59 893f 0e41 bf3f
00000130: 21ab 873f 8601 563f 74b8 453f 2f37 8d3f
00000140: 1c3a 723f 7d9a 4c3f 9996 9b3f 7412 8b3f
00000150: b02f 903f a7ed 0e3f fd88 aa3f 2dfa 9a3f
00000160: 931b 523f 5ae9 c73f dee2 7d3f c685 6f3f
00000170: eeaa a03f 5bff 933f 6b72 663f a79e 573f
00000180: bcb5 6c3f 5faf 9b3f aa77 383f f761 823f
00000190: 855e ac3f 0df7 7c3f 04ef 663f 24da 483f
000001a0: dec8 843f 2a98 9d3f 5ba0 8c3f c6a6 423f
000001b0: 1eba 653f 893a e33f fea2 6f3f 1f2c 583f
000001c0: e060 bb3f 5488 6b3f 2109 953f 6491 973f
000001d0: 40ae 1c3f b2c5 833f eef7 9c3f 6a49 7e3f
000001e0: 0535 863f fca9 213f 2930 0340 773f 213f
000001f0: 239b 643f 2c2c 9f3f 3059 a03f cd2d 2d3f
00000200: 4cd7 9d3f 64c6 963f 9aa2 653f 07c4 523f
00000210: a144 8b3f c8dd 263f 81b5 b93f a583 ed3e
00000220: e0cb 7f3f a17e 293f f1ec 933f 16a0 8c3f
00000230: c914 933f 6285 923f eb64 9c3f 7b42 913f
00000240: 6726 3d3f ab1b b73f d2d8 123f 89ac 483f
00000250: c39b 533f 8d26 7a3f 8e02 a93f 3c52 823f
00000260: 396e 973f 521c 553f cee1 803f 0a6a 6e3f
00000270: f3fc 303f 524b 343f 8e4c 813f 52b7 ca3f
00000280: 4721 5f3f 8f07 803f e114 7f3f 912e 933f
00000290: 6a57 b43f fef2 5f3f db5c 343f 81f0 5d3f
000002a0: 4cc6 5c3f 211e 1c3f 9f1a 2c3f 0e68 903f
000002b0: 5e32 893f 1362 4c3f e1dc 953f 54a0 843f
000002c0: 68b7 433f 6f7c 5c3f 5a60 773f 7af7 403f
000002d0: 596d 2c3f 256e 7d3f 467d 923f ad64 463f
000002e0: 9594 1b3f e384 4e3f 1e76 883f 2a4a a33f
000002f0: 34c2 603f 673c 8a3f 343b 413f 5651 723f
00000300: ae92 133f 09f4 8b3f bcdf a13f 4ad6 bd3f
00000310: 646a 773f 7964 3b3f 7e14 8a3f 4490 423f
00000320: e1b1 f43e f99d 823f fc7d 9b3f 7876 7a3f
00000330: cdc2 453f 52d5 4d3f 5ba3 8e3f db5d 6a3f
00000340: b963 9f3f 53c0 503f 9c08 8b3f 3fee 283f
00000350: 15fb 5f3f 4995 8f3f a450 6e3f 80f2 8b3f
00000360: 68b7 893f a976 0040 d1b2 7f3f d461 673f
00000370: c7ad 783f 43a9 853f 08ab 763f 2678 c03f
00000380: 0240 8d3f e450 7c3f 913b 703f 83a5 2a3f
00000390: 320d 493f 4026 8d3f cff1 7a3f 7dcd 403f
000003a0: 9551 473f 980a 8a3f 047f 923f 56ca 873f
000003b0: 329a 3b3f a28c a93f 60c1 7f3f 06d7 2e3f
000003c0: 42d1 243f 2876 8e3f 6875 3b3f 5436 773f
000003d0: e12d 633f be30 653f 57b0 493f 1180 933f
000003e0: 8e94 aa3f 47c6 a03f f2fa a03f 15e8 c13f
000003f0: 6ab2 7f3f c3b0 9d3f a360 3c3f e586 743f
0.9427227 0.758017 1.0888995 0.7589179 0.50479186 0.83209676 1.0657636 0.4264966
0.9253919 0.7980464 1.0747648 0.8436088 1.1558858 0.43900383 0.96573234 0.8784159
1.0053248 1.1626211 0.9788614 0.90459526 0.57623315 1.8617831 1.0136952 1.1420056
0.9480728 1.3589756 0.6442245 1.1304342 1.1030331 0.96175414 0.8904378 1.0166767
0.803617 0.9542667 0.900643 0.88092625 0.901907 1.2861798 0.95714104 0.92480534
0.6989036 0.8228151 0.78234804 0.84162396 0.8290752 0.6461865 0.97340894 1.0290557
0.6330381 0.8187598 0.80582786 0.6974576 0.98971283 0.7902757 0.9833643 0.9177925
0.86671203 0.75357294 0.8314 1.2285063 0.9476162 0.4181227 0.7841045 0.897534
0.82649195 0.9229138 0.83866954 1.0580254 0.9447789 0.84611696 1.1286196 1.0089753
1.2074183 0.7822726 1.0730493 1.4941728 1.0599099 0.83596075 0.7723458 1.1032466
0.9461992 0.7992323 1.2155334 1.0865006 1.1264553 0.5583138 1.3323056 1.2107598
0.82073325 1.5618088 0.99174297 0.935635 1.2552164 1.1562303 0.9001834 0.8422646
0.92464805 1.2162894 0.7205759 1.0186146 1.3466345 0.9881447 0.9020846 0.78457856
1.03738 1.2312062 1.0986437 0.76035726 0.8973712 1.7752239 0.9360808 0.84442323
1.4638939 0.92004895 1.1643411 1.1841245 0.61203384 1.0294707 1.2263162 0.9933077
1.048493 0.6315 2.0498145 0.62987465 0.8929922 1.2435355 1.2527218 0.6764801
1.2331328 1.1779294 0.89701235 0.82330364 1.0880319 0.6518216 1.4508516 0.463895
0.99920464 0.66208845 1.1556684 1.0986354 1.1490718 1.1446955 1.2218298 1.1348413
0.7388672 1.4305319 0.5736209 0.7838827 0.8265955 0.97715074 1.3203905 1.0181346
1.1830512 0.8324634 1.006891 0.9313055 0.6913597 0.7042743 1.0101488 1.5837195
0.8716015 1.0002307 0.99641234 1.1498586 1.4089177 0.8748015 0.70454186 0.86695105
0.86240077 0.60983473 0.6722812 1.1281755 1.0718496 0.7983715 1.1708032 1.0361428
0.7645173 0.8612737 0.96631396 0.7537762 0.6735435 0.9899619 1.144448 0.7749737
0.60773593 0.8067152 1.0661047 1.2757008 0.8779633 1.0799683 0.7548096 0.9465536
0.5764569 1.0933849 1.2646403 1.4831021 0.96646714 0.73200184 1.0787504 0.7600138
0.4779196 1.020446 1.2147822 0.9783702 0.7725037 0.80403626 1.1143602 0.9154946
1.2452308 0.81543463 1.0862002 0.65988535 0.87492496 1.1217433 0.930918 1.093338
1.0759096 2.0072424 0.9988223 0.9038365 0.97140163 1.044228 0.9635472 1.5036666
1.1035159 0.9856093 0.9384089 0.666588 0.7853576 1.1027298 0.9802522 0.7531355
0.7785886 1.0784483 1.1445012 1.0608623 0.7328216 1.3246043 0.9990444 0.6829685
0.643818 1.1129808 0.7322602 0.96567273 0.8874188 0.895275 0.787847 1.1523458
1.3326585 1.256051 1.2576582 1.5148951 0.99881613 1.2319568 0.73584956 0.9551833

ln1.bias f4 [400]
00000000: 056f 23be 6d5a 9ebe c6e2 d7bd 2302 59be
00000010: a359 cdbe 0896 42be c545 51be 1db4 03bf
00000020: f28b a8bd bf86 53be ba69 a2bc 07c5 c7bd
00000030: c2e8 04be 54d1 ffbe 2580 dbbd 6bf5 53be
00000040: 1f6e 84bd 98ff 703d 6d73 9dbd 1626 e8bd
00000050: e811 bcbe 24ed e4bd 34a1 833b 840d 25bd
00000060: 9918 c5bd e8ad 94bd 9595 9dbe beed 4abd
00000070: 9b19 8b3c 610a 85be 6e12 2cbe 8c71 4bbd
00000080: 5e48 49be 1eb9 54bd dfb0 35be fe6d 30be
00000090: 62eb 06be fde3 823c cc26 aebd 5629 ffbd
000000a0: 367e 89be 2c32 4dbe 5dfc 53be 31f4 0fbc
000000b0: 41f5 3bbe 0d01 aabe 13a6 0bbc 617e e9bc
000000c0: 3619 bcbe 5847 5abe 228f 7cbe 3a75 98be
000000d0: 3ab6 4abe 0e16 5fbe 9518 9ebd f165 3ebe
000000e0: 9e8b 43be 4338 8cbe d9c0 2abe 4530 0cbe
000000f0: 0818 5dbb f4b8 0bbf 8ab1 3fbe 24ad 03be
00000100: 009a 37be dec4 bebd 4878 3fbe 0515 cdbd
00000110: a014 1ebd 6564 54be 5dc6 963c 8706 91bd
00000120: 6903 42be bdcb 8bbe 1e60 8abd 5c2e 633d
00000130: b107 45bd 01de 38be d7bd b1be dde7 0abe
00000140: d794 22be 4cdd 33be 9e6e 4dbe f4f9 e9bc
00000150: e5d9 133d ed0d e4be 3daa 58be 1737 3bbe
00000160: 6cda 18be d9ad c9bd 5a2a 89bd 2e79 3fbe
00000170: c93e ffbd b621 8bbd 7256 00be 4b01 1abe
00000180: 977b edbd 83b5 ecbd f332 aebe 3c7b 84bd
00000190: c3ed 62bd 7237 a1bd 6351 05be dc6e b8be
000001a0: 4e2d 19be e5a2 81bd 574d 1f3d 80e7 7abe
000001b0: 6446 53be bfac 03bd dca2 5bbe 1ce4 88be
000001c0: a2be 893d 2a81 11be a2c7 9e3d c01e d2bc
000001d0: fd78 c8be 8da8 41be fbde 01be 1f3c a0bd
000001e0: 7241 0abd c883 a7be 4826 023e 9ffd 91be
000001f0: e4c4 71be d492 3ebe 1cdb 72bd 504c 9ebe
00000200: a861 85bd f785 9a3b 9621 03bd 50e3 bdbe
00000210: 1249 0cbd 2161 b7be 10a3 12bd 7047 e4be
00000220: 8b63 b9bd 745a a9be 14c1 14be 4502 8fbd
00000230: 97cc 0ebe 0299 50be 84b9 14be 7f55 82bd
00000240: 6236 693d f81b c2bd e307 bebe 597e 35be
00000250: 2a29 32be 2c72 00be 34f8 abbc f19b 7bbe
00000260: 1ea1 6ebb 1118 10be 692d a6bd 6a6f 9bbe
00000270: 931d a4be 7cea 8ebe 0152 97bc b99d ce3c
00000280: cb7f 93be 85f1 8bbd 5b4e 2dbd d5a5 10bd
00000290: 9949 f33c 10b1 13be 1943 98be 51ca 98be
000002a0: 1635 50be 2963 c8be 3808 a1be a301 8bbe
000002b0: 85c4 803c ecbf 6bbe 7975 ecbc c3b3 f8bd
000002c0: a551 99be 4245 23be 45b7 b9bd dcc7 89be
000002d0: bb92 e8bd 775e cc3d 406e 5b3d 2fdb a3be
000002e0: 0598 c2be fd4f 43be 1611 f3bc f727 66bd
000002f0: caa6 73be 9a8e 873b 8fa5 8ebe 6c22 303c
00000300: 065e c7be d07f 353c f315 ffbc 018b 85bd
00000310: 3f23 2aba 7983 9abe 8873 42bd d6df 82be
00000320: 10cb 0fbf 2758 3cbd 97d7 c5bc 0425 72bd
00000330: 270d 4fbe 3173 89be 0cae 9fbd 68dd 20be
00000340: 94a6 9ebd e39a 27be fb81 2bbe d88a f3be
00000350: d894 1ebe 1eb2 15bd f0e5 66be f96b abbd
00000360: 4a8f 3abd 7a48 4d3d 6a61 c6bd f4e5 f7bd
00000370: e445 b7bd 4ece 0a3c 6043 f9bd 39de 103d
00000380: f5b8 66bd 6d36 93bd a143 a1bd 0935 90be
00000390: a8b0 5fbe ba77 3fbe 99bb 68be a2ee 81be
000003a0: 689c 5cbe 4cf8 1fbe b8a8 d2bd b8ba 41bd
000003b0: dc0a a0be fae1 10bd f537 79bd 44a6 c1be
000003c0: 5da0 9ebe bd3c 6dbc 7bee 94be 525a 5fbd
000003d0: 2119 3abe 92f8 08be 7150 9abe cc9f ffbc
000003e0: 1238 133d 0b89 cdbc 53b7 b93d fc7e a3bd
000003f0: 031e 4cba 31f6 493d 3a13 88be 7ef3 a2bd
-0.1596032 -0.30928364 -0.105413005 -0.21192221 -0.4010745 -0.19002545 -0.20436771 -0.51446706
-0.082298175 -0.2065687 -0.019825805 -0.09754377 -0.12979415 -0.49964392 -0.10717801 -0.20699088
-0.064663164 0.058837503 -0.07688031 -0.11335389 -0.3673241 -0.111780435 0.0040170196 -0.040296093
-0.09623832 -0.072597325 -0.30778185 -0.049543135 0.016979983 -0.2598448 -0.16803905 -0.049668834
-0.19656512 -0.051934354 -0.17743252 -0.17229459 -0.13175729 0.015977854 -0.08503494 -0.12459056
-0.26854104 -0.2003867 -0.20701738 -0.008786247 -0.18355276 -0.33203927 -0.008523482 -0.028502645
-0.36737984 -0.21316278 -0.24663976 -0.29776937 -0.19796076 -0.21785757 -0.077195324 -0.18593575
-0.19096228 -0.27386674 -0.16675128 -0.13690288 -0.0033736248 -0.5457909 -0.1872007 -0.12859017
-0.1792984 -0.09314893 -0.18698227 -0.10013775 -0.03859389 -0.20741422 0.018405134 -0.07081323
-0.18946613 -0.27303877 -0.06756614 0.055464134 -0.04810304 -0.18053438 -0.3471515 -0.13565011
-0.1587709 -0.17564887 -0.20061728 -0.02856157 0.036096472 -0.44541875 -0.21158691 -0.18282734
-0.14927071 -0.09847612 -0.06697531 -0.1869857 -0.12463147 -0.06793539 -0.12532976 -0.15039556
-0.115958385 -0.11558058 -0.34023246 -0.064688176 -0.05540253 -0.078719035 -0.13019328 -0.3602208
-0.14958689 -0.06329898 0.038892116 -0.24502373 -0.2063232 -0.032147165 -0.21448845 -0.26736534
0.067258134 -0.14209428 0.07752921 -0.025649428 -0.39154807 -0.18911953 -0.12682717 -0.07823967
-0.03375382 -0.3271773 0.12709916 -0.2851381 -0.23610264 -0.18610698 -0.05929099 -0.30917597
-0.06512767 0.004715677 -0.032014452 -0.37087488 -0.034249373 -0.3581629 -0.03580004 -0.44585752
-0.090521894 -0.33076823 -0.14526778 -0.06982855 -0.13945232 -0.20370868 -0.14523894 -0.06363963
0.05693663 -0.09477991 -0.37115392 -0.17723979 -0.17398515 -0.12543553 -0.020992376 -0.24571206
-0.0036411951 -0.1407168 -0.0811413 -0.3035844 -0.32053813 -0.27913272 -0.01847172 0.025221692
-0.28808436 -0.068331756 -0.042311054 -0.0353144 0.02969818 -0.14423013 -0.2973869 -0.29841855
-0.2033275 -0.39138153 -0.31451583 -0.27149686 0.015718708 -0.23022431 -0.02886461 -0.12143662
-0.29945102 -0.15944389 -0.09068159 -0.26910293 -0.113561116 0.09978955 0.05357194 -0.3200316
-0.38006607 -0.19073482 -0.029671233 -0.056190457 -0.23794094 0.0041368725 -0.27860686 0.010750394
-0.38938922 0.011077836 -0.031138396 -0.065206535 -0.00064902374 -0.3017843 -0.04747346 -0.25561398
-0.56169224 -0.045982506 -0.024150653 -0.059117332 -0.20219861 -0.26845697 -0.07796869 -0.1570946
-0.07746616 -0.16367678 -0.16748802 -0.47566867 -0.15486467 -0.03654682 -0.22548652 -0.083702035
-0.045546807 0.050117947 -0.09686549 -0.12104407 -0.089488775 0.008472038 -0.12171054 0.035368178
-0.056328733 -0.07188115 -0.07874227 -0.28165463 -0.21844733 -0.18698016 -0.22727813 -0.25377375
-0.21544039 -0.15622061 -0.10286087 -0.04729721 -0.31258285 -0.035371758 -0.06084438 -0.37822163
-0.30981722 -0.014479813 -0.29088196 -0.054529496 -0.18173648 -0.13376072 -0.30139497 -0.031204127
0.035942145 -0.025089761 0.090681694 -0.07983205 -0.00077864545 0.049307052 -0.2657717 -0.07956599

fc2.weight f4 [300, 400]
00000000: 3680 043c e1c9 ff3b 7f21 4ebd 884b ac3d
00000010: 6c96 643d abcb 1fbb af36 463e bfe4 263e
00000020: 21ea 953d 106a dd3c 10b3 c33d 7faf 023e
00000030: f055 3f3e 4d59 e03c 5c9d 72be d7b3 b63d
00000040: 0b4e 5f3c db4c 84bd 2626 6c3d f74d fd3c
00000050: 35ec 223d 367b 893e b79f 843d 14a6 073e
00000060: 1ef3 a23c 1ca3 2e3e bf16 b73d 5391 853d
00000070: 1571 9f3d eec4 613d 1741 a23d 5297 723e
00000080: 6a95 983d 4a32 dfbc d8b5 b73d d0d6 2c3e
00000090: 3fb0 dd3c 01bf 14bd 9572 993c 1e81 a73d
000000a0: 0233 9e3d d39a c03d 0e6d 903d 30e2 7b3c
000000b0: f40c 2c3d 12c2 fb3c e0ab 553b 4183 3e3d
000000c0: b6c2 9c3d 3b3c 0cbd c840 e83c 4e43 773d
000000d0: b474 95bc 8fe0 bb3b 26f2 b83d 3150 1c3e
000000e0: cb9e a13c 53d2 6e3c 3e74 433d a070 bcbd
000000f0: 7168 b83d 4009 4e3e 6dc3 0f3d 50d3 023d
00000100: 6381 503d c64d 863d a681 813d fcbb dd3d
00000110: 802c 473d dd68 ac3d 5edd c83d f282 f63b
00000120: 2f75 dc3d b8e9 403e e82a a33d 5c94 f8bd
00000130: d598 a43d 16f1 023c 9bff 763d 479d 703d
00000140: 583a c93b c74f 22bd 6798 fd3c 9e57 b83c
00000150: 5125 a9bd fd18 563d 5ebd 6b3d b12e da3d
00000160: de31 823b 7201 8c3e e2fd dd3d 2b60 b3bd
00000170: b9c4 6f3d 5f13 023e 2b3f 0f3c eff3 34bc
00000180: 9876 fa3d 5273 1e3e f82c a03d 62a8 3bbd
00000190: b162 153e 0728 f03d ae02 4a3d e3d0 093e
000001a0: 91f4 203d 43d2 683e 82d1 853d 92a6 2c3c
000001b0: 5a9c 3d3d 955f b4bd 072a 2b3d 0639 223d
000001c0: 5fce ea38 8c9e 1f3d 9620 273e 1711 3cbd
000001d0: a895 923b 3e3b ce3d 6a28 f9bc 275b eb3d
000001e0: 33c3 c2bc d399 61bd 2aee 48be 67bb dabc
000001f0: d967 b3bc b270 1c3e aa12 bdbd 5392 503c
00000200: 8f6e be3d 20e8 963a d13f 093d e7b6 1b3e
00000210: e591 12b9 d21b de3d 4d53 97bd d5a9 313d
00000220: 3cb3 92bd ec53 a13d 8d64 3ebc ea66 ea3d
00000230: 94ae 163e 9da0 4fbc 09bf dc3d 812d 13be
00000240: 9bb3 623d 8cfc cc3c 6947 9d3d 9d21 04bd
00000250: 5f38 8e3d 05b8 643d 1dde 4abd 0389 e93d
00000260: 1e09 be3d c01e ae3d 9a7b b33d 0c0d 063e
00000270: eccc b33d f6e8 543d fbda 8a3d cf47 913d
00000280: 0c51 013e f881 bf3b cfa6 0d3e d8eb 633d
00000290: 3e6f 383d e71e c0bc eadf 54bc 136e 00be
000002a0: fb74 9b3d 45c3 113e 2395 653d 7be3 643d
000002b0: f6dc d13d 092a bd3d b913 633d 4c8e 693d
000002c0: 4d35 0e3e 7afc 983d 0609 833d 1567 e53d
000002d0: 0a4d fa3d a7f5 093a 020f 623c 786d 203e
000002e0: 7da9 c33b b814 5d3d 5cfd 553c 9a0e 003d
000002f0: ad20 ac3c d243 203e 04b0 843d 9363 3d3d
00000300: 74b4 933d f000 273e 3437 06bc dbc5 423d
00000310: 439a 11bd 64fa 843d ecb3 d03d 7e0b 2f3d
00000320: 4d3e c9bc dd2c 983d cccc 5c3e c1eb ff3d
00000330: e483 d43d 03b0 08bc f170 6a3d 2b67 023c
00000340: a543 4f3b 4867 e93d 3318 883d b129 2b3e
00000350: 052a af3d 516e 543e 42b6 833d c8d4 e93d
00000360: a07a 343c f239 ba3d 2f0a c33b 97e0 663c
00000370: 0733 463d 7b6b af3d e85a 253d 072e ebbd
00000380: b6d1 8b3d ec4a 523d 0e47 b13d c261 b5bc
00000390: 9783 a23d e3df d23d 83bc c7bb 3954 be3d
000003a0: ed92 033e 3448 e6bd 35d4 5f3e df44 8f3d
000003b0: 06f2 873d a0f9 333e 4d94 de3d 9035 363e
000003c0: e834 213e b0e0 0b3d 1874 bfbd db63 093d
000003d0: 2168 fabc 3bcd ae3c 24dd 7c3c ceff 7bbc
000003e0: e340 38be 2dce 9d3d c462 cd3d 2c5a 063d
000003f0: 8f2b 063e ea83 b6bd c937 a33d a196 0f3e
0.0080872085 0.0078060483 -0.050324913 0.08412844 0.055807516 -0.002438287 0.19356798 0.16298197
0.07320047 0.027028114 0.09555638 0.12762259 0.18685126 0.027386332 -0.2369284 0.089210205
0.013629447 -0.064599715 0.05765357 0.030920966 0.039776046 0.26851815 0.06475776 0.13246948
0.019891318 0.17054409 0.08939885 0.06521859 0.077852406 0.055119447 0.07922571 0.23690537
0.074503735 -0.02724566 0.08970231 0.1687882 0.02706158 -0.036314968 0.018731395 0.08178924
0.07724573 0.094045304 0.070520505 0.0153737515 0.04200454 0.030732188 0.0032603666 0.046511892
0.07654326 -0.034237128 0.028351203 0.06036692 -0.018244125 0.0057335566 0.09030561 0.15264966
0.019729039 0.014576512 0.04771828 -0.09201169 0.090042956 0.20120716 0.035098482 0.031939805
0.050904643 0.06557803 0.063235566 0.10826871 0.048626423 0.084184386 0.098078474 0.007522934
0.107645385 0.18839157 0.07967168 -0.12137672 0.08036963 0.00799205 0.060302358 0.05874374
0.0061409883 -0.039626863 0.03095646 0.022502717 -0.08259071 0.052269924 0.05755364 0.10653437
0.00397323 0.27344853 0.1083944 -0.08758577 0.05853722 0.12702702 0.008743088 -0.011044486
0.12229651 0.15473679 0.07821077 -0.04581488 0.14588429 0.117263846 0.04931896 0.1345859
0.039295737 0.22736458 0.06534101 0.01053776 0.046291687 -0.08807293 0.041788127 0.039605163
0.00011196429 0.03896956 0.16321024 -0.045914736 0.004473407 0.10069893 -0.030414779 0.11491995
-0.023774719 -0.05507834 -0.19622102 -0.026700689 -0.021900104 0.15277365 -0.092320755 0.012730199
0.09298431 0.001151327 0.033508126 0.1520649 -0.00013977995 0.1084515 -0.07388935 0.043374855
-0.071630925 0.07877335 -0.011620653 0.114454105 0.14715034 -0.0126725705 0.107786246 -0.14372827
0.055347066 0.025022767 0.07679636 -0.03225862 0.06944346 0.055839557 -0.04952823 0.11403086
0.09279083 0.08501959 0.087638095 0.13090914 0.0877932 0.05197998 0.067800485 0.070937745
0.12628573 0.005844351 0.13833164 0.05564484 0.045027964 -0.023452235 -0.012992838 -0.1254199
0.07590672 0.14234646 0.05605043 0.055881005 0.10247223 0.09236533 0.05543873 0.05702047
0.1388752 0.07470031 0.063982055 0.11201302 0.12221725 0.00052627403 0.013797523 0.15666759
0.0059711323 0.053974837 0.013060894 0.031263925 0.021011675 0.15650871 0.06478885 0.04623754
0.07212153 0.16308951 -0.008191872 0.04755197 -0.035547506 0.06493071 0.101905674 0.04273557
-0.02456584 0.07430432 0.21562499 0.12496138 0.10376719 -0.008342746 0.057236616 0.0079591675
0.0031626013 0.113966525 0.06645241 0.16715123 0.085529365 0.20745207 0.06431247 0.11417538
0.011015564 0.090930834 0.0059521417 0.014091632 0.048388507 0.08565422 0.040369898 -0.114833884
0.068271086 0.051340982 0.08656131 -0.022141341 0.07935255 0.10296609 -0.0060954704 0.09293408
0.12849016 -0.112442404 0.21858294 0.06995558 0.06637959 0.17575693 0.1086813 0.1779387
0.15742838 0.034149826 -0.09348315 0.033542495 -0.03056723 0.021338096 0.015433583 -0.015380813
-0.17993502 0.077053405 0.10028604 0.03280084 0.13102554 -0.08911879 0.079696245 0.14022304

fc2.bias f4 [300]
00000000: e0e9 813b fafc 9b3d e9a8 b63c e202 d63d
00000010: 4967 ccbb 2fe0 8c3d 1187 983d 5078 bb3d
00000020: fad0 c63d ef4b 2d3c d3ef 303c 72e5 94bc
00000030: b0ac a83c 8407 4b3d 1cbc 093d 2468 f53d
00000040: 8139 913d 0094 5d3d ef28 653c 52cb 83bb
00000050: dce1 783c be96 e03d 72d7 8d3c fe95 d53d
00000060: d8e8 903d b130 413d 15bc 073d 05fb ed3c
00000070: 1d09 a13d 7543 3d3c ad1e 1b3d dbb0 3c3d
00000080: 0070 923d e1f7 fa3d c91a 8b3d 0290 5c3c
00000090: 6abf c53d d249 a6bc 880b a43c 953e c73d
000000a0: cf65 753d 494c 7d3d 2d29 ac3d dad9 163d
000000b0: cf75 9c3d 01ca d93d a06c c93c 4712 3a3d
000000c0: 19cb c7ba 630c 853d e240 8a3c a11f b23d
000000d0: ffcc 2f3d cd8a 3f3c 6f97 123d ac35 953d
000000e0: 0e50 893d 4738 a53d 51e3 1b3c b2b1 633d
000000f0: a066 843d e440 c43c 8766 9d3d ea5e 563b
00000100: 9d04 89bd 3cf7 4a3d 47b5 633d 9dfd e93d
00000110: bd66 803b 364a 173d 0399 b6bb b25d 2bbc
00000120: f002 833c eb32 3c3d a13c e23c f5ed e63c
00000130: c8b3 033d 71cc e2bc 9066 d1bb a451 3e3d
00000140: f6c1 b13c 1b97 473c 3bc2 523d 404e 683d
00000150: 77be 7f3c 2cb6 bb3c 491f f639 ad57 a43d
00000160: d609 b63d 7009 27bc 5cc7 c43d 84d7 263d
00000170: 87e3 a33c f658 a13d afbf 933d 8e6c 883d
00000180: ffa2 14bd 2196 993d 6ff6 2c3c 33de 723c
00000190: ab43 d53d 9f1d 7c3d bc93 413d 3fe8 bd3d
000001a0: 785d 5c3d 418e ab3d 6a06 b53d 0ac6 a7bc
000001b0: 5bb2 083d d515 833d 1f2f 2c3d e7d6 5b3d
000001c0: 7d3f dc3d 0893 dd3d 094b 88bb b30f 903d
000001d0: 9e3c 6d3d c49b 9d3d 2eb0 493d 4bce 7b3d
000001e0: 7eeb ac3c 2330 2cbc 4346 163d f848 bbbb
000001f0: 1974 753c 4bb6 a13d 7c5c 813d 6253 123d
00000200: 7d81 183d 352e b73d 0acc 663d 13ed 9d3c
00000210: 4d45 c13d 0d68 cd3d 7b3c df3c f5b8 963d
00000220: f175 923d 6a8a 573d 88e9 823d 8e2e c33c
00000230: da35 733d d6c3 c23c 3595 673d 1828 923d
00000240: b160 703d 95e4 753d c5e6 593d 005d 793c
00000250: a746 603d d3da a53d 9ed8 f93b c988 c13d
00000260: 7e18 96bc 6f96 933c cf57 853d 2f18 753d
00000270: c0d1 f53d 5788 833c cc3a d4bb efb4 353d
00000280: c80e 943d 3b5e d53d b3d5 fa3a 6cb8 af3d
00000290: 7054 0f3d 21b5 2b3c 37c2 5f3d 7e73 563d
000002a0: 17c4 0c3d 26b7 0f3d c08e 4d3d d7aa ae3d
000002b0: 2548 123d a611 9b3d c31c d93c c784 733d
000002c0: fdc7 843d 95c4 f53c b1d7 c03d bc6e 303d
000002d0: 0db0 b43c cd1b 193d 524a ca3d 7147 4d3d
000002e0: 4131 ae39 64f0 933d a101 d43c f0f9 b93d
000002f0: 78a1 9dbc 93e1 2f3c 6ddf a1bc a4dd b43d
00000300: f2fe 113d 0353 3c3d 710f d53d 926f 043d
00000310: acf6 9d3d 7ed6 553d 949a 853d e3e4 753c
00000320: 03fa 0cbc 2086 953d 8249 8d3d 9f3c 4d3d
00000330: becf a23d b26d fbbb 9ef2 e93d 5e99 253d
00000340: 0a9a 323d 4c8b 983b f2e4 c03d d76a 17bc
00000350: eebb d83d ccc6 10bb 71e9 d13d b234 513d
00000360: 4a09 113d 75d1 043d 5d25 953d 443a 813d
00000370: f68e dd3d f321 a93d 3c43 a73c 2ac5 b83d
00000380: 953e 0a3d e3d2 da3b cf21 b93d 2c49 d83d
00000390: 2f21 7c3d cc16 5b3d 1e5c 273d 274d 5c3a
000003a0: 4a27 f13d 509c 8d3d f5e2 e93c 6e89 943d
000003b0: fbba 703d 18d6 a5bc 3a58 0e3d e5bd eb3c
000003c0: bfe5 bb3d 920d 523d 5b05 d23c 3353 a53c
000003d0: e68e edbc c9c4 ab3d f606 843d 0b38 c73c
000003e0: bd6a 713d 3ac8 9e3d 98f9 663d 9b44 4c3d
000003f0: ee05 913d cfd1 0dbd 2580 1a3c 79e6 6d3d
0.0039646477 0.07616611 0.02229734 0.104497686 -0.0062378985 0.06878697 0.07447637 0.09153807
0.09707828 0.010577186 0.010799366 -0.018175814 0.020590156 0.049567714 0.03362666 0.11982754
0.07091046 0.054096222 0.01398681 -0.0040220404 0.015190568 0.10966252 0.017314646 0.10428999
0.070756614 0.047165576 0.033138353 0.02905036 0.07863066 0.011551728 0.03787105 0.0460671
0.071502686 0.122543104 0.06792218 0.0134620685 0.0965565 -0.020298872 0.02002503 0.097287335
0.059911545 0.06184033 0.08406291 0.036828853 0.07639658 0.10634232 0.02458793 0.045427587
-0.0015243023 0.06496503 0.016876642 0.08697439 0.04292011 0.0116908075 0.03578895 0.07285628
0.06704722 0.08067375 0.009514646 0.055589385 0.06464887 0.023956724 0.07685571 0.0032710382
-0.06690333 0.049552187 0.0555928 0.11425326 0.0039184974 0.036936007 -0.0055724396 -0.01045935
0.015992612 0.045946997 0.0276168 0.028189639 0.032153875 -0.027685376 -0.0063904 0.046464577
0.021698933 0.012182022 0.051454764 0.05671525 0.015609375 0.022914015 0.00046944086 0.08024535
0.08888595 -0.010195121 0.09608337 0.040732875 0.020005954 0.07878296 0.07214295 0.0666133
-0.036288258 0.07499338 0.010556801 0.014823484 0.10413297 0.061551686 0.04726003 0.09272813
0.053800076 0.08376742 0.08839114 -0.020480175 0.033373218 0.064006485 0.042037126 0.053671744
0.10754297 0.108190596 -0.0041593355 0.070342444 0.057919137 0.076957256 0.049240284 0.061476033
0.021108385 -0.010509524 0.0366881 -0.0057154857 0.014981293 0.07896098 0.06316468 0.03572405
0.037232865 0.0894436 0.05634693 0.019278085 0.09437046 0.10029612 0.027250519 0.073594965
0.07151402 0.052622236 0.06392199 0.02382591 0.05937753 0.023775022 0.05653878 0.071365535
0.058685962 0.060032446 0.053198595 0.015219927 0.05475488 0.08098378 0.0076246997 0.09449918
-0.018322226 0.018016068 0.06510889 0.059837516 0.12002897 0.016056223 -0.0064767357 0.044362005
0.07229382 0.10418364 0.0019137174 0.085800976 0.034992635 0.010480196 0.054628577 0.052356236
0.034366693 0.035086773 0.050184965 0.08528679 0.035713334 0.075717255 0.026502972 0.0594528
0.06483457 0.030000964 0.0941614 0.043074355 0.022056604 0.03738003 0.09877457 0.05011696
0.00033224563 0.07223585 0.025879683 0.09080875 -0.019242033 0.010734933 -0.019759858 0.08831337
0.035643525 0.045977604 0.10403336 0.032332964 0.077130646 0.05220651 0.06523624 0.015008184
-0.008604529 0.07300973 0.06898786 0.05010664 0.0794978 -0.007672989 0.11423229 0.040429465
0.043603934 0.0046552774 0.09418668 -0.009241781 0.1058272 -0.0022091148 0.102496035 0.051075645
0.03540925 0.032426316 0.07282517 0.063099414 0.10818283 0.082584284 0.020417802 0.09021981
0.03375109 0.0066779717 0.090396516 0.105608314 0.061555084 0.053488538 0.040859334 0.00084038306
0.11775072 0.0691458 0.028550604 0.07252775 0.05877207 -0.02024369 0.03475211 0.028777072
0.0917468 0.051282473 0.02563732 0.020181274 -0.028998803 0.08387143 0.0644664 0.024318716
0.058939684 0.07753034 0.056390375 0.049870115 0.07081209 -0.034623917 0.009429966 0.058081124

ln2.weight f4 [300]
00000000: 5857 943f 1aab d63e 2fbc 103f c9e6 6f3e
00000010: cf9f 8f3f a9f3 053f f4a7 123f 8cdb af3e
00000020: 9ddf 1e3f 121b 9f3f d280 903f f89c 983f
00000030: 1152 813f 60ab 7a3f 33fc 903f c4b9 333f
00000040: f273 ec3e 74d5 6a3f dc98 173f eeb7 8c3f
00000050: b597 4b3f d817 773f 04e9 783f 36e3 8e3e
00000060: cbf3 803f b632 d23e 15a2 2d3f d7e4 2d3f
00000070: d428 1e3f dade 0040 f889 3940 115d 9a3f
00000080: ab23 f33e 3cee 263f 319a 723f 6a57 803f
00000090: a137 d73e 463d 8d40 7aea 873f 033e 2e3f
000000a0: 3da1 0440 9c0b 263f c28a 823f eb0d b03f
000000b0: d1ab 233f 068a e93e 1276 d33f 07d0 963f
000000c0: a484 cd3f f7e1 d23f 48ce 3840 85a4 7a3f
000000d0: d24e 413f 0bd0 6d3f aefa 723e 38db f53e
000000e0: 6cbd a23e 45c7 f03e f922 0b40 0683 3d40
000000f0: 7bbf 1f3f 6630 ab3f 7cd1 7e3f 398e 6e3f
00000100: 4eb4 2a40 db0b b23e 4233 0e3f 0ee4 043f
00000110: 339d 603f e724 803f c05f f83f 664c 853f
00000120: 4a4d 4d40 55a4 003f 8fe3 103f 9ee7 953f
00000130: d577 6e3f 0422 6240 3a7b 9b3f 3b70 b53f
00000140: 81d6 de3e dced 0b3f baf0 043f 40a2 1a3f
00000150: 8cb5 9e3f 74c6 9a3f 1a56 833f 8164 193f
00000160: 944e f03e bfd9 953f ec16 1e3f 8ff7 f23e
00000170: 8d4a b33f f993 7a3f b2f5 fc3e 2919 8e3f
00000180: 5345 923f f7a2 9d3f 1871 d93f 940c be3f
00000190: f1c2 b63e f2ab 2a3f 3411 993f e053 e33e
000001a0: a42d f13e 1d93 d53e 6402 033f 6b36 903f
000001b0: 1759 9e3f 9854 143f c78f ac3f dfc4 ea3e
000001c0: 2366 103f 05ac c93e 3835 943f 83fa b43f
000001d0: 20e4 383f bcab 173f 0e67 fe3e edff 8f3f
000001e0: 8287 f23e 231f 8f3f 7885 a33f e7da b53f
000001f0: 9aab 9a3f 5fc1 f63e 25fe b63f 84ed 983e
00000200: 1781 0c40 d16f 0d3f 8e69 923f 631e 213f
00000210: db2f db3e 5a14 5c3f 24d2 823f 1508 d73e
00000220: c500 793f 0741 823f 4ba9 d23e 9b61 983f
00000230: 05ed af3f b125 de3e fd8b 233f 4303 443f
00000240: a6cf 363f d835 4c3f 451e 573f 9b26 393f
00000250: af8c 603f a9d5 d83e d73a 8b3f e043 9a3f
00000260: 6c2a fa3f 0571 ad3f e54f de3e 7ade dd3e
00000270: c290 de3e 1fa5 933f 1d8d 593f 2c5d 1a3f
00000280: 3645 653f 199c ef3e 7a0f 733f 03e3 073f
00000290: decd 3b3f dedd e03f 0c86 773f 9737 4d3f
000002a0: 397b fa3f e853 233f 915d 0440 3092 a03f
000002b0: 9afa c13e 3ae7 c73e 4ec7 113f e19c 953f
000002c0: 918c 283f 2f48 673f 3e98 993f 183a bc3f
000002d0: 31e7 af3f 8f1f c23f 7946 1d3f 44c1 863f
000002e0: 49e3 be3f a733 903f 4b38 df3f 8c5e 243f
000002f0: 855a c53f e97c 883f 22a6 f03f 7864 173f
00000300: 81e5 0e3f 76e1 013f 5491 053f 05b3 653e
00000310: 8203 203f 8971 063f 234e 013f 598d db3f
00000320: af4d 0a40 f1c6 103f 74e7 fe3e b0e5 a53f
00000330: 3e9e f23e 1b01 9c3f ab57 fe3e b127 d63e
00000340: 1832 6d3f cd6b 003f 37df 4e3f d728 963f
00000350: 2229 c63e 0718 a53f c431 fd3e ac2e 8c3f
00000360: 4a34 0740 d841 1c40 e963 f23f 666c 853f
00000370: a820 023f 73cb 9f3f 642e e03e 8e2a 213f
00000380: 29e7 0040 5046 553f 70ed 223f e73b 1f3f
00000390: a3e7 f53e 7fd6 633f f9d6 8f3f 981e 0c40
000003a0: 4f68 d03e f53f ba3e 9e98 e33e 4850 243f
000003b0: a14b 993f ff8c 863f fab6 113f 582d 8a3f
000003c0: 525b f93e 633f f13e ea2e 3e3f 44ab 3d3f
000003d0: 3b86 c53f 31f3 ad3f 5058 443f 2649 123f
000003e0: 4785 833f 442b 513f 2375 013f 1ecc 213f
000003f0: 009e a83f 29b7 fa3f b4e8 9f3f 1145 8b3f
1.1589155 0.41927415 0.56537145 0.23427881 1.1220645 0.5232492 0.57287526 0.34347188
0.62059957 1.2430136 1.1289313 1.1922903 1.010317 0.9791775 1.1326965 0.7020533
0.4618221 0.91731954 0.5921762 1.0993631 0.7952836 0.9652076 0.97230554 0.27907723
1.00744 0.41054314 0.6782544 0.67927307 0.6178105 2.0136018 2.899046 1.2059652
0.4748815 0.65207267 0.9476653 1.0026677 0.4203463 4.4137297 1.0618432 0.6806337
2.0723412 0.64861465 1.0198596 1.3754247 0.63934046 0.45613116 1.6520407 1.1782235
1.6056104 1.6475209 2.8875904 0.97907287 0.75510895 0.92895573 0.23728439 0.48018813
0.31785142 0.4702703 2.1740096 2.961122 0.6240155 1.3374145 0.995384 0.93185765
2.667255 0.3477467 0.55546963 0.51910484 0.87739867 1.0011262 1.940422 1.041394
3.2078424 0.5025075 0.56597227 1.1711309 0.931516 3.5333261 1.2146981 1.4174875
0.43523028 0.5465982 0.5192982 0.60403824 1.2399154 1.2091813 1.0260651 0.5991898
0.4693495 1.1707076 0.61753726 0.47454497 1.4007126 0.9788204 0.494062 1.1101428
1.1427406 1.2315358 1.6987638 1.4847589 0.35695603 0.6666862 1.1958375 0.4439993
0.47105134 0.417138 0.5117552 1.1266607 1.2370938 0.5794158 1.3481377 0.45853326
0.5640585 0.39389053 1.1578741 1.413895 0.7222309 0.5924642 0.49688 1.1249977
0.4736901 1.1181377 1.2775106 1.4207429 1.2083619 0.48194405 1.4296309 0.2986871
2.195379 0.55248743 1.1438463 0.6293699 0.42809948 0.85968554 1.022038 0.41998354
0.972668 1.0176095 0.41144785 1.1904787 1.3744208 0.4338813 0.6388548 0.76567477
0.71410596 0.7976966 0.8403056 0.7232453 0.87714666 0.4235051 1.0877331 1.2051964
1.9544196 1.3550116 0.4342033 0.433338 0.43469816 1.1534766 0.84980947 0.6029842
0.8955873 0.4679878 0.9494549 0.5308077 0.73361003 1.7567708 0.96688914 0.8016295
1.9568855 0.63799906 2.0682108 1.2544613 0.37886506 0.390436 0.5694474 1.1688501
0.6583949 0.9034452 1.1999586 1.4705229 1.3742429 1.5165881 0.6143566 1.052773
1.4913112 1.1265763 1.7439054 0.6420677 1.5418249 1.066312 1.88007 0.5913768
0.55818945 0.5073465 0.5217488 0.22431572 0.6250535 0.5251699 0.5050985 1.7152511
2.1609914 0.5655356 0.4978596 1.296072 0.47386354 1.2187837 0.4967626 0.41827157
0.9265456 0.5016449 0.8080935 1.1731213 0.38703257 1.2897958 0.4945203 1.0951743
2.1125665 2.4415188 1.893674 1.0423706 0.5083108 1.2483963 0.43785393 0.6295556
2.014109 0.83310413 0.6364355 0.6220078 0.48028287 0.8899917 1.123748 2.1893673
0.4070458 0.3637692 0.44452375 0.64185 1.1976205 1.0511779 0.56919825 1.0795088
0.48702484 0.47118673 0.74290335 0.74089456 1.5431589 1.3589841 0.76697254 0.57142866
1.0275048 0.81706643 0.5056936 0.63202083 1.3173218 1.9587146 1.249289 1.0880452

ln2.bias f4 [300]
00000000: 56b8 45be 8ce7 13bf f268 b3be 4b3f 3dbf
00000010: 213d 01be 410c 0cbf ca64 05bf 693f 10bf
00000020: bbe8 b1be 42b7 32bc 7cb4 25bc bc2a d8bd
00000030: 6845 b2bd c095 50be 1168 fabd 7a59 4bbe
00000040: 69cf eebe af29 30be d04a e1be df5b 8dbe
00000050: dd39 7bbe b011 023c 302b 40be 58da 32bf
00000060: c70b 83be b326 0dbf 7f38 b2be a2f5 00bf
00000070: 9585 bfbe 9c05 2fbe e774 e9bc 49d3 55be
00000080: e1dd 05bf 4522 d9be 3d7a 0dbe 7769 dcbd
00000090: 1831 18bf ac55 cfbc 3594 28be 83ac f9be
000000a0: 0c97 0dbe 0418 cdbe f4de 3fbe da6c 2cbd
000000b0: e440 cbbe 23a0 15bf 8f48 0abe 442a 57be
000000c0: 3d2b 32be 2f66 20be 0654 09be 8cf3 1ebd
000000d0: 7368 dfbe 00ad 79be a276 3abf 9367 fdbe
000000e0: bc26 20bf 23ed f2be ecfb e4bd 7a81 0abe
000000f0: 246e eabe 3e08 bbbd 6c8d 9fbd 3869 bdbe
00000100: f56c 04be 1fe3 2ebf 7a32 fbbe 1207 fbbe
00000110: 614a c5be d81d 3dbe 3d9f 393c d2aa 58be
00000120: 456c 34be e224 12bf 1c75 07bf faa8 72bd
00000130: 2e51 1fbe 82f1 db3c a352 a1be 01ce 6dbe
00000140: ffd9 13bf c254 e7be 625f fabe 66f1 dbbe
00000150: 124c 47bd a704 52be 117a 8ebe 4b63 eebe
00000160: f1ff 0ebf 75f3 85be 5f89 bdbe 396d ffbe
00000170: 08d0 43bd 0f43 abbd d51c 07bf 05f5 09be
00000180: 5dcc 01be 3736 6db9 0133 3cbe 149e 4dbe
00000190: 43d8 15bf a46f e7be 9aa9 4bbe fff5 18bf
000001a0: 7368 f7be 7d50 03bf 3db9 07bf 845a efbd
000001b0: c9ec 92bd e3e0 f4be 1d13 26be b213 05bf
000001c0: 7f36 14bf a500 ffbe 1012 d8bd 4ddc acbd
000001d0: f224 e3be 81e0 b9be 2716 febe 7e0f 0dbc
000001e0: 251b 1dbf a42b 9abe 6b93 59be 45df 43be
000001f0: 50ae 12bd 2a0a 08bf 3a7d 13be 037e 32bf
00000200: c1f5 e0bd 9b5d 06bf 15b0 e0bd 6c7b c3be
00000210: de95 00bf 0072 94be 10af dbbd fe25 0bbf
00000220: b3a8 03be 6fc9 2cbe 681c 22bf 0518 68bd
00000230: 65d0 b6bd 6e85 15bf d8c5 c9be 5bb7 93be
00000240: 6975 a2be b905 c8be 225b 81be f84a debe
00000250: 021c 8fbe b7ed 04bf 8e88 b4bd 80c9 37bd
00000260: 5da5 3cbe 7434 8ebe d796 0dbf caef 0bbf
00000270: 8a84 11bf 96d8 b7bd a94c 6cbe 05b0 a9be
00000280: f4f5 88be 6bc3 03bf ca97 80bc bfc5 e7be
00000290: bd3e eebe 6a7a 54be 5e03 a0bb 9589 a5be
000002a0: 91b4 3abe eba3 e3be f48d a7be c0b8 87be
000002b0: 75b3 0abf baef 23bf 71cf 0dbf 9715 60be
000002c0: 8ad2 d4be ac32 18be 6eef 54bc ac8a b7bd
000002d0: 557a 0dbe 6431 89be cd15 e2be bff1 50be
000002e0: 7caa 81be d362 9bbd b0e5 18be ca0c a7be
000002f0: 51a3 fcbd 53d6 2cbe cc4f 67be c9d9 c8be
00000300: db8a e3be 7bb8 d0be 2198 00bf c6a5 2fbf
00000310: ef46 eabe 3095 d6be 4d58 e5be 4d69 39be
00000320: e8a8 9f3d c06e 07bf 0811 0abf e7d6 b4be
00000330: bf67 08bf 6d89 b8bd b6d6 05bf b42d 1abf
00000340: 82b6 0abe e464 fcbe 7625 97be a675 2cbd
00000350: 0c8a 13bf b6e6 4abd 2107 11bf b80d 78be
00000360: 33cc bfbd f7a7 22be a4ed 7cbe 2bb6 febd
00000370: 6919 e9be 6616 8fbc 64b3 0cbf accb debe
00000380: 0408 7fbe e934 bbbe c9d3 f3be 25b5 cfbe
00000390: fc9e 0dbf b0bb 31be 75a1 30be 5335 1cbe
000003a0: e179 fbbe 6793 18bf 9aa5 0dbf 34ec 8cbe
000003b0: 5ae2 61be f7b5 7cbd bff5 ddbe f240 9abd
000003c0: 1f94 05bf f98c febe 94d4 c5be abf4 58be
000003d0: 5f88 0cbe 3476 023d c313 bebe 154e ccbe
000003e0: ce5e a4bd 2c56 85be 8e3e 08bf 8588 c0be
000003f0: a131 48be 3604 8fbe c3fb 18bd 7bbf 27be
-0.193086 -0.5777519 -0.35041004 -0.739247 -0.12620975 -0.547062 -0.52106917 -0.56346756
-0.34747872 -0.01090795 -0.010113832 -0.10555026 -0.087046444 -0.20369625 -0.1222688 -0.19858351
-0.46642616 -0.17203401 -0.4400239 -0.27609155 -0.24533792 0.007938787 -0.18766475 -0.69864416
-0.25594923 -0.55137175 -0.34808728 -0.50374806 -0.37406603 -0.17091984 -0.028498126 -0.2088138
-0.52291685 -0.42408958 -0.13816161 -0.10762303 -0.5944991 -0.025309406 -0.16462786 -0.48764428
-0.13827151 -0.40057385 -0.18737394 -0.042095996 -0.39697945 -0.58447474 -0.13504241 -0.21012217
-0.17399307 -0.1566398 -0.13410959 -0.038806483 -0.43634376 -0.243824 -0.7283727 -0.49493083
-0.62559104 -0.47446546 -0.11180863 -0.13525954 -0.45787156 -0.091324314 -0.07790646 -0.36994338
-0.12932189 -0.6831531 -0.49061948 -0.49028832 -0.3853331 -0.18468416 0.011329469 -0.21158913
-0.17619427 -0.5708753 -0.5291307 -0.05924318 -0.15558311 0.026848558 -0.3150836 -0.23223116
-0.5775451 -0.45181853 -0.48900896 -0.4295761 -0.04865653 -0.20509587 -0.27827504 -0.4656013
-0.55859286 -0.26162305 -0.37018868 -0.49888018 -0.047805816 -0.083624 -0.5277837 -0.13472374
-0.12675615 -0.00022622278 -0.18378831 -0.20079833 -0.58533114 -0.45202363 -0.19888917 -0.5975036
-0.48321876 -0.5129469 -0.53017026 -0.11687186 -0.071740694 -0.47827825 -0.16218229 -0.5198318
-0.57895654 -0.4980518 -0.1055032 -0.084404565 -0.44364125 -0.36304095 -0.49626276 -0.008609651
-0.61369544 -0.3011142 -0.21247642 -0.1912814 -0.03581077 -0.5314051 -0.14403239 -0.6972353
-0.10984374 -0.5248658 -0.10971085 -0.381801 -0.5022868 -0.28993225 -0.1072675 -0.54354846
-0.12857322 -0.16873716 -0.63324594 -0.05666353 -0.08926467 -0.5840672 -0.39408755 -0.28850827
-0.31730202 -0.39066866 -0.2526484 -0.43416572 -0.27951056 -0.51925224 -0.08815108 -0.0448699
-0.18422456 -0.27774394 -0.5530829 -0.54662764 -0.56842864 -0.08976857 -0.23076119 -0.33142105
-0.26750147 -0.5147006 -0.015697379 -0.45268056 -0.4653224 -0.20749822 -0.004883214 -0.3233153
-0.18232943 -0.44460997 -0.3272549 -0.2650814 -0.5418008 -0.6403767 -0.55394655 -0.21883236
-0.4156688 -0.1486308 -0.012996538 -0.089619964 -0.13816197 -0.26795495 -0.44157258 -0.20404719
-0.25325382 -0.075872086 -0.14931369 -0.32626945 -0.12335838 -0.16878633 -0.22589034 -0.39228657
-0.44441876 -0.40765747 -0.5023213 -0.68612325 -0.45757243 -0.41910696 -0.4479393 -0.18106575
0.07795888 -0.52903366 -0.5393224 -0.35320207 -0.53283304 -0.09010587 -0.5228075 -0.6022599
-0.13546184 -0.49295723 -0.29520768 -0.042104386 -0.5763252 -0.04953643 -0.566515 -0.24223983
-0.0936512 -0.15884386 -0.24700028 -0.124370895 -0.455272 -0.017466735 -0.5496123 -0.43514764
-0.24905401 -0.36563805 -0.47622517 -0.4056789 -0.55320716 -0.17356753 -0.17249091 -0.15254717
-0.49116424 -0.5959992 -0.5533081 -0.2752396 -0.22059003 -0.061696973 -0.43351552 -0.075319186
-0.5217914 -0.4971693 -0.38638747 -0.21187083 -0.13723896 0.03185101 -0.37124452 -0.39903322
-0.08025895 -0.26042306 -0.5322045 -0.37604156 -0.19550182 -0.279329 -0.037349474 -0.16381638
