DDPG/models/actor_eps120_veh100_11e-2_8e-2_0.8.pth (torch, 280897 bytes, 11 tensors)

ln0.weight f4 [8]
1.0591885 0.9841339 1.0774542 1.0251008 0.84555024 0.958212 1.0441812 0.9871701
00000000: 7d93 873f 33f0 7b3f 05ea 893f 8136 833f
00000010: fb75 583f 624d 753f bba7 853f 2eb7 7c3f

ln0.bias f4 [8]
-0.007209832 0.0073256586 -0.0059387344 0.010227389 -0.07284323 -0.022957927 0.006123197 0.039887793
00000000: 7440 ecbb 140c f03b b799 c2bb c790 273c
00000010: d52e 95bd 4312 bcbc 19a5 c83b 6261 233d

fc1.weight f4 [256, 8]
-0.06946471 -0.015122967 0.0059355763 0.07126012 0.039496403 0.078327246 0.02355479 -0.10099205
0.024234865 -0.021101905 -0.067068726 0.07921547 -0.008287425 0.016451705 -0.08353662 -0.036744483
-0.11824167 -0.0028786478 -0.08313423 -0.054215614 -0.0001638804 0.06433649 0.02827466 -0.13737158
-0.026383724 0.070302494 -0.04134501 0.060288724 0.0024307873 -0.007026154 0.112908706 -0.089529864
-0.061704837 0.019833675 0.075916216 0.0420339 -0.015593493 0.0066199685 -0.015737206 -0.012537316
-0.024787828 0.014909363 0.05189855 -4.528256e-06 0.015716828 0.0016605807 0.004995793 -0.03252356
0.026955439 0.04263304 -0.09184994 0.00834808 -0.011729615 -0.03078695 0.079806015 0.011415083
0.06828488 -0.008391567 -0.0574907 0.10227543 0.004613652 -0.026182946 0.0019402014 0.062710844
-0.013033558 -0.085525535 0.0010980301 -0.070262246 0.008837669 0.040046725 -0.024274096 0.0037486604
0.07502551 -0.050891053 -0.11037546 0.07014204 0.013472056 0.0008662109 0.01518011 0.056485362
0.028527012 0.002581632 -0.14308923 0.02575751 -0.0098589305 -0.010296079 -0.07583934 0.05666888
-0.044639844 -0.0744277 -0.02719971 -0.0027665885 -0.03291573 0.07887398 0.024798369 -0.017345458
-0.015806733 0.06924329 0.024014458 0.0063589066 0.004641259 0.02587951 0.07757743 -0.022571914
-0.121011235 0.0428689 0.054916453 0.04142407 0.01645664 0.0043216324 0.019967912 -0.012496187
0.04617976 -0.06222304 -0.04257341 -0.08348868 0.00023716655 0.022117345 -0.10240757 -0.016725158
-0.10234266 -0.057452023 -0.019911958 -0.1578563 0.044874907 0.058140736 -0.013271294 0.08887459
0.08530524 0.0136213545 -0.07701665 0.06756443 0.0097324625 0.029527197 0.08610767 -0.012774642
-0.032326262 0.0036571384 -0.04819893 0.07175429 -0.009849492 -0.05498532 -0.059621826 -0.0043461546
-0.0070498204 -0.050447337 0.0027038248 -0.030285338 0.01975449 0.09462808 -0.121523455 -0.08396435
-0.0074672196 0.049613673 -0.04139553 0.13601156 0.020928657 0.032509383 -0.008432023 -0.05369769
-0.06415266 0.040436164 -0.04450076 0.030019758 -0.0011455382 0.062222876 0.06994794 -0.042285234
-0.017196685 -0.06493513 -0.0054767355 -0.012732647 0.017674318 -0.030165678 -0.08401617 -0.010814733
-0.06615981 -0.109587684 -0.11739198 -0.11074439 0.013789064 0.09753192 -0.024624458 0.054375537
-0.1159142 0.07008254 0.11807339 -0.060878083 -0.02608243 -0.026332337 0.009948435 -0.06677243
-0.045622762 -0.037706118 0.05885155 -0.058207892 0.023549166 0.09456413 -0.064993925 0.044587426
-0.05222883 -0.09825487 -0.04726894 0.013221681 -0.019004997 0.00704605 -0.1230102 0.015152391
0.05078373 0.07839495 -0.040814847 0.044584144 -0.0104735745 0.0017363484 0.06255274 -0.013935191
0.057247143 0.02904715 0.012888522 -0.05787263 -0.005869804 -0.014449684 -0.05817446 0.041349318
-0.055632927 -0.094593726 -0.12778628 0.0044575874 -0.020560535 0.06841915 0.019926192 -0.034100223
-0.016124824 0.064876765 0.090260774 0.07454667 0.024771934 -0.0009473129 0.038824424 -0.0015742875
-0.0374797 0.0034143445 -0.018060856 0.029937254 0.03558399 0.012532416 -0.099552594 0.047405083
-0.030471858 -0.018402865 0.042073723 -0.07723899 0.026846493 0.0336671 -0.07221627 0.032059044
00000000: 8443 8ebd 52c6 77bc 397f c23b d3f0 913d
00000010: fbc6 213d 096a a03d faf5 c03c ebd4 cebd
00000020: 3288 c63c e7dd acbc 545b 89bd b83b a23d
00000030: fbc7 07bc bac5 863c 3f15 abbd 6281 16bd
00000040: b028 f2bd b2a7 3cbb 4742 aabd 3111 5ebd
00000050: 4fd7 2bb9 dac2 833d 43a0 e73c 23ab 0cbe
00000060: ae22 d8bc c1fa 8f3d 6359 29bd 4ff1 763d
00000070: d84d 1f3b a73b e6bb ae3c e73d 6f5b b7bd
00000080: 36be 7cbd 3b7a a23c f679 9b3d bd2b 2c3d
00000090: da7b 7fbc 52ec d83b 50eb 80bc 5169 4dbc
000000a0: d80f cbbc 6746 743c 9393 543d 6cf1 97b6
000000b0: 94c0 803c d8a7 d93a c0b3 a33b 6d37 05bd
000000c0: a7d1 dc3c fc9f 2e3d d21b bcbd 63c6 083c
000000d0: 922d 40bc ea34 fcbc 5671 a33d 5406 3b3c
000000e0: f1d8 8b3d c87c 09bc 5e7b 6bbd c875 d13d
000000f0: 1e2e 973b 9e7d d6bc 5b4e fe3a 8b6e 803d
00000100: b48a 55bc 0328 afbd c7eb 8f3a a7e5 8fbd
00000110: dfcb 103c 0908 243d 78da c6bc 16ac 753b
00000120: f9a6 993d 2373 50bd 870c e2bd a1a6 8f3d
00000130: e6b9 5c3c 6e12 633a ffb5 783c 325d 673d
00000140: 7bb1 e93c 9930 293b fc85 12be 6a01 d33c
00000150: 5a87 21bc e3b0 28bc a851 9bbd a11d 683d
00000160: 45d8 36bd 8d6d 98bd edd1 debc a74f 35bb
00000170: a5d2 06bd ae88 a13d f325 cb3c 1018 8ebc
00000180: 1f7d 81bc 6dcf 8d3d f8b9 c43c 605e d03b
00000190: b415 983b 4401 d43c eae0 9e3d bce8 b8bc
000001a0: bdd4 f7bd 4d97 2f3d 13f0 603d 49ac 293d
000001b0: 13d0 863c 7b9c 8d3b bf93 a33c cfbc 4cbc
000001c0: fd26 3d3d 96dd 7ebd 7561 2ebd 1dfc aabd
000001d0: e9af 7839 6f2f b53c 0fbb d1bd 3303 89bc
000001e0: 0799 d1bd d052 6bbd 671e a3bc 15a5 21be
000001f0: c0ce 373d fb24 6e3d d76f 59bc e203 b63d
00000200: 83b4 ae3d 1a2c 5f3c e8ba 9dbd 385f 8a3d
00000210: e874 1f3c 05e3 f13c 3859 b03d bb4c 51bc
00000220: 8b68 04bd 9aac 6f3b 3e6c 45bd eaf3 923d
00000230: c45f 21bc 4938 61bd 0436 74bd 306a 8ebb
00000240: 2e02 e7bb dea1 4ebd a732 313b f518 f8bc
00000250: 2bd4 a13c 5ecc c13d 4ae1 f8bd 80f5 abbd
00000260: 94af f4bb b537 4b3d 5c8e 29bd 9d46 0b3e
00000270: 9372 ab3c 8f28 053d 7826 0abc 1cf2 5bbd
00000280: 7862 83bd 64a0 253d 6e46 36bd ffeb f53c
00000290: e225 96ba 6add 7e3d de40 8f3d 4833 2dbd
000002a0: 10e0 8cbc b6fc 84bd 3076 b3bb 989c 50bc
000002b0: bbc9 903c 031e f7bc ab10 acbd 4730 31bc
000002c0: cb7e 87bd 826f e0bd 356b f0bd f4cd e2bd
000002d0: 87eb 613c d1be c73d 3bb9 c9bc e2b8 5e3d
000002e0: 6d64 edbd 6f87 8f3d 76d0 f13d 4c5b 79bd
000002f0: d2aa d5bc eab6 d7bc c3fe 223c fcbf 88bd
00000300: efde 3abd bb71 1abd 530e 713d 666b 6ebd
00000310: 2eea c03c d7aa c13d 891b 85bd 4ea1 363d
00000320: e6ed 55bd d939 c9bd 139d 41bd c09f 583c
00000330: 5eb0 9bbc 8de2 e63b c6ec fbbd bc41 783c
00000340: 9a02 503d 888d a03d 782d 27bd dd9d 363d
00000350: 5b99 2bbc 2f96 e33a a71b 803d 6d50 64bc
00000360: fb7b 6a3d 4af4 ed3c 612a 533c da0b 6dbd
00000370: 7c57 c0bb 5ebe 6cbc 5848 6ebd e75d 293d
00000380: 5adf 63bd 5bba c1bd 68da 02be f410 923b
00000390: 916e a8bc 571f 8c3d 413c a33c adac 0bbd
000003a0: 3518 84bc 1cde 843d a4da b83d edab 983d
000003b0: 83ee ca3c 1855 78ba 5c06 1f3d 5358 ceba
000003c0: 5084 19bd 32c3 5f3b 5cf4 93bc f93e f53c
000003d0: 85c0 113d c354 4d3c 3be2 cbbd d52b 423d
000003e0: 1ea0 f9bc 9bc1 96bc 7f55 2c3d 7a2f 9ebd
000003f0: 2ded db3c 83e6 093d 20e6 93bd 5850 033d

fc1.bias f4 [256]
-0.11033413 0.025796572 -0.16963623 0.23396601 0.17700084 0.10098906 0.24333091 0.31640404
-0.076856546 0.1118479 0.03954732 -0.11841373 0.24472882 0.13161974 -0.08285781 -0.24469113
0.2219382 0.15962106 -0.25401163 0.08149304 0.050642546 -0.022854857 -0.29942858 0.18180537
-0.16127825 -0.08096943 0.24941725 0.116470434 -0.16780527 0.23891698 -0.0059678764 -0.04900418
-0.20080131 -0.23475994 0.12815347 0.10622941 -0.19261688 0.014773257 -0.04588433 0.09083825
0.05032584 0.24042751 0.2709308 -0.026482893 0.08081122 0.11033412 0.25763127 0.14142422
-0.21481605 0.3032527 0.115150735 -0.160092 0.054511 -0.26326478 -0.27705088 -0.040460676
0.13325793 0.26075852 0.122661054 0.25835115 -0.083700195 0.26608604 0.21559991 0.19189554
-0.0037303905 0.2687227 -0.0023598769 0.02029103 -0.157489 -0.09581479 -0.24905877 0.19723776
0.058811933 0.14243579 0.21881098 -0.10034039 -0.15396921 0.11771492 0.22568452 0.110519886
-0.24034008 0.198096 0.15431878 0.27978116 -0.21960074 0.16664597 -0.03302929 0.29503775
0.22219872 -0.12870502 0.030612532 0.28165108 -0.2518169 0.0138251595 -0.24176079 0.26707852
0.31545883 0.23686992 -0.055835478 0.25080705 0.15688615 -0.25302175 0.04766859 0.15163533
-0.0021384023 -0.14431179 0.23255524 -0.21444888 0.3206089 0.057711408 0.1358751 -0.17410369
-0.08566652 -0.19748609 -0.031449694 -0.262313 0.21435046 0.2455538 0.03598426 -0.050301153
-0.25738785 0.03747252 -0.24044584 -0.20051023 -0.15009475 0.18623798 0.22883973 0.2245628
-0.001483348 -0.017454851 -0.16901822 0.08036712 -0.22158267 0.2092778 0.14166085 0.23990722
0.06849213 0.30527523 0.05558754 0.2726666 -0.06418356 0.11401364 -0.14625768 -0.03733648
0.28663284 -0.08731597 -0.2747128 0.20026046 0.2283384 -0.12861678 -0.08996765 0.23261102
0.10389663 0.0054592923 0.29005215 -0.14164115 -0.21026637 0.13049912 0.29125875 0.22356378
0.20736805 -0.26479185 0.27964982 0.15151119 -0.17964514 -0.13384321 -0.020211034 0.27942947
0.14423591 -0.013048032 0.10905551 -0.25487897 -0.055537578 0.14896336 0.30460063 0.21681121
-0.008069337 -0.006982919 0.2112517 0.04852396 0.18815187 0.15351066 -0.11187732 -0.067947306
0.07683821 0.11290064 -0.022361059 -0.10976191 -0.107254185 -0.18078214 -0.16877104 -0.14910224
-0.0033662734 0.1108415 0.03709369 -0.090992354 0.26759076 0.07785594 0.053002857 0.05292261
0.23893845 0.23144566 0.041433 -0.1196573 0.04432224 -0.2285515 -0.1308507 -0.12819782
0.1695677 -0.23603149 0.059202455 0.1061721 -0.11420451 -0.298353 -0.26068887 -0.25490648
-0.052860927 -0.2727178 -0.1903312 0.23641472 0.16022298 -0.1757504 -0.14472109 -0.2252971
0.21546265 -0.20491003 -0.093665645 0.0071817166 -0.054628674 -0.27079812 -0.09729829 -0.029938277
0.09312998 0.19184557 -0.021132436 0.09296695 -0.18248153 0.18190871 -0.052781332 0.13097075
0.052886352 -0.15301083 -0.26660517 0.045010787 0.03190707 -0.21607521 0.057363994 0.30297732
0.16600637 -0.008446302 0.17272903 -0.25220966 -0.17412719 -0.019985927 -0.13295725 -0.18893808
00000000: dcf6 e1bd 5553 d33c 1fb5 2dbe c994 6f3e
00000010: b53f 353e 5ad3 ce3d bd2b 793e b6ff a13e
00000020: f766 9dbd 8310 e53d 5ffc 213d e682 f2bd
00000030: 319a 7a3e 53c7 063e 5bb1 a9bd 5090 7abe
00000040: c443 633e b473 233e d00d 82be d3e5 a63d
00000050: 8f6e 4f3d 1c3a bbbc b44e 99be 302b 3a3e
00000060: 2026 25be 4dd3 a5bd 3c67 7f3e 0d88 ee3d
00000070: 25d5 2bbe a7a6 743e 2d8e c3bb 9bb8 48bd
00000080: dc9e 4dbe e964 70be aa3a 033e ce8e d93d
00000090: 5c3d 45be 880b 723c 35f1 3bbd 6809 ba3d
000000a0: 7822 4e3d a132 763e 71b7 8a3e a7f2 d8bc
000000b0: 5a80 a53d dbf6 e13d 3fe8 833e 83d1 103e
000000c0: bdf8 5bbe f043 9b3e 26d4 eb3d 28ef 23be
000000d0: ed46 5f3d a4ca 86be 9dd9 8dbe 18ba 25bd
000000e0: c474 083e 2482 853e b835 fb3d 9a46 843e
000000f0: 026b abbd 6e3c 883e 39c6 5c3e 4480 443e
00000100: 9179 74bb 0696 893e 2aa8 1abb 6039 a63c
00000110: cc44 21be 8b3a c4bd 4309 7fbe b2f8 493e
00000120: c8e4 703d b0da 113e fc0f 603e 437f cdbd
00000130: 1baa 1dbe 8514 f13d d819 673e 4058 e23d
00000140: b61b 76be aed9 4a3e be05 1e3e 7a3f 8f3e
00000150: 04df 60be 3ea5 2a3e b949 07bd 300f 973e
00000160: 1088 633e 40cb 03be 22c7 fa3c 9234 903e
00000170: 25ee 80be ec82 623c 2490 77be 84be 883e
00000180: d283 a13e 078e 723e beb3 64bd c869 803e
00000190: c3a6 203e 118c 81be 2440 433d 4b46 1b3e
000001a0: 7024 0cbb 78c6 13be f622 6e3e 7d98 5bbe
000001b0: da26 a43e cc62 6c3d d822 0b3e 3d48 32be
000001c0: ee71 afbd cb39 4abe 65d1 00bd e44d 86be
000001d0: b07e 5b3e 7572 7b3e 3b64 133d 9508 4ebd
000001e0: 57c8 83be c97c 193d 6f37 76be 8e52 4dbe
000001f0: 70b2 19be 2bb5 3e3e f654 6a3e caf3 653e
00000200: e66c c2ba 7afd 8ebc 1d13 2dbe 8497 a43d
00000210: 91e6 62be eb4c 563e 8b0f 113e 3daa 753e
00000220: 9a45 8c3d 094d 9c3e c3af 633d f59a 8b3e
00000230: ac72 83bd fc7f e93d 93c4 15be 23ee 18bd
00000240: 8ac1 923e b7d2 b2bd 28a7 8cbe 1411 4d3e
00000250: 8bd1 693e 1eb4 03be f640 b8bd 9531 6e3e
00000260: c2c7 d43d dde3 b23b b781 943e 610a 11be
00000270: 1150 57be 90a1 053e de1f 953e e7ed 643e
00000280: 4a58 543e cc92 87be 432e 8f3e c025 1b3e
00000290: e5f4 37be 320e 09be 9c91 a5bc 6111 8f3e
000002a0: 94b2 133e 6ac7 55bc 7f58 df3d 7f7f 82be
000002b0: 5f7b 63bd da89 183e 9df4 9b3e c203 5e3e
000002c0: 4135 04bc f8d0 e4bb 5e52 583e 0fc1 463d
000002d0: e2aa 403e e631 1d3e f01f e5bd f527 8bbd
000002e0: 5a5d 9d3d 7338 e73d 8a2e b7bc daca e0bd
000002f0: 15a8 dbbd f41e 39be 51d2 2cbe 42ae 18be
00000300: b29c 5cbb de00 e33d 8eef 173d 335a babd
00000310: a801 893e ef72 9f3d 8619 593d 61c5 583d
00000320: 48ac 743e 1700 6d3e a6b5 293d e30e f5bd
00000330: 3d8b 353d 6809 6abe bafd 05be 4a46 03be
00000340: 28a3 2d3e 3db2 71be 467e 723d c270 d93d
00000350: 0ee4 e9bd b9c1 98be 0379 85be 1a83 82be
00000360: b384 58bd aba1 8bbe 2fe6 42be b316 723e
00000370: 7e11 243e eaf7 33be c431 14be 48b4 66be
00000380: 3ea2 5c3e efd3 51be c6d3 bfbd 9b54 eb3b
00000390: 51c2 5fbd 0da6 8abe 5344 c7bd 1e41 f5bc
000003a0: eeba be3d 2a73 443e ee1d adbc 7565 be3d
000003b0: 70dc 3abe 4746 3a3e 3d31 58bd 321d 063e
000003c0: 5c9f 583d dfae 1cbe 7980 88be 3b5d 383d
000003d0: fdb0 023d d242 5dbe 82f6 6a3d d81f 9b3e
000003e0: 93fd 293e 5c62 0abc e1df 303e a021 81be
000003f0: 664e 32be 87b9 a3bc f225 08be fc78 41be

ln1.weight f4 [256]
1.0179267 1.1306002 1.0824839 1.0263362 0.9426348 1.0075017 1.029097 0.95083135
1.0331513 1.0405921 1.039998 1.014048 0.94531065 1.0230584 1.13659 1.0991225
0.97765976 0.93228954 1.0815856 1.1019299 0.99205565 1.1022784 1.0895754 1.103517
1.0399072 1.0944082 0.954744 0.9875367 1.020647 0.8863898 1.0305995 1.0189618
1.1581185 1.0859402 1.0059586 1.0728521 1.0826457 1.047348 1.1663545 1.2505915
1.473093 0.97042936 0.90506804 1.0151138 0.9887107 1.0247085 0.92736447 0.9585718
1.035366 0.9621898 0.943623 1.1113443 1.1117201 1.0302452 1.0707418 1.0796615
1.0373054 0.849046 0.95161045 1.0594378 1.0618719 0.90425444 1.0154487 0.9699334
1.112767 0.91475075 1.1124686 1.1459732 1.0464468 1.0592175 1.140416 1.024196
0.9814785 0.99696356 0.8930838 1.0814457 1.0058684 1.1170818 0.9260041 1.0253152
1.2016184 0.97545826 0.9967242 0.9582696 1.0900515 1.1435198 1.0729358 0.9666355
0.89999837 0.98404264 1.0566696 0.9339576 1.0339326 1.1595722 0.98962253 1.0164311
0.88282007 1.0144935 1.0296408 0.95548105 0.93841827 1.0628779 1.0160257 1.0844681
1.1235065 1.1131716 0.9721924 1.077244 0.9245887 1.0616496 1.0668746 1.0207971
1.1056361 1.0456005 1.1530155 1.0078785 0.8927151 0.96158266 1.017961 1.1787341
1.0155241 0.99830353 0.99692816 1.0813799 1.0809602 1.0321859 1.0005834 0.9785309
1.0665375 1.102074 1.0863653 0.97601044 1.1276735 1.1469973 0.9386259 0.9849018
1.229259 0.9310743 0.9276209 1.0004271 1.0083561 1.0805448 1.1924613 1.0262781
0.952336 1.0337087 1.0269581 1.0195925 0.9754642 0.9496627 1.0423404 0.95591944
0.88876706 1.0658501 0.8960882 1.049713 1.018351 0.9797941 0.9641013 0.91029763
1.0364255 1.0663195 1.0451803 1.0151529 0.9780571 1.0921803 1.2113663 0.98553354
0.9513956 1.0221554 1.0974168 1.0254928 1.2774963 0.97797674 0.91585463 0.928264
1.4066892 1.1030395 0.9990207 1.0371498 0.9337717 0.927855 1.1028383 1.0874531
0.9372879 0.9719843 1.0651205 1.0626018 1.0607488 1.0446917 1.1265215 0.9879523
1.0655358 1.0222871 1.0440899 1.061977 0.94453704 1.0364851 0.97275823 1.0440798
0.92787385 0.9513336 0.9953725 1.0530438 0.9797384 1.0620215 1.1141467 1.0818095
0.9177325 1.0944166 0.9404807 1.0437766 1.0522726 1.1378509 1.1009198 1.0723736
1.0544338 1.0686297 0.99120057 0.97951317 1.1340255 1.0551764 0.9594618 1.0882461
0.95263267 1.1139688 0.9059565 1.0253861 1.057893 1.070932 1.0638279 1.0649513
1.0588496 0.9892214 1.0344591 0.9746689 1.1065222 0.964672 1.0659194 1.0103191
1.0331955 1.0931993 1.068991 1.0623685 1.0151703 1.0378207 1.0373034 0.9016245
1.0207701 1.3738745 1.0168873 1.1368294 1.0264791 1.0411556 0.98719376 1.0250282
00000000: 6c4b 823f 82b7 903f d58e 8a3f fc5e 833f
00000010: 8450 713f d1f5 803f 73b9 833f af69 733f
00000020: 4d3e 843f 1f32 853f a81e 853f 53cc 813f
00000030: e1ff 713f 94f3 823f c87b 913f 0cb0 8c3f
00000040: e947 7a3f 87aa 6e3f 6671 8a3f 0a0c 8d3f
00000050: 5cf7 7d3f 7517 8d3f 3577 8b3f 0c40 8d3f
00000060: ae1b 853f 9115 8c3f 1a6a 743f 35cf 7c3f
00000070: 90a4 823f 71ea 623f afea 833f 576d 823f
00000080: 3a3d 943f 1700 8b3f 40c3 803f 3853 893f
00000090: 2294 8a3f 800f 863f 1b4b 953f 6213 a03f
000000a0: 508e bc3f 0f6e 783f 8ab2 673f 40ef 813f
000000b0: 251c 7d3f a629 833f c267 6d3f f664 753f
000000c0: e086 843f 1252 763f 4791 713f 8840 8e3f
000000d0: d84c 8e3f 13df 833f 110e 893f 5932 8a3f
000000e0: 6cc6 843f 145b 593f be9c 733f a89b 873f
000000f0: 6beb 873f 387d 673f 39fa 813f 8e4d 783f
00000100: 266f 8e3f 1b2d 6a3f 5f65 8e3f 40af 923f
00000110: f8f1 853f 7094 873f 27f9 913f db18 833f
00000120: 2d42 7b3f 0139 7f3f 24a1 643f d06c 8a3f
00000130: 4cc0 803f 89fc 8e3f 9b0e 6d3f 873d 833f
00000140: a2ce 993f a2b7 793f 5129 7f3f 2851 753f
00000150: cf86 8b3f db5e 923f f655 893f 6d75 773f
00000160: 4b66 663f 38ea 7b3f f340 873f d817 6f3f
00000170: e757 843f dd6c 943f e757 7d3f 6a1a 823f
00000180: 7f00 623f ecda 813f 45cb 833f 689a 743f
00000190: 2e3c 703f 620c 883f 210d 823f dacf 8a3f
000001a0: 10cf 8f3f 687c 8e3f 9ae1 783f 22e3 893f
000001b0: d8b1 6c3f 22e4 873f 598f 883f 7ba9 823f
000001c0: 7c85 8d3f 3dd6 853f 0396 933f 2a02 813f
000001d0: fa88 643f 482a 763f 8c4c 823f c2e0 963f
000001e0: b2fc 813f d290 7f3f af36 7f3f a86a 8a3f
000001f0: e75c 8a3f ab1e 843f 1e13 803f 0081 7a3f
00000200: 4d84 883f c310 8d3f 050e 8b3f d2db 793f
00000210: 9b57 903f cfd0 923f c949 703f 8622 7c3f
00000220: 5c58 9d3f e35a 6e3f 9078 6d3f ff0d 803f
00000230: d011 813f 4b4f 8a3f 92a2 983f 155d 833f
00000240: 4bcc 733f 9150 843f 5d73 833f 0282 823f
00000250: 06b8 793f 181d 733f 696b 853f 23b7 743f
00000260: 3d86 633f c76d 883f 0966 653f ff5c 863f
00000270: 5359 823f c9d3 7a3f 58cf 763f 4409 693f
00000280: 97a9 843f 287d 883f 78c8 853f 88f0 813f
00000290: f361 7a3f 90cc 8b3f 0d0e 9b3f ed4b 7c3f
000002a0: a98e 733f fdd5 823f 2778 8c3f 5943 833f
000002b0: 0085 a33f af5c 7a3f 7375 6a3f b6a2 6d3f
000002c0: 640e b43f 6630 8d3f d2bf 7f3f 53c1 843f
000002d0: aa0b 6f3f e887 6d3f ce29 8d3f aa31 8b3f
000002e0: 1af2 6f3f f7d3 783f de55 883f 5603 883f
000002f0: 9ec6 873f 75b8 853f db31 903f 71ea 7c3f
00000300: 7a63 883f 4eda 823f bda4 853f ddee 873f
00000310: 2ecd 713f 8bab 843f af06 793f 68a4 853f
00000320: 2489 6d3f 998a 733f bbd0 7e3f 24ca 863f
00000330: 23d0 7a3f 52f0 873f 5c9c 8e3f bc78 8a3f
00000340: 84f0 6a3f d815 8c3f 58c3 703f 799a 853f
00000350: deb0 863f 19a5 913f f1ea 8c3f 8a43 893f
00000360: b0f7 863f dcc8 883f 52bf 7d3f 60c1 7a3f
00000370: bf27 913f 0510 873f 4a9f 753f a64b 8b3f
00000380: bcdf 733f 8896 8e3f c4ec 673f da3f 833f
00000390: 0a69 873f 4d14 893f 832b 883f 5350 883f
000003a0: 6288 873f 9d3d 7d3f 2869 843f e783 793f
000003b0: 85a2 8d3f bff4 763f 0c70 883f 2352 813f
000003c0: c03f 843f f4ed 8b3f b2d4 883f b1fb 873f
000003d0: 1af1 813f 4fd7 843f 5cc6 843f ddd0 663f
000003e0: 98a8 823f 1fdb af3f 5d29 823f a083 913f
000003f0: ab63 833f 9644 853f bbb8 7c3f 2034 833f

ln1.bias f4 [256]
-0.010254803 0.046028472 -0.010998287 -0.010066508 -0.05519666 -0.059938196 -0.02679109 -0.04411086
0.012588095 0.0146961585 0.026618324 0.01964534 -0.047617763 -0.0062550018 0.010435013 0.0223163
-0.031905208 -0.065683596 0.03380545 -0.007771202 -0.020267135 -0.06622516 0.016618405 -0.025471786
0.019611586 0.032664623 -0.046963062 -0.01657582 -0.0008297684 -0.09975391 -0.007037684 0.0062156534
0.009040751 -0.019000422 -0.011265636 -0.042153187 0.026342796 -0.031531163 0.013072679 0.0022632002
0.02170754 -0.027220093 -0.08705504 -0.001705038 -0.016611181 0.007904897 -0.06370922 -0.028629592
-0.0020170617 -0.032551903 -0.05840464 0.010187405 -0.032818586 -0.01586002 0.011298356 0.013869993
-0.010992807 -0.11550497 -0.055828463 -0.07811744 0.024408069 -0.091944195 -0.0156198405 -0.0053526824
0.04408159 -0.030482193 0.02884061 -0.042039935 0.011248744 0.03272206 0.0015332274 -0.010839642
-0.06899111 -0.029823275 -0.086463414 -0.011246187 -0.014642096 0.021108042 -0.061641373 -0.049936008
0.01123031 -0.04860125 -0.025208449 -0.033344552 -0.013039046 -0.055150323 0.01705112 -0.03472713
-0.068638965 -0.008300873 -0.06902704 -0.052847814 -0.006595708 0.010812924 0.011997213 -0.038768306
-0.045944393 -0.021329904 0.023971768 -0.049428146 -0.026746985 0.010554363 -0.04836802 -0.0032745327
0.023897668 0.018950293 -0.044999655 0.008015671 -0.05037301 -0.030706137 0.0013899888 -0.0079940725
0.028183958 0.028094739 0.010972785 0.024356384 -0.0913717 -0.033250146 -0.008713175 -0.012732834
-0.022242438 -0.071646385 0.010774038 0.011290371 0.006022542 0.00040210923 -0.013219055 -0.0381036
-0.00047501855 0.019688167 0.005284873 -0.028340504 -0.032556463 -0.04128937 -0.010089652 -0.026940148
-0.021883775 -0.07473708 -0.054163333 -0.040087417 -0.033620544 -0.023000905 0.028946731 -0.005323056
-0.047122266 0.010666439 -0.047135998 -0.033637896 -0.024287714 -0.018974198 -0.0037988098 -0.03562631
-0.08940264 0.011398862 -0.082320906 -0.011246975 -0.03200257 -0.022060942 -0.040251672 -0.07378563
-0.034190074 0.007098548 -0.029510746 -0.094324194 0.005811108 -0.0105801 -0.011678875 -0.015734833
-0.036688656 -0.024788303 0.00029472087 0.0056159184 -0.0034889183 -0.019401824 -0.06916691 -0.038669996
0.0101296995 -0.001664028 -0.047264025 -0.022560816 -0.06481019 -0.05879781 0.011702422 0.017279971
-0.04132102 -0.03543447 -0.012540337 0.026700117 0.009193463 0.008534004 0.018759163 -0.041779667
0.0027989948 0.012424936 -0.00983343 0.023093818 -0.047764316 -0.032357592 -0.035796273 -0.022285918
-0.063463025 -0.045883544 -0.040646035 0.025065297 -0.023240374 0.011198806 0.025554543 0.018590484
-0.046004534 0.0012985956 -0.065329276 -0.0164234 0.025177807 0.0060322797 0.010533132 0.037422683
0.02066977 0.024152547 -0.015879719 -0.051774807 -0.032173987 0.031178124 -0.008796969 0.02201285
-0.044948544 0.0705378 -0.02162187 0.008296306 -0.017406572 0.0020879959 0.03925386 0.002799768
-0.0038502817 -0.03807099 -0.0036699583 -0.034744978 0.033826195 -0.0378901 -0.046404216 -0.011016129
0.011291265 0.0070221196 -0.017441858 0.0068328534 0.035251904 -0.011731976 0.018252954 -0.07904413
-0.0068737543 0.028952181 -0.004772484 0.032049198 -0.022132857 0.014639294 -0.039421506 -0.008077388
00000000: c303 28bc 5a88 3c3d 2932 34bc ffed 24bc
00000010: e515 62bd c181 75bd fd78 dbbc 97ad 34bd
00000020: 4c3e 4e3c 28c8 703c ac0e da3c 44ef a03c
00000030: d80a 43bd c2f6 ccbb 9ef7 2a3c acd0 b63c
00000040: 09af 02bd 1f85 86bd 9577 0a3d 91a5 febb
00000050: 4307 a6bc 0fa1 87bd 5223 883c 35aa d0bc
00000060: 7aa8 a03c 57cb 053d 575c 40bd 04ca 87bc
00000070: d184 59ba c74b ccbd 5f9c e6bb aeac cb3b
00000080: a81f 143c c6a6 9bbc 8193 38bc d2a8 2cbd
00000090: d9cc d73c d226 01bd ca2e 563c 3352 143b
000000a0: 03d4 b13c acfc debc ea49 b2bd 957b dfba
000000b0: 2c14 88bc 8b83 013c fb79 82bd 9b88 eabc
000000c0: ae30 04bb 2555 05bd b439 6fbd 13e9 263c
000000d0: c86c 06bd dfec 81bc bd1c 393c f83e 633c
000000e0: 2d1b 34bc df8d ecbd 63ac 64bd 09fc 9fbd
000000f0: 6ef3 c73c 3d4d bcbd 5cea 7fbc 8e65 afbb
00000100: e68e 343d cbb5 f9bc 2543 ec3c 1132 2cbd
00000110: a74c 383c 9107 063d 93f6 c83a c198 31bc
00000120: 364b 8dbd f14f f4bc bb13 b1bd ed41 38bc
00000130: 67e5 6fbc c6ea ac3c aa7b 7cbd b389 4cbd
00000140: 56ff 373c 1b12 47bd f381 cebc 4c94 08bd
00000150: b9a1 55bc 4ee5 61bd caae 8b3c 093e 0ebd
00000160: 9692 8cbd 6300 08bc 0c5e 8dbd f376 58bd
00000170: cf20 d8bb b128 313c f58f 443c 84cb 1ebd
00000180: 3030 3cbd 0dbc aebc 7160 c43c 2b75 4abd
00000190: 7e1c dbbc 35ec 2c3c 8c1d 46bd 8b99 56bb
000001a0: 0bc5 c33c a53d 9b3c 8f51 38bd 2954 033c
000001b0: ee53 4ebd 708b fbbc 4930 b63a 92f9 02bc
000001c0: 0be2 e63c f026 e63c 32c7 333c 0a87 c73c
000001d0: 1621 bbbd 4e31 08bd b4c1 0ebc 609d 50bc
000001e0: c635 b6bc 57bb 92bd 9785 303c 40fb 383c
000001f0: be58 c53b 30d2 d239 bc94 58bc 8512 1cbd
00000200: e90b f9b9 1449 a13c ba2c ad3b 582a e8bc
00000210: ed59 05bd 0b1f 29bd 114f 25bc 96b1 dcbc
00000220: 9a45 b3bc c10f 99bd 5fda 5dbd b432 24bd
00000230: b2b5 09bd 656c bcbc b221 ed3c 086d aebb
00000240: 4703 41bd 4ac2 2e3c ad11 41bd e4c7 09bd
00000250: 07f7 c6bc c76f 9bbc 74f5 78bb e5ec 11bd
00000260: bb18 b7bd 4bc2 3a3c dd97 a8bd 3b45 38bc
00000270: 2015 03bd 26b9 b4bc f0de 24bd ec1c 97bd
00000280: e40a 0cbd f09a e83b 85c0 f1bc 0b2d c1bd
00000290: 1b6b be3b 2858 2dbc c158 3fbc 56e6 80bc
000002a0: d846 16bd d710 cbbc c484 9a39 bd05 b83b
000002b0: 56a6 64bb 93f0 9ebc 62a7 8dbd 6e64 1ebd
000002c0: 0af7 253c 841b daba ec97 41bd 76d1 b8bc
000002d0: 34bb 84bd f9d5 70bd 84bb 3f3c ba8e 8d3c
000002e0: 3b40 29bd bc23 11bd fc75 4dbc 34ba da3c
000002f0: 2ea0 163c 35d2 0b3c d1ac 993c 2821 2bbd
00000300: 576f 373b f591 4b3c 651c 21bc 3f2f bd3c
00000310: 84a4 43bd 6589 04bd 1d9f 12bd f590 b6bc
00000320: e7f8 81bd 62f0 3bbd 757c 26bd bd55 cd3c
00000330: 9962 bebc 327b 373c c357 d13c 124b 983c
00000340: 406f 3cbd a335 aa3a 5bcb 85bd 5e8a 86bc
00000350: b041 ce3c 6eaa c53b 2893 2c3c 8748 193d
00000360: a653 a93c 90db c53c 2f16 82bc d211 54bd
00000370: dfc8 03bd 4469 ff3c 2a21 10bc 4b54 b43c
00000380: f71b 38bd 1f76 903d 5920 b1bc 3bed 073c
00000390: 3a98 8ebc c2d6 083b a8c8 203d 507c 373b
000003a0: 0255 7cbb 54f0 1bbd af83 70bb c050 0ebd
000003b0: 568d 0a3d a632 1bbd 5912 3ebd fe7c 34bc
000003c0: fffe 383c cf19 e63b 3ae2 8ebc 21e6 df3b
000003d0: 4d64 103d 7937 40bc 3887 953c e4e1 a1bd
000003e0: 3b3d e1bb 202d ed3c 7f62 9cbb 0546 033d
000003f0: f74f b5bc a6d9 6f3c 7278 21bd 0557 04bc

fc2.weight f4 [256, 256]
0.053574782 0.032334097 0.010418675 -0.09160299 -0.0024359107 -0.036005203 0.0050698016 0.0013769309
0.019824155 0.05108443 -0.021718474 -0.010777304 0.00083997316 0.00061690906 0.144204 -0.02040092
0.029053878 0.024447188 0.13910927 0.08966706 -0.027118776 -0.04200971 0.03796603 0.010322153
-0.024081582 0.0056734183 -0.030236835 0.02087616 -0.0016181095 -0.006813107 0.06803406 0.03613838
-0.10900109 -0.07071816 0.069514 0.17177397 0.052959077 -0.10554453 0.10885125 -0.30710503
-0.15038201 0.04878139 0.04607901 -0.0051004197 0.043143146 -0.00036599513 0.007177714 -0.05770691
0.066729374 0.055127203 0.043998893 -0.011816543 -0.20087267 0.0073307944 0.02598842 0.048433762
0.12648706 0.0079537835 0.027544282 0.098238915 0.049626242 0.02486853 -0.097613186 -0.06855091
0.024630437 -0.037776522 0.052299958 0.03163763 -0.018278766 0.019356944 0.0396176 -0.11022707
-0.022965299 -0.03889089 0.054881226 -0.028055 0.0062730224 0.15163498 -0.008841847 0.038152073
-0.0037769626 0.046432067 0.0075941538 0.0072025163 -0.055029564 0.012159696 -0.0648247 -0.020729803
-0.0021763805 0.033452854 0.005173076 -0.024105059 -0.04747803 -0.04252533 0.10341542 -0.019171687
-0.06797727 -0.021571226 -0.018986477 0.03140442 -0.019499097 0.014928904 0.051539462 -0.026081845
0.080125056 -0.04707352 0.0028857256 0.07640394 0.01898428 0.09304759 -0.0152207855 0.008239705
0.06749315 -0.046796385 0.046280805 0.056443036 -0.037806477 -0.02984793 0.04252566 0.0058474853
0.055592757 0.11804927 0.060477827 0.076038525 0.04710835 -0.015586852 -0.011756275 0.093514115
-0.012291446 0.07563981 -0.037839323 0.029360702 0.10002086 -0.033265162 -0.06812367 0.025641534
-0.18805699 0.04232191 0.047246747 -0.01842606 -0.05852878 0.014749703 0.10709317 0.044029206
-0.035718016 0.081584774 0.03644518 -0.035658095 0.012264863 -0.007001404 0.014837295 -0.009532803
0.026279096 -0.09296783 -0.04405322 0.11629043 0.02938972 -0.06187785 -0.0012314775 -0.03586349
0.00020239536 0.00073218596 -0.046477858 -0.04028759 -0.06759216 0.01501329 -0.121219784 0.018022466
-0.032613266 0.021928232 -0.15814888 0.041508656 -0.020701976 -0.00788149 -0.018089768 0.019578995
-0.040544804 -0.13522612 -0.02679283 0.03487246 0.03947111 0.061567664 0.123327814 0.13492632
0.03278713 0.010807851 0.0057256683 -0.025669971 -0.010884136 -0.042028338 0.10843112 0.0054395655
-0.100538194 0.0061996314 -0.03924996 -0.06786928 0.061763003 -0.0402467 -0.055022918 0.021380585
-0.03177941 -0.016878411 -0.058246896 0.0017279774 0.023635961 0.06255995 -0.045100693 -0.0007344317
-0.041977063 0.029812386 0.056815784 0.03875237 -0.049638942 -0.111299865 0.012130737 -0.12759072
-0.13067143 -0.028861286 -0.052059628 -0.005224868 -0.007846737 0.0284715 0.019088147 -0.017788429
-0.04026901 -0.048012357 0.043485638 0.101377785 0.0949719 0.0064261346 -0.027345452 0.09844335
0.054311372 0.08589563 -0.00050263986 -0.04501852 0.020698493 -0.0047499808 0.01022465 0.06028039
0.027935553 0.032278735 0.043385707 -0.026194235 0.010693297 -0.07000416 -0.062317178 -0.06886077
0.060544986 0.09135092 0.06376877 -0.08882441 0.07551396 0.04620884 0.02834729 0.060344454
00000000: 3b71 5b3d c270 043d 17b3 2a3c 599a bbbd
00000010: cda3 1fbb 317a 13bd 9420 a63b 227a b43a
00000020: 4466 a23c e83d 513d f1ea b1bc 4a93 30bc
00000030: a531 5c3a 11b8 213a 37aa 133e d51f a7bc
00000040: 6602 ee3c 7845 c83c a972 0e3e 5da3 b73d
00000050: 3228 debc 6012 2cbd 4582 1b3d 3f1e 293c
00000060: bd46 c5bc 15e8 b93b 3db3 f7bc 7b04 ab3c
00000070: bf16 d4ba 7c40 dfbb 7155 8b3d d705 143d
00000080: f73b dfbd afd4 90bd 5b5d 8e3d 84e5 2f3e
00000090: 9eeb 583d bb27 d8bd 67ed de3d df3c 9dbe
000000a0: befd 19be ffce 473d 58bd 3c3d 6c21 a7bb
000000b0: deb6 303d 09e3 bfb9 0733 eb3b 155e 6cbd
000000c0: 69a9 883d 10cd 613d 2f38 343d 2c9a 41bc
000000d0: 91b1 4dbe 2937 f03b abe5 d43c 7b62 463d
000000e0: d385 013e 9650 023c 8ca4 e13c 7c31 c93d
000000f0: e344 4b3d 16b9 cb3c 6ce9 c7bd 6b64 8cbd
00000100: c5c5 c93c 8ebb 1abd 7b38 563d 7696 013d
00000110: 5abd 95bc 7492 9e3c 1146 223d bbbe e1bd
00000120: b921 bcbc 0e4c 1fbd 23cb 603d 99d3 e5bc
00000130: ed8d cd3b 3346 1b3e 65dd 10bc 5945 1c3d
00000140: eb86 77bb 8d2f 3e3d 61d8 f83b 1603 ec3b
00000150: ae66 61bd 7639 473c d0c2 84bd 8cd1 a9bc
00000160: 9ba1 0ebb dc05 093d e882 a93b f977 c5bc
00000170: 5378 42bd 0a2f 2ebd 77cb d33d f10d 9dbc
00000180: ab37 8bbd 24b6 b0bc 8789 9bbc eca1 003d
00000190: 92bc 9fbc 5d98 743c 0b1b 533d 98a9 d5bc
000001a0: 9b18 a43d 2ad0 40bd 711e 3d3b ab79 9c3d
000001b0: ec84 9b3c bc8f be3d 9a60 79bc d4ff 063c
000001c0: d939 8a3d 91ad 3fbd f190 3d3d d030 673d
000001d0: f7da 1abd a583 f4bc 632f 2e3d 439c bf3b
000001e0: 3bb5 633d d1c3 f13d 99b7 773d 16ba 9b3d
000001f0: aff4 403d ff5f 7fbc 649d 40bc 5484 bf3d
00000200: 1062 49bc 0be9 9a3d 68fd 1abd db85 f03c
00000210: bdd7 cc3d 0d41 08bd 6c84 8bbd 320e d23c
00000220: 0392 40be bd59 2d3d ce85 413d 40f2 96bc
00000230: e0bb 6fbd bda8 713c aa53 db3d f857 343d
00000240: 0e4d 12bd eb15 a73d 8b47 153d 390e 12bd
00000250: 90f2 483c 096c e5bb 2018 733c 792f 1cbc
00000260: 4247 d73c eb65 bebd 2671 34bd ad29 ee3d
00000270: b6c2 f03c a173 7dbd 8769 a1ba 98e5 12bd
00000280: 173a 5439 2bf0 3f3a 915f 3ebd 9a04 25bd
00000290: c26d 8abd 4dfa 753c 1442 f8bd daa3 933c
000002a0: 7d95 05bd d6a2 b33c c8f1 21be fb04 2a3d
000002b0: 3197 a9bc 5d21 01bc fe30 94bc 2164 a03c
000002c0: 4f12 26bd b778 0abe a37c dbbc 6dd6 0e3d
000002d0: 75ac 213d 602e 7c3d 4b93 fc3d 202a 0a3e
000002e0: cc4b 063d 6a13 313c 639e bb3b d549 d2bc
000002f0: 6053 32bc e825 2cbd 2311 de3d 623e b23b
00000300: f8e6 cdbd 4726 cb3b 91c4 20bd 0dff 8abd
00000310: 34fb 7c3d b9d9 24bd b65f 61bd 5626 af3c
00000320: 202b 02bd 9844 8abc 4c94 6ebd 4d7d e23a
00000330: 34a0 c13c 6e1f 803d 81bb 38bd e186 40ba
00000340: 24f0 2bbd 1b39 f43c abb7 683d ceba 1e3d
00000350: 3452 4bbd 2ff1 e3bd 00c0 463c 24a7 02be
00000360: bbce 05be 816e ecbc 7a3c 55bd 5f35 abbb
00000370: 9a8f 00bc 103d e93c bf5e 9c3c 0ab9 91bc
00000380: 1ef1 24bd 9ba8 44bd ff1d 323d 289f cf3d
00000390: a180 c23d 5392 d23b 9203 e0bc ab9c c93d
000003a0: 9a75 5e3d 0cea af3d 97c3 03ba 5765 38bd
000003b0: e38f a93c baa5 9bbb 4a85 273c 92e8 763d
000003c0: 1ad9 e43c b536 043d 36b5 313d 4b95 d6bc
000003d0: f032 2f3c 575e 8fbd 4c40 7fbd e006 8dbd
000003e0: 05fe 773d 3116 bb3d 3399 823d 93e9 b5bd
000003f0: 10a7 9a3d 7b45 3d3d 9338 e83c bf2b 773d

fc2.bias f4 [256]
0.018656943 -0.04325917 0.004246112 -0.057342965 0.027589267 0.039867032 0.05070564 -0.014584443
-0.0273697 0.050703164 -0.0028526906 -0.01744998 0.020800136 0.0071257832 0.046006307 -0.046045937
0.051807154 0.042712443 0.031673364 0.061873123 -0.03718872 0.05575238 0.039759435 -0.026824895
-0.041235268 0.0058019254 0.026616149 -0.016450375 -0.01646235 -0.003340226 0.03157922 0.006002248
-0.0021370614 0.064513944 -0.037732493 0.004260695 0.005341795 0.056701336 0.01613904 -0.044536382
0.03882107 0.0056250137 -0.021977838 -0.043081902 0.010956528 0.04299237 0.041854214 -0.03037071
0.0016545496 0.003770942 0.0026472649 -0.0048569664 0.032838408 0.024125425 -0.05218621 -0.010367121
-0.036167216 0.05020486 0.063992575 0.07090187 -0.0521417 -0.0009750598 0.054832216 -0.024526356
-0.034970894 -0.019178554 -0.026984487 0.017785309 -0.041147202 0.04605393 0.056177303 0.04107536
-0.0040645357 0.03167619 -0.0052058157 0.06250961 -0.046598736 0.021227932 0.036340173 -0.06208403
-0.040844206 0.05442708 0.06298557 0.0066000987 -0.039879672 -0.02638163 -0.052619856 -0.060111843
-0.044020656 0.0014220623 0.049439024 0.029980225 -0.030685822 -0.028938869 -0.034594554 -0.0047897985
0.051030863 -0.028176261 0.0034409855 0.025572779 0.049625713 0.02539763 -0.01148254 -0.022027876
0.041684356 -0.041743454 0.05133421 -0.046851125 -0.034195907 0.029215137 -0.015130034 0.042611256
0.06579379 0.022236736 -0.036757253 -0.032684576 -0.049011055 0.018670077 0.018497543 0.0045701596
0.034688003 -0.016701482 0.057820253 -0.026686914 0.05076035 0.026431086 0.012541505 -0.043815695
-0.027276285 0.01758741 0.027497973 0.06960482 0.023232613 0.038275734 -0.00052717765 0.011861337
-0.030588372 -0.053230852 0.02668652 0.01054565 0.019650713 -0.032676835 -0.006501878 -0.0111128045
0.009377047 0.0173796 -0.041827288 0.04304887 0.006326917 -0.006601495 0.03298088 0.029078497
0.0450055 0.032278385 0.050064135 0.038258098 -0.04376211 0.04696569 -0.0033199606 0.027275577
-0.01908937 -0.06305823 -0.028876083 -0.006298987 0.009874714 -0.04517837 -0.004653584 0.06366021
-0.023094457 0.024030719 -0.006720696 0.043899566 -0.059040785 0.039091952 0.02479366 -0.051174518
0.011315934 0.0075254273 -0.031230016 0.00265657 0.012158671 0.05351359 -0.006883087 -0.045624245
-0.003979474 -0.008851983 0.022479156 -0.026187034 0.048367847 0.039373543 0.027037248 0.0042570396
0.021665368 0.05266339 -0.003896049 0.036497045 0.0076012076 0.06537156 0.06354721 0.023317738
-0.0049050474 -0.008536902 -0.056503996 -0.024437001 -0.055189367 0.050860923 0.033152815 -0.024695607
0.052497722 -0.046320416 0.05707378 -0.017036816 -0.010395612 0.04334815 0.015148941 -0.0267309
0.017345387 0.064536035 0.021430802 -0.016213546 -0.027760118 0.0076093962 0.016561128 0.036328692
0.01148435 -0.05254242 0.02890801 0.019063476 -0.024009617 -0.05605964 0.03778736 0.028326096
0.040827554 0.027485913 -0.007851946 -0.000778715 0.048622478 -0.037822504 -0.036572885 -0.05721914
0.045980375 -0.0061642216 0.008519507 -0.055904698 -0.025664536 -0.009257446 0.016876461 -0.030037643
-0.025476258 -0.0534524 -4.3136097e-05 0.02593092 -0.038184475 -0.018618286 -0.04900853 -0.009963295
00000000: 72d6 983c 8730 31bd f822 8b3b 75e0 6abd
00000010: e302 e23c 9d4b 233d b8b0 4f3d 96f3 6ebc
00000020: 6c36 e0bc 1fae 4f3d 35f4 3abb 43f3 8ebc
00000030: 0c65 aa3c 677f e93b 1c71 3c3d aa9a 3cbd
00000040: bd33 543d 3ef3 2e3d eebb 013d ac6e 7d3d
00000050: 3353 18bd 9c5c 643d cada 223d e2bf dbbc
00000060: 50e6 28bd 141e be3b 1c0a da3c f0c2 86bc
00000070: 0ddc 86bc b1e7 5abb 3659 013d 81ae c43b
00000080: f10d 0cbb e31f 843d 638d 1abd 4d9d 8b3b
00000090: 390a af3b a93f 683d 0536 843c c86b 36bd
000000a0: d802 1f3d 0952 b83b de0a b4bc a676 30bd
000000b0: 0283 333c c418 303d 536f 2b3d ffcb f8bc
000000c0: 79dd d83a e921 773b bc7d 2d3b 3027 9fbb
000000d0: 9181 063d afa2 c53c 35c1 55bd dbda 29bc
000000e0: 1324 14bd 9ca3 4d3d 8a0e 833d 0035 913d
000000f0: 8992 55bd 289b 7fba bf97 603d 7feb c8bc
00000100: a43d 0fbd 581c 9dbc 920e ddbc 7fb2 913c
00000110: f889 28bd 0ca3 3c3d 2c1a 663d a33e 283d
00000120: cc2f 85bb e5be 013d 8c95 aabb 0a05 803d
00000130: 51de 3ebd 33e6 ad3c 6fd9 143d d34b 7ebd
00000140: 414c 27bd eeee 5e3d 94fe 803d a445 d83b
00000150: de58 23bd 4a1e d8bc eb87 57bd d637 76bd
00000160: 014f 34bd 7e64 ba3a 9380 4a3d 1799 f53c
00000170: d560 fbbc 3511 edbc 05b3 0dbd bef3 9cbb
00000180: bd05 513d e7d1 e6bc 2882 613b 017e d13c
00000190: 5544 4b3d b10e d03c 4321 3cbc ce73 b4bc
000001a0: 37bd 2a3d 2ffb 2abd d243 523d f7e6 3fbd
000001b0: 0211 0cbd 9554 ef3c f6e3 77bc 2489 2e3d
000001c0: e5be 863d d129 b63c c68e 16bd 43e0 05bd
000001d0: d1bf 48bd fdf1 983c 2988 973c 47c1 953b
000001e0: 0215 0e3d 8cd1 88bc eed4 6c3d 849e dabc
000001f0: 16ea 4f3d 0186 d83c e27a 4d3c 1678 33bd
00000200: 8472 dfbc 7913 903c 6e43 e13c f98c 8e3d
00000210: 5252 be3c 04c7 1c3d 4b32 0aba 0e56 423c
00000220: 7794 fabc 9808 5abd b09d da3c a9c7 2c3c
00000230: 88fa a03c 25d8 05bd b50d d5bb 7b12 36bc
00000240: 30a2 193c aa5f 8e3c 1753 2bbd 0354 303d
00000250: 0752 cf3b 5b51 d8bb f616 073d 0736 ee3c
00000260: b057 383d 5736 043d 0d10 4d3d 86b4 1c3d
00000270: e63f 33bd 185f 403d b293 59bb 0871 df3c
00000280: 4f61 9cbc ac24 81bd 898d ecbc bc67 cebb
00000290: 8dc9 213c f40c 39bd 187d 98bb 4960 823d
000002a0: 9630 bdbc 12dc c43c 4939 dcbb 08d0 333d
000002b0: c0d4 71bd e21e 203d 131c cb3c 5f9c 51bd
000002c0: 7866 393c dc97 f63b 17d6 ffbc d919 2e3b
000002d0: 2a35 473c 1131 5b3d 858b e1bb 7de0 3abd
000002e0: 3f66 82bb e807 11bc 3526 b83c 3186 d6bc
000002f0: 5d1d 463d 2746 213d 387d dd3c a37e 8b3b
00000300: 927b b13c 91b5 573d db54 7fbb ed7d 153d
00000310: 8d13 f93b 86e1 853d 0a25 823d d704 bf3c
00000320: 85ba a0bb 5dde 0bbc bc70 67bd 1b30 c8bc
00000330: 3f0e 62bd 8b53 503d 3fcb 073d 714e cabc
00000340: da07 573d 7aba 3dbd 32c6 693d cb90 8bbc
00000350: 5b52 2abc d48d 313d 4433 783c c3fa dabc
00000360: ea17 8e3c 782b 843d a68f af3c 45d2 84bc
00000370: 3069 e3bc 3e58 f93b 34ab 873c 65cd 143d
00000380: db28 3c3c b836 57bd 7ed0 ec3c 022b 9c3c
00000390: d1af c4bc cb9e 65bd ebc6 1a3d 210c e83c
000003a0: cb3a 273d 232a e13c 73a5 00bc ae22 4cba
000003b0: 5d28 473d c5eb 1abd 73cd 15bd 9e5e 6abd
000003c0: eb55 3c3d 3dfd c9bb 6795 0b3c 53fc 64bd
000003d0: 6f3e d2bc 8bac 17bc 8140 8a3c 8111 f6bc
000003e0: 96b3 d0bc e7f0 5abd 08ed 34b8 156d d43c
000003f0: 5367 1cbd 6085 98bc 2bbd 48bd 173d 23bc

ln2.weight f4 [256]
1.171019 0.96620053 1.316233 1.0834384 1.1013399 1.044526 1.0120317 1.0088016
1.2817934 1.0635496 1.030492 1.2243575 1.0558894 1.4286946 1.0327903 1.3427535
1.0254416 0.99739194 1.209251 1.325376 1.0816153 1.0846554 0.9904333 1.2482526
1.0312667 1.039033 1.0063928 1.2536354 1.1200222 1.1552689 1.1934937 1.201816
1.0687014 1.1837292 1.2535416 1.0224183 1.0609273 1.0630952 1.1075286 1.1702286
1.3800836 1.0177583 1.0225315 1.0807489 1.0440042 1.2018013 1.2018166 1.1337951
1.059366 1.124329 1.1002526 1.1113662 1.1565866 1.1718433 1.1982276 1.0356152
1.1597272 1.3188919 1.3523061 1.347636 1.2170826 1.1541252 1.1848034 1.3000968
1.2245486 1.0669949 1.0290068 1.1053798 1.1984302 1.0980573 1.038508 1.0409439
1.119879 1.3202609 1.4228033 1.0175881 1.1300132 1.0857427 1.1337175 1.0680131
1.009746 1.1565433 1.3895792 1.1977781 1.3009661 1.1465186 1.1988025 1.0696447
0.9979233 1.023414 1.0478222 1.1421635 1.2901303 1.2678483 1.223096 1.2820065
1.1869416 1.185309 1.1319463 1.1935745 0.98745114 1.1777037 1.3289121 1.0642588
1.2663125 0.9832579 1.0646957 1.0350559 1.1671876 1.1081288 1.390119 1.098787
1.192754 1.2931862 1.0642977 1.2149519 1.1940705 1.1489377 1.222288 0.97786367
1.1325669 1.1042595 1.1797756 1.1084317 1.0220947 1.2172318 1.1494678 1.1784072
1.277768 1.0139731 1.0116024 1.0401022 1.089897 1.0301907 1.2128145 1.1603105
1.0820086 1.0121188 1.0414981 1.0019954 1.1056956 1.2839831 1.0826489 1.1554556
1.0188084 1.264898 1.1040722 1.1913923 1.1241623 0.9750642 1.0902203 1.0810032
1.0882626 1.1242396 0.99142975 1.2019073 1.0324686 0.96925515 0.9752193 1.1805701
1.1543766 1.0667269 1.0026194 1.0795907 1.109006 1.1530871 1.0901263 1.0094541
1.0730585 1.2819049 1.2969753 1.2564092 1.1024085 1.219623 1.0425376 1.0049918
1.0940083 1.1249058 1.1347888 1.2114888 1.1445243 1.3011944 1.2485878 1.1552407
1.0948709 1.283113 1.2871623 1.1913202 1.0765907 1.1036291 1.3187413 1.1109909
1.1774786 1.119836 1.1200756 0.9534281 1.1075257 1.3117656 1.1861241 1.2138641
1.4135106 1.0599396 1.044901 1.1964179 1.1236702 1.0264269 1.1123651 1.1378386
1.1969302 1.1474607 1.1978834 1.1070778 1.0813603 1.1352617 1.4042927 1.0933735
1.23866 1.0053027 1.11617 1.1529584 1.1651859 0.9844202 1.0976564 1.2947502
1.1562139 1.1904213 0.9860744 1.057856 1.1167818 1.2896184 1.1310806 1.4048309
1.1795439 1.0775809 1.0053287 1.1736233 1.2989143 1.1694047 1.1022147 1.1041929
1.3710588 1.0708408 1.1998345 1.0513953 1.0409846 1.1411598 1.0517284 1.0110686
0.98527366 1.1246631 1.1281077 1.1751446 0.9497061 1.1325564 1.2591203 1.1656325
00000000: f3e3 953f eb58 773f 537a a83f 1cae 8a3f
00000010: b5f8 8c3f 07b3 853f 418a 813f 6920 813f
00000020: ce11 a43f 6522 883f 29e7 833f bfb7 9c3f
00000030: 6227 873f 77df b63f 7932 843f 59df ab3f
00000040: ac41 833f 1455 7f3f bdc8 9a3f eca5 a93f
00000050: 5f72 8a3f fdd5 8a3f 098d 7d3f bec6 9f3f
00000060: 8c00 843f 09ff 843f 7bd1 803f 2077 a03f
00000070: e35c 8f3f dadf 933f 67c4 983f 1bd5 993f
00000080: 35cb 883f 7084 973f 0d74 a03f 9ade 823f
00000090: 77cc 873f 8113 883f 7fc3 8d3f 0dca 953f
000000a0: 94a6 b03f e745 823f 50e2 823f fb55 8a3f
000000b0: eea1 853f a0d4 993f 20d5 993f 3320 913f
000000c0: 4e99 873f 03ea 8f3f 14d5 8c3f 3f41 8e3f
000000d0: 080b 943f f6fe 953f 865f 993f 0a8f 843f
000000e0: f171 943f 73d1 a83f 5e18 ad3f 567f ac3f
000000f0: 5dc9 9b3f 60ba 933f a3a7 973f 9269 a63f
00000100: 02be 9c3f 4a93 883f 7fb6 833f 167d 8d3f
00000110: 2966 993f 248d 8c3f d5ed 843f a63d 853f
00000120: 3258 8f3f 4ffe a83f 6b1e b63f 5440 823f
00000130: 46a4 903f 9ef9 8a3f a81d 913f a7b4 883f
00000140: 5b3f 813f 9c09 943f bbdd b13f cb50 993f
00000150: 0f86 a63f 1fc1 923f 5c72 993f 1eea 883f
00000160: e777 7f3f 3bff 823f 0a1f 863f 6a32 923f
00000170: fd22 a53f da48 a23f 698e 9c3f ca18 a43f
00000180: b4ed 973f 35b8 973f 9ee3 903f 0dc7 983f
00000190: 99c9 7c3f ffbe 963f cb19 aa3f a239 883f
000001a0: 8716 a23f cab6 7b3f f347 883f b67c 843f
000001b0: 6766 953f 2ad7 8d3f 6bef b13f 0da5 8c3f
000001c0: 2aac 983f 2087 a53f e83a 883f 8b83 9b3f
000001d0: 4dd7 983f 6410 933f ef73 9c3f 4655 7a3f
000001e0: f4f7 903f 6058 8d3f e302 973f 17e1 8d3f
000001f0: 00d4 823f 40ce 9b3f c321 933f 0cd6 963f
00000200: e78d a33f dfc9 813f 307c 813f 1222 853f
00000210: bf81 8b3f 4add 833f 813d 9b3f 0e85 943f
00000220: 427f 8a3f 1c8d 813f cf4f 853f 6341 803f
00000230: 6f87 8d3f 8f59 a43f 3d94 8a3f f8e5 933f
00000240: 5068 823f 2de8 a13f 3d52 8d3f 8b7f 983f
00000250: 8de4 8f3f cf9d 793f 578c 8b3f 505e 8a3f
00000260: 304c 8b3f 15e7 8f3f 57ce 7d3f 19d8 993f
00000270: ee27 843f 1b21 783f f9a7 793f ec1c 973f
00000280: 9dc2 933f 828a 883f d555 803f 0730 8a3f
00000290: e9f3 8d3f 5c98 933f 4289 8b3f cb35 813f
000002a0: fb59 893f 7615 a43f 4903 a63f 04d2 a03f
000002b0: b91b 8d3f 9b1c 9c3f df71 853f 92a3 803f
000002c0: 7708 8c3f eafc 8f3f c240 913f 1112 9b3f
000002d0: c67f 923f 8a8d a63f bad1 9f3f edde 933f
000002e0: bb24 8c3f 0c3d a43f bcc1 a43f 2e7d 983f
000002f0: b9cd 893f b843 8d3f 84cc a83f f334 8e3f
00000300: 9eb7 963f c956 8f3f a35e 8f3f dd13 743f
00000310: 67c3 8d3f efe7 a73f ead2 973f e65f 9b3f
00000320: eaed b43f 1aac 873f 51bf 853f 3924 993f
00000330: 6dd4 8f3f f561 833f fb61 8e3f b2a4 913f
00000340: 0235 993f fedf 923f 3e54 993f bab4 8d3f
00000350: 046a 8a3f 4150 913f ddbf b33f aaf3 8b3f
00000360: 698c 9e3f c2ad 803f a9de 8e3f 2494 933f
00000370: d024 953f f602 7c3f 0180 8c3f 60ba a53f
00000380: d1fe 933f ba5f 983f 5f6f 7c3f d367 873f
00000390: b5f2 8e3f 3712 a53f 40c7 903f 80d1 b33f
000003a0: 4bfb 963f 2cee 893f 9cae 803f 4a39 963f
000003b0: d342 a63f 0eaf 953f 5f15 8d3f 3156 8d3f
000003c0: db7e af3f 5011 893f 2d94 993f 1f94 863f
000003d0: fc3e 853f 8611 923f 099f 863f b26a 813f
000003e0: e53a 7c3f f6f4 8f3f d565 903f 236b 963f
000003f0: f01f 733f 9cf7 903f db2a a13f 7233 953f

ln2.bias f4 [256]
-0.035339467 -0.026669612 0.033797972 0.040780712 0.03235136 -0.025148226 -0.047354247 -0.038834404
0.06524244 -0.037153672 -0.030002393 -0.005990933 -0.022758935 -0.015616767 -0.07682821 0.046602637
-0.026057104 -0.049929325 -0.021457111 0.04544481 -0.010591825 -0.029047221 -0.035105046 -0.025939351
-0.06070511 -0.03153103 -0.007858344 0.012993443 -0.008345522 0.011266298 -0.06669781 0.031188287
0.009188037 0.0073842905 -0.023617085 -0.027866825 0.04254013 -0.028473098 -0.036697704 -0.020530136
0.031572495 -0.01605017 0.04294258 -0.004787449 -0.0016601413 -0.020905169 -0.014576334 0.00032314422
-0.015880074 -0.03035874 -0.01271886 -0.01330796 0.029203154 0.077480435 -0.003344807 -0.0061411457
0.029096466 0.036106255 0.03972458 0.05476785 0.057288114 -0.035592813 0.063387066 0.044149686
-0.045692198 0.047357645 -0.04519113 0.054992203 -0.019166524 0.07358965 -0.08908872 -0.041556288
0.044833113 0.041297026 0.0461753 0.04145966 -0.086625606 0.008109346 -0.009090179 -0.09115407
-0.010041073 -0.027319418 0.05474256 -0.09663709 0.051669404 0.03315531 -0.021400407 -0.01564921
-0.012601661 -0.02876936 -0.022905502 0.012095529 0.033697236 0.062507965 0.030869264 -0.07807925
0.060974732 -0.0054525686 0.022992196 -0.010112947 -0.0055337725 -0.0116191665 0.04903575 0.03918422
-0.066648565 -0.027725091 -0.05452898 -0.017330943 -0.09901981 -0.048095517 0.085294254 -0.010871343
-0.021542398 -0.07064895 0.05613343 0.043526474 0.018333776 0.021660179 -0.055467848 -0.05197421
-0.0034791091 0.018830221 0.048664417 -0.00032652824 -0.043932736 0.039424203 -0.03984914 0.06193234
0.0349339 -0.021846041 -0.0021337892 -0.011928225 0.013529722 -0.06136107 -0.01679076 -0.012430314
-0.014000982 -0.03729315 -0.057589937 -0.024531966 -0.043951117 0.04879783 0.036163665 -0.01374855
-0.023442598 -0.008274536 -0.0253444 -0.013683384 0.0077500283 -0.019536389 -0.018281942 -0.0040906114
0.005777419 0.020592744 0.024324857 0.011372444 -0.085522756 -0.0380932 -0.021958776 -0.040407263
-0.012267177 -0.015571927 -0.0053130803 -0.006780587 -0.03082439 0.019807024 -0.027176207 -0.03671365
-0.015380543 0.0023824817 0.04356964 0.028781353 -0.0037986683 0.084993675 -0.024734516 -0.012265818
-0.0069539007 -0.020114115 -0.01435649 0.05720844 0.035447378 -0.034782127 0.067434326 -0.09174789
-0.036159527 -0.06577727 -0.0032384275 -0.085892566 0.00046768397 0.065526776 0.046219885 0.032145977
0.038787108 0.07711798 0.022254571 -0.05499319 -0.009591635 0.04780572 0.06610377 0.019903176
-0.05332747 0.011125888 -0.015002676 -0.06429424 0.0035742675 -0.0019442089 -0.016800735 0.0034803424
-0.023824764 -0.039523344 0.033443354 -0.01447836 -0.028056411 0.053961843 0.041293465 -0.0043643406
0.044012222 -0.034883082 -0.022869429 -0.026133552 -0.024763381 -0.020624047 0.040148575 0.03431581
-0.057025485 -0.006924928 -0.041858647 0.03397238 -0.07198439 0.017382458 0.062640384 0.07160683
0.0004357613 -0.02892939 -0.04042001 -0.08210863 0.0047661834 0.047932044 -0.035530217 -0.0124029415
0.05816725 0.05654376 -0.010984175 -0.061393123 -0.056643046 -0.05193412 -0.00864304 -0.04634892
-0.0013447489 -0.035282023 -0.060080457 -0.016385376 -0.042480897 -0.017163819 0.042470373 -0.018491546
00000000: 1ec0 10bd 3b7a dabc be6f 0a3d ad09 273d
00000010: dc82 043d a703 cebc 87f6 41bd d310 1fbd
00000020: d49d 853d 732e 18bd 94c7 f5bc 974f c4bb
00000030: f270 babc 78dd 7fbc 1c58 9dbd 68e2 3e3d
00000040: b575 d5bc b182 4cbd d3c6 afbc 5624 3a3d
00000050: 5589 2dbc 70f4 edbc 4fca 0fbd c37e d4bc
00000060: eca5 78bd ae26 01bd 49c0 00bc 73e2 543c
00000070: a8bb 08bc 4796 383c dd98 88bd 947e ff3c
00000080: 6c89 163c ebf7 f13b 9e78 c1bc f848 e4bc
00000090: 8f3e 2e3d 6a40 e9bc 5550 16bd d12e a8bc
000000a0: 2952 013d a57b 83bc 8fe4 2f3d 08e0 9cbb
000000b0: 1999 d9ba 5141 abbc 93d1 6ebc af6b a939
000000c0: ee16 82bc e4b2 f8bc c462 50bc a109 5abc
000000d0: 743b ef3c 10ae 9e3d 8d34 5bbb aa3b c9bb
000000e0: b65b ee3c 27e4 133d 3eb6 223d 4154 603d
000000f0: f1a6 6a3d c5c9 11bd 14d1 813d 4dd6 343d
00000100: be27 3bbd 17fa 413d 561a 39bd 813f 613d
00000110: 1d03 9dbc 2cb6 963d 2674 b6bd ed36 2abd
00000120: eda2 373d 1227 293d 5022 3d3d 9bd1 293d
00000130: c468 b1bd 10dd 043c f9ee 14bc fcae babd
00000140: 5083 24bc f9cc dfbc bc39 603d abe9 c5bd
00000150: 4ca3 533d ddcd 073d e84f afbc c632 80bc
00000160: 3277 4ebc b9ad ebbc 52a4 bbbc 532c 463c
00000170: 1d06 0a3d 2d04 803d 8ae1 fc3c 04e8 9fbd
00000180: a4c0 793d 76ab b2bb 215a bc3c c6b0 25bc
00000190: a654 b5bb 515e 3ebc b6d9 483d a27f 203d
000001a0: 0b7f 88bd bb1f e3bc c859 5fbd 9ff9 8dbc
000001b0: e6ca cabd ceff 44bd c1ae ae3d b81d 32bc
000001c0: af79 b0bc 66b0 90bd 2bec 653d d148 323d
000001d0: b730 963c b070 b13c 4132 63bd e9e2 54bd
000001e0: c401 64bb d641 9a3c 5754 473d e131 abb9
000001f0: d0f2 33bd 467b 213d da38 23bd c4ac 7d3d
00000200: d916 0f3d 78f6 b2bc 0bd7 0bbb 9a6e 43bc
00000210: c4ab 5d3c bf55 7bbd c78c 89bc 84a8 4bbc
00000220: 6064 65bc b4c0 18bd 6de3 6bbd 43f7 c8bc
00000230: 1606 34bd 3ce0 473d 5a20 143d 9941 61bc
00000240: b10a c0bc eb91 07bc 0f9f cfbc 4630 60bc
00000250: f3f3 fd3b c70a a0bc 03c4 95bc 890a 86bb
00000260: 8150 bd3b 1db2 a83c ec44 c73c 7d53 3a3c
00000270: 8e26 afbd 9e07 1cbd e4e2 b3bc 1682 25bd
00000280: 45fc 48bc 6521 7fbc 5919 aebb b02f debb
00000290: 6e83 fcbc 5742 a23c a3a0 debc 0d61 16bd
000002a0: acfe 7bbc 6923 1c3b 1476 323d dfc6 eb3c
000002b0: 14f3 78bb 2a11 ae3d 0aa0 cabc 92f6 48bc
000002c0: 8cdd e3bb 5bc6 a4bc 7c37 6bbc 6653 6a3d
000002d0: 4531 113d b477 0ebd 021b 8a3d 51e6 bbbd
000002e0: 031c 14bd 3cb6 86bd cc3b 54bb 71e8 afbd
000002f0: 7b33 f539 e732 863d 1051 3d3d 80ab 033d
00000300: 3bdf 1e3d 08f0 9d3d 384f b63c 8a40 61bd
00000310: 3c26 1dbc eecf 433d 6a61 873d fc0b a33c
00000320: e86d 5abd 5b49 363c c9cd 75bc b3ac 83bd
00000330: 423e 6a3b d3d4 feba b2a1 89bc 7516 643b
00000340: 272c c3bc 3be3 21bd e6fb 083d a536 6dbc
00000350: 8fd6 e5bc 1807 5d3d 5623 293d be02 8fbb
00000360: 2946 343d 90e1 0ebd ab58 bbbc 0816 d6bc
00000370: 93dc cabc c3f3 a8bc d572 243d bc8e 0c3d
00000380: 8e93 69bd 82ea e2bb f973 2bbd 9f26 0b3d
00000390: 8d6c 93bd a865 8e3c 9a49 803d 9aa6 923d
000003a0: e476 e439 54fd ecbc 748f 25bd 9228 a8bd
000003b0: a52d 9c3b 6454 443d 2288 11bd b535 4bbc
000003c0: c840 6e3d 6e9a 673d f8f6 33bc 5b77 7bbd
000003d0: 8a02 68bd dfb8 54bd 8a9b 0dbc 5dd8 3dbd
000003e0: 4942 b0ba e283 10bd ed16 76bd a03a 86bc
000003f0: 7300 2ebd 239b 8cbc 6af5 2d3d 957b 97bc
