DDPG/models/reward_s0.12_a8e-2_t(-2_0.1).pth (torch, 280897 bytes, 11 tensors)

ln0.weight f4 [8]
0	0x3f899f18	1.0751677
1	0x3f5b0d56	0.85567224
2	0x3f8e297e	1.1106412
3	0x3f7b18b2	0.9808456
4	0x3ee1df75	0.44115797
5	0x3f2e07c4	0.679806
6	0x3f8b3b27	1.0877427
7	0x3f8255a8	1.018239

ln0.bias f4 [8]
0	0x3d4cc1ad	0.04998939
1	0x3e1bcb28	0.15214217
2	0x3c9afa2d	0.018918121
3	0x3dce7390	0.100806355
4	0xbe8c5fdc	-0.27416885
5	0xbe26db92	-0.16294697
6	0x3be9de0f	0.007137067
7	0x3d8eba85	0.069691695

fc1.weight f4 [256, 8]
0	0xbe19043e	-0.14943025
1	0xbd5ce827	-0.053932335
2	0xbc9916d5	-0.018687645
3	0x3d555f2e	0.052092724
4	0x3d86eda0	0.06588292
5	0x3d9de8ce	0.077104196
6	0x3d39522d	0.045244385
7	0xbd9e7d58	-0.07738751
8	0x3d9984ae	0.0749601
9	0x3d31dd24	0.043423787
10	0xbdaf5c3c	-0.08562514
11	0x3b3adb3c	0.0028512022
12	0x3c884bf3	0.016637778
13	0xbacaf6f0	-0.001548497
14	0xbd7026ce	-0.058630757
15	0xbd8f9721	-0.070112474
16	0xbdf07272	-0.11740579
17	0xbc7c5efe	-0.015403507
18	0xbe402db5	-0.18767436
19	0xbdf1bdc8	-0.11803776
20	0xbbea07ec	-0.0071420576
21	0x3d7478bd	0.059685457
22	0x3d5e7632	0.05431194
23	0xbd8963af	-0.06708466
24	0x3a8791b3	0.0010343104
25	0x3d2058bf	0.039147135
26	0xbe07a3e8	-0.13246119
27	0x3d659e11	0.056058947
28	0xbc8d32d2	-0.017236147
29	0xbcdb896f	-0.026798932
30	0x3e125b3c	0.14292616
31	0x3c1bfc92	0.009520667
32	0xbd931c35	-0.071831144
33	0x3d10431d	0.035220254
34	0x3e0658bf	0.13119791
35	0x3db706d6	0.08936851
36	0xbc39e044	-0.011344973
37	0x3af5ad8d	0.0018743739
38	0xbd8a661c	-0.06757757
39	0xbd8a7cb5	-0.06762067
40	0x3d1c1f4c	0.038115785
41	0xbd0a8338	-0.033816546
42	0x3cd66519	0.026171254
43	0xbdadfacf	-0.084951036
44	0x3d401b9f	0.04690134
45	0xbae7b248	-0.0017677033
46	0xbc4fcab0	-0.012682602
47	0x3d291485	0.041279335
48	0x3d5694c3	0.052387964
49	0x3d5bb8f8	0.053643197
50	0xbde68103	-0.11255076
51	0xbd300f60	-0.042983413
52	0xbcc221da	-0.023697782
53	0xbd08f2f7	-0.033434834
54	0x3e05ebda	0.13078251
55	0x3d05ab43	0.03263403
56	0x3de5d844	0.1122289
57	0x3c3101fb	0.010803695
58	0xbdc7f249	-0.09763009
59	0x3dc665b7	0.09687369
60	0xbb60601a	-0.0034236968
61	0xbd3f0386	-0.04663422
62	0x3d1c6c67	0.038189318
63	0x3da38868	0.07985002
64	0xbdc13c47	-0.09435325
65	0xbdb3746e	-0.087624416
66	0xbe0454b3	-0.12922935
67	0xbd4833f5	-0.048877675
68	0x3c88a2b7	0.016679151
69	0x3d13a162	0.03604258
70	0x3d867a92	0.06566347
71	0x3d952933	0.07283249
72	0x3da98eaf	0.08279168
73	0xbc2ac603	-0.010423186
74	0xbb3b8fb3	-0.0028619587
75	0xbd82c2ee	-0.06384836
76	0x3d6c29cd	0.05765705
77	0xbc2425f3	-0.010018813
78	0xbcad628e	-0.021165159
79	0x3cab07a1	0.020877661
80	0x3ced62a0	0.028977692
81	0x3c9ca8e2	0.019123498
82	0xbe2a530b	-0.16633241
83	0xbbdf080d	-0.0068063796
84	0x3c8997af	0.016795961
85	0xbc24705f	-0.010036557
86	0xbde6f1e9	-0.112766095
87	0x3e41a308	0.18909848
88	0xbcd9b2ec	-0.026574574
89	0xbd822256	-0.06354205
90	0x3d09bd06	0.033627532
91	0xbdbcec01	-0.09224702
92	0xbd86842b	-0.06568178
93	0x3dbb4082	0.09143163
94	0x3cf4318f	0.029808788
95	0xbe6091e1	-0.21930648
96	0xbb4f63ae	-0.0031645107
97	0x3d8aa97d	0.067706086
98	0xbc008833	-0.007844972
99	0xbd169202	-0.036760338
100	0x3cb4aee9	0.02205606
101	0xbc0084bf	-0.007844149
102	0x3e161093	0.1465476
103	0x3ba758b4	0.00510701
104	0xbe4c0c29	-0.19926514
105	0x3d618d42	0.055066355
106	0x3e04dd11	0.12974955
107	0xbc1a2359	-0.009407842
108	0x3c98853e	0.018618222
109	0x3c8a3a36	0.01687346
110	0x3cf23dac	0.029570423
111	0xbcc2cc52	-0.023779068
112	0x3bfa9061	0.007646606
113	0xbc8179c3	-0.01580513
114	0xbda8f5ca	-0.082500055
115	0xbe1e7780	-0.15475273
116	0xbcdf353b	-0.027247062
117	0x3ccf7b7d	0.025327438
118	0xbdac6e35	-0.08419458
119	0x3b14ca18	0.0022703465
120	0xbdc5f0b5	-0.09665052
121	0xbd82b55e	-0.06382249
122	0xbd8323e0	-0.06403327
123	0xbe7107b3	-0.23538093
124	0x3d84f4dd	0.064920165
125	0x3d9650d2	0.07339634
126	0xbcfe62f1	-0.031053038
127	0xbc8a1833	-0.016857242
128	0x3dafc1cb	0.08581885
129	0x3bbc5be6	0.00574826
130	0xbdfb5689	-0.12272365
131	0x3d8acb80	0.06777096
132	0x3c9d789d	0.019222552
133	0x3c3b6d8c	0.011439692
134	0x3e0d4a8a	0.13797966
135	0x3c4cbaad	0.012495679
136	0xbd68a070	-0.05679363
137	0x3cf2f3be	0.029657241
138	0xbcef666d	-0.029223645
139	0x3db36958	0.08760327
140	0xbbeefba4	-0.0072931815
141	0xbd7f4b44	-0.06232764
142	0xbda23f02	-0.07922174
143	0x3c9912d6	0.01868574
144	0xbbbd7fab	-0.0057830415
145	0xbdb90f70	-0.090361476
146	0x3c039eca	0.008033464
147	0xbdd6296e	-0.10457121
148	0x3c173a52	0.009230213
149	0x3ddb94c7	0.107217364
150	0xbe1694cb	-0.14705198
151	0xbe0504fa	-0.1299018
152	0x3d5d8d0d	0.054089595
153	0x3d75537b	0.059894066
154	0xbe133dcb	-0.14379041
155	0x3cd4e9cd	0.025990391
156	0x3d042271	0.03225941
157	0x3cbb7e68	0.022887424
158	0x3ce8b879	0.028408276
159	0xbcf3da01	-0.029767038
160	0xbd498e72	-0.049208112
161	0x3cdff87b	0.027340164
162	0xbe196d62	-0.14983132
163	0xbc446340	-0.011986554
164	0x385a5d20	5.206198e-05
165	0x3d0db700	0.03459835
166	0x3de4b1c9	0.11166722
167	0xbb87f26d	-0.0041487725
168	0x3cc9b008	0.024620071
169	0xbe06f238	-0.13178337
170	0x3bcb3b1b	0.0062021143
171	0xbcd16ad3	-0.025563633
172	0xbc0f2106	-0.008735901
173	0x3ae27537	0.0017277364
174	0xbe44e2b6	-0.19227108
175	0x3dc7196a	0.09721644
176	0xbe0561f6	-0.1302565
177	0xbdef20f8	-0.1167621
178	0xbe49a8a8	-0.19693244
179	0xbde127b9	-0.109939046
180	0x3c656fa0	0.014003664
181	0x3dd9675f	0.106154196
182	0x3c515f79	0.01277911
183	0x3d385b99	0.04500923
184	0xbd64527c	-0.055742726
185	0x3d806d2c	0.06270823
186	0x3e123834	0.14279252
187	0xbc7041b4	-0.014664102
188	0xbd1b5685	-0.03792431
189	0xbc544bd6	-0.012957534
190	0xbdaff9a9	-0.08592541
191	0xbcc5c575	-0.024142006
192	0xbd8484f7	-0.064706735
193	0xbd641c12	-0.055690832
194	0x3ddf77c5	0.10911516
195	0xbdc8ce6e	-0.09804998
196	0x3d67fb75	0.056636292
197	0x3de1546b	0.110024296
198	0xbe0e3201	-0.13886262
199	0x3d1df455	0.03856309
200	0xbb80c1ad	-0.003929338
201	0xbd9b5bd8	-0.07585877
202	0xbddfff75	-0.109373964
203	0xbda228f3	-0.07917967
204	0xbd541cf6	-0.05178543
205	0x3b91fffe	0.0044555655
206	0xbd93380d	-0.07188425
207	0x3c31eb8a	0.01085938
208	0x3d90afd7	0.07064789
209	0x3da309ce	0.079608545
210	0xbdd505ff	-0.10401534
211	0x3dcf0c2d	0.10109744
212	0xbc0a8783	-0.00845516
213	0xbbb7442a	-0.0055928426
214	0x3db76967	0.08955651
215	0xbd3ed274	-0.046587422
216	0x3d399951	0.04531223
217	0x3cd9dc76	0.026594382
218	0x3d535ecf	0.05160409
219	0xbd3b0690	-0.045660555
220	0x3c914ce4	0.01773686
221	0x3c0039bc	0.007826265
222	0xbdbf5122	-0.09341647
223	0x3c505407	0.012715346
224	0xbd7af2c1	-0.061266664
225	0xbdd4084c	-0.10353145
226	0xbe4b5a3e	-0.19858643
227	0xbca2afd7	-0.019859238
228	0x3ca67bd8	0.020322725
229	0x3d93a18b	0.07208546
230	0x3d55de44	0.052213922
231	0xbdcbaeb6	-0.09945433
232	0xbd94fd85	-0.072749175
233	0x3d91f86c	0.07127461
234	0x3e04d683	0.12972455
235	0x3e0f8d25	0.14018686
236	0x3b8b33a9	0.0042481017
237	0x3c1b2d3e	0.009471236
238	0x3cb8aa8b	0.022542259
239	0xbdbb836e	-0.091559276
240	0xbc1ef448	-0.009701796
241	0xbd140e4e	-0.036146455
242	0x3cb626c7	0.022235287
243	0xbd43489e	-0.047676675
244	0x3cb81682	0.02247167
245	0x3c86da59	0.016461538
246	0xbe0fea36	-0.14054188
247	0x3d576171	0.05258316
248	0xbe1cd181	-0.15314294
249	0xbd07e0ca	-0.03317336
250	0x3d9ce033	0.0765995
251	0xbb116d7f	-0.002219051
252	0x3ab7a301	0.0014010371
253	0x3d0c5c9c	0.034268007
254	0xbdc693d3	-0.09696164
255	0x3dd37b78	0.10326284

fc1.bias f4 [256]
0	0xbda68ac1	-0.08131934
1	0x3bcba1b1	0.0062143435
2	0xbe19410e	-0.14966223
3	0x3e6df8c2	0.23239425
4	0x3e231f49	0.15929903
5	0x3da25be1	0.07927681
6	0x3e6c3187	0.23065768
7	0x3e94b0bd	0.2904109
8	0xbd5402bd	-0.051760424
9	0x3ddf4e63	0.10903623
10	0x3cb98242	0.02264512
11	0xbdcf593c	-0.10124442
12	0x3e5f9575	0.21834357
13	0x3de19e01	0.11016465
14	0xbd907a3d	-0.07054565
15	0xbe648f5b	-0.22320311
16	0x3e523e69	0.2053162
17	0x3e1539d2	0.14572838
18	0xbe64fe9c	-0.22362751
19	0x3d87a876	0.06623928
20	0x3d7389ad	0.05945747
21	0xbbbb0156	-0.0057069464
22	0xbe88564c	-0.2662834
23	0x3e3bf6eb	0.1835591
24	0xbe061bca	-0.13096538
25	0xbd8d6a81	-0.0690508
26	0x3e6812fb	0.2266349
27	0x3def0b6f	0.11672103
28	0xbe19e9c2	-0.15030578
29	0x3e687280	0.22699928
30	0x3c43ed54	0.011958439
31	0xbc23bec1	-0.00999421
32	0xbe3ece4b	-0.18633382
33	0xbe5815e2	-0.21102098
34	0x3dc02de2	0.093837515
35	0x3dcb6c01	0.099327095
36	0xbe31afb0	-0.17352176
37	0x3cec59a2	0.028851334
38	0xbcf37697	-0.029719634
39	0x3dbb59b3	0.09147968
40	0x3d62253d	0.055211294
41	0x3e6c82fa	0.23096839
42	0x3e868ff9	0.26281717
43	0xbcc83e2f	-0.024443714
44	0x3db12a72	0.08650674
45	0x3dd479a7	0.10374766
46	0x3e692283	0.22767071
47	0x3e09ecd6	0.13469252
48	0xbe47ea84	-0.19523054
49	0x3e8ce5aa	0.2751897
50	0x3de65df3	0.11248388
51	0xbe0a0f2d	-0.13482352
52	0x3d3c0e30	0.045911968
53	0xbe5c186d	-0.21493693
54	0xbe80a03d	-0.25122252
55	0xbc93b084	-0.018028505
56	0x3e1080c6	0.14111623
57	0x3e8093cb	0.25112757
58	0x3e04d146	0.12970456
59	0x3e7ba31d	0.24573942
60	0xbd6e9d9c	-0.058255777
61	0x3e89b27c	0.26893985
62	0x3e5dac2d	0.21647711
63	0x3e296356	0.165418
64	0x3b07231a	0.0020620287
65	0x3e6ee744	0.23330408
66	0x3bddfbc5	0.006774398
67	0x3cb926d3	0.02260152
68	0xbe120f2d	-0.14263602
69	0xbdc5211b	-0.09625455
70	0xbe576e32	-0.2103813
71	0x3e3c4d2c	0.18388814
72	0x3d990440	0.07471514
73	0x3e121620	0.14266253
74	0x3e54b9a5	0.20773943
75	0xbda4bed8	-0.08044213
76	0xbe08fc1f	-0.13377427
77	0x3dda001c	0.10644552
78	0x3e448649	0.1919185
79	0x3de4358b	0.11143025
80	0xbe591caf	-0.21202348
81	0x3e35d54e	0.1775715
82	0x3e149521	0.14510013
83	0x3e87bef1	0.26512864
84	0xbe495cc6	-0.19664297
85	0x3e2ec670	0.17067885
86	0xbc2f4054	-0.010696489
87	0x3e8d4aa6	0.27596015
88	0x3e678378	0.22608745
89	0xbde5e0e0	-0.11224532
90	0x3d1111e1	0.03541744
91	0x3e80ca70	0.25154448
92	0xbe6cf000	-0.23138428
93	0x3c921712	0.017833266
94	0xbe5f034d	-0.21778603
95	0x3e890cf8	0.26767707
96	0x3e9173ed	0.28408757
97	0x3e71284a	0.23550525
98	0xbdadee8d	-0.084927656
99	0x3e7f33a7	0.24922048
100	0x3e0dffa0	0.13867044
101	0xbe611469	-0.21980442
102	0x3d5e01fa	0.054201104
103	0x3e12d667	0.143396
104	0x3c85839e	0.016298112
105	0xbde44cf1	-0.11147488
106	0x3e5b5cf8	0.21422184
107	0xbe4cc6cc	-0.1999771
108	0x3e907f79	0.28222254
109	0x3d7e27f0	0.062049806
110	0x3e01fb37	0.12693487
111	0xbe14e846	-0.1454173
112	0xbd990d1d	-0.07473204
113	0xbe34a266	-0.17640075
114	0x3bb1469a	0.0054100277
115	0xbe718948	-0.23587525
116	0x3e4ddbe9	0.2010342
117	0x3e734f5b	0.2376074
118	0x3d0b9924	0.034081593
119	0xbd04d30e	-0.03242784
120	0xbe616529	-0.22011246
121	0x3d1d3853	0.038383793
122	0xbe55805c	-0.20849746
123	0xbe3607a3	-0.1777635
124	0xbde3e58f	-0.11127769
125	0x3e34db08	0.17661679
126	0x3e5eb917	0.21750294
127	0x3e5d7eba	0.21630374
128	0x3c9634e9	0.018335776
129	0x3b754985	0.0037427854
130	0xbe21ae72	-0.15789202
131	0x3d9f9d08	0.07793623
132	0xbe1e683a	-0.15469447
133	0x3e42e52a	0.19032732
134	0x3dffd3d5	0.12491576
135	0x3e53c456	0.20680365
136	0x3da56134	0.08075181
137	0x3e94e436	0.2908036
138	0x3d797733	0.060904693
139	0x3e82443e	0.2544269
140	0xbd4f268d	-0.050573874
141	0x3dc2e93f	0.095171444
142	0xbe0c85d0	-0.1372292
143	0xbc53b13e	-0.012920676
144	0x3e8aee1f	0.27134797
145	0xbd8329e6	-0.06404476
146	0xbe7abf5f	-0.24487065
147	0x3e43dd4c	0.19127387
148	0x3e564491	0.20924594
149	0xbde3ad7e	-0.111170754
150	0xbd9b7b1b	-0.0759184
151	0x3e65b491	0.22432162
152	0x3dc29d42	0.09502651
153	0x3c571860	0.01312837
154	0x3e904a3e	0.28181642
155	0xbdf73032	-0.120697394
156	0xbe423ec0	-0.1896925
157	0x3df3120c	0.118686765
158	0x3e8ba9cc	0.27277982
159	0x3e5d346f	0.21602033
160	0x3e33be83	0.17553143
161	0xbe79094e	-0.24319956
162	0x3e802cb5	0.2503411
163	0x3e034979	0.12820996
164	0xbe2683a5	-0.16261156
165	0xbdd241c9	-0.10266454
166	0xbc82f0bf	-0.015983937
167	0x3e7c7e79	0.2465762
168	0x3df8cbb4	0.12148228
169	0xba4c65af	-0.00077971345
170	0x3dda7c00	0.106681824
171	0xbe675543	-0.22591119
172	0xbd14679c	-0.036231622
173	0x3e07d518	0.13264883
174	0x3e935f8d	0.28783837
175	0x3e375c89	0.17906393
176	0x3b3e8253	0.0029069379
177	0xbc964454	-0.018343128
178	0x3e4c56e0	0.19955015
179	0x3d84cb11	0.06484044
180	0x3e469006	0.19390878
181	0x3e0ff667	0.14058839
182	0xbdadecb1	-0.08492411
183	0xbd5d6d07	-0.054059055
184	0x3dab6b3f	0.08370065
185	0x3dec9680	0.11552143
186	0xbbf5812c	-0.007492205
187	0xbdb38152	-0.087649
188	0xbda8995a	-0.082323745
189	0xbe2eaddb	-0.17058508
190	0xbe0ca64b	-0.1373531
191	0xbdfc8823	-0.123306535
192	0x3cbb232f	0.022843925
193	0x3dda0de2	0.10647179
194	0x3d30bf6b	0.0431513
195	0xbdb42f25	-0.087980546
196	0x3e848ae2	0.2588721
197	0x3d874446	0.06604819
198	0x3d99666f	0.07490241
199	0x3d8fc79d	0.07020495
200	0x3e6672b1	0.22504689
201	0x3e6a2bb0	0.22868228
202	0x3d1a5fa3	0.037688863
203	0xbddf150c	-0.10892686
204	0x3d38d503	0.04512502
205	0xbe56de36	-0.20983204
206	0xbde63498	-0.112405
207	0xbdf5c399	-0.12000198
208	0x3e284a28	0.16434538
209	0xbe48a4be	-0.19594094
210	0x3d7ce8b9	0.06174538
211	0x3dedadf3	0.11605444
212	0xbddfc9ad	-0.109271385
213	0xbe8cf47a	-0.2753027
214	0xbe6caabe	-0.23112008
215	0xbe7d4c0f	-0.24736045
216	0xbd3825a6	-0.04495778
217	0xbe7dc17e	-0.24780843
218	0xbe252b19	-0.16129722
219	0x3e620c30	0.22074962
220	0x3dffb5ab	0.12485822
221	0xbe1d87af	-0.1538379
222	0xbe04542e	-0.12922737
223	0xbe561e3e	-0.20909974
224	0x3e551aa0	0.20810938
225	0xbe4161b1	-0.18884923
226	0xbd8d0c0b	-0.06887063
227	0xb9a67345	-0.0003174787
228	0xbd44961b	-0.047994714
229	0xbe763fa0	-0.24047709
230	0xbd4dfb09	-0.050288234
231	0xbc4c4851	-0.012468413
232	0x3da759a9	0.08171398
233	0x3e40031b	0.18751185
234	0x3b4bec8d	0.0031116337
235	0x3dbf7568	0.09348565
236	0xbe232208	-0.1593095
237	0x3e2d1942	0.16904166
238	0xbd2b0a2e	-0.041757755
239	0x3def8a37	0.11696284
240	0x3d687a71	0.056757394
241	0xbe0a20a3	-0.13489012
242	0xbe720550	-0.23634839
243	0x3d6d63ae	0.05795639
244	0x3c9810fb	0.018562784
245	0xbe3649ce	-0.17801592
246	0x3d72063e	0.059087984
247	0x3e8b77a3	0.27239713
248	0x3e252aaf	0.16129564
249	0xbbddca66	-0.0067685125
250	0x3e27a36b	0.16370933
251	0xbe6ea801	-0.23306276
252	0xbe114075	-0.14184745
253	0xbade8298	-0.0016976176
254	0xbde0efa3	-0.10983207
255	0xbe227af8	-0.15867221

ln1.weight f4 [256]
0	0x3f8b7f04	1.0898137
1	0x3f6d0455	0.92584735
2	0x3f90465d	1.1271473
3	0x3f88ec83	1.0697178
4	0x3f73cc44	0.9523356
5	0x3f826a63	1.0188717
6	0x3f82f907	1.0232247
7	0x3f424d2a	0.75898993
8	0x3f8bb3f6	1.0914295
9	0x3f5e8d00	0.869339
10	0x3f9720fe	1.1806943
11	0x3f9c6c32	1.2220519
12	0x3f59b875	0.85047084
13	0x3fa79be9	1.3094455
14	0x3f7fd68e	0.9993676
15	0x3f8b989a	1.0905945
16	0x3f788921	0.9708424
17	0x3f53986a	0.8265444
18	0x3f6d32fa	0.9265591
19	0x3f6b21b2	0.9184829
20	0x3f81a503	1.0128483
21	0x3f9220e8	1.1416292
22	0x3f8954bc	1.0728984
23	0x3f860b94	1.0472283
24	0x3f964f3c	1.174293
25	0x3f50793a	0.8143498
26	0x3f602996	0.87563455
27	0x3f6ca445	0.92438155
28	0x3f8e38c4	1.1111073
29	0x3f68ce44	0.90939736
30	0x3f8187ef	1.0119609
31	0x3fa2d556	1.2721355
32	0x3f914cd9	1.1351577
33	0x3f452d9b	0.77022713
34	0x3f99e7ad	1.2023827
35	0x3f8ec8c2	1.1155016
36	0x3f89bdcb	1.0761045
37	0x3f6c7880	0.9237137
38	0x3f9f87ca	1.2463315
39	0x3fa241f3	1.2676376
40	0x3fbc85e8	1.4728365
41	0x3f7b5fe4	0.9819319
42	0x3f30fd32	0.69136345
43	0x3f840ab2	1.0315764
44	0x3f8ac2d5	1.0840708
45	0x3f6eba10	0.9325266
46	0x3f234fcb	0.6379363
47	0x3f793c22	0.9735738
48	0x3f5bdad2	0.8588077
49	0x3f469aeb	0.77580136
50	0x3f3e6be8	0.743834
51	0x3f8915f5	1.0709826
52	0x3f7f2c0b	0.9967658
53	0x3f8fca50	1.1233616
54	0x3f7ed5d1	0.9954501
55	0x3f765c69	0.96234757
56	0x3f7ed5a7	0.9954476
57	0x3f537dce	0.8261384
58	0x3f86252e	1.0480096
59	0x3f74340e	0.9539193
60	0x3f8f40bf	1.1191634
61	0x3f7162f5	0.9429162
62	0x3f88c656	1.0685527
63	0x3f73feae	0.95310485
64	0x3f7ff1e0	0.99978447
65	0x3f65bf4d	0.89745027
66	0x3fa10bfd	1.2581784
67	0x3fac6345	1.3467795
68	0x3f72e12d	0.9487484
69	0x3f9c642f	1.2218074
70	0x3f6d5554	0.92708325
71	0x3f82392c	1.0173697
72	0x3f86c1e8	1.0527925
73	0x3f842e10	1.0326557
74	0x3f53864b	0.8262679
75	0x3f89fb4f	1.0779818
76	0x3f726e05	0.94699126
77	0x3f9aaa64	1.2083249
78	0x3f0f355f	0.5594081
79	0x3f82890c	1.0198073
80	0x3f7ff1e1	0.9997845
81	0x3f44f91c	0.7694261
82	0x3f71f81b	0.94519204
83	0x3f6318b8	0.8870959
84	0x3f660ec6	0.8986629
85	0x3f588e2a	0.84591925
86	0x3f89ef77	1.0776204
87	0x3f6c59ec	0.9232471
88	0x3f5c58b8	0.86072874
89	0x3f9abad0	1.2088261
90	0x3f84b804	1.0368657
91	0x3f3e9f2c	0.74461627
92	0x3f8a2a0b	1.079408
93	0x3f83c1e7	1.0293549
94	0x3f73cb49	0.95232064
95	0x3f8442d7	1.0332898
96	0x3f416d87	0.7555775
97	0x3f484261	0.78226286
98	0x3faacb39	1.3343269
99	0x3f7efbe1	0.99603087
100	0x3f574fd5	0.8410619
101	0x3fefa34e	1.8721712
102	0x3f898abd	1.0745465
103	0x3f94260c	1.1574111
104	0x3fa8c0d5	1.3183848
105	0x3f8ea69e	1.1144598
106	0x3f596bb8	0.8492999
107	0x3f6bc08a	0.92090666
108	0x3f13b827	0.5770287
109	0x3f6ca86a	0.9244448
110	0x3faa7a3e	1.3318555
111	0x3fa7c19a	1.3105958
112	0x3f83b583	1.0289768
113	0x3f74cb7c	0.9562299
114	0x3f830b2a	1.0237782
115	0x3f814aad	1.0100914
116	0x3f0887dc	0.53332305
117	0x3f79be01	0.9755555
118	0x3f8782c5	1.0586783
119	0x3fc71e99	1.5556213
120	0x3f7fef14	0.9997418
121	0x3f6428e2	0.8912488
122	0x3f80648c	1.0030684
123	0x3f93f960	1.1560478
124	0x3f8eed13	1.1166099
125	0x3f8e2eef	1.1108073
126	0x3f6f9849	0.93591744
127	0x3f83c130	1.0293331
128	0x3fabfb08	1.3435984
129	0x3fa2aca8	1.270894
130	0x3f90c1f7	1.1309193
131	0x3f8827d3	1.0637153
132	0x3f998bef	1.1995829
133	0x3f7337c0	0.9500694
134	0x3f5fe13a	0.87453043
135	0x3f3d8804	0.7403567
136	0x3f848b73	1.0355057
137	0x3f734439	0.95025975
138	0x3f746640	0.9546852
139	0x3f809191	1.0044423
140	0x3fc3593d	1.5261608
141	0x3f847ba5	1.0350233
142	0x3f992df2	1.1967146
143	0x3f89c778	1.0763998
144	0x3f44fc5d	0.76947576
145	0x3f9f05f2	1.2423689
146	0x3f6f5d10	0.9350138
147	0x3f72d608	0.94857836
148	0x3f79a308	0.9751439
149	0x3f90ad5f	1.1302909
150	0x3f951bab	1.1649069
151	0x3f736b00	0.95085144
152	0x3f5067a6	0.81408155
153	0x3f9ae1d1	1.2100164
154	0x3f740dde	0.9533366
155	0x3f7856a1	0.97007185
156	0x3f352097	0.70752853
157	0x3f7f0553	0.996175
158	0x3f6494ef	0.89289755
159	0x3f66c861	0.90149504
160	0x3f7c1d13	0.98481864
161	0x3f90af5c	1.1303515
162	0x3f6e9683	0.9319841
163	0x3f860aea	1.0472081
164	0x3f84db40	1.037941
165	0x3f95396b	1.1658148
166	0x3f8e5804	1.112061
167	0x3f6ab3ba	0.9168049
168	0x3f8026c1	1.0011827
169	0x3f91d193	1.1392082
170	0x3f9eeab1	1.2415372
171	0x3f9989ef	1.1995219
172	0x3f8d89d6	1.1057689
173	0x3f79a1b3	0.9751236
174	0x3f5446ac	0.82920337
175	0x3f73ee9f	0.9528598
176	0x3fa5eb4c	1.2962432
177	0x3f833644	1.0250936
178	0x3f78b26f	0.9714727
179	0x3f627804	0.8846438
180	0x3f9b6a8c	1.214189
181	0x3f34c373	0.7061073
182	0x3fab015b	1.3359789
183	0x3f81a859	1.0129501
184	0x3f4c0f71	0.7971106
185	0x3f7394be	0.9514884
186	0x3f8ca9ae	1.0989282
187	0x3fd26105	1.6435858
188	0x3fa83384	1.3140721
189	0x3f9153f6	1.1353748
190	0x3f8119f3	1.0086044
191	0x3f892279	1.0713645
192	0x3f89d97d	1.0769497
193	0x3f83535d	1.0259815
194	0x3f9324f3	1.1495651
195	0x3f8fd565	1.1236998
196	0x3f7973b9	0.97442204
197	0x3f7c97b4	0.9866898
198	0x3f96c824	1.1779828
199	0x3f966ed2	1.175257
200	0x3f53e188	0.8276601
201	0x3f653943	0.895405
202	0x3f78fe10	0.9726267
203	0x3f827ff7	1.0195302
204	0x3f5f5f2d	0.872546
205	0x3f72ae05	0.9479678
206	0x3f86511c	1.0493503
207	0x3f8392f0	1.0279217
208	0x3f6d3bd6	0.9266943
209	0x3f81581e	1.0105016
210	0x3f779127	0.9670586
211	0x3f892a47	1.0716027
212	0x3f8e9e33	1.1142029
213	0x3f938820	1.1525917
214	0x3f741996	0.9535154
215	0x3f7bf4be	0.9842032
216	0x3f944a0c	1.1585097
217	0x3f9245b1	1.1427518
218	0x3f709e57	0.9399161
219	0x3f65a2bf	0.89701456
220	0x3faf8343	1.3711933
221	0x3f434337	0.76274437
222	0x3f6de429	0.9292627
223	0x3f945a92	1.159014
224	0x3f62c383	0.8857958
225	0x3f837ab6	1.0271823
226	0x3f8f052f	1.1173457
227	0x3f6a6179	0.9155498
228	0x3f82c556	1.0216472
229	0x3f8aaebf	1.0834578
230	0x3f8bd697	1.0924863
231	0x3f8e8766	1.113507
232	0x3f998e1b	1.1996492
233	0x3f800740	1.0002213
234	0x3f8930c5	1.0718008
235	0x3f7a7ad3	0.97843665
236	0x3f8906d7	1.0705212
237	0x3f79e76e	0.9761876
238	0x3f776d80	0.9665146
239	0x3f9a3952	1.2048743
240	0x3f9bee4b	1.2182096
241	0x3f7e0a0c	0.9923408
242	0x3f6bd3ae	0.9211987
243	0x3f853e2e	1.0409601
244	0x3f70d8ef	0.94081014
245	0x3f838045	1.027352
246	0x3f815463	1.0103878
247	0x3f1e9f6e	0.6196202
248	0x3f8fc83d	1.1232983
249	0x3f88090e	1.0627763
250	0x3f863ca7	1.048726
251	0x3f7a2d86	0.97725713
252	0x3fb3e882	1.4055331
253	0x3f8b3b63	1.0877498
254	0x3f8389fe	1.0276487
255	0x3f6e29c6	0.9303249

ln1.bias f4 [256]
0	0xbc68ed1f	-0.01421669
1	0x3c330f40	0.010928929
2	0x3d1d1860	0.038353324
3	0xbc4eab0e	-0.012614025
4	0xbe09d1fc	-0.13459009
5	0xbde15d40	-0.11004114
6	0xbd8bf5a7	-0.06833964
7	0xbe6d0717	-0.23147236
8	0xba45b993	-0.00075426063
9	0xbe6c0120	-0.23047304
10	0xbd921adb	-0.071340285
11	0x3c8eab8e	0.017415788
12	0xbe2aebaa	-0.16691461
13	0xbda64e3f	-0.08120393
14	0xbe68cbb8	-0.22733963
15	0xbe0da79c	-0.13833469
16	0xbdbfefc2	-0.09371902
17	0xbe3fcf78	-0.18731487
18	0x3ddd1600	0.10795212
19	0xbdf579a2	-0.1198609
20	0xbc28d3b8	-0.010304384
21	0x3c3b7a6a	0.01144276
22	0x3d85ec4e	0.06539212
23	0xbcacc8b8	-0.021091804
24	0x3d35ee42	0.044416673
25	0x3db82e6c	0.08993229
26	0xbe37efba	-0.17962542
27	0xbdebdf57	-0.11517208
28	0x3d187b26	0.03722682
29	0xbe29c869	-0.16580357
30	0xbc9955b3	-0.018717622
31	0x3d9bfba8	0.07616359
32	0xbd8d6ef8	-0.06905931
33	0xbe7bc530	-0.2458694
34	0xbe214864	-0.15750271
35	0xbd7637a7	-0.060111668
36	0xbdb3f3a0	-0.08786702
37	0xbdff7759	-0.12473936
38	0x3cff2fda	0.031150747
39	0xbc5c52fc	-0.013447519
40	0x3c537bd0	0.012907937
41	0xbd5d046f	-0.053959306
42	0xbe702003	-0.23449712
43	0xbd2a0a34	-0.041513637
44	0xbc594323	-0.013260636
45	0xbdc1f833	-0.09471168
46	0xbeab121f	-0.33412263
47	0xbd520716	-0.05127629
48	0xbe6dffce	-0.23242113
49	0xbe46a3f8	-0.19398487
50	0xbe8b16da	-0.27165872
51	0x3d4d78c0	0.050163984
52	0xbe0740c0	-0.13208294
53	0xbc7774c5	-0.015103524
54	0xbdd1bb3e	-0.10240792
55	0xbe21bc12	-0.157944
56	0xbd07c1fd	-0.033143986
57	0xbe24a189	-0.16077246
58	0xbd88ea8b	-0.066853605
59	0xbe0ebecd	-0.13939972
60	0xbc8796e7	-0.016551448
61	0xbdda2fbb	-0.10653635
62	0xbd1f4959	-0.03888831
63	0xbd990eeb	-0.074735485
64	0x3d5598b8	0.052147597
65	0xbe7eb9a9	-0.24875511
66	0x3d1fc594	0.039006785
67	0xbd1e3d87	-0.038632896
68	0xbdddf41f	-0.10837578
69	0xbc472aac	-0.01215617
70	0xbe069c55	-0.13145573
71	0xbd5d25ac	-0.053991005
72	0xbd027323	-0.031848084
73	0xbd6b41f0	-0.05743593
74	0xbe3f58d2	-0.18686226
75	0xbcbab52d	-0.02279147
76	0xbdaf5452	-0.08561005
77	0x3c22e756	0.00994285
78	0xbec62e2f	-0.3870711
79	0xbd6d2a41	-0.057901625
80	0x3bf82fa9	0.007574041
81	0xbe865bfa	-0.26242048
82	0xbd90b095	-0.0706493
83	0xbddcea85	-0.107869186
84	0xbd715baa	-0.05892531
85	0xbe1b195a	-0.1514639
86	0xbc88fef1	-0.016723128
87	0xbdc659fb	-0.09685131
88	0xbdc297e4	-0.09501627
89	0x3b923696	0.0044620736
90	0xbdddcc0f	-0.10829937
91	0xbe870b41	-0.26375774
92	0xbcfa5d82	-0.030562166
93	0xbcf765d0	-0.030199915
94	0xbd933cb7	-0.07189315
95	0xbc90885b	-0.017643144
96	0xbe9fd0d2	-0.31214005
97	0xbe3f3ba6	-0.18675098
98	0xbe1f599b	-0.15561526
99	0xbd88f139	-0.066866346
100	0xbe1b8063	-0.15185694
101	0x3dd37545	0.10325102
102	0xbd3289da	-0.043588497
103	0xbc31f118	-0.010860704
104	0x3d8cc361	0.06873203
105	0x3d7e4397	0.062076177
106	0xbe155ea1	-0.1458688
107	0xbe1fbb4d	-0.15598793
108	0xbed60cd8	-0.41806674
109	0xbe151066	-0.14557037
110	0xbd425e30	-0.047453105
111	0xbd865a34	-0.06560174
112	0xbca9f2f5	-0.020745734
113	0x3ac3417d	0.0014896836
114	0xbe46adbb	-0.1940221
115	0xbde82ec8	-0.11337048
116	0xbee7bea6	-0.4526264
117	0xbdb6691a	-0.08906765
118	0xbd627215	-0.05528458
119	0x3d05b7ef	0.032646116
120	0xbcaf831b	-0.02142482
121	0xbde3900e	-0.111114606
122	0xbd082fd4	-0.033248737
123	0xbde82102	-0.11334421
124	0x3d21875f	0.03943574
125	0xbce5c1c8	-0.028046504
126	0xbdc1adcd	-0.09456978
127	0xbd7fce42	-0.062452562
128	0xbcd9b924	-0.02657754
129	0x3ce38dc8	0.027777568
130	0x3c4724f7	0.012154809
131	0xbd827da8	-0.06371623
132	0xbd0ba2dc	-0.03409086
133	0xbd6adffe	-0.05734252
134	0xbdfa25b6	-0.12214224
135	0xbe8ebb3c	-0.27877223
136	0xbcb29c32	-0.021802995
137	0xbe14bec2	-0.14525893
138	0xbd952950	-0.0728327
139	0xbe0a645f	-0.13514851
140	0x3c859080	0.016304255
141	0xbcd6ecde	-0.026235994
142	0xbe3608ca	-0.1777679
143	0xbce188c1	-0.02753103
144	0xbe4e5211	-0.20148493
145	0xbaf0ce94	-0.0018372112
146	0xbe8a74a9	-0.2704213
147	0xbd91e5be	-0.07123898
148	0xbda41518	-0.08011836
149	0xbdc73957	-0.097277336
150	0xbd7ab49b	-0.061207395
151	0xbdbe6bd8	-0.09297913
152	0xbe8311f7	-0.25599644
153	0xbdc77856	-0.09739749
154	0xbdb2dd68	-0.08733636
155	0xbe1f4a1a	-0.15555611
156	0xbe7b36b3	-0.24532585
157	0xbdbd5e5a	-0.09246512
158	0xbdf1ed19	-0.11812801
159	0xbde4af37	-0.11166232
160	0xbe2f08d4	-0.17093211
161	0x3b897cbb	0.0041957772
162	0xbdc3cb4f	-0.095602624
163	0xbdd49ddf	-0.10381674
164	0xbdcca856	-0.09993045
165	0x3c5fe146	0.013664549
166	0xbd371532	-0.044697948
167	0xbdefa034	-0.11700478
168	0xbdf5c8e7	-0.1200121
169	0xbd8e968a	-0.06962307
170	0xbc7ef4e3	-0.015561315
171	0xbc1f3b64	-0.00971875
172	0xbd87c842	-0.06629993
173	0xbda92b49	-0.08260209
174	0xbe1f77f7	-0.15573107
175	0xbe64991a	-0.22324029
176	0xbd740bd7	-0.059581604
177	0xbe1b1394	-0.15144187
178	0xbdb7d5a2	-0.08976294
179	0xbc51cd78	-0.012805335
180	0xbd5fd2e8	-0.054644495
181	0xbe673752	-0.22579697
182	0x3d950c3d	0.07277725
183	0xbcde9356	-0.027169865
184	0xbeb836df	-0.35979363
185	0xbd5c8051	-0.05383331
186	0x3c8d228c	0.017228387
187	0x3d62c77f	0.055366036
188	0x3cc97c8e	0.024595525
189	0x3c76a0e5	0.015053009
190	0xbd88d97e	-0.06682108
191	0xbdb734a4	-0.08945587
192	0x3c8559bf	0.016278146
193	0xbd0849ab	-0.03327338
194	0xbca774b6	-0.020441394
195	0xbd88490c	-0.066545576
196	0xbda23b72	-0.079214945
197	0xbe2ea056	-0.17053351
198	0x3ce9869f	0.028506575
199	0xbc765ab7	-0.015036277
200	0xbe3c9eca	-0.18419948
201	0xbdc613b2	-0.09671725
202	0xbe615bab	-0.22007625
203	0x3a1001b8	0.000549342
204	0xbe0d94ca	-0.1382629
205	0xbe227630	-0.15865397
206	0xbe132976	-0.14371285
207	0xbcce6034	-0.025192358
208	0xbdad6ccc	-0.08468017
209	0xbcf16e8a	-0.029471654
210	0xbd969887	-0.07353311
211	0xbc9127c3	-0.017719155
212	0xbd84d632	-0.06486167
213	0xbd32c6f3	-0.043646764
214	0xbe1b1863	-0.15146022
215	0xbdec1d91	-0.11529077
216	0x3b885422	0.00416042
217	0xbdd4368b	-0.10361966
218	0xbe3718cb	-0.17880552
219	0xbdd8cf48	-0.10586411
220	0xbdb6df96	-0.089293644
221	0xbe62368e	-0.22091123
222	0xbe2529ee	-0.16129276
223	0xbd25abcf	-0.040447053
224	0xbdd49c4c	-0.10381374
225	0xbd5ae8b7	-0.05344459
226	0x3c446eef	0.011989339
227	0xbe100543	-0.14064507
228	0xbc8e0963	-0.01733846
229	0x3ca8959e	0.020579156
230	0x3e750dba	0.23931018
231	0xbc87644b	-0.016527316
232	0xbd1bedc7	-0.03806856
233	0xbd0da5eb	-0.03458206
234	0x3d470f99	0.04859886
235	0xbdd10bb0	-0.10207307
236	0xbcc3b395	-0.023889342
237	0xbd97e3da	-0.07416506
238	0xbe41e6b6	-0.18935665
239	0xbda17fed	-0.07885728
240	0x3ce7eafb	0.02831029
241	0xbdb77865	-0.0895851
242	0xbda2523a	-0.0792584
243	0xbd3273d1	-0.043567482
244	0xbddc03c3	-0.10742905
245	0xbd83a360	-0.06427646
246	0xbc9c11a5	-0.019051382
247	0xbe949608	-0.29020715
248	0xbc992a3e	-0.0186969
249	0xbd81906f	-0.06326377
250	0xbd1fa876	-0.038979016
251	0xbd89bf4e	-0.067259416
252	0x3baceb23	0.005277054
253	0x3b2746a6	0.0025524287
254	0x3daa40a6	0.08313112
255	0xbde6b93e	-0.11265801

fc2.weight f4 [256, 256]
0	0x3db0ccfa	0.08632846
1	0x3c31fe75	0.01086389
2	0x3cbcd240	0.023049474
3	0xbd9f2005	-0.07769779
4	0x3dca3bdd	0.09874699
5	0x3d665a40	0.056238413
6	0xbc60f88d	-0.013731134
7	0xb981f3bc	-0.00024786394
8	0x3cdbb803	0.026821142
9	0xbbcc8541	-0.006241471
10	0x3d036db5	0.032087047
11	0x3dfaad83	0.12240126
12	0xbd9c7655	-0.076397575
13	0x3efb5fac	0.4909643
14	0x3e435456	0.1907514
15	0x3e8ecf7a	0.27892667
16	0x3c8d2d25	0.01723344
17	0x3d9e243f	0.07721757
18	0x3ea85b16	0.32881993
19	0xbc7ebdec	-0.015548211
20	0xbd0aac2a	-0.033855595
21	0x3e08160e	0.13289663
22	0x3d59786b	0.053093355
23	0x3e2ff42f	0.17182992
24	0xbd06bc15	-0.032894213
25	0x3e047dc4	0.12938601
26	0x3a8d0ead	0.001076182
27	0x3d338d09	0.043835673
28	0xbc02677c	-0.007959243
29	0x3dad0a72	0.08449258
30	0x3e00cac4	0.12577349
31	0x3e48c5af	0.1960666
32	0x3ea3f851	0.32025388
33	0x3d060a53	0.03272469
34	0x3cdc9ad5	0.026929298
35	0x3d12f282	0.035875805
36	0x3c6ff10b	0.0146448715
37	0x3b2f2ecf	0.002673078
38	0x3e7be931	0.24600674
39	0x3e2c5e82	0.16832927
40	0x3f25d231	0.6477385
41	0x3df8eed4	0.12154928
42	0x3dfca1c0	0.12335539
43	0x3d855111	0.06509603
44	0x3ded37af	0.115828864
45	0x3ce33b7e	0.027738329
46	0x3d0c3838	0.034233302
47	0xbd8f8adb	-0.070089065
48	0x3c143f7c	0.009048339
49	0x3d53c2a8	0.05169931
50	0x3dc3162d	0.09525714
51	0x3d0f10df	0.0349282
52	0xbd8948f3	-0.06703367
53	0x3db7f911	0.089830525
54	0x3d4e33b7	0.050342288
55	0x3dddd57e	0.10831736
56	0x3dafc89d	0.08583186
57	0xbc773be8	-0.015089966
58	0x3dcb271a	0.099195674
59	0x3d89e756	0.06733577
60	0x3e32083a	0.1738595
61	0x3d9d5cd4	0.07683721
62	0xbd106d99	-0.03526077
63	0xbd1e741b	-0.038684946
64	0x3dd864f9	0.10566134
65	0x3d8b975d	0.0681598
66	0x3e640117	0.2226604
67	0x3eb601dd	0.35548297
68	0x3d2487f4	0.040168718
69	0x3d684ba4	0.05671276
70	0x3d9538cd	0.072862245
71	0xbd80f8e9	-0.06297476
72	0x3c2761b4	0.010216165
73	0xbd6cff55	-0.05786069
74	0x3c6bd66a	0.014394382
75	0x3d970b1b	0.07375165
76	0x3d0aee51	0.033918682
77	0x3e515035	0.20440753
78	0x3c06be8c	0.008224141
79	0x3d9efcda	0.07763071
80	0x3d3a60c5	0.045502443
81	0x3d397cd1	0.04528505
82	0x3d8e96d3	0.06962361
83	0x3c10e347	0.00884325
84	0x3d5cb0c4	0.053879514
85	0x3c5b10d4	0.013370711
86	0x3d72c39b	0.059268575
87	0xbcbbfa6d	-0.02294656
88	0x3c4b2e4c	0.012401175
89	0x3e22b7c5	0.15890415
90	0xbdc8faae	-0.09813438
91	0xbd5151b6	-0.051103316
92	0xbdb358af	-0.087571494
93	0x3d739f55	0.059478123
94	0x3da3bca5	0.079949655
95	0x3da66a47	0.081257395
96	0xbdc6a9f7	-0.09700387
97	0xbd2b530b	-0.041827243
98	0xbd88242e	-0.06647526
99	0x3d943d5b	0.07238265
100	0xbd48b413	-0.048999857
101	0x3e91baf4	0.28462946
102	0x3eb414ac	0.3517202
103	0xbca273e0	-0.019830644
104	0xbd07bb26	-0.033137463
105	0xbc901c02	-0.01759148
106	0x3cb05c5e	0.02152842
107	0x3dddcd25	0.10830144
108	0x3dad8c16	0.08473985
109	0x3dd53dd2	0.10412182
110	0xbee00b8d	-0.43758813
111	0x3eb52796	0.35381764
112	0x3ce10f2c	0.027473055
113	0x3dbd28e0	0.09236312
114	0xbddbe632	-0.10737266
115	0x3e0fe8ed	0.14053698
116	0x3dcfb440	0.10141802
117	0xbd9c80fb	-0.076417886
118	0xbdd346c2	-0.1031623
119	0x3d1f0edf	0.03883254
120	0x3e10d7fe	0.14144894
121	0x3dd0688a	0.10176189
122	0x3e46f874	0.19430715
123	0x3d4c2779	0.04984233
124	0x3d8a2ed8	0.06747216
125	0xbd521190	-0.05128628
126	0x3c26f904	0.010191206
127	0x3e311b57	0.17295586
128	0x3ecdbbfc	0.40182483
129	0x3e3c06d3	0.18361978
130	0x3c33c997	0.010973356
131	0x3d84fbb9	0.06493325
132	0x3e1d4447	0.15358077
133	0x3dc00c92	0.093773976
134	0xbc943e82	-0.018096212
135	0x3d2b765c	0.041860923
136	0x3cdeed44	0.027212746
137	0x3e24bf11	0.16088511
138	0xbd934b57	-0.07192104
139	0x3df58c33	0.119896315
140	0xbd0d797c	-0.034539685
141	0x3e49e334	0.19715577
142	0x3c81c2d1	0.015839966
143	0x3e5459b4	0.20737344
144	0xbc82d821	-0.015972199
145	0x3da38437	0.07984202
146	0x3cda9e09	0.026686685
147	0x3d2db365	0.042407412
148	0x3c5260ff	0.0128405085
149	0x3d1b5526	0.037923
150	0x3e10f6b1	0.14156605
151	0x3cc10202	0.023560528
152	0x3d8a1217	0.067417316
153	0x3d804e22	0.06264903
154	0xbdefb118	-0.117037
155	0x3e070fc5	0.1318961
156	0x3e0c2a4d	0.13688011
157	0xbdbd6695	-0.092480816
158	0x3c2b9be2	0.010474177
159	0xbb0b9e1b	-0.0021303955
160	0x3d82b808	0.063827574
161	0x3e0a39f6	0.13498673
162	0xbd89f434	-0.06736031
163	0xbcce3a4c	-0.025174282
164	0xbd9e8ad4	-0.07741323
165	0x3e02dbe4	0.12779194
166	0x3d56f62b	0.052480858
167	0x3b2263ab	0.0024778645
168	0xbd444de1	-0.047925834
169	0x3e345642	0.1761103
170	0xbe44f6ca	-0.19234768
171	0x3e6a7241	0.22895147
172	0xbe068b19	-0.13138999
173	0xbd28cb7a	-0.041209675
174	0x3d0e6c6e	0.034771375
175	0x3e8ba8df	0.27277276
176	0x3ec128b6	0.37726372
177	0x3e978b45	0.29598442
178	0xbcf2d9dd	-0.029644901
179	0x3b0ff288	0.0021964628
180	0x3d7a49f3	0.06110568
181	0x3e324ab0	0.17411304
182	0x3e60e59d	0.2196259
183	0x3d894d63	0.067042135
184	0xbdbceaf3	-0.092245005
185	0xbc7faaca	-0.015604684
186	0x3dfdb52d	0.12388072
187	0x3c5ee759	0.013604962
188	0x3cc41833	0.02393732
189	0xbdb63ccb	-0.08898314
190	0x3c947663	0.018122857
191	0xbe2f79ba	-0.17136279
192	0xbd15dcec	-0.03658764
193	0x3dd2fb33	0.10301819
194	0x3ea67182	0.32508475
195	0x3c5712b2	0.013127016
196	0x3dd214c4	0.10257867
197	0x3be799dd	0.0070679025
198	0xbdb7e276	-0.08978741
199	0x3dd6bc8c	0.10485181
200	0xbcb7067c	-0.02234196
201	0xbd8c1f15	-0.06841866
202	0x3d8813e1	0.066444166
203	0x3d2f89e9	0.04285613
204	0x3c6bcec4	0.0143925585
205	0x3d8dc623	0.06922557
206	0x3d8b1995	0.06791989
207	0x3dc9a4c8	0.09845883
208	0xbd5d89b7	-0.054086413
209	0x3b298cdd	0.0025871315
210	0x3dd7025e	0.104984984
211	0x3d0fbee2	0.03509415
212	0x3e09503f	0.13409518
213	0xbd2776bd	-0.040884722
214	0xbd854f8b	-0.06509312
215	0xbbfdbf95	-0.0077437856
216	0xbd95f918	-0.073229015
217	0x3d7a1b39	0.061061118
218	0x3d5a8978	0.053353757
219	0x3d813d3f	0.0631051
220	0xbf2f626a	-0.6850954
221	0x3e67717e	0.22601888
222	0x3dc1f59b	0.09470674
223	0x3a596cb3	0.00082940905
224	0x3c9156bb	0.017741552
225	0x3d173d44	0.03692366
226	0x3dc0b7c4	0.094100505
227	0x3e6e1049	0.232484
228	0x3dd9285a	0.106033996
229	0x3ced2792	0.028949533
230	0xbc070f0a	-0.008243332
231	0x3e46b781	0.19405939
232	0x3cd741c3	0.026276475
233	0x3d7b3f36	0.06133958
234	0x3dcec250	0.10095656
235	0x3d6f79e2	0.058465846
236	0x3c9e26a6	0.019305538
237	0xbdcdeb6b	-0.10054668
238	0x3cd2de86	0.025740873
239	0x3df70a58	0.1206252
240	0x3e8f77ca	0.2802108
241	0x3ead4ce3	0.33847722
242	0x3e1f69aa	0.15567651
243	0xbdc653f4	-0.096839815
244	0x3d88a640	0.06672335
245	0xbc80e516	-0.015734237
246	0xbc9cdbbc	-0.019147746
247	0x3cd63935	0.026150325
248	0x3e20bd96	0.15697321
249	0xbd596c79	-0.053081963
250	0x3d1adb83	0.037807
251	0xbc1d5e64	-0.009605024
252	0xbcd42cf3	-0.02590034
253	0x3db0e3c2	0.08637191
254	0x3cb1e0ce	0.02171364
255	0x3e29f424	0.16597039

fc2.bias f4 [256]
0	0x3d6e9ab5	0.05825301
1	0xbc811677	-0.015757782
2	0x3c5dea9f	0.013544708
3	0xbd81727e	-0.06320666
4	0x3d447628	0.047964245
5	0x3d941dee	0.07232271
6	0x3db17121	0.08664156
7	0x3cb9f071	0.02269766
8	0xbc6104eb	-0.013734083
9	0x3d621f80	0.055205822
10	0x3ca9186c	0.020641528
11	0x3c960a1e	0.018315371
12	0x3d352ea0	0.04423392
13	0x3d1907dc	0.03736101
14	0x3dbbc2b2	0.091679946
15	0xbd1b5cc1	-0.037930254
16	0x3dad62cc	0.0846611
17	0x3d8f5337	0.06998294
18	0x3d86569f	0.065594904
19	0x3dc65f26	0.09686117
20	0x3c8bfe4e	0.017089035
21	0x3dc326bd	0.09528873
22	0x3d395885	0.045250434
23	0xbc6841d9	-0.014175856
24	0xb8f58ac9	-0.00011708361
25	0x3cad3748	0.021144524
26	0x3d8f0e76	0.0698518
27	0x3c831e8e	0.01600578
28	0xbce17077	-0.027519448
29	0x3c56f17d	0.013119099
30	0x3d709bc7	0.05874231
31	0x3d6975a9	0.056996975
32	0x3d3531d8	0.044236988
33	0x3d8de89e	0.06929134
34	0xbc8a35ef	-0.01687142
35	0x3ca6acec	0.020346127
36	0x3ccd91e9	0.02509399
37	0x3dabcdc0	0.08388853
38	0x3d7f9f9b	0.06240807
39	0xbd10b1f0	-0.035325944
40	0x3cc31354	0.023812927
41	0x3c7bdbd3	0.015372234
42	0xbce69d5f	-0.028151212
43	0xbc86e73e	-0.016467687
44	0x3cc1b871	0.023647519
45	0x3da3e22f	0.080021255
46	0x3db0cdb3	0.08632984
47	0x3bece7ee	0.0072297966
48	0x3c914046	0.017730843
49	0x3c24da57	0.010061822
50	0x3c8a3fef	0.016876189
51	0x3d03d823	0.032188546
52	0x3d0a3536	0.033742152
53	0x3cc6e610	0.024279624
54	0xbc23e9aa	-0.01000444
55	0x3d381d44	0.044949785
56	0xbc1b4ed4	-0.009479243
57	0x3d82fafe	0.06395529
58	0x3d82005d	0.063477255
59	0x3db8f206	0.09030537
60	0xbd862246	-0.06549506
61	0x3c91f836	0.017818552
62	0x3dc4b106	0.09604077
63	0xbcf6d7d5	-0.030132214
64	0x3bd91b57	0.0066255736
65	0xbcb6c83f	-0.022312282
66	0x3cd1138d	0.025522018
67	0x3cf57625	0.029963562
68	0xbb8047e8	-0.003914822
69	0x3d86827d	0.065678574
70	0x3daba78c	0.083815664
71	0x3db1cd75	0.08681766
72	0x3ca18b48	0.019719735
73	0x3d760724	0.060065404
74	0x3b9e013d	0.004821925
75	0x3d90599f	0.07048344
76	0xb9d8b0b5	-0.00041330387
77	0x3d706e8b	0.058699172
78	0x3d50c0f6	0.050965272
79	0xbd44cd6a	-0.04804746
80	0x3b10990b	0.0022063877
81	0x3dc30f6e	0.09524427
82	0x3dbe1904	0.09282115
83	0x3d1aa0b0	0.0377509
84	0xbc66e7d3	-0.014093357
85	0xbc400c39	-0.011721664
86	0xbd28bf75	-0.041198213
87	0xbd46f66b	-0.048574846
88	0xbc3088ea	-0.01077483
89	0x3c2b516b	0.010456423
90	0x3d84c127	0.064821534
91	0x3d1448c8	0.036202222
92	0xbc59489b	-0.013261939
93	0xba9fe4b0	-0.0012198891
94	0xbc698b03	-0.014254334
95	0x3cc8cef6	0.02451275
96	0x3d615b61	0.055018786
97	0xbb36804e	-0.0027847472
98	0x3ca229fb	0.019795408
99	0x3d2e844c	0.042606637
100	0x3daf964a	0.08573587
101	0x3c85b7c4	0.016322978
102	0xb982bb74	-0.00024935196
103	0x3be3a4e3	0.0069471463
104	0x3d73ab42	0.059489496
105	0xbcea12aa	-0.028573353
106	0x3daf732e	0.08566891
107	0xbd0fda96	-0.03512057
108	0xbabf6162	-0.0014601166
109	0x3d867538	0.065653265
110	0x3c17f777	0.009275309
111	0x3d8f346a	0.06992419
112	0x3dc024cc	0.093820184
113	0x3d705dfb	0.058683377
114	0xbc875f9e	-0.016525086
115	0xbce84604	-0.028353699
116	0xbd00f410	-0.031482756
117	0x3cc08836	0.02350245
118	0x3d280f5e	0.04103028
119	0x3ca85eaa	0.020552952
120	0x3d656954	0.05600865
121	0x3c8e24f4	0.017351605
122	0x3db5ee43	0.088833354
123	0xbc48cb04	-0.012255434
124	0x3d5b5eba	0.053557135
125	0x3d640698	0.05567035
126	0x3d950b74	0.07277575
127	0xbd2bf1fa	-0.041978814
128	0xbcafff7d	-0.021484131
129	0x3d26a83b	0.04068778
130	0x3d93d448	0.07218224
131	0x3d962a0c	0.073322386
132	0x3d277e21	0.04089177
133	0x3d851679	0.06498427
134	0x3ca628f9	0.02028321
135	0x3d5df13d	0.05418514
136	0xbc2a37bb	-0.010389264
137	0xbd147af3	-0.036250066
138	0x3d68d8e7	0.05684748
139	0x3d12abf5	0.035808522
140	0x3d510de2	0.05103863
141	0xbc6325ec	-0.013864022
142	0x3ba499b4	0.0050232057
143	0x3d2551ff	0.0403614
144	0x3d2a2698	0.041540712
145	0x3d0f01c2	0.034913786
146	0x3bef9ecd	0.0073126317
147	0x3d72cd3f	0.05927777
148	0x3cad2ac8	0.021138564
149	0x3c424181	0.011856438
150	0x3d003623	0.03130163
151	0x3d8b262b	0.06794389
152	0x3d3fbe57	0.04681238
153	0x3d1b610d	0.03793435
154	0x3d7b8fca	0.061416425
155	0x3d4c489f	0.049873944
156	0xbcff6556	-0.03117625
157	0x3d9c1c54	0.07622591
158	0x3cdb9716	0.026805442
159	0x3d476b89	0.048686538
160	0x3c77464b	0.015092443
161	0xbc256fe5	-0.0100974785
162	0xbd2a19f5	-0.04152866
163	0x3be927eb	0.0071153543
164	0x3d5a1ffa	0.05325315
165	0xbd1e7938	-0.038689822
166	0x3cb72cc8	0.02236022
167	0x3db45ad4	0.088063866
168	0xbc0ab00d	-0.008464825
169	0x3d85871d	0.065199114
170	0x3d01c840	0.031685114
171	0x3d84071d	0.06446669
172	0xbcce0146	-0.025147092
173	0x3d5905de	0.05298411
174	0x3d88e58d	0.06684408
175	0xbb982283	-0.004642786
176	0x3c8fa06a	0.017532546
177	0x3d50c757	0.050971355
178	0xbbeec2ac	-0.0072863903
179	0x3c91106a	0.017708022
180	0x3cddd1da	0.027077604
181	0x3d8263f4	0.06366721
182	0x3c487ece	0.012237264
183	0x3c2f68bc	0.010706123
184	0x3d35b64b	0.0443633
185	0x3cb711c9	0.022347348
186	0x3d359e73	0.044340562
187	0x3a022db9	0.00049659197
188	0x3d9f5501	0.07779885
189	0x3d2f7aa9	0.042841587
190	0x3d7dda55	0.061975796
191	0x3d0cb611	0.03435332
192	0x3cde8b8b	0.027166149
193	0x3d458fc2	0.0482328
194	0x3c517ca4	0.012786064
195	0x3d33dd70	0.04391235
196	0x3d2bd203	0.04194833
197	0x3d8298bf	0.0637679
198	0x3dad3f59	0.08459348
199	0x3d69738a	0.056994952
200	0x3cae7c77	0.021299584
201	0x3d2a81f4	0.04162784
202	0xbd0f1271	-0.034929696
203	0x3bd62591	0.00653524
204	0xbcc92b64	-0.024556823
205	0x3db2d761	0.087324865
206	0x3d8ccfd4	0.068755776
207	0xbca69496	-0.020334523
208	0x3da94f33	0.08267059
209	0x39dcb1bb	0.0004209409
210	0x3dab2089	0.08355815
211	0x3cb9700e	0.02263644
212	0x3d0637e1	0.032768134
213	0x3d882ce4	0.06649187
214	0x3d1e2f54	0.038619354
215	0xbc4567c2	-0.012048664
216	0x3d70c085	0.05877735
217	0x3d80fe48	0.062985
218	0x3d492d98	0.049115747
219	0x3b8154cb	0.0039468757
220	0xbc14344e	-0.0090456735
221	0x3cd29490	0.025705606
222	0x3c4a2a36	0.012339165
223	0x3d4e43ef	0.050357755
224	0x3ca2b44f	0.019861368
225	0xbcde96a2	-0.027171437
226	0x3d80a8a5	0.062821664
227	0x3d1af74b	0.037833493
228	0x3cbde8f3	0.023182368
229	0xbc6e7a53	-0.014555532
230	0x3d7cc78b	0.061713737
231	0x3d8f1e35	0.069881834
232	0x3d393779	0.04521892
233	0x3d8f3e3d	0.06994293
234	0x3b0eeb16	0.0021807603
235	0x3ca6c1fc	0.02035617
236	0x3d788bd4	0.060680225
237	0xbcd26274	-0.025681712
238	0x3c313253	0.010815221
239	0xbcb4d22e	-0.022072878
240	0x3d92692d	0.07148967
241	0xbc3e9d1c	-0.0116341375
242	0x3cd1dbd0	0.02561751
243	0xbd56b797	-0.05242118
244	0xbb20f27d	-0.0024558597
245	0x3cce8a7e	0.025212523
246	0x3ca05eb5	0.01957641
247	0xbbf41dd2	-0.007449844
248	0xbcafbdf3	-0.02145288
249	0xbb409841	-0.0029387625
250	0x3d01f23f	0.031725165
251	0x3d9dbf53	0.07702508
252	0xbcc49c10	-0.024000198
253	0x3c92570b	0.017863771
254	0xbd0e4420	-0.034732938
255	0x3d07f51b	0.033192735

ln2.weight f4 [256]
0	0x3f67c6c1	0.9053765
1	0x3f79f366	0.9763702
2	0x3f9a679b	1.2062868
3	0x3fbcc818	1.4748564
4	0x3fc9c347	1.5762719
5	0x3f857058	1.042491
6	0x3f9456f6	1.1589038
7	0x3f2ee286	0.683144
8	0x3f5958a9	0.8490091
9	0x3fa4423c	1.2832713
10	0x3fac598d	1.3464829
11	0x3f871fb0	1.0556545
12	0x3f93368c	1.1501021
13	0x3f9fc86a	1.2483037
14	0x3f879238	1.0591497
15	0x3fe7368a	1.8063519
16	0x3f76379c	0.96178603
17	0x3f9c9201	1.2232057
18	0x3f7b4cf2	0.98164284
19	0x3f2e8a8c	0.68180156
20	0x3f686e48	0.90793276
21	0x3f6efcf9	0.93354756
22	0x3f84a3a8	1.0362444
23	0x3fc82904	1.5637517
24	0x3f827ace	1.0193727
25	0x3f9d401a	1.2285187
26	0x3f70b9ee	0.94033706
27	0x3febc241	1.8418657
28	0x3fadac44	1.3568196
29	0x3fd2bba0	1.6463509
30	0x3f7759bb	0.9662129
31	0x3f6b5bed	0.9193714
32	0x3f84c49b	1.0372499
33	0x3f88f9e1	1.0701257
34	0x3f884f60	1.0649223
35	0x3f921f63	1.1415828
36	0x3f9aac3b	1.208381
37	0x3fa8a83a	1.3176339
38	0x3f7da2db	0.9907662
39	0x3fa64102	1.2988589
40	0x402f70df	2.741264
41	0x3fb00bd3	1.3753608
42	0x3fff0385	1.9922949
43	0x3f957d9c	1.1678958
44	0x3f989de3	1.1923183
45	0x3fa18947	1.2620019
46	0x3f85d2bf	1.045494
47	0x3f928a25	1.1448408
48	0x3f9e7e94	1.2382379
49	0x3fc9c9c2	1.5764697
50	0x3fac587d	1.3464504
51	0x3f848ed4	1.0356088
52	0x3f965823	1.1745647
53	0x402948d3	2.6450698
54	0x3f644a6d	0.89176065
55	0x3f6c9bdb	0.92425317
56	0x3f8b54a2	1.0885203
57	0x3f9d537f	1.2291106
58	0x3ff77a54	1.9334207
59	0x4005a031	2.0879023
60	0x3fd843ac	1.6895652
61	0x3f8e3232	1.1109068
62	0x3f51cb44	0.81950784
63	0x3f8b1927	1.0867051
64	0x3f739ae0	0.95158195
65	0x3fc0dbe2	1.5067103
66	0x3f6fb726	0.9363884
67	0x3fb14c67	1.3851441
68	0x3f8f6d93	1.1205314
69	0x3f99f832	1.2028868
70	0x3fb72c09	1.4310313
71	0x3f8ada14	1.0847802
72	0x3faf4179	1.3691856
73	0x3fd87792	1.691149
74	0x3fdae174	1.7100053
75	0x3fae5f73	1.3622879
76	0x3f6954bf	0.9114494
77	0x3f9445c0	1.1583786
78	0x3fd581f4	1.6680284
79	0x3f8be190	1.0928211
80	0x3f57668a	0.8414084
81	0x3f6cfedd	0.9257639
82	0x40073098	2.112341
83	0x3f56a53b	0.8384587
84	0x3fbbb9c1	1.4666063
85	0x3f9fea2d	1.249334
86	0x3f9c9f79	1.2236167
87	0x3fac3c0b	1.3455824
88	0x3f783185	0.9695056
89	0x3fa4eec4	1.2885365
90	0x3f982cd9	1.1888686
91	0x4011065e	2.2660136
92	0x3f942476	1.1573627
93	0x3fcedb3d	1.6160656
94	0x3faef582	1.3668673
95	0x3f88c085	1.0683752
96	0x3fd76610	1.6828022
97	0x3f98b82e	1.1931207
98	0x3fc5ac88	1.5443277
99	0x3f85fa6b	1.0467046
100	0x3f702e59	0.9382072
101	0x4008532f	2.1300771
102	0x3fc6542f	1.5494441
103	0x3ff1a242	1.8877642
104	0x3f9bdb69	1.2176334
105	0x40437099	3.0537474
106	0x3fa00b54	1.2503457
107	0x3f9d1778	1.2272787
108	0x3f82b3e2	1.0211146
109	0x3f9a9e81	1.2079622
110	0x3f9a5b5d	1.2059132
111	0x3f9ae498	1.2101011
112	0x3f8f4b29	1.1194812
113	0x3f76a89a	0.96351016
114	0x3f044616	0.5166944
115	0x402dc689	2.7152426
116	0x3faabf2a	1.3339589
117	0x3f886bd8	1.0657911
118	0x3fe1e193	1.7646965
119	0x3f75de4f	0.9604234
120	0x3fa2d2db	1.2720598
121	0x3f6783d6	0.9043554
122	0x3f65436e	0.89556015
123	0x3fa3940d	1.2779557
124	0x3f9cf240	1.2261429
125	0x3f6849cc	0.90737605
126	0x3f7788bd	0.9669302
127	0x3fe7e136	1.8115604
128	0x3fd68830	1.6760311
129	0x3f7e89ae	0.9942883
130	0x3f658cfd	0.89668256
131	0x3f8cde3b	1.1005319
132	0x400c2a52	2.190083
133	0x3f88be50	1.0683079
134	0x3f937db5	1.1522738
135	0x3f775c36	0.9662508
136	0x3fa7e34e	1.3116243
137	0x3f912fd4	1.1342721
138	0x3feacde0	1.8344078
139	0x3f9c8558	1.2228193
140	0x3f9469b5	1.1594759
141	0x3fbef3a6	1.4918106
142	0x3f989e42	1.1923296
143	0x3f7295c2	0.9475976
144	0x3f9132c2	1.1343615
145	0x3f98526b	1.1900152
146	0x3f7416be	0.953472
147	0x3fcec5f3	1.6154159
148	0x3f9f7b83	1.2459568
149	0x3f8904d5	1.07046
150	0x3fbfd612	1.4987204
151	0x3f93f482	1.1558993
152	0x3fa168b7	1.2610081
153	0x402d2961	2.7056506
154	0x3fe17e45	1.7616659
155	0x3fa49515	1.2857996
156	0x400b2534	2.1741457
157	0x3f6d64d3	0.9273197
158	0x3f8a80c1	1.0820543
159	0x3f93518a	1.1509259
160	0x3fa44b9b	1.2835573
161	0x3f834a20	1.0256996
162	0x3f9b5abc	1.2137065
163	0x3fba2cf9	1.4544975
164	0x3f65e841	0.89807516
165	0x3f904a80	1.1272736
166	0x3f90653c	1.1280894
167	0x3f8c48fa	1.0959771
168	0x3fb27043	1.394051
169	0x3f85c259	1.0449935
170	0x3f7b130d	0.98075944
171	0x3ff02b93	1.8763298
172	0x3f92e128	1.1474962
173	0x3fc8b646	1.5680625
174	0x3f82a708	1.0207224
175	0x3f6fa0fa	0.93605006
176	0x3fa48dc8	1.2855768
177	0x3f8a8f9f	1.082508
178	0x4005bf34	2.089795
179	0x3f97ee34	1.1869569
180	0x3fe599a6	1.7937515
181	0x3fce12bd	1.6099468
182	0x4008b027	2.1357515
183	0x3f6300d2	0.88673127
184	0x3f68bdd1	0.90914637
185	0x3f88332f	1.064062
186	0x3f8a9f44	1.0829854
187	0x3f91e3a7	1.1397599
188	0x3f86aa49	1.0520717
189	0x4009039b	2.140845
190	0x3ff9120a	1.945863
191	0x3f842d57	1.0326337
192	0x3fcb6903	1.5891422
193	0x4038438b	2.8791225
194	0x3fa52a04	1.2903447
195	0x3fba8a11	1.4573385
196	0x3f93881a	1.152591
197	0x3fa8dd78	1.3192587
198	0x3fb906de	1.4455221
199	0x3fa8cb7b	1.3187097
200	0x3fccb2b3	1.5992035
201	0x3f3f4ee2	0.7472974
202	0x3f86bb11	1.0525838
203	0x3faca46e	1.348768
204	0x3fa7d81b	1.3112825
205	0x3f7fdbe9	0.9994493
206	0x3fb43012	1.407717
207	0x3fc3b1b7	1.5288609
208	0x3f88ecba	1.0697243
209	0x3f9032f0	1.1265545
210	0x3f8ea1b7	1.1143101
211	0x3f6e8c50	0.9318285
212	0x3f86a906	1.0520332
213	0x3ff6a2d8	1.9268446
214	0x3fddbd91	1.7323476
215	0x3fa33645	1.2750937
216	0x3f9a505b	1.2055773
217	0x3f926307	1.1436471
218	0x3f9077a0	1.1286507
219	0x3f93c889	1.1545573
220	0x3f923b72	1.1424391
221	0x3fcc2d46	1.5951316
222	0x3fb8e243	1.444405
223	0x3fa31b81	1.2742769
224	0x401293f2	2.2902799
225	0x3f889f0d	1.0673538
226	0x3f54c90e	0.83119285
227	0x3fa180e7	1.2617463
228	0x3f3e676d	0.74376565
229	0x3fb64210	1.4238911
230	0x3ff7d57a	1.9362023
231	0x3f86f465	1.0543333
232	0x3f977985	1.183396
233	0x3f868f51	1.0512487
234	0x3f862df3	1.0482773
235	0x4009a0d0	2.1504402
236	0x3fb53979	1.4158164
237	0x3fa1e8a0	1.2649117
238	0x3f6b7442	0.9197427
239	0x3f9b6461	1.2140008
240	0x3fd32a32	1.6497252
241	0x3fe79b08	1.8094187
242	0x3fc8b00d	1.5678726
243	0x3f8db61f	1.1071204
244	0x3f943766	1.1579406
245	0x3f101f6a	0.56297934
246	0x40120ec4	2.2821512
247	0x3fb54414	1.4161401
248	0x3fb464f3	1.4093307
249	0x3f7463b6	0.95464647
250	0x3f982c5e	1.188854
251	0x3f73abbc	0.9518392
252	0x3f7fee60	0.99973106
253	0x3f6345d4	0.88778424
254	0x3f9c31f3	1.2202743
255	0x3f68c86b	0.90930814
