DDPG/models/reward_s0.05_a9e-2_t(-2_0.1).pth (torch, 280897 bytes, 11 tensors)

ln0.weight f4 [8]
00000000: dda7 8b3f 73ec 603f fecd 8d3f 24ed 783f
00000010: f972 0e3f 5a61 193f 92d0 8a3f 166f 7f3f
1.0910603 0.8786079 1.1078489 0.9723685 0.55644184 0.5991417 1.0844901 0.9977888

ln0.bias f4 [8]
00000000: e356 413d 219f 173e e32b 853c 3a75 203e
00000010: 90e4 96be 379e 22be 1425 453c 4a69 8b3d
0.047202002 0.14806797 0.016256278 0.15669718 -0.29471254 -0.15880667 0.012032766 0.06807192

fc1.weight f4 [256, 8]
00000000: 14e3 3abe a18a 07bd 84f2 ce3c 8bf3 d33d
00000010: 12df b13d 99b3 2e3d e72d 613c 605a 01be
00000020: 318f 96bc 4364 cc3c 5fbd 63bd d5ad 213e
00000030: b4ae 183d 8150 c23c 417d 47bd d76e 83bd
00000040: 3209 d2bd 11a6 08bd 6ee4 2bbe ddcb dfbd
00000050: 1efc a7bb e6c9 9d3d 85d5 0d3d fc7b bcbd
00000060: a371 caba 3e06 7a3d f0b2 bebd 93df ea3a
00000070: dd2d e039 686e abbc 406c 223e ee0c 25bb
00000080: ea98 d9bd 6d13 203d 712d f93d 17bc 903d
00000090: 6138 cfbc 4c57 cf3c 6679 72bc 4212 ecbd
000000a0: 3bb2 abbb a2ac 95bc 96d7 f83d 98ba 2cbc
000000b0: 1074 c23c 8254 ba39 ab11 09be c09e 893b
000000c0: 2aa3 3b3d aed6 403d d150 cabd aaa2 47bd
000000d0: 51fa 79ba 759c 19bd e38e e63d 9bdc 0d3d
000000e0: b726 ee3d 5324 7b3c 4a73 76bc 9e88 e13d
000000f0: 41d3 d53b 32e0 84bd 3092 80bd 9008 a33d
00000100: e549 f9bd a3ec bcbd 413c 3ebd 8dbc b8bd
00000110: aadc 2a3d 7ac1 163d 2042 8b3d b8d1 6cbd
00000120: 9633 813d 3d0b f0bc 2111 23be ef60 e23c
00000130: 509b 033c 0538 633c 6aa5 703d e622 1f3d
00000140: 0aa7 113e c5dd 273b 4436 29be fba8 7ebd
00000150: 4d6b 583c f28a 17bc 21a3 fcbd b602 8b3d
00000160: 7d1d b0bd 7621 9bbd 7733 ca3d eed1 c6bd
00000170: e2fa ad3b f946 c23d 02a4 8c3c f61c 56be
00000180: 9d67 ae3c eec3 ac3d 083c e2ba dbf6 bebd
00000190: a60b 2a3c 37fb f43c d0f5 033e eb74 24bd
000001a0: cad9 26be b1e0 683d 5d4b 043e 956a 823c
000001b0: 7286 0a3c 963b 023d 642d 06bd a604 72bd
000001c0: fc93 2f3e 5bb1 85bd ac3e f6bd b6fb b3bd
000001d0: e6c6 b03b 4dd4 083d 109f ffbd 74a5 2fbd
000001e0: 22c4 a0bd 35d1 95bd d035 0dbc 68ea 56be
000001f0: 46f5 f73d ea4d 3b3d 05e4 dcbd 87c5 3dbb
00000200: a352 853d 9a47 173c 43d9 d9bd be35 463d
00000210: c37b fb3b 061b b13c 8cdd 1e3e 0a7f 753a
00000220: 391d 80bd f600 9a3d 7eb3 333d 1470 f3bd
00000230: b03e 12bc 29db d9bb 09e1 12bd c742 9f3c
00000240: fb2f 41bd 2054 9ebd fe1b b83c 84a7 f7bc
00000250: 6102 4e3d 788c f13d 8bcb 45be d147 f7bd
00000260: ccf6 e33c 438c af3d 0787 60bd 256c 203d
00000270: e5df f13c 2e0e 113d 576f 4d3d a576 28be
00000280: 60bf 71bd ea00 5e3c af62 e8bd 8147 a43a
00000290: 549c a53c b830 193d 5607 ea3d 19d4 09bd
000002a0: 2d4a 98bc 8e90 9cbd 3156 01bc 4df7 f13c
000002b0: fa92 f03c 7513 2dbc 2ca6 1dbe e182 9d3d
000002c0: 4241 ddbd 1dc1 11be aca8 45be 4970 cbbd
000002d0: e256 893a 6b46 013e ce4e 4bbc 9349 d63a
000002e0: 73fc b3bd c555 953d e10c 2f3e be8a 6cbd
000002f0: 9a9a 22bd 2f98 2ebc ba01 5ebd d647 c5bd
00000300: c81e 19be 4f06 5abd 870d 03bc 8952 19bd
00000310: ce11 533d bdcd e33d cad1 d0bc 9251 273e
00000320: 3dc7 c5bd 5082 c0bd 04fe ae3c f8cf 2ebd
00000330: 389f babc 1cdb e43b 98b1 3ebe 9321 213c
00000340: ffe0 9d3d e239 fa3d b203 3abc deb8 3e3c
00000350: 6b86 613c 7efa 08bc c986 28bd 2609 14bd
00000360: 64e3 c23d 74f9 2d3d 9033 dfbd 1de2 19be
00000370: abb2 a93c a6da 103c d314 a03a de68 873d
00000380: c5f9 c6bd baad 5dbd 1f0c c8bd 0baf 8b3d
00000390: 927f 763d a3a0 303d 480d e5bb b672 18be
000003a0: 37d7 22bd f39a 853d b22f 283e cf1b 803d
000003b0: 16af 883a 2792 30bb b0c4 4dbd c9ab c6bc
000003c0: 1605 abbd 9dbe 24bc 5930 183d 797f 0e3c
000003d0: d9cc 97ba ab7b d73c 2773 28be 7bbe 0b3d
000003e0: b954 ccbd f147 85bc 1d53 bf3d cfb8 67bd
000003f0: 7e5e 0a3d 5385 3d3d 0c54 04be 7522 8a3c
-0.18250686 -0.03309119 0.025262125 0.103491865 0.086851254 0.042651746 0.013743854 -0.12632132
-0.018378826 0.024950152 -0.05560052 0.15788968 0.037275985 0.023720028 -0.048703436 -0.064176254
-0.1025566 -0.0333615 -0.16786358 -0.10927556 -0.0051264903 0.07704525 0.034627456 -0.09203336
-0.0015445243 0.06104111 -0.09311473 0.0017919414 0.0004275878 -0.02092667 0.15861607 -0.0025184709
-0.10624869 0.039081026 0.121668704 0.07067125 -0.025295438 0.025310181 -0.014799451 -0.1152692
-0.0052397526 -0.018270794 0.12150495 -0.010542534 0.023736984 0.00035539648 -0.13385646 0.0041998327
0.045809902 0.047079735 -0.09878696 -0.048739113 -0.0009535896 -0.037502725 0.11257722 0.034634214
0.11628478 0.015328485 -0.0150421355 0.11012386 0.0065254276 -0.06488074 -0.06277883 0.079606175
-0.121722974 -0.09224822 -0.04644418 -0.09020338 0.041714348 0.036805607 0.06799722 -0.05781719
0.06308667 -0.029302234 -0.15924503 0.027634112 0.008032635 0.013868337 0.0587515 0.03885164
0.14223877 0.0025614363 -0.16524607 -0.06217287 0.013209176 -0.009249436 -0.12335802 0.067876264
-0.085993744 -0.075747415 0.098730974 -0.0970801 0.0053094486 0.09486193 0.017168049 -0.20909485
0.021289641 0.08435808 -0.0017260322 -0.09324428 0.010378754 0.029904945 0.12886739 -0.040150564
-0.16294017 0.056854907 0.12919374 0.015919963 0.008454906 0.031795107 -0.03275813 -0.059086464
0.17146295 -0.065279685 -0.120236725 -0.087882444 0.0053948043 0.03340559 -0.12481511 -0.042882398
-0.07849909 -0.07315294 -0.008618787 -0.20987856 0.12107329 0.0457286 -0.10785679 -0.0028956847
0.06509902 0.00923338 -0.106371425 0.048391096 0.0076746657 0.021619331 0.15514201 0.00093649386
-0.06255574 0.075197145 0.04387235 -0.118866116 -0.008926079 -0.0066484404 -0.03585914 0.019441022
-0.0471649 -0.07730889 0.022474285 -0.030231245 0.050295237 0.117943704 -0.19315927 -0.12074245
0.027827643 0.08571675 -0.054816272 0.039165635 0.029525707 0.035413913 0.05015501 -0.1645151
-0.0590204 0.013550023 -0.113469474 0.0012533517 0.020216145 0.037399977 0.114271805 -0.033649538
-0.018590057 -0.07644759 -0.007894085 0.029536868 0.029366959 -0.010563721 -0.15395421 0.07690979
-0.108034626 -0.14233823 -0.19302624 -0.09933526 0.0010478164 0.12624519 -0.012408925 0.0016348831
-0.08788385 0.0729175 0.17094757 -0.057749502 -0.03969822 -0.010656401 -0.054200865 -0.09632842
-0.14953148 -0.053228673 -0.007998831 -0.037432227 0.05153065 0.11123226 -0.02549066 0.1633971
-0.09657142 -0.09399855 0.021361358 -0.042678803 -0.022781 0.0069841277 -0.18622434 0.009834665
0.0770893 0.122180715 -0.01135342 0.011640755 0.013764958 -0.008360503 -0.041144166 -0.036141537
0.095160276 0.042474225 -0.10898507 -0.15027662 0.020715078 0.008841192 0.0012213237 0.06611799
-0.097156085 -0.054120757 -0.09767937 0.06820496 0.060180254 0.043121945 -0.0069901086 -0.14887509
-0.039756026 0.06523695 0.16424444 0.06255304 0.0010428156 -0.0026942582 -0.050236404 -0.024251835
-0.083505794 -0.010055211 0.037155483 0.008697384 -0.0011581435 0.026304087 -0.16450177 0.034117203
-0.09977097 -0.016269656 0.093420245 -0.05657273 0.03378152 0.046269726 -0.12922686 0.016862134

fc1.bias f4 [256]
00000000: b2f6 81bd 8018 3f3b 76b9 24be ef8f 683e
00000010: a7b8 0c3e 045f ce3d cd90 6e3e 4489 8e3e
00000020: b8f5 65bd b9ff cd3d 824c c83c fd7b b6bd
00000030: 506c 503e cfa2 dd3d 2035 7bbd af5c 60be
00000040: 002e 523e 0cb9 ef3d 900b 64be adf1 893d
00000050: 6d06 6b3d ceeb cdbc 44be 85be 4233 353e
00000060: 07b7 cabd 08da 69bd 08f7 5b3e 6f99 d53d
00000070: 7935 20be 1346 743e 4dda 933b 71f9 c8bc
00000080: 080f 3abe 060c 68be e3b2 ee3d 0818 e13d
00000090: 23d0 2bbe 0364 abbb 80e6 04bd fc58 a23d
000000a0: 502f 293d cad3 5c3e bfdf 823e c6c7 27bd
000000b0: 0ad1 a43d 5e82 b93d e32b 6a3e 12e2 033e
000000c0: aed6 46be 844d 7a3e af85 e13d 5711 11be
000000d0: 363f 3a3d 9673 6bbe bc63 82be dbb9 90bc
000000e0: 3445 103e 4444 6e3e 240b f43d 6bcb 543e
000000f0: e649 50bd 1ac9 893e c657 453e cb77 183e
00000100: 63ad 593b 61c5 5d3e b88c 963c bfd8 133d
00000110: a818 0dbe d3c0 acbd df9d 60be 2185 3f3e
00000120: 4886 203d 93ec 103e ec0d 5f3e ab5b adbd
00000130: c45c 0ebe 7d90 e73d 04e9 423e 8602 cf3d
00000140: a04b 67be ddd0 493e b831 0d3e e925 703e
00000150: 0003 35be a0b2 1c3e c44c 2bbc d023 823e
00000160: 856b 473e 3de7 00be 9fdf 333d 9f7a 823e
00000170: fc1d 73be c2ba 983c 6b95 70be 6842 403e
00000180: eaaa 853e 9c49 5c3e 8913 45bd 71d9 7d3e
00000190: 01fb 0e3e 4142 67be 5ff9 493d ce07 173e
000001a0: 938f 023c 6372 0abe 3e21 573e 279c 42be
000001b0: 4620 993e c4f9 3a3d 756f ee3d 062f 19be
000001c0: 9308 87bd e363 4abe 57fb 723b cdbe 64be
000001d0: 9f4c 2a3e d762 5a3e 8027 213d df9e 1ebd
000001e0: bc4f 6dbe f184 fc3c d227 62be 1c6b 46be
000001f0: 3260 e0bd 5901 3f3e 19bf 623e ed22 5f3e
00000200: 15be 0c3d 2aad 7e3a c877 28be ad18 9b3d
00000210: f323 25be f536 473e 165a f23d 60f5 673e
00000220: cb9a ac3d 0766 933e c9b1 7c3d 0fe4 6f3e
00000230: 8aab 1cbd b02e c23d 38e2 03be 2629 17bc
00000240: 0bf2 8b3e 87e6 95bd be19 7abe 71f6 413e
00000250: 60fb 553e 63c0 e1bd 7b06 a1bd 5e3f 673e
00000260: 3bf0 b63d 42ae 283c d520 8f3e 3a2a f2bd
00000270: 794f 44be 038b f13d b752 883e 2f11 673e
00000280: e966 423e 0642 6cbe 22fd 723e 0539 c13d
00000290: 3b86 1fbe c0f8 eebd 426b aabc 528c 7e3e
000002a0: 388b df3d f58c 163a bc09 e13d 8325 73be
000002b0: 740f 04bd ec7a 013e 1e16 923e 1998 1b3e
000002c0: d063 babb f2a4 2bbc babc 233e adb9 183d
000002d0: aa87 313e 094f 0c3e fbf2 c7bd f7db 83bd
000002e0: 96ee b13d 7680 dc3d 17cc 13bb b127 92bd
000002f0: c3f8 bdbd f5c1 32be 6585 11be 3ad4 0ebe
00000300: b607 6b3c 381f c43d f1bc 6c3d 3bb0 b2bd
00000310: 5e24 833e f01e 883d e73d 8f3d 6ea9 873d
00000320: 1b40 5c3e fa42 7c3e 4047 233d c3b6 d8bd
00000330: 0582 043d 01d1 54be 62fd e2bd 1fcd d1bd
00000340: 26ca 0d3e 80e0 4cbe 65d3 8f3d 99a0 e03d
00000350: a0f2 bcbd 7078 88be 53d9 68be cbd5 74be
00000360: 346d 4abd 8e06 66be 8106 22be e6e3 573e
00000370: 7d48 b73d d372 17be 4ccf dbbd bd05 43be
00000380: dc3c 303e deb8 42be c40b 74bd 41a6 4f3c
00000390: 3c04 0fbd 5ffe 64be 4554 b9bd 6d13 50bc
000003a0: 17ff 963d ed48 303e 9888 4bbb 6fa1 a03d
000003b0: 3040 23be b413 073e 0c1c 5ebd dcf2 ec3d
000003c0: cb27 8d3d 5dea 0fbe 66e7 76be 0cb6 463d
000003d0: 5442 993c cd0f 2abe f44b 253d e1a3 933e
000003e0: bb2d 213e c3bf 103c eef6 2c3e 87ff 72be
000003f0: 0252 17be 7a08 4c3b a755 04be 1c09 1ebe
-0.063458815 0.002915889 -0.16086373 0.22711156 0.13742314 0.100767165 0.23297425 0.278391
-0.05614254 0.10058541 0.024450544 -0.08910368 0.20353818 0.10822069 -0.06132996 -0.21910356
0.2052536 0.11705217 -0.22270036 0.06735549 0.057379175 -0.025136854 -0.26121724 0.17695335
-0.09898191 -0.057092696 0.21480954 0.10429656 -0.15645398 0.23854856 0.0045121075 -0.024533005
-0.18169796 -0.22660837 0.11655214 0.10990912 -0.16778617 -0.005230428 -0.032446384 0.07927129
0.041304886 0.21565166 0.2556133 -0.040962003 0.080476835 0.09058069 0.22868304 0.12879208
-0.19417831 0.24443632 0.11011826 -0.14166771 0.04547044 -0.22993311 -0.25466716 -0.017666748
0.14088899 0.23268229 0.119161874 0.20780723 -0.050851725 0.2691124 0.19271764 0.14889447
0.0033214919 0.21657325 0.018377647 0.036095377 -0.13778937 -0.08435216 -0.21935223 0.18703128
0.03919056 0.14152746 0.21782655 -0.0846475 -0.13902575 0.11306856 0.19034201 0.10107903
-0.22587442 0.19708581 0.13788497 0.23451962 -0.17676926 0.15302515 -0.010455314 0.25417948
0.19474609 -0.1258821 0.043914434 0.25484177 -0.23741907 0.01864374 -0.23494498 0.18775332
0.2610696 0.21512455 -0.048114333 0.24789979 0.13962938 -0.22583868 0.049310084 0.14749071
0.007968801 -0.13520198 0.21008775 -0.1900488 0.29907435 0.04564835 0.116423525 -0.14959344
-0.06593432 -0.19764666 0.003707608 -0.2233841 0.16630791 0.21326767 0.03934431 -0.03872573
-0.23174948 0.03082511 -0.22085503 -0.19376796 -0.10955848 0.18652858 0.2214321 0.21790667
0.034360964 0.00097151345 -0.16451943 0.07573066 -0.16126995 0.19454558 0.11833589 0.22652197
0.08427962 0.28788778 0.061692987 0.23426841 -0.03824953 0.09481561 -0.12879264 -0.009226119
0.27333102 -0.0731936 -0.24423882 0.18941666 0.20896673 -0.11023023 -0.07862564 0.22582766
0.08932539 0.010295453 0.27954736 -0.1182446 -0.19170941 0.117940925 0.26625606 0.22565149
0.1898457 -0.23072061 0.23729375 0.09434704 -0.15578549 -0.11668539 -0.020803098 0.24858215
0.10915226 0.000574305 0.10988185 -0.23744778 -0.0322413 0.12644547 0.285325 0.1519474
-0.005688168 -0.010476338 0.15989962 0.03728645 0.17336908 0.13702025 -0.09763142 -0.06438439
0.08688085 0.107666895 -0.0022552067 -0.07136477 -0.09275963 -0.17456801 -0.14211042 -0.13948146
0.0143451 0.09576267 0.057797376 -0.087250195 0.25613683 0.06646526 0.06994229 0.06624113
0.2150883 0.24634925 0.03986287 -0.10581734 0.03235056 -0.20782854 -0.11083485 -0.10244202
0.13846645 -0.20007515 0.07022742 0.109681316 -0.092259645 -0.26654387 -0.22739153 -0.2390968
-0.04942055 -0.22463438 -0.15822794 0.2108303 0.08949373 -0.14789896 -0.10732898 -0.19045158
0.17210716 -0.19015834 -0.059581533 0.012673915 -0.034916148 -0.2236266 -0.09049276 -0.012699944
0.07372873 0.17215319 -0.0031056758 0.07843291 -0.15942454 0.1319111 -0.054225966 0.11569759
0.068923555 -0.14054246 -0.24111709 0.048513457 0.018708386 -0.1660759 0.040355638 0.28835967
0.15740101 0.008834782 0.16891071 -0.23730288 -0.14777377 0.0031132982 -0.12923299 -0.15433162

ln1.weight f4 [256]
00000000: 6a45 bd3f bc80 983f 7d33 9b3f 3c8f 873f
00000010: 6022 4f3f c9c8 903f 13a3 823f 046b 1a3f
00000020: 69a0 7a3f 1ae3 853f 95ab 993f 6867 c03f
00000030: 0257 3a3f 376d 8b3f 92df a13f 301e 7b3f
00000040: 14f3 753f b2a8 4f3f 6ed2 803f 4931 9f3f
00000050: 3616 843f 3e07 843f 3940 833f a152 8a3f
00000060: 480a 773f 7e84 8a3f 4d8d fc3e 59e6 6e3f
00000070: 3fc7 a13f 4d6e 5c3f 33d2 873f e5ec 8d3f
00000080: fc77 883f 01e6 9b3f aa5b 7c3f b64c 403f
00000090: 9690 9c3f 51ca 5f3f b983 a73f d38a b33f
000000a0: 36be 9a3f 563d 473f cbe8 e33e 3160 543f
000000b0: 4b82 723f 9ea6 8f3f e7d2 2f3f 4916 613f
000000c0: c549 753f 1eab e53e 89b8 803f 9594 833f
000000d0: 7e69 833f 0abc 693f 43f1 833f 4b28 783f
000000e0: f365 903f bbbf 1f3f f0a3 713f 9bc6 913f
000000f0: ed75 923f fb64 5a3f e941 af3f b226 553f
00000100: f63f 9a3f 2715 3e3f b665 c73f dd1c 903f
00000110: de6b 963f 402e 863f d044 883f f169 843f
00000120: 413d 6b3f 4ab4 8c3f 925f 613f 7d23 963f
00000130: 17b8 803f d8e9 983f 8112 183f c20d 8f3f
00000140: e455 813f 5302 5d3f 8b62 653f 853f 233f
00000150: c910 863f a9b0 6e3f 5791 883f 61a1 493f
00000160: ef5a 573f cc55 903f 994b 713f 245c 1f3f
00000170: df2c 953f f491 933f a43b a03f 4a52 8f3f
00000180: c61f 1b3f 0507 453f 994f a63f 263d 623f
00000190: 69ec 513f 370e aa3f 18b2 893f cb7d 9f3f
000001a0: a0a8 753f 8039 7b3f e0ee 4a3f 295e 833f
000001b0: 2ffb 4e3f feb5 743f fc53 a43f d892 843f
000001c0: 99ad 973f e8e5 863f 2aa3 983f 8628 9a3f
000001d0: c14a 173f b89f 4f3f 2b41 893f 0acc 963f
000001e0: f734 7b3f 88ce 623f cbb4 963f 9e0f 9c3f
000001f0: 0a26 873f 1af2 8c3f 0f10 7c3f fcb6 823f
00000200: f1a1 fa3f 8ff9 ad3f 2d0d 9e3f 92d3 883f
00000210: c3d1 8c3f ed2f 6e3f 62ea 5b3f 5376 793f
00000220: 13e9 953f 6696 363f 0152 8b3f 47ca 4d3f
00000230: 940d 7c3f 4a48 803f 6e96 903f 9836 7b3f
00000240: c3a3 323f 3a85 a73f 54f4 783f 1119 7c3f
00000250: 05f3 493f 07dc 943f ca19 563f a7e1 823f
00000260: c78d 383f 9443 933f 5f18 503f 403b 903f
00000270: 925a 843f 4da0 563f 72c4 593f ec98 6e3f
00000280: ddff 773f c74e 7d3f 2e36 6d3f 635e 803f
00000290: 6f7c 843f 52ed 9c3f dc1a 8a3f d86e 5e3f
000002a0: 4cea 823f d98c 8c3f 2a6d 8b3f 4513 9b3f
000002b0: eaf0 c33f e5c3 803f dace 253f d7e0 473f
000002c0: cb11 c33f b036 943f 3168 603f 8cce 6d3f
000002d0: f4d8 423f 09ae 323f f480 9b3f ab8c 903f
000002e0: 01ee 883f bf88 723f e6b2 8c3f 7c2b a13f
000002f0: f9ea 873f e77e 983f 7ffe 853f 2ca5 963f
00000300: 5b96 923f f63f 6a3f 6e54 b83f e3b4 743f
00000310: 82f0 4c3f ecba 6d3f ab47 923f 8dd1 933f
00000320: 6449 133f 9ddf 973e 0942 893f 560e 733f
00000330: 6eba 793f 178a 823f fddd 8d3f dbd6 9c3f
00000340: 844b 523f 2310 9e3f 5573 763f 3c57 8e3f
00000350: d11e 923f e1ee 9c3f 0a49 7d3f 3d6a 733f
00000360: 56fc 9b3f 69d8 993f 5107 543f 7a0e 433f
00000370: 1860 b43f a2b0 7a3f 3dc7 3d3f 4899 4f3f
00000380: 158a 633f 12a5 8a3f d782 7a3f 46c2 7b3f
00000390: 73ca a73f c731 8c3f d1de 933f 5647 923f
000003a0: 4777 8a3f 0f1f 513f 938f 7a3f 67c0 493f
000003b0: bca4 9a3f 7f44 643f 69a2 833f db14 5e3f
000003c0: 7789 9d3f 460a 7e3f 5e52 773f 4642 893f
000003d0: 9bea 8a3f 39fc 503f ff00 763f ab63 4c3f
000003e0: 1c1e 8d3f d788 8d3f a9d6 8d3f 1d25 603f
000003f0: e863 863f ba33 883f e664 863f 6d03 953f
1.4786808 1.1914287 1.2125088 1.0590587 0.8091183 1.1311275 1.0206016 0.6031954
0.97901016 1.0459931 1.2005488 1.5031557 0.72789013 1.0892705 1.2646353 0.9809294
0.9607403 0.81116784 1.0064218 1.2436916 1.0319278 1.031471 1.0253974 1.0806466
0.9650006 1.0821683 0.49326554 0.9332023 1.263893 0.86105806 1.0611023 1.108792
1.0661616 1.2179567 0.9857737 0.7511705 1.2231624 0.87418085 1.3087074 1.4026741
1.2089298 0.77827966 0.44513544 0.82959276 0.9473006 1.1222723 0.68681186 0.8792463
0.9581569 0.44857115 1.0056316 1.0279719 1.0266569 0.9130255 1.0308002 0.9693648
1.1281112 0.6240193 0.94390774 1.1388735 1.1442238 0.85310334 1.3691989 0.8326217
1.2050769 0.74251026 1.5577915 1.1258808 1.1751668 1.0482864 1.0646 1.0344831
0.9189034 1.099252 0.88036454 1.172958 1.005618 1.1946363 0.59403235 1.1176074
1.0104337 0.8633167 0.8960349 0.637688 1.0473872 0.9323831 1.0669354 0.7876187
0.8412313 1.1276183 0.9425598 0.6224997 1.1654319 1.1528916 1.2518201 1.1196988
0.6059536 0.76963836 1.2993041 0.88374555 0.8200136 1.3285588 1.0757475 1.2460264
0.95960426 0.98134613 0.79270744 1.026311 0.80852026 0.955902 1.283813 1.0357313
1.1849853 1.0538912 1.1924794 1.2043617 0.5909844 0.81103086 1.0723013 1.1781018
0.9812769 0.8859639 1.1773924 1.2192266 1.0558484 1.1011384 0.98462003 1.0212092
1.958067 1.3591784 1.2347771 1.0689566 1.1001514 0.9304188 0.85904515 0.97446173
1.1711754 0.7132324 1.0884401 0.80386776 0.9845822 1.0022061 1.1295907 0.9813018
0.6978113 1.3087533 0.97247815 0.9847575 0.78886443 1.1629647 0.836331 1.0225114
0.72091335 1.1504998 0.8128719 1.1268082 1.034014 0.8383835 0.85065377 0.9320209
0.9687479 0.9894833 0.92660797 1.0028805 1.0350474 1.2259924 1.0789447 0.86887884
1.0227752 1.0980483 1.0892689 1.2115256 1.5307896 1.0059782 0.64768755 0.78077453
1.5239805 1.1579189 0.87658983 0.9289329 0.76112294 0.69796807 1.2148728 1.1292928
1.0697633 0.9473991 1.0992095 1.2591395 1.0618583 1.1913728 1.0468291 1.1769156
1.1452135 0.91503847 1.4400766 0.9558851 0.80054486 0.92863345 1.1428121 1.1548325
0.5753386 0.2966279 1.0723277 0.9494375 0.97550094 1.0198392 1.108337 1.2253069
0.8214648 1.2348675 0.9626973 1.1120372 1.1415654 1.22604 0.98939574 0.9508398
1.2186382 1.2019168 0.82823664 0.76193964 1.4091825 0.9792577 0.7413214 0.81093264
0.8888257 1.0831625 0.97855896 0.9834331 1.3108658 1.0952691 1.1552373 1.142802
1.081765 0.81688017 0.97875327 0.7880921 1.2081523 0.89167017 1.0283939 0.8675057
1.2307576 0.99234426 0.9661006 1.072335 1.0852846 0.8163486 0.9609527 0.7983958
1.1024814 1.1057385 1.1081134 0.8755663 1.0499239 1.0640786 1.0499542 1.164167

ln1.bias f4 [256]
00000000: 3f3d 6d3d 446b 97bd c297 b33b 2a4c 24bd
00000010: 5e22 8ebe 6bb6 c3bc 63c8 96bd 61ed c8be
00000020: 5a69 ecbd 682e 92bd 9bc0 f2bd ffef f93d
00000030: 3695 a5be 17c5 05be 81fd 1c3d e492 02be
00000040: 8bd9 c3bd a206 c5be d673 513d 6d45 f0bd
00000050: f180 00bd a770 1abe 0afd 933d 1e76 afbd
00000060: d25a 76bc 1a5d 363d 2cba f9be b817 25be
00000070: 1db6 b4bd 0263 24be d1e6 02bc 950e 553c
00000080: 571f 993d e37d 13bd c7bc 36be e2e1 57be
00000090: c697 0cbe 6514 93be 5ebe c13d a43d 59bd
000000a0: 7567 a0bd 865e 81be 720b 07bf 6876 7cbe
000000b0: af12 c2bd 7ddf 0ebd 2864 98be 181d 19be
000000c0: a11b 13be e00e 02bf 814f ecbd 5912 15be
000000d0: cc30 00be a2c2 30be fc0e 32bd be0d 03be
000000e0: 07f9 d1bc 8104 b6be 87a1 14be dfe2 67be
000000f0: c5c7 523d 8cbf 34be 8a16 0fbe c4f1 7cbe
00000100: 7792 763d c610 a4be e6b1 f83d 060b 64bd
00000110: 618a c73c 84c4 04bb ada2 743c 060e 7bbd
00000120: 216e 57be 5df5 6fbd 1ba0 12be dd95 a8bd
00000130: 4a7d d3bc 4a0d 013d 37eb bebe a3a9 ffbd
00000140: 79b2 043c 46b3 10be d224 fdbd 0570 bfbe
00000150: aa9a 35bc a880 0cbe 55fe b3bd 201d 65be
00000160: d177 84be d7d9 d9bd e11d 5fbe f41d babe
00000170: 77f0 52bd d817 67bc 7b14 00be 0893 7fbe
00000180: 4fce d5be 905b 6abe bf75 0bbd f0ed 09be
00000190: 2661 2abe 8610 3b3c 4b74 7abd 5dec d3ba
000001a0: bdcd a93d 5a80 1dbe 9520 62be 3593 a63d
000001b0: d4cf 37be 6aff babd 07ed c2bd cbe6 26be
000001c0: 7741 463d 695c 83bd c723 cd3c 5d31 32bb
000001d0: f832 fdbe 6b9e 6ebe 6490 27bd 6b94 86bd
000001e0: 0b85 e0bd 012e 2dbe b60a 3ebd 8a5a 7cbd
000001f0: 76cc f7bd d470 0cbc 4157 9dbd 6d38 74bd
00000200: 2ae2 223e 50aa 273d d2d2 b7bd e372 a5bd
00000210: c65b 53bd 9415 c1bd a744 28be d5d9 cabd
00000220: 52a0 a6bc ef7f 81be a492 81bd 6081 84be
00000230: fb3e f7bc 8916 5ebd e7ab c3bd 9732 40bd
00000240: e0b8 7cbe afc1 f2bc 12ca 8bbd 3a37 e5bd
00000250: 90d5 58be 1c67 90bd caaf 87be 16d8 90bd
00000260: 9134 9bbe bf7c 043d 0768 2fbe a878 873d
00000270: 8509 3abd a1f0 6cbe 1f4b 2bbe 7d8e f2bd
00000280: a3e1 e8bd 167a 9b3d 1b27 0dbe 7482 70be
00000290: 5401 0e3d f56f 97bc bac3 06be 3ee1 2abe
000002a0: d8c2 47be b367 81bc a3b2 5fbd 7ad5 82bd
000002b0: fc39 c73d 20ee b9bd c118 9fbe b1aa a6be
000002c0: 835b 163d 439d cdbd b9a3 8ebe 961e 12be
000002d0: f781 77be e0f3 94be 610d 0bbe b2e6 27bd
000002e0: e480 cfbd 5bc1 cbbd 9cc9 9bbb 2dde 033d
000002f0: d659 9bbd 492b f63b d945 40be e7fa 1fbd
00000300: 7750 e1ba bb14 b8bd 2832 d23c 4d03 5ebd
00000310: 175f 3abe 08f0 86be 8d40 9dba c08e 88bc
00000320: 287d d1be 7e7f 1abf 50c3 3abe 0d54 bfbb
00000330: 82e0 19be eba7 b7bd 9b26 f7bc 56a8 9e3d
00000340: 4e62 8abe d7ce 9ebc c095 94bd 7c90 35bd
00000350: 0049 8c3b 6087 da3d 79d2 04be be64 76be
00000360: edaa d4bb 8811 913d c445 a6be 810f 79be
00000370: ad26 4dbe 8eb8 09be 506f 42be 6783 9fbe
00000380: 5731 8ebe 1230 95bd 62ad 4bbd 27e1 8dbd
00000390: c596 25bd 46d7 123d f8a8 59bd 8cd2 0d3d
000003a0: 9c23 19be 13cc 53be 0e5d c7bd 7762 91be
000003b0: 5e23 8c3d 70ee 97be 4d5e f3bd 2a88 48be
000003c0: 0d05 10bb 7b5b 84bd acc7 09be c11b fbbc
000003d0: 4158 89bd d083 0bbd eb9b 10be ae5b 3bbe
000003e0: 2711 25bd a70e e8bb 7160 d5bc b812 92bd
000003f0: 93e4 e1bc 7532 92bc a700 10be da13 803c
0.057919737 -0.07393506 0.0054807374 -0.0401117 -0.27760595 -0.023890695 -0.073624395 -0.39243606
-0.11543532 -0.071377575 -0.11853143 0.12203979 -0.323404 -0.13063465 0.038327698 -0.12751347
-0.095629774 -0.38481623 0.05113586 -0.11731992 -0.031372968 -0.15082036 0.07225998 -0.08567451
-0.015036302 0.044522382 -0.4877485 -0.16122329 -0.08823798 -0.16053393 -0.007989601 0.013003965
0.07476681 -0.036008727 -0.1784545 -0.21082261 -0.13729772 -0.28726497 0.09460138 -0.0530373
-0.07832233 -0.25267428 -0.5275184 -0.24654543 -0.0947622 -0.034881104 -0.29763913 -0.14952505
-0.14366008 -0.5080395 -0.11538602 -0.1455778 -0.12518615 -0.17261747 -0.04347132 -0.12798211
-0.02563144 -0.3555031 -0.14514743 -0.22645138 0.051460046 -0.17651194 -0.13973442 -0.24701601
0.060198274 -0.32044047 0.121433064 -0.055674575 0.024357976 -0.0020258734 0.014931363 -0.06129267
-0.21038105 -0.058583606 -0.14318888 -0.08231709 -0.025816578 0.031506814 -0.3728883 -0.124835275
0.008099192 -0.14130887 -0.123605385 -0.37390152 -0.011084238 -0.13720953 -0.08788744 -0.22374392
-0.25872663 -0.10637253 -0.21788742 -0.36350977 -0.051498856 -0.014104806 -0.12507813 -0.24958432
-0.41758963 -0.22886491 -0.03404784 -0.13469672 -0.16638622 0.011417514 -0.061146062 -0.0016168464
0.082911946 -0.15380993 -0.22082742 0.08133546 -0.17950374 -0.091307476 -0.09517866 -0.16298978
0.048402276 -0.0641411 0.025041474 -0.0027190067 -0.4945295 -0.23302619 -0.040909186 -0.06571277
-0.10962876 -0.1691208 -0.046396933 -0.061609782 -0.12099545 -0.008571822 -0.07682658 -0.059624124
0.15906587 0.040933907 -0.08975758 -0.080785535 -0.051601194 -0.09427944 -0.16432439 -0.099048294
-0.020340119 -0.25292918 -0.063267976 -0.25879955 -0.030181399 -0.05422071 -0.09554272 -0.046923246
-0.24679899 -0.029633371 -0.06825651 -0.11192174 -0.21175218 -0.070509166 -0.26501304 -0.07072465
-0.30313542 0.03234553 -0.17129527 0.0661481 -0.045419235 -0.23138668 -0.16727875 -0.11843584
-0.11371162 0.075916454 -0.13784449 -0.23487264 0.034669235 -0.018486002 -0.13160601 -0.16687486
-0.1950792 -0.015796518 -0.05461372 -0.06388374 0.097278565 -0.09078622 -0.31073573 -0.32552102
0.036708366 -0.10039761 -0.27859285 -0.1426948 -0.24170671 -0.29092312 -0.13579322 -0.040991493
-0.10132006 -0.09948989 -0.0047542583 0.032194305 -0.07585494 0.007512484 -0.18776645 -0.03905764
-0.0017190118 -0.08988329 0.025658682 -0.054202367 -0.18200336 -0.26355004 -0.0011997387 -0.016669631
-0.409158 -0.6035079 -0.18238568 -0.005838877 -0.15027049 -0.08967575 -0.030169776 0.07746951
-0.27028126 -0.019385738 -0.07255125 -0.044327244 0.004281163 0.10670352 -0.12970914 -0.24061868
-0.0064901025 0.07083422 -0.32475102 -0.2432232 -0.20034285 -0.13449308 -0.18987775 -0.3115494
-0.27772018 -0.07284559 -0.049725898 -0.0692771 -0.04042699 0.035849832 -0.053139657 0.03462462
-0.1495499 -0.20683317 -0.09734546 -0.28395435 0.06842683 -0.296741 -0.11883221 -0.19583192
-0.0021975667 -0.06462761 -0.13455075 -0.030652883 -0.06706286 -0.034061253 -0.14121978 -0.18296692
-0.04029956 -0.007081825 -0.026046963 -0.071324766 -0.027574813 -0.017846325 -0.14062749 0.015634466

fc2.weight f4 [256, 256]
00000000: 8f45 8d3d a407 bc3c 4a5a 6ebe 5425 27be
00000010: 5df8 483e de05 563e 651c 52bd ba29 703d
00000020: fc62 113d 6061 19be 7359 a83a 1265 243e
00000030: 7b04 c33d cd89 8e3e 46ae 833e 0643 573e
00000040: 50d9 34bd 7c48 043e d46c f63d 4f55 8e3c
00000050: efba bdbd f5ab 673e daf0 01bd 02b5 913e
00000060: 6317 383d b67c 233e 4b8b c83a 3415 48bd
00000070: 7c21 cf3e 2d5e ee3d 8f0d 7e3e 4ca8 a13e
00000080: fc36 7c3e 7874 373c a5be e53d 1724 043d
00000090: a52c a23e 46af b23d f435 aa3e 1200 253e
000000a0: 2e18 f23d 1a1b 2a3e d1ef 8e3d 801f fc3d
000000b0: 740b 1b3e 9cd9 90be 57f3 32bd 5a62 36be
000000c0: f5a4 eb3d ff5a b93d a172 dbbd 4ef3 1c3e
000000d0: f87e 58bd 575e 6c3d c268 9dbd 98b7 9c3e
000000e0: 8e31 a13e ef72 b43d 39a6 953c c8f1 883e
000000f0: c243 a33e 233b 1b3e bcef b5be aba8 4ebd
00000100: b291 173d 6a04 9a3c b32b 623e 066d 36bc
00000110: 0f39 943e ac38 b93d 42a2 6ebe ce74 17be
00000120: 721d cd3c c704 39be aa91 30bd 1f71 d33d
00000130: 2eb6 31be 4bbd bb3e a15b 813b 7d9f ca3e
00000140: c42d 0cbe 645e f03d d268 1a3e a1e9 ffbb
00000150: fb94 dbbd 22a0 3a3c e191 06be 8411 8abd
00000160: 18b5 bf3c 36b7 a0bd b68a 093d 4fbc 3bbd
00000170: 1592 f53d a807 e73c b8b5 e13d 249f a63e
00000180: 7832 cf3c 6ba1 60bd 5721 143c dab0 a83d
00000190: 7779 78bd 99a1 143d e112 813a 7cda 0ebe
000001a0: 57d1 da3d ac96 51bd ff13 953d ff90 b33e
000001b0: e182 073e 83be 1cbd 1ce5 203e 8075 02be
000001c0: f5c7 823e c7bc b73d 75fb 103e 7c25 943d
000001d0: a3b9 3f3d 82da 2f3b 5d5e 23be 2177 323e
000001e0: a9d1 da3d e772 303e 1440 6e3e ebd2 6c3d
000001f0: 94e9 513d 438d 0ebe 7348 853d bec0 823e
00000200: 0369 fd3e db05 df3e 741b 963e e0ca a7bc
00000210: 4e85 553d 106c 3a3e aa5e 853d 510e c3ba
00000220: 7e9a 933e 77d0 1a3e 7994 71be 6171 d33d
00000230: 6de4 873c c600 6f3e 3a18 033f 3d08 803d
00000240: 8d67 88bc 27bf 973e 3e8d 1e3e e230 663e
00000250: 9508 5c3d 1222 4b3e 8058 293e cbf8 183e
00000260: 7c55 90bd c634 37be 1926 a0bd ce42 053e
00000270: c313 543e 04e1 f2bd 8e8e 8bbb 9c72 893d
00000280: 91d6 1d3e b7c9 84bd 5290 a6bd 8068 d43d
00000290: 8151 2dbe 43c5 433e 95f4 1dbe 6949 4bbd
000002a0: 972d 5bbd 34f8 683e 05da 21be f6cb 08be
000002b0: b6a7 ac3e 2d91 01be c3d9 1c3d 7daa cf3c
000002c0: 32ba 923e 45ec b43d 1421 2e3e 8887 db3d
000002d0: 6112 633d 03e4 373e bc26 6e3e d6e3 fe3b
000002e0: 8835 5fbe 583e 65bd a84b 723e 43b6 8e3e
000002f0: e45a 683e a0fd 5abe 0ed8 603e 95a9 3a3d
00000300: b878 7cbe da30 513d 958b 9a3e 5b71 433e
00000310: 2b78 e63d 3935 4abc 3203 57be 100a 493d
00000320: 52e6 14bd e93c 063d dbce d2bc 3806 9fbb
00000330: 6ecb aa3d c090 d03b d663 743b 59b9 8c3e
00000340: c4d5 b4bc e01c 823d a8d4 273e 0aa7 443e
00000350: 2feb a0be 937e 8d3d 653a 1339 2ca3 7fbd
00000360: 71ff a3be 46fa f63d 05fe 7b3d 53c3 373d
00000370: fc50 603e d059 463e 19ae 913d 09bf b6bd
00000380: 8795 233b 510a ba3c fe18 313e 78de 2f3e
00000390: 3241 c03e 1e92 d53d 0117 393d 3bf6 d5bd
000003a0: c5a9 05be f992 143e c650 a73d f979 473d
000003b0: f1d1 f33d 5303 c8bc eb7c 48bd 324e 953d
000003c0: fac2 b43e eae6 7e3d a6e4 e1bc a58b 1dbe
000003d0: eb65 d13c 8af5 9abd 186c 0abd 63d2 a83d
000003e0: 0477 983e 3426 673d a05d 263e b354 c03c
000003f0: 7f12 da3c 3089 1d3e 07b0 a13d b3ea 703e
0.06898033 0.022952862 -0.2327663 -0.16322833 0.19625993 0.20900676 -0.05129661 0.058633544
0.03549479 -0.14978552 0.0012844041 0.1605418 0.09522339 0.2783951 0.25718898 0.21021661
-0.044152558 0.12918276 0.12032476 0.017374663 -0.092641704 0.2262419 -0.031723835 0.2845841
0.04494418 0.15965542 0.0015300302 -0.048848346 0.40455234 0.11639056 0.2480986 0.31573713
0.2463035 0.011197202 0.11218003 0.03226098 0.31674686 0.08724837 0.33244288 0.16113308
0.11821018 0.16611901 0.06979335 0.12310696 0.15141088 -0.28291023 -0.0436891 -0.17810956
0.115060724 0.09050559 -0.10715223 0.15327188 -0.05285546 0.057707157 -0.076859966 0.3060882
0.3148312 0.08810984 0.018267738 0.26746964 0.31887633 0.15159278 -0.35534465 -0.050453823
0.03700418 0.018800933 0.22086982 -0.011134392 0.28949782 0.090440124 -0.23304084 -0.14790651
0.025038455 -0.18068229 -0.043107666 0.103243105 -0.17354652 0.36667857 0.0039476906 0.39574805
-0.13689333 0.117367536 0.15079048 -0.007809833 -0.10721775 0.011390718 -0.13141586 -0.06741622
0.023401782 -0.07847445 0.03357955 -0.045833882 0.119907536 0.028201893 0.11020988 0.3254329
0.02529262 -0.05484144 0.009041152 0.08236857 -0.060662713 0.036286924 0.0009847545 -0.13950533
0.1068446 -0.051169083 0.072792046 0.3507156 0.1323352 -0.038267624 0.15712398 -0.12740135
0.2554318 0.08971553 0.14158423 0.07233712 0.046807896 0.0026833122 -0.15953965 0.17428257
0.10684521 0.17231332 0.23266631 0.057818335 0.051248148 -0.13921075 0.06507959 0.25537676
0.4949418 0.43559155 0.2931782 -0.02048248 0.052129082 0.18205285 0.06512196 -0.0014881586
0.28828806 0.15118586 -0.23591794 0.1032436 0.016588414 0.23340139 0.5120884 0.06251571
-0.01665094 0.29638025 0.15483567 0.22479585 0.053719122 0.19837216 0.16537666 0.14938657
-0.07047555 -0.17891225 -0.078197666 0.13013765 0.20710663 -0.118593246 -0.004258937 0.06711313
0.15413882 -0.064837866 -0.08132996 0.10371494 -0.16925623 0.19118218 -0.15425332 -0.049630556
-0.053510275 0.22750932 -0.15805824 -0.13359055 0.33721703 -0.12653036 0.03829361 0.02534985
0.2865768 0.08834127 0.17004806 0.1071921 0.05543745 0.17958073 0.23256963 0.007778625
-0.21797764 -0.05596766 0.23661673 0.2787343 0.22690922 -0.21385813 0.21957418 0.045571882
-0.24655426 0.05107198 0.30184618 0.1908621 0.11253389 -0.012341791 -0.20997313 0.049081862
-0.036352463 0.032772932 -0.025733402 -0.0048530363 0.083395824 0.006364912 0.0037290952 0.2748516
-0.022074588 0.06353164 0.16389716 0.19204345 -0.3142943 0.06908908 0.00014040766 -0.062411472
-0.32030824 0.120594546 0.06152155 0.04486401 0.21905893 0.19370198 0.071132846 -0.08923156
0.0024960951 0.022709997 0.1729469 0.17174709 0.3754974 0.1042826 0.045187954 -0.10447355
-0.13053043 0.1450919 0.08169703 0.048700307 0.119052775 -0.024415648 -0.048947256 0.07290305
0.35305005 0.062231936 -0.027574848 -0.15385301 0.025561294 -0.07566364 -0.033794492 0.08243253
0.29778302 0.056432918 0.16246653 0.023477888 0.026620148 0.15384364 0.07894903 0.2352703

fc2.bias f4 [256]
00000000: 945c 923d c9f6 bb3a e3b2 3f3d 197e 14bd
00000010: 87e1 913d e6d3 993d a2aa a83d bc3e 893c
00000020: a15b c33a 6b69 693d b3b6 ed3c 5f3e 203d
00000030: 580f 793d e998 4d3d aa21 a33d 98aa 97bc
00000040: 27b7 963d b213 8e3d 63ec 853d 0083 bf3d
00000050: b0c1 d63b 6855 a63d 4833 673d 4692 c73c
00000060: 4b28 19bd a8ed 4d3d 6957 993d b719 f23b
00000070: 52ee 70bc 55d0 853c a675 8b3d bb84 453d
00000080: e816 523d 6137 c53d caee 2a3c 28c6 c53c
00000090: 20e1 153d 8fb7 693d 8912 953d ef01 b9ba
000000a0: 4367 843d c615 8b3d f5fb f7bc 0e9b 16bb
000000b0: d64d 4d3d c502 cd3d 031a ab3d dc37 733c
000000c0: 92cd 173d 6fdd 103d 320f 0f3d 4b4d f93c
000000d0: 6da2 523d 0313 f73c 7ea8 73bc b83a 7b3c
000000e0: 3108 253c 44ff 9d3d a172 a23d e931 a53d
000000f0: 286f 67bd b314 523d 5fb9 b53d 9a04 cabc
00000100: 4802 953b bd6b 923a f3b6 7f3b 1123 d03c
00000110: 105b 4abc 39f5 9f3d 1b84 d73d c6de bd3d
00000120: acec 243d 0578 363d 4b54 fc3c 46ec 903d
00000130: 47a0 09bd c9fe 6d3d d0ec 5a3d bdc8 82bc
00000140: eb9e 48bb cc8d b03d 1c06 ac3d 33ff ab3c
00000150: 2cd6 783a caa8 4e3c 24c5 96bc d842 44bd
00000160: 57f8 45bc d7e8 4a3c 355a bd3d cf1b 813d
00000170: 67e4 963b 8665 89bc 5bcc 2bbc 8dbe 5f3d
00000180: 4791 a13d bb74 b6bb 852a b63c b511 6d3d
00000190: f81a a73d bf58 8a3d 46ac 9cbc ed05 943b
000001a0: dc08 993d 870b 2fba 3992 a93d 8619 c5bc
000001b0: e285 2e3c 90ef 9e3d 3323 b23c e737 c43d
000001c0: 52aa bd3d a19c ae3d 7127 14bb aa28 d8bc
000001d0: a2a9 bcbb 0f19 233d a20f 343d a57f 9f3b
000001e0: 733b 993d 9f46 c33c 032f b93d de94 e5ba
000001f0: 7b26 b83d 1791 933d 3de2 413d 1047 92bc
00000200: 8838 683b 1e95 e33c 5420 683d 48a3 d03d
00000210: b0bc 3f3d e8a0 b73d 09a3 fc3c 9782 f73c
00000220: cd5f 873c b76e 82bd d3d9 983d 1ee8 5e3d
00000230: 9bae 653d bfa3 dabb 5a86 a23a 1fbe b33b
00000240: ee1e 163d b981 2d3d b98d 81bc e233 a53d
00000250: 853d 053c 23f3 c83c 9c63 873d d620 7a3d
00000260: ee63 ab3d 03ce 2c3d b364 873d 1660 973d
00000270: 31ad 953c 7728 bf3d fb07 f53c 5bda 873d
00000280: 1e95 ab3c 1341 24bc fa37 03bd 549a de3c
00000290: 10e2 8f3d 05dd dcbc 8218 d23c 191c bc3d
000002a0: 5f75 46bc 46a8 433d 84cf 423d 208b 613d
000002b0: 88b1 e8bb 97e5 5c3d e164 573d c996 21bd
000002c0: 9c58 983c de43 c13c f916 b93c 9e01 1f3d
000002d0: 0e4a 183d 87e4 963d 3575 e33b a860 27bc
000002e0: 4e92 313d 2a34 033d 40dc 6c3d 6828 d73c
000002f0: 8060 d73d c9ef 8e3d 45df 2b3d bd66 703d
00000300: a7ee 4d3d fc52 9b3d 8f83 2b3d e704 793d
00000310: 86e4 4a3d ad38 bf3d 7760 2b3d 5957 813d
00000320: a539 ad3c 6aa9 cf3c 0d47 b1bc 2ef8 893c
00000330: 3354 e0bc 419d a03d a4c5 923d e8f0 05bd
00000340: 19a5 aa3d bc71 4c3c 95fb 673d 3dbd 65bc
00000350: 87a6 a83c 67da 863d fc85 183d 3943 19bc
00000360: 5c3c 5f3d 4576 8d3d 5fc7 943d 591d d53c
00000370: 076c c5bb 7705 b53c b66d c13c 6870 663d
00000380: 56a0 303d 5ea3 20bc 72c2 8a3d 81a5 883d
00000390: e8d0 b13c 3f30 efbc 5eab 853d fd81 6d3c
000003a0: 30f7 8e3d eb93 4a3d 9f44 623c dacd c03c
000003b0: 75a6 b13d 6d4e cbbc 4f70 623c 1de9 67bc
000003c0: 0df0 c23d d344 0a3c d859 c4bb 4217 0fbd
000003d0: b601 4c3c 47bf 393d b26e 543d 76c6 c83c
000003e0: a7df e73c 4b4a 8cbc 8769 ce3c 093b 683d
000003f0: 599a 1d3c 74a7 a93c 4753 ffbc 6e8b be3c
0.07146564 0.0014340515 0.04680146 -0.03625307 0.07123094 0.075111195 0.082356706 0.016753547
0.0014904627 0.0569853 0.029017782 0.03912198 0.06080565 0.050194655 0.07965405 -0.018513963
0.07359152 0.0693735 0.06539228 0.09351158 0.006553851 0.08121759 0.05644539 0.02436174
-0.037391942 0.050275475 0.07487375 0.0073883194 -0.0147052575 0.016334692 0.06809549 0.048222285
0.051291376 0.09629703 0.010432908 0.02414234 0.03659165 0.05705982 0.07278926 -0.0014114956
0.06465008 0.06791262 -0.03027151 -0.0022980603 0.05012306 0.10010294 0.08354571 0.014844861
0.03706128 0.035367426 0.0349266 0.030432364 0.051424433 0.030160433 -0.014871715 0.015333824
0.010072754 0.07714704 0.0793202 0.0806616 -0.05650249 0.05128927 0.08873247 -0.024660397
0.004547391 0.0011171025 0.0039018958 0.025407346 -0.012350813 0.078104444 0.10523244 0.09271006
0.04026477 0.044548053 0.030801913 0.070763156 -0.033600118 0.05810431 0.0534485 -0.01596486
-0.00306123 0.086207956 0.08399603 0.020995712 0.00094923633 0.012613485 -0.01840455 -0.04791531
-0.012083135 0.012384615 0.09245721 0.06304132 0.0046048644 -0.016772043 -0.010485734 0.054625083
0.078890376 -0.0055681146 0.022237072 0.057878215 0.08159441 0.06755208 -0.019125115 0.004517308
0.07472393 -0.0006677438 0.08279843 -0.024060022 0.010652037 0.07760537 0.0217453 0.09580975
0.09261002 0.08525968 -0.0022606517 -0.026386578 -0.0057575265 0.03981882 0.04396022 0.0048675113
0.07482042 0.023837386 0.0904217 -0.0017515679 0.089917146 0.07205408 0.0473349 -0.01785615
0.0035434086 0.027781066 0.056671456 0.101873934 0.046810806 0.08966237 0.03083946 0.030213637
0.016525174 -0.063687734 0.07463422 0.054420583 0.05607472 -0.006672352 0.0012399659 0.0054853107
0.03665059 0.04236004 -0.015814649 0.080665365 0.008132343 0.02453 0.06610796 0.06106647
0.083686695 0.042188656 0.06611004 0.07391374 0.01827106 0.0933389 0.029911032 0.06633445
0.020945128 -0.0100252805 -0.032035805 0.027173199 0.0702554 -0.02696086 0.025646452 0.09185047
-0.012112944 0.0477679 0.047561184 0.05506432 -0.0071012415 0.05392989 0.05258644 -0.03945044
0.01859694 0.023591932 0.022593962 0.0388199 0.03718 0.07367807 0.0069414624 -0.010215916
0.043352418 0.03203217 0.057827234 0.026264384 0.10516453 0.06979329 0.041960973 0.05869173
0.050276425 0.075841874 0.04187351 0.06079569 0.049534343 0.09336982 0.041840043 0.06315488
0.021145651 0.025349338 -0.021640325 0.016841974 -0.0273839 0.07842494 0.07166603 -0.03270045
0.08332271 0.012478288 0.05663641 -0.014022169 0.020587219 0.06584626 0.037237152 -0.009354406
0.054500923 0.06907324 0.072645895 0.02601497 -0.0060248408 0.022097332 0.023611885 0.056259543
0.04312166 -0.009804575 0.06775369 0.06672192 0.02170606 -0.02919781 0.06526826 0.014496324
0.06980741 0.04945747 0.013810306 0.023535658 0.08674327 -0.02481767 0.013820722 -0.0141547
0.09518442 0.008439261 -0.0059921555 -0.03493429 0.01245158 0.045348432 0.05186338 0.024508696
0.028304888 -0.01712527 0.025196804 0.056696925 0.009619319 0.02070973 -0.03116764 0.023259845

ln2.weight f4 [256]
00000000: caf3 443f d6db 433f 9ab0 903f d1fc 903f
00000010: b35c 8b3f 6425 9c3f 26fd 9b3f 812b 183f
00000020: 2668 333f a89d cf3f e26a 0840 063a 5e3f
00000030: 506d 943f dc5e 9e3f f9ca 7a3f 1f9c 9e3f
00000040: 33fa 3a3f 3ba8 d93f 3a3c ad3f 2013 423f
00000050: 1f3f 9c3f 19f9 a13f 85b1 0940 3226 5b3f
00000060: 242c e43f 888f 753f e904 723f 07d1 0040
00000070: 80f5 a63f 6837 843f 1530 493f d6d4 0540
00000080: 8d93 913f 286b 933f 0199 663f c03d 2c3f
00000090: 3ef8 ad3f 1b88 1d40 2a9c 253f 6589 a83f
000000a0: 8c1b 4a3f b67b 523f 4b62 f03f 9f58 283f
000000b0: 8b15 8b3f d802 693f 6c05 093f 2d13 9f3f
000000c0: c259 b13f 1425 763f 4add 0a3f 6c1b 9b3f
000000d0: 29fd 823f 6b31 bd3f ca04 a93f 499d 8c3f
000000e0: 084d 223f 11ed eb3f 23b2 9c3f a57c 863f
000000f0: dc34 cd3f 1baf 733f 4bed 863f b330 b83f
00000100: 02f5 8c3f 9a7b 823f 856b a23f b184 e93f
00000110: 439d d43f 7790 a93f 1985 753f e027 663f
00000120: 4b3b 9b3f 39ca c33f 8542 933f 98d4 eb3f
00000130: c821 fc3f be52 aa3f deb0 953f 9d80 483f
00000140: 64bd 523f e357 623f 2f81 0840 60d3 943f
00000150: e11f ca3f 3248 003f 6933 a03f 154a db3f
00000160: a45b 8e3f 4bd5 d33f 48a1 723f 6d76 903f
00000170: 3672 b43f 57a6 cd3f ac77 d53f 9fa0 713f
00000180: 2601 c53e ceb3 d83f ae82 a23f 7095 a03f
00000190: 156b 833f aacd 9a3f 1819 ce3f 3a45 863f
000001a0: e514 b13f 8483 143f 1605 713f e28c 9b3f
000001b0: 4344 b53f 3fed 823f 84f7 a53f f0e5 7a3f
000001c0: ed9f ae3f 7bc4 923f 934b 113f d434 f73f
000001d0: ef95 253f 6eed a63f c159 9a3f ca00 e83f
000001e0: a1b0 963f 0cf2 1a3f 935f de3e 04f8 9c3f
000001f0: d857 d93f 3c4d 333f 950a c03f 4147 9d3f
00000200: 6d1f e63e c98c a03f c96d 8a3f 80c4 953f
00000210: 8b02 cb3f 9617 5e3f 70d6 9f3f a8e6 f33f
00000220: a140 a63f 5534 e53f 1889 7a3f dc59 883f
00000230: 965b a63f 189b 813f cf8b b63f d264 d13f
00000240: 3383 ae3f 040d 0b40 1a2d 933f ad4f 943f
00000250: c37b f43f 073d 963f 203c db3e 849a 923f
00000260: ab3a a13f 7609 db3f 188b ae3f 6142 123f
00000270: cb29 613f 5c97 613f ced9 2e3f 5cb2 613f
00000280: 5231 0040 474d 8d3f 5137 333f 6f78 453f
00000290: 6e41 6a3f 77db c83f e082 9a3f a931 a53f
000002a0: ca02 a53f 93cf 9a3f 5eca 8e3f 7a9e f33f
000002b0: 5d2a 483f 1791 c33f 9c56 a63f 1d05 ab3f
000002c0: a97d b73f d319 c03f f2ce 0b3f f9df 973f
000002d0: 57b9 ee3f 5833 c63f 0216 af3f 8d38 a43f
000002e0: 2f87 503f d325 3d3f aaef 7d3f 885c 5b3f
000002f0: 253a 703f 8da1 1d3f 1dc8 c83f 6d5f 653f
00000300: b065 133f 84ae c13f d1c8 153f 0336 dd3f
00000310: 04ca a23f af83 9a3f 2a44 cf3f 5f33 9f3f
00000320: ee3b 2d3f c699 993f 23c0 963f fcc5 9a3f
00000330: dc5b a43f f89e ef3f 5d6b 9b3f f3ae ad3f
00000340: a5d6 733f e2f5 a43f fd14 c93f a3b8 f93f
00000350: f703 a83f 851f 8d3f 58e7 0c40 2bc3 ce3f
00000360: 2aab 983f a09f ce3f ce0a 803f 1e21 5e3f
00000370: a743 9f3f 8366 a93f a2e5 093f 85b1 8b3f
00000380: 0e2a 853f 923b a93f 1bb9 3b3f 6a58 103f
00000390: 8f50 243f e4b9 1340 1d07 913f 2a94 ee3f
000003a0: 5fd3 383f 2394 a33f ac36 f53e 05be b43f
000003b0: 4e92 393f 23ed dc3f 22de 7c3f 32f2 883f
000003c0: 4661 3b3f f034 ea3e 2cea c73f 7e77 c23f
000003d0: 771e f33f 8425 723f 10c2 b53f b26f 413f
000003e0: dd4c 453f 05ad 9d3f 30bb df3f 0e9c 2a40
000003f0: b217 4e3f 7cca 1d3f a282 c23f 49a1 a33f
0.7693449 0.7650732 1.1303895 1.1327153 1.0887665 1.2198911 1.218663 0.5944138
0.7008079 1.6219988 2.1315236 0.86807287 1.159586 1.2372699 0.9796596 1.2391394
0.73038024 1.7004465 1.3534005 0.7581043 1.2206763 1.2654144 2.15146 0.85605156
1.7825971 0.95922136 0.9453874 2.012758 1.3043671 1.0329409 0.7858899 2.0911155
1.1373154 1.1517076 0.90077215 0.67281723 1.3591383 2.4614322 0.6469141 1.316693
0.78948283 0.8222002 1.8779997 0.65760225 1.0865949 0.91019964 0.535239 1.2427727
1.3855517 0.96150327 0.5424391 1.2117743 1.0233508 1.4780706 1.3204587 1.09855
0.6339879 1.8431722 1.2241863 1.0506788 1.6031756 0.95189065 1.0541166 1.4389862
1.101227 1.019397 1.2689062 1.8243619 1.6610492 1.3247212 0.95906216 0.89904594
1.212747 1.5296088 1.1504675 1.8424253 1.9697809 1.3306501 1.16946 0.7832125
0.8232024 0.88415354 2.1328847 1.1627007 1.5790979 0.5011016 1.2515689 1.7131983
1.1121716 1.6549467 0.94777346 1.1286141 1.4097354 1.6066388 1.6677146 0.94385713
0.3847744 1.6929872 1.269613 1.2545605 1.0267054 1.2094014 1.6101408 1.0489876
1.3834502 0.58013177 0.94148386 1.2152369 1.4161457 1.0228652 1.2966161 0.98007107
1.3642555 1.1466211 0.5675594 1.9312997 0.64681906 1.3041208 1.2058641 1.8125241
1.1772653 0.60525584 0.43432292 1.2263188 1.6979933 0.70039725 1.5003229 1.228737
0.4494585 1.2542964 1.0814754 1.1700592 1.5860151 0.8675474 1.2487316 1.9054766
1.2988473 1.7906595 0.9786544 1.0652423 1.29967 1.0125456 1.4261416 1.6358893
1.3633789 2.1726694 1.1498139 1.1586815 1.9100269 1.1737374 0.4281931 1.1453404
1.2596029 1.7112262 1.3636198 0.57132536 0.87954396 0.8812158 0.68301094 0.8816278
2.0030103 1.1039208 0.7000628 0.7713689 0.9150609 1.5691975 1.207119 1.290578
1.2891476 1.2094597 1.1155508 1.9032738 0.7818964 1.5278653 1.2995181 1.3360935
1.4335223 1.5007881 0.5461265 1.1865226 1.8650311 1.5484419 1.3678591 1.2829758
0.81456274 0.7388584 0.99193823 0.85688066 0.9383872 0.6157463 1.568607 0.89598733
0.5757704 1.5131383 0.58509547 1.7282108 1.27179 1.2071437 1.6192677 1.2437552
0.6766957 1.2000053 1.1777385 1.209167 1.2840533 1.8720388 1.214214 1.3569015
0.95249397 1.2887537 1.570953 1.9509472 1.312621 1.1025244 2.20162 1.615331
1.1927235 1.6142464 1.0003297 0.8676928 1.2442521 1.3234409 0.53866017 1.091355
1.0403459 1.3221304 0.73329324 0.5638491 0.6418542 2.3082209 1.1330296 1.8638966
0.72197527 1.2779583 0.47893274 1.4120489 0.7248887 1.7259868 0.9877645 1.0698912
0.731953 0.45743513 1.5618339 1.5192716 1.8993672 0.94588494 1.4199848 0.7556106
0.7707041 1.2318426 1.7479 2.6657748 0.80504906 0.6163709 1.5196116 1.2783595

ln2.bias f4 [256]
00000000: d0ab a4be e296 a1be b23e 69be 4245 c7bd
00000010: 6c3c 28be e1e4 e9bd 33dc 6ebe f439 ecbe
00000020: 4730 f2be 9e18 57be 2975 0abe 633c 27be
00000030: 6da0 dbbd ca8e 19be 62ad 4fbe f899 fdbd
00000040: 8892 c4be 2a1a 3dbe 1c97 c8bd a036 72be
00000050: 3532 3ebe a994 21be 5c75 66bd 84bd 72be
00000060: 3db7 1fbe 3fc4 40be e165 1cbe 444e d3bd
00000070: 05da eabe 5e63 1fbd 6ec4 93be ccb9 8cbd
00000080: 4d62 cebd 79d1 ddbd 02fc 27be b461 debe
00000090: 2615 48bd 5c91 d9be b83f aebe 3e31 7ebb
000000a0: a89c a9be 878a 30be f5ff e7bb 2671 d6be
000000b0: 4bc0 67be 719b 60be ecfa 0cbf e60a 07be
000000c0: 5c32 3cbe 5ee9 49be 1a2c 03bf 2e18 f9bd
000000d0: 8aaa a6bd 0910 83bd c287 31be e000 58be
000000e0: 92f5 febe cea4 65bd 94c2 17bd 472a 80bd
000000f0: 594d 03be 5d43 33be 2581 1dbe 9b92 3ebe
00000100: 0da6 6ebe 62a7 1abe 51eb 15be 73b2 c8bd
00000110: c2cd 5abd ab72 87be e987 7fbe d474 3ebe
00000120: 4b69 80be 1406 01be ee0e 21be efff 52bd
00000130: b63a b9bd 418d 6bbe 7ae7 96be c55a a0be
00000140: cfe0 8bbe a402 9abe 8b95 9abd 523b dbbd
00000150: cb62 9fbd a5ce 02bf 573b b1bc 8b05 d0bd
00000160: f14d 04bd 73aa 02be 94ce 90be 9462 9ebe
00000170: bb36 c5bd 4510 5abd e42d bdbd a7af 39be
00000180: e471 2cbf db74 9bbe 6d83 92be 3dff 95bd
00000190: 5ec8 56be 1e0f 11be f3b9 bdbe e74e 19be
000001a0: e65b bfbd a30b e7be 0825 74be 9141 2cbe
000001b0: 0dfd 93bd 7451 5dbe f29a 3dbe 1e1c 78be
000001c0: 8402 1ebe a5f3 0fbd 7563 e9be 5a1e 19bd
000001d0: 0f7f c0be cb21 a5bd 7ef2 eabd d7b7 babd
000001e0: 72c3 bebd 55de b6be 4ccb 0abf bcdc 3a3c
000001f0: 3ef3 65bd 94eb d7be d648 27be 6e1e 34be
00000200: 84b9 11bf 0b1e 77be ea2b 09be 94ee 6dbe
00000210: 4291 7abe d757 84be fc6c 42bd 43b3 4dbd
00000220: d691 9bbd f846 b5bd 9ecd 95be 1b0b 8abe
00000230: 5e4c 35be a609 96be c48d 54be a8a0 0dbe
00000240: d972 b8be 7bb1 00be 8358 73be 02dc fcbd
00000250: 15ad e6be a131 dbbd 1187 29bf ad5d d8bd
00000260: 5d2c a9bd 081b efbc d152 45be a22f bdbe
00000270: 4c24 6dbe 40c0 8dbe 6357 e3be b775 44be
00000280: 2fb6 1dbd 8bf9 3fbd e039 e6be 0fd8 98be
00000290: 0a8c 65be 0f60 7dbb 8688 0dbe 340d febd
000002a0: 7fa8 06be aede c2bd 98e1 e3bd 5dc8 82bd
000002b0: 3ce4 72be 8dc0 03bd 94ae 9ebd 134e 1bbe
000002c0: d467 c7bd fd16 28be f530 ddbe b5df edbd
000002d0: 86c4 64bd b043 aebd dfa3 acbd 82bb c2be
000002e0: 5b92 43be 511d c9be 279c 67bd af7f 98be
000002f0: efcb 84be 6983 dcbe b7db 3cbe d1b8 57be
00000300: 1a27 efbe f275 56bd a484 f2be c3f4 813c
00000310: 0203 8cbd 223f fd3b 002c 15be 4cd9 72bd
00000320: 1f6c d1be a4e3 64be 08dc 55be b00f 87bd
00000330: f258 e6bd 1520 4bbe 6e21 b7bd 9a12 51be
00000340: e0c5 f8bd ab00 13be 0f09 c7be 1f4e 08be
00000350: 5b07 17bd b31a 37be 4c43 96bd 98fa fdbd
00000360: 711f 003c 58cc 98be b618 17be 0089 62be
00000370: 5111 09be 2f70 66be bd10 02bf 0a4f 66bd
00000380: b243 56be 1285 edbd 4622 dbbe f104 e4be
00000390: 7d24 b2be d4b1 bbbe 1390 02be ab1f 88bc
000003a0: 2c91 cbbe 8a39 95be 4ef0 19bf a349 cbbe
000003b0: dba0 d9be 4b01 03be 5e9e 8bbe af27 a5be
000003c0: 50bb b1be 7ac9 14bf 0c5a 56bd c2c5 30bc
000003d0: 5af8 8dbe e839 86be 0907 55bd b537 aebe
000003e0: 0040 5fbe 1639 e2bd 4e10 32be 235f 7dbe
000003f0: 90d1 5bbe ec43 dabe 03c4 24be 1c7b 51bd
-0.32162333 -0.31560427 -0.22777823 -0.09730007 -0.16429299 -0.11420608 -0.23326187 -0.46137965
-0.47302458 -0.21005484 -0.13521256 -0.1633163 -0.10723958 -0.14995876 -0.20280984 -0.12382883
-0.38393044 -0.18467012 -0.09794447 -0.2365365 -0.1857384 -0.15779366 -0.056264266 -0.23705107
-0.15597244 -0.18824862 -0.15273239 -0.10317662 -0.4586946 -0.038913123 -0.288608 -0.068713754
-0.10077343 -0.10830969 -0.16404727 -0.43433917 -0.048848294 -0.42493713 -0.3403299 -0.0038786675
-0.33127332 -0.17240344 -0.007080073 -0.418832 -0.22631948 -0.21934296 -0.55070376 -0.13187751
-0.18378586 -0.19717929 -0.5123917 -0.12162815 -0.081379965 -0.06399543 -0.17336944 -0.21094084
-0.4979673 -0.056065373 -0.0370508 -0.06258064 -0.12822475 -0.17506166 -0.15381296 -0.18610613
-0.23305531 -0.15102914 -0.14640547 -0.097996615 -0.053418882 -0.26454672 -0.2495419 -0.18599254
-0.25080332 -0.12599975 -0.15728351 -0.05151361 -0.09044401 -0.23003103 -0.29473478 -0.31319252
-0.27319953 -0.3008014 -0.07548054 -0.10704674 -0.07782515 -0.51096565 -0.02163474 -0.10157307
-0.032300893 -0.12760334 -0.28282607 -0.30934584 -0.0962958 -0.053238172 -0.092372686 -0.18133412
-0.67361283 -0.3036259 -0.28615895 -0.073240735 -0.20974872 -0.14165923 -0.3705593 -0.14971505
-0.093437 -0.45126066 -0.23842251 -0.16821887 -0.07226 -0.21613103 -0.18516138 -0.24229476
-0.15430647 -0.035144467 -0.45583692 -0.03738246 -0.37596938 -0.08063086 -0.11472033 -0.09117096
-0.09314622 -0.357165 -0.54216456 0.011405166 -0.056140177 -0.4217192 -0.16336378 -0.17589733
-0.569237 -0.24132554 -0.13395658 -0.23235542 -0.24469474 -0.25848266 -0.047467217 -0.050219785
-0.075961754 -0.08851427 -0.29258436 -0.26961598 -0.17704913 -0.29304236 -0.20757204 -0.13830817
-0.36025122 -0.12567703 -0.23764233 -0.12346651 -0.45053926 -0.10702825 -0.6622172 -0.10564742
-0.08260415 -0.029187694 -0.19269873 -0.36950403 -0.23158377 -0.27685738 -0.44402608 -0.1918553
-0.038503822 -0.046868842 -0.4496603 -0.2985234 -0.22416702 -0.0038661992 -0.13821611 -0.12404862
-0.13150214 -0.09515129 -0.11127013 -0.063858725 -0.23719877 -0.032166053 -0.07748142 -0.15166502
-0.097366005 -0.1641502 -0.43201414 -0.11614934 -0.05585148 -0.08509004 -0.084296934 -0.38033682
-0.19098799 -0.3928018 -0.056545403 -0.29784915 -0.2593684 -0.43069008 -0.1844319 -0.21066596
-0.4670952 -0.052358575 -0.47366822 0.015863782 -0.06836511 0.0077284733 -0.14567566 -0.05928926
-0.40902802 -0.22352463 -0.20884717 -0.06594789 -0.11247434 -0.19836457 -0.08941923 -0.20417252
-0.12147117 -0.14355724 -0.388741 -0.13311051 -0.03687225 -0.17881279 -0.073370546 -0.124013126
0.007819996 -0.29843402 -0.1475552 -0.22122574 -0.13385512 -0.22503732 -0.5080679 -0.05622772
-0.20924261 -0.11597647 -0.42799586 -0.4453502 -0.34793463 -0.3665911 -0.12750272 -0.016616663
-0.39759195 -0.2914546 -0.601323 -0.39704618 -0.42505535 -0.12793462 -0.27269262 -0.3225684
-0.3471322 -0.5811993 -0.05233197 -0.010789337 -0.2772854 -0.26216054 -0.052008662 -0.34026876
-0.21801758 -0.110460445 -0.17389032 -0.24743323 -0.2146666 -0.42629945 -0.16090398 -0.051142797
