SAC/models/reward_s0.11_a8e-2_t(-2_0.1)_safe(3, 0.3).pth (torch, 276879 bytes, 6 tensors)

linear1.weight f4 [256, 8]
0	0xbe22dcbd	-0.15904517
1	0xbd4d9549	-0.050191198
2	0xbf2474b6	-0.64240587
3	0x3e8e6cb5	0.27817312
4	0xbebbb327	-0.3666012
5	0x3e01fbad	0.12693663
6	0xbe51ae1d	-0.20476575
7	0xbeab65bc	-0.33476055
8	0xbec11466	-0.37710875
9	0x3c8eb3dd	0.01741975
10	0x3f41eb17	0.75749344
11	0xbe5e27be	-0.21694848
12	0x3aef4659	0.0018255218
13	0x3cd50ec6	0.026008021
14	0x3fcaf67f	1.5856475
15	0x3e91ba7e	0.28462595
16	0x3ed0a48c	0.4075054
17	0x3e89bd36	0.2690217
18	0xbe2d8f39	-0.16949166
19	0x3e5f4724	0.21804482
20	0x3bc04cf0	0.0058685467
21	0xbc8d2c76	-0.017233115
22	0xbfb8734f	-1.4410189
23	0x3ce65b52	0.028119717
24	0xbf3e0349	-0.7422376
25	0xbe852440	-0.2600422
26	0xbf0ca3ca	-0.5493742
27	0xbca3a57f	-0.019976376
28	0xbbf4ac1b	-0.0074668056
29	0x3d82b517	0.063821964
30	0x3f25ae20	0.6471882
31	0x3be29035	0.0069141635
32	0xbf1bcf4b	-0.6086318
33	0x3e906884	0.2820474
34	0xbe4ed147	-0.2019702
35	0xbe19fb29	-0.15037216
36	0xbd49ac85	-0.049236793
37	0x3e2d15a2	0.16902784
38	0x3fb8afb5	1.4428622
39	0x3e0e8ebe	0.1392164
40	0xbda59cf9	-0.08086581
41	0x3ea25118	0.31702495
42	0x3d5ba165	0.053620715
43	0xbe7cbb95	-0.24680932
44	0xbe48863f	-0.19582461
45	0xbdc4e772	-0.09614457
46	0x3dc60411	0.09668744
47	0x3c9ad3fa	0.018899906
48	0xbdd833e5	-0.10556773
49	0x3eaf7341	0.3426762
50	0x3f0390f3	0.5139305
51	0x3eaa816a	0.3330186
52	0xbe6dd114	-0.23224288
53	0x3e6d4b24	0.23173195
54	0x3f958b48	1.168313
55	0xbb85a041	-0.0040779416
56	0x3eca42d3	0.39504108
57	0x3d0310dc	0.0319985
58	0xbf003b67	-0.5009064
59	0xbcf335b6	-0.029688697
60	0xbb60f644	-0.0034326473
61	0xbd2f538c	-0.042804286
62	0xc038a884	-2.8852854
63	0x3f01ecfd	0.5075224
64	0x3eb83b89	0.35982922
65	0xbda0b19e	-0.07846378
66	0xbf3603bf	-0.71099466
67	0xbe0b100f	-0.13580345
68	0xbc9c1955	-0.019055048
69	0x3c8d3072	0.017235015
70	0xbf65af1f	-0.8972034
71	0x3d966a67	0.073445134
72	0x3e260123	0.16211371
73	0x3d262d85	0.040570755
74	0x3f1c89fe	0.6114806
75	0x3e7af1e2	0.24506333
76	0x3da648a2	0.08119322
77	0xbdac5631	-0.08414877
78	0x3fb32e63	1.3998531
79	0x3da72bbe	0.0816264
80	0xbf103d31	-0.5634337
81	0xbcf8bc53	-0.030363237
82	0x3ef3c35f	0.47609994
83	0x3e08a758	0.13345087
84	0xbc9fc6e1	-0.019504013
85	0x3e04e839	0.12979211
86	0x3f1bafea	0.608153
87	0xbec7e21b	-0.39039692
88	0xbe6a54b8	-0.2288388
89	0x3d1440c5	0.03619458
90	0x3e79c021	0.24389698
91	0xbf056405	-0.5210574
92	0xbf0e1bba	-0.5551106
93	0x3dd51442	0.104042545
94	0x3e29ea15	0.16593201
95	0xbd961e0e	-0.07329951
96	0x3d87fecd	0.06640396
97	0xbeae5e27	-0.34056208
98	0x3e937977	0.28803608
99	0x3b8ca260	0.0042918175
100	0x3b9de759	0.0048188386
101	0x3d8fcf60	0.070219755
102	0x3f8c5a05	1.0964972
103	0xbf1e1e45	-0.6176494
104	0xc03aa857	-2.9165246
105	0xbd994aad	-0.074849464
106	0xbead6819	-0.33868483
107	0x3e88d4a2	0.26724726
108	0xbf91ed33	-1.1400512
109	0xbf1698c8	-0.58826876
110	0xbf3b174a	-0.7308241
111	0x3d3b425a	0.045717575
112	0x3f18ac2d	0.5963772
113	0xbe9812a3	-0.2970172
114	0xbf216038	-0.63037443
115	0xbd84868c	-0.06470975
116	0x3e31e7a4	0.1737352
117	0xbe2ef5f6	-0.17086014
118	0x3fc27b3e	1.519386
119	0x3ddfc30e	0.109258756
120	0xbeb61651	-0.355639
121	0x3dd9ee19	0.10641117
122	0x3dc609b4	0.096698195
123	0xbdfe86b8	-0.12428039
124	0xbca51e56	-0.020156067
125	0x3db45428	0.08805114
126	0xbfbe18fd	-1.4851376
127	0xbf1bb0b9	-0.6081653
128	0xbd1493af	-0.036273655
129	0x3e45f99d	0.19333501
130	0x3f084069	0.5322328
131	0xbf0402fc	-0.51567054
132	0x3daa4113	0.08313193
133	0xbd970167	-0.07373314
134	0x3f4626d5	0.77403
135	0x3df3a7ce	0.118972406
136	0xbf1ec6a0	-0.6202183
137	0x3f335494	0.7005093
138	0xbda88f24	-0.08230427
139	0x3e089664	0.1333862
140	0xbe519573	-0.20467167
141	0x3e695595	0.22786553
142	0x3fa6b811	1.3024923
143	0x3df75341	0.12076426
144	0xbeab37cc	-0.33441007
145	0x3ddf8873	0.109146975
146	0xbd496267	-0.04916611
147	0xbea5cc13	-0.3238226
148	0xbe8e33f0	-0.27774
149	0xbde33ac7	-0.11095195
150	0x3db97550	0.09055579
151	0xbe4f94ad	-0.20271559
152	0xbf7b2759	-0.98106915
153	0xbdc69e1f	-0.09698128
154	0x3e93d622	0.28874308
155	0x3e0af562	0.13570169
156	0xbb23d5e7	-0.0024999322
157	0x3c1ec5d9	0.009690725
158	0x3ec85ce4	0.3913337
159	0x3e5a9e3a	0.21349421
160	0xbf19d906	-0.60096776
161	0xbf1a5882	-0.602913
162	0xbf1a87cb	-0.60363454
163	0xbb99ed2a	-0.0046974616
164	0xbd4a012d	-0.049317528
165	0x3db29803	0.087204
166	0xbfac4dbe	-1.3461225
167	0xbe405afa	-0.18784705
168	0xbed2d6e2	-0.41179568
169	0x3cb59ee3	0.02217049
170	0x3f0c2e2f	0.5475797
171	0xbdf22224	-0.11822918
172	0xbea2b96d	-0.31782094
173	0x3d24198e	0.040063433
174	0xbe9a55d2	-0.301436
175	0x3e1d3ff1	0.15356423
176	0x3f114864	0.56751084
177	0x3ee8eb70	0.45492125
178	0xbe8671d9	-0.26258734
179	0xbeae7ddb	-0.34080395
180	0x3df18425	0.11792783
181	0xbdda1ce3	-0.10650041
182	0xbf07e1aa	-0.5307871
183	0xbe1afd83	-0.1513577
184	0x3d8577b8	0.06516975
185	0x3e2325d0	0.15932393
186	0x3f05fede	0.5234202
187	0xbeb1c5f7	-0.34721348
188	0x3e51e0e5	0.20495947
189	0xbe6a80a1	-0.2290063
190	0xc01d5570	-2.4583397
191	0x3e008d94	0.12554008
192	0x3f3ae25e	0.7300166
193	0x3ed838b1	0.42230752
194	0x3c091540	0.008366883
195	0x3e88fdec	0.26756227
196	0xbd98f96b	-0.07469448
197	0xbec42b36	-0.38314217
198	0xbeb7c7b6	-0.35894555
199	0xbd375097	-0.04475459
200	0x3f322199	0.69582516
201	0x3f53606d	0.8256901
202	0xbe8f351f	-0.27970216
203	0xbe5ec465	-0.21754606
204	0xbc8ba46a	-0.017046172
205	0xbd8275fb	-0.06370159
206	0x3eca63c3	0.39529237
207	0x3eeccd59	0.46250418
208	0xbe9a4e7c	-0.30138004
209	0xbe22c77d	-0.15896411
210	0x3ed3ebfb	0.41390976
211	0xbed6aea4	-0.41930115
212	0x3da25324	0.07926014
213	0x3c806108	0.015671268
214	0xc0413148	-3.018633
215	0xbddeefd0	-0.10885584
216	0xbe9d0d80	-0.30674362
217	0x3ce8b44a	0.028406281
218	0x3df178bb	0.11790606
219	0xbec6e8a7	-0.38849375
220	0xbde74100	-0.11291695
221	0x3e1b8c16	0.15190157
222	0xbf9571c5	-1.1675345
223	0xbf109f18	-0.5649276
224	0xbe991fcd	-0.29907075
225	0x3d040af2	0.032237
226	0xbeb1d563	-0.34733114
227	0xbe15292d	-0.14566489
228	0xbeae65ee	-0.3406214
229	0xbd523902	-0.051323898
230	0xbe9de68f	-0.30839965
231	0x3cc95656	0.024577301
232	0xbd7db46a	-0.061939634
233	0x3de4365d	0.111431815
234	0x3f20730f	0.62675565
235	0x3e3b9cc1	0.18321516
236	0xbe457996	-0.19284663
237	0x3dd7fb77	0.1054601
238	0x3fb0d00c	1.3813491
239	0xbdfd8954	-0.12379709
240	0xbe925ada	-0.2858494
241	0xbe9fb7f6	-0.3119504
242	0x3e5be68c	0.21474665
243	0x3e6c702b	0.23089664
244	0xbcd599f9	-0.026074396
245	0x3d8b4848	0.06800896
246	0x3fa9685b	1.3234972
247	0xbf8b22a1	-1.0869943
248	0xbea010d5	-0.31262842
249	0x3d8a00bc	0.06738421
250	0xbd8dae9c	-0.0691807
251	0xbad9e2c6	-0.001662337
252	0x3c3cc27a	0.011520976
253	0xbd65465c	-0.055975303
254	0x3e0f5d02	0.14000323
255	0x3f0e0e0b	0.5549018

linear1.bias f4 [256]
0	0xbf165c8c	-0.58734965
1	0x3f0098cd	0.50233155
2	0x3d277376	0.040881597
3	0xbf834f36	-1.0258548
4	0xbe4f500f	-0.20245384
5	0x3c914fcb	0.017738244
6	0x3d144633	0.03619976
7	0xbf3a6db4	-0.72823644
8	0xbf8c4376	-1.0958087
9	0x3f0c791f	0.54872316
10	0x3f1c93c4	0.6116297
11	0x3cb7f391	0.022455009
12	0x3d6ed0a2	0.058304437
13	0x3ddaa1f8	0.10675424
14	0xbf42f126	-0.76149213
15	0xbe7c403e	-0.24633881
16	0xbc613b8f	-0.01374711
17	0x3d66376e	0.056205206
18	0x3e675848	0.2259227
19	0x3e22ed08	0.15910733
20	0xbf2b3005	-0.66870147
21	0x3f5ad73b	0.85484666
22	0xbed128c0	-0.40851402
23	0x3e59f64b	0.2128536
24	0x3ecdeaa0	0.40218067
25	0xbf59b2b0	-0.8503828
26	0xbddd3327	-0.10800772
27	0xbebbc89d	-0.36676493
28	0xbe046682	-0.12929729
29	0x3f78d7d3	0.9720432
30	0x3e10f9f2	0.14157847
31	0xbe2430e6	-0.16034278
32	0x3f070235	0.5273774
33	0xbe0d4f80	-0.13799858
34	0xbe0851e0	-0.13312483
35	0x3dce3882	0.10069372
36	0xbf1e2e83	-0.6178972
37	0x3f15a3d5	0.5845311
38	0xbf5644aa	-0.83698523
39	0x3ef933bb	0.4867228
40	0xbf824445	-1.0177084
41	0xbe411252	-0.18854645
42	0xbd5cb243	-0.05388094
43	0xbd2fc7ef	-0.04291528
44	0x3ebeae61	0.37242416
45	0xbf4dc018	-0.80371237
46	0x3f3a6067	0.7280335
47	0x3f3b85b6	0.732509
48	0x3ed19905	0.40937057
49	0xbf5c1e88	-0.85984087
50	0x3e3c64f9	0.18397893
51	0x3ee5dc2b	0.44894537
52	0x3ad9a947	0.0016606235
53	0xbe001b59	-0.12510432
54	0x3d5ffdf8	0.054685563
55	0xbe3af1df	-0.18256329
56	0x3eb2f0fa	0.34949476
57	0x3f32780b	0.6971442
58	0x3ec2f8c3	0.38080415
59	0xbf08c124	-0.5341971
60	0x3e5da279	0.2164401
61	0xbe6d4dbb	-0.23174183
62	0x3e8f07c7	0.2793562
63	0x3f1c6397	0.6108946
64	0xbd5578f8	-0.052117318
65	0xbf82eaab	-1.0227865
66	0x3f313277	0.6921763
67	0x3e595f6a	0.21227804
68	0x3d68b520	0.05681336
69	0x3f2deb16	0.6793684
70	0xbef73e4a	-0.4828971
71	0x3e98fd13	0.2988058
72	0x3f005605	0.50131255
73	0x3f240d77	0.64083046
74	0xbebe1650	-0.37126398
75	0xbe0b2a14	-0.1359027
76	0x3e078346	0.1323367
77	0xbeabe3f0	-0.3357234
78	0xbf5026fd	-0.8130949
79	0x3e643cfe	0.22288892
80	0xbeafcc94	-0.34335768
81	0xbe923566	-0.28556365
82	0xbee83a1e	-0.4535684
83	0x3f086b8c	0.53289104
84	0x3f47921d	0.77957326
85	0xbe6982bd	-0.22803779
86	0x3ea6800a	0.3251956
87	0xbd3c5150	-0.045975983
88	0x3e9ac707	0.3022997
89	0xbdc8ddc7	-0.09807926
90	0x3ebc3e3f	0.3676624
91	0xbf4cf6c2	-0.8006402
92	0x3f418727	0.7559685
93	0x3df73b2f	0.12071835
94	0xbf088a7e	-0.5333632
95	0x3ef5c155	0.47999063
96	0x3cd8fbfe	0.026487347
97	0xbe08396a	-0.13303152
98	0xbe03cf71	-0.12872101
99	0xbf991667	-1.1959962
100	0xbebcce62	-0.36876208
101	0xbf69abd5	-0.9127782
102	0x3f610e93	0.87912863
103	0xbf6ad805	-0.9173587
104	0xbf120ebd	-0.5705374
105	0xbed2b141	-0.4115086
106	0xbea5e3df	-0.32400414
107	0x3e196d3a	0.14983073
108	0xbf4df042	-0.8044473
109	0xbe9070b9	-0.28211
110	0x3ee4da56	0.44697827
111	0x3e63b109	0.22235502
112	0x3f0d26da	0.5513741
113	0x3f5f0177	0.8711161
114	0xbd5d3a5a	-0.054010727
115	0x3f5016a2	0.81284535
116	0xbf45de1a	-0.77292025
117	0xbd7a3a87	-0.061090972
118	0xbf61a35a	-0.8813988
119	0x3e81ef7f	0.25378034
120	0x3e8e9648	0.2784903
121	0x3ecbc3a3	0.39797696
122	0xbeaab30a	-0.3333972
123	0x3f116e7f	0.5680923
124	0xbe89de25	-0.26927295
125	0xbf76fd87	-0.964806
126	0x3e669d66	0.2252098
127	0x3cbc4606	0.022982609
128	0xbf87034a	-1.0547879
129	0xbf27236b	-0.6528842
130	0x3d331fa3	0.043731343
131	0xbf40564c	-0.7513168
132	0xbc740b77	-0.014895312
133	0xbf701b70	-0.93791866
134	0xbe2a9cce	-0.16661379
135	0xbe9700cc	-0.29492795
136	0x3f250ef2	0.6447593
137	0xbf05d2b8	-0.52274656
138	0xbe167ef1	-0.14696862
139	0xbec65cf9	-0.38742808
140	0xbe0cdef4	-0.13756925
141	0xbee0c79e	-0.43902296
142	0xbd9eddb6	-0.07757132
143	0xbe363fda	-0.17797795
144	0x3e838ddb	0.25694165
145	0xbe4e370b	-0.20138185
146	0x3e22cf32	0.15899351
147	0x3d802bc1	0.062583454
148	0xbebf0551	-0.37308744
149	0xbf69c7f3	-0.91320723
150	0xbea18a98	-0.3155105
151	0x3eac872c	0.33696878
152	0x3e911ba2	0.28341395
153	0xbecde153	-0.4021097
154	0xba83b0fa	-0.001004725
155	0xbf85a174	-1.0439897
156	0xbf00b221	-0.50271803
157	0xbf32fe34	-0.69919133
158	0x3f86f4f3	1.0543503
159	0x3f06af5c	0.5261133
160	0xbe93e315	-0.28884187
161	0xbee69522	-0.45035654
162	0xbf49f5f8	-0.78890944
163	0xbe8bac7e	-0.2728004
164	0xbe0bc38c	-0.13648814
165	0xbda07b02	-0.07835962
166	0x3c95166b	0.018199166
167	0xbe106028	-0.1409918
168	0x3c509c91	0.012732641
169	0x3d20efd7	0.03929123
170	0xbf44f944	-0.7694285
171	0x3ce355f6	0.02775095
172	0xbd1e1af3	-0.03859992
173	0x3e5ad254	0.21369296
174	0x3d9888bc	0.07447955
175	0xbf232c44	-0.6373942
176	0xbbb67798	-0.005568456
177	0xbf447f0f	-0.76756376
178	0x3e4d31e8	0.20038569
179	0x3d3bb582	0.045827396
180	0xbf8f840a	-1.121217
181	0x3c74a19e	0.014931111
182	0x3d1737ce	0.036918454
183	0xbdfd30c7	-0.12362819
184	0xbea57ff4	-0.32324183
185	0xbe7492e1	-0.23884155
186	0x3f041394	0.51592374
187	0x3f00a773	0.5025551
188	0xbf12dd79	-0.5736919
189	0xbf120702	-0.57041943
190	0xbdd640a6	-0.104615495
191	0xbf1d79a3	-0.6151373
192	0xbe752def	-0.23943304
193	0x3e518be6	0.20463523
194	0xbee9a030	-0.45630026
195	0xbeb91ff9	-0.36157206
196	0xbe945f19	-0.28978804
197	0xbf2a257a	-0.66463435
198	0xbf1569b1	-0.583644
199	0xbe888c6b	-0.2666963
200	0xbf2968e2	-0.66175663
201	0xbd4d6628	-0.050146252
202	0x3f15faed	0.5858601
203	0xbedecf0f	-0.43517348
204	0x3e5f74d0	0.21821904
205	0x3de458d9	0.11149759
206	0x3caf9a50	0.021435887
207	0xbf0a71f0	-0.54080105
208	0xbf2e1b3a	-0.68010294
209	0xbef091cf	-0.46986243
210	0x3d4c76a1	0.04991782
211	0x3d408957	0.047005977
212	0xbe9ae94e	-0.30256122
213	0xbe016c65	-0.12639005
214	0xbfa6b50c	-1.3024001
215	0x3f9fe5d9	1.2492019
216	0x3f923265	1.1421629
217	0xbecf2f26	-0.4046566
218	0xbf579d4d	-0.84224397
219	0x3e5b0ef3	0.21392421
220	0x3e05e522	0.13075688
221	0x3f3fa23a	0.74856913
222	0x3efb0f0a	0.4903491
223	0x3e9b2128	0.30298734
224	0x3cd4f76b	0.025996884
225	0x3f44eb38	0.76921415
226	0xbf1d7c65	-0.61517936
227	0x3e8c039d	0.27346507
228	0xbe5cbed7	-0.21557175
229	0x3f45157a	0.76985896
230	0xbda138ba	-0.07872148
231	0x3f5d03c8	0.86333895
232	0xbe819db3	-0.25315627
233	0xbf9e19ef	-1.2351664
234	0xbdf546ae	-0.11976372
235	0xbf8f5393	-1.119738
236	0xbeb073d0	-0.34463358
237	0xbf41f1a5	-0.75759345
238	0xbf9dfb1d	-1.2342259
239	0xbd0c1011	-0.03419501
240	0x3bdc010a	0.006713991
241	0x3d3bdd45	0.045865316
242	0xbe1200bb	-0.14258091
243	0xbe6b0af5	-0.22953399
244	0xbd8c31a5	-0.068454064
245	0xbde0118a	-0.10940845
246	0x3da24efc	0.07925221
247	0xbf2e5568	-0.6809907
248	0x3f33e5bd	0.7027243
249	0xbe65c6c9	-0.22439112
250	0x3ea01182	0.31263357
251	0xbf9efb3c	-1.2420421
252	0x3e9c54f1	0.30533555
253	0xbf139ae6	-0.5765823
254	0x3ea45332	0.32094723
255	0x3eb7de2c	0.3591169

linear2.weight f4 [256, 256]
0	0x3cb365b9	0.021899091
1	0xbd8e7fb4	-0.06957951
2	0x3d0700d5	0.032959778
3	0xbd4d7a58	-0.050165504
4	0xbd47ba0b	-0.04876141
5	0x3d31bc9e	0.04339277
6	0xbd43aac2	-0.04777027
7	0x3d4eb173	0.050462198
8	0xbcc7dde8	-0.024397805
9	0x3d2cbd4f	0.042172726
10	0xbcf23b47	-0.029569281
11	0x3ce31c4b	0.027723452
12	0xbd959ed7	-0.07305687
13	0x3c4dbb00	0.012556791
14	0x3af84507	0.001894147
15	0xbb91842b	-0.0044408045
16	0x3cff5d55	0.031172434
17	0xbc56d825	-0.013113056
18	0x3c8a81d4	0.01690761
19	0x3d15fb92	0.03661687
20	0x3c8e31b2	0.017357681
21	0xbc27feb3	-0.010253596
22	0x3d0c7c6f	0.034298357
23	0x3d3389a0	0.04383242
24	0x3d3dba98	0.046320528
25	0xbd14ab7a	-0.036296345
26	0x3cf74562	0.030184451
27	0xbcaa51c4	-0.020790942
28	0xbcde26d4	-0.027118124
29	0x3d1e9e78	0.038725346
30	0x3ca4b5c4	0.020106204
31	0xbd720c01	-0.05909348
32	0xbb760c43	-0.003754393
33	0xbd923c19	-0.07140369
34	0xbd2c0e24	-0.042005673
35	0xbd4b81bc	-0.04968427
36	0xbd34cc34	-0.044140056
37	0x3cba73a0	0.022760212
38	0xbcf3b399	-0.029748725
39	0x3c7f8257	0.01559504
40	0x3d1dff57	0.03857359
41	0xbd834449	-0.06409509
42	0xbd955f0e	-0.07293521
43	0xbcc7b5db	-0.024378708
44	0xbd497d13	-0.049191546
45	0x3d0fd606	0.035116218
46	0xbd13ae3d	-0.03605484
47	0xbdaae82a	-0.08345063
48	0xbc2da2c5	-0.010597889
49	0xbcd722f0	-0.026261777
50	0xbd5e244c	-0.054233834
51	0x3cfc0f7f	0.030769108
52	0xbdb668b0	-0.08906686
53	0xbd265c57	-0.040615406
54	0xbcf31611	-0.029673608
55	0x3caab68b	0.020838996
56	0xbb77e2db	-0.0037824425
57	0x3d745d37	0.05965921
58	0x3cbea726	0.023273062
59	0x3cc3583d	0.023845786
60	0x3c9fd3c3	0.019510156
61	0x3d5bbd4d	0.05364733
62	0x3c9d8d89	0.019232528
63	0x3cfd9f9e	0.0309599
64	0xbd83e4d6	-0.06440131
65	0x3ce99904	0.028515346
66	0xbd8344a8	-0.064095795
67	0x3cd4fa62	0.025998298
68	0x3c5015b8	0.012700491
69	0x3d20bc84	0.039242283
70	0xba4767c8	-0.0007606712
71	0x3c7a07bf	0.015260636
72	0x3cbaa404	0.022783287
73	0xbd24bd78	-0.040219754
74	0x3d0bea34	0.0341589
75	0xbd9f2226	-0.07770185
76	0x3c9afa1b	0.018918088
77	0xbd46df22	-0.04855264
78	0x3cdfe48c	0.02733066
79	0xbd8366ba	-0.06416078
80	0x3d42eac8	0.047587186
81	0xbd11d540	-0.03560376
82	0xbb92f6af	-0.0044849734
83	0xbd262fde	-0.040572993
84	0xbd61810a	-0.055054702
85	0xbbd6d448	-0.0065560676
86	0xbd397873	-0.045280885
87	0xbd692565	-0.056920428
88	0xbd73eec1	-0.059553865
89	0x3cd92e90	0.02651146
90	0xbd4efaef	-0.050532278
91	0xbd715e82	-0.05892802
92	0xbd6bde33	-0.057584953
93	0xbd40e09f	-0.047089215
94	0xbcb7fa08	-0.022458091
95	0x3d61db07	0.05514052
96	0xbd8915e5	-0.06693629
97	0xbd8000ce	-0.062501535
98	0xbccb585b	-0.024822405
99	0x3cdd9dc4	0.027052768
100	0x3cd86d11	0.026419194
101	0xbd98d02e	-0.07461582
102	0xbd782755	-0.060584385
103	0x3b57f655	0.0032953222
104	0xbcd7b31c	-0.026330523
105	0xbd3fcf37	-0.046828475
106	0xbd22eeee	-0.039778642
107	0xbd4ade73	-0.04952855
108	0xbd8d2f23	-0.06893756
109	0xbd13d8b5	-0.03609534
110	0x3d00199b	0.03127442
111	0x3b52be60	0.003215693
112	0xbc425b53	-0.011862594
113	0xbc4dcf66	-0.012561655
114	0xbd3023b4	-0.0430028
115	0x3c9e058b	0.019289752
116	0x3cb81a25	0.022473404
117	0xbd58e02d	-0.052948166
118	0x3bf6afbc	0.0075282734
119	0x3ce3e509	0.027819173
120	0xbd91ea0c	-0.07124719
121	0x3ba1364a	0.004919802
122	0x3c08b6c0	0.008344352
123	0xbd464cdf	-0.048413154
124	0xbd2cc282	-0.042177685
125	0x3cce6952	0.025196705
126	0x3d4793a8	0.0487248
127	0x3d5e57ef	0.05428308
128	0x3c9f8ea6	0.0194772
129	0xbbe21f45	-0.0069007003
130	0xbbf888e3	-0.0075846775
131	0xbcb8a230	-0.022538275
132	0x3b27dcf8	0.0025613885
133	0xbd044281	-0.032289986
134	0x3c6cc1cd	0.014450503
135	0x3b8f53e0	0.0043740124
136	0xbd85893f	-0.06520318
137	0x3c6d6bdb	0.014491047
138	0x3cf376a9	0.029719668
139	0xbd87e4b9	-0.06635422
140	0xbd18f1a6	-0.03733983
141	0x3bb90e69	0.00564747
142	0x3b9d22c5	0.0047954046
143	0x3c82527c	0.015908472
144	0xbca67084	-0.020317324
145	0xbcfd3f04	-0.030913837
146	0xbd41b0d1	-0.047287766
147	0xbce8de21	-0.028426232
148	0xbd1c76a8	-0.038199097
149	0xbd842a56	-0.064533874
150	0xbc9256f7	-0.017863734
151	0xbd1d9efd	-0.0384817
152	0x3b12c38e	0.0022394392
153	0xbd283d7a	-0.041074254
154	0x3c8c4fe3	0.017127937
155	0xbd7fe87e	-0.06247758
156	0x3c3e8592	0.011628525
157	0x3d3f990c	0.046776816
158	0x3d10952f	0.035298523
159	0xbd422f9a	-0.047408678
160	0xbd812c78	-0.0630731
161	0xbd8a4d4e	-0.06753026
162	0x3d6d2f4f	0.057906445
163	0x3d03afc0	0.03215003
164	0x3cd1eae2	0.025624696
165	0x3cb3375f	0.021876989
166	0xbd852212	-0.06500639
167	0xbd99ff69	-0.07519419
168	0xbcdf673c	-0.027270906
169	0x3cc7da70	0.024396151
170	0xbd32c3fc	-0.043643937
171	0xbdb08e00	-0.08620834
172	0xbcf9479b	-0.030429652
173	0xbd04a7be	-0.032386534
174	0xbd4c6ad4	-0.049906567
175	0xbd9dbe91	-0.07702363
176	0x3b9a7cc2	0.0047145793
177	0x3cb1e29a	0.021714497
178	0x3cfca6ba	0.03084122
179	0x3d169e4f	0.03677207
180	0xbceed320	-0.029153407
181	0xbc569758	-0.013097607
182	0xbc3e002a	-0.011596719
183	0x3d11e024	0.035614148
184	0xbd1ca040	-0.038238764
185	0xbd8abc65	-0.06774215
186	0x3ccce30a	0.025010604
187	0xbc3e30ef	-0.011608346
188	0xbbcc07e0	-0.0062265247
189	0xbccdcc54	-0.025121845
190	0xbc4318ab	-0.011907737
191	0xbd24869e	-0.040167443
192	0x3d432e04	0.047651306
193	0xbca9366f	-0.020655839
194	0x3d06940c	0.032856032
195	0x393a1946	0.00017747757
196	0xbd0378a7	-0.032097485
197	0x3c4a0ae9	0.012331703
198	0x3bcf9baa	0.0063356953
199	0xbc65cbea	-0.014025668
200	0x3d4f480c	0.05060582
201	0xbcd27bb3	-0.02569375
202	0xbd2502a8	-0.040285736
203	0xbd8911cd	-0.06692848
204	0x3cc1c41a	0.023653079
205	0xbc9d27aa	-0.019183952
206	0xbd3a937e	-0.045550816
207	0x3d23b0ab	0.039963406
208	0xbc8d0d2a	-0.017218191
209	0xbc8ea47c	-0.017412417
210	0xbb1580f4	-0.0022812458
211	0x3ce83e9b	0.028350165
212	0xbc87fae1	-0.01659912
213	0x3c87f30e	0.01659539
214	0xbd2e607c	-0.042572483
215	0xbd87b588	-0.06626421
216	0x3d6516c8	0.05592993
217	0xbc95f569	-0.018305497
218	0xbdbcc556	-0.09217326
219	0xbd7172f0	-0.058947504
220	0x3d1c00f6	0.038086854
221	0xbd807c9a	-0.06273766
222	0xbd663e2b	-0.05621163
223	0xbcfe94f7	-0.031076891
224	0xbd3bb32e	-0.045825176
225	0xbd218db7	-0.03944179
226	0xbd7d8f0b	-0.061903995
227	0xbd72f658	-0.059316963
228	0x3cd5ea76	0.026112776
229	0xbd094713	-0.033515047
230	0xbd6bc067	-0.057556536
231	0x3a8468d8	0.0010102047
232	0xbc543ed4	-0.0129544325
233	0xbc34e555	-0.011041005
234	0xbd388ef7	-0.045058217
235	0xbd5ff1dc	-0.054674014
236	0xbd5b9f66	-0.05361881
237	0xbd28ba25	-0.041193146
238	0xbd80343d	-0.06259964
239	0xbcdaba8b	-0.026700279
240	0x3d5fb890	0.054619372
241	0x3bf64510	0.007515557
242	0x3a843e7b	0.0010089421
243	0x3c21b517	0.009869835
244	0xbd64d9a8	-0.055871636
245	0xbd8facee	-0.070154056
246	0x3cd60c1c	0.026128821
247	0xbd6040e3	-0.05474938
248	0xbd1b4c80	-0.037914753
249	0x3ca045c0	0.01956451
250	0x3d38c1e8	0.0451068
251	0xbd949645	-0.07255224
252	0xbc8d2238	-0.01722823
253	0xbc92baaf	-0.017911283
254	0x3ce55144	0.027992852
255	0x3ca4f29b	0.020135215

linear2.bias f4 [256]
0	0x3d05054d	0.03247576
1	0xbc07ce83	-0.008288982
2	0x3d872e38	0.066006124
3	0xbd040b69	-0.032237444
4	0xbcbda3ac	-0.023149334
5	0xbb861098	-0.0040913336
6	0xbd89903f	-0.06716966
7	0x3ced778b	0.028987667
8	0x3bfe05ce	0.007752157
9	0xbd898083	-0.06713965
10	0xbd36e77a	-0.044654347
11	0x3cc07317	0.02349238
12	0x3c9021ec	0.0175943
13	0x3c63d4db	0.013905729
14	0xbda865e5	-0.0822256
15	0x3eb2bfe3	0.34912023
16	0xbd8fd575	-0.070231356
17	0xbda1b661	-0.07896114
18	0x3c80399b	0.015652468
19	0xba3bc8a0	-0.00071633793
20	0xbc6d660c	-0.014489662
21	0x3b0f6e77	0.002188591
22	0x3b401465	0.002930903
23	0xbd0db45d	-0.034595836
24	0xbd5266d0	-0.05136758
25	0x3c0e7d1b	0.00869682
26	0xbc6a3f22	-0.014297279
27	0x3d3661df	0.04452693
28	0x3c874d16	0.01651625
29	0x3e2c3939	0.16818704
30	0xbd1a2376	-0.037631474
31	0x3ce43972	0.027859423
32	0xbd87d65d	-0.066326834
33	0xbd019961	-0.031640414
34	0xbab00185	-0.0013428187
35	0xbd3ef902	-0.04662419
36	0xbcdd746a	-0.02703305
37	0xbda2485a	-0.07923956
38	0xbc412857	-0.011789403
39	0x3d2477e6	0.040153407
40	0xbca58e4b	-0.020209452
41	0xba58749f	-0.0008257124
42	0xbd965e71	-0.07342232
43	0x3a9c6882	0.0011933001
44	0x3c639822	0.013891252
45	0xbc89c5d7	-0.01681797
46	0xbd415a2d	-0.04720514
47	0xbd54b60d	-0.05193143
48	0x3cc39601	0.023875238
49	0x3d02ee11	0.03196532
50	0x3c285526	0.010274207
51	0x3d3436ee	0.043997698
52	0xbd6fb512	-0.05852229
53	0x3d592315	0.053011972
54	0xbda62ac7	-0.08113628
55	0x3bfa59cf	0.0076401005
56	0xbd989f35	-0.07452241
57	0xbcaf1b50	-0.021375328
58	0x3cd795a2	0.026316468
59	0x3ba8715b	0.005140466
60	0xb77094c4	-1.4339752e-05
61	0xbd32b143	-0.04362608
62	0x3cf9eea8	0.030509308
63	0xbd5bc731	-0.05365676
64	0x3e04aca7	0.12956487
65	0x3c360969	0.011110642
66	0xbd8a4a9a	-0.0675251
67	0xbca90775	-0.020633439
68	0x3e0cb133	0.13739471
69	0xbd6dd483	-0.058063995
70	0xbbbabf15	-0.0056990483
71	0xbd14c3f2	-0.03631968
72	0xbd6a9670	-0.057272375
73	0xbd00e912	-0.031472273
74	0x3e38fff6	0.18066391
75	0xbce0db3a	-0.027448285
76	0x3c5f89c2	0.013643684
77	0x3cb0fc51	0.021604689
78	0xbb2d5fbb	-0.0026454765
79	0x3ddc3c42	0.10753681
80	0x3e448170	0.19190001
81	0xbd0175a7	-0.031606343
82	0xbca22ae8	-0.01979585
83	0xbce03d15	-0.027372876
84	0x3d27b183	0.040940773
85	0x3cd19cf3	0.025587535
86	0xbd72c817	-0.05927285
87	0x3cc67dd2	0.024229918
88	0xbd9d33ae	-0.07675873
89	0x3c817b45	0.01580585
90	0xbd580c03	-0.05274583
91	0x3d573e05	0.05254938
92	0xbc23acc8	-0.009989925
93	0x3d3d8cda	0.046276905
94	0x3d3dd978	0.046349972
95	0x3c968cb1	0.018377634
96	0x3d1978ef	0.037468847
97	0x3dd7790f	0.10521137
98	0xbd410f08	-0.047133476
99	0xbd7e3c94	-0.06206949
100	0xbbbc70b7	-0.0057507413
101	0xbd4b4c3d	-0.049633253
102	0x3e52dc07	0.20591746
103	0xbd2df1bc	-0.042466864
104	0x3d04ba10	0.032404006
105	0xbd5206cc	-0.051276013
106	0x3d0f7d93	0.035031866
107	0x3d6bf042	0.057602175
108	0x3c164ede	0.009174077
109	0xbc1ef4f3	-0.009701955
110	0xbc1fda86	-0.00975669
111	0xbc231922	-0.009954723
112	0xbd446f46	-0.04795768
113	0xbcb20f4d	-0.021735812
114	0x3cd704b5	0.026247362
115	0x3e07facf	0.1327927
116	0x3b0e006a	0.0021667727
117	0x3ad0aa7b	0.0015919948
118	0x3f15f1dd	0.5857218
119	0xbd75dd56	-0.060025536
120	0x3d29c375	0.041446168
121	0xbd089bfb	-0.03335188
122	0xbd943ca3	-0.07238128
123	0xbc952fc3	-0.018211251
124	0x3c9011b4	0.017586567
125	0x3d4b577f	0.04964399
126	0xbd44ef49	-0.048079763
127	0x3b8ed729	0.004359145
128	0xbcc78152	-0.024353657
129	0xbd5ed17f	-0.05439901
130	0xbd9a2809	-0.07527167
131	0x3d077fc1	0.03308082
132	0xbd7fbe57	-0.06243738
133	0x3d45ccb5	0.048290927
134	0x3bf791be	0.0075552156
135	0xbd7b07c2	-0.061286695
136	0x3d1272d5	0.035754044
137	0x3bec6b1c	0.007214917
138	0x3d029704	0.0318823
139	0x3c0881bb	0.008331711
140	0xbd0aefda	-0.033920147
141	0x3d28b55e	0.04118859
142	0x3c99e125	0.018784115
143	0xbda1fac3	-0.07909157
144	0x3d9501c1	0.07275725
145	0x3d1a901d	0.037735093
146	0x3c739e9e	0.01486936
147	0x3d40abeb	0.047038954
148	0xbc8d1e12	-0.017226253
149	0x3dafeeb1	0.08590449
150	0xbd1d2378	-0.038363904
151	0x3d917cc1	0.07103873
152	0xbb9ec84b	-0.004845654
153	0x3d5a7ec9	0.053343568
154	0xbd5a2432	-0.053257175
155	0xbcd91a69	-0.026501851
156	0x3e6b59a6	0.22983417
157	0x3e0db8e9	0.13840069
158	0xbd66cc97	-0.056347456
159	0x3db7822e	0.08960377
160	0x3aff4bfd	0.0019477602
161	0x3c2aeffc	0.010433193
162	0xbc611682	-0.013738276
163	0xbcd4ed07	-0.02599193
164	0x3cc4c964	0.024021812
165	0xbd81fba0	-0.06346822
166	0x3e6894c9	0.22713007
167	0x3d395ec9	0.04525641
168	0xbd0b42e4	-0.03399934
169	0x3d4a9760	0.04946077
170	0xbc809558	-0.015696213
171	0x3f2e39b5	0.68056804
172	0x3aaa9792	0.0013015142
173	0xbb1e0b6d	-0.0024115697
174	0x3ead46ff	0.33843228
175	0xbba29f66	-0.0049628494
176	0x3d153cc4	0.036434904
177	0x3ef3e853	0.47638187
178	0xbc01fe9f	-0.007934242
179	0x3da3c1a6	0.0799592
180	0x3c7e7d8c	0.015532862
181	0x3e816daf	0.25278994
182	0x3d1ec645	0.038763303
183	0x3c429245	0.011875694
184	0xbcdb9391	-0.026803764
185	0x3cf2e804	0.02965165
186	0x3bf40d59	0.00744788
187	0xbd3d642f	-0.04623812
188	0xbc281202	-0.0102582
189	0xbcc22f96	-0.023704331
190	0xbce944c4	-0.028475173
191	0x3e907f57	0.28222153
192	0x3c237bbc	0.009978231
193	0x3d28ae3e	0.041181795
194	0xbbd6942c	-0.006548425
195	0xbd729126	-0.059220456
196	0x3e1e6bc4	0.15470797
197	0xbd80ea75	-0.06294719
198	0xbd57006e	-0.052490644
199	0x3c67d10e	0.014148964
200	0xbd6f8df1	-0.058484975
201	0xbcdbf660	-0.02685088
202	0xbd3ab8d8	-0.045586437
203	0xbc5a9a46	-0.013342446
204	0x3d18f704	0.037344947
205	0xbceb668b	-0.02873542
206	0x3c89273f	0.016742347
207	0x3f08a067	0.53369755
208	0x3cef52f3	0.029214358
209	0xbc941022	-0.018074099
210	0x3ba8ee58	0.005155366
211	0x3d5b7a3b	0.053583365
212	0xbc8459c6	-0.016156089
213	0x3f0dff4e	0.5546769
214	0x3be60c2e	0.007020495
215	0xbcf5d438	-0.03000842
216	0x3a7366c5	0.0009285028
217	0xbcf9f93f	-0.030514358
218	0x3d1304ea	0.03589336
219	0x3e0f5564	0.13997418
220	0xbd2246d4	-0.03961833
221	0xbd86a11e	-0.065736994
222	0xbcbbedd5	-0.022940556
223	0x3b57c811	0.0032925645
224	0xbd81aecd	-0.06332169
225	0xbd931260	-0.07181239
226	0xbc8ca18a	-0.017166872
227	0x3cba4492	0.022737775
228	0xbd537e97	-0.051634397
229	0x3cf96e68	0.030448154
230	0xbc898fe0	-0.016792238
231	0xbd495f79	-0.049163315
232	0xbd8d5f7a	-0.06902976
233	0xbc974bd1	-0.01846877
234	0x3bff1414	0.007784376
235	0x3d10477f	0.035224434
236	0xbc4bd214	-0.012440223
237	0x3e534c5f	0.20634602
238	0x3dd209a9	0.10255749
239	0xbd963b93	-0.07335582
240	0x3d26200e	0.040557913
241	0xbdb6d4a6	-0.08927278
242	0x3e341bc6	0.1758872
243	0x3dae4ce1	0.08510757
244	0x3c8f1cef	0.017469851
245	0xbd9a0f3c	-0.07522437
246	0xbd7aa000	-0.061187744
247	0xbc1c9042	-0.009555878
248	0xbce79c01	-0.02827263
249	0xbd87319f	-0.06601261
250	0x3e64743b	0.22309963
251	0x3c861ae4	0.016370244
252	0x3ea85a3f	0.32881352
253	0x3d76d345	0.060260076
254	0x3e0d6a7c	0.13810152
255	0x3d910622	0.07081248

mean_linear.weight f4 [1, 256]
0	0x3c06fddd	0.008239237
1	0x3b83c64b	0.004021441
2	0xbd19b1ee	-0.037523203
3	0xbc0ceb3c	-0.008601006
4	0xbbf6d980	-0.0075332522
5	0x3c1b9ee7	0.0094983345
6	0xbc422a77	-0.011850945
7	0xbb94a3e7	-0.0045361402
8	0xbc290644	-0.010316435
9	0x3bd97b05	0.0066369795
10	0x3a5454aa	0.0008099774
11	0xbb6d9437	-0.0036251673
12	0xbb91cd5b	-0.004449529
13	0xbabc381e	-0.0014359986
14	0xbb8afcbe	-0.004241555
15	0x3d5c2cfb	0.053753834
16	0xbbe504ef	-0.0069891135
17	0x3a09c0f9	0.00052548904
18	0xba0e4dd4	-0.00054284674
19	0xbc43e49b	-0.011956359
20	0xbc17c959	-0.009264314
21	0xbbfaa5d7	-0.007649164
22	0x3b033cde	0.0020025293
23	0x3c31821d	0.010834244
24	0x3c3ceea6	0.011531508
25	0x3c3f3852	0.011671143
26	0x3c10d362	0.00883946
27	0x3bcb6ddb	0.006208164
28	0x380350bc	3.1308024e-05
29	0x3b5f7471	0.0034096504
30	0x3c07f8cb	0.008299063
31	0xbbe0949d	-0.0068536536
32	0xbbd18e3b	-0.006395129
33	0x3bf63304	0.0075134058
34	0x3b5627dd	0.003267757
35	0xbc19d419	-0.009388947
36	0xbbae9d20	-0.0053287894
37	0xbc2c2cfa	-0.01050877
38	0xbc635225	-0.013874565
39	0xbc6d2eaa	-0.014476458
40	0xbbdad331	-0.006678008
41	0xbb2f8dea	-0.0026787468
42	0xbaf58d30	-0.0018734094
43	0xba9a8433	-0.0011788666
44	0xbc1bb261	-0.009502978
45	0x3b8f57e3	0.0043744906
46	0xbbdf3b39	-0.00681248
47	0xbbeddd9c	-0.007259084
48	0x39cb9032	0.0003882661
49	0x3bbea9e8	0.0058185942
50	0x3c1bb1f5	0.0095028775
51	0xbc0c6ecd	-0.008571339
52	0xbaa039aa	-0.0012224216
53	0x3befccc5	0.0073181116
54	0xbb2659e5	-0.002538317
55	0xb6a79687	-4.9945115e-06
56	0x3c1dbeed	0.00962804
57	0x3bdefdb2	0.006805145
58	0x3b91f9ea	0.004454841
59	0xbb82440a	-0.003975396
60	0xbb0fdac5	-0.0021950465
61	0xbb067331	-0.0020515437
62	0x3bc2fb59	0.005950373
63	0xbc0111a3	-0.00787774
64	0xbd9d12ad	-0.07669578
65	0x3b0bb0eb	0.0021315168
66	0xbc64c335	-0.013962557
67	0x3b7b2672	0.0038322476
68	0x3bb7c52e	0.0056082224
69	0xb5246e95	-6.125568e-07
70	0x3c0c4e9c	0.008563664
71	0xbb533598	-0.003222799
72	0xbc54a97c	-0.012979861
73	0xbb83cec0	-0.0040224493
74	0x3cdaec01	0.026723864
75	0x3c0400c5	0.008056824
76	0x3c0220c8	0.007942386
77	0x39fb1844	0.0004789253
78	0x3c1f1252	0.009708958
79	0x39eca03e	0.00045132817
80	0x3d8162ff	0.0631771
81	0xbaec7543	-0.0018040318
82	0x3b2f03bf	0.0026705114
83	0x3c13b165	0.009014462
84	0xbc12e1e1	-0.008964987
85	0xbbce02cf	-0.006286956
86	0xbae8d692	-0.0017764142
87	0xbd365d0b	-0.044522326
88	0x3b6d325c	0.0036193347
89	0xba9d6cae	-0.0012010538
90	0x3b2933fc	0.0025818339
91	0xbc0f9c6c	-0.008765321
92	0xbc2e6bc9	-0.010645815
93	0xbcfec19e	-0.031098183
94	0x3c028456	0.007966122
95	0x3be21027	0.006898898
96	0xb9b11069	-0.00033772297
97	0xbcd54e78	-0.026038393
98	0xbc193a32	-0.009352254
99	0xbbe6548b	-0.0070291213
100	0x3be9c016	0.007133494
101	0xbaae5d5b	-0.0013302969
102	0xbdda4fec	-0.10659775
103	0x3c058e69	0.008151629
104	0x3be6276c	0.0070237424
105	0x3b27285e	0.0025506238
106	0xba4a0018	-0.00077057024
107	0x3b1dbe59	0.0024069755
108	0xbb37a376	-0.0028021014
109	0xbbb5a7de	-0.005543693
110	0x3a169192	0.00057437376
111	0x3c78f610	0.015195385
112	0xbc843a4d	-0.016141081
113	0x3a04d0f8	0.0005066539
114	0xbb8abd06	-0.004233959
115	0x3d0ac49f	0.03387892
116	0xbc72d974	-0.014822353
117	0x3b3eb199	0.0029097556
118	0x3d81547c	0.06314942
119	0x3b9e79d6	0.0048363013
120	0x3be4f8fd	0.0069876895
121	0xba452351	-0.0007520216
122	0xbb696c35	-0.0035617475
123	0xbb77bdb5	-0.0037802283
124	0xba58c401	-0.0008268953
125	0xbc09d573	-0.008412707
126	0xbbe3d481	-0.0069528227
127	0x3bf1c31a	0.0073779942
128	0xbc77a804	-0.015115742
129	0x3bf2024e	0.0073855286
130	0xbc1bc36e	-0.009507043
131	0xbbe2b13a	-0.0069180997
132	0x3c2149cc	0.009844255
133	0xb9ac3c41	-0.0003285129
134	0x3b936a49	0.004498754
135	0xbbe3460d	-0.006935841
136	0xbbc60368	-0.0060428865
137	0x39959949	0.000285337
138	0x3c1a122b	0.009403746
139	0x3c0fdb62	0.008780332
140	0x3c19d1b1	0.009388373
141	0x3c095b1b	0.008383538
142	0xbc03aa4e	-0.008036209
143	0x3b3fe308	0.0029279608
144	0xbc426672	-0.011865245
145	0x3c37a479	0.011208647
146	0x3b8a9b5d	0.0042299465
147	0xbbda29e6	-0.0066578267
148	0xbc1841b5	-0.0092930095
149	0xbb87096a	-0.0041209953
150	0xbb404d6d	-0.0029343024
151	0x3bccabad	0.0062460513
152	0x3bf828ef	0.007573239
153	0xbb39550f	-0.0028279459
154	0xbb5fa28d	-0.0034123987
155	0xbabbc6f0	-0.0014326256
156	0x3d7d9f98	0.06191978
157	0x3ab189b2	0.0013545065
158	0x3c218c52	0.009860115
159	0xbdd0625b	-0.1017501
160	0x3c014a69	0.007891276
161	0xbc05c70c	-0.008165132
162	0x3a63258b	0.0008664957
163	0x3bb6adf4	0.005574936
164	0xbd2ea321	-0.04263604
165	0x3c1abcb1	0.009444402
166	0x3db0556c	0.08610043
167	0x3bed8781	0.0072488193
168	0xbc16d753	-0.009206611
169	0x3a9f7560	0.0012165718
170	0xbcb92413	-0.02260021
171	0x3d6db4d1	0.058033768
172	0x3c171aa6	0.009222662
173	0x3be9b6ee	0.0071324026
174	0x3d8555fd	0.065105416
175	0x3b842e76	0.004033859
176	0xbb15b20b	-0.0022841718
177	0x3d4fc882	0.05072833
178	0xbb2b94e9	-0.0026181287
179	0xbb8cb0fe	-0.00429356
180	0xbc01da07	-0.007925517
181	0x3b21ccf8	0.0024688821
182	0x3b857d2d	0.00407376
183	0x3b61d9ac	0.0034462018
184	0x3bca9a90	0.006182976
185	0xbbc9dc8d	-0.006160325
186	0xbb4a4e96	-0.0030869595
187	0x3c01cf74	0.007922996
188	0x3b3590a2	0.0027704616
189	0x3c0594e6	0.008153176
190	0x3c1e730c	0.009670984
191	0xba4ea4aa	-0.0007882813
192	0xbbf8dcfc	-0.0075947028
193	0x3a726e6b	0.0009248021
194	0x3c4ef7d8	0.012632333
195	0x3c5dda18	0.013540767
196	0xbdf3aec4	-0.11898568
197	0xbc202e4f	-0.009776666
198	0xbdce04f0	-0.100595355
199	0xbbcb60a9	-0.006206591
200	0xbc1296d5	-0.008947094
201	0xbc2cb843	-0.010541978
202	0x3c179e67	0.009254075
203	0xba190ee0	-0.00058387034
204	0x3b14305d	0.0022611835
205	0xbb0b4988	-0.0021253545
206	0x3bd6bcfc	0.0065532904
207	0x3d6d954b	0.058003705
208	0x3c17c003	0.009262088
209	0xba98110e	-0.0011601762
210	0x3b1ea9c4	0.0024210075
211	0x3c0ba609	0.008523473
212	0xbb80633a	-0.0039180787
213	0x3d3129c1	0.04325271
214	0xb971fce9	-0.00023077767
215	0xbbec2105	-0.0072060847
216	0x3ab1926c	0.0013547665
217	0x3bf03327	0.0073303166
218	0xbba7afa0	-0.0051173717
219	0x3c73581c	0.01485255
220	0xbbdd5c46	-0.0067553846
221	0xbc9dc6e1	-0.019259872
222	0xbc0dd93a	-0.008657748
223	0x3c186b43	0.009302917
224	0x3c2b6b7b	0.010462637
225	0x3c1d931d	0.009617594
226	0x3b940553	0.0045172363
227	0x3c052419	0.008126282
228	0xbc2a1567	-0.010381079
229	0x3c1a26c6	0.009408658
230	0xbc006ff1	-0.007839189
231	0x38a20ade	7.726786e-05
232	0x3b1a0936	0.0023504025
233	0xbbb79638	-0.0056026243
234	0xbbbf992b	-0.0058471165
235	0xbc1bfdbf	-0.009520947
236	0xbbc06b62	-0.005872176
237	0x3d316085	0.04330494
238	0xbdb2cda5	-0.0873063
239	0xbb9dcd2d	-0.0048157186
240	0xbb3a2719	-0.0028404652
241	0x3be14052	0.0068741227
242	0x3d07e4dd	0.033177245
243	0x3bb92413	0.0056500523
244	0xbc0ba903	-0.008524182
245	0xbc0cb214	-0.008587379
246	0xbb2899dd	-0.0025726475
247	0xbc136ca2	-0.008998068
248	0xb9eff559	-0.0004576843
249	0xbc4b1b30	-0.012396619
250	0x3c74ace0	0.014933795
251	0x3c120429	0.008912125
252	0x3d6669c7	0.05625322
253	0x3c245300	0.010029554
254	0x3c3ee6c4	0.0116516985
255	0xbc186c5a	-0.009303177

log_std_linear.weight f4 [1, 256]
0	0xbbedb513	-0.0072542517
1	0x3c0a37bc	0.00843614
2	0xbb9a0596	-0.004700373
3	0xbc1b4d70	-0.009478912
4	0x3c07e2cc	0.008293819
5	0xbc0fb612	-0.008771436
6	0xbc452046	-0.01203162
7	0xbbf24b71	-0.007394247
8	0x3befd8cd	0.007319546
9	0xbbbc3771	-0.005743914
10	0xbaee3c7a	-0.0018175982
11	0x3bc8d0bb	0.0061283982
12	0xbbef52ca	-0.0073035704
13	0x3be66176	0.007030661
14	0x3a8faf16	0.0010962214
15	0xbd0704f4	-0.032963708
16	0xbbec414e	-0.0072099334
17	0xba397d8f	-0.00070758996
18	0x39fa1232	0.00047697272
19	0xbc0ba760	-0.008523792
20	0x3bd7f136	0.006590034
21	0x3c19dd98	0.009391211
22	0x39c8ba91	0.00038285975
23	0x3c0246e4	0.007951472
24	0xba630e5f	-0.0008661504
25	0xbb9c31c9	-0.004766677
26	0xbc071f76	-0.008247247
27	0xbc4d90c5	-0.012546723
28	0x3b22fbaf	0.0024869253
29	0xbb4008b8	-0.0029302072
30	0xbc40a686	-0.011758452
31	0x3bd6db62	0.006556914
32	0x3bdbaca3	0.0067039295
33	0xba6d2704	-0.00090466463
34	0xbbd187ec	-0.006394377
35	0x3c0ba447	0.0085230535
36	0x3c07e694	0.00829472
37	0x3b15078d	0.0022740096
38	0x3833a6f7	4.2832424e-05
39	0xbb82e89f	-0.0039950158
40	0x3b96466c	0.0045860317
41	0x3c2c64df	0.010522096
42	0x3a485415	0.0007641924
43	0x3b4bf26e	0.003111984
44	0x3c180fa9	0.009281077
45	0x3b32117c	0.0027171066
46	0xbbd00dc4	-0.0063492972
47	0xbbecd57a	-0.007227597
48	0xbb3f6605	-0.0029205095
49	0x3c1777e8	0.0092448965
50	0xbc106a96	-0.008814475
51	0x3b5a83db	0.0033342752
52	0xbb4010d9	-0.0029306917
53	0xbbf7a6ac	-0.0075577106
54	0xbc005e05	-0.007834916
55	0x3a44bbe7	0.0007504806
56	0x3b33fc94	0.002746378
57	0x3c2793ba	0.010228092
58	0xbc16af20	-0.0091970265
59	0xbb335d84	-0.0027368972
60	0x3ba29cf0	0.004962556
61	0x3975af2b	0.00023430276
62	0x3ca1240a	0.019670505
63	0x3c186569	0.009301522
64	0xbc6a356e	-0.014294965
65	0xbc125970	-0.008932456
66	0xbc651d33	-0.013984012
67	0xbc0f7554	-0.008756001
68	0x3b31c1c9	0.0027123562
69	0x398809bb	0.0002594719
70	0xbbfab81c	-0.007651342
71	0x372d7314	1.0338397e-05
72	0xbc04aed3	-0.008098322
73	0xbb6b28ed	-0.0035882548
74	0x3b820d0d	0.003968841
75	0xbbdfaa38	-0.0068257116
76	0x3c1aa211	0.009438054
77	0x3ba07330	0.004896544
78	0x3bf97830	0.0076132044
79	0x3c0cc82a	0.008592645
80	0xbbd5454a	-0.006508504
81	0x3ab7568b	0.0013987584
82	0x3c02a27f	0.007973312
83	0xbbf01b94	-0.0073275063
84	0xbb8b709e	-0.0042553684
85	0xbc3706f0	-0.011171088
86	0xb845f535	-4.7196827e-05
87	0xbbafbae5	-0.0053628557
88	0xbbfb92c0	-0.007677406
89	0xbb89f055	-0.004209558
90	0x3b843458	0.00403456
91	0x3bd33ef5	0.006446714
92	0x3cad2804	0.021137245
93	0xbac3d8be	-0.0014941914
94	0x3c09ae62	0.0084033925
95	0x39b0ce4d	0.00033723042
96	0xb8d6dfff	-0.00010246038
97	0xbafe08ac	-0.0019381247
98	0xbc13becb	-0.009017657
99	0x3911a7ed	0.00013890835
100	0xbc27b7d7	-0.010236702
101	0x39db870d	0.00041871556
102	0x3c699bbb	0.01425832
103	0xbb7a8657	-0.0038227045
104	0xbc0afd24	-0.008483205
105	0xba31af9b	-0.00067781814
106	0x3b60915e	0.0034266333
107	0x3c4288a8	0.011873402
108	0xbb377e85	-0.0027998996
109	0x3c71b57e	0.014752744
110	0x3a21d986	0.0006174076
111	0xbc2c733b	-0.01052552
112	0xbb40dd70	-0.0029428862
113	0x3ad9a7ca	0.0016605791
114	0xbc660243	-0.014038625
115	0xbb18fd66	-0.0023344397
116	0x3bb96187	0.005657378
117	0x3b31e243	0.002714292
118	0xbc577dc5	-0.013152544
119	0x3b7f1ffb	0.0038928974
120	0xbc2cb9b6	-0.010542324
121	0xbb82dc6c	-0.0039935615
122	0xbc56b142	-0.013103785
123	0x3c01707c	0.0079003535
124	0xbbc479fc	-0.005995987
125	0xbb8de7fb	-0.0043306327
126	0x3b18616f	0.0023251434
127	0xbc60a21c	-0.013710525
128	0x3ad98995	0.0016596789
129	0x39c1fcf6	0.000370003
130	0xbb64cc94	-0.0034911977
131	0x3bf456c5	0.007456633
132	0x3c26e864	0.010187242
133	0xb9dd3560	-0.00042192172
134	0xb9811631	-0.0002462133
135	0xbc456627	-0.012048281
136	0x3b1a33e4	0.0023529464
137	0x3bc6bb78	0.0060648285
138	0x3c10bbb7	0.008833817
139	0x3bfc02d9	0.007690769
140	0xbc010512	-0.007874744
141	0xbc0cbf34	-0.008590508
142	0x3beb810b	0.007187014
143	0x3c4696dd	0.01212093
144	0x3b696d7f	0.0035618243
145	0xbbdafeb2	-0.006683194
146	0xbc101880	-0.008794904
147	0xbc0eb423	-0.00870994
148	0x3c282e94	0.010265011
149	0xbbcf9d78	-0.0063359104
150	0xbc6c54b7	-0.0144244945
151	0x3c0eaef0	0.008708701
152	0x3bce6ddf	0.0062997187
153	0x3c4757a3	0.01216689
154	0xbc248c98	-0.010043286
155	0x3b96a97c	0.004597841
156	0xbd6b6181	-0.057466034
157	0xbb87da1f	-0.004145875
158	0xbbcc42bd	-0.0062335418
159	0x3c31fb47	0.010863132
160	0x3c2d97ac	0.010595243
161	0xbc2830da	-0.010265553
162	0x381be024	3.7163627e-05
163	0x3c113557	0.008862815
164	0xbaec96b2	-0.0018050282
165	0xbc0e34f6	-0.008679619
166	0x3da9b3cc	0.08286247
167	0xbbdf5460	-0.006815478
168	0xb9039594	-0.00012548856
169	0x3b423979	0.0029636307
170	0xbaa8e0af	-0.0012884344
171	0xbb8633d0	-0.004095532
172	0x3c0938ec	0.008375388
173	0xbbe9aecd	-0.0071314336
174	0xbc90c342	-0.017671231
175	0x3b63b5e5	0.0034745869
176	0xb98c29c6	-0.00026734004
177	0x3bd82438	0.0065961145
178	0xbb098441	-0.002098337
179	0xba1a75a0	-0.0005892161
180	0x3c6edc9a	0.014578963
181	0xbbf5118e	-0.0074788993
182	0x3bdfb8d1	0.0068274518
183	0xba2e75bd	-0.00066551176
184	0xbbd7ba0a	-0.006583457
185	0xbbc24cdd	-0.005929573
186	0xbc1489c2	-0.009066047
187	0xbb5fb966	-0.0034137606
188	0xbb904f63	-0.004403995
189	0x3c2e58f5	0.010641326
190	0x3bdefe8a	0.0068052458
191	0xbc1580f3	-0.009124982
192	0x3c32f4bf	0.01092261
193	0x3a0cdb22	0.00053732295
194	0x3bb37c8d	0.005477494
195	0x3831a980	4.2357948e-05
196	0x3bb0fb4f	0.005401052
197	0x3c146b1b	0.009058739
198	0x3c8a4663	0.016879266
199	0xbc14e6bc	-0.0090882145
200	0xbc21a3f3	-0.009865749
201	0x3b0c1eb8	0.0021380614
202	0xbc0959ae	-0.008383198
203	0x3bf43f60	0.007453844
204	0x3a006f1e	0.000489937
205	0x3c8729f0	0.01649949
206	0xbc066bda	-0.008204425
207	0xbaac53b1	-0.00131475
208	0x3bf020b6	0.007328118
209	0xbc371e68	-0.011176683
210	0xbb0c039d	-0.0021364458
211	0x3bebc563	0.007195161
212	0xbb0cf91d	-0.0021510788
213	0xbccd3bf8	-0.02505301
214	0x3b827c6b	0.003982117
215	0x3c651711	0.01398255
216	0xbbfb1e84	-0.00766355
217	0xbae115c9	-0.001717263
218	0xbb994d0c	-0.004678374
219	0xbc83cede	-0.016089853
220	0x3bc61b8b	0.006045764
221	0x3cdfcf6a	0.027320582
222	0xbc168cec	-0.009188872
223	0x3c15326c	0.00910626
224	0x3c1a8324	0.00943068
225	0x3c08df5f	0.008354037
226	0xbc064e74	-0.008197416
227	0xbc2fd3f9	-0.010731691
228	0xbc0d068a	-0.008607516
229	0xba92fcb0	-0.0011214223
230	0x3b03f71a	0.0020136298
231	0xb8ae45c8	-8.309964e-05
232	0xbc3bd372	-0.011463987
233	0xbb38e0cb	-0.002821016
234	0xbc27ed01	-0.010249377
235	0xbc0fce4e	-0.008777214
236	0xbb378007	-0.0027999894
237	0x3b331c4a	0.0027330094
238	0x3cae10fd	0.021248335
239	0x3aef6939	0.0018265612
240	0x3b351c65	0.0027635333
241	0x3bdf49c0	0.0068142116
242	0xbc050460	-0.008118719
243	0xbbf692b6	-0.0075248135
244	0x3c139dee	0.009009821
245	0xbc2a3b26	-0.010390079
246	0xbbd02423	-0.006351964
247	0x3c39a8ee	0.01133178
248	0x39fb6bf7	0.0004795489
249	0xbc9c425e	-0.019074615
250	0x3b09c3bb	0.0021021205
251	0x3c1a99d7	0.009436092
252	0xbaf3fabc	-0.0018614153
253	0x3bc58000	0.0060272217
254	0x3936a8ec	0.00017419801
255	0xbb722864	-0.0036950344
