SAC/models/reward_s0.11_a8e-2_t(-2_0.1)_safe(3, 0.2).pth (torch, 276879 bytes, 6 tensors)

linear1.weight f4 [256, 8]
-0.36125448 0.098927446 -0.38730448 0.19658613 -0.23539042 0.12084241 1.4917063 -0.3674457
-0.58058804 0.133202 0.57322514 -0.28527436 0.0040284726 0.002676182 1.8757911 0.44569832
0.63791025 0.19069706 0.103615984 0.0268246 -0.01875239 -0.027840748 1.5158665 0.002863803
-0.69973713 0.07833016 -0.30471277 -0.21618816 -0.012092939 0.045162566 0.5098461 -0.018643014
-0.40046164 0.18666904 -0.3995895 -0.28400943 -0.06985111 0.12512772 1.0090168 0.1679463
-0.100542404 0.30272412 0.05018818 -0.2455884 -0.20059347 -0.097455524 0.08938277 0.017815346
0.10482529 -0.0111759575 0.24860923 0.16207647 -0.20992585 0.22234227 2.2040172 -0.052735906
0.31877962 0.0775747 0.09034031 -0.034995727 -0.0060348934 -0.03363878 -3.0156903 0.51363415
0.3109648 -0.13833112 -0.86135405 -0.13751006 0.0014201982 0.0072088586 -2.5804424 0.025571305
0.12429173 -0.053500544 0.82611924 0.067076705 0.025322625 -0.12038587 1.2735566 0.10929181
-1.0030317 -1.0945183 1.1580657 0.3211381 -0.008280245 0.13073553 0.19522376 -0.69925743
0.014537686 0.29425642 -0.22314271 -0.38135195 -0.27218443 0.12568948 -1.237835 0.032531843
-0.42003733 -0.27190757 0.26577666 0.17765957 0.056939587 0.005519034 0.89250046 -0.5540823
-0.06575235 0.43783164 -0.33868483 0.2947054 -0.25576895 -0.38168308 -0.64731264 -0.07373307
0.43253574 -0.059167337 -0.513878 -0.048624843 0.099975355 -0.12624723 -0.7091392 0.03489989
-0.42474255 -0.48012823 0.12605953 -0.4667722 0.0044300696 0.097894 -2.2292616 -0.35500008
-0.13140324 0.17850775 0.8416376 -0.47492608 0.08056461 -0.069526285 1.1029984 0.10607592
-0.7347595 0.32217383 -0.7267185 -0.34413373 -0.12326814 0.1479187 1.2119151 0.0405409
-0.33441007 0.109146975 -0.04916611 -0.3238226 -0.27774 -0.11095195 0.09055579 -0.20271559
-0.624863 0.36944208 1.437419 -0.13059814 0.060184717 -0.008936035 -1.2670585 0.21609452
-0.71257466 -0.6208056 0.24702267 -0.046978697 0.010736521 0.041328914 -2.6626046 0.058738027
-0.31396264 0.3206756 1.2651929 -0.12415773 -0.03912138 0.03376338 0.39965168 0.11537854
-0.1402529 0.36536676 -0.07210678 -0.5568817 0.08701968 -0.79542327 -1.2144942 -0.36670896
0.112089746 0.4822454 0.4718535 -0.3978959 0.21392506 -0.24615012 -2.1124015 0.24729043
0.71687645 0.06742821 -0.02447395 -0.06885398 -0.1454429 -0.31183863 -0.18967059 0.043804683
0.5181968 0.2766059 -1.6700712 -0.15713106 -0.0008336282 -0.059018362 0.5612911 0.5280945
-0.5715495 -0.36825562 0.85356396 -0.3905955 0.06735371 -0.024471989 -2.0772994 0.023438366
-0.33131826 -0.120279685 -0.41988704 -0.42993572 -0.34267196 0.07654748 -0.942362 -0.32032493
-0.31088373 0.054225698 -0.34812772 -0.16439776 -0.34217823 -0.019601766 -0.2713332 0.03089283
-0.0026072152 -0.13538343 0.722557 0.19524708 -0.13221078 0.057523407 0.88454247 -0.4067428
-0.6705579 -0.31920588 1.0738903 0.37461567 -0.00051075255 0.059971612 0.45703924 -0.4233189
-0.46489584 -0.02350322 0.8893234 -0.4349774 0.010742146 -0.044508886 -0.50653964 0.6540893
00000000: 59f6 b8be 799a ca3d c64c c6be e04d 493e
00000010: 300a 71be 3a7c f73d 3bf0 be3f d821 bcbe
00000020: 6ba1 14bf 1b66 083e e2be 123f 7b0f 92be
00000030: 4701 843b e262 2f3b ec19 f03f 9232 e43e
00000040: 164e 233f 1746 433e 9e34 d43d 43bf db3c
00000050: 9d9e 99bc 4812 e4bc ea07 c23f a4ae 3b3b
00000060: f921 33bf 906b a03d 5003 9cbe 6e60 5dbe
00000070: 7621 46bc 62fc 383d 4685 023f 3cb9 98bc
00000080: 4f09 cdbe 2b26 3f3e ff96 ccbe af69 91be
00000090: 190e 8fbd 7b21 003e 7627 813f 1dfa 2b3e
000000a0: 2de9 cdbd a8fe 9a3e 1f92 4d3d 877b 7bbe
000000b0: 6068 4dbe c396 c7bd 500e b73d 7df1 913c
000000c0: a4ae d63d 5d1b 37bc 6b93 7e3e 60f7 253e
000000d0: cdf6 56be b1ad 633e 9e0e 0d40 9b01 58bd
000000e0: 1537 a33e 7cdf 9e3d 5704 b93d ae57 0fbd
000000f0: 5bc0 c5bb d1c8 09bd 1201 41c0 877d 033f
00000100: c736 9f3e aca6 0dbe b381 5cbf 70cf 0cbe
00000110: f225 ba3a 4a38 ec3b f825 25c0 ea7a d13c
00000120: aa8c fe3d 6323 5bbd 8d7c 533f 835f 893d
00000130: 6571 cf3c de8c f6bd e703 a33f 62d4 df3d
00000140: 5863 80bf 2d19 8cbf 7f3b 943f 376c a43e
00000150: dda9 07bc 89df 053e bde8 473e 8902 33bf
00000160: 792f 6e3c c7a8 963e 867f 64be 9040 c3be
00000170: c25b 8bbe beb4 003e 6171 9ebf 1c40 053d
00000180: 220f d7be 7837 8bbe e113 883e 64ec 353e
00000190: 7c39 693d 03d9 b43b e97a 643f 56d8 0dbf
000001a0: 2ba9 86bd 782b e03e 1968 adbe a0e3 963e
000001b0: 26f4 82be f76b c3be 48b6 25bf 5d01 97bd
000001c0: 5375 dd3e 7359 72bd 828d 03bf d82a 47bd
000001d0: e1bf cc3d f446 01be 268a 35bf 30f3 0e3d
000001e0: db77 d9be 5ed3 f5be c015 013e c4fc eebe
000001f0: 1e2a 913b a67c c83d 39ac 0ec0 92c2 b5be
00000200: 928e 06be bcca 363e 9075 573f 8329 f3be
00000210: 0fff a43d cc63 8ebd 0d2f 8d3f 553e d93d
00000220: 3319 3cbf f8f3 a43e 390a 3abf 4c32 b0be
00000230: 0274 fcbd 0078 173e 0920 9b3f 370e 263d
00000240: cc37 abbe 7388 df3d 6762 49bd 13cc a5be
00000250: f033 8ebe c73a e3bd 5075 b93d ad94 4fbe
00000260: 06f7 1fbf 8327 bd3e 59fd b73f 85bb 05be
00000270: 4084 763d 7368 12bc f92e a2bf e247 5d3e
00000280: 4b6b 36bf 1eed 1ebf 83f3 7c3e bc6c 40bd
00000290: 3ce8 2f3c 8248 293d 1d68 2ac0 4997 703d
000002a0: b6bf a0be 982f a43e d7f1 a13f 6846 febd
000002b0: bd3d 20bd 784b 0a3d 259f cc3e 954b ec3d
000002c0: 759e 0fbe 5a11 bb3e b8ac 93bd cd8f 0ebf
000002d0: 6037 b23d dca0 4bbf 8c74 9bbf 47c1 bbbe
000002e0: 4f8f e53d dee8 f63e c896 f13e 03b9 cbbe
000002f0: 2c0f 5b3e c70e 7cbe 9631 07c0 b439 7d3e
00000300: 3785 373f cd17 8a3d 987d c8bc 5103 8dbd
00000310: fcee 14be 50a9 9fbe 0239 42be 8a6c 333d
00000320: 8ca8 043f 4a9f 8d3e e5c4 d5bf f7e6 20be
00000330: d787 5aba 3dbd 71bd c6b0 0f3f 3331 073f
00000340: 1151 12bf 008c bcbe 2b83 5a3f 22fc c7be
00000350: bef0 893d 7b79 c8bc 79f2 04c0 d101 c03c
00000360: 8ca2 a9be 3255 f6bd 6ffb d6be 8920 dcbe
00000370: b372 afbe edc4 9c3d a33e 71bf a101 a4be
00000380: 272c 9fbe c41b 5e3d cc3d b2be e357 28be
00000390: fc31 afbe e293 a0bc 2fec 8abe f612 fd3c
000003a0: d0dd 2abb f4a1 0abe 7ff9 383f daee 473e
000003b0: 4362 07be aa9d 6b3d 6071 623f 9840 d0be
000003c0: afa9 2bbf f46e a3be 3d75 893f a0cd bf3e
000003d0: 06e4 05ba cba4 753d 0c01 ea3e 41bd d8be
000003e0: d406 eebe d389 c0bc b3aa 633f 5cb5 debe
000003f0: d3ff 2f3c f34e 36bd 95ac 01bf 6572 273f

linear1.bias f4 [256]
-0.43857637 0.2454853 0.29918098 -1.0612092 -0.32533774 0.014305655 -0.339717 -0.20398419
-1.1666464 0.5117051 0.81617016 -0.44480658 0.082232155 0.13421758 -0.72464967 -0.6129895
0.24409603 -0.63228524 0.2259227 0.79049903 -0.02491464 1.4951913 -0.2745237 0.14867127
0.08805527 -1.5630668 0.44030327 -0.9197062 -0.13009451 1.052173 0.6966579 0.19426791
0.15306807 0.78146994 0.16217394 -0.7082567 -1.6030316 1.2926793 -0.7220109 0.23729984
-1.3415442 -0.032317795 0.77377886 -0.17012879 -0.024707926 0.12562034 0.15911303 0.63099253
0.22657928 -0.9728249 0.2269093 0.87803704 -0.41484922 -0.43023732 -0.15897895 -0.08866953
0.21337564 0.19164382 1.1942052 -1.4551349 0.40102363 -0.24654353 0.6033943 0.30122718
-0.4019873 -1.0239956 0.48620236 0.5687096 0.05681336 0.8853837 -0.6511869 0.3028835
0.11557509 0.26753452 -0.19775824 0.050455827 0.23729366 -0.56106955 -0.9979068 0.14654486
-0.5893171 -0.28556365 -0.4895745 -0.5058514 1.0846976 -1.024527 0.3414131 0.12918234
0.17014767 -0.09807926 0.13167295 -0.8050846 -0.0945992 0.20829211 -0.33369166 -0.26178756
-0.007898266 0.023009531 -0.09900404 -0.9299407 -0.12843454 -0.75307316 0.9638064 -0.8885069
-0.4399011 -0.7451869 -1.3441985 -0.67039657 -1.247027 0.27640745 0.5708981 0.12498214
0.33884612 1.2219768 0.31197187 1.0409099 -0.14131743 0.2272721 -0.91640437 0.6208653
0.91977715 0.005552848 -0.1751412 0.443049 -0.6079069 -1.1159252 0.06654209 -0.058786992
-0.9349806 -0.13854772 0.41626835 0.12613788 -0.18369968 -0.97106135 -0.79465216 -0.29492795
0.8536859 -0.22696878 -0.37967274 -0.85938674 -0.13756925 -0.9676065 0.23623286 0.024683919
-0.5501166 -0.3231219 0.29711598 0.11659364 -0.64128727 -0.9349547 0.2836477 0.91459453
0.48886114 -0.4692096 0.47447163 -1.092973 -0.91001195 -0.52457005 0.87508714 0.47257242
-0.38678005 -0.084721655 -0.7065552 0.33078158 0.01043621 0.5267124 -0.027200038 0.2163608
0.38213113 0.03929123 -0.99637365 0.18735549 0.0701199 0.20465739 -0.6851661 -1.0249778
-0.451661 -0.74132955 0.3940154 0.002839671 -1.3929707 0.014931111 -1.2194333 -0.4952244
-0.32324183 0.5513417 0.10562873 0.8680985 -0.9000338 -0.4891443 -0.31251577 -0.425996
-0.14523894 1.1843704 -0.9681479 -0.5699141 -1.3161438 -0.2988763 -0.08419499 0.1577808
-0.55183023 -0.68240047 1.2638979 -0.88876003 0.74144226 -0.12311437 0.021435887 -1.5580825
-0.53076255 -0.033589922 -0.6921965 0.17385565 -0.16678879 -0.4814496 -1.5819136 0.78204685
1.410935 -0.5309624 -1.2340865 -0.052002035 0.13075688 0.4357974 0.6513466 0.41895235
0.099688105 1.054608 -0.42764634 0.21531539 -0.17258851 0.54396296 0.08349313 0.4334353
-0.56730723 -1.357021 -0.36231217 -1.1797364 -0.12751955 -0.5710413 -1.2536733 -0.3060918
-0.07299611 0.49091977 -0.03071264 0.3294161 -1.2422253 -0.045367673 0.07925221 -1.0768871
1.0817646 -0.22439112 0.123226225 -0.55189466 0.20508328 -0.2781452 0.2351901 0.09608705
00000000: 158d e0be 8060 7b3e 402e 993e b4d5 87bf
00000010: ab92 a6be 4462 6a3c 63ef adbe 3be1 50be
00000020: ab54 95bf 1bff 023f 87f0 503f b0bd e3be
00000030: 5569 a83d 5570 093e a482 39bf e1ec 1cbf
00000040: 4ff4 793e 72dd 21bf 4858 673e 255e 4a3f
00000050: c919 ccbc 6e62 bf3f 5f8e 8cbe 483d 183e
00000060: 5256 b43d 9312 c8bf 6e6f e13e de71 6bbf
00000070: 7f37 05be 9bad 863f 2c58 323f 2bee 463e
00000080: e0bd 1c3e 6a0e 483f ed10 263e 5050 35bf
00000090: 2430 cdbf 8476 a53f b5d5 38bf bbfe 723e
000000a0: b8b7 abbf aa5f 04bd 5f16 463f 3e36 2ebe
000000b0: 4768 cabc 9ea2 003e 87ee 223e ba88 213f
000000c0: 6604 683e 0d0b 79bf e95a 683e 09c7 603f
000000d0: 1e67 d4be 1148 dcbe 61cb 22be 5f98 b5bd
000000e0: 257f 5a3e 473e 443e b7db 983f dc41 babf
000000f0: f852 cd3e e875 7cbe 0d78 1a3f 733a 9a3e
00000100: 48d1 cdbe 4a12 83bf 84ef f83e f496 113f
00000110: 20b5 683d 82a8 623f 2fb4 26bf 8c13 9b3e
00000120: a2b2 ec3d 49fa 883e 2381 4abe c5aa 4e3d
00000130: 1cfd 723e 41a2 0fbf d276 7fbf db0f 163e
00000140: 7cdd 16bf 6635 92be 82a9 fabe 7a7f 01bf
00000150: 5fd7 8a3f b323 83bf b3cd ae3e 6048 043e
00000160: 313b 2e3e c7dd c8bd 46d5 063e 061a 4ebf
00000170: 3abd c1bd 874a 553e a2d9 aabe 0509 86be
00000180: bb67 01bc 7c7e bc3c a1c2 cabd 9810 6ebf
00000190: 5884 03be 67c9 40bf 04bc 763f 3075 63bf
000001a0: b83a e1be 92c4 3ebf b20e acbf 1c9f 2bbf
000001b0: 959e 9fbf 4785 8d3e 6126 123f a3f6 ff3d
000001c0: 3d7d ad3e bc69 9c3f c7ba 9f3e 893c 853f
000001d0: 84b5 10be 04ba 683e 7a99 6abf 07f1 1e3f
000001e0: 8476 6b3f aaf4 b53b 3758 33be 52d7 e23e
000001f0: c99f 1bbf a3d6 8ebf 3847 883d a1ca 70bd
00000200: e35a 6fbf 74df 0dbe 2021 d53e 4a2a 013e
00000210: c51b 3cbe 7a97 78bf 536e 4bbf cc00 97be
00000220: 298b 5a3f 816a 68be 7764 c2be c500 5cbf
00000230: f4de 0cbe 0fb5 77bf 07e7 713e ee35 ca3c
00000240: 71d4 0cbf 3c70 a5be 961f 983e a5c8 ee3d
00000250: 672b 24bf 3159 6fbf 453a 913e de22 6a3f
00000260: 024c fa3e 3e3c f0be f2ed f23e 8ae6 8bbf
00000270: 8bf6 68bf 394a 06bf b605 603f 03f5 f13e
00000280: 0908 c6be 8c82 adbd cde0 34bf 345c a93e
00000290: a3fc 2a3c a0d6 063f 9dd2 debc b08d 5d3e
000002a0: b1a6 c33e d7ef 203d 5812 7fbf 1eda 3f3e
000002b0: 069b 8f3d b591 513e 0c67 2fbf 7932 83bf
000002c0: 1c40 e7be c6c7 3dbf 63bc c93e c619 3a3b
000002d0: dd4c b2bf 9ea1 743c 6416 9cbf 0d8e fdbe
000002e0: f47f a5be bb24 0d3f e053 d83d b43b 5e3f
000002f0: 9d68 66bf 1f71 fabe 1102 a0be 261c dabe
00000300: 84b9 14be 7399 973f 8ad8 77bf e4e5 11bf
00000310: 6677 a8bf 5006 99be 6c6e acbd 4a91 213e
00000320: bf44 0dbf ccb1 2ebf 68c7 a13f c785 63bf
00000330: 29cf 3d3f 6323 fcbd 509a af3c 3f6f c7bf
00000340: 0ee0 07bf 9695 09bd ca33 31bf 3707 323e
00000350: aeca 2abe 9080 f6be 257c cabf 3934 483f
00000360: 8599 b43f 27ed 07bf 8cf6 9dbf 1600 55bd
00000370: 22e5 053e d620 df3e a7be 263f ec80 d63e
00000380: 4729 cc3d 65fd 863f 76f4 dabe a37b 5c3e
00000390: 0bbb 30be 2841 0b3f 72fe aa3d 3beb dd3e
000003a0: 0c3b 11bf ddb2 adbf fb80 b9be 9a01 97bf
000003b0: 7c94 02be c32f 12bf 5e78 a0bf 10b8 9cbe
000003c0: fc7e 95bd d659 fb3e 1399 fbbc 3aa9 a83e
000003d0: 3d01 9fbf 74d3 39bd fc4e a23d 70d7 89bf
000003e0: 4377 8a3f c9c6 65be 085e fc3d f848 0dbf
000003f0: 5a01 523e 0c69 8ebe acd5 703e 4ac9 c43d

linear2.weight f4 [256, 256]
0.004409113 -0.049198154 0.010054852 -0.046748273 -0.058362987 0.04339277 -0.04767052 0.024446113
-0.010678997 0.025575643 -0.022843491 0.023781825 -0.07082556 0.012556791 -0.022946564 0.012652514
0.023987971 -0.004041852 0.01690761 0.024702897 0.009163715 -0.10937845 0.053932697 0.04314306
0.053142417 -0.04967968 0.042626806 -0.016035946 -0.02570688 0.045173444 0.024819303 -0.08002711
0.00045747036 -0.07645785 -0.028920976 -0.059687372 -0.069977425 0.03108723 -0.034212597 0.018888604
0.011193371 -0.07811169 -0.09730274 -0.063527815 -0.03418696 0.00830384 -0.053911045 -0.040657636
0.03600151 -0.034936912 -0.059971668 0.019059118 -0.090856835 -0.041114893 -0.021860242 0.021053912
0.0139532015 0.05965799 0.024440309 -0.0035944334 0.029803107 0.048459563 -0.0034063116 0.028787645
-0.056904946 0.025678579 -0.06583307 0.034384288 0.012700491 0.030846046 -0.01071644 0.013984606
0.0016496462 -0.06769034 0.058760513 -0.095255986 0.040978514 -0.046355803 0.0371664 -0.054020617
0.038833436 -0.03560376 -0.0044713444 -0.051905222 -0.050424904 -0.023672845 -0.055306662 -0.055705246
-0.06184332 0.02651146 -0.043867297 -0.092681155 -0.02890023 -0.026745463 -0.03196833 0.05490874
-0.054736547 -0.0688121 -0.022284811 0.014838739 0.0026598957 -0.08938212 -0.04063701 -0.007348636
-0.020131167 -0.047090165 -0.064257875 -0.036098845 -0.066033244 -0.033083964 0.011326192 0.000641248
-0.025042186 -0.0035487683 -0.06772092 0.029612038 0.018489683 -0.045862567 -0.024940718 0.040818434
-0.03285829 -8.3142746e-05 0.012484418 -0.049473405 -0.026962565 0.014694747 0.047515217 0.04720002
-0.0047105197 -0.00025786736 0.013207776 -0.013713334 0.025394207 -0.024078492 0.011640556 0.0043740124
-0.070243925 0.008514239 0.001462258 -0.06674188 -0.03733983 -0.0027775033 -0.002646357 0.015908472
-0.013380541 -0.030913837 -0.047989205 -0.04810451 -0.06009221 -0.083416186 -0.020985201 -0.022130327
0.008919332 -0.04788562 0.012087703 -0.06048134 -0.00806507 0.041385766 0.050425455 -0.041836604
-0.06634106 -0.06987319 0.034795485 0.03546961 0.028197065 0.018805271 -0.07261418 -0.096924186
-0.027156655 0.024396151 -0.043135922 -0.07435952 -0.05788515 -0.032386534 -0.074256785 -0.0889561
0.0020131886 0.010694208 0.03108803 0.027068079 -0.039698515 -0.013097607 -0.0061178263 0.04284086
-0.038238764 -0.06963497 -0.02208216 -0.008389063 0.008936974 -0.03347945 -0.013770635 -0.057491273
0.047651306 -0.01707372 0.033150814 -0.03394796 -0.060207136 0.0003034145 0.01182186 -0.02342602
0.07225951 -0.06425667 -0.035132125 -0.060284246 0.015889823 0.004071422 -0.045550816 0.025818145
-0.025259519 -0.007255782 -0.0032524865 0.01745647 -0.007246898 0.008600235 -0.08716333 -0.046104796
0.015099885 -0.0113950055 -0.088264026 -0.06883835 0.038086854 -0.0436401 -0.087897174 -0.055234738
-0.04281896 -0.04342851 -0.090985134 -0.059316963 0.022317486 -0.015661951 -0.054077417 -0.017719539
-0.02112522 -0.026809243 -0.06443704 -0.08753954 -0.060257 -0.03970965 -0.07335842 -0.050365556
0.054619372 0.007903072 -0.010496968 0.028398272 -0.056967016 -0.091955885 0.026128821 -0.059157003
0.11347482 0.01956451 0.058333382 -0.0949093 -0.014514248 -0.020947041 0.022354614 0.028597984
00000000: 527a 903b 0184 49bd 1bbd 243c 1e7b 3fbd
00000010: 070e 6fbd 9ebc 313d 2a42 43bd 3743 c83c
00000020: f6f6 2ebc 0384 d13c 4622 bbbc 1ad2 c23c
00000030: fe0c 91bd 00bb 4d3c 6ffa bbbc 7d4c 4f3c
00000040: 6c82 c43c 8371 84bb d481 8a3c bb5d ca3c
00000050: 6823 163c cf01 e0bd 88e8 5c3d c7b6 303d
00000060: ddab 593d ec7c 4bbd 7299 2e3d d15d 83bc
00000070: 3c97 d2bc ca07 393d da51 cb3c 41e5 a3bd
00000080: a2d8 ef39 ef95 9cbd afeb ecbc bf7a 74bd
00000090: 5350 8fbd a6aa fe3c 8222 0cbd 46bc 9a3c
000000a0: 6764 373c 06f9 9fbd a946 c7bd df1a 82bd
000000b0: a007 0cbd d40c 083c d4d1 5cbd 9f88 26bd
000000c0: 5276 133d 021a 0fbd daa4 75bd de21 9c3c
000000d0: 2613 babd 1768 28bd 4014 b3bc 4179 ac3c
000000e0: f89b 643c f05b 743d 0b37 c83c 9690 6bbb
000000f0: a525 f43c 897d 463d 6d3c 5fbb 11d4 eb3c
00000100: 2915 69bd e25b d23c 7dd3 86bd 8ad6 0c3d
00000110: b815 503c d9b0 fc3c 0294 2fbc b01f 653c
00000120: f138 d83a 3ca1 8abd ddae 703d 9215 c3bd
00000130: 16d9 273d 95df 3dbd cc3b 183d b944 5dbd
00000140: cf0f 1f3d 40d5 11bd 5b84 92bb 929a 54bd
00000150: 588a 4ebd 8eed c1bc 3d89 62bd 2f2b 64bd
00000160: 6c4f 7dbd 902e d93c 32ae 33bd 9ecf bdbd
00000170: 2dc0 ecbc 4d19 dbbc 39f1 02bd fde7 603d
00000180: 6e33 60bd 5ced 8cbd a38e b6bc 2f1e 733c
00000190: a551 2e3b f90d b7bd fe72 26bd d4cc f0bb
000001a0: 1eea a4bc 9ee1 40bd a299 83bd 62dc 13bd
000001b0: 703c 87bd 0d83 07bd 7e91 393c 6d19 283a
000001c0: 4525 cdbc 7492 68bb 44b1 8abd f294 f23c
000001d0: ad77 973c 63da 3bbd 7a50 ccbc 3b31 273d
000001e0: 6a96 06bd ec5c aeb8 728b 4c3c a0a4 4abd
000001f0: 99e0 dcbc 3cc2 703c 519f 423d cf54 413d
00000200: b45a 9abb 5f32 87b9 6d65 583c e4ad 60bc
00000210: 8307 d03c 4240 c5bc 08b8 3e3c e053 8f3b
00000220: 0cdc 8fbd 4f7f 0b3c 3da9 bf3a f7af 88bd
00000230: a6f1 18bd c606 36bb 816e 2dbb 7c52 823c
00000240: 0e3a 5bbc 043f fdbc 5490 44bd 3c09 45bd
00000250: 4023 76bd 1bd6 aabd 28e9 abbc a94a b5bc
00000260: 6422 123c b623 44bd 800b 463c 48bb 77bd
00000270: 5b23 04bc 1f84 293d ec8a 4e3d dc5c 2bbd
00000280: d2dd 87bd ad19 8fbd b685 0e3d 9548 113d
00000290: 88fd e63c 830d 9a3c beb6 94bd 3080 c6bd
000002a0: a277 debc 70da c73c 4baf 30bd ce49 98bd
000002b0: fb18 6dbd bea7 04bd f113 98bd 9e2e b6bd
000002c0: b3ef 033b c236 2f3c 53ac fe3c e0bd dd3c
000002d0: e99a 22bd 5897 56bc 0c78 c8bb e679 2f3d
000002e0: 40a0 1cbd c79c 8ebd a5e5 b4bc 4872 09bc
000002f0: 636c 123c bf21 09bd 3b9e 61bc f87b 6bbd
00000300: 042e 433d 30de 8bbc 26c9 073d 040d 0bbd
00000310: c29b 76bd 9b13 9f39 7ab0 413c ede7 bfbc
00000320: cbfc 933d 0099 83bd b4e6 0fbd 9dec 76bd
00000330: 602b 823c 9069 853b 7e93 3abd 9380 d33c
00000340: 0ded cebc e9c1 edbb ab27 55bb df00 8f3c
00000350: 6377 edbb 00e8 0c3c b082 b2bd 62d8 3cbd
00000360: 8265 773c 1eb2 3abc c5c3 b4bd 1ffb 8cbd
00000370: f600 1c3d f6bf 32bd 6f03 b4bd d23d 62bd
00000380: ef62 2fbd 18e2 31bd 6a56 babd 58f6 72bd
00000390: 29d3 b63c 7e4d 80bc 4880 5dbd 9128 91bc
000003a0: cc0e adbc 0f9f dbbc 91f7 83bd ee47 b3bd
000003b0: 0bd0 76bd 96a6 22bd f03c 96bd 1d4c 4ebd
000003c0: 90b8 5f3d e37b 013c 7afb 2bbc 7ea3 e83c
000003d0: 3f56 69bd 5e53 bcbd 1c0c d63c 9d4e 72bd
000003e0: 7d65 e83d c045 a03c fcee 6e3d cf5f c2bd
000003f0: 2bcd 6dbc 2199 abbc 0621 b73c 5246 ea3c

linear2.bias f4 [256]
0.050398946 -0.020960096 0.08227553 -0.028435076 -0.011514291 -0.00053037977 -0.071236126 0.031552248
-0.0034130097 -0.06411869 -0.0516243 0.26680374 -0.033586327 -0.024784794 -0.077467464 0.29235855
-0.070288934 -0.06972709 0.0077584763 -0.008053169 -0.013799229 0.0016321699 -0.0016450803 -0.033905327
-0.050181694 -0.020417096 -0.01614462 -0.07744431 0.07834908 0.16486065 -0.044975415 0.1150677
-0.07216706 -0.0066827578 -0.0029740774 -0.050524298 -0.028807173 -0.06805391 -0.011095904 0.03507412
-0.031687677 0.003653154 -0.061731175 0.18329859 0.008448443 -0.0132018365 -0.04461696 -0.063865855
0.6241358 -0.013601576 0.0048980704 0.052099645 -0.052786473 0.055873524 -0.07516257 -0.008419549
-0.093995914 -0.032963462 0.016042488 -0.011029568 -0.00019389953 -0.049448606 -0.060093354 -0.05388111
0.015448446 0.014387131 -0.07966792 -0.025651539 0.1003411 -0.05875452 -0.008031494 -0.06547219
-0.062273838 -0.057047263 0.052176535 -0.026235223 -0.00079883076 0.026861923 -0.0023329563 0.010237527
0.31051666 -0.03988441 -0.031172944 0.031048635 0.047561895 0.014756802 -0.008964887 0.033631124
-0.08232729 0.014694914 -0.03146943 0.044074252 0.015417098 -0.011169743 0.0328796 0.02829426
0.029459702 0.22884293 -0.039666805 -0.0067282114 0.0047958964 -0.07282955 0.084951006 -0.07061631
0.29712194 -0.05404395 0.016194697 0.032527052 0.06303613 -0.0012632625 0.18926199 -0.05619442
-0.027248573 -0.056156125 0.011460042 0.028086798 -0.011023173 0.0045728814 0.036512658 -0.06506091
0.038533967 0.048303057 -0.074755065 -0.02894212 -0.0005555015 0.036754802 -0.04304456 -0.014721116
-0.029092371 -0.056510072 -0.082025476 0.028254434 -0.05889264 0.15181826 0.0019119887 -0.05838189
-0.051677544 0.0056299297 0.010257136 0.0012322939 -0.044108532 0.00213634 0.017453471 -0.08562143
0.024319746 0.099443905 0.061979678 0.03888094 -0.026315462 0.039256934 -0.039381772 -0.02465402
-0.0033270435 0.048707377 -0.061949775 -0.01529904 0.17878129 -0.016840002 -0.053598195 0.010717475
-0.010183174 -0.00860858 0.0034815285 0.06106585 -0.021975514 -0.06556234 0.019726565 0.06213479
-0.06260219 0.040515583 -0.030115016 0.16283557 -0.026610116 -0.0044455663 -0.008817745 -0.020441275
0.036405932 0.16220152 0.0011002506 0.04302642 0.012983967 0.5067499 0.12320481 0.15056853
-0.036239974 0.041874614 0.00010073951 0.0054220506 -0.016594915 -0.024298605 -0.030570278 0.27892423
0.006658095 0.051868673 -0.0044309995 -0.070227236 0.037542112 -0.072609514 -0.059040826 0.01646471
-0.09027829 0.14200827 -0.05397147 -0.008588307 0.041354604 -0.016795736 0.014476583 0.8262274
0.04748712 -0.013275459 -0.00038052222 0.041289166 -0.020066988 0.76982945 0.021650579 -0.033890758
-0.015959814 -0.08663714 0.023397801 0.3453886 -0.039676838 -0.054315064 -0.021923596 -0.0018496865
-0.080766074 -0.105435 -0.021500843 0.017497571 -0.060687482 0.02949809 -0.030617442 -0.058733486
-0.07000714 -0.031543944 0.024141058 0.031739376 0.030927088 0.30803478 0.31976503 -0.043440018
0.02640903 -0.082629375 0.066230096 0.3425549 0.0036549384 -0.07921535 -0.060927287 -0.0153924795
-0.027800065 -0.05418306 0.04983544 0.014683921 0.35829005 1.1002641 0.19457142 0.009537043
00000000: 206f 4e3d 82b4 abbc 1380 a83d adf0 e8bc
00000010: 70a6 3cbc 2f09 0bba 3fe4 91bd ee3c 013d
00000020: cdac 5fbb a950 83bd 0174 53bd 809a 883e
00000030: d191 09bd 7b09 cbbc 43a7 9ebd 05b0 953e
00000040: a5f3 8fbd 14cd 8ebd d13a fe3b 70f1 03bc
00000050: 2916 62bc 89ee d53a bc9f d7ba 50e0 0abd
00000060: 528b 4dbd c141 a7bc b941 84bc 1f9b 9ebd
00000070: 7c75 a03d 3bd1 283e 2438 38bd 9da8 eb3d
00000080: 53cc 93bd 09fb dabb bde8 42bb 91f2 4ebd
00000090: 05fd ebbc d95f 8bbd 98cb 35bc e1a9 0f3d
000000a0: f0ca 01bd c169 6f3b d4d9 7cbd a0b2 3b3e
000000b0: 576b 0a3c 844c 58bc 46c0 36bd 1acc 82bd
000000c0: 5dc7 1f3f 25d9 5ebc fe7f a03b 7066 553d
000000d0: a136 58bd a3db 643d d5ee 99bd 26f2 09bc
000000e0: ee80 c0bd b204 07bd 896b 833c 5cb5 34bc
000000f0: 8251 4bb9 9f8a 4abd 7324 76bd 70b2 5cbd
00000100: 7b1b 7d3c 00b8 6b3c ef28 a3bd 2d23 d2bc
00000110: a27f cd3d 94a8 70bd 8796 03bc 4916 86bd
00000120: da12 7fbd 64aa 69bd 10b7 553d 40eb d6bc
00000130: a068 51ba 890d dc3c 83e4 18bb 4dbb 273c
00000140: 0afc 9e3e d65d 23bd 675e ffbc b559 fe3c
00000150: 43d0 423d 83c6 713c 76e1 12bc cac0 093d
00000160: 369b a8bd f0c2 703c 17e6 00bd 3487 343d
00000170: ff97 7c3c 4c01 37bc c2ac 063d 5dc9 e73c
00000180: 7955 f13c cd55 6a3e a979 22bd 5478 dcbb
00000190: e526 9d3b a927 95bd cbfa ad3d 499f 90bd
000001a0: 5e20 983e 305d 5dbd beaa 843c 163b 053d
000001b0: 1619 813d 0e94 a5ba e5cd 413e 1f2c 66bd
000001c0: 6638 dfbc f703 66bd e6c2 3b3c 4916 e63c
000001d0: 8a9a 34bc 1cd8 953b 4c8e 153d a83e 85bd
000001e0: cbd5 1d3d 6dd9 453d 2f19 99bd 0618 edbc
000001f0: 139f 11ba 348c 163d 7e4f 30bd d630 71bc
00000200: 2053 eebc 1b77 67bd f9fc a7bd d875 e73c
00000210: 6939 71bd 3f76 1b3e b29b fa3a d921 6fbd
00000220: d5ab 53bd 467b b83b 8c0d 283c ec84 a13a
00000230: 26ab 34bd d601 0c3b 95fa 8e3c 4a5a afbd
00000240: 343a c73c 3fa9 cb3d 67de 7d3d 9f41 1f3d
00000250: 8693 d7bc e1cb 203d c84e 21bd 3af7 c9bc
00000260: 870a 5abb 6381 473d 0cbf 7dbd d3a8 7abc
00000270: 7112 373e 0bf4 89bc c889 5bbd 5998 2f3c
00000280: 54d7 26bc 000b 0dbc 5b2a 643b 2f20 7a3d
00000290: fe05 b4bc 8c45 86bd 9b99 a13c 0d81 7e3d
000002a0: 9435 80bd abf3 253d c4b3 f6bc 5ebe 263e
000002b0: 75fd d9bc 1dac 91bb 4e78 10bc 7674 a7bc
000002c0: 631e 153d 2818 263e 4936 903a 793c 303d
000002d0: b4ba 543c 5dba 013f ce52 fc3d a32e 1a3e
000002e0: 5e70 14bd b784 2b3d 1d44 d338 75ab b13b
000002f0: 0ff2 87bc de0d c7bc 856e fabc 28cf 8e3e
00000300: 262c da3b 3f74 543d eb31 91bb 4cd3 8fbd
00000310: c2c5 193d 4cb4 94bd cbd4 71bd 00e1 863c
00000320: d3e3 b8bd 9e6a 113e 3011 5dbd f8b5 0cbc
00000330: 7263 293d 3697 89bc 312f 6d3c a483 533f
00000340: db81 423d 5081 59bc d480 c7b9 d41e 293d
00000350: 8663 a4bc 8b13 453f 8e5c b13c 09d1 0abd
00000360: 28be 82bc d06e b1bd bfac bf3c c6d6 b03e
00000370: 2e84 22bd 7979 5ebd 1d99 b3bc 2e71 f2ba
00000380: af68 a5bd 4eee d7bd 8922 b0bc 1157 8f3c
00000390: 7093 78bd faa5 f13c 6ed1 fabc 8692 70bd
000003a0: e75f 8fbd 3934 01bd 78c3 c53c 2601 023d
000003b0: ce5a fd3c bcb6 9d3e 3eb8 a33e 29ee 31bd
000003c0: c057 d83c 9739 a9bd a5a3 873d 5b63 af3e
000003d0: b187 6f3b a83b a2bd e48e 79bd bd30 7cbc
000003e0: f6bc e3bc 0eef 5dbd 3f20 4c3d d494 703c
000003f0: cb71 b73e 74d5 8c3f bb3d 473e 4241 1c3c

mean_linear.weight f4 [1, 256]
-0.0028613575 0.00029467806 -0.013150119 0.008575006 -0.00244793 -0.0075091063 0.006567101 0.004125049
-0.0023720902 0.009167301 -0.001308776 -0.14625125 -0.0017997232 -0.0088707665 0.0011909655 0.13226792
-0.007443207 -0.01242141 0.0003205325 -0.004487173 0.009170496 -0.007703047 -0.0034844684 -0.007897255
0.0058990363 0.009969087 -0.0008839387 0.0132533675 -0.006089411 0.027906304 -0.01976397 -0.03502189
-0.0027651708 0.002769298 -0.0030407107 0.009989005 0.009108919 0.009555089 -0.008590094 0.0007302537
0.008368093 0.008840342 0.003503516 -0.10775677 0.008556638 -0.0118286805 -0.006552499 -0.0074078944
-0.24375254 0.0057047256 0.0020358413 0.011172194 0.008083111 0.009955334 -0.009721435 0.00920442
-0.0024821912 0.0025151346 -0.003575195 0.0007457142 0.0069545554 0.007061509 -0.00746301 -0.0081808055
0.0022391407 -0.0046490324 0.005073299 0.009414127 -0.057075072 -0.0012022895 -0.0025658642 0.009915106
0.0018564522 -0.004596545 0.0033158436 0.0077157086 -0.009476104 -0.009068424 0.015393637 -0.029074736
-0.0009023711 0.0075365785 0.0065195533 -0.107608 -0.012630535 -0.010945329 0.0032054805 -0.007909735
-0.00026513467 0.0011324245 -0.01111948 -0.0040845773 -0.0031838298 0.0063812523 -0.0024040942 0.012660416
0.009270588 -0.08644204 -0.009467202 -0.0013909467 -0.050922334 0.0077385306 0.0036025469 -0.0005586721
-0.05775606 0.0033353302 0.0009945709 0.012734056 -0.0075956653 0.011565265 0.040466294 0.0036817924
-0.0049546333 0.009546618 -0.013222694 0.004578761 -0.0037279539 0.0073062447 -0.0011511819 0.0013309487
0.0071540405 0.009467889 0.012187162 0.009979933 0.014917588 0.0090046385 0.0009701374 -0.0053338124
0.0007071291 -0.008260088 0.015036584 -0.017757034 0.009727311 0.06221843 -0.0012235161 -0.0032765246
0.005451808 0.008558061 -0.0031677117 -0.0006297309 -0.017063648 -0.010962521 -7.4202476e-06 -0.009308767
-0.008229251 -0.06365218 0.0094370125 -0.0014918927 -0.008781848 -0.038746092 -0.0014499556 0.007859401
-0.01589237 -0.0059764925 -0.018068638 -0.014098815 -0.01904252 -0.0038930504 0.017901365 0.0065756054
0.004047229 4.251196e-06 -0.0031570578 0.007247636 -0.0007877309 -0.01066874 0.008423615 -0.004186157
-0.0054001757 -0.017698243 -0.0036677304 0.0057666292 0.002804477 0.008020791 -0.0067561883 -0.0032048137
-0.020476952 0.008767524 -0.006712587 -0.00096085545 0.003960918 0.026885752 -0.060508825 0.0088150855
-0.0025893827 -0.0049464563 -0.0037738774 0.0034920091 -0.0061645773 0.0074733915 -0.009454487 0.008561689
-0.0051961076 0.016665764 0.00040969872 0.0007645745 -0.0074011763 0.0042083473 -0.009716504 -0.005943295
0.00848575 0.057908464 -0.008387918 0.014283912 0.013401214 0.010912994 -0.004647874 0.09374955
-0.014509605 -0.0020677275 -0.0015473464 0.006338457 0.005591831 0.039994907 0.007647917 -0.0024999406
-0.0064601703 -0.0018043241 0.003391553 -0.04071826 -0.006762705 0.0027701075 0.0019364815 0.0034116113
-0.0045494633 -0.047930162 0.0038499206 -0.009985328 0.008127772 -0.009973265 0.0037851576 0.0014506237
-0.001968316 -0.027234392 -0.0022226432 0.010569573 0.033260256 0.041447118 0.036826182 0.0003972657
-0.009939531 -0.001289612 0.009165686 0.2607323 -0.0017853527 -0.005936397 0.01012909 0.0010724929
-0.005814536 -0.00020416803 -0.0077230465 -0.011460419 0.0658948 0.06001867 0.05737421 -0.003331805
00000000: 9d85 3bbb 057f 9a39 9973 57bc 2f7e 0c3c
00000010: 736d 20bb f30e f6bb d630 d73b 6b2b 873b
00000020: 1275 1bbb 7232 163c 3c8b abba e3c2 15be
00000030: b1e4 ebba b156 11bc 2c1a 9c3a 3e71 073e
00000040: 25e6 f3bb 2b83 4bbc 250d a839 2309 93bb
00000050: d93f 163c d769 fcbb ae5b 64bb 7d63 01bc
00000060: b44c c13b 6255 233c 1fb8 67ba a724 593c
00000070: af89 c7bb c39b e43c 0de8 a1bc 1d73 0fbd
00000080: de37 35bb 1c7d 353b a946 47bb eca8 233c
00000090: 933d 153c f38c 1c3c 77bd 0cbc 7f6e 3f3a
000000a0: 531a 093c 15d7 103c 3f9b 653b 95af dcbd
000000b0: 2431 0c3c 15cd 41bc 58b6 d6bb ecbd f2bb
000000c0: 449a 79be b5ee ba3b c06b 053b 940b 373c
000000d0: 066f 043c b21b 233c a746 1fbc 23ce 163c
000000e0: 42ac 22bb f5d4 243b d24d 6abb 087c 433a
000000f0: 0ae3 e33b 3b64 e73b 448c f4bb c908 06bc
00000100: 8cbe 123b e956 98bb eb3d a63b b63d 1a3c
00000110: 8dc7 69bd 2496 9dba 0f28 28bb f872 223c
00000120: 3354 f33a 9d9e 96bb a04e 593b 0ed4 fc3b
00000130: a941 1bbc ba93 14bc 9835 7c3c 242e eebc
00000140: 198d 6cba 67f5 f63b faa1 d53b 9561 dcbd
00000150: 4ef0 4ebc 0a54 33bc 0a13 523b d597 01bc
00000160: c601 8bb9 dc6d 943a 7b2e 36bc ebd7 85bb
00000170: cda7 50bb d319 d13b 028e 1dbb a26d 4f3c
00000180: aae3 173c 8608 b1bd 531c 1bbc 6d50 b6ba
00000190: f093 50bd 8093 fd3b b518 6c3b da73 12ba
000001a0: 9e91 6cbd 8e95 5a3b 435c 823a 81a2 503c
000001b0: 0fe5 f8bb 3d7c 3d3c fcbf 253d 3a4a 713b
000001c0: 7a5a a2bb 6b69 1c3c 00a4 58bc 6e09 963b
000001d0: b050 74bb 3969 ef3b 41e3 96ba 3a73 ae3a
000001e0: 716c ea3b 341f 1b3c aaac 473c df82 233c
000001f0: e668 743c 3188 133c d250 7e3a 43c7 aebb
00000200: a15e 393a 5255 07bc 015c 763c 3377 91bc
00000210: 4d5f 1f3c c1d8 7e3d 635e a0ba f6ba 56bb
00000220: 15a5 b23b 1c37 0c3c 6299 4fbb 8614 25ba
00000230: 10c9 8bbc 259c 33bc 71fb f8b6 cc83 18bc
00000240: fbd3 06bc 135c 82bd b39d 1a3c 9d8b c3ba
00000250: bde1 0fbc 39b4 1ebd 700c beba b8c4 003c
00000260: b730 82bc 74d6 c3bb ae04 94bc b7fe 66bc
00000270: 0fff 9bbc 8c22 7fbb e2a5 923c 2d78 d73b
00000280: 9e9e 843b 7fa5 8e36 a4e6 4ebb 947d ed3b
00000290: ba7f 4eba f0cb 2ebc 3403 0a3c 082c 89bb
000002a0: f5f3 b0bb e8fb 90bc 4e5e 70bb fef5 bc3b
000002b0: 51cb 373b a369 033c 0463 ddbb da07 52bb
000002c0: 48bf a7bc a9a5 0f3c 43f5 dbbb ebe1 7bba
000002d0: 97ca 813b 823f dc3c 1ad8 77bd 266d 103c
000002e0: a2b2 29bb e215 a2bb 2853 77bb 31da 643b
000002f0: 3900 cabb 5ae3 f43b fee6 1abc 5446 0c3c
00000300: 1c44 aabb a486 883c d5cc d639 ba6d 483a
00000310: 9185 f2bb 2de6 893b f931 1fbc f9bf c2bb
00000320: d107 0b3c 6d31 6d3d 7a6d 09bc 1207 6a3c
00000330: c490 5b3c 6acc 323c 314d 98bb c4ff bf3d
00000340: b2b9 6dbc b682 07bb 54d0 caba d5b2 cf3b
00000350: ae3b b73b b3d1 233d 619b fa3b 0bd6 23bb
00000360: d6af d3bb 127f ecba d144 5e3b 31c8 26bd
00000370: ae99 ddbb b18a 353b 89d1 fd3a 5795 5f3b
00000380: aa13 95bb 6b52 44bd f34e 7c3b 8099 23bc
00000390: 592a 053c e866 23bc 6810 783b db22 be3a
000003a0: ddfe 00bb a91a dfbc c4a9 11bb 012c 2d3c
000003b0: e83b 083d 74c4 293d 0dd7 163d 1a48 d039
000003c0: 6ad9 22bc 3308 a9ba ac2b 163c b47e 853e
000003d0: 7f02 eaba 1b86 c2bb 7cf4 253c e492 8c3a
000003e0: dd87 bebb f015 56b9 9c11 fdbb 7bc4 3bbc
000003f0: daf3 863d 23d6 753d 3801 6b3d 6a5a 5abb

log_std_linear.weight f4 [1, 256]
0.027490698 0.01673866 0.0044093016 0.014046128 0.0024222468 0.0076478356 0.0087396065 -0.00691615
0.0052906587 0.009315309 0.004090017 0.027113676 0.0022256754 -0.009727464 0.0005319417 -0.010086649
0.009806718 0.008429705 -0.0002547725 0.0046646707 0.006621847 -0.009621938 -0.0034138956 -0.00049734046
0.003681357 0.0013792107 0.0009964138 7.874677e-05 -0.0092122145 -0.032203373 0.008108896 -0.020017978
0.0025618286 0.0029461503 -0.0053737583 -0.008507522 0.006690951 0.0066324063 -0.008510936 -0.01579543
0.0020531982 0.009673515 0.006837411 -0.012721362 0.009400918 -0.0048519904 0.010914991 0.0070113274
-0.0172051 0.014212924 0.010520702 0.005090292 -0.008271285 0.008120089 -0.012323637 -0.0015849014
0.005501782 0.0069395383 -0.016128553 0.0003890645 -0.012239885 0.0016363361 -0.0029592502 0.009615567
0.016746199 -0.0054472457 0.00060640567 0.009500645 0.00926791 0.0007592614 -0.004366622 -0.002545608
-0.0012076583 -0.007676607 -0.021242753 -0.006709572 0.010593097 -0.008651616 -0.0052022105 0.013388729
-0.021197783 -0.024103133 -0.020837206 0.06640793 -0.0015704826 0.006945642 -0.00596937 -0.00394918
0.021076147 0.023601305 -0.005834067 0.00671661 -0.00766846 0.0020765013 -0.0073943245 -0.003861235
-0.009383858 0.12111329 -0.009475439 -0.008797151 0.0010727898 0.007801323 0.005210432 -0.00030481425
0.057269122 0.0021977006 -0.0054309713 0.0011200483 -0.025023716 -0.00060808193 -0.0169515 -0.018959718
-0.009924621 0.009462139 0.0054874746 -0.0033584493 0.017867753 -0.007585558 0.010371795 -0.0014644531
-0.0049320194 -0.009420695 0.010467901 -0.007974278 0.0022765815 -0.008395329 -0.0045087887 0.021407198
0.0012845519 0.010167888 0.008193139 -0.01687674 0.0052172993 0.02882635 -0.012861115 0.009458748
0.0033689276 -0.008687507 -0.0013134965 0.0140284 -0.005535393 0.0010328356 -0.00038271278 -0.009607272
0.00916747 -0.013703788 -0.008781533 0.01170749 0.009583791 0.020351313 -0.0020831546 -0.0040754005
0.009018349 0.0025276782 -0.004077959 -0.0029444862 -0.0002736606 -0.02159541 0.008073377 -0.008075688
-0.004738103 0.007237282 -0.0014794532 -0.0049011484 -0.0002638415 0.008498782 0.0046895 -0.005948697
-0.011234299 0.00033416916 -0.0046474207 0.025055168 0.0017897642 -0.007738725 0.010202537 0.00047131797
-0.007253316 0.0016509931 0.0011583804 -0.0017353118 0.002495351 -0.028011538 -0.001589559 0.002346095
0.0017018389 -0.007364173 -0.02322422 0.002054704 0.0006246475 -0.00829816 0.007916755 0.0050151404
0.0003491403 0.005298743 0.0027524421 0.009070006 -0.0059139826 0.0065240487 -0.009129466 -0.0076124934
0.009289315 -0.026057523 -0.014168182 -0.0030813569 -0.005952714 0.0010363166 -0.0075625665 0.007548901
-0.00070185226 -0.010104415 -0.0040621473 -0.014801633 -0.020555194 -0.015532169 -0.009450516 0.014339911
-0.007428904 0.00066148554 0.0025912377 -0.0059564565 -0.0130973235 -0.00074984203 -0.0107626375 -0.0011647462
0.0036851182 -0.014381571 0.0080526415 -0.0023840938 -0.005079042 0.0029365146 -0.013641777 -6.699115e-05
0.004012467 -0.0076459236 0.008474562 -0.0069762412 -0.004953803 -0.016464312 0.014811289 -0.00019435408
-0.0073123053 0.004660818 -0.005220646 -0.000766844 -0.017274914 -0.0012589755 0.006681634 0.0056111286
0.0057911337 0.0031391121 0.0094412 0.0035460314 -0.01107116 -0.009227087 -0.01695781 -0.014677945
00000000: 2c34 e13c 841f 893c e77b 903b bb21 663c
00000010: 8fbe 1e3b b29a fa3b 9130 0f3c dfa0 e2bb
00000020: 435d ad3b 3d9f 183c 8d05 863b 801d de3c
00000030: a3dc 113b f15f 1fbc 0172 0b3a 7942 25bc
00000040: 5bac 203c bf1c 0a3c fc92 85b9 18da 983b
00000050: 14fc d83b 55a5 1dbc aabb 5fbb f45f 02ba
00000060: ec42 713b a2c6 b43a 199a 823a da24 a538
00000070: d4ee 16bc afe7 03bd 2ddb 043c befc a3bc
00000080: 5ae4 273b 3314 413b 5a16 b0bb 2263 0bbc
00000090: c43f db3b a854 d93b 7471 0bbc 6b65 81bc
000000a0: f38e 063b aa7d 1e3c 5c0c e03b 426d 50bc
000000b0: 4f06 1a3c 72fd 9ebb cad4 323c 47bf e53b
000000c0: b6f1 8cbc 53dd 683c 065f 2c3c 77cc a63b
000000d0: 4984 07bc 1f0a 053c 14e9 49bc 77bc cfba
000000e0: 4b48 b43b 1165 e33b 0720 84bc 5afb cb39
000000f0: cc89 48bc 547a d63a fbef 41bb 9c8a 1d3c
00000100: 532f 893c cf7e b2bb 32f7 1e3a 98a8 1b3c
00000110: 6fd8 173c 2c09 473a e115 8fbb 37d4 26bb
00000120: 4a4a 9eba 0c8c fbbb 4805 aebc f8db dbbb
00000130: ab8e 2d3c 82bf 0dbc 4e77 aabb 665c 5b3c
00000140: f9a6 adbc ef73 c5bc cab2 aabc e100 883d
00000150: a7d8 cdba 4598 e33b b49a c3bb 1f68 81bb
00000160: e2a7 ac3c 8657 c13c b32b bfbb 0217 dc3b
00000170: b447 fbbb e915 083b 174c f2bb c60c 7dbb
00000180: c1be 19bc 3f0a f83d df3e 1bbc ed21 10bc
00000190: da9c 8c3a 3ea2 ff3b 46bc aa3b 7acf 9fb9
000001a0: 0793 6a3d 4c07 103b 4af6 b1bb 96ce 923a
000001b0: 89fe ccbc b067 1fba dfdd 8abc 6951 9bbc
000001c0: e19a 22bc 1607 1b3c 46d0 b33b 6e19 5cbb
000001d0: 655f 923c 4690 f8bb 76ee 293c e4f2 bfba
000001e0: c79c a1bb 4259 1abc 8f81 2b3c 8ca6 02bc
000001f0: b332 153b 908c 09bc 76be 93bb 265e af3c
00000200: 695e a83a 3797 263c 843c 063c 1741 8abc
00000210: e1f5 aa3b 3d25 ec3c 6db7 52bc ddf8 1a3c
00000220: 3ac9 5c3b 0c56 0ebc a129 acba 60d7 653c
00000230: 3e62 b5bb 3660 873a d7a6 c8b9 d267 1dbc
00000240: 2833 163c da85 60bc 6be0 0fbc c6d0 3f3c
00000250: 5505 1d3c ccb7 a63c 8985 08bb f08a 85bb
00000260: b3c1 133c 67a7 253b 66a0 85bb 48f8 40bb
00000270: 1b7a 8fb9 dbe8 b0bc 3346 043c e44f 04bc
00000280: 1742 9bbb b926 ed3b 36ea c1ba d099 a0bb
00000290: 3554 8ab9 7a3e 0b3c 61aa 993b 4aed c2bb
000002a0: 1110 38bc 6d33 af39 6449 98bb 7f40 cd3c
000002b0: 8596 ea3a 2195 fdbb 8b28 273c 3a1b f739
000002c0: 3aad edbb 2366 d83a ccd4 973a 6773 e3ba
000002d0: 0b89 233b 7478 e5bc c058 d0ba f1c0 193b
000002e0: 3d10 df3a 294f f1bb b840 bebc 36a8 063b
000002f0: 62bf 233a 01f5 07bc 47b5 013c 0c56 a43b
00000300: d10c b739 14a1 ad3b 5162 343b 5d9a 143c
00000310: 15ca c1bb b0c7 d53b c193 15bc 3972 f9bb
00000320: 3632 183c 9676 d5bc aa21 68bc 97f0 49bb
00000330: fc0e c3bb 04d5 873a 68cf f7bb c55c f73b
00000340: 82fc 37ba fd8c 25bc c31b 85bb 8c82 72bc
00000350: 5e63 a8bc a37a 7ebc 56d6 1abc f2f1 6a3c
00000360: 2a6e f3bb 8b67 2d3a c1d1 293b 612e c3bb
00000370: 2896 56bc 0c91 44ba c655 30bc 66aa 98ba
00000380: 0682 713b aea0 6bbc 3aef 033c 753e 1cbb
00000390: 186e a6bb 8a72 403b c381 5fbc 9a7d 8cb8
000003a0: 037b 833b a88a fabb e4d8 0a3c f498 e4bb
000003b0: 8353 a2bb 2ae0 86bc 0cab 723c 87cb 4bb9
000003c0: 109c efbb c6b9 983b f411 abbb 0806 49ba
000003d0: 1f84 8dbc 3504 a5ba 9cf1 da3b 8fdd b73b
000003e0: 8dc3 bd3b 90b9 4d3b 43af 1a3c 8964 683b
000003f0: d063 35bc 352d 17bc 1beb 8abc c37b 70bc
